models/pretrained/Lit_LeNet_MNIST_epoch=99-val_acc=0.97.ckpt (torch, 500670 bytes, 20 tensors)

momentum_buffer f4 [6, 1, 5, 5]
0.0060991705 0.0032120845 0.0012443291 -0.009976871 -0.023122452 -0.012714978 -0.014908221 -0.005468984
-0.015878787 -0.021416256 -0.014235968 -0.0091124065 0.004851661 -0.0015422571 -0.0127328625 0.011112882
0.006621966 0.009973136 -0.0038084174 -0.013786895 0.015973395 0.0126570705 0.0062801153 -0.018428143
-0.0345971 0.0032744186 -0.015316395 -0.022689087 -0.023052989 -0.033434488 0.0032792287 -0.0063316235
-0.010210899 -0.0037809443 -0.00725925 0.0036514367 -0.00083306467 -0.0009191978 0.0075893616 -0.002471339
0.0014469912 0.00016383581 0.0061473125 -0.003802917 -0.020388568 -0.0011060081 0.0043493295 0.0004256888
-0.013473841 -0.032018133 0.0029171929 -0.0014847005 -0.005173327 -0.023070386 -0.0318756 -0.0010916812
-0.010919688 -0.01491539 -0.030347459 -0.041180648 0.0032586774 -0.019027617 -0.025841687 -0.021388097
-0.02994933 0.0056546116 -0.028991945 -0.028661193 -0.0072052656 -0.0077670566 -0.0055927313 -0.022395078
-0.017817115 -0.007057278 -0.015832903 0.005325923 -0.007934965 -0.010128412 -0.004767206 3.861403e-05
0.0014302687 -0.0038420034 -0.009258553 -0.020950247 -0.030953195 -0.006837286 -0.010672354 -0.022461608
-0.0382647 -0.054168187 -0.0128051955 -0.024018658 -0.027685959 -0.036187824 -0.040565707 0.006451917
-0.013285344 -0.019415446 -0.00999342 -0.0155290235 -0.00085088913 -0.0041880333 -0.00053963164 0.011531418
0.02483365 0.010190297 -0.0009834707 -0.011448167 -0.0023687542 0.0068978155 0.009127575 -0.005968674
-0.005821266 -0.021446766 -0.03435685 0.007501756 -0.0046035633 -0.005473502 -0.031296983 -0.05712572
-0.0044696424 -0.017705426 -0.01921168 -0.034704477 -0.05347012 -0.0067991484 0.003363918 0.00022418005
0.009124814 0.01916398 -0.016787305 -0.011125438 -0.0058591496 0.0045362646 0.013614008 -0.029535936
-0.015676798 -0.0058380207 -0.009186975 -0.010532482 -0.02127222 -0.008614816 -0.0056909937 -0.012343195
-0.014194996 -0.0021523177 0.012459945 0.014966473 0.008601203 0.0024734885
00000000: 8ddb c73b d681 523b c218 a33a 0876 23bc
00000010: 4c6b bdbc 7c52 50bc 9c41 74bc 2a35 b3bb
00000020: 3b14 82bc 2571 afbc fa3d 69bc 344c 15bc
00000030: affa 9e3b 9025 caba 7f9d 50bc ce12 363c
00000040: 14fd d83b 5d66 233c a496 79bb 6ee2 61bc
00000050: a3da 823c 9a5f 4f3c 6dc9 cd3b 9ef6 96bc
00000060: b0b5 0dbd a197 563b 9ef1 7abc 77de b9bc
00000070: 9fd9 bcbc 9af2 08bd 54e8 563b 8279 cfbb
00000080: 9d4b 27bc b8c9 77bb 01df edbb f14c 6f3b
00000090: 0662 5aba 52f6 70ba 2eb0 f83b 30f6 21bb
000000a0: f8a8 bd3a 57cb 2b39 656f c93b 5c3a 79bb
000000b0: ed05 a7bc 79f7 90ba d284 8e3b fc2e df39
000000c0: 63c1 5cbc 7225 03bd 602e 3f3b 489a c2ba
000000d0: 0385 a9bb 1bfe bcbc fd8f 02bd be16 8fba
000000e0: 7ee8 32bc ae5f 74bc 3c9b f8bc 0aad 28bd
000000f0: 898f 553b cedf 9bbc f2b1 d3bc 1736 afbc
00000100: 4c58 f5bc 524a b93b 8480 edbc e1ca eabc
00000110: 261a ecbb cb82 febb 3b43 b7bb e275 b7bc
00000120: 33f5 91bc bd40 e7bb 01b4 81bc 1585 ae3b
00000130: a801 02bc a4f1 25bc 3936 9cbb 80f5 2138
00000140: db77 bb3a 1fca 7bbb 30b1 17bc da9f abbc
00000150: 8e91 fdbc 500b e0bb 19db 2ebc 6801 b8bc
00000160: 72bb 1cbd 76df 5dbd e2cc 51bc c7c2 c4bc
00000170: aacd e2bc af39 14bd 3a28 26bd 9a6a d33b
00000180: c5aa 59bc 240d 9fbc 71bb 23bc 726d 7ebc
00000190: 340e 5fba c53b 89bb 1176 0dba 46ee 3c3c
000001a0: f06f cb3c 34f5 263c cde7 80ba 1891 3bbc
000001b0: 1a3d 1bbb 1207 e23b d38b 153c de94 c3bb
000001c0: 52c0 bebb 21b1 afbc c5b9 0cbd 4ad1 f53b
000001d0: 7dd9 96bb 105b b3bb 4431 00bd a9fc 69bd
000001e0: 1476 92bb f80a 91bc d061 9dbc 4826 0ebd
000001f0: 7c03 5bbd 64cb debb 2e75 5c3b e011 6b39
00000200: 3e80 153c c7fd 9c3c 8885 89bc 7847 36bc
00000210: 1cfe bfbb f2a4 943b 4a0d 5f3c 59f5 f1bc
00000220: a16c 80bc de4c bfbb f784 16bc 6e90 2cbc
00000230: 1443 aebc 2825 0dbc 847b babb 1d3b 4abc
00000240: 2192 68bc e60d 0dbb cc24 4c3c f035 753c
00000250: 0fec 0c3c 401a 223b

momentum_buffer f4 [6]
-0.016331784 0.011730479 0.008933207 -0.023828637 -0.028212342 0.02125115
00000000: 3cca 85bc 3231 403c 965c 123c 4634 c3bc
00000010: 921d e7bc e416 ae3c

momentum_buffer f4 [16, 6, 5, 5]
-0.0021379492 -0.008270258 -0.0026660678 0.0035354136 0.0016349889 -0.011627044 -0.020672277 -0.018173236
-0.009024715 -0.007805954 0.0029707116 0.0054989536 0.012665967 0.017384218 0.009450804 -0.008536053
0.0050763045 0.023594253 0.00239783 -0.006168702 -0.0018889379 0.0060809003 -0.006534216 -0.011234568
-0.00777039 0.00033256086 0.0008894021 -0.014194132 -0.009250931 0.0020561656 -0.012784095 -0.016056908
-0.026832936 -0.020379212 -0.01177192 -0.002889366 -0.021583322 -0.022557357 -0.009600099 -0.0032696265
0.0005486426 -0.011719834 -0.0012197471 0.011272867 -0.0005034413 -0.006628328 -0.003774934 0.010405212
-0.0012604657 -0.0037298603 -0.0038942383 -0.0131172715 -0.01274399 -0.0076978533 -0.007821319 -0.016820986
-0.024506982 -0.021235693 -0.012165608 -0.010387823 -0.007290833 -0.011188403 0.0063827373 0.012470681
0.0027334713 -0.014316492 -0.009058969 0.0031888497 -0.0077361315 -0.016558435 -0.01246964 -0.013577858
-0.017301783 -0.014059953 -0.012427939 -0.0005907782 -0.0136986 -0.01879077 -0.016136084 -0.008891803
-0.0029802753 -0.015581567 -0.014904503 -0.0018211505 0.00016850658 0.0052377763 -0.003164446 0.0072345007
0.01573664 0.0013046461 -0.016719786 -0.010508484 -0.0019058895 -0.0053762966 -0.010091164 -0.007905893
-0.0134159615 -0.010689422 -0.006468577 -0.009263473 -0.010256223 -0.014853066 -0.019985434 -0.010328531
-0.010348922 -0.008754005 -0.013986377 -0.0092509715 -0.0003171626 -0.008376183 -0.015083226 -0.018198546
-0.007163558 0.0018320507 -0.01220461 -0.021467365 -0.018590245 -0.005237334 -0.008943481 -0.017346662
-0.015655532 -0.011599727 -0.0033938584 -0.016799266 -0.013640481 -0.004560625 -0.008837453 -0.0059790416
-0.0014693404 0.00014507142 0.003430781 0.010035946 0.012259834 0.012622585 0.007472237 -8.297921e-05
-0.00032607478 0.004390464 0.0027870901 -0.0032051904 -0.0056886715 -0.015379984 -0.018823553 -0.010012209
-0.008395606 -0.010172993 -0.017068109 -0.0154303 -0.00959443 -0.0076445136 0.0029988424 -0.0016875104
0.00078463205 0.0054166256 0.006954089 -0.0052274363 -0.0054863095 -0.00261686 0.0041222703 0.0014859478
-0.00062414096 -0.0026533634 0.00066612556 0.0043430207 -0.0035125138 0.0027305335 0.00080273784 -0.0023175173
-0.0046114475 -0.012078279 -0.0025942805 -0.0014825661 0.00013096863 -0.0017952826 -0.0050269067 0.017796243
0.013690046 0.0057796636 -0.005987629 0.0054566497 0.00850011 0.007817804 -0.0019931218 -0.0068298816
0.0054532043 0.004227111 0.0023899525 -0.010509861 0.00083625887 0.011950911 -0.0005068814 -0.010549806
-0.006264211 0.0052694743 0.007151611 -0.00014392077 -0.012213053 -0.002566737 0.0066730985 -0.00019769056
0.008898812 0.010778607 0.0020877977 0.007825632 0.014171594 -0.002183931 0.0024534082 -0.0024390165
0.00806226 0.01364109 -0.0019523677 0.0011112684 0.011515096 0.013723757 0.011707821 -0.00079911714
0.0073160836 0.013435635 0.010585899 0.005608254 -0.005872381 0.00849362 0.012878422 0.008215737
0.0057496866 0.0051217685 0.0042484067 -0.0037719808 8.425256e-05 0.010312678 -0.005178675 -0.0033007083
-0.0093402825 0.00081975013 0.008966953 -0.009192774 0.00043287175 0.0018308342 0.0042511956 0.005317299
-0.005086196 0.0037794602 0.0030403654 0.00534602 -0.000620984 -0.00295136 0.0038053489 0.0077986224
0.005645776 -0.0003213518 0.008572702 0.0056373803 0.0031259914 0.00825872 0.013735572 0.00425575
00000000: d61c 0cbb fa7f 07bc 32b9 2ebb 66b2 673b
00000010: 204d d63a 5b7f 3ebc e858 a9bc 0ae0 94bc
00000020: 66dc 13bc 17c9 ffbb 45b0 423b 9130 b43b
00000030: eb84 4f3c 5969 8e3c 8cd7 1a3c cdda 0bbc
00000040: 2157 a63b bc48 c13c e924 1d3b d322 cabb
00000050: 3d96 f7ba 4a42 c73b fa1c d6bb 3211 38bc
00000060: c19e febb 905b ae39 c426 693a 818e 68bc
00000070: 3891 17bc bcc0 063b 6174 51bc c789 83bc
00000080: bfd0 dbbc 4ef2 a6bc 03df 40bc 845b 3dbb
00000090: 82cf b0bc 35ca b8bc bc49 1dbc 3b47 56bb
000000a0: c8d2 0f3a 8c04 40bc ecdf 9fba d5b1 383c
000000b0: 60f9 03ba 7232 d9bb e264 77bb 9f7a 2a3c
000000c0: 3636 a5ba ac70 74bb 7a36 7fbb d3e9 56bc
000000d0: 2bcc 50bc 463e fcbb fd24 00bc 2acc 89bc
000000e0: dec2 c8bc 7af6 adbc 4252 47bc b031 2abc
000000f0: f1e7 eebb 904f 37bc 4826 d13b d451 4c3c
00000100: 0a24 333b b88f 6abc 126c 14bc 05fc 503b
00000110: 607f fdbb 8ea5 87bc 764d 4cbc aa75 5ebc
00000120: 78bc 8dbc b85b 66bc 8e9e 4bbc 74de 1aba
00000130: 1870 60bc 1aef 99bc d22f 84bc edae 11bc
00000140: b950 43bb d449 7fbc 0432 74bc acb3 eeba
00000150: 24b1 3039 a7a1 ab3b 9862 4fbb 640f ed3b
00000160: 20ea 803c a900 ab3a eff7 88bc c72b 2cbc
00000170: 0acf f9ba a52b b0bb 6955 25bc b887 01bc
00000180: 9fce 5bbc af22 2fbc 5bf6 d3bb d2c5 17bc
00000190: b809 28bc 465a 73bc 7eb8 a3bc 0039 29bc
000001a0: 868e 29bc f56c 0fbc 1e27 65bc 6391 17bc
000001b0: d848 a6b9 423c 09bc a31f 77bc 1e15 95bc
000001c0: 48bc eabb 6c21 f03a d8f5 47bc 54dc afbc
000001d0: 924a 98bc f19d abbb ae87 12bc 961a 8ebc
000001e0: 0840 80bc c80c 3ebc 7f6b 5ebb 9d9e 89bc
000001f0: 537c 5fbc 4c71 95bb f7ca 10bc d6eb c3bb
00000200: e296 c0ba 501e 1839 f4d6 603b cf6d 243c
00000210: 79dd 483c f5ce 4e3c abd9 f43b 2005 aeb8
00000220: 04f5 aab9 e2dd 8f3b 9da7 363b 2c0e 52bb
00000230: 0968 babb 54fc 7bbc da33 9abc 400a 24bc
00000240: b98d 09bc a0ac 26bc 6bd2 8bbc 5ecf 7cbc
00000250: f531 1dbc d47e fabb 3a88 443b 742f ddba
00000260: c4af 4d3a f37d b13b 20df e33b ea4a abbb
00000270: 80c6 b3bb a07f 2bbb 1c14 873b 22c4 c23a
00000280: 649d 23ba 0de4 2dbb ee9e 2e3a e64f 8e3b
00000290: 3432 66bb c0f2 323b d36e 523a 7de1 17bb
000002a0: a01b 97bb f9e3 45bc ce04 2abb aa52 c2ba
000002b0: a054 0939 b04f ebba c0b8 a4bb 6dc9 913c
000002c0: 374c 603c 5563 bd3b df33 c4bb b2cd b23b
000002d0: 0c44 0b3c 3f16 003c 099f 02bb 33cd dfbb
000002e0: cbb0 b23b 9483 8a3b c0a0 1c3b 8d31 2cbc
000002f0: 6238 5b3a c1cd 433c 3ce0 04ba 18d9 2cbc
00000300: 0344 cdbb 8eab ac3b 1058 ea3b 70e9 16b9
00000310: 4219 48bc b336 28bb 02aa da3b 284b 4fb9
00000320: 53cc 113c c198 303c 6fd3 083b 1437 003c
00000330: f92f 683c 4820 0fbb 5cc9 203b e8d7 1fbb
00000340: 9217 043c e17e 5f3c 97e6 ffba fba7 913a
00000350: d0a9 3c3c 9cd9 603c 29d2 3f3c d87b 51ba
00000360: c2bb ef3b 2321 5c3c 7b70 2d3c 72c5 b73b
00000370: 1a6d c0bb d328 0b3c 0400 533c 4c9b 063c
00000380: de67 bc3b 82d4 a73b 3836 8b3b 5633 77bb
00000390: c0b0 b038 82f6 283c e0b1 a9bb b250 58bb
000003a0: fc07 19bc 80e4 563a 20ea 123c 4a9d 16bc
000003b0: 10f3 e239 9af8 ef3a 9d4d 8b3b bd3c ae3b
000003c0: 1baa a6bb d2b0 773b de40 473b ab2d af3b
000003d0: 88c9 22ba 9b6b 41bb 2963 793b 968b ff3b
000003e0: 3400 b93b 1c7b a8b9 8574 0c3c c6b9 b83b
000003f0: 6fdd 4c3b 954f 073c 2a0b 613c d273 8b3b

momentum_buffer f4 [16]
-0.025914682 0.019427307 -0.010335218 0.007515991 -0.0037878994 0.03964059 0.0070340806 -0.0065997797
-0.01783059 0.011707416 -0.011848415 -0.006409139 0.0037139414 -0.011529038 -0.0014500516 -0.0023014704
00000000: 074b d4bc 0426 9f3c 0c55 29bc b448 f63b
00000010: 683e 78bb 2c5e 223d 257e e63b f742 d8bb
00000020: 7511 92bc 76d0 3f3c db1f 42bc c103 d2bb
00000030: 9965 733b 4ae4 3cbc a80f beba 44d4 16bb

momentum_buffer f4 [120, 16, 5, 5]
-0.0013844131 -5.899604e-05 0.00016799639 -0.0011087273 -0.0025328505 9.058509e-06 0.0012375568 0.00054392964
-0.002818984 -0.004091061 0.0019874359 5.9440965e-05 -0.0009677985 -0.0042431243 -0.0037949397 -0.00049538375
-0.0014290933 -0.0025299494 -0.0033542635 -0.0046776375 0.001726505 0.0025826409 -7.073695e-05 -0.0020735075
-0.0012934455 0.0019603986 0.0013305347 -0.00038431332 0.00090711325 0.00047682127 0.0028550075 0.0022384694
-0.001126454 0.0010910907 -0.00055138173 0.0019173096 0.0009916958 -0.00044300713 -0.0012257171 -0.0028152093
0.0033497268 0.0013416489 -0.002584185 -0.0015899185 -0.0027903374 0.0024756384 0.0033636158 0.0009603608
-0.002808313 -0.00040178734 0.0010578454 0.0019411624 0.0036168229 0.0031968264 0.0005931824 0.004223069
0.0046397476 0.004737739 0.004857417 0.0015335975 0.0034267672 0.005148568 0.0038534678 0.0061308495
0.00055070024 0.0036038083 0.0043492652 0.0047959904 0.006648063 -0.0011313275 0.0027413885 0.0035903687
0.0052791825 0.0035545423 -0.00378496 0.0006558618 0.0011216598 0.0014590803 -0.0005773768 -0.002669142
0.001323745 0.0022259413 0.00012758427 0.00045530987 -0.0034186174 0.0022311916 0.004277696 0.002699037
0.0016267993 -0.0041710725 0.0011963791 0.0022972752 0.00057780824 -0.001728703 -0.0031141953 -0.00021162792
0.0004819918 -0.0012522624 -0.0027797637 -0.0040946584 -0.00019136278 0.0009623886 0.0021235938 0.0006357492
-0.000751202 0.00018107856 0.0025920419 0.0009912896 0.002384604 0.0014312281 -0.0007078336 0.0039397264
0.002459329 0.004624007 0.003081665 -0.0028793518 0.0031592054 0.004894712 0.003158274 0.0030014948
-0.0029413342 -0.00047594905 0.0028880262 0.005526447 0.0025166268 -0.0045852177 -0.0046958285 -0.003945547
-0.0031415964 -0.0008522043 -0.004325841 -0.0013441032 -0.00047661836 0.0036225785 0.00068140303 -0.0032225926
-0.00044899146 -0.00054420275 0.0010206755 -0.00059486734 -0.003878302 -0.0025150236 -0.0020064875 0.0015282264
0.00059528847 -0.004460183 -0.0036166825 -0.001353896 -0.00025050057 -0.0033335574 -0.0022163875 -0.0017085072
-0.0017219544 -0.0015623719 -0.001968552 -0.00040730496 0.0013315387 0.0013861991 0.002291026 -0.0005424301
0.0016836169 0.0030911416 0.0061082505 0.0019186762 -0.0015496009 0.0036654435 0.0043891454 0.0049261097
0.006448644 -0.0016416083 0.004363483 0.004768137 0.0048711463 0.002260473 -0.004326082 0.0010634043
0.0030683053 0.004316124 0.0044717556 0.00211338 0.00261754 0.0021966104 0.001500231 0.001861441
0.0010487373 9.538431e-05 -0.0010314612 0.0023538156 -0.00023379363 -0.0013334512 -0.0016054744 0.0012741886
0.002449722 -0.0025924374 -0.0019469066 -0.0023068404 -0.0028368304 -0.0027049289 -0.0038822913 -0.0050663063
-0.00302258 -0.0015522812 -0.0014297108 -0.0039949073 -0.0042461157 -0.0005550704 -0.00089240674 -0.0009538029
-0.0039593405 -0.005293023 0.00023173634 -0.001207297 -0.004235286 -0.0034135599 -0.005649406 0.004642104
0.0029751754 -0.0017714665 -0.003549819 -0.004491604 0.0006719136 0.0035675047 0.0033573408 -0.0030474202
-0.004873222 0.0017129809 0.0015884342 -0.0011700911 0.0006060376 0.0021607927 0.00093532936 -0.0033016219
-0.005871167 -0.0023152842 -0.0011594063 0.0018198818 -0.00083228736 -0.0014792731 -0.0026001679 9.655405e-05
0.0028840648 0.0007794127 -0.001581725 -0.0010136261 0.0006910611 0.004815676 0.0033501377 0.0012821222
-0.00060523255 0.0014844381 -0.0013305038 -0.0005858666 -0.00037588394 -0.0018722704 -0.0026543057 9.700627e-05
00000000: 3275 b5ba 8472 77b8 3028 3039 b752 91ba
00000010: 2efe 25bb 00fa 1737 8435 a23a 8096 0e3a
00000020: b4be 38bb 4f0e 86bb a43f 023b 4050 7938
00000030: dcb3 7dba e809 8bbb 86b4 78bb a4dc 01ba
00000040: 6a50 bbba 82cd 25bb 34d3 5bbb de46 99bb
00000050: e54b e23a 8641 293b 9c58 94b8 afe3 07bb
00000060: d488 a9ba 087a 003b 5665 ae3a a97d c9b9
00000070: 57cb 6d3a defd f939 141b 3b3b 49b3 123b
00000080: 86a5 93ba ee02 8f3a 9a8a 10ba 3c4e fb3a
00000090: cafb 813a 6943 e8b9 3ea8 a0ba 607f 38bb
000000a0: 1787 5b3b 44da af3a 6e5b 29bb d064 d0ba
000000b0: 18de 36bb 523e 223b 1c70 5c3b b9c0 7b3a
000000c0: ac0b 38bb fca6 d2b9 67a7 8a3a 9a6e fe3a
000000d0: 3808 6d3b d981 513b cc7f 1b3a ac61 8a3b
000000e0: 0609 983b 093f 9b3b f82a 9f3b fe02 c93a
000000f0: 9d93 603b 52b5 a83b 768a 7c3b 4be5 c83b
00000100: de5c 103a df2d 6c3b 4884 8e3b af27 9d3b
00000110: ffd7 d93b 0d49 94ba dea8 333b 644c 6b3b
00000120: fefc ac3b 53f3 683b 170d 78bb 24ee 2b3a
00000130: a804 933a 9c3e bf3a 1a5b 17ba c6ec 2ebb
00000140: 8381 ad3a 19e1 113b 24c8 0539 a8b6 ee39
00000150: e20a 60bb 2f39 123b ea2b 8c3b 54e2 303b
00000160: 543a d53a 7ead 88bb d2cf 9c3a e28d 163b
00000170: 0e78 173a a695 e2ba 8717 4cbb 70e8 5db9
00000180: d8b3 fc39 f422 a4ba b22c 36bb 7c2c 86bb
00000190: 8ea8 48b9 ce48 7c3a fe2b 0b3b 68a8 263a
000001a0: 50ec 44ba e8df 3d39 3fdf 293b 29ee 813a
000001b0: 0447 1c3b 0c98 bb3a e98d 39ba d218 813b
000001c0: b22c 213b fb84 973b c2f5 493b 82b3 3cbb
000001d0: ac0a 4f3b d263 a03b 0cfb 4e3b bab4 443b
000001e0: 66c3 40bb cd88 f9b9 0a45 3d3b 3317 b53b
000001f0: feed 243b 983f 96bb 77df 99bb a649 81bb
00000200: 3ee3 4dbb 7666 5fba c9bf 8dbb 9f2c b0ba
00000210: a2e2 f9b9 c868 6d3b 2fa0 323a 2232 53bb
00000220: 9d66 ebb9 d4a8 0eba 30c8 853a dff0 1bba
00000230: 1c2b 7ebb 18d3 24bb 467f 03bb c54e c83a
00000240: 220d 1c3a ba26 92bb dd05 6dbb 3675 b1ba
00000250: 9e55 83b9 d077 5abb d040 11bb fdef dfba
00000260: 34b3 e1ba 80c8 ccba d202 01bb 8c8b d5b9
00000270: 0687 ae3a 20b1 b53a 0a25 163b de31 0eba
00000280: cfac dc3a c094 4a3b b827 c83b 177c fb3a
00000290: fa1b cbba f037 703b d2d2 8f3b 346b a13b
000002a0: 264f d33b 3c2b d7ba 8cfb 8e3b 083e 9c3b
000002b0: 239e 9f3b 7224 143b cec1 8dbb ed61 8b3a
000002c0: 9f15 493b 466e 8d3b ce87 923b a280 0a3b
000002d0: 098b 2b3b 02f5 0f3b 66a3 c43a 98fb f33a
000002e0: c975 893a 1009 c838 1832 87ba 7942 1a3b
000002f0: 8026 75b9 33c7 aeba c86e d2ba ad02 a73a
00000300: 848b 203b e2e5 29bb 582f ffba 5c2e 17bb
00000310: 1eea 39bb 2d45 31bb 0a6e 7ebb 4203 a6bb
00000320: 7a16 46bb ea75 cbba 2265 bbba b6e7 82bb
00000330: 0023 8bbb 2582 11ba 67f0 69ba a108 7aba
00000340: 5bbd 81bb 1871 adbb 40fe 7239 2a3e 9eba
00000350: 27c8 8abb 08b6 5fbb a71e b9bb ca1c 983b
00000360: 29fb 423b 8d30 e8ba 15a4 68bb 4e2e 93bb
00000370: 5c23 303a cccc 693b d506 5c3b 3ab7 47bb
00000380: 8daf 9fbb 1a86 e03a 0233 d03a be5d 99ba
00000390: 7fde 1e3a 169c 0d3b e430 753a 0660 58bb
000003a0: eb62 c0bb 06bc 17bb 38f7 97ba 1a89 ee3a
000003b0: dc2d 5aba 2be4 c1ba 9467 2abb 107d ca38
000003c0: 9402 3d3b 8051 4c3a e251 cfba a6db 84ba
000003d0: 5328 353a d1cc 9d3b fc8d 5b3b e20c a83a
000003e0: 78a8 1eba 7a91 c23a 4d64 aeba d894 19ba
000003f0: 4a12 c5b9 f866 f5ba dcf3 2dbb d86f cb38

momentum_buffer f4 [120]
0.005238474 -0.0017147315 0.0029941185 0.0024978286 -0.0018072749 -0.00605767 -0.0010907522 -0.0062206024
0.0013024388 0.00042621035 -0.003501812 -0.0048818067 0.0035174547 0.0036295522 0.00084984896 -0.0016804275
-0.0007006551 0.0012726429 -0.0039716116 -0.0039544352 -0.0024401871 -0.0037396273 0.0025414145 -0.004362626
0.003653966 -0.000964804 4.9956143e-06 0.0073718904 0.0010327476 -0.00019130285 0.0034809287 0.0054654293
-0.0017447378 -0.00061575964 0.0003124299 -0.002025207 0.0007976829 -0.00060756004 -0.001343068 -0.00035516254
0.0064770575 0.005271453 -0.0015915402 0.0016344325 -0.0027876103 -0.005832659 0.006585744 -0.004100793
0.0030858554 0.0028523118 0.0012782691 0.0018774061 0.0028641839 -0.0035492154 0.0009721692 -0.0059562
0.0036938163 -0.0013411923 0.0039810003 0.0031338143 0.00028062484 0.00024202385 0.0036226097 0.0018867903
0.005524725 -0.002234533 -0.0045149494 -0.0030551609 -8.6846296e-05 -0.00010818511 0.0014205343 -0.0014130333
0.00029037974 -7.5982185e-05 -0.0020548818 -0.0015847229 0.00064068194 -0.0022958526 -0.0012897758 0.0030508914
-0.004860983 0.00311825 0.001136155 0.003543341 0.0005376868 -0.0018175901 0.009033511 -0.001775542
0.004106747 0.0025249883 -0.0011358043 -0.0004379591 -0.0027960124 0.0012772854 -0.005738787 0.0010415125
-0.0028791565 0.0015683654 0.0041556326 0.0026768509 -0.00066298177 0.00027499546 -0.0025893222 -0.0009958299
-0.002587475 -0.0023029302 -0.002127496 -0.0008632784 -0.0016866134 -0.0064236764 -0.0016267812 0.0029371036
0.0017199501 -0.005234965 -0.0031133317 0.0021509645 0.0011671565 0.0063920305 0.003938213 0.0023800689
00000000: 81a7 ab3b d7c0 e0ba f938 443b 9cb2 233b
00000010: 15e2 ecba 6b7f c6bb 92f7 8eba 32d6 cbbb
00000020: 98b6 aa3a fc74 df39 a87e 65bb 90f7 9fbb
00000030: 1985 663b c8dd 6d3b 66c8 5e3a ca41 dcba
00000040: 2bac 37ba cfce a63a 4b24 82bb 3594 81bb
00000050: 8ceb 1fbb 8914 75bb dc8d 263b 5cf4 8ebb
00000060: 6077 6f3b e7ea 7cba 00a0 a736 e68f f13b
00000070: 425d 873a 7898 48b9 4b20 643b 5817 b33b
00000080: b0af e4ba ee6a 21ba a2cd a339 56b9 04bb
00000090: 981b 513a aa44 1fba e209 b0ba 1c35 bab9
000000a0: 7f3d d43b 27bc ac3b 3a9b d0ba 743a d63a
000000b0: 57b0 36bb e41f bfbb 3acd d73b f25f 86bb
000000c0: 103c 4a3b daed 3a3b 988b a73a 4c13 f63a
000000d0: 08b5 3b3b f499 68bb 2cd9 7e3a 3a2c c3bb
000000e0: f413 723b f2ca afba 0d73 823b ae60 4d3b
000000f0: d420 9339 c8c7 7d39 4e69 6d3b 2d4e f73a
00000100: c108 b53b 3e71 12bb 24f2 93bb 1839 48bb
00000110: 4021 b6b8 70e1 e2b8 3931 ba3a 8835 b9ba
00000120: 1c3e 9839 a058 9fb8 32ab 06bb 7ab6 cfba
00000130: 70f3 273a 0476 16bb b20d a9ba 77f1 473b
00000140: e248 9fbb 8e5b 4c3b 09eb 943a 6637 683b
00000150: 8df3 0c3a 343c eeba 4b01 143c 4eb9 e8ba
00000160: e491 863b 467a 253b 45df 94ba e09d e5b9
00000170: 4e3d 37bb 966a a73a 6f0c bcbb 5c83 883a
00000180: 3bb0 3cbb 9c91 cd3a f92b 883b 1b6e 2f3b
00000190: f4cb 2dba 442d 9039 9eb1 29bb 8286 82ba
000001a0: a192 29bb c2ec 16bb 766d 0bbb a24d 62ba
000001b0: 5b11 ddba b47d d2bb b839 d5ba 6c7c 403b
000001c0: f36f e13a 128a abbb 0a09 4cbb 32f7 0c3b
000001d0: 46fb 983a 3d74 d13b 200c 813b eefa 1b3b

momentum_buffer f4 [84, 120]
-0.0022187633 -1.858802e-05 -0.00036292488 -0.00016151757 -0.00416283 0.002901844 -0.0008652699 0.00026397887
-0.000184783 -0.00027069816 -0.0023346683 0.0022057234 0.0010680954 -0.0013185183 0.0028622197 -0.00016114753
0.000811267 0.0020870068 -0.0014886821 -0.00095387764 0.0017101027 0.00082637044 -0.0009228224 -0.0017750367
0.00051792664 -0.003550068 0.00030594232 0.0010635487 -0.00085037714 0.0024388642 0.0012364306 0.0010214075
0.0007971337 -0.005448425 0.00095270254 -0.0006468411 -0.0034850189 0.0015977996 0.0019177132 0.0021284632
-0.0021700494 -0.0011724189 -0.0006088838 -0.0059168143 0.0014993611 0.00036580648 -0.001100471 -0.00048351422
-0.00089046126 0.0056535993 0.002880909 0.0005913015 0.0012930739 -0.0024042681 -0.0015464721 0.003359057
-0.00045388704 -0.0023686634 0.0024428237 0.00015006567 -0.002347667 -0.00053746125 -0.0008102089 0.001479524
0.0037911567 -0.0020020802 -0.0009769289 -0.00067883375 -0.0025328603 0.0033791605 -0.0010465502 0.00018024535
-0.0008612809 0.003469859 0.0013063157 -0.004323973 0.00078045065 0.0013417804 -0.001510064 0.0014327426
-0.001545952 -0.0017404186 -0.0022808504 0.0011173451 0.00022980038 0.0024120586 -0.0015581279 -0.00025667797
-0.0031691953 0.0022603127 -0.00050356984 0.0020032995 -0.0011627264 0.0020028078 -0.0021494029 0.0004567251
0.0028083506 0.003431841 4.838599e-05 0.00060204463 -0.00015994319 0.0021704722 -0.0028359422 0.0026848987
-0.00093962863 -0.00016557646 0.00037512043 -0.0011293179 0.00153355 -0.0003878849 -0.0018843841 0.0029347925
-0.0018001543 -0.0019779194 0.0013893 0.0011466176 -0.00383717 0.0020949712 -0.0004952672 -0.0017635386
0.00064943224 0.0013120561 0.00044477775 0.0006278343 0.00044533005 0.0011862057 -0.00067225075 0.002765744
-0.0023547744 0.0006866157 0.0002532113 0.0006598821 -0.0014025556 -0.0002908787 0.0009453774 0.0012218235
-0.0003458415 -0.00054247456 0.00023225724 0.0008218132 -0.0010814185 1.634915e-05 -0.0014939712 0.0001704091
-0.0015179613 0.0015332435 -0.0024607282 -0.0029415174 -0.0025888633 -0.00066158595 -1.0133837e-05 0.0014746587
0.0009153058 -0.001058469 -0.0004339251 0.0015170106 3.9498103e-05 0.0029451316 0.0013300794 0.0010142329
-0.0011006201 -0.0012076681 -0.0003228552 4.4443303e-05 0.0010880112 0.0010757223 -0.0012848934 0.0014792006
-0.0019578324 -0.0009031648 -0.0018867151 4.8284506e-05 -0.0014440462 -0.0007049958 -0.0010834145 0.0013223286
-0.002838688 0.00026207606 -0.0007963796 -0.0029498008 -0.0027249628 0.002029061 -0.000935841 0.00015577051
-0.0012733195 -0.0020414873 0.0017892196 0.0019571227 -0.0018067865 -0.00030240702 0.0008482726 -0.0020653536
0.0016881349 -0.00050552154 0.0021447535 -0.0015140615 -0.00090424845 0.0008420165 -0.0015809871 -0.00064295204
0.0007679635 0.0004318219 -0.0013980065 -0.0019651959 -0.0012786565 -0.00091704004 -0.0032965336 -0.00020822618
-0.0035153418 0.00028562214 0.0005462627 -1.8829725e-05 0.0025246905 -0.0016695701 -0.00024391912 -0.0035535905
0.00056328194 -0.0003301244 7.637507e-05 -0.00017972986 0.0013362388 -0.00043566644 0.002649732 0.0004245033
0.00026409206 0.0007304541 0.0011472668 0.0005497245 0.0014312888 0.0015528083 -0.0007862712 -0.003815399
-0.0020097329 0.00027909275 -0.0016868548 -0.0027881053 -0.00051828154 -0.0026570184 -0.003359099 -0.0022306717
-0.00031099384 0.0015577073 0.0010071378 -0.0010621052 5.2376927e-05 0.0015086621 0.00057340495 0.0013935578
-0.001989806 0.00068229355 -0.0006800573 0.0009364325 -0.0019035637 -5.365081e-05 -0.0025925306 0.0005151011
00000000: ac68 11bb 78ed 9bb7 f446 beb9 0b5d 29b9
00000010: 5968 88bb dd2c 3e3b 48d3 62ba a566 8a39
00000020: 4fc2 41b9 7eec 8db9 3c01 19bb e68d 103b
00000030: 56ff 8b3a 22d2 acba 1494 3b3b b6f9 28b9
00000040: 35ab 543a 2ac6 083b e21f c3ba a50d 7aba
00000050: 8625 e03a c8a0 583a 90e9 71ba 59a8 e8ba
00000060: 78c5 073a 42a8 68bb e266 a039 c666 8b3a
00000070: d8eb 5eba 5ad5 1f3b ba0f a23a c0e0 853a
00000080: bdf6 503a b488 b2bb c9be 793a c590 29ba
00000090: ea64 64bb 426d d13a c75b fb3a b07d 0b3b
000000a0: 6337 0ebb daab 99ba 809d 1fba d6e1 c1bb
000000b0: 3686 c43a b7c9 bf39 ae3d 90ba 2e80 fdb9
000000c0: d86d 69ba d441 b93b a2cd 3c3b 9201 1b3a
000000d0: 5c7c a93a ed90 1dbb feb2 caba a023 5c3b
000000e0: b0f7 edb9 943b 1bbb c817 203b f25a 1d39
000000f0: 51db 19bb 6ae4 0cba 3364 54ba 96ec c13a
00000100: 0e75 783b 5535 03bb 4b0c 80ba c3f3 31ba
00000110: 58fe 25bb e874 5d3b 662c 89ba 3e00 3d39
00000120: 95c7 61ba 9366 633b ae38 ab3a 1db0 8dbb
00000130: 2897 4c3a aede af3a 57ed c5ba ddca bb3a
00000140: 8ba1 caba c21e e4ba 527a 15bb e173 923a
00000150: 92f6 7039 a113 1e3b 193a ccba bc92 86b9
00000160: 46b2 4fbb c121 143b 0002 04ba ca49 033b
00000170: a066 98ba 8a41 033b ffdc 0cbb 9b74 ef39
00000180: 4e0c 383b bde8 603b 10f2 4a38 88d2 1d3a
00000190: 6cb6 27b9 7b3e 0e3b 37db 39bb 20f5 2f3b
000001a0: 6951 76ba 989e 2db9 d0ab c439 9f05 94ba
000001b0: 6601 c93a 085d cbb9 70fd f6ba a655 403b
000001c0: 28f3 ebba fb9f 01bb 2c19 b63a 1a4a 963a
000001d0: 0879 7bbb c94b 093b d2d4 01ba 8926 e7ba
000001e0: a93e 2a3a 4cf9 ab3a 0f31 e939 3f95 243a
000001f0: 307b e939 757a 9b3a fc39 30ba 7c41 353b
00000200: 8f52 1abb 00fe 333a 72c1 8439 f0fb 2c3a
00000210: f5d5 b7ba 1481 98b9 34d3 773a 9825 a03a
00000220: 0f52 b5b9 da34 0eba 148a 7339 f36e 573a
00000230: 62be 8dba 8825 8937 5bd1 c3ba d8af 3239
00000240: 54f6 c6ba 1df7 c83a 2b44 21bb 79c6 40bb
00000250: eba9 29bb 486e 2dba 8004 2ab7 5649 c13a
00000260: 22f1 6f3a 53bc 8aba 7180 e3b9 6ed6 c63a
00000270: c4aa 2538 1c03 413b 0f56 ae3a 02f0 843a
00000280: af42 90ba 9e4a 9eba e444 a9b9 a268 3a38
00000290: 999b 8e3a 40ff 8c3a de69 a8ba bce1 c13a
000002a0: fa4e 00bb 5dc2 6cba a74b f7ba 1885 4a38
000002b0: 2646 bdba 78cf 38ba 5c01 8eba fc51 ad3a
000002c0: 4809 3abb 4167 8939 21c4 50ba 7251 41bb
000002d0: 4a95 32bb fff9 043b 3a53 75ba 5456 2339
000002e0: 83e5 a6ba 79ca 05bb 3f84 ea3a 1243 003b
000002f0: b2d1 ecba 628c 9eb9 9c5e 5e3a e25a 07bb
00000300: 6844 dd3a fa84 04ba fe8e 0c3b 7973 c6ba
00000310: 160b 6dba c5ba 5c3a 2039 cfba c88b 28ba
00000320: 2851 493a 2866 e239 503d b7ba 84ca 00bb
00000330: 9898 a7ba 8465 70ba a80a 58bb 4a57 5ab9
00000340: a661 66bb 8ebf 9539 1233 0f3a 87f4 9db7
00000350: 4775 253b 7ad5 daba 8ac4 7fb9 5be3 68bb
00000360: 36a9 133a 8c14 adb9 8e2b a038 de75 3cb9
00000370: bc24 af3a 296a e4b9 20a7 2d3b de8f de39
00000380: d675 8a39 f27b 3f3a e35f 963a 631b 103a
00000390: 159a bb3a 9a87 cb3a c41d 4eba c60b 7abb
000003a0: b9b5 03bb 3253 9239 7419 ddba a5b8 36bb
000003b0: 49dd 07ba 5f21 2ebb 5424 5cbb 7630 12bb
000003c0: e30c a3b9 fc2b cc3a f001 843a 5636 8bba
000003d0: 4caf 5b38 4dbe c53a 8e50 163a 0aa8 b63a
000003e0: 6867 02bb f2db 323a df45 32ba ec7a 753a
000003f0: 0081 f9ba 1e07 61b8 72e7 29bb da07 073a

momentum_buffer f4 [84]
0.0032564958 0.0033520935 0.0041729985 0.00078064355 0.0010680393 0.0033081751 8.560327e-05 -0.004434291
0.0026220959 0.0016112424 -0.004295381 -0.0018736357 -0.008652354 -0.006544762 0.0038837597 0.0052328566
0.0023149615 -0.002016241 -0.001756906 0.0017040349 -0.00020889653 0.0022371016 0.0036683292 -0.0035197425
-0.0006754007 -0.00045789123 0.0027503744 -0.0017589449 -0.00088559627 0.000980615 0.0030103214 0.00016069296
0.004783429 9.279128e-05 -0.0048392476 -0.00024650904 -0.004658759 -0.002125308 0.0029360254 -0.0050858106
0.00030790007 -0.0044816555 -0.003647213 0.0025493572 0.0026101533 -0.0005313979 0.0013223187 -0.005091727
0.0006106122 -0.007060749 -0.0034472498 0.0023763245 0.0061121257 0.0040052077 -0.0019007587 -0.0020281868
-0.0013980195 -8.598261e-05 0.0037222693 -0.00036623483 -0.001448601 -0.0003845134 0.0002619613 -0.00635585
-6.981427e-06 0.007187555 0.0017972691 -0.0032779481 0.0003806445 9.601403e-05 -0.0041363765 -0.00028600477
0.00013183849 -0.0005490427 0.00038059603 -0.00033602281 0.0017041028 -0.0016634916 -0.0019408361 -0.0005342843
0.0015801939 -0.001834625 0.0035399685 0.0011815752
00000000: ef6a 553b ccae 5b3b a6bd 883b 1aa4 4c3a
00000010: 74fd 8b3a f8cd 583b e885 b338 874d 91bb
00000020: 78d7 2b3b 5330 d33a 44c0 8cbb c894 f5ba
00000030: 9ac2 0dbc 7175 d6bb ad86 7e3b 6278 ab3b
00000040: 9cb6 173b e922 04bb fc47 e6ba ec59 df3a
00000050: 3c0b 5bb9 569c 123b 5a68 703b 7bab 66bb
00000060: 600d 31ba 1f11 f0b9 a03f 343b 668c e6ba
00000070: 5c27 68ba fb87 803a d048 453b b07f 2839
00000080: 50be 9c3b f098 c238 8d92 9ebb e23d 81b9
00000090: 81a8 98bb c048 0bbb 556a 403b dfa6 a6bb
000000a0: a66d a139 dada 92bb 1506 6fbb 1e13 273b
000000b0: 1b0f 2b3b 824d 0bba a751 ad3a 80d8 a6bb
000000c0: 7e11 203a db5d e7bb 41eb 61bb 1cbc 1b3b
000000d0: 3a48 c83b 1e3e 833b e122 f9ba 54eb 04bb
000000e0: c03d b7ba 9051 b4b8 51f1 733b 3503 c0b9
000000f0: fcde bdba 8498 c9b9 da57 8939 bc44 d0bb
00000100: 0042 eab6 9585 eb3b 5892 eb3a d8d2 56bb
00000110: 3d91 c739 245b c938 718a 87bb e9f2 95b9
00000120: 203e 0a39 a2ed 0fba bc8a c739 382c b0b9
00000130: 345c df3a 8409 daba a763 feba 360f 0cba
00000140: 821e cf3a cd77 f0ba d1fe 673b 16df 9a3a

momentum_buffer f4 [10, 84]
0.0024395285 -0.003260293 0.0040444895 -0.00038148815 -0.002084381 0.005397177 -0.001005443 -0.004121673
0.0006691531 0.0031772822 0.0021721935 -0.011104878 0.008739992 0.0061757104 -0.0007734891 -0.013874372
-0.0017212781 -0.007718287 -0.008463209 -0.002209729 -0.0009606428 0.009460857 0.004062957 0.0013788191
-0.002640626 0.00254845 0.006703335 -0.004092727 -0.009286452 0.01085347 0.004106363 -0.00352808
-0.0025842944 0.0026169864 0.01174643 0.0009467205 -0.008410155 -0.00054103124 0.010410115 0.004711921
0.0018526788 -0.0049558217 -0.0057236035 -0.01045278 -0.009624075 -0.002296705 0.0023074797 0.0120473225
-0.0010642067 0.004464667 0.012900393 -0.009822591 0.0019443462 0.008100131 -0.0020257866 -0.003442194
0.0059069106 -0.0087354295 -0.010016071 0.004305676 0.00032807695 0.005521337 0.008209059 0.000342249
-0.009123834 -0.010518188 0.0051377327 0.0012610309 0.005263547 -0.007675668 -0.013089677 -0.010041757
0.0004076074 0.0009728697 0.0076879826 -0.0015957166 -0.00687234 0.0020526063 -0.0031769648 0.00696999
-0.0064357645 -0.0018648976 0.0077142846 -0.00011792878 -0.0019643633 -0.0022720685 -0.0013410572 -4.1404477e-05
0.00687696 0.0013557628 -0.0015635353 0.0010083283 0.0013589899 -0.0060718013 0.0021374298 0.0050961208
0.009768281 0.00043955958 -0.00396087 -0.0069017755 -0.0065320646 0.0058558355 -0.006810266 -0.007080877
-0.010082509 0.0013144093 -0.008991053 -0.0044075362 0.0034912734 0.0020584706 -0.0023697312 0.0048536435
0.0042193728 0.002804258 -0.00037208147 0.0052164695 -0.005400764 0.0024810988 0.0040047835 -0.0053506824
0.0062415972 0.008098592 0.0025919504 0.0018675273 0.00029603875 0.008666054 -0.007479593 -0.00014931089
-0.0022558882 -0.004926117 -0.0057467986 0.0059109 0.003978651 0.0068011954 0.005502067 -0.0017099564
-0.010326004 0.0024250622 0.0050955224 0.000989468 -0.00014223132 0.004875005 -0.0028301938 -0.005899417
-0.002963378 -0.0041103233 0.0074664596 0.010213039 -0.0013751896 0.001544655 -0.006349206 -0.0016070048
-0.006284277 -0.007887678 -0.0054510054 -0.0015078858 0.0048997095 -0.008397475 -0.008897483 0.004435824
0.001612799 0.003347103 0.0023049954 0.0042450316 0.0038340206 -0.0054969676 -0.001817081 -0.0046205814
-0.009533 0.011596925 0.00778428 0.006931711 0.013725504 0.0052146884 -0.009195426 -0.009327959
0.01271936 -0.003388876 0.0014332451 -0.0023259919 -0.006011693 -0.010047771 0.013577518 0.0071530044
-0.009772726 -0.011614042 -0.0031428952 0.011520829 0.00054288923 0.012447954 0.004415945 -0.012125298
-0.0073544853 0.0108309 -0.0018361474 -0.009472813 -0.01131138 0.009882633 -0.0069875107 -0.0010681615
0.010717105 -0.005494422 -0.0066826157 -0.013699397 -0.008809646 0.002899857 0.009934954 -0.013855757
0.008518277 0.018846275 -0.009679135 -6.1877363e-06 0.012872665 -0.007130435 -0.004452572 -0.008434145
-0.011896772 -0.010615639 0.0077024125 0.010624073 0.004112824 0.012773996 -0.005218085 0.010843737
-0.013821448 -0.010640676 0.017300114 0.0063791615 -0.0013878417 -0.014045326 0.015625602 -0.010567074
0.0021603995 0.011763593 0.0031416384 -0.0070904456 0.0005161054 -0.010000564 -0.001199821 -0.000914
-0.0011893748 0.0067967223 0.013304178 0.015248161 0.0140044475 -0.0095021445 -0.014254017 0.010945617
0.0094137415 -0.0077659166 -0.0051994976 3.333765e-05 -0.003533423 -0.007650739 -0.014431115 0.0013429412
00000000: 7fe0 1f3b a4aa 55bb a387 843b 7902 c8b9
00000010: 1c9a 08bb cdda b03b 12c9 83ba 190f 87bb
00000020: 1b6a 2f3a f339 503b 5c5b 0e3b 3cf1 35bc
00000030: 2f32 0f3c 9d5d ca3b fac3 4aba 5551 63bc
00000040: 829c e1ba afe9 fcbb 45a9 0abc 1ad1 10bb
00000050: a6d3 7bba b601 1b3c 8e22 853b 7eb9 b43a
00000060: 5a0e 2dbb e503 273b a6a7 db3b 481c 86bb
00000070: 3426 18bc c1d2 313c ab8e 863b 5c37 67bb
00000080: 445d 29bb bf81 2b3b 1974 403c 562d 783a
00000090: bfca 09bc fed3 0dba 308f 2a3c 7566 9a3b
000000a0: 96d5 f23a 7264 a2bb 118d bbbb 2342 2bbc
000000b0: 4cae 1dbc 5184 16bb 1639 173b 2262 453c
000000c0: da7c 8bba 574c 923b 2c5c 533c efee 20bc
000000d0: 6fd9 fe3a 69b6 043c 0fc3 04bb 6f96 61bb
000000e0: c28e c13b 0c1f 0fbc 721a 24bc a116 8d3b
000000f0: be01 ac39 55ec b43b 4a7f 063c e26f b339
00000100: 227c 15bc 7a54 2cbc 6d5a a83b 2d49 a53a
00000110: d579 ac3b 2c84 fbbb 1676 56bc 2e86 24bc
00000120: 24b4 d539 2e08 7f3a 79eb fb3b 5d27 d1ba
00000130: 5e31 e1bb 0585 063b a034 50bb 8464 e43b
00000140: 1be3 d2bb 946f f4ba 1cc8 fc3b 8850 f7b8
00000150: 8cbc 00bb fce6 14bb 6ac6 afba b8a9 2db8
00000160: 1f58 e13b dab3 b13a 8aef ccba e229 843a
00000170: 2220 b23a f6f5 c6bb 1f14 0c3b 5cfd a63b
00000180: 240b 203c b074 e639 30ca 81bb 4a28 e2bb
00000190: ee0a d6bb 4fe2 bf3b a728 dfbb b406 e8bb
000001a0: 1c31 25bc 4248 ac3a 364f 13bc 186d 90bb
000001b0: d9cd 643b 68e7 063b 7e4d 1bbb 500b 9f3b
000001c0: aa42 8a3b a4c7 373b ee13 c3b9 ebee aa3b
000001d0: e4f8 b0bb ee99 223b 8f3a 833b c754 afbb
000001e0: 5086 cc3b f5af 043c b6dd 293b d1c7 f43a
000001f0: a635 9b39 11fc 0d3c 6017 f5bb 5690 1cb9
00000200: 86d7 13bb 446b a1bb a44f bcbb 39b0 c13b
00000210: 585f 823b 90dc de3b af4a b43b 9e20 e0ba
00000220: 662e 29bc cbed 1e3b 57f8 a63b 09b1 813a
00000230: ee23 15b9 82be 9f3b c67a 39bb e64f c1bb
00000240: 3c35 42bb e4af 86bb 34a9 f43b 9754 273c
00000250: b53f b4ba 0576 ca3a 000d d0bb 22a2 d2ba
00000260: 56ec cdbb 523b 01bc 599e b2bb 40a4 c5ba
00000270: be8d a03b 9095 09bc c0c6 11bc 645a 913b
00000280: 8e64 d33a 125b 5b3b 680f 173b e819 8b3b
00000290: 3144 7b3b e81f b4bb 1f2b eeba 3f68 97bb
000002a0: 4d30 1cbc 0701 3e3c 4613 ff3b 6823 e33b
000002b0: f0e0 603c fadf aa3b 69a8 16bc 4cd4 18bc
000002c0: dd64 503c e817 5ebb badb bb3a ab6f 18bb
000002d0: bcfd c4bb 689f 24bc 3d74 5e3c c063 ea3b
000002e0: c91d 20bc d348 3ebc 08f9 4dbb dcc1 3c3c
000002f0: ae50 0e3a 81f2 4b3c a2b3 903b 30a9 46bc
00000300: e5fd f0bb 1674 313c e2aa f0ba dc33 1bbc
00000310: 5e53 39bc c4ea 213c 7df7 e4bb 8d01 8cba
00000320: cc96 2f3c 8d0a b4bb d8f9 dabb 7073 60bc
00000330: 5556 10bc 870b 3e3b 38c6 223c 4203 63bc
00000340: 3e90 0b3c 8163 9a3c 3c95 1ebc 40a0 cfb6
00000350: dfe7 523c 6da6 e9bb e2e6 91bb 5e2f 0abc
00000360: aeea 42bc 38ed 2dbc 8564 fc3b 9810 2e3c
00000370: dec4 863b 064a 513c 78fc aabb eea9 313c
00000380: 5b73 62bc 3b56 2ebc f8b8 8d3c 4908 d13b
00000390: 3de8 b5ba 5e1e 66bc 4301 803c 8521 2dbc
000003a0: 7d95 0d3b 16bc 403c f2e3 4d3b f856 e8bb
000003b0: 3f4b 073a 68d9 23bc 5043 9dba 8099 6fba
000003c0: cce4 9bba 0ab7 de3b c4f9 593c 6cd3 793c
000003d0: e972 653c e2ae 1bbc ae89 69bc 3f55 333c
000003e0: 183c 1a3c 3b79 febb 8c60 aabb 07d4 0b38
000003f0: 0091 67bb 0db3 fabb 7c70 6cbc a105 b03a

momentum_buffer f4 [10]
-0.0008871036 0.001725093 -0.009578447 0.00010556495 0.012087541 -0.007763653 0.0034366548 -0.0065853614
-0.0029486422 0.0104285665
00000000: 848c 68ba 841c e23a ebee 1cbc c062 dd38
00000010: d20a 463c 3e66 febb 8039 613b 04ca d7bb
00000020: 023e 41bb 94dc 2a3c

conv1.weight f4 [6, 1, 5, 5]
-0.0016458814 0.18618286 0.15860546 0.21797593 0.28324267 -0.12025704 0.17578502 0.19752787
-0.018002538 0.22509596 0.142765 -0.002152722 0.15700908 0.13966405 -0.14240092 -0.06620605
0.10219235 -0.2613253 -0.037367225 -0.2009228 -0.1792083 -0.27897748 -0.26483315 -0.103581466
-0.10100493 0.22399783 0.18123996 0.23185681 0.053719286 0.047510862 0.06475931 -0.06537058
-0.15824907 -0.100132585 -0.2758951 -0.047484666 -0.106219806 -0.17855649 -0.1046626 -0.24658735
-0.11616167 -0.25600064 -0.18447839 -0.23824042 -0.15243821 -0.039144114 -0.014965608 -0.21321505
0.045022953 0.023636298 0.09569874 -0.07914276 0.16769975 -0.17021577 -0.08259428 0.22851343
0.17330736 -0.061039034 0.21036226 0.3355778 -0.04413487 0.18547553 0.0030590005 0.032230183
-0.13336168 -0.031102294 -0.12320911 -0.04034908 -0.081840366 -0.28264982 0.0632404 0.076926716
-0.08300846 -0.035840526 -0.25767154 0.24861352 0.25406113 -0.09133471 -0.15882938 -0.18923944
0.0067193075 0.085628875 0.08137433 0.11435064 0.10452005 0.01423175 0.19205283 0.05313744
0.15124993 0.21002585 0.19469096 0.06076437 0.10274795 -0.075680844 0.065205365 -0.15387778
-0.19109191 -0.24940634 -0.12856287 -0.32985276 -0.09999161 0.18593328 0.12787375 -0.27205977
-0.15068592 -0.14789788 -0.058799863 0.26543376 0.12049798 -0.22492154 0.15796326 0.18795177
-0.09059632 0.0021586919 -0.13712412 0.079686195 -0.03530183 0.054366965 -0.0892482 0.27932233
0.096505895 -0.05052119 0.0325387 0.028272036 -0.30451113 -0.083123356 0.08901295 -0.11521049
-0.046893198 -0.020806411 -0.080033496 0.1724395 -0.15053523 0.08443238 0.18046105 0.2794771
0.037553314 0.22767316 0.10368109 0.16867927 0.14411744 0.2675046 0.2005758 0.13772492
0.10395955 0.2358133 -0.1548059 0.04148694 -0.08489744 0.23017153
00000000: 9eba d7ba b8a6 3e3e 7869 223e 1535 5f3e
00000010: 2f05 913e 5349 f6bd fd00 343e bf44 4a3e
00000020: 0f7a 93bc 8e7f 663e fd30 123e af14 0dbb
00000030: fdc6 203e 1804 0f3e 8cd1 11be 0a97 87bd
00000040: 394a d13d 6ecc 85be 600e 19bd b5be 4dbe
00000050: 6182 37be 23d6 8ebe 3698 87be 8522 d4bd
00000060: acdb cebd b05f 653e f896 393e df6b 6d3e
00000070: c108 5c3d c09a 423d 87a0 843d 03e1 85bd
00000080: 0b0c 22be 5012 cdbd 1f42 8dbe 487f 42bd
00000090: c589 d9bd 83d7 36be 5859 d6bd 6581 7cbe
000000a0: 2be6 edbd 8412 83be e7e7 3cbe 4cf5 73be
000000b0: c318 1cbe 9455 20bd 4f32 75bc 0c55 5abe
000000c0: fd69 383d e9a0 c13c b3fd c33d 9915 a2bd
000000d0: 7cb9 2b3e 0b4d 2ebe 3127 a9bd 6dff 693e
000000e0: 7c77 313e 1104 7abd 3469 573e dad0 ab3e
000000f0: c4c6 34bd 4ced 3d3e 8379 483b cc03 043d
00000100: f78f 08be 3dca febc 0f55 fcbd 1445 25bd
00000110: ec9b a7bd 7ab7 90be 2f84 813d c18b 9d3d
00000120: 5700 aabd 84cd 12bd 86ed 83be 8b94 7e3e
00000130: 4d14 823e b10d bbbd 2ba4 22be fcc7 41be
00000140: a32d dc3b 315e af3d 96a7 a63d ab30 ea3d
00000150: 9c0e d63d 492c 693c 7fa9 443e a5a6 593d
00000160: 43e1 1a3e 0411 573e 115d 473e 0fe4 783d
00000170: 846d d23d 8ffe 9abd 648a 853d 2392 1dbe
00000180: 99ad 43be 6064 7fbe fca5 03be 76e2 a8be
00000190: 67c8 ccbd 4b65 3e3e 56f1 023e 6b4b 8bbe
000001a0: 694d 1abe 8b72 17be 20d8 70bd efe6 873e
000001b0: a5c7 f63d d551 66be 1fc1 213e 6e76 403e
000001c0: 908a b9bd d778 0d3b 446a 0cbe 8432 a33d
000001d0: a798 10bd e5af 5e3d c3c7 b6bd 5603 8f3e
000001e0: e2a4 c53d 4fef 4ebd 4d47 053d c29a e73c
000001f0: e2e8 9bbe 943c aabd 6c4c b63d 7af3 ebbd
00000200: 1513 40bd 3572 aabc 9ae8 a3bd fb93 303e
00000210: e825 1abe e2ea ac3d c8ca 383e 9f17 8f3e
00000220: 81d1 193d 2723 693e c056 d43d 42ba 2c3e
00000230: 8693 133e 5df6 883e be63 4d3e c307 0d3e
00000240: bfe8 d43d 0b79 713e 7085 1ebe 36ee 293d
00000250: b6de adbd 16b2 6b3e

conv1.bias f4 [6]
-0.37440798 0.108482 0.17816044 -0.27437338 0.32836038 -0.24346825
00000000: 67b2 bfbe d02b de3d b16f 363e ab7a 8cbe
00000010: da1e a83e be4f 79be

conv2.weight f4 [16, 6, 5, 5]
0.049060043 0.04570563 0.07325615 0.110636815 0.111843094 0.098067634 0.14012729 0.18461406
0.08725837 0.084213756 0.016605781 -0.03869939 0.022524301 0.019004785 -0.07991128 -0.11998791
-0.13734397 -0.19849457 -0.08678698 0.0677179 0.04750481 -0.026318364 -0.045299243 0.021895744
0.075510904 0.008306619 -0.07717749 -0.095604934 -0.088875555 -0.09714081 0.015703812 0.05419676
0.06771749 0.04093222 0.04089613 0.04985048 0.090945765 0.04652378 0.09910104 -0.044649936
0.011874156 -0.039803393 -0.016297502 -0.002096098 -0.041163865 -0.025798425 -0.023513308 -0.010195412
0.06101711 0.07915569 -0.046817414 -0.12005704 -0.05992269 0.02224993 0.072165765 0.028261123
0.044833716 0.05054446 -0.06337847 -0.05557203 0.011495782 -0.051201697 -0.039909087 -0.17012952
-0.12813166 -0.09073848 -0.01961312 -0.11779522 0.025351707 -0.015174018 -0.068442635 0.012629956
0.0027795006 0.028412042 -0.0064335056 0.008101279 0.13079362 0.087250195 0.15560299 -0.016293054
0.0023814733 0.11321421 0.09608709 0.06847168 -0.013149782 -0.004610587 -0.11844719 -0.094270684
-0.0771423 -0.07624297 0.03920107 0.043862537 -0.102684446 0.05144784 0.030022815 0.08413182
-0.00503999 0.09220693 0.04691885 -0.08330545 -0.072108276 0.055648223 -0.0029008046 -0.022997255
0.068867326 -0.064259686 -0.050942004 -0.055141404 -0.060945258 -0.008638833 -0.123803124 -0.027978735
-0.10412423 -0.061549522 -0.050857604 0.04935054 -0.009458256 -0.09753913 -0.14473766 -0.0052201753
-0.026316244 -0.1071313 -0.10590198 -0.08502644 -8.082813e-05 -0.007237379 0.015522669 0.10535373
-0.026297221 0.028056774 -0.07434688 -0.0043956717 -0.0623901 -0.09633931 -0.03173853 -0.12199776
-0.14019853 -0.1612316 -0.04999713 0.0008395738 0.06848416 -0.05863757 0.033479888 0.02153801
-0.037669674 -0.0051226974 0.05861524 0.09774079 -0.0016282948 -0.03348587 -0.10596011 -0.080954485
-0.050375205 -0.0145208435 -0.07489165 -0.11051183 -0.055368304 0.035817713 0.037410468 -0.09630071
-0.16713668 -0.06546309 -0.020067148 0.003798465 -0.061519902 0.0018033987 -0.06983659 0.02475328
0.05811148 0.063288994 -0.048498176 0.00064762705 -0.0027165888 -0.03149724 -0.082212925 0.082510345
0.026865723 -0.022050956 -0.09647791 0.009385724 0.11671177 0.045361582 -0.018629974 -0.014174299
0.08829726 0.097507484 -0.06845099 -0.09168572 -0.0669314 -0.0888109 0.0949022 0.0154004255
-0.023452805 0.025913687 0.060632538 -0.03251925 0.066672005 0.050894137 0.11049158 0.11237868
-0.027239073 -0.042846836 -0.1343517 -0.059439745 0.051685426 -0.07489889 -0.092562035 -0.10266152
-0.075775325 0.06715737 -0.01718535 -0.13505603 -0.0453572 0.065518305 0.027437717 -0.018052908
-0.025989322 -0.09116235 0.082275175 0.121903494 -0.032715183 -0.022491965 -0.005664157 0.04925305
-0.077015094 -0.004456197 -0.1043546 0.008405304 -0.08324791 -0.006848196 -0.07225862 -0.07080443
-0.060518637 -0.02830328 -0.04208807 -0.053663705 -0.08303575 0.01547005 0.02794343 0.036596056
0.016296642 -0.023861302 -0.024725627 0.014695171 -0.042365156 -0.10599135 -0.07615229 0.042444486
0.03893603 -0.07202786 0.025529515 -0.11259956 -0.06048488 -0.073591575 0.025190324 -0.108669676
00000000: 2ff3 483d d435 3b3d 5207 963d 8e95 e23d
00000010: fe0d e53d afd7 c83d 877d 0f3e 780b 3d3e
00000020: 84b4 b23d 4378 ac3d d908 883c 4083 1ebd
00000030: e284 b83c ecaf 9b3c 86a8 a3bd 39bc f5bd
00000040: e6a3 0cbe 2942 4bbe 5fbd b1bd afaf 8a3d
00000050: 6794 423d 9c99 d7bc b38b 39bd b45e b33c
00000060: 76a5 9a3d 7c18 083c 3b0f 9ebd 85cc c3bd
00000070: 6304 b6bd c3f1 c6bd 48a5 803c 6cfd 5d3d
00000080: 78af 8a3d 8ba8 273d b382 273d 0430 4c3d
00000090: c641 ba3d b88f 3e3d 7cf5 ca3d dae2 36bd
000000a0: d28b 423c e208 23bd 5782 85bc b05e 09bb
000000b0: 719b 28bd 3857 d3bc fb9e c0bc a80a 27bc
000000c0: 14ed 793d 611c a23d 9ec3 3fbd 77e0 f5bd
000000d0: 7f71 75bd 7c45 b63c a5cb 933d df83 e73c
000000e0: 8fa3 373d b507 4f3d 92cc 81bd 7f9f 63bd
000000f0: ce58 3c3c dfb8 51bd b677 23bd 6f36 2ebe
00000100: f234 03be 19d5 b9bd b2ab a0bc 9f3e f1bd
00000110: 62ae cf3c 729c 78bc a72b 8cbd e0ed 4e3c
00000120: 4828 363b 5fc0 e83c 28d0 d2bb 3abb 043c
00000130: c3ee 053e 3bb0 b23d 6456 1f3e 0379 85bc
00000140: 7e12 1c3b dadc e73d 4fc9 c43d e13a 8c3d
00000150: 2f72 57bc 6814 97bb 7194 f2bd fd10 c1bd
00000160: c8fc 9dbd 4625 9cbd 4d91 203d 34a9 333d
00000170: 394c d2bd f8ba 523d 68f2 f53c 4e4d ac3d
00000180: 8026 a5bb fdd6 bc3d fb2d 403d 0c9c aabd
00000190: 81ad 93bd 64ef 633d 6d1b 3ebb bd64 bcbc
000001a0: 500a 8d3d 959a 83bd 90a8 50bd f4db 61bd
000001b0: bca1 79bd e489 0dbc 7e8c fdbd a933 e5bc
000001c0: 163f d5bd 5a1b 7cbd 1050 50bd cb23 4a3d
000001d0: cdf6 1abc 98c2 c7bd 1c36 14be 010e abbb
000001e0: 2a95 d7bc a867 dbbd 23e3 d8bd 5822 aebd
000001f0: 4682 a9b8 8927 edbb cb52 7e3c b2c3 d73d
00000200: 456d d7bc 52d7 e53c 2d43 98bd 9109 90bb
00000210: c38c 7fbd 8b4d c5bd 4300 02bd f6d9 f9bd
00000220: 3490 0fbe e619 25be cac9 4cbd d816 5c3a
00000230: 6c41 8c3d f32d 70bd 3522 093d 7b70 b03c
00000240: 844b 1abd 4ddc a7bb 8916 703d 532c c83d
00000250: 826c d5ba 7b28 09bd 9d01 d9bd 77cb a5bd
00000260: 3b56 4ebd d5e8 6dbc cb60 99bd 0754 e2bd
00000270: e0c9 62bd 98b5 123d b83b 193d 4f39 c5bd
00000280: e125 2bbe 8311 86bd dc63 a4bc abef 783b
00000290: 4bfc 7bbd 0560 ec3a 7c06 8fbd 64c7 ca3c
000002a0: 4e06 6e3d a99d 813d 06a6 46bd 84c5 293a
000002b0: cc08 32bb 4003 01bd 405f a8bd 2ffb a83d
000002c0: 8115 dc3c 35a4 b4bc 3696 c5bd 94c6 193c
000002d0: 9506 ef3d 11cd 393d e39d 98bc 523b 68bc
000002e0: 32d5 b43d 01b2 c73d 0830 8cbd b9c5 bbbd
000002f0: 5413 89bd 7de2 b5bd 165c c23d 1152 7c3c
00000300: 1920 c0bc f148 d43c d359 783d e832 05bd
00000310: 558b 883d 5f76 503d 6949 e23d cb26 e63d
00000320: 7a24 dfbc 2a80 2fbd 7e93 09be 1777 73bd
00000330: 19b4 533d 9764 99bd 2a91 bdbd 3440 d2bd
00000340: 1830 9bbd ce89 893d 4bc8 8cbc 214c 0abe
00000350: 79c8 39bd 762e 863d 10c5 e03c b1e3 93bc
00000360: 8fe7 d4bc 53b3 babd e37f a83d 8aa8 f93d
00000370: 5b00 06bd 1241 b8bc 659a b9bb 91bd 493d
00000380: 17ba 9dbd 4a05 92bb ddb7 d5bd 66b6 093c
00000390: e17d aabd d566 e0bb 54fc 93bd ea01 91bd
000003a0: 64e2 77bd 48dc e7bc 8a64 2cbd 79ce 5bbd
000003b0: a60e aabd 1876 7d3c 9fe9 e43c bfe5 153d
000003c0: 8980 853c c778 c3bc 668d cabc 04c4 703c
000003d0: 1687 2dbd fe11 d9bd bbf5 9bbd 45da 2d3d
000003e0: 637b 1f3d 5883 93bd 4623 d13c 999a e6bd
000003f0: febe 77bd 2eb7 96bd f05b ce3c 358e debd

conv2.bias f4 [16]
-0.21119082 -0.061671752 -0.039175566 -0.065237485 -0.0033239666 -0.0674922 -0.03604583 -0.14881818
-0.17518891 -0.07773344 -0.041745685 -0.10356572 -0.0010159864 -0.06796122 -0.05549236 -0.018907242
00000000: 6842 58be 859b 7cbd 8f76 20bd 3b9b 85bd
00000010: e8d6 59bb 5a39 8abd cba4 13bd cb63 18be
00000020: b964 33be b632 9fbd 86fd 2abd 441a d4bd
00000030: d92a 85ba 412f 8bbd f54b 63bd 5ce3 9abc
