models/pretrained/Lit_LeNet_MNIST_random_U-val_acc=0.86.ckpt (torch, 500676 bytes, 20 tensors)

momentum_buffer f4 [6, 1, 5, 5]
-0.067622796 -0.1315526 -0.059056673 -0.060594708 -0.100596525 -0.091044694 -0.10556384 -0.10518274
-0.096561454 -0.11167824 -0.07746008 -0.06452769 -0.0858867 -0.10274145 -0.067309685 0.011952596
0.017857527 0.005064837 0.036337417 0.021608379 0.041175134 0.024416698 0.014073685 -0.008090129
0.018906238 -0.0038639582 0.014844634 0.009654615 0.015131764 -0.010685185 0.004830119 0.020477537
-0.003777542 0.009390142 -0.019467723 -0.010714959 -0.0010672081 0.007981289 -0.0011911315 -0.011680987
-0.010550059 0.02014425 0.015877087 0.0028480887 -0.030650921 -0.009869861 0.0015630638 0.03476569
0.0200374 0.0048172157 -0.1027762 -0.08258958 -0.051709026 -0.10398489 0.15869924 -0.120111436
-0.07318598 -0.10236296 0.014857501 0.03293979 0.028962478 0.12948516 0.105201945 0.08547132
0.061938703 -0.09418917 0.12552732 0.006362036 -0.031695515 0.069374695 0.060179934 -0.017587796
0.1262267 -0.14477544 0.106282026 0.5959841 0.53110695 0.40883577 0.6148254 0.9193933
0.53533244 0.7270795 0.44224298 0.27272594 0.40362763 0.14855123 0.50031304 0.3727653
-0.121955514 0.52094483 0.2674092 0.23214674 0.70183957 0.23866105 0.26823878 0.20332551
0.27557027 0.42577875 0.4734161 0.38203502 1.2192746 1.0880096 1.0517282 1.1007538
1.4549596 1.1903201 1.7951636 1.5337384 1.1354634 1.4500316 1.2775855 1.2819278
1.4111146 1.7158377 1.4934516 1.2106453 1.3359085 1.281402 1.5068436 1.60809
1.3943493 1.4873394 1.2464972 1.3654258 1.649596 -0.47819048 -0.530444 -0.5682416
-0.28099096 0.07281554 -0.44619662 -0.32401866 -0.2293573 -0.45241916 0.053407192 -0.43678486
-0.30390686 -0.12333506 -0.38536316 -0.33563894 -0.5362385 -0.4277029 -0.4590658 -0.18792981
-0.26261747 -0.2949425 -0.2662148 -0.34251517 -0.5725154 -0.25088137
00000000: d27d 8abd bab5 06be 69e5 71bd 2832 78bd
00000010: 8d05 cebd a475 babd db31 d8bd 0c6a d7bd
00000020: 03c2 c5bd 90b7 e4bd 64a3 9ebd 1827 84bd
00000030: 5ee5 afbd 1c6a d2bd a9d9 89bd d2d4 433c
00000040: f349 923c eff6 a53b 8bd6 143d 0e04 b13c
00000050: 42a7 283d 8705 c83c 5095 663c 768c 04bc
00000060: 41e1 9a3c 763a 7dbb e836 733c 642e 1e3c
00000070: 38eb 773c ea10 2fbc fa45 9e3b 82c0 a73c
00000080: a390 77bb 1cd9 193c c67a 9fbc cc8d 2fbc
00000090: 90e1 8bba f4c3 023c be1f 9cba 9c61 3fbc
000000a0: 28da 2cbc 8e05 a53c aa10 823c 00a7 3a3b
000000b0: a417 fbbc 33b5 21bc b8df cc3a 7866 0e3d
000000c0: 7925 a43c bcd9 9d3b 547c d2bd ba24 a9bd
000000d0: d8cc 53bd 08f6 d4bd 0e82 223e fcfc f5bd
000000e0: 88e2 95bd aca3 d1bd e06c 733c e0eb 063d
000000f0: b842 ed3c c297 043e 1e74 d73d 960b af3d
00000100: 70b3 7d3d 40e6 c0bd 3c8a 003e a078 d03b
00000110: 28d3 01bd 5214 8e3d 3c7f 763d 4814 90bc
00000120: 9241 013e 0340 14be 64aa d93d 6a92 183f
00000130: a0f6 073f ec52 d13e 3365 1d3f 5c5d 6b3f
00000140: 8c0b 093f e221 3a3f ac6d e23e bca2 8b3e
00000150: 48a8 ce3e d01d 183e 8414 003f 18db be3e
00000160: d0c3 f9bd a45c 053f dce9 883e e0b7 6d3e
00000170: c2ab 333f 9063 743e 9856 893e 9034 503e
00000180: 8c17 8d3e acff d93e 9863 f23e 189a c33e
00000190: 3111 9c3f e643 8b3f 089f 863f 80e5 8c3f
000001a0: 1e3c ba3f 695c 983f ecc7 e53f 8a51 c43f
000001b0: dd56 913f a39a b93f ec87 a33f 3616 a43f
000001c0: 679f b43f 92a0 db3f 6c29 bf3f 6df6 9a3f
000001d0: 0dff aa3f fb04 a43f 40e0 c03f e5d5 cd3f
000001e0: 0a7a b23f 2361 be3f 388d 9f3f 46c6 ae3f
000001f0: f625 d33f 62d5 f4be 2ecb 07bf 4878 11bf
00000200: 0cde 8fbe 5020 953d e273 e4be c6e5 a5be
00000210: a4dc 6abe 7ca3 e7be 80c1 5a3d 44a2 dfbe
00000220: ae99 9bbe 1897 fcbd 524e c5be ded8 abbe
00000230: ed46 09bf e0fb dabe ac0a ebbe ac70 40be
00000240: cc75 86be b402 97be 4e4d 88be 265e afbe
00000250: 5f90 12bf 8673 80be

momentum_buffer f4 [6]
-0.0009328063 0.0015978947 0.013615425 0.034422502 -0.020430787 0.010882719
00000000: 9287 74ba 7370 d13a 3b13 5f3c 9cfe 0c3d
00000010: 775e a7bc 6f4d 323c

momentum_buffer f4 [16, 6, 5, 5]
0.0007702471 -0.012855681 -0.0026124753 -0.0016409699 0.002207817 0.009413262 -0.0057924814 0.008236581
0.0026691006 0.001559657 -0.008090774 0.0030788602 0.0026822188 -0.0046230424 -0.00042568333 -0.008815355
-0.011571757 0.0026572933 0.00040128175 -0.002011571 -0.0038933023 0.010537598 0.0061409455 0.008618211
-0.0029056554 -0.0029544705 -0.004722539 -0.00874618 -0.007473536 -0.005632847 -0.0017059371 -0.008946373
0.003833484 -0.001011312 -0.0071072914 -0.0022201245 -0.0073542683 0.00080385525 -0.0029656526 -0.004536322
-0.0029649339 -0.00886335 -0.002449845 -0.009787857 -0.009416753 0.0042310455 -0.0004669982 -0.00797243
0.0015373817 -0.0059184884 0.026441477 0.020543776 0.029413046 0.007879898 0.03273306 0.033615053
0.04872094 0.004051475 0.030789115 0.009580336 0.06267351 0.05749289 0.053371623 0.035496093
0.037005804 0.04848981 0.017171698 0.042329103 0.027489414 0.0028624027 0.05040684 0.026696354
0.0102808485 0.022569327 0.016944 0.013177725 0.036216542 0.051672988 0.040443733 0.043055
0.03666435 0.038072675 -0.014646854 0.032325685 0.030582152 0.013165037 0.045233313 0.020787453
0.021904584 0.02614273 0.002829943 0.033673152 0.024641816 0.014139742 0.024248447 0.0405174
0.049629126 0.03401797 0.032191247 0.010975117 0.05573465 0.014365414 0.03168071 0.027695356
0.015758362 0.03585793 0.033979103 0.005743461 0.050061032 0.004894188 0.029850695 -0.013285779
-0.009210445 0.029755462 0.015918475 0.03351384 0.05578781 0.051119447 -0.030041955 0.03030588
0.031250216 0.03600952 0.016903495 0.016709285 -0.00069520174 0.034264658 0.033542108 0.050113443
0.04007966 0.031104617 0.047820274 0.03409578 0.04551541 0.039569795 0.041393157 0.011742097
0.018384473 0.032043878 0.04143695 0.038430497 0.017037986 0.02894497 0.030535843 0.035765756
0.021466732 0.051381208 0.014282137 0.034060847 -0.010903398 0.018960582 -0.023288175 -0.02422142
-0.026611404 -0.022032779 -0.015734037 -0.011531963 -0.021933598 -0.024631822 -0.017713275 -0.02788089
-0.022219438 -0.020068109 -0.019240675 -0.020840347 -0.016894054 -0.016363382 -0.016894277 -0.0141748795
-0.021107234 -0.017767722 -0.028411996 -0.023866598 -0.015820814 -0.027976323 -0.02883707 -0.02412274
-0.020973742 -0.019888122 -0.014324358 -0.015219134 -0.021225465 -0.018183779 -0.018138463 -0.017383764
-0.016382523 -0.023472155 -0.018179955 -0.021154307 -0.009084303 -0.012069688 -0.0150026865 -0.01418867
-0.010186121 -0.007171106 -0.011764951 -0.016103815 -0.020346556 -0.016599959 -0.015308583 -0.013953194
-0.0041579595 -0.000742387 -0.030655868 -0.005894933 -0.019850645 -0.022662103 -0.025836943 -0.018574785
0.0043610674 0.009007009 0.0077581527 0.025086196 0.0055236258 0.017626883 0.0036390608 -0.028819012
-0.02384078 -0.027114604 -0.00051202066 -0.0059258533 -0.008487656 0.0031564825 0.01308441 -0.0012863335
-0.021030724 -0.013342975 0.018785292 -0.013358328 -0.020725496 0.000640295 0.016891997 -0.0003017881
-0.037454907 0.023059972 -0.00062764995 0.032232203 0.009468733 -0.002501435 0.027486032 0.016993834
0.0335204 0.009925331 0.021239495 0.009270088 0.011580711 0.004640132 0.0138651505 0.009388309
0.053716406 -0.007205447 0.0041643316 -0.013514999 0.04812465 0.01418218 -0.010395611 0.026519656
00000000: 68ea 493a a2a0 52bc 1036 2bbb d015 d7ba
00000010: 06b1 103b 153a 1a3c dbce bdbb baf2 063c
00000020: 14ec 2e3b 686d cc3a 2a8f 04bc b4c6 493b
00000030: 2ac8 2f3b e47c 97bb 402e dfb9 476e 10bc
00000040: 7797 3dbc fc25 2e3b 2063 d239 90d4 03bb
00000050: c626 7fbb e4a5 2c3c fc39 c93b 6633 0d3c
00000060: cf6c 3ebb ca9f 41bb 87bf 9abb 234c 0fbc
00000070: 90e4 f4bb bf93 b8bb c099 dfba cf93 12bc
00000080: 303b 7b3b 008e 84ba 48e4 e8bb 827f 11bb
00000090: 13fc f0bb d0b9 523a 655b 42bb 6da5 94bb
000000a0: 564f 42bb 9637 11bc 948d 20bb 3f5d 20bc
000000b0: ba48 1abc 95a4 8a3b 70d7 f4b9 cc9e 02bc
000000c0: f881 c93a e1ef c1bb cc9b d83c 6c4b a83c
000000d0: a1f3 f03c b01a 013c 1a13 063d f0af 093d
000000e0: 9c8f 473d 3cc2 843b 7439 fc3c d7f6 1c3c
000000f0: f85a 803d aa7d 6b3d 349c 5a3d 5a64 113d
00000100: 6693 173d 409d 463d a9ab 8c3c 4861 2d3d
00000110: 7b31 e13c 2697 3b3b 6777 4e3d 50b2 da3c
00000120: 0171 283c 4fe3 b83c 25ce 8a3c 62e7 573c
00000130: cc57 143d 0ea7 533d 54a8 253d 715a 303d
00000140: 5c2d 163d 18f2 1b3d 5cf9 6fbc f067 043d
00000150: 6c87 fa3c 2bb2 573c 9146 393d 734a aa3c
00000160: 3e71 b33c 4729 d63c 9176 393b dcec 093d
00000170: a2dd c93c 60aa 673c aea4 c63c 93f5 253d
00000180: e947 4b3d 6d56 0b3d f8da 033d fad0 333c
00000190: 044a 643d ea5c 6b3c a2c3 013d 5fe1 e23c
000001a0: ae17 813c c4df 123d ac2d 0b3d a533 bc3b
000001b0: cc0c 4d3d 6d5f a03b 7289 f43c 99ac 59bc
000001c0: 68e7 16bc bac1 f33c 7667 823c cf45 093d
000001d0: c281 643d a062 513d 8c1a f6bc 0944 f83c
000001e0: 3a00 003d b87e 133d 3379 8a3c e9e1 883c
000001f0: 333e 36ba 1959 0c3d 7363 093d c143 4d3d
00000200: 922a 243d 1ccf fe3c 31df 433d 04a8 0b3d
00000210: 5e6e 3a3d f013 223d df8b 293d ed61 403c
00000220: 099b 963c 7140 033d cbb9 293d 4c69 1d3d
00000230: 3f93 8b3c 001e ed3c 4e26 fa3c 1d7f 123d
00000240: 00db af3c 1a75 523d a0ff 693c 6383 0b3d
00000250: 2aa4 32bc 3953 9b3c d8c6 bebc 006c c6bc
00000260: 2900 dabc 167e b4bc abe4 80bc 8ff0 3cbc
00000270: 17ae b3bc adc8 c9bc 6e1b 91bc 7766 e4bc
00000280: 8a05 b6bc e065 a4bc 9f9e 9dbc 60b9 aabc
00000290: 6665 8abc 800c 86bc de65 8abc c13d 68bc
000002a0: 14e9 acbc 9d8d 91bc 46c0 e8bc e283 c3bc
000002b0: a79a 81bc 9a2e e5bc b83b ecbc 0d9d c5bc
000002c0: 20d1 abbc 6aec a2bc b6b0 6abc ad59 79bc
000002d0: 07e1 adbc 26f6 94bc 1d97 94bc 6568 8ebc
000002e0: a434 86bc ad48 c0bc 21ee 94bc cc4b adbc
000002f0: 54d6 14bc f1bf 45bc d4cd 75bc 9877 68bc
00000300: b0e3 26bc 99fb eabb c8c1 40bc 26ec 83bc
00000310: d2ad a6bc a3fc 87bc dad0 7abc f09b 64bc
00000320: 7e3f 88bb c09c 42ba 0422 fbbc 482a c1bb
00000330: d29d a2bc e0a5 b9bc ffa7 d3bc 262a 98bc
00000340: 49e7 8e3b 2292 133c 1a38 fe3b 9181 cd3c
00000350: 88ff b43b 4166 903c 4f7d 6e3b d915 ecbc
00000360: bd4d c3bc 721f debc 2039 06ba a92d c2bb
00000370: cf0f 0bbc fddc 4e3b fe5f 563c 319a a8ba
00000380: a048 acbc 7e9c 5abc 9de3 993c e3dc 5abc
00000390: 84c8 a9bc 78d9 273a 1661 8a3c 5039 9eb9
000003a0: 516a 19bd 44e8 bc3c e088 24ba ea05 043d
000003b0: bf22 1b3c 1eef 23bb 632a e13c a736 8b3c
000003c0: b04c 093d db9d 223c 73fe ad3c 91e1 173c
000003d0: 06bd 3d3c 400c 983b a82a 633c 6cd1 193c
000003e0: bc05 5c3d ac1b ecbb f274 883b 046e 5dbc
000003f0: 5a1e 453d 605c 683c 5a52 2abc c03f d93c

momentum_buffer f4 [16]
0.06941375 0.010147192 -0.008998793 0.017891198 0.01975881 -0.012570151 -0.001517219 -0.03416706
-0.015848761 -0.007892768 0.06793803 0.0041097812 0.025702847 0.009133306 0.032428104 -0.022161912
00000000: cc28 8e3d 6840 263c ac6f 13bc 9090 923c
00000010: 3add a13c 09f3 4dbc 6cdd c6ba c2f2 0bbd
00000020: 43d5 81bc ab50 01bc 1823 8b3d 58ab 863b
00000030: c78e d23c dda3 153c 55d3 043d e68c b5bc

momentum_buffer f4 [120, 16, 5, 5]
0.0013329533 0.0003797685 0.0027054648 -0.005809949 -0.004214713 -0.0041266927 0.0020461343 -0.00079199683
-0.0026229331 -0.0037780628 0.0017264565 -0.003793017 0.00096444576 -0.0021616772 0.0008088001 -0.003333443
0.0013738952 -0.0056128483 0.005570163 -0.000979021 0.0003552875 0.002166632 0.0011460483 -0.0026764434
-0.00038183935 -0.0012097053 -0.0069987923 0.001217636 -0.00014638156 -0.00071773166 -0.0077109095 -0.0025895569
-0.002898608 -0.0038630215 -0.0051577175 0.0026227648 -0.00047542178 -0.0015892036 -0.0032341043 0.0014538678
-0.00031266944 -0.00630932 -0.00835472 -0.004416842 -0.0016161441 -4.5420486e-05 -0.0027314697 9.069202e-05
-0.0043539684 -0.0053195944 0.0011337064 -0.0022679095 0.0030581746 -0.0020811714 0.0010431629 -5.0339935e-05
0.0022534314 -0.00023618643 -0.0004935422 -0.0040450944 -0.001912328 0.000969628 0.0024635913 -0.0049671377
0.0014920281 -0.00062475743 -0.0037147803 -0.0010869881 0.0013328489 -0.0044363327 -0.0019078858 -0.0022031362
-0.004000116 -0.004657019 -0.0014446718 0.0050596083 0.0017333158 0.0029037078 -0.004052188 0.0013296066
-0.0048068743 0.0017428211 -0.00031713408 0.0016618165 -0.0016998115 -0.0026944787 0.0014410582 -0.0034510465
-0.0034005996 -0.0071936324 -0.0024437509 0.002513878 0.00011473743 -0.0013767052 -0.003020845 -0.0006758915
-0.0020714246 -0.0044639264 0.0018400878 -0.0006227082 -0.0041917274 -0.0012174116 0.0012789345 -0.0048262384
-0.0037387535 -0.0035867095 -0.0006514168 0.0025109623 -0.005009134 -0.004156054 -0.002138904 -0.0037213042
-0.0057072975 -1.2162112e-05 0.0020915405 0.002530745 -0.00055385067 -0.0029937534 -0.0014076112 0.0028245368
-0.0016407492 -0.0011666854 0.0023670658 -0.005795522 -0.00020555698 0.0007482752 -0.0009748213 -0.0017465295
-0.0018171195 -0.0038576997 -0.0012402624 -0.005435521 -0.00066594325 -0.005671057 0.0029655145 0.0018493735
4.644139e-05 -0.0075924573 -0.0022061188 -0.0011654162 -0.005437579 -0.0069538895 -0.0012464019 0.004453241
0.0011199595 -0.004556596 0.00017110861 0.0020872871 -0.002484243 -0.004484153 -0.0021794986 9.434461e-05
0.0020679268 -0.0024013245 0.007209513 -0.0016217653 -0.0023208777 0.0045569176 -0.0016626708 -0.002784059
0.0022186236 -9.066868e-05 -0.004432849 -0.0010264909 -0.0031663657 -0.0013145343 -0.0012039089 -0.0025071213
-0.0010938649 -0.00049200724 -0.002678426 0.00018860065 -0.005721136 -0.0009779269 -0.002234138 -0.0025233596
0.0049425187 -0.0025101895 -0.005222702 0.0006375567 -0.00059760595 -0.0076449374 -0.0027138996 -0.0020370218
-0.004025946 -0.0039878553 0.001745451 -0.0016636103 -0.00040169875 -0.0038185115 -0.001330057 -0.003336912
-0.002278371 -0.00053594797 0.002625034 -0.00078986963 0.0011406762 -0.001623511 -0.00092018256 -0.0038032276
-0.0036901124 -0.0011354137 0.00044995948 0.0034584568 -0.003952142 -1.6560021e-05 -0.0010603331 -0.00403961
-0.00078155455 -0.00041033752 -0.0017278607 0.0004897147 -0.0031879633 -0.004100215 -0.0014027802 0.0044558765
-0.00460935 0.00045786495 0.0019431488 0.0021459088 0.00077744026 0.0047073206 0.0012468878 -0.0010223516
0.00032264576 -0.0020621463 0.002229988 -0.00037488234 -0.0018970273 0.00044724543 0.0033942398 -0.0012266546
-1.7253711e-05 0.0028663664 0.003967294 7.827533e-06 -0.004152347 0.0008310275 0.0035978507 -0.0040793177
-0.0021226224 -0.002713174 0.002798129 0.0015345092 -0.0008125622 -0.008794008 -0.00054642244 0.0008955549
0.0027894797 -0.0006882904 0.0011995931 -0.008752676 0.0025873443 0.0040359953 -0.0027966104 0.0003863857
00000000: 7eb6 ae3a aa1b c739 2b4e 313b 6261 bebb
00000010: 931b 8abb 3539 87bb 7018 063b 029e 4fba
00000020: 84e5 2bbb 6099 77bb 444a e23a 4494 78bb
00000030: dcd2 7c3a edaa 0dbb a805 543a e575 5abb
00000040: 4614 b43a fceb b7bb ea85 b63b 7e52 80ba
00000050: e245 ba39 0efe 0d3b 0037 963a 4567 2fbb
00000060: 9c31 c8b9 f98e 9eba 2056 e5bb 1699 9f3a
00000070: 007e 19b9 2826 3cba ccab fcbb 8eb5 29bb
00000080: 93f6 3dbb bf2a 7dbb 1202 a9bb b1e2 2b3b
00000090: 0842 f9b9 d34c d0ba 44f3 53bb b58f be3a
000000a0: c8ed a3b9 6abe cebb 3ce2 08bc 28bb 90bb
000000b0: ccd4 d3ba e081 3eb8 7502 33bb e831 be38
000000c0: bcab 8ebb fe4f aebb e098 943a 35a1 14bb
000000d0: a86b 483b 4364 08bb bdba 883a 1824 53b8
000000e0: 4eae 133b d0a8 77b9 0e61 01ba b68c 84bb
000000f0: 14a7 faba a22e 7e3a 3474 213b 5fc3 a2bb
00000100: 2890 c33a c3c6 23ba ac73 73bb 4579 8eba
00000110: fdb2 ae3a a85e 91bb 0612 faba 7e62 10bb
00000120: 6813 83bb e899 98bb 245b bdba 12cb a53b
00000130: 6d30 e33a 224c 3e3b 37c8 84bb 3246 ae3a
00000140: fc82 9dbb 5f6f e43a 0445 a6b9 4fd1 d93a
00000150: 36cc deba da95 30bb e4e1 bc3a f42a 62bb
00000160: 98dc 5ebb 90b8 ebbb 5627 20bb e0bf 243b
00000170: 309f f038 9072 b4ba 5ef9 45bb 502e 31ba
00000180: bdc0 07bb 2146 92bb 1a2f f13a 3d3d 23ba
00000190: c25a 89bb 8e91 9fba eca1 a73a 6c25 9ebb
000001a0: e005 75bb 000f 6bbb d7c3 2aba f58e 243b
000001b0: a923 a4bb 822f 88bb db2c 0cbb 20e1 73bb
000001c0: 4804 bbbb e00b 4cb7 3a12 093b dbda 253b
000001d0: 4a30 11ba d932 44bb 987f b8ba dd1b 393b
000001e0: 680e d7ba 77eb 98ba c620 1b3b 5de8 bdbb
000001f0: c88a 57b9 e627 443a 268b 7fba ceeb e4ba
00000200: 6a2c eeba 76d1 7cbb 4d90 a2ba 741c b2bb
00000210: b292 2eba 46d4 b9bb 1459 423b ad66 f23a
00000220: 10ca 4238 26ca f8bb 8894 10bb e1c0 98ba
00000230: b82d b2bb 74dd e3bb 4f5e a3ba 7eec 913b
00000240: 9bcb 923a 7f4f 95bb 9e6b 3339 deca 083b
00000250: aece 22bb cdef 92bb ebd5 0ebb e0da c538
00000260: 0e86 073b 8a5f 1dbb c73d ec3b 6a91 d4ba
00000270: de19 18bb 3252 953b f9ed d9ba c274 36bb
00000280: 5466 113b 6025 beb8 6f41 91bb 528b 86ba
00000290: cd82 4fbb 744c acba 7bcc 9dba 844e 24bb
000002a0: 0460 8fba 0cfa 00ba 8888 2fbb 1ac3 4539
000002b0: 5e78 bbbb c82d 80ba 9e6a 12bb f35e 25bb
000002c0: daf4 a13b fe81 24bb 3323 abbb b521 273a
000002d0: a8a8 1cba 6282 fabb aedb 31bb 8e7f 05bb
000002e0: 15ec 83bb 8eac 82bb 9ec7 e43a 800d daba
000002f0: 189b d2b9 fe3f 7abb 4f55 aeba 18b0 5abb
00000300: b950 15bb dc7e 0cba c308 2c3b 410f 4fba
00000310: be82 953a fdcb d4ba 6838 71ba 923f 79bb
00000320: d0d5 71bb 29d2 94ba 8ae8 eb39 47a7 623b
00000330: f880 81bb 60ea 8ab7 e0fa 8aba b45e 84bb
00000340: 3de1 4cba 9222 d7b9 6279 e2ba 3260 003a
00000350: 26ed 50bb 195b 86bb 7edd b7ba 9a02 923b
00000360: 080a 97bb 980d f039 41b1 fe3a 60a2 0c3b
00000370: 22cd 4b3a de3f 9a3b 9d6e a33a 6d00 86ba
00000380: c828 a939 1325 07bb fe24 123b db8b c4b9
00000390: aca5 f8ba 447c ea39 e571 5e3b b3c7 a0ba
000003a0: 10bc 90b7 a6d9 3b3b 1300 823b 0053 0337
000003b0: 6910 88bb 50d9 593a ebc9 6b3b ccab 85bb
000003c0: b21b 0bbb 82cf 31bb d160 373b 9621 c93a
000003d0: 2002 55ba be14 10bc ca3d 0fba acc3 6a3a
000003e0: b4cf 363b 636e 34ba aa3b 9d3a 6267 0fbc
000003f0: 6f90 293b 6240 843b 5647 37bb d093 ca39

momentum_buffer f4 [120]
0.0012934282 0.0034034257 0.012497731 0.0056985687 -0.006127656 -0.0074530393 0.002105667 0.015534906
0.009228 -0.0057577947 0.005962706 -0.012531264 0.008430276 0.0005053766 0.0031394912 -0.0017803905
-0.0012703718 0.007721784 -0.0035804105 0.017644918 -0.014744335 -0.002195409 -0.004675536 -0.00701826
0.008947838 -0.012745354 -0.008812571 -0.016082713 0.007785145 -0.0017545584 0.011464235 0.006226841
0.014519962 -0.009494944 0.010185888 -0.0014775402 -0.01572629 0.019124977 0.0013471376 -0.0007290615
-0.0050134882 0.013433881 0.00575757 0.0032832257 -0.0076019424 -0.010692447 -0.017200869 -0.006712856
0.0063501215 0.008178378 0.020602647 -0.007797864 -0.0011973974 -0.008569961 0.009458017 0.005268082
0.014144637 0.0069081895 0.0018165183 0.0072027077 -0.0012512482 -0.0027196922 0.0136691155 -0.022078255
0.01912354 0.009366021 0.019720847 -0.000866906 -0.002532566 -0.0055396794 -0.0015696358 -0.011667409
-0.010234519 0.0093409475 0.016180947 -0.016140359 -0.0038265567 -0.0064576464 0.0035032555 -0.0032260036
-0.011190045 -0.004906812 0.0051422156 -0.0101791555 0.0016448926 0.009330231 0.01250494 -0.011821593
-0.00014898251 -0.01048417 0.0007134701 0.0023725987 0.0023451163 0.00043385103 -0.0077315145 -0.016429698
0.016496409 0.005253764 -0.013234681 0.004454305 0.0069586597 0.0026580694 0.0039650733 0.010782408
-0.00051027676 0.0053965542 0.0053198943 -0.012653906 0.011722391 -0.0019512186 -0.005826087 -0.0152498195
0.00880355 0.002705832 0.009717754 0.0011493217 0.0034944317 0.012441492 -0.011398121 0.004395429
00000000: 4088 a93a 020c 5f3b 48c3 4c3c 0fbb ba3b
00000010: 81ca c8bb a038 f4bb 3bff 093b 1e86 7e3c
00000020: 0a31 173c e2ab bcbb ce62 c33b ee4f 4dbc
00000030: 241f 0a3c 407b 043a ecbf 4d3b fe5b e9ba
00000040: 9b82 a6ba 0507 fd3b 52a5 6abb 138c 903c
00000050: 3992 71bc dae0 0fbb 3d35 99bb 6ff9 e5bb
00000060: f499 123c e4d1 50bc 9a62 10bc e5bf 83bc
00000070: 881a ff3b 36f9 e5ba 7dd4 3b3c 870a cc3b
00000080: 22e5 6d3c ae90 1bbc b6e2 263c 06aa c1ba
00000090: 6cd4 80bc fcab 9c3c 7092 b03a 7d1e 3fba
000000a0: 3048 a4bb c819 5c3c ffa9 bc3b 632b 573b
000000b0: b719 f9bb 602f 2fbc d6e8 8cbc 84f7 dbbb
000000c0: ae14 d03b 9bfe 053c e2c6 a83c 3985 ffbb
000000d0: fdf1 9cba 0669 0cbc ccf5 1a3c e09f ac3b
000000e0: e8be 673c 185e e23b 3d18 ee3a b104 ec3b
000000f0: ec00 a4ba dd3c 32bb 6df4 5f3c 75dd b4bc
00000100: f8a8 9c3c f073 193c 9d8d a13c 1441 63ba
00000110: 68f9 25bb 3386 b5bb 3dbc cdba a928 3fbc
00000120: afae 27bc c60a 193c e88d 843c c938 84bc
00000130: f8c6 7abb aa9a d3bb e096 653b 5c6b 53bb
00000140: 7356 37bc 53c9 a0bb 0880 a83b 79c6 26bc
00000150: 7099 d73a d3dd 183c 85e1 4c3c 5baf 41bc
00000160: 3038 1cb9 ccc5 2bbc 2b08 3b3a 9a7d 1b3b
00000170: 86b0 193b 8076 e339 a558 fdbb 9397 86bc
00000180: 7a23 873c c427 ac3b 47d6 58bc 6bf5 913b
00000190: 7805 e43b 0133 2e3b 72ed 813b b2a8 303c
000001a0: 18c4 05ba 94d5 b03b 8252 ae3b 5452 4fbc
000001b0: 450f 403c 08c0 ffba c3e8 bebb 61da 79bc
000001c0: c43c 103c 5454 313b 3737 1f3c d6a4 963a
000001d0: d602 653b 66d7 4b3c 2fbf 3abc 8807 903b

momentum_buffer f4 [84, 120]
0.001750899 -0.00015033776 0.0024813607 0.00060764665 -0.0015552727 -0.0015856492 0.00021688094 0.0010414884
-0.00027343526 0.0015846948 0.0016457533 -0.0007972485 -0.00067514717 -0.0011638434 0.0011121973 -4.510107e-05
0.001597108 -0.0021716806 0.0014737346 0.00035210603 -0.0016570378 2.4247449e-05 -0.0009229126 0.0011035345
-0.0011380643 0.0011227267 0.00029702476 -0.0015264682 0.0005332326 0.000690257 -0.00064241956 0.0010873112
-0.0015774947 -0.003802774 -0.0011907443 -0.0010401119 1.775712e-06 0.00059500244 -0.0011301002 -0.00068027095
-0.00092451874 -0.00076856755 0.0004717842 -0.0007671296 -0.0008613317 0.0011644284 0.0008916514 0.00031287555
-0.00021166616 0.00010519901 -0.00028053296 -0.00047600974 0.0011498322 -0.0017268283 -0.0019198878 0.0007799535
0.0018122853 -0.0011817665 0.0014543432 8.304365e-05 -0.00029883307 0.0004345612 0.00035770534 -0.00012905383
-9.1100694e-05 0.00053186476 -0.00011600042 0.0016542737 3.0947005e-05 -0.0013569264 -0.0007853798 -8.3819075e-05
0.00033646176 -0.0015007777 0.0019342969 -0.00011812299 -0.000479504 -0.0010197714 -0.0041207736 0.0011600339
-0.0002977944 -0.00015994401 0.0009221425 -0.000975244 0.0017258639 -3.8759586e-05 -0.00057173154 -3.0002186e-05
0.00050406647 0.00091975776 0.002095609 -0.00014647839 0.00066921616 0.00171359 -0.0015819084 -0.0022014754
0.0020744917 -0.0011813631 0.0015266432 0.0015274631 -0.0004750213 -0.0009865284 0.0008165665 -0.0007045312
0.00021518455 9.007071e-05 0.0011680254 0.0005967614 0.00030678036 0.0007183143 0.00072946877 0.0011380841
0.0015389367 -0.0010336901 -0.0002657096 0.00014211048 -0.0005909727 -0.0009244756 0.00015164522 -0.0008494231
0.0008677673 -0.000106382 -0.0018498756 0.00034744586 0.00034720046 -0.0023233257 0.002014987 -0.0017137015
-0.0019133121 -0.002040217 -0.00032331032 0.0019547434 -0.0019577 0.00259594 -0.0005194258 0.0004911574
0.0011992827 -0.0023486055 0.00061375095 0.0002719446 0.0020342828 0.0015877679 -0.002807832 0.0020829586
-0.0005356418 0.00022948455 0.0018424045 0.0009358713 0.0012515003 -0.0008479205 -0.00028292954 -0.0003666423
0.0013244748 -0.0025415674 0.0022265795 0.0007404611 -0.0019049881 0.0005271843 -0.0014118925 -0.0012995581
-0.0001921958 -0.00047251835 -0.0011890563 -0.0016179754 -0.0006095511 -0.0004462939 -0.0011891243 -0.000603724
0.0001873089 0.0014091617 0.0011737699 -0.0020706404 0.0010625464 -0.00054013275 0.0019769634 0.0003465186
-3.6406273e-06 -0.0034380332 0.0002949853 -0.0020061114 -0.00054759596 -0.00061321456 -0.0009597568 0.00021826723
0.0004047696 0.0004963872 0.0028531523 0.0020699422 0.00077024905 -0.0010380555 -0.0018287844 0.00097136106
-0.0015201679 -0.0009500735 0.0005073981 0.0010175488 0.0024713192 -9.081175e-05 -0.0019386578 0.0010754201
-0.002559923 -0.00039812678 -0.00061118405 -0.0014269543 -0.0008979098 0.0002463027 0.0006202919 0.0014957251
0.00069162366 -0.000201285 0.0017972509 0.0014323968 -0.0010268476 0.002033791 -0.0023229092 -0.0031254932
0.0028225689 -0.00016346914 -0.0011816092 0.00049614464 0.0009418113 -0.0013701492 0.0008832345 -0.0008627056
0.000946312 0.001071034 9.220198e-05 -0.00080631144 -0.0003173355 -0.000260878 0.00065680477 0.0010374216
0.0032656032 -0.0008074902 -0.0025073336 0.0022924116 0.0008815361 0.00030782074 0.00023707983 -0.0013378654
0.00060746144 -0.0023316264 0.0015513885 0.00076822523 0.0011989862 -0.0010968429 -0.00063301396 -0.0011969437
0.0006156549 9.539595e-05 -0.00026859785 -0.0006534091 0.0018355297 -0.0014829189 0.0011053369 -0.0008924656
00000000: 6c7e e53a fca3 1db9 539e 223b 7a4a 1f3a
00000010: 4bda cbba 8fd5 cfba 896a 6339 8d82 883a
00000020: dc5b 8fb9 89b5 cf3a 51b6 d73a 71fe 50ba
00000030: 5cfc 30ba 1b8c 98ba 26c7 913a e82a 3db8
00000040: 0d56 d13a c152 0ebb 542a c13a df9a b839
00000050: f630 d9ba 0067 cb37 9eef 71ba 79a4 903a
00000060: 1a2b 95ba 7528 933a fdb9 9b39 c613 c8ba
00000070: a2c8 0b3a 5df2 343a 0c68 28ba 1c84 8e3a
00000080: f0c3 ceba f637 79bb c012 9cba 5d54 88ba
00000090: 0055 ee35 f0f9 1b3a df1f 94ba 3654 32ba
000000a0: 675b 72ba b279 49ba ce59 f739 3219 49ba
000000b0: feca 61ba bc9f 983a b6bd 693a 7209 a439
000000c0: b4f2 5db9 4a9e dc38 7f14 93b9 f290 f9b9
000000d0: f7b5 963a be56 e2ba bfa4 fbba cb75 4c3a
000000e0: 348a ed3a 81e5 9aba a99f be3a b827 ae38
000000f0: b2ac 9cb9 d1d5 e339 668a bb39 a052 07b9
00000100: 500d bfb8 d76c 0b3a 4045 f3b8 37d4 d83a
00000110: 18cd 0138 e5da b1ba f2e1 4dba 06c8 afb8
00000120: 2267 b039 beb5 c4ba 3c88 fd3a ccb8 f7b8
00000130: f065 fbb9 daa9 85ba 8e07 87bb 470c 983a
00000140: 4a21 9cb9 a5b6 27b9 f0bb 713a 84a7 7fba
00000150: 6236 e23a ca91 22b8 41e0 15ba 34ad fbb7
00000160: 5423 043a e61b 713a 7c56 093b fe97 19b9
00000170: 566e 2f3a 8a9a e03a 0a58 cfba a146 10bb
00000180: 32f4 073b f8d7 9aba a519 c83a 2835 c83a
00000190: 480c f9b9 664e 81ba da0e 563a 4ab0 38ba
000001a0: 2aa3 6139 58e4 bc38 6e18 993a fb6f 1c3a
000001b0: 5dd7 a039 424d 3c3a d239 3f3a c42b 953a
000001c0: 26b6 c93a e27c 87ba f04e 8bb9 7e03 1539
000001d0: 82eb 1aba 8258 72ba f402 1f39 d2ab 5eba
000001e0: e17a 633a 6719 dfb8 8677 f2ba 6529 b639
000001f0: 7508 b639 f042 18bb df0d 043b 489e e0ba
00000200: 1ac8 faba 29b5 05bb fa81 a9b9 271b 003b
00000210: c14c 00bb a520 2a3b 132a 08ba 04c1 003a
00000220: 4031 9d3a 10eb 19bb 21e4 203a c993 8e39
00000230: 9a51 053b a61c d03a 9b03 38bb 3f82 083b
00000240: 506a 0cba caa1 7039 d67c f13a 4355 753a
00000250: 6209 a43a fb46 5eba 2956 94b9 e639 c0b9
00000260: 009a ad3a 6d90 26bb ceeb 113b 811b 423a
00000270: cbb0 f9ba bd32 0a3a 400f b9ba ef55 aaba
00000280: 2b88 49b9 57bc f7b9 1cda 9bba 3f12 d4ba
00000290: 48ca 1fba 8efc e9b9 64dc 9bba 3b43 1eba
000002a0: 5a68 4439 9fb3 b83a 2fd9 993a 95b3 07bb
000002b0: 2445 8b3a b297 0dba f18f 013b f0ac b539
000002c0: 8051 74b6 a050 61bb 42a8 9a39 f778 03bb
000002d0: 8b8c 0fba 22c0 20ba 3098 7bba aade 6439
000002e0: 4237 d439 fb1f 023a f4fb 3a3b dea7 073b
000002f0: 8aea 493a 5d0f 88ba d2b3 efba f0a2 7e3a
00000300: 5f40 c7ba 5a0e 79ba e902 053a 465f 853a
00000310: dbf5 213b 3072 beb8 901a feba 1cf5 8c3a
00000320: 62c4 27bb acbb d0b9 de37 20ba a408 bbba
00000330: b561 6bba 3022 8139 169b 223a 350c c43a
00000340: 144e 353a 0810 53b9 bc91 eb3a 43bf bb3a
00000350: 4a97 86ba 5a49 053b f33b 18bb 13d5 4cbb
00000360: d9fa 383b ea68 2bb9 3ae0 9aba b40f 023a
00000370: e3e3 763a 9496 b3ba dd88 673a 3127 62ba
00000380: ec11 783a f061 8c3a 905c c138 a55e 53ba
00000390: 0d60 a6b9 74c6 88b9 6c2d 2c3a 18fa 873a
000003a0: bb03 563b c0ad 53ba 1452 24bb 493c 163b
000003b0: e316 673a 0063 a139 a298 7839 505b afba
000003c0: 0c3e 1f3a 33ce 18bb f657 cb3a b962 493a
000003d0: 4d27 9d3a f1c3 8fba d9f0 25ba c4e2 9cba
000003e0: e763 213a 500f c838 98d2 8cb9 8b49 2bba
000003f0: 2896 f03a 805e c2ba f4e0 903a 5af4 69ba

momentum_buffer f4 [84]
-0.0014464179 0.0028764578 -0.002822294 0.0052942084 0.0036035809 0.0040503186 -0.0071950913 -0.0031786277
0.0046577486 0.0039429087 -0.0024912031 -0.012785979 -0.006361195 -0.0068647675 -0.003370272 0.01399247
0.0005193396 0.0001784442 -0.00074113207 -0.004838773 0.006482378 -0.0030746183 -0.0034171192 -0.0015218159
-0.0042572785 -0.017866962 0.004324902 -0.008119108 0.0054304777 -0.008181518 -0.012616332 -0.002649858
-0.019360064 -0.0023825935 -0.007912558 -0.011760024 -0.0030927025 -0.00087998726 -0.017293463 -0.0024452698
-0.0029207596 -0.009644382 0.007663575 0.004236046 0.0044235596 -0.0012243371 0.014759475 0.0077938866
-0.0016040845 0.0068547167 -0.0024002735 -0.00043130582 0.0070012393 -0.0020215397 -0.006040995 0.0072045494
0.0052728886 -0.0032972856 0.011579627 -0.0015202039 0.005860834 -0.0020030593 -0.008007591 -0.011847155
0.004672288 0.0024576006 -0.0059892116 0.007810133 -0.0036119982 -0.00014242122 0.004940893 -0.006589265
0.0034962653 -0.004468997 -0.0016846799 0.000499452 0.0072299046 -0.0010700781 -0.009054385 0.0019238113
0.014016598 -0.00029418233 0.0077142827 0.011650205
00000000: bb95 bdba f482 3c3b 3cf6 38bb 0a7b ad3b
00000010: 0e2a 6c3b 89b8 843b cdc4 ebbb 8650 50bb
00000020: 07a0 983b 8433 813b 7443 23bb 487c 51bc
00000030: 9271 d0bb d8f1 e0bb c8df 5cbb ac40 653c
00000040: 4a24 083a c01c 3b39 8848 42ba 928e 9ebb
00000050: 216a d43b 897f 49bb bff1 5fbb ab77 c7ba
00000060: a480 8bbb bc5d 92bc e8b7 8d3b 0206 05bc
00000070: 26f2 b13b c60b 06bc bbb4 4ebc 3da9 2dbb
00000080: ff98 9ebc 4925 1cbb aca3 01bc 1ead 40bc
00000090: f0ae 4abb f2ae 66ba 05ab 8dbc d240 20bb
000000a0: 376a 3fbb 7803 1ebc ba1e fb3b 88ce 8a3b
000000b0: 82f3 903b f079 a0ba bad1 713c dc63 ff3b
000000c0: 2540 d2ba 889d e03b e84d 1dbb e320 e2b9
000000d0: a76a e53b cf7b 04bb 8af3 c5bb 2414 ec3b
000000e0: 32c8 ac3b 4617 58bb 7ab8 3d3c 9441 c7ba
000000f0: 3d0c c03b c245 03bb 4532 03bc 921a 42bc
00000100: fe19 993b b20f 213b 2641 c4bb 25ec ff3b
00000110: 46b7 6cbb e856 15b9 37e7 a13b c3ea d7bb
00000120: 9921 653b aa70 92bb 7ad0 dcba a8ed 023a
00000130: d6e8 ec3b dd41 8cba d858 14bc 6528 fc3a
00000140: e0a5 653c 7c3c 9ab9 18c8 fc3b 80e0 3e3c

momentum_buffer f4 [10, 84]
-0.0005944122 0.0011200765 -0.0025569564 -0.0019686436 0.0010974936 0.000401296 0.0005293841 0.00012974744
-0.001003892 -0.0015973779 -0.0004985332 -0.0007405309 0.0009087089 0.0018633287 -0.0016129962 0.0019287944
0.0010324285 0.0011079501 0.0030542465 -0.0021437907 8.980866e-05 0.0011491126 -2.8718336e-05 -0.0026092927
-0.0016679859 0.0017054589 -0.00028735393 0.00086945 0.0013262546 0.0007447236 0.001146293 -2.4751316e-05
0.0024039072 -0.00011907605 0.0016588637 -0.0005495306 0.0010255065 -0.0021578243 0.0010632497 0.0014862841
-9.684108e-05 0.002511225 -0.0012546311 6.7915535e-05 -0.0017803842 0.0012294067 0.0008354486 -0.0024770491
7.63585e-05 0.00091272406 -0.00024229617 0.0007912614 -0.0004175713 0.0010322622 0.00061571656 -0.0008884546
-0.00046951065 0.0017789354 -6.5195956e-05 -0.0011202247 -0.0016908227 -0.0026651998 0.0016405091 -0.001457893
0.0009790375 0.0031031764 0.0017051579 -0.0014136643 0.0022853503 8.338969e-05 -0.0002968844 0.0005108738
-0.00035804266 -0.0014761961 -0.0009823734 3.8571074e-05 0.0011933842 0.00030493925 0.00212482 -0.0042516994
-0.0019909882 0.00040094767 -0.002451161 0.0015396238 0.001016841 -0.00077867415 0.0029086268 -0.0034741291
0.0025144115 0.0019333642 0.00040874592 0.0003049596 -0.0013884316 -0.004167104 -0.00534295 0.0002628569
-0.0001115296 -0.00085143617 0.0029888067 0.00010049908 0.0006236062 0.0006289771 -0.0010393211 0.0018121749
0.00050448737 -0.0027961675 -0.002263044 -0.001585179 0.0035091806 0.0031932578 0.005002782 0.005384481
0.0009870084 0.0030683174 0.0026366827 0.004864945 0.0024453271 0.0025557305 -0.0005147647 0.0015379764
0.0022944869 0.0038572287 0.003039707 -0.00020848576 -0.00087018276 0.0044631287 -0.0035424596 0.0031600432
0.00083400524 -0.0018492469 0.0012288981 -0.0016057836 -0.0004911005 -0.000115763745 -0.005102284 0.00270198
-0.00018624973 0.0015342734 0.0021925557 -0.0044557857 -0.0031332385 0.002256501 0.0010547809 0.004307792
0.0029005662 -0.0033319271 -0.0007076193 0.0054937135 -0.0009715976 0.0015647197 0.0055400077 -0.0036028675
0.0013336866 0.0024052472 0.0016609104 0.0024163937 -0.004345874 0.0004855164 -0.0013793395 0.00086933887
-0.0013280949 -0.0013234204 -0.0027222608 0.00110656 -0.0024505313 -0.0015055343 -0.004560508 -0.0023667752
0.00673937 0.0044051753 0.0056979423 -0.0042718602 -0.003967243 -0.0033034296 0.0059975986 -0.00088728336
0.0018179266 -0.0007413883 0.00067221053 0.003211766 0.0028481553 0.0022987197 0.0067581083 -0.003965204
-0.0013806582 -0.004025521 -0.0041512623 0.0015569369 0.0059797945 -0.0032775612 0.008607572 -0.003112145
0.0064857565 0.000424037 0.008042304 0.007433693 -0.006838172 -0.001400301 0.0042302124 0.006268787
-0.002680235 0.0046566194 0.00486772 -0.0026521867 0.00044407006 0.007019111 -0.0027197038 -0.0040450916
-0.0022213312 -0.0032665858 0.0034834323 -0.00040876688 -0.0021006847 0.003704513 0.0011513113 0.00054362195
-0.00029131852 -0.00345015 -0.0046845893 0.0057451692 -0.0066912137 -0.0063705333 -0.003313053 -0.0013640706
0.0068352516 0.00023392792 0.0082604755 0.0030224558 0.0066739433 0.0045591416 0.0042890552 0.011090873
0.0041549364 -0.0033925106 -0.004722793 0.002675343 0.003098186 0.009002027 0.0081120385 -0.0069859796
0.0020581807 -0.00017007627 0.0054491675 -0.0040273266 -0.0037592258 -0.00017421352 -0.0051157484 0.004399005
0.0038643242 -0.004461532 -0.002462852 -0.005336941 -0.00059589196 0.005560382 -0.013256882 0.0048272237
00000000: 54d2 1bba 88cf 923a 9c92 27bb 5c04 01bb
00000010: c6d9 8f3a 0a65 d239 5ec6 0a3a d00c 0839
00000020: 0795 83ba 1c5f d1ba ffaf 02ba 3020 42ba
00000030: 6c36 6e3a f03a f43a 2c6b d3ba 9acf fc3a
00000040: 8d52 873a a338 913a c129 483b d77e 0cbb
00000050: a857 bc38 d29d 963a 28e8 f0b7 ab00 2bbb
00000060: 52a0 daba b489 df3a fea7 96b9 cdeb 633a
00000070: b8d5 ad3a 8e39 433a 363f 963a 0ca1 cfb7
00000080: df8a 1d3b 78b8 f9b8 3b6e d93a 600e 10ba
00000090: 4a6a 863a 496a 0dbb bd5c 8b3a 6bcf c23a
000000a0: 2917 cbb8 5d93 243b 6f72 a4ba e06d 8e38
000000b0: c85b e9ba 0b24 a13a 0202 5b3a fd55 22bb
000000c0: a822 a038 e043 6f3a e210 7eb9 a76c 4f3a
000000d0: 79ed dab9 f94c 873a 0a68 213a 2ee7 68ba
000000e0: a728 f6b9 2b2b e93a d0b9 88b8 81d4 92ba
000000f0: 989e ddba a2aa 2ebb 5a06 d73a c616 bfba
00000100: 0c53 803a a95e 4b3b 9b7f df3a b44a b9ba
00000110: d1c5 153b 80e1 ae38 26a7 9bb9 29ec 053a
00000120: acb7 bbb9 ec7c c1ba fbc2 80ba 60c7 2138
00000130: 546b 9c3a 41e0 9f39 9040 0b3b d751 8bbb
00000140: 3d7b 02bb 4936 d239 a8a3 20bb 34cd c93a
00000150: 8647 853a f01f 4cba a99e 3e3b 37ae 63bb
00000160: d3c8 243b f068 fd3a f34c d639 fce2 9f39
00000170: 09fc b5ba 348c 88bb ea13 afbb 0ed0 8939
00000180: 00e5 e9b8 ea32 5fba dbdf 433b 08c3 d238
00000190: 8179 233a f0e1 243a d439 88ba 8086 ed3a
000001a0: 933f 043a e83f 37bb 944f 14bb c8c5 cfba
000001b0: 48fa 653b fa45 513b 61ee a33b 4d70 b03b
000001c0: 825e 813a d315 493b 32cc 2c3b 1e6a 9f3b
000001d0: c841 203b 0b7e 273b 46f1 06ba ed95 c93a
000001e0: 1a5f 163b 8fc9 7c3b d235 473b f89c 5ab9
000001f0: fa1c 64ba 703f 923b 9c28 68bb ba18 4f3b
00000200: 25a1 5a3a 6e62 f2ba fa12 a13a 2879 d2ba
00000210: 32bd 00ba 30c6 f2b8 0f31 a7bb b413 313b
00000220: 084c 43b9 ac19 c93a fbb0 0f3b d701 92bb
00000230: 0557 4dbb cee1 133b 9340 8a3a 6128 8d3b
00000240: 6d17 3e3b 765c 5abb 877f 39ba 9c04 b43b
00000250: d0b2 7eba 4817 cd3a f488 b53b 161e 6cbb
00000260: 19cf ae3a 5aa1 1d3b e8b2 d93a 5c5c 1e3b
00000270: d567 8ebb e88c fe39 f4ca b4ba 58e4 633a
00000280: 7813 aeba 9f76 adba f567 32bb fe09 913a
00000290: 1899 20bb 5955 c5ba 5070 95bb e61b 1bbb
000002a0: efd5 dc3b 4a59 903b ceb5 ba3b f6fa 8bbb
000002b0: a5ff 81bb 5a7e 58bb 8187 c43b 9498 68ba
000002c0: 7f47 ee3a ba59 42ba 4937 303a 7e7c 523b
000002d0: 1ea8 3a3b 1ea6 163b 1f73 dd3b 8bee 81bb
000002e0: 34f7 b4ba 85e8 83bb 5007 88bb 2212 cc3a
000002f0: 27f2 c33b 5acc 56bb c606 0d3c 21f5 4bbb
00000300: 7886 d43b 4851 de39 dec3 033c 5696 f33b
00000310: bf12 e0bb 4e8a b7ba 989d 8a3b 666a cd3b
00000320: e2a6 2fbb 8e96 983b 6581 9f3b 4fd0 2dbb
00000330: 13d2 e839 9200 e63b 0f3d 32bb b08c 84bb
00000340: c193 11bb 3714 56bb 4c4a 643b c34f d6b9
00000350: a4ab 09bb 6ac7 723b 99e7 963a da81 0e3a
00000360: 1cbc 98b9 e91b 62bb 2f81 99bb f941 bc3b
00000370: f841 dbbb e8bf d0bb ce1f 59bb 9dca b2ba
00000380: 3ffa df3b 8c4a 7539 f256 073c 6514 463b
00000390: 18b1 da3b da64 953b 348b 8c3b 7eb6 353c
000003a0: 2226 883b e254 5ebb a9c1 9abb cf54 2f3b
000003b0: f00a 4b3b 3d7d 133c 5be8 043c a5ea e4bb
000003c0: 8be2 063b 8056 32b9 ee8e b23b aaf7 83bb
000003d0: 585d 76bb 16ad 36b9 02a2 a7bb 8725 903b
000003e0: 9a40 7d3b 0b32 92bb cd67 21bb 82e1 aebb
000003f0: a235 1cba dd33 b63b 6533 59bc b02d 9e3b

momentum_buffer f4 [10]
0.0019801918 -0.0051829563 -0.010464622 0.028449072 -0.0039387643 -0.012454599 -0.0025187363 -0.012024588
-0.0019555455 0.018132063
00000000: 1bc6 013b cad5 a9bb ce73 2bbc 070e e93c
00000010: c010 81bb 600e 4cbc 6211 25bb c702 45bc
00000020: 9c28 00bb b189 943c

conv1.weight f4 [6, 1, 5, 5]
-0.109788515 0.06285314 0.04479043 -0.29906508 -0.047636833 0.010562061 -0.023133257 0.1522983
-0.100317866 0.08508357 0.09955021 0.11931843 -0.08874203 0.14325258 -0.0073536905 0.076095805
0.06945115 0.11542582 0.1524808 0.16961432 0.13516304 -0.049812097 0.09215011 0.11043446
0.18964708 0.01620395 0.031246193 0.09563831 0.14164022 0.16101934 0.018926509 0.030570252
-0.011169599 0.17351653 0.29741776 0.14952005 -0.042683765 -0.044577114 0.045016833 0.012450963
0.10206792 0.09283951 0.052065972 0.12155089 -0.013935373 0.1760607 0.23115227 0.12391667
0.120601624 0.16153823 -0.27309203 -0.163242 0.08508868 0.031892918 0.014897408 0.06105319
0.011627209 0.16443543 -0.020769384 0.08660564 0.12333892 0.056762256 0.10307924 0.07552139
0.20069264 0.062180042 -0.07413974 -0.032631397 -0.21285126 -0.0522713 -0.0093682045 0.058319308
0.1513038 -0.16863321 -0.25203535 0.026309406 -0.029966589 -0.053086147 0.04510803 0.043246415
-0.027704978 0.12742501 0.01237121 -0.07679654 0.019959483 0.037308916 0.13392934 0.022761941
-0.13393532 -0.15386736 0.010260098 0.0855624 0.066999756 -0.07760551 -0.12943019 -0.05345508
0.12913467 0.09787341 -0.06805054 -0.04078214 0.06323174 0.0012187494 -0.066646576 0.0044487934
-0.017572185 0.05327625 -0.04179186 -0.1942911 -0.1581837 -0.09241275 -0.0010297863 0.026273562
-0.06826606 -0.06606736 -0.009437576 0.066367134 0.050655328 0.06531128 0.09725194 0.09734236
0.037674684 -0.012597946 0.017674522 0.065124705 0.06861953 -0.029509127 -0.046198048 -0.12581754
-0.17821737 -0.122398265 0.046073336 -0.06928774 -0.03596007 -0.04401234 -0.016129052 0.068233445
0.10604883 0.1512867 0.1210614 0.14804167 -0.028874842 -0.030208925 0.04467254 0.1230787
0.048933346 -0.04632426 0.01126412 -0.00024095352 -0.04242824 -0.065593116
00000000: cdd8 e0bd 26b9 803d 2c76 373d 0f1f 99be
00000010: d71e 43bd 7f0c 2d3c f581 bdbc 16f4 1b3e
00000020: 7473 cdbd 4b40 ae3d fbe0 cb3d 395d f43d
00000030: 62be b5bd ceb0 123e 3af7 f0bb 1ed8 9b3d
00000040: 683c 8e3d 5f64 ec3d ed23 1c3e 60af 2d3e
00000050: 2e68 0a3e c507 4cbd 32b9 bc3d 762b e23d
00000060: d832 423e 25be 843c 04f8 ff3c 05de c33d
00000070: 220a 113e 41e2 243e c40b 9b3c 776e fa3c
00000080: b200 37bc 51ae 313e 2447 983e c91b 193e
00000090: 2cd5 2ebd 7e96 36bd 9263 383d 20ff 4b3c
000000a0: fc08 d13d a422 be3d 2143 553d acef f83d
000000b0: 3151 64bc 4249 343e 2eb3 6c3e 06c8 fd3d
000000c0: fcfd f63d 476a 253e b8d2 8bbe e928 27be
000000d0: f942 ae3d 26a2 023d 4214 743c e912 7a3d
000000e0: 0d80 3e3c c361 283e 8e24 aabc 4c5e b13d
000000f0: 1e99 fc3d 8a7f 683d 351b d33d f5aa 9a3d
00000100: 5f82 4d3e 80b0 7e3d 93d6 97bd 80a8 05bd
00000110: aef5 59be 6e1a 56bd 197d 19bc 3ae0 6e3d
00000120: 62ef 1a3e 2fae 2cbe c70a 81be d386 d73c
00000130: 7e7c f5bc dc70 59bd 33c3 383d 2723 313d
00000140: 8df5 e2bc b47b 023e 9eb0 4a3c 8147 9dbd
00000150: 1282 a33c 3cd1 183d c624 093e 4077 ba3c
00000160: 5726 09be 688f 1dbe f819 283c 573b af3d
00000170: 2b37 893d a3ef 9ebd 5989 04be b7f3 5abd
00000180: e13b 043e db71 c83d 155e 8bbd 2c0b 27bd
00000190: a47f 813d 72be 9f3a 007e 88bd 2fc7 913b
000001a0: 8bf3 8fbc 3238 5a3d f12d 2bbd 3ff4 46be
000001b0: e8fa 21be e542 bdbd e5f9 86ba a73b d73c
000001c0: 13cf 8bbd 534e 87bd 10a0 1abc 7eeb 873d
000001d0: f67b 4f3d ecc1 853d 062c c73d 6e5b c73d
000001e0: c550 1a3d 9e67 4ebc 29ca 903c 1a60 853d
000001f0: 6588 8c3d 20bd f1bc 2a3a 3dbd 50d6 00be
00000200: 9d7e 36be f1ab fabd 65b7 3c3d bbe6 8dbd
00000210: de4a 13bd 4946 34bd 1321 84bc fabd 8b3d
00000220: 2130 d93d e7ea 1a3e 0aef f73d 3c98 173e
00000230: ef8a ecbc b578 f7bc 8efa 363d af10 fc3d
00000240: 556e 483d 82be 3dbd 258d 383c 78a8 7cb9
00000250: 3cc9 2dbd af55 86bd

conv1.bias f4 [6]
0.110054664 -0.4788307 -0.33552572 -1.0462047 -1.1730745 -0.90763223
00000000: 5764 e13d 4c29 f5be 07ca abbe 09ea 85bf
00000010: 4e27 96bf 965a 68bf

conv2.weight f4 [16, 6, 5, 5]
0.04121235 0.044955406 0.036544587 -0.0027528703 0.04967473 0.041078422 -0.022382187 0.045491196
-0.0033278565 -0.025473414 0.027129125 -0.006752834 -0.05733367 -0.02319417 0.0075025186 -0.04148378
-0.011054531 -0.026961152 0.02611138 0.04928705 -0.09108243 0.040804002 0.008697355 -0.021899711
-0.14337912 -0.02514034 0.0012603413 0.07384641 0.005755721 0.055374313 -0.06989377 -0.10702799
0.027758803 -0.017264493 -0.00058262306 -0.040811427 0.047170576 0.026986692 -0.07004648 0.12217999
-0.053688034 -0.115337245 0.08366072 0.0013512039 -0.007123967 0.101735815 -0.015084572 0.031834
0.1109205 -0.00217912 -0.049136523 -0.04348232 -0.07259452 0.10152018 -0.034972653 -0.036417183
-0.015959654 -0.043838363 -0.028418152 -0.041017726 0.012440532 0.017139997 0.0070500625 -0.07349503
0.067600444 -0.012650179 -0.01713144 0.0064560384 -0.033583626 -0.05366651 -0.06200695 -0.08374886
-0.0683899 0.09229624 0.067482255 0.027568692 -0.052126918 -0.1337301 0.019757343 -0.13579887
-0.08670873 0.0037601334 -0.13149016 0.22364753 0.014549439 0.005170511 0.07829799 0.03978452
-0.0362257 0.04421537 -0.04726429 0.062115245 0.11534049 -0.38939968 0.03293329 0.04093006
-0.042068522 0.10302434 -0.08708273 0.028347062 0.02968482 0.115526326 -0.057604805 -0.06359277
-0.12799911 0.063995995 -0.054746255 0.065320805 -0.09961712 -0.07872488 -0.019745206 -0.1187067
-0.06690182 0.033452798 0.019485796 -0.068897456 -0.050226517 0.10792219 -0.01802781 0.10342159
0.108820744 0.10516366 0.11176543 0.008250541 -0.0870018 -0.029302038 0.04102796 -0.028986814
-0.004867729 0.04811031 0.14104678 0.13548742 0.11181739 -0.005015709 0.039788917 -0.028180217
-0.18021657 0.04359679 -0.01689333 0.021226559 0.0021249629 0.007219717 -0.0085821375 0.031736676
0.006506533 -0.08851975 -0.14282535 -0.013767694 -0.08311649 -0.13092461 0.038094077 -0.008828409
0.01720883 -0.009534569 -0.030708553 0.049022097 0.015663255 -0.020734204 0.054136433 -0.0329907
-0.029591791 -0.013962146 0.031494055 -0.014164122 0.00056535855 -0.025143502 0.04647582 0.09511358
0.009712191 -0.035385184 0.0062417057 0.031534627 -0.07629562 0.05803182 -0.07793982 -0.06551179
0.037099343 -0.04195813 0.05892229 -0.0749481 0.06644114 -0.19214556 -0.02143864 0.007967254
0.0299305 -0.08759626 0.059067156 0.047028113 0.11526384 -0.11771852 -0.014419494 -0.029355833
0.12685034 0.025208293 -0.025722671 0.08638859 0.07405879 -0.07481715 -0.08053562 0.027668344
0.001273419 0.04656471 -0.085528545 -0.12557866 -0.022721278 0.05474916 0.11823309 -0.1259034
-0.011199046 -0.06567568 -0.030191464 -0.005867127 -0.00091454794 -0.066817574 0.057782434 -0.085199825
-0.046973098 -0.099024095 0.017476358 0.026633244 -0.08875926 -0.10253564 0.14451274 0.07753326
0.010131727 -0.052862685 -0.1395046 0.09074108 -0.02063197 0.03191306 0.041751407 -0.15998015
0.017346757 0.08661168 0.023424279 0.064622104 -0.010547142 -0.0077381865 0.10509082 0.15567303
-0.08003148 -0.11055514 -0.03561913 0.120847225 0.016625296 -0.076856814 -0.09977637 0.12625684
0.01761142 0.03628895 -0.076351635 -0.08508365 0.19406547 0.015121408 0.011292771 -0.056573514
00000000: 48ce 283d 2923 383d c7af 153d 8069 34bb
00000010: bb77 4b3d d941 283d d95a b7bc fa54 3a3d
00000020: 2b18 5abb 9fad d0bc e63d de3c e146 ddbb
00000030: b6d6 6abd b301 bebc b0d7 f53b e5ea 29bd
00000040: 101e 35bc a2dd dcbc 88e7 d53c 38e1 493d
00000050: 6d89 babd 1922 273d 5a7f 0e3c 0667 b3bc
00000060: fad1 12be 1df3 cdbc 0932 a53a c93c 973d
00000070: 7d9a bc3b 2dd0 623d 7724 8fbd 7e31 dbbd
00000080: 6e66 e33c 446e 8dbc 2cbb 18ba e229 27bd
00000090: ef35 413d 3213 dd3c 8774 8fbd 8139 fa3d
000000a0: fce7 5bbd ef35 ecbd 5056 ab3d e11a b13a
000000b0: 2b70 e9bb de5a d03d 4825 77bc 5e64 023d
000000c0: 492a e33d 91cf 0ebb 6143 49bd 841a 32bd
000000d0: 70ac 94bd d0e9 cf3d 7c3f 0fbd 2f2a 15bd
000000e0: d2bd 82bc db8f 33bd 2fcd e8bc 3402 28bd
000000f0: 60d3 4b3c 2e69 8c3c 3604 e73b 9084 96bd
00000100: 1a72 8a3d b242 4fbc 3c57 8cbc 2d8d d33b
00000110: fc8e 09bd 6ad1 5bbd 00fb 7dbd 8684 abbd
00000120: 0110 8cbd d005 bd3d 2334 8a3d bdd7 e13c
00000130: 0983 55bd 8bf0 08be 27da a13c dc0e 0bbe
00000140: 5994 b1bd 926c 763b 5ba5 06be dc03 653e
00000150: c560 6e3c 646d a93b b25a a03d 18f5 223d
00000160: 6661 14bd 2d1b 353d 3398 41bd 8e6c 7e3d
00000170: a337 ec3d 655f c7be 0fe5 063d 47a6 273d
00000180: 0b50 2cbd 6dfe d23d 6e58 b2bd 1938 e83c
00000190: 942d f33c 1199 ec3d 04f3 6bbd ed3c 82bd
000001a0: 3312 03be 5510 833d 9c3d 60bd eac6 853d
000001b0: 1004 ccbd 833a a1bd b3c0 a1bc 801c f3bd
000001c0: d203 89bd cd05 093d ada0 9f3c 1c1a 8dbd
000001d0: 52ba 4dbd 4f06 dd3d 0faf 93bc b3ce d33d
000001e0: 69dd de3d 0c60 d73d 46e5 e43d 472d 073c
000001f0: 002e b2bd d40a f0bc ef0c 283d c175 edbc
00000200: 7881 9fbb 510f 453d 916e 103e 37bd 0a3e
00000210: 8400 e53d d15a a4bb b4f9 223d 33da e6bc
00000220: b18a 38be 8c92 323d e163 8abc 52e3 ad3c
00000230: f642 0b3b 6093 ec3b 189c 0cbc 51fe 013d
00000240: c134 d53b d849 b5bd cf40 12be e591 61bc
00000250: fa38 aabd 1a11 06be 8908 1c3d 08a5 10bc
00000260: 88f9 8c3c e236 1cbc 8190 fbbc 65cb 483d
00000270: 3a50 803c c7da a9bc 2abe 5d3d 4221 07bd
00000280: 7c6a f2bc 7cc1 64bc e9ff 003d a210 68bc
00000290: 9234 143a bff9 cdbc 6e5d 3e3d e9ca c23d
000002a0: e21f 1f3c 0ef0 10bd 3987 cc3b 742a 013d
000002b0: e140 9cbd c6b2 6d3d ea9e 9fbd 0c2b 86bd
000002c0: 7bf5 173d 4adc 2bbd 8058 713d 647e 99bd
000002d0: 4b12 883d cec1 44be 16a0 afbc 1689 023c
000002e0: cf30 f53c ab65 b3bd 67f0 713d 8da0 403d
000002f0: 730f ec3d 6816 f1bd be3f 6cbc a57b f0bc
00000300: 0ee5 013e 9f81 ce3c 5ab8 d2bc 80ec b03d
00000310: 23ac 973d bc39 99bd dcef a4bd b9a8 e23c
00000320: dae8 a63a a3ba 3e3d 9729 afbd b197 00be
00000330: f921 babc a840 603d 3124 f23d d2ec 00be
00000340: 347c 37bc f980 86bd 1754 f7bc 0741 c0bb
00000350: 46be 6fba a7d7 88bd 46ad 6c3d 3f7d aebd
00000360: dd66 40bd 25cd cabd 942a 8f3c f62d da3c
00000370: 6ac7 b5bd 35fe d1bd 26fb 133e c2c9 9e3d
00000380: 8bff 253c 8b86 58bd 4bda 0ebe 76d6 b93d
00000390: 6104 a9bc 45b7 023d 8603 2b3d d6d1 23be
000003a0: c91a 8e3c 7761 b13d 46e4 bf3c 9858 843d
000003b0: ebcd 2cbc 9d90 fdbb db39 d73d c068 1f3e
000003c0: 8be7 a3bd bc6a e2bd 5de5 11bd c07e f73d
000003d0: c631 883c 1b67 9dbd 8e57 ccbd 7949 013e
000003e0: d345 903c b9a3 143d 3f5e 9cbd 5640 aebd
000003f0: 19b9 463e c8bf 773c 5105 393c a1b9 67bd

conv2.bias f4 [16]
-0.22853042 -0.23505557 -0.23793267 -0.37191743 -0.18703443 -0.120656595 -0.12312042 -0.14339341
-0.27713996 -0.17425677 -0.24490903 -0.2709734 -0.015797276 -0.06066479 -0.28268778 -0.25933716
00000000: e103 6abe 68b2 70be 9fa4 73be f66b bebe
00000010: f485 3fbe ce1a f7bd 8f26 fcbd b9d5 12be
00000020: 4ae5 8dbe 5e70 32be 6fc9 7abe 07bd 8abe
00000030: 4a69 81bc a57b 78bd 74bc 90be d7c7 84be
