models/pretrained/Lit_LeNet_MNIST_no_U-val_acc=0.97.ckpt (torch, 500674 bytes, 20 tensors)

momentum_buffer f4 [6, 1, 5, 5]
0	0x3c0d7952	0.008634882
1	0x3bd87bf5	0.0066065737
2	0xbc343417	-0.010998747
3	0xb9c12900	-0.00036842376
4	0x3cbce013	0.023056066
5	0x3b8e1abf	0.0043366845
6	0xbafb8ca0	-0.001919169
7	0xbc8530df	-0.016258655
8	0xbc6af313	-0.01434018
9	0x3ac01f78	0.0014657816
10	0xbb80a352	-0.0039257193
11	0xbb8ea93b	-0.00435367
12	0xbc40bc0e	-0.011763586
13	0xbae0bb08	-0.0017145583
14	0x3c26c358	0.0101784095
15	0xbb35b299	-0.002772486
16	0xbbd0f6c6	-0.006377074
17	0xbc3d4684	-0.011552457
18	0x3acd73e8	0.0015674802
19	0xbafeefc9	-0.0019450124
20	0xbb22cec8	-0.002484249
21	0xbba02904	-0.004887702
22	0xbc0e359c	-0.008679774
23	0xbac936d4	-0.0015351423
24	0xbc492dc4	-0.012278978
25	0xbd04623d	-0.03232025
26	0xbbbe451f	-0.0058065797
27	0x3a81e540	0.0009910241
28	0x3a458332	0.0007534503
29	0xbbf48c90	-0.0074630454
30	0xbc7301d5	-0.01483198
31	0x3a61f1cc	0.00086190994
32	0xbbc4d296	-0.006006549
33	0xbc5e0910	-0.013551965
34	0xbc54a9b8	-0.012979917
35	0xbc2a9b42	-0.010412993
36	0xbc0f0874	-0.008730043
37	0xbc48209e	-0.012214808
38	0xbcbc2558	-0.022967026
39	0xbc72eb3c	-0.014826592
40	0xbcab4942	-0.020908955
41	0xbc0cae8e	-0.008586539
42	0xbbeda438	-0.0072522424
43	0xbc3f12c8	-0.011662193
44	0xbb8c50fb	-0.0042821146
45	0xbcbb8f50	-0.022895485
46	0x3b11cd87	0.0022247748
47	0x3c049a15	0.008093377
48	0x3c815350	0.015786797
49	0x3ca6d6c6	0.020366084
50	0xbc7707fe	-0.015077589
51	0x3b7bafc8	0.0038404334
52	0x3c4da4d5	0.012551506
53	0xb8b73280	-8.735526e-05
54	0x3c09ea4e	0.008417679
55	0x3b8a4a1c	0.0042202603
56	0x3c43a956	0.011942228
57	0x3b2ecfea	0.002667422
58	0xbc9cfb9a	-0.019162942
59	0xbb216950	-0.0024629422
60	0x3a9b8ae0	0.001186695
61	0x3920d7d0	0.00015339185
62	0xbc36508a	-0.0111276
63	0xbc5e6283	-0.013573292
64	0xbbd26c8d	-0.0064216317
65	0xbc0b4828	-0.00850109
66	0x391a3560	0.00014706468
67	0x388f2de8	6.827322e-05
68	0xbb308a00	-0.0026937723
69	0xbaabfe2a	-0.0013122011
70	0xbd037ccc	-0.032101437
71	0xbb413834	-0.0029482963
72	0x3b427398	0.002967095
73	0x3a53fb40	0.00080864504
74	0xbc402008	-0.011726387
75	0xbc0df224	-0.008663688
76	0x3b1ea615	0.002420788
77	0x3b3ff0f4	0.0029287906
78	0xbbd5c13d	-0.00652328
79	0xbb578930	-0.0032888167
80	0xbbe970c0	-0.0071240366
81	0x3a2e7b6a	0.00066559634
82	0x3a22c38a	0.0006208947
83	0xbc0c0a00	-0.008547306
84	0xbb9f7988	-0.0048667826
85	0x3c441318	0.011967443
86	0x3c23c7ad	0.009996337
87	0x3c0def37	0.00866299
88	0xbbb09443	-0.005388768
89	0xbb28c909	-0.0025754592
90	0x3cae72ae	0.021294918
91	0x3c3179d5	0.01083227
92	0x3ba77e9a	0.0051115276
93	0xbb3c3805	-0.0028719914
94	0xbc096d21	-0.008387835
95	0x3c065143	0.008198085
96	0x3b69c976	0.0035673059
97	0x3bbeaa37	0.005818631
98	0x3c885e10	0.016646415
99	0x3c10a2b7	0.008827857
100	0xbcaa7939	-0.020809757
101	0xbcae1bca	-0.021253485
102	0xbcba1dd3	-0.0227193
103	0xbca78566	-0.020449352
104	0xbc98c22d	-0.018647278
105	0xbca45a01	-0.020062448
106	0xbc454029	-0.012039223
107	0xbc38d1a0	-0.011280447
108	0xbc27ffdc	-0.010253873
109	0xbb779b55	-0.0037781794
110	0xbc4e2379	-0.0125816995
111	0xbc24c488	-0.010056622
112	0xba90a24a	-0.0011034694
113	0x3b2ebe12	0.0026663584
114	0x3c11df00	0.008903265
115	0xbc959ed6	-0.018264215
116	0xbc60df40	-0.013725102
117	0x3a9e35fe	0.0012070534
118	0xba7c7659	-0.0009630672
119	0x3c35bb2e	0.01109199
120	0xbcc34394	-0.023835935
121	0xbc3d43ee	-0.01155184
122	0x3ba9689d	0.0051699416
123	0x3c0ea111	0.008705393
124	0x3cb4bed0	0.022063643
125	0xbc751b7e	-0.014960168
126	0xbb0bfc86	-0.0021360232
127	0x3b2395c9	0.0024961105
128	0xbbde05c5	-0.00677559
129	0xbc60c935	-0.0137198465
130	0xbbb8039f	-0.005615666
131	0x3bdf6189	0.006817047
132	0x3b3bdc25	0.0028665152
133	0xbba80a40	-0.005128175
134	0x390cf3a0	0.00013442198
135	0x3a9d79f4	0.0012014494
136	0x3bda9eb2	0.00667175
137	0x3c3c6ffc	0.0115013085
138	0x3b8d4cfb	0.0043121553
139	0x3c694402	0.014237406
140	0x3b90ac7a	0.004415092
141	0x3b84bcce	0.0040508276
142	0x3c153fb1	0.0091094235
143	0x3be7ae92	0.007070371
144	0x3c176db6	0.009242466
145	0x3ba64efe	0.0050753346
146	0x3be80827	0.00708105
147	0x3bb97969	0.005660225
148	0x3afcadaa	0.001927783
149	0xb89c0ab0	-7.4406504e-05

momentum_buffer f4 [6]
0	0xbb1ae8cc	-0.0023637293
1	0xbd26254b	-0.04056291
2	0xbb19727a	-0.002341418
3	0xbc646668	-0.013940431
4	0x398606d0	0.00025563547
5	0xbd43c7f4	-0.047798112

momentum_buffer f4 [16, 6, 5, 5]
0	0x3a9f2b24	0.0012143594
1	0xb9a54dd4	-0.0003152924
2	0xbc0b3101	-0.00849557
3	0xbb8d07ee	-0.004303924
4	0x39a5b934	0.0003160924
5	0x38227d00	3.8740225e-05
6	0xbb124d2a	-0.0022323825
7	0xbc56dab0	-0.013113663
8	0xbb8e3ca1	-0.0043407236
9	0x3b44d430	0.00300337
10	0x3b9cbef8	0.0047835074
11	0x3be574e4	0.00700246
12	0xbb51bf0a	-0.0032004737
13	0x3beeaea2	0.0072840014
14	0x3ad52b45	0.0016263506
15	0x3c7a913d	0.015293417
16	0x3c81af16	0.015830558
17	0x3bd1eff6	0.0064067794
18	0x3c9793ce	0.018503096
19	0x3bcf3644	0.0063236076
20	0x3c49c70e	0.012315525
21	0x3c2d3e64	0.010573957
22	0x3b589b1c	0.0033051437
23	0x3cb34ea2	0.021888081
24	0x3c079799	0.00827589
25	0x3c096772	0.00838648
26	0x3c401cc9	0.011725613
27	0x3c62e00e	0.013847364
28	0x3c9542d5	0.018220345
29	0x3c7a91f0	0.015293583
30	0x3c3e8179	0.011627548
31	0x3c15f9c7	0.00915379
32	0x3c4c65f6	0.012475481
33	0x3c0e0e11	0.008670346
34	0x3c09ed14	0.00841834
35	0xbb381c44	-0.002809302
36	0xbaf2c917	-0.0018523064
37	0x3931b3c8	0.00016947009
38	0xbbb5a2af	-0.005543075
39	0x390b4fd0	0.00013285805
40	0x3b65f216	0.0035086921
41	0x3ad66e87	0.0016359844
42	0x3b95f3b5	0.0045761713
43	0xbb759a28	-0.0037475917
44	0xbb9e8a66	-0.0048382757
45	0x3b934bd7	0.004495125
46	0x3b0d594c	0.0021568118
47	0x3bb2054a	0.0054327594
48	0x3bd521ae	0.006504259
49	0x3b883150	0.004156269
50	0xbb2d4f5d	-0.002644501
51	0x3ae8a3f6	0.001774906
52	0xba7ce381	-0.0009646938
53	0xbb400a78	-0.0029303115
54	0xb9eb7834	-0.0004491225
55	0xb9d63ae6	-0.00040861143
56	0x3bc5a827	0.006032008
57	0x3b9ff424	0.0048813988
58	0x3baebddb	0.005332691
59	0x3bcb9efe	0.0062140217
60	0xb83a6e00	-4.44483e-05
61	0x3c04c321	0.008103163
62	0x3b402b37	0.0029322633
63	0xbb03aa98	-0.0020090695
64	0x3b46bd0c	0.0030325083
65	0x3bfae024	0.007656114
66	0x3c364800	0.011125565
67	0x3c12b1df	0.008953541
68	0x3be0f0bc	0.0068646353
69	0x3c599090	0.013279095
70	0x3c040c2f	0.008059545
71	0x3b3ddec7	0.0028971897
72	0x39c40944	0.00037390937
73	0xbb8a854d	-0.0042273165
74	0xbb77ac10	-0.0037791766
75	0x3b850326	0.004059213
76	0x3bc8db56	0.0061296625
77	0x3c6461fb	0.013939376
78	0x3c79772b	0.015226166
79	0x3bd6a212	0.006550082
80	0x3bf19987	0.007373038
81	0x3ba65d5e	0.005077048
82	0x3bc89c95	0.0061221817
83	0x3c19fc23	0.009398493
84	0x3b9d0b6d	0.004792622
85	0xbb9a3f88	-0.0047072805
86	0xbbf79bbf	-0.007556408
87	0xba2ca798	-0.0006586253
88	0xbb9b594f	-0.004740871
89	0xbbc709ac	-0.006074151
90	0xbb85006f	-0.0040588896
91	0xbb4d70f0	-0.0031347834
92	0xbb1b5a08	-0.0023704786
93	0xbbf5d5fb	-0.007502315
94	0xbc295d64	-0.0103372075
95	0xba9d4e67	-0.0012001515
96	0xba3bdca6	-0.0007166363
97	0x39824b58	0.00024851668
98	0x3b31089a	0.0027013184
99	0xbabf9b82	-0.0014618488
100	0x3b63b770	0.0034746788
101	0x3c2077ea	0.009794215
102	0x3c5210d3	0.012821394
103	0x3c1549b9	0.009111815
104	0x3c152522	0.009103091
105	0x3c0d2a4c	0.008616041
106	0x3c4adc19	0.012381577
107	0x3c8c07a3	0.017093485
108	0x3c249807	0.010046012
109	0x3c0884b3	0.008332419
110	0x3b69bbed	0.003566499
111	0x3c0720a2	0.008247526
112	0x3bd3ffdb	0.0064697093
113	0x3bfc28a1	0.007695273
114	0x3bee046a	0.00726371
115	0xbba3c140	-0.0049974024
116	0xbb83206a	-0.004001667
117	0xbb68f80f	-0.0035548245
118	0xbbd056b2	-0.006357991
119	0x3ae075bc	0.0017124931
120	0xbb4011c8	-0.0029307473
121	0xbbb3e243	-0.005489619
122	0xbbcf38e7	-0.006323922
123	0xbc1f6671	-0.009729014
124	0xbb55df04	-0.0032634148
125	0xbb42ac16	-0.0029704622
126	0xbb360240	-0.0027772337
127	0x39b8e072	0.0003526244
128	0x3b73c1f7	0.003719447
129	0x3b36b44c	0.0027878461
130	0x3bd3dad8	0.006465297
131	0x3c14a97a	0.0090736095
132	0x3c60e5b2	0.013726639
133	0x3c776695	0.015100141
134	0x3c4cabe8	0.0124921575
135	0x3c1afa29	0.009459057
136	0x3c29f644	0.010373656
137	0x3c71df26	0.014762675
138	0x3c3a1085	0.011356478
139	0x3c519539	0.012791925
140	0x3c3bb9c4	0.011457864
141	0x3c75c31e	0.015000133
142	0x3c71c924	0.014757428
143	0x3c7886ab	0.015168826
144	0x3c84f506	0.016230118
145	0x3aefcf1b	0.0018295975
146	0x3b9e84b6	0.0048375977
147	0x39ea30d0	0.00044668326
148	0xbbc61a94	-0.006045649
149	0x3a72d404	0.000926316
150	0xba641d5c	-0.00087018847
151	0x3a30e425	0.00067478634
152	0xbc25aa1a	-0.010111356
153	0xbbaddf80	-0.0053061843
154	0x3b968ab5	0.004594172
155	0xba993bdd	-0.0011690814
156	0xbb8b910c	-0.0042592343
157	0xbadbb648	-0.0016762698
158	0xbb647401	-0.0034859183
159	0x3bc093dd	0.0058770017
160	0x3b25b336	0.002528382
161	0xbbd1a7e2	-0.006398187
162	0x3b459d38	0.0030153524
163	0xbb854970	-0.0040675923
164	0x3c35b2f0	0.011090025
165	0xbb841d5a	-0.0040318193
166	0xbae54844	-0.001749285
167	0x3a9e585a	0.0012080774
168	0xbb3023ac	-0.002687673
169	0x3beb1d82	0.0071751485
170	0xbbf0b7c4	-0.0073461253
171	0x3b021b58	0.0019852724
172	0xbace7e2d	-0.0015754156
173	0xbaa7ebee	-0.0012811401
174	0x3b8da1ee	0.004322282
175	0xba4c10f8	-0.0007784511
176	0x3b0ef0db	0.0021811042
177	0x3afe93a1	0.0019422659
178	0xb968b0a8	-0.00022191054
179	0xbb1d7a54	-0.0024029212
180	0xbae1e726	-0.0017235025
181	0xbad3f211	-0.0016170164
182	0xbb6b80f6	-0.003593502
183	0xbb77f96e	-0.003783788
184	0xbbb05ec7	-0.005382392
185	0x3b3b757d	0.0028603964
186	0x3bdd1c2a	0.006747742
187	0x3ab23918	0.0013597338
188	0xb980beb4	-0.00024556147
189	0xb9655098	-0.00021869165
190	0x3c1392d9	0.009007179
191	0x3a779ec8	0.00094459625
192	0x3a31a67b	0.00067768217
193	0x3aea98bd	0.0017898303
194	0x3b426783	0.0029663749
195	0x3a738331	0.00092892634
196	0x39d0fab0	0.00039859628
197	0x3a571a38	0.0008205506
198	0x3b45a40b	0.0030157592
199	0x3a583e93	0.00082490704
200	0xba623de4	-0.0008630438
201	0x3b1fd399	0.0024387597
202	0x37efbe40	2.8579612e-05
203	0xbb22ef63	-0.0024861924
204	0xbb8a143b	-0.0042138374
205	0x3b9f1bc3	0.0048556044
206	0xbaf974c0	-0.0019031987
207	0xbb033168	-0.0020018462
208	0xba64d446	-0.0008729141
209	0xba64eac1	-0.0008732491
210	0xbc06064e	-0.008180214
211	0xbb00d414	-0.0019657658
212	0xb99ab21d	-0.00029505874
213	0xbb990035	-0.004669214
214	0xbb00d179	-0.0019656105
215	0xbbd647b6	-0.0065393103
216	0xbb159929	-0.0022826886
217	0x3ad990ba	0.0016598918
218	0xbab7f029	-0.0014033365
219	0xbaa722bf	-0.0012751444
220	0xbabb4e84	-0.0014290367
221	0xbb547cb9	-0.0032422973
222	0xba11042f	-0.00055319344
223	0xbb2ad3ba	-0.002606614
224	0xb983ebf0	-0.00025162054
225	0xbb877282	-0.0041335234
226	0x3b8b95cd	0.004259801
227	0x3ba19492	0.004931041
228	0x3bb2205a	0.0054359855
229	0xb9c59ce0	-0.0003769165
230	0xbc024af4	-0.0079524405
231	0x3b15ffe4	0.0022888118
232	0x3b3026a8	0.002687851
233	0xbb33a3f4	-0.0027410956
234	0xbb4783f6	-0.0030443645
235	0x3bb88e7c	0.00563222
236	0x3b47f1f4	0.0030509206
237	0x3b466501	0.0030272605
238	0xbb125d94	-0.002233361
239	0xb97d5e50	-0.00024163094
240	0x3bde631c	0.006786717
241	0x3b4693e5	0.0030300554
242	0xbb36eb94	-0.0027911412
243	0x3b55eaf0	0.0032641254
244	0x3b1730c6	0.0023069843
245	0x3b9d7f7d	0.0048064576
246	0x3b99fc22	0.004699246
247	0x3ae0d850	0.001715431
248	0x3b178cf8	0.0023124795
249	0x39d46468	0.000405106
250	0xbbda2b2e	-0.0066579795
251	0x3b24d23c	0.0025149724
252	0x3c0f8a75	0.008761038
253	0x3bf85bfa	0.007579324
254	0xba49ee79	-0.00077030767
255	0xbb8e059c	-0.004334165

momentum_buffer f4 [16]
0	0x3c9a2e13	0.018820798
1	0x3b22b582	0.0024827425
2	0x3c735083	0.014850738
3	0x3b96d4f9	0.004603025
4	0xbb171890	-0.0023055412
5	0xbba3f8c8	-0.0050040223
6	0xbbbd13e8	-0.0057701953
7	0x3c9275f1	0.017878504
8	0x3c928377	0.017884953
9	0x3ca848f3	0.020542597
10	0x3cb113bc	0.021615855
11	0x3c2be17f	0.010490774
12	0x3b029104	0.0019922862
13	0x3c573ba6	0.01313678
14	0xbb6a209f	-0.003572501
15	0xbbcab250	-0.0061858073

momentum_buffer f4 [120, 16, 5, 5]
0	0x3b4cb79f	0.0031237376
1	0xba753207	-0.0009353463
2	0x3b084a19	0.0020796119
3	0x3a2a641e	0.0006499904
4	0xba64cd44	-0.0008728097
5	0x39b02720	0.00033598486
6	0xbb908015	-0.0044098
7	0xbb2595c3	-0.0025266267
8	0x3a806b4a	0.00097976
9	0x39f45917	0.00046605684
10	0xbb90b178	-0.004415687
11	0xbc052265	-0.008125876
12	0xbbc0da9d	-0.0058854357
13	0xbc08e270	-0.008354768
14	0xbb419085	-0.0029535603
15	0x3a86c880	0.0010283142
16	0x39058c4c	0.00012736133
17	0x3a1d3368	0.0005996735
18	0xbae8f95c	-0.001777451
19	0xbb7e1b4b	-0.0038773592
20	0x3b8361bb	0.004009453
21	0x39d72d14	0.0004104158
22	0x3b157c7e	0.0022809799
23	0x3b7254b5	0.003697676
24	0x3b71bf8a	0.0036887848
25	0x3b3ba89f	0.0028634442
26	0x3b4d5b79	0.003133504
27	0x3b3f41cf	0.0029183512
28	0x39cc6c1a	0.00038990454
29	0x3b4d6474	0.0031340392
30	0x3b68b7bc	0.0035509905
31	0x3b932856	0.0044908924
32	0x3b4f789a	0.0031657577
33	0x3b408288	0.0029374678
34	0x3b374890	0.0027966835
35	0x3b8df038	0.004331615
36	0x3bd3df02	0.0064657936
37	0x3be5bc12	0.007010945
38	0x3bf212d8	0.0073875003
39	0x3bd47700	0.0064839125
40	0x3b677d1c	0.0035322374
41	0x3abbf4ee	0.0014339963
42	0x3adfee67	0.0017084599
43	0x3ba6cf96	0.005090664
44	0x3b20fd4a	0.0024565035
45	0x38646550	5.445379e-05
46	0x3a160164	0.0005722253
47	0x3b5a34ad	0.0033295557
48	0x3a921652	0.0011145568
49	0xbb7826be	-0.003786489
50	0xba21031e	-0.0006142127
51	0x3b0d9b9c	0.0021607643
52	0x3b922f70	0.0044612214
53	0x3b744372	0.0037271646
54	0x3aeeb23f	0.001821108
55	0xbb544746	-0.0032391115
56	0xbb1eff62	-0.0024261107
57	0x3a86374c	0.0010239868
58	0x3b047286	0.0020209863
59	0xbad6240a	-0.0016337645
60	0x3b08e4e1	0.0020888376
61	0x3b9a007e	0.0046997657
62	0x3bfa5066	0.007638979
63	0x3c023c5e	0.007948963
64	0x3b2f78ac	0.0026774807
65	0xbafe3984	-0.0019395803
66	0xbaaf9ddc	-0.0013398486
67	0x3b1531ce	0.0022765282
68	0x3ad6bc25	0.0016382976
69	0xbaf7a9fc	-0.0018895264
70	0x3ab74e41	0.0013985113
71	0x3b2f051a	0.0026705922
72	0x3b6ff06a	0.0036611804
73	0xb93d6890	-0.00018063397
74	0xbb902dbf	-0.0043999846
75	0x39f42606	0.00046567636
76	0xb9828fb2	-0.00024902594
77	0xb91deb42	-0.00015060327
78	0x3a33c2dc	0.00068573444
79	0xbad321cf	-0.0016108098
80	0x3b3b86a6	0.0028614192
81	0x38884e20	6.499537e-05
82	0x392dd1c8	0.00016576715
83	0x3a62867c	0.00086412556
84	0xbb30bc22	-0.0026967605
85	0x3ba13079	0.0049191085
86	0xba1e6009	-0.0006041532
87	0xb979bef8	-0.00023817632
88	0x39d76928	0.00041086343
89	0xbb5a5fa6	-0.003332117
90	0x3b67e5f8	0.0035384875
91	0x3a18ba86	0.0005826134
92	0x3ba6da2c	0.005091926
93	0x3b5c90de	0.0033655684
94	0xbaa0ab20	-0.001225803
95	0x3ad35390	0.0016122926
96	0x3b432793	0.0029778227
97	0xb99273f2	-0.00027933676
98	0x3a554aff	0.00081364805
99	0xbaa17268	-0.0012317421
100	0xba0c4e19	-0.00053522136
101	0xbad0490a	-0.0015890908
102	0xbb79e2c8	-0.0038129557
103	0xbb068b96	-0.0020529977
104	0xbb33f992	-0.0027461988
105	0xbad93af4	-0.0016573356
106	0xbbb03cfb	-0.005378363
107	0xbb159213	-0.0022822663
108	0xbc07cfae	-0.008289261
109	0xbb9025c7	-0.0043990347
110	0xba805d28	-0.0009793388
111	0xba534f50	-0.000806083
112	0x3a85b5b6	0.0010201249
113	0xbbcfb26b	-0.0063384078
114	0xbb294adc	-0.0025831973
115	0xbb2bbfa2	-0.0026206751
116	0xbb070528	-0.0020602439
117	0xbb870254	-0.0041201506
118	0xbbbe8a6a	-0.00581484
119	0xba8d1afa	-0.0010765486
120	0xbb1ca948	-0.002390461
121	0xba92fc24	-0.001121406
122	0xbb1b4844	-0.0023694197
123	0xbb653662	-0.0034975042
124	0xba45a12d	-0.00075389707
125	0xba452d3e	-0.0007521695
126	0xbab097d0	-0.0013472978
127	0x3a8e58b5	0.0010860177
128	0xb9557d14	-0.00020359858
129	0xb938e017	-0.00017631087
130	0x3a851fb8	0.0010156548
131	0x3b6fb1fc	0.0036574593
132	0x3b315cf9	0.0027063473
133	0x3ae9a2ee	0.0017825046
134	0x3a8989db	0.0010493355
135	0x3a9d15b8	0.0011984622
136	0x3bd009f8	0.0063488446
137	0x3b092fee	0.002093311
138	0x3b92280d	0.004460341
139	0x3b1b0b9e	0.0023658047
140	0x3b68626c	0.0035459055
141	0x3b85502a	0.004068394
142	0x3b81c50f	0.003960259
143	0x3b6f8c93	0.0036552295
144	0x3b8bfd09	0.0042721075
145	0x3b3edce8	0.002912337
146	0xb9d014aa	-0.00039688247
147	0x3ae2b4d7	0.0017296326
148	0x3b89a014	0.004199991
149	0x3ab9fca7	0.0014189676
150	0x3b7ca1b7	0.0038548538
151	0x3b3ef35f	0.002913676
152	0x3a5e9f9a	0.00084924104
153	0x3b571e72	0.0032824543
154	0x3b22bd8d	0.002483222
155	0x3b85a3ce	0.004078365
156	0x3b8c77b3	0.00428673
157	0x3b889c3c	0.004169015
158	0x3c126940	0.008936226
159	0x3b3842ce	0.002811599
160	0x3b6c5796	0.0036062947
161	0x3b62dd5c	0.0034616804
162	0x3c036257	0.0080190515
163	0x3c015554	0.007893879
164	0x3b72f88f	0.0037074422
165	0x39f47af8	0.00046630925
166	0x3ab537e8	0.0013825865
167	0x3b07641f	0.0020659042
168	0x3b8ad984	0.0042373557
169	0xbb01a6c3	-0.0019783236
170	0xba88be1c	-0.0010432634
171	0xb915a540	-0.00014271308
172	0x3a88c14d	0.0010433585
173	0xbaedeb42	-0.0018151777
174	0xbb9904bc	-0.004669754
175	0xba57160f	-0.0008204886
176	0xbaad15a9	-0.0013205308
177	0x3af7331b	0.0018859835
178	0x3a0e368e	0.00054249994
179	0x3a927c78	0.0011176011
180	0xbad2338a	-0.0016037088
181	0x3b542ba2	0.003237464
182	0x3b5dc949	0.00338419
183	0x3aa05afc	0.0012234147
184	0x3b8680cb	0.004104709
185	0xbb04008c	-0.0020141928
186	0x3ac7e104	0.0015249555
187	0x3aac0eda	0.0013126985
188	0xba8878ec	-0.0010412014
189	0x3bb5e56e	0.005551032
190	0x3afa0d6b	0.0019077485
191	0x3b8f482d	0.0043726177
192	0x3b33ca6a	0.002743388
193	0x3badfc86	0.005309644
194	0x3b7238b4	0.0036960067
195	0xb9358d73	-0.00017314199
196	0x3b310625	0.002701172
197	0x3bb6d8ab	0.005580028
198	0x3b8f63e3	0.004375921
199	0x3a2523ee	0.00062996044
200	0x3b42a217	0.0029698664
201	0xbb41a429	-0.002954731
202	0x38ecee40	0.000112977345
203	0xbb2c6d74	-0.0026310356
204	0xb8f02018	-0.0001145007
205	0xbb03fa5a	-0.0020138235
206	0xbbc5e58d	-0.0060393275
207	0xbb8f415a	-0.004371804
208	0xb8626100	-5.3972937e-05
209	0x3ada2bde	0.0016645154
210	0xbbb2d57c	-0.005457578
211	0xbbe66689	-0.007031266
212	0xbbb0c08f	-0.0053940485
213	0xbbd4d89d	-0.006495549
214	0xba6b5923	-0.0008977821
215	0xb9e98600	-0.0004454106
216	0x3ab90ba8	0.0014117854
217	0xba8884e1	-0.0010415578
218	0xbaea4098	-0.0017872034
219	0x3ac9f774	0.001540883
220	0x3af3988c	0.0018584891
221	0x3940d1c6	0.00018388694
222	0x3b15e414	0.002287154
223	0x3b9cdc7e	0.004787027
224	0x3b7efc68	0.003890777
225	0x3b2c574b	0.0026297148
226	0x3b73c4ed	0.0037196234
227	0x3b8d2d9b	0.004308415
228	0x3aace564	0.0013190922
229	0x3ada357e	0.0016648022
230	0x3b491da7	0.003068784
231	0x3be22ff2	0.006902688
232	0x3b5e9705	0.0033964526
233	0x3b97e5ac	0.0046355333
234	0x3b333246	0.0027343198
235	0x3ad1251f	0.0015956498
236	0x3b60085e	0.0034184675
237	0xba5891ee	-0.00082614913
238	0x3b41f670	0.002959635
239	0x3b40b4b6	0.0029404587
240	0x3a1ef117	0.0006063147
241	0xba2b5b93	-0.0006536778
242	0xbb080e83	-0.0020760603
243	0x3aa5916d	0.0012631841
244	0x3a1cafb2	0.00059771084
245	0xb9c1ccb0	-0.00036964333
246	0xbaef76a0	-0.0018269606
247	0xba1d0bc2	-0.0005990827
248	0xb9f97b1e	-0.0004758471
249	0xb9aac634	-0.000325726
250	0x3b010874	0.0019688876
251	0x3b00938f	0.0019619202
252	0x3a922330	0.0011149403
253	0x3b244003	0.0025062568
254	0x3a9935c6	0.0011688999
255	0x39e01b92	0.0004274515

momentum_buffer f4 [120]
0	0x3b71601e	0.0036830972
1	0x3b113bb1	0.0022160823
2	0xbb459f06	-0.00301546
3	0xbb065474	-0.0020497115
4	0x3a85882f	0.0010187681
5	0x39f5b678	0.0004686599
6	0x3a519457	0.00079948216
7	0xbb014b65	-0.0019728777
8	0x3b6fa346	0.0036565824
9	0x397e588a	0.00024256311
10	0xba2c51c0	-0.0006573461
11	0xbb48d0cb	-0.0030642028
12	0xba285441	-0.0006421246
13	0xb9c30280	-0.0003719516
14	0xba18e39d	-0.0005832257
15	0x3ad6ca93	0.0016387276
16	0xbb5419e6	-0.003236407
17	0x3b024bd7	0.001988163
18	0x3b3a2393	0.0028402552
19	0x3b0cee00	0.0021504164
20	0xba58c1f8	-0.00082686497
21	0x3a33cd0c	0.00068588625
22	0xb92993e8	-0.00016172195
23	0x3ad8d102	0.0016541781
24	0xbabefc4e	-0.0014571042
25	0xbad3e932	-0.001616752
26	0x3b100988	0.0021978337
27	0xbb038780	-0.0020069778
28	0xbacc4aef	-0.0015586297
29	0xbabab864	-0.0014245627
30	0x3a955cf6	0.0011395502
31	0xbaeb9cb9	-0.0017975784
32	0x3aff375f	0.0019471458
33	0xb9a0afa4	-0.0003064844
34	0x3b61ee27	0.0034474225
35	0x3ad42bcc	0.0016187369
36	0x3ad3d0f9	0.0016160301
37	0x3ba1ac26	0.004933852
38	0xba000918	-0.00048841676
39	0x3afec8a7	0.0019438461
40	0xba688da3	-0.0008871203
41	0xbb18601d	-0.0023250647
42	0x3a34b9ba	0.00068941305
43	0xba849274	-0.0010114447
44	0xbb50b7fe	-0.003184795
45	0x399cca68	0.00029905443
46	0x3b645f15	0.0034846712
47	0x3ac52c29	0.0015043068
48	0xba442a94	-0.0007483151
49	0xba5fd87f	-0.00085390353
50	0x396be5c8	0.00022496947
51	0xba8b797d	-0.0010641065
52	0xbaf9ac64	-0.0019048569
53	0xbb1a54df	-0.0023549122
54	0xbb37bce0	-0.0028036162
55	0xbb899faa	-0.0041999416
56	0x3b440dfb	0.002991556
57	0xbb24e323	-0.0025159798
58	0xbb10de7b	-0.0022105265
59	0x3b38b852	0.0028186035
60	0x3a929553	0.0011183418
61	0xbb95e54b	-0.004574453
62	0x390f2d30	0.00013654376
63	0xbb26720f	-0.0025397574
64	0xba202740	-0.00061093643
65	0xba5dcfc4	-0.00084614404
66	0xb86b270c	-5.606473e-05
67	0xbb291d28	-0.0025804732
68	0x3b124ec6	0.0022324785
69	0xb9fc1460	-0.00048080366
70	0x3ae02cfc	0.001710325
71	0xba8b4310	-0.0010624845
72	0xb9fd7604	-0.0004834385
73	0x37614f00	1.3429439e-05
74	0x3a239d4f	0.00062413974
75	0x3b2ab602	0.0026048427
76	0xbb1c0abd	-0.0023810111
77	0xba235614	-0.0006230783
78	0xba8ed4f3	-0.0010897204
79	0xbb246b99	-0.0025088547
80	0x39a2347e	0.00030938158
81	0x3b1e763e	0.0024179365
82	0xbb654afd	-0.0034987323
83	0xb8469670	-4.7346985e-05
84	0x3b44ca2c	0.003002773
85	0xbb2425f8	-0.0025047045
86	0xb9d8636c	-0.00041272806
87	0x3a32e75e	0.00068246375
88	0xba838fca	-0.0010037359
89	0xb84d3c0c	-4.893173e-05
90	0xbae12e84	-0.001718
91	0xba1d5891	-0.0006002272
92	0xbb58a500	-0.0033057332
93	0x3a4da79a	0.0007845104
94	0xbb362a7a	-0.0027796314
95	0x3b70a256	0.0036717854
96	0x3b34bd36	0.0027578599
97	0xbb6c5377	-0.003606049
98	0x39d7beae	0.00041150063
99	0x3a3d4f64	0.0007221608
100	0xba43788a	-0.00074566214
101	0xbaeae76e	-0.0017921755
102	0x3914335b	0.00014133511
103	0xbab32fdf	-0.0013670883
104	0xbb74db18	-0.0037362035
105	0x3b6df39b	0.003630853
106	0x3ab71a3f	0.0013969614
107	0x3a636595	0.00086744997
108	0xb991e310	-0.0002782573
109	0xbb20ccd0	-0.002453614
110	0xbad59b22	-0.0016296844
111	0xba6108b0	-0.00085843634
112	0xbb2add1d	-0.0026071735
113	0xbb35747b	-0.0027687836
114	0x37a66f00	1.984043e-05
115	0xbaf7fbe5	-0.0018919675
116	0xbb055bca	-0.00203489
117	0xbb04aff4	-0.0020246478
118	0xbb1b016a	-0.0023651966
119	0xbac57f02	-0.0015067759

momentum_buffer f4 [84, 120]
0	0xb90b1d86	-0.00013267071
1	0xba8ecded	-0.0010895111
2	0x381906b0	3.648427e-05
3	0x3a7b738e	0.0009592109
4	0xbae99cb0	-0.0017823186
5	0xbb203d9a	-0.002445078
6	0x3b45787d	0.003013163
7	0xb9a39cf0	-0.0003120671
8	0xba3fee7f	-0.00073216105
9	0xbac126c1	-0.0014736281
10	0xba954aaa	-0.001139005
11	0x3abe3724	0.0014512283
12	0xba94646b	-0.0011321431
13	0xbb17ec28	-0.0023181532
14	0x3a517bba	0.0007991154
15	0x385340b0	5.0366565e-05
16	0x3987a64e	0.00025873113
17	0xbaebd8da	-0.0017993704
18	0xba84322e	-0.0010085755
19	0xb92c481e	-0.00016430064
20	0x3aa0a84a	0.0012257185
21	0x3a934aff	0.001123756
22	0x3b0f1b48	0.002183633
23	0x3acd559a	0.001566577
24	0xba407f75	-0.00073432113
25	0x396fb528	0.00022860302
26	0x3a8b9af0	0.0010651033
27	0xba952241	-0.0011378006
28	0xba23c554	-0.0006247361
29	0x39899678	0.00026242784
30	0xba9af14a	-0.0011821177
31	0xba144460	-0.00056559406
32	0x3b55cd58	0.0032623615
33	0x39e0c68e	0.00042872544
34	0x3a4848cb	0.00076402415
35	0x39beb9fc	0.00036378193
36	0xb82c7bf8	-4.112345e-05
37	0x39b679c8	0.0003480448
38	0xbaa2cabd	-0.001242004
39	0xba9601ee	-0.0011444667
40	0xba574e33	-0.0008213252
41	0x394a4ea4	0.00019293517
42	0xb9088284	-0.00013018592
43	0x3ab9b68f	0.0014168787
44	0x3aa74a9c	0.0012763324
45	0xb9c18719	-0.00036912484
46	0xba1857cb	-0.0005811422
47	0x3653b800	3.1548552e-06
48	0xba11dd1b	-0.00055642583
49	0xba96a9c5	-0.0011494687
50	0xba1e8044	-0.0006046335
51	0x3a3448b6	0.000687729
52	0x387dd830	6.052124e-05
53	0xb9e5a8a8	-0.00043803942
54	0xb8b05e48	-8.409895e-05
55	0xb9b842b0	-0.000351449
56	0x3a2524c3	0.00062997284
57	0xbaf045ec	-0.0018331385
58	0x3a0d961c	0.0005401091
59	0x397de6a0	0.00024213875
60	0xba8a88a2	-0.0010569284
61	0x3916da4a	0.00014386434
62	0x3aa5f55d	0.0012661625
63	0x39a14a0a	0.00030763476
64	0xbb4c5ba0	-0.0031182542
65	0x3a93ce33	0.0011276662
66	0xb9de102e	-0.00042355194
67	0x39217484	0.00015397562
68	0xba777b08	-0.00094406353
69	0x3b28cdb0	0.0025757365
70	0x3b45f1ab	0.003020386
71	0xba472e4b	-0.0007598146
72	0xba7423c6	-0.0009313192
73	0xba8e1f43	-0.0010843057
74	0x3a858cc8	0.0010189051
75	0x3a8d12a6	0.0010763004
76	0x3a07b860	0.00051773153
77	0x3a8757bf	0.0010325833
78	0xbac2adc1	-0.0014852808
79	0xb91854c4	-0.00014527427
80	0x3b11d42b	0.0022251706
81	0xba2525d2	-0.0006299886
82	0xbaabd0b8	-0.0013108468
83	0xbb1778fb	-0.0023112881
84	0xba5d6b93	-0.0008446511
85	0x3aca8d15	0.0015453423
86	0x39e15150	0.00042975927
87	0x395a49b0	0.00020817551
88	0x3b4072cd	0.0029365302
89	0x39ae177d	0.00033205366
90	0x3a56f91e	0.00082005735
91	0x3b0bfcac	0.002136032
92	0x39372972	0.0001746768
93	0xb98c1a71	-0.0002672258
94	0x3a1ed5ca	0.0006059079
95	0xb9f2f7b0	-0.00046342378
96	0x3ad794b8	0.001644752
97	0xbaaa9ff2	-0.0013017638
98	0xbb196962	-0.002340876
99	0xbabcc5bc	-0.0014402191
100	0x3aed6ab2	0.0018113463
101	0xb904e41a	-0.00012673475
102	0xba1f52a0	-0.0006077681
103	0xba72605e	-0.0009245927
104	0x3a43d0e1	0.0007469785
105	0x3a56f2e1	0.0008199644
106	0xb9f3ea38	-0.00046523078
107	0x3aed4e43	0.0018104989
108	0x3a68ac2c	0.0008875753
109	0x3adb564c	0.0016734092
110	0x3b213114	0.0024595903
111	0xb9513a7a	-0.00019953577
112	0xba205f47	-0.0006117713
113	0xb9540408	-0.00020219397
114	0xb9f3f298	-0.00046529318
115	0x3aff2681	0.0019466431
116	0x3b1231a5	0.0022307422
117	0xb98bc444	-0.00026658375
118	0xba406e58	-0.0007340661
119	0xba5c2976	-0.0008398512
120	0x3acf3fea	0.0015811895
121	0xbb14aefd	-0.002268731
122	0x3af8e077	0.0018987794
123	0x39fcebf8	0.00048240996
124	0xba06e870	-0.000514633
125	0x3b159621	0.002282508
126	0xbb0dcd36	-0.0021637208
127	0x3a91ff5c	0.0011138725
128	0x3ae7208c	0.0017633601
129	0x3aef37ab	0.0018250843
130	0xba04b7a2	-0.0005062764
131	0xbad54fc6	-0.0016274385
132	0xba85a7dd	-0.0010197122
133	0x393185ef	0.0001692993
134	0xb5e6b780	-1.7189741e-06
135	0x39761102	0.00023466724
136	0x3adaf077	0.0016703744
137	0x3b4ed15c	0.0031557893
138	0x396d347c	0.00022621633
139	0x3a9161a0	0.0011091717
140	0xbb096463	-0.0020964376
141	0xbab7bbbd	-0.0014017742
142	0xbb052884	-0.0020318339
143	0xbb7dbdb2	-0.0038717804
144	0xb9b5890f	-0.00034625127
145	0x3aca581c	0.0015437636
146	0xbaa78724	-0.0012781364
147	0xba283a94	-0.000641742
148	0x3987421a	0.00025798456
149	0xbac7d810	-0.0015246887
150	0x3996944e	0.00028720725
151	0xbab7e3a0	-0.001402963
152	0x3add68e4	0.0016892222
153	0x39b8c723	0.00035243583
154	0x3a96aa77	0.0011494894
155	0xbb070290	-0.0020600893
156	0xbaa06408	-0.0012236843
157	0x3aa75f0c	0.0012769415
158	0xbb004076	-0.0019569672
159	0xbb1f6f0a	-0.002432766
160	0xba596acf	-0.0008293809
161	0xb9d0d61c	-0.00039832375
162	0xb9c70486	-0.00037959608
163	0x398fa9f6	0.00027401716
164	0x38b9a61a	8.852426e-05
165	0x39aa23bd	0.00032451554
166	0x3a99b45e	0.0011726727
167	0x3ac6712a	0.0015139927
168	0x3ac5a402	0.0015078785
169	0xba432ffc	-0.000744581
170	0x390a07b4	0.00013163575
171	0xb9326fd1	-0.00017017058
172	0x3a115a26	0.0005544744
173	0xbac058c8	-0.0014674896
174	0xbb2faad6	-0.0026804707
175	0xbaf669fe	-0.0018799899
176	0x3a9f987c	0.0012176181
177	0x3aa1fba5	0.0012358321
178	0x3a06c0d7	0.000514043
179	0x3b5c3011	0.0033597986
180	0x3aabd324	0.001310919
181	0x39d13cc4	0.0003990886
182	0xba926fe9	-0.0011172268
183	0xba1cff8c	-0.0005989007
184	0x3a46f620	0.0007589776
185	0xbac9b037	-0.0015387599
186	0x3a4b0e2d	0.0007745948
187	0xb90cd1c5	-0.00013429586
188	0xb7e08520	-2.6764872e-05
189	0xbb1ed32f	-0.0024234762
190	0xbaaf0d2e	-0.0013355368
191	0xbaa7fe2e	-0.001281684
192	0x3a208ec6	0.00061247905
193	0x3b0d9342	0.0021602665
194	0x3a4c5dfd	0.0007795988
195	0x3ab61b65	0.0013893662
196	0xb984f1c8	-0.00025357143
197	0x3a6f569e	0.00091300334
198	0x3aee1dda	0.0018166855
199	0x3b04cb18	0.0020262655
200	0xbb3ef0b4	-0.002913517
201	0xbab0dffa	-0.0013494485
202	0xb9299771	-0.00016173512
203	0x3a002691	0.00048885593
204	0xb92ca1ae	-0.00016463429
205	0x3a03bb02	0.000502512
206	0x3a8c13da	0.0010687069
207	0x3aa59833	0.001263386
208	0xbb193c07	-0.0023381726
209	0xba7a4383	-0.0009546803
210	0xbad89210	-0.0016523022
211	0xba67c042	-0.00088405993
212	0x3a2b6a02	0.0006538929
213	0x3a98e140	0.001166381
214	0x39c1afc2	0.00036942778
215	0x3af38373	0.0018578604
216	0x38322530	4.247314e-05
217	0x3ad7781b	0.0016438992
218	0x3a83bbeb	0.0010050511
219	0xba397e55	-0.0007076015
220	0xbab80407	-0.0014039286
221	0xbaf0ddac	-0.001837661
222	0x39f68202	0.0004701764
223	0x3a4502e8	0.00075153867
224	0x3a6d1a46	0.00090447476
225	0xba3f57ed	-0.0007299174
226	0x38f9dc60	0.00011914293
227	0x3a06f6a0	0.00051484443
228	0x3aee76bd	0.0018193346
229	0xbad946b3	-0.0016576856
230	0xbab4d566	-0.0013796508
231	0x3ad3cc78	0.0016158959
232	0x3ab19c6a	0.0013550643
233	0x3b05b301	0.0020400884
234	0xbaecdc9c	-0.0018071118
235	0xbabd0d36	-0.0014423493
236	0xbb4105c7	-0.0029452906
237	0x396f0990	0.00022796378
238	0xbabc58c4	-0.0014369716
239	0x3a23df33	0.0006251216
240	0xbad8a67d	-0.001652911
241	0x39d1f8f8	0.00040049083
242	0xba7a44ff	-0.00095470244
243	0x3a99a06c	0.0011720783
244	0x3b1b95f6	0.0023740507
245	0xba3eb26c	-0.0007274512
246	0x3b056861	0.0020356404
247	0xba24418b	-0.000626587
248	0x39a68b3e	0.0003176573
249	0xba1ef17f	-0.00060632074
250	0xb9a4d713	-0.0003144076
251	0x39eba276	0.00044943736
252	0x398e3df2	0.00027130503
253	0x3acedd2c	0.0015782467
254	0xba44092d	-0.0007478174
255	0xb91add98	-0.00014769135

momentum_buffer f4 [84]
0	0xbaeb366b	-0.0017945295
1	0x3a96ea52	0.0011513925
2	0xb9a19172	-0.00030816678
3	0x3a659491	0.0008757795
4	0x3a948d11	0.0011333545
5	0x3ab0004d	0.0013427824
6	0x3b32382a	0.002719412
7	0xbb0e2a6b	-0.0021692764
8	0x3a1703d7	0.0005760765
9	0x3a7b54a8	0.0009587505
10	0x3bc4dc08	0.006007675
11	0xb7d510c0	-2.5399379e-05
12	0x3a95ebdf	0.0011438093
13	0x3a5665be	0.0008178613
14	0xb94d8de0	-0.00019603176
15	0x39df6134	0.00042606296
16	0xbb54d0ba	-0.0032473044
17	0x39dab04c	0.00041711552
18	0x3b091134	0.0020914795
19	0xbbb36832	-0.0054750675
20	0x3a9b9d16	0.0011872377
21	0x3b6172c0	0.0034400672
22	0x3b110a8c	0.002213153
23	0xbae3ac55	-0.0017370085
24	0x3b3794a8	0.002801219
25	0xbaafb223	-0.0013404529
26	0x3b77e23f	0.0037824062
27	0x3a1f5c89	0.00060791575
28	0x3b202543	0.0024436272
29	0xbb1de4d0	-0.0024092682
30	0xbaacd3ae	-0.0013185644
31	0xbad1c798	-0.0016004918
32	0xbbbdda36	-0.005793835
33	0x3aff6b68	0.0019486966
34	0xba4bec36	-0.00077790336
35	0x3904a2a0	0.00012649084
36	0x37e367c0	2.7108821e-05
37	0xbb074778	-0.0020641964
38	0xb9838de6	-0.0002509199
39	0x3b89e8d3	0.004208663
40	0x398ae724	0.00026493624
41	0xba836bb8	-0.001002661
42	0xba8be3d7	-0.001067276
43	0xba947673	-0.0011326805
44	0x3b25568a	0.0025228583
45	0xbb8ddc7e	-0.004329263
46	0x3b150d86	0.0022743656
47	0xbb19596a	-0.0023399242
48	0x38b1a512	8.4707644e-05
49	0xbb7b747e	-0.0038368995
50	0x3abd6f8d	0.00144528
51	0x3b136087	0.0022487955
52	0x38fe5bf4	0.000121287914
53	0x3afa751c	0.0019108388
54	0xb88e2870	-6.77862e-05
55	0x3b0320d4	0.002000858
56	0x3aa7dc88	0.0012806812
57	0x3b448322	0.0029985388
58	0x39c39cd4	0.00037310144
59	0x3bad1cd1	0.005282976
60	0xbae3cc27	-0.0017379568
61	0x3b4bb1e7	0.003108138
62	0xbb46c0ef	-0.00303274
63	0xba384761	-0.0007029679
64	0xbb2e20fc	-0.0026569953
65	0xba94c8f0	-0.0011351388
66	0x3af4fa00	0.0018690228
67	0xba089284	-0.0005209821
68	0x3ac50e7d	0.0015034225
69	0xbb202613	-0.0024436757
70	0x3b19c387	0.002346249
71	0xba6f8b37	-0.0009137871
72	0xba3be340	-0.0007167347
73	0x3b17259a	0.0023063184
74	0x3a93d5a2	0.0011278878
75	0xb9b68afe	-0.00034817302
76	0xba972756	-0.0011532109
77	0x3b5cc62a	0.003368745
78	0xbabc1c67	-0.0014351726
79	0x3af02a64	0.001832318
80	0xbad6a44d	-0.001637587
81	0xbad83aa3	-0.0016496967
82	0xbb02ad20	-0.0019939616
83	0x3ad2c667	0.0016080857

momentum_buffer f4 [10, 84]
0	0xbbd15d3e	-0.006389289
1	0xbb82547c	-0.0039773565
2	0x3b879ebc	0.0041387957
3	0x3adaced0	0.0016693715
4	0x3b6f78bc	0.003654047
5	0x3a469560	0.0007575359
6	0x3bc91883	0.006136955
7	0xbbae443e	-0.0053181937
8	0x3b898ba0	0.004197553
9	0x3ba7de80	0.0051229596
10	0x3b9cf4ee	0.00478994
11	0xbb2e418b	-0.002658936
12	0xbb54ede5	-0.003249043
13	0xbaacbe8a	-0.0013179344
14	0xbaf9dd10	-0.0019063074
15	0x3b1f28e5	0.002428585
16	0xbbb3ed0d	-0.005490905
17	0x3b199813	0.002343659
18	0x3af68eec	0.0018810905
19	0xbb9d9235	-0.004808689
20	0x3b1a2e9f	0.0023526323
21	0xbb4deca6	-0.003142157
22	0x3ad8106a	0.0016484384
23	0xbaebb952	-0.0017984307
24	0x3b396898	0.0028291102
25	0x3a1ac0d1	0.00059033657
26	0x3afc32bd	0.0019241195
27	0x39918ed8	0.00027762982
28	0x3b8280dc	0.0039826464
29	0xbb969e5d	-0.004596515
30	0xbbf565c8	-0.00748894
31	0xba943a00	-0.0011308789
32	0xbb957a47	-0.0045616957
33	0xb952447c	-0.00020052673
34	0xb95132c8	-0.0001995071
35	0xb92c7152	-0.00016445413
36	0xbbb3d39c	-0.0054878723
37	0x3a1de2dc	0.00060228794
38	0x3a7a8084	0.00095558935
39	0x3b28309b	0.0025663737
40	0x3aac4c36	0.0013145271
41	0xba9b05b3	-0.001182726
42	0x3a436c72	0.0007454819
43	0x3b00aad7	0.0019633078
44	0x3b9d3011	0.0047969897
45	0xbba7bc4e	-0.005118883
46	0x3a49100e	0.0007669934
47	0xb9bc2645	-0.00035886667
48	0x3b59d3b8	0.0033237766
49	0x3b08d754	0.0020880299
50	0x3ba8c5c7	0.00515053
51	0x3b7cb1e5	0.0038558182
52	0x384e35d8	4.9164373e-05
53	0x3bd8f6b8	0.006621208
54	0xbb145c40	-0.0022637993
55	0xba776739	-0.00094376836
56	0x3b470e46	0.0030373498
57	0x3b49384c	0.0030703722
58	0xbb3560c8	-0.0027676094
59	0xb99331ec	-0.0002807522
60	0xbb399d23	-0.002832242
61	0x3b578ab4	0.003288907
62	0x3b3ff354	0.0029289322
63	0x3b186199	0.0023251532
64	0x3ad377de	0.0016133746
65	0xbab3f8d0	-0.0013730768
66	0xbb331351	-0.0027324746
67	0x3adcfd88	0.0016860226
68	0xbbb41c1d	-0.0054965154
69	0x3b3aa701	0.002848089
70	0x3ab8e2fe	0.0014105735
71	0xbbb5dfd5	-0.0055503645
72	0xbaa3f16c	-0.0012507862
73	0x3b8420a6	0.0040322123
74	0x3b5d152a	0.0033734539
75	0x35047a00	4.9351365e-07
76	0xbb48b8e3	-0.003062778
77	0x3b2b4669	0.0026134497
78	0xbb0077ab	-0.0019602578
79	0x3b3825a4	0.0028098607
80	0x3a76e74f	0.0009418623
81	0x3b83b94a	0.004019891
82	0x3930dc44	0.00016866723
83	0xba76eee6	-0.0009419754
84	0xbb72eaad	-0.0037066147
85	0x3787ff00	1.6211998e-05
86	0xb90b0d50	-0.00013261032
87	0x3b745bf0	0.0037286244
88	0xbafe9f2b	-0.0019426098
89	0xbaf0ccb8	-0.0018371558
90	0xbaa192cb	-0.0012327073
91	0xbb6043e8	-0.0034220163
92	0xb74823a0	-1.1929224e-05
93	0x3a657ef0	0.0008754572
94	0xbae8c5a7	-0.00177591
95	0x3b0d799d	0.002158738
96	0x39afa7dc	0.00033503666
97	0x3ad43707	0.0016190716
98	0xb93550b8	-0.00017291575
99	0xbb86dd08	-0.0041157044
100	0x3a06c61a	0.0005141214
101	0x3b1b4143	0.0023690022
102	0xbadad82c	-0.0016696504
103	0xbb46e66b	-0.0030349742
104	0xbb54a91e	-0.0032449435
105	0xbb9bfa9e	-0.0047601005
106	0x3a93953d	0.0011259686
107	0xbb3ff98c	-0.0029293029
108	0x3a45b596	0.0007542012
109	0x3b8d048e	0.0043035215
110	0x39921c9c	0.00027868606
111	0xbbc7bcc1	-0.0060954993
112	0x3b4609fe	0.0030218358
113	0x3b2bd8fe	0.0026221867
114	0xb961f560	-0.00021549081
115	0x3a5a9924	0.000833886
116	0xbb46f080	-0.0030355752
117	0x3b1589b3	0.002281767
118	0x3bbda268	0.0057871826
119	0xbb7e66ff	-0.0038818715
120	0xb6c7b980	-5.952257e-06
121	0x3b054e87	0.0020340995
122	0x3b6653d4	0.003514518
123	0xbadc5f3f	-0.0016813054
124	0xbaac4c86	-0.0013145364
125	0xbb61e736	-0.0034470088
126	0xbb0d40ee	-0.0021553594
127	0xbba13cc7	-0.0049205753
128	0x3abce46a	0.0014411334
129	0xbadcbabd	-0.001684032
130	0x3ba98232	0.005172991
131	0xbb1ddaac	-0.0024086637
132	0x3b861eb9	0.004093018
133	0x3a2affd9	0.00065231096
134	0xbb3dc02d	-0.0028953657
135	0xb9b701ea	-0.00034905906
136	0x3ab78160	0.0014000349
137	0x3b129f4e	0.0022372785
138	0xba55001d	-0.0008125322
139	0xba084709	-0.00051985733
140	0xbbbdde69	-0.0057943356
141	0x3b0bbaba	0.0021321015
142	0x39770a38	0.00023559562
143	0xba8a22ae	-0.00105389
144	0xba9c297d	-0.001191422
145	0xbb2f43bf	-0.002674326
146	0x3aff13ca	0.0019460854
147	0xbab338a7	-0.00136735
148	0x3aa13740	0.0012299791
149	0xba5dad2a	-0.00084562844
150	0xbb2cb2f4	-0.0026351782
151	0x3a0ed9e0	0.0005449336
152	0xba98194b	-0.0011604218
153	0x3b2ebf08	0.0026664156
154	0x3afddd24	0.0019368273
155	0xba6ed901	-0.00091113156
156	0xb92c8256	-0.00016451752
157	0x3abc69aa	0.0014374752
158	0x3aca08f8	0.001541405
159	0xbb421c79	-0.0029619022
160	0x3a95c744	0.0011427184
161	0x395d73b3	0.00021119304
162	0xba520a62	-0.00080124114
163	0xbb25ad5c	-0.0025280332
164	0x3bd68c65	0.006547498
165	0xb9dff846	-0.00042718853
166	0x3a4796c6	0.00076137146
167	0xbaa7838f	-0.0012780296
168	0xbb5f5234	-0.0034076096
169	0x3a05b000	0.00050997734
170	0xbab7e105	-0.0014028853
171	0xbb1de4c0	-0.0024092644
172	0x3be005f7	0.0068366486
173	0x3b52347e	0.0032074745
174	0x3b349c03	0.002755881
175	0xbb524e6c	-0.00320902
176	0x3bb84c98	0.005624365
177	0x3ab24988	0.0013602236
178	0xba8dad81	-0.0010809154
179	0xbb2e819e	-0.002662755
180	0xbba47684	-0.005019011
181	0xbb57810d	-0.0032883317
182	0xbac9cb40	-0.0015395656
183	0x3a654d3a	0.00087471644
184	0xbae34331	-0.001733875
185	0x38230220	3.8864207e-05
186	0x3bb414f9	0.005495664
187	0xbac1ff73	-0.0014800861
188	0xbbc9e0d0	-0.006160833
189	0xbba3f7d4	-0.0050039086
190	0x3a176f69	0.0005776794
191	0xbb31fdd0	-0.002715934
192	0xbb0030b8	-0.0019560289
193	0x3be5058b	0.006989186
194	0x3b699f20	0.0035647824
195	0xbb8a6385	-0.0042232894
196	0xba65949a	-0.00087578
197	0x3954edc0	0.00020306464
198	0xbb3d25d0	-0.002886165
199	0x3a890be7	0.0010455818
200	0xbaf4a692	-0.0018665364
201	0x3b6887bc	0.0035481295
202	0x3a80df6a	0.0009832208
203	0xba5325f9	-0.00080546696
204	0xbb3f4636	-0.0029186136
205	0xbac133a0	-0.0014740117
206	0xbad7d9f1	-0.001646815
207	0xb9d60048	-0.0004081747
208	0x3a77cd09	0.0009452855
209	0xb9476dc0	-0.00019019004
210	0xba2d485e	-0.000661021
211	0xbb2f1a7e	-0.0026718671
212	0x3c30f1eb	0.010799865
213	0x3a211a36	0.00061455683
214	0xba865e50	-0.0010251496
215	0x3a8935f1	0.0010468346
216	0x3b405e32	0.002935302
217	0x3a853322	0.0010162333
218	0x39a18dd8	0.00030813995
219	0xba5d49ed	-0.0008441497
220	0x39231158	0.00015551352
221	0x38bd8748	9.0374204e-05
222	0x3baf047c	0.0053411108
223	0xbb59b34e	-0.0033218446
224	0xba008e12	-0.00049039826
225	0x3b3fd44a	0.0029270821
226	0x3ae028ea	0.0017102037
227	0xbb6affff	-0.0035858152
228	0x3ba09d65	0.0049015754
229	0x3ad5ad02	0.0016302171
230	0xbb2bf131	-0.002623629
231	0xbaec8cfb	-0.0018047387
232	0xbb04ee29	-0.0020283556
233	0x3b38cf7c	0.0028199842
234	0xbaf36750	-0.0018570218
235	0x3ba6a7b6	0.0050859107
236	0xb8389e00	-4.4016168e-05
237	0x3b06bec4	0.0020560483
238	0xbaa8dce5	-0.0012883215
239	0xba8a63cc	-0.0010558306
240	0xba07b3a8	-0.0005176612
241	0x3b831409	0.004000191
242	0x3a8336da	0.0010010854
243	0x3a566b18	0.00081794104
244	0x3b351504	0.0027630934
245	0x3c13db7e	0.009024499
246	0xb81d1e50	-3.7459948e-05
247	0x3b94eb38	0.004544642
248	0x3b8d74ae	0.004316888
249	0xbb2f743f	-0.002677217
250	0xba8b30e3	-0.0010619428
251	0x3a6b88ee	0.00089849427
252	0x3bac85c4	0.0052649695
253	0x3b8d04ea	0.0043035643
254	0xbb28fa95	-0.0025784124
255	0x3c5449eb	0.012957077

momentum_buffer f4 [10]
0	0xbb22c2d0	-0.0024835356
1	0x3b89887c	0.0041971784
2	0x3bce38ae	0.006293378
3	0xbb0c3032	-0.0021391031
4	0xbb64e070	-0.0034923814
5	0x3c4b6171	0.012413369
6	0xbbd0b6d6	-0.006369452
7	0xbb7718fe	-0.0037704105
8	0xbbddab9f	-0.0067648436
9	0x3b064c20	0.0020492151

conv1.weight f4 [6, 1, 5, 5]
0	0x3c83695b	0.016041448
1	0x3e630fc1	0.22173978
2	0x3d518bc8	0.051158696
3	0x3e00f387	0.12592898
4	0xbebabf05	-0.3647386
5	0xbdb25acb	-0.08708724
6	0x3e071f4e	0.13195536
7	0xbdf45e47	-0.119320445
8	0xbe60214f	-0.21887706
9	0xbe85af0a	-0.26110107
10	0xbdb2c56c	-0.087290615
11	0x3e094e38	0.13408744
12	0xbd4c7a41	-0.049921278
13	0xbe86f6ab	-0.26360068
14	0xbe7219dd	-0.23642679
15	0x3e60c41e	0.21949813
16	0xbdbea692	-0.093091145
17	0xbe6dd60e	-0.23226187
18	0xbe179425	-0.14802606
19	0xbe4f86a2	-0.20266202
20	0x3e1db80e	0.15402243
21	0x3ddc75d3	0.10764661
22	0x3de32ca8	0.11092502
23	0xbe92a746	-0.28643245
24	0xbe118f5a	-0.1421484
25	0x3d469dbc	0.04849027
26	0xbe1c73a2	-0.15278485
27	0xbe0a3daf	-0.13500093
28	0xbe893fdd	-0.26806536
29	0xbe167ca1	-0.1469598
30	0xbdf52074	-0.119690806
31	0xbe36c625	-0.17849024
32	0xbe20b6b2	-0.15694693
33	0xbe18c1f4	-0.14917737
34	0xbe430480	-0.19044685
35	0xbe7c146e	-0.24617168
36	0x3e249df4	0.1607588
37	0x3e2701f8	0.16309345
38	0x3e4c6909	0.19961943
39	0xbcb54e7f	-0.022132156
40	0x3ded78d2	0.1159531
41	0x3e9b1bae	0.30294555
42	0x3e27c908	0.16385281
43	0x3e8709c4	0.26374638
44	0x3d447a5c	0.047968253
45	0x3db7217a	0.08941932
46	0xbd04b08d	-0.032394934
47	0xbd8154fb	-0.06315037
48	0x3e9516cf	0.29118964
49	0x3e5da74f	0.21645854
50	0xbda36d59	-0.07979841
51	0x3e059bc4	0.13047701
52	0xbdf05f83	-0.117369674
53	0xbb45e7bc	-0.003019794
54	0x3dfd6be5	0.12374095
55	0xbe03197f	-0.12802695
56	0x3dd527eb	0.104080044
57	0x3e8b28a6	0.2717945
58	0xbe0ca892	-0.1373618
59	0x3e01ec8d	0.12687893
60	0x3ca4ece6	0.020132493
61	0xbd6b51b2	-0.057450958
62	0x3e8831e9	0.26600578
63	0x3e495648	0.1966182
64	0xbe21b4d5	-0.15791638
65	0xbe3dc3c1	-0.18531705
66	0xbe579853	-0.21054201
67	0xbe928019	-0.28613356
68	0xbe17d647	-0.14827834
69	0x3d5f9dc4	0.054593816
70	0xbdb8a636	-0.09016077
71	0xbe22390f	-0.15842079
72	0xbebfaf65	-0.37438503
73	0xbdd79ac1	-0.10527564
74	0xbe24414a	-0.16040531
75	0xbdab4f2d	-0.08364711
76	0x3d829cda	0.06377573
77	0xbe820f18	-0.2540214
78	0x3d9f2518	0.07770747
79	0xbdc25662	-0.094891325
80	0xbd20a3a7	-0.03921857
81	0x3de0f789	0.109847136
82	0xbc96efb8	-0.018424854
83	0xbe2aee06	-0.16692361
84	0xbda39081	-0.07986546
85	0xbe6b4cea	-0.22978559
86	0xbd3c624b	-0.045992177
87	0xbd4db912	-0.050225325
88	0x3d92bd46	0.07165007
89	0x3ca9dba2	0.020734612
90	0xbe783f91	-0.24242999
91	0x3e413ce4	0.18870884
92	0x3de081bd	0.109622456
93	0x3e1b6caf	0.15178178
94	0x3e990f21	0.29894355
95	0xbe070b9a	-0.1318802
96	0x3e0884dc	0.13331932
97	0x3ea2666b	0.31718764
98	0x3e3e2753	0.18569688
99	0x3e4b2056	0.19836554
100	0x3d8a3377	0.067480974
101	0xbe7eab10	-0.24869943
102	0x3cba6551	0.02275339
103	0x3e5a66a6	0.2132822
104	0x3e52a519	0.20570792
105	0xbde874a6	-0.11350374
106	0x3da448a8	0.080216706
107	0x3e22f7ac	0.15914792
108	0x3ec0fb22	0.376916
109	0x3e3cf10e	0.1845133
110	0xbe5f7958	-0.21823633
111	0xbd73950b	-0.05946831
112	0xbe48a86f	-0.19595502
113	0x3e0111bc	0.12604421
114	0x3dd8aad1	0.10579456
115	0x3ceb416f	0.028717725
116	0xbdd56b83	-0.10420897
117	0x3dbe1033	0.092804335
118	0x3e037e12	0.12841061
119	0x3e8783ed	0.2646784
120	0x3e72eeb5	0.23723872
121	0x3e3bd085	0.18341263
122	0xbd71be68	-0.059019476
123	0x3d179f80	0.037017345
124	0x3dacc5b5	0.08436147
125	0x3e5e87c2	0.21731475
126	0x3dd701e6	0.10498409
127	0xbc82d9ea	-0.01597305
128	0x3e3a164d	0.1817257
129	0x3e5476e8	0.20748484
130	0x3ea11f2d	0.31469098
131	0x3e06b349	0.1315433
132	0x3e29e083	0.1658955
133	0x3e45761e	0.1928334
134	0x3e802a07	0.25032064
135	0x3e25f1d0	0.16205525
136	0xbdf2e4b8	-0.11860031
137	0xbe3f9846	-0.18710431
138	0x3db08746	0.08619551
139	0x3d573186	0.052537464
140	0xbcc71a08	-0.024304405
141	0x3de08ffb	0.10964962
142	0x3d73f924	0.05956377
143	0x3d45ce09	0.048292194
144	0x3cfebcba	0.031095851
145	0xbe036859	-0.12832774
146	0xbd41549a	-0.047199823
147	0xbd754fe0	-0.059890628
148	0xbe0469df	-0.12931012
149	0xbe2e67ed	-0.17031832

conv1.bias f4 [6]
0	0x3d7aa757	0.061194744
1	0x3d6f7cf6	0.05846878
2	0x3ce060ac	0.027389847
3	0xbebf9624	-0.37419236
4	0xbe217b16	-0.1576961
5	0xbc917af0	-0.017758816

conv2.weight f4 [16, 6, 5, 5]
0	0x3d8c6ac2	0.068563
1	0x3caa0dc2	0.020758513
2	0xbd986240	-0.07440615
3	0x3c768f0b	0.015048753
4	0xbd3e9edd	-0.046538223
5	0xbd57ebdb	-0.052715164
6	0xbd14ef44	-0.036360994
7	0xbcda96c6	-0.026683223
8	0x3c5d165c	0.0134941
9	0xbcde8120	-0.027161181
10	0x3dcdf04a	0.10055597
11	0x3da9335a	0.08261748
12	0xbb71f9ee	-0.0036922651
13	0x3d29e8ac	0.04148166
14	0x3da9d098	0.08291739
15	0x3cf5a19c	0.029984288
16	0x3c005564	0.007832859
17	0x3db35cd2	0.087579384
18	0x3e0152c3	0.12629227
19	0x3d122703	0.035681736
20	0xbbb69968	-0.0055724867
21	0xbc034394	-0.008011717
22	0xbd1859fa	-0.037195183
23	0xbd8e276f	-0.06941115
24	0xbd74b843	-0.05974604
25	0x3cfbfb28	0.03075941
26	0x3cffec9b	0.031240752
27	0x3c035c31	0.008017586
28	0xbd19081b	-0.037361246
29	0xbdc8bd39	-0.09801716
30	0xbce0b67a	-0.027430762
31	0xbdae939c	-0.08524248
32	0xbdb9b61d	-0.090679385
33	0xbd926f5f	-0.071501486
34	0xbc9a7936	-0.018856626
35	0xbe303388	-0.17207158
36	0xbe4199c1	-0.18906309
37	0xbe43d0fb	-0.19122688
38	0xbe353411	-0.17695643
39	0xbdd87171	-0.10568512
40	0x3d71e548	0.05905655
41	0xbdb0c26c	-0.08630833
42	0xbd6a710b	-0.057236712
43	0xbd89f2ac	-0.06735739
44	0xbd5eba0b	-0.054376643
45	0x3d30fdc9	0.04321078
46	0x3d56e2c9	0.052462373
47	0x3dbef32d	0.09323726
48	0x3d3b8c6e	0.04578822
49	0x3d1f399d	0.038873304
50	0xbc822f7d	-0.015891785
51	0x3d2306ed	0.039801527
52	0xbd1bbe9e	-0.038023584
53	0xbd8c541e	-0.068519816
54	0x3bed7668	0.007246781
55	0x3d0325c3	0.032018434
56	0x3de251e2	0.11050774
57	0x3d8d1a28	0.068897545
58	0x3d121f3e	0.035674326
59	0x3d12c42a	0.035831608
60	0x3c3155dc	0.010823693
61	0x3d0f7f6c	0.03503363
62	0x3dfa5884	0.12223914
63	0x3e21d466	0.1580368
64	0x3df19550	0.11796057
65	0xbd5657d6	-0.05232986
66	0xbd9326e3	-0.071851514
67	0xbdd68cc0	-0.10476065
68	0x3c5e429b	0.013565685
69	0xbdaff47b	-0.08591553
70	0xbd7a5f54	-0.06112607
71	0xbd1cdfee	-0.038299493
72	0xbd09c7ea	-0.03363792
73	0xbc8bb967	-0.01705618
74	0xbd2bc3d1	-0.041934792
75	0xbd157fa8	-0.036498696
76	0x3d482476	0.048862897
77	0xbd581f17	-0.052764025
78	0xbd42653d	-0.04745983
79	0x3d975ad6	0.073903725
80	0xbe17c9f6	-0.14823136
81	0xbdf1d552	-0.11808266
82	0xbda569bf	-0.0807681
83	0xbd826aff	-0.06368064
84	0xbdd122c5	-0.1021171
85	0xbd7f05bc	-0.062261328
86	0x3a9186c3	0.0011102784
87	0xbc407759	-0.011747205
88	0xbcfade91	-0.030623706
89	0xbd50e383	-0.050998222
90	0xbb111a31	-0.0022140855
91	0xbca138aa	-0.01968034
92	0x3bc79bcd	0.006091571
93	0xbdb9011e	-0.09033416
94	0xbd0bbfe0	-0.034118533
95	0x3c8b1fea	0.016982991
96	0xbd24874b	-0.040168088
97	0xbd3cbb5d	-0.04607712
98	0xbcf07bde	-0.02935594
99	0xbd94b8a0	-0.07261777
100	0xbd7b7bf0	-0.061397493
101	0xbd940b69	-0.07228739
102	0x3da46ef3	0.080289744
103	0x3e0b9d96	0.13634333
104	0x3d4afb54	0.04955609
105	0xbd8c0b68	-0.06838113
106	0xbd8bc349	-0.06824357
107	0x3d372194	0.044709757
108	0x3ca95dc6	0.020674597
109	0xbd288434	-0.041141704
110	0xbca77d1d	-0.0204454
111	0xbda4bd55	-0.08043925
112	0xbd9d1945	-0.076708354
113	0xbd86b605	-0.06577686
114	0x38dd3817	0.00010548549
115	0x3b03af56	0.0020093522
116	0xbdaa148e	-0.08304702
117	0x3c9ec2fe	0.019380089
118	0xbdbe7a6e	-0.09300695
119	0x3d19598a	0.037438907
120	0x3c967b34	0.018369295
121	0x3db02885	0.086014785
122	0x3d28ca54	0.04120858
123	0xbd817875	-0.063218035
124	0x3a5c722b	0.00084093463
125	0xbc16d1ff	-0.00920534
126	0xbd33f884	-0.043938175
127	0xbb157d82	-0.0022810404
128	0x3cc2e7a9	0.023792105
129	0xbd206341	-0.039157156
130	0xbd1eeb72	-0.038798757
131	0xbc92c0d4	-0.017914213
132	0x3d5bb0e5	0.053635497
133	0x3d8d8735	0.06910554
134	0xbd85036e	-0.06494795
135	0xbddb8797	-0.10719221
136	0xbde4f1aa	-0.11178906
137	0x3d1fbe65	0.038999934
138	0x3c860eb2	0.01636443
139	0xbd694535	-0.056950767
140	0xbe1a166e	-0.15047619
141	0xbde0161e	-0.109417185
142	0xbdc65ba4	-0.09685448
143	0xbe59ef15	-0.21282609
144	0xbd68af31	-0.0568077
145	0xbd00a9df	-0.031412
146	0xbb872755	-0.004124562
147	0xbdd1db62	-0.10246922
148	0xbe1c6796	-0.1527389
149	0xbc6ec92d	-0.014574331
150	0x3cf786a9	0.030215578
151	0x3da82f7c	0.08212182
152	0x3cf8b367	0.030358983
153	0x3e115e23	0.14196067
154	0x3c917c29	0.0177594
155	0x3b7cee28	0.00385941
156	0x3d889399	0.06668777
157	0x3da2009c	0.079102725
158	0x3cb9a865	0.022663305
159	0x3b7bef7a	0.00384423
160	0xbd80484a	-0.06263788
161	0xbd0e007c	-0.03466843
162	0xbdacde7e	-0.084408745
163	0xbdead245	-0.11465887
164	0xbddd471c	-0.10804579
165	0xbda0e572	-0.07856263
166	0xbde0b5ff	-0.10972213
167	0xbdcc090a	-0.099626616
168	0xbd6ecf90	-0.058303416
169	0xbd087243	-0.033312093
170	0x3b93ff7f	0.0045165415
171	0xbd6b358f	-0.057424124
172	0xbd572042	-0.052520998
173	0xbdd4dba6	-0.10393457
174	0xbd071bc7	-0.032985475
175	0xbc718417	-0.014740965
176	0x3bc60894	0.006043503
177	0xbd4f6eba	-0.050642706
178	0x3cc201fe	0.02368259
179	0x3c42c9dd	0.011888948
180	0x3d5da3fe	0.054111473
181	0x3d9f2502	0.077707306
182	0x3dedc269	0.116093464
183	0x3e21b44e	0.15791437
184	0x3e124215	0.14283021
185	0x3d9a0296	0.075200245
186	0x3de0200a	0.10943611
187	0x3d58ca4e	0.052927308
188	0x3dd81f7f	0.105528824
189	0x3ca42cb0	0.02004084
190	0x3d5e454e	0.054265313
191	0xbd9612da	-0.073278144
192	0x3d86e060	0.06585765
193	0xbbd70adc	-0.006562574
194	0x3b3d4845	0.0028882187
195	0xbe071f2d	-0.13195486
196	0xbc9a2545	-0.0188166
197	0xbd963145	-0.07333616
198	0xbd0670f2	-0.032822557
199	0x3d35a890	0.044350207
200	0xbd5e67fd	-0.05429839
201	0xbd931572	-0.07181825
202	0x3d98ac6a	0.074547604
203	0xbd7d3012	-0.06181342
204	0xbdd904f6	-0.10596649
205	0xbd5a1bc5	-0.05324914
206	0xbd261fb8	-0.040557593
207	0xbdc77511	-0.097391255
208	0xbd9d7ed0	-0.07690203
209	0xbdfcdbf7	-0.123466425
210	0x3d5909cc	0.05298786
211	0xbd4af3ee	-0.049549036
212	0x3d1f754a	0.038930215
213	0xbda0b314	-0.078466564
214	0x3c7f744f	0.015591695
215	0x3d221cde	0.03957831
216	0x3e0246a2	0.12722257
217	0x3c679ac7	0.014136023
218	0x3d973882	0.07383825
219	0x3c1b597f	0.009481787
220	0x3e0c785c	0.13717788
221	0x3e0b1234	0.13581163
222	0x3decd4f3	0.11564054
223	0x3d83fc90	0.06444657
224	0xbd2ff737	-0.04296037
225	0xbbe6e817	-0.0070467102
226	0xbd81991d	-0.06328032
227	0x3d2342a7	0.039858487
228	0x3c0a2724	0.008432183
229	0x3d8e3b5f	0.06944918
230	0x3d137030	0.035995662
231	0x3dd1166f	0.10209357
232	0x3dc8d895	0.09806935
233	0x3da75d1d	0.08172057
234	0x3d90f345	0.0707765
235	0x3db0f9ec	0.08641419
236	0xbd4e6e1b	-0.050397974
237	0x3d8e5591	0.06949914
238	0x3d88c929	0.06678993
239	0xbbbc96e7	-0.0057552936
240	0xbd87791d	-0.066148974
241	0x3c30100e	0.010746015
242	0x3d8a7729	0.06761009
243	0xbd762b29	-0.060099754
244	0xbd1f53c9	-0.038898263
245	0xbdce88a1	-0.10084654
246	0xbcb3722f	-0.021905033
247	0x3d17c5b7	0.03705379
248	0xb9c63749	-0.00037806694
249	0xbbea6223	-0.007152812
250	0xbda907fd	-0.08253477
251	0xbe095450	-0.13411069
252	0xbdabecfd	-0.08394811
253	0xbd458e50	-0.048231423
254	0xbd57b436	-0.052662097
255	0x3dad6ed0	0.084684014
