models/pretrained/Lit_LeNet_CIFAR10_no_U-val_acc=0.62.ckpt (torch, 503106 bytes, 20 tensors)

momentum_buffer f4 [6, 3, 5, 5]
000000 91 ca 6c 3d d2 5c 9f 3d 28 65 58 3d b8 fb 2e 3d
       0.05781037 0.07781376 0.052830845 0.042720526
000010 ec db 06 3d 1e 8d 01 3d 2c 4b 3c 3d 86 c5 3d 3d
       0.032924578 0.03162872 0.045970127 0.04633095
000020 04 19 1b 3d 28 b0 94 3c c8 6b 7f 3c f4 e5 bd 3c
       0.037865654 0.018150404 0.015589662 0.02318094
000030 c8 1d c7 3c 68 85 e7 3c 90 55 84 3c 80 00 ff ba
       0.024306193 0.028261855 0.01615408 -0.0019455105
000040 c0 5e 04 3c 00 0e 37 ba c0 01 5b 3b b0 df 1e 3c
       0.008079231 -0.0006982982 0.003341779 0.009696886
000050 8e 18 2b 3d 44 94 31 3d 34 a2 f1 3c f0 92 72 3c
       0.041771464 0.043354288 0.02949629 0.01480554
000060 54 3e 06 3d 73 a9 8f bd 32 14 4b bd c2 ff 8c bd
       0.032774284 -0.07014742 -0.049579807 -0.068847194
000070 e6 ed 92 bd 84 4f 90 bd 1d 03 b5 bd ca 14 9e bd
       -0.07174282 -0.070464164 -0.088384844 -0.07718809
000080 e4 4c 8d bd 5f 35 8d bd 41 86 9d bd 08 a5 ae bd
       -0.06899431 -0.06894945 -0.076916225 -0.08527571
000090 db 16 a5 bd b7 09 97 bd ae 38 82 bd d4 eb 7f bd
       -0.08061 -0.073749 -0.06358467 -0.062480763
0000a0 96 f4 aa bd 16 11 88 bd 0c b3 8c bd 08 fa 77 bd
       -0.08347432 -0.06643884 -0.06870088 -0.060541183
0000b0 0c 23 3f bd e4 bf f2 bc 20 8f 7a bc c8 66 b5 bc
       -0.046664283 -0.029632516 -0.015292913 -0.022143736
0000c0 3c 78 fa bc b0 5c 15 bc 56 aa 27 be 7d ba 16 be
       -0.03057491 -0.009116337 -0.16373572 -0.14719577
0000d0 74 32 22 be 6e b3 25 be ee d7 25 be 28 43 37 be
       -0.15839559 -0.16181728 -0.16195652 -0.17896712
0000e0 54 a5 2e be da 3c 24 be 20 35 24 be 46 d5 29 be
       -0.17055255 -0.16038838 -0.1603589 -0.16585264
0000f0 0a 60 26 be 9c 85 26 be 4c f6 25 be e1 96 16 be
       -0.16247573 -0.16261905 -0.16207236 -0.14705993
000100 02 4c 14 be e0 8a 15 be 50 d4 06 be 71 c9 0e be
       -0.1448212 -0.14603758 -0.13166928 -0.13944031
000110 6d ba 03 be 58 9b e6 bd f3 c3 b5 bd 92 62 95 bd
       -0.12864085 -0.11260098 -0.08875265 -0.072941914
000120 f6 5d a3 bd c4 d6 b5 bd e0 45 89 bd 68 01 8f bd
       -0.07976906 -0.08878854 -0.06702781 -0.0698269
000130 57 79 85 bd 98 31 21 bd fe 07 00 bd b6 f0 7d bd
       -0.06517284 -0.039353937 -0.031257622 -0.061997138
000140 86 19 98 bd f3 52 ac bd e7 5d 71 bd c2 f2 f6 bc
       -0.07426743 -0.08414259 -0.058927443 -0.030145053
000150 a2 77 3c bd 25 b5 c0 bd ec af bf bd 56 f1 ad bd
       -0.04601253 -0.094095506 -0.09359726 -0.08493297
000160 24 fc 83 bd 3d 24 73 bd fd fa cf bd 0f e8 c5 bd
       -0.064445764 -0.05936073 -0.10155294 -0.09663402
000170 9e 84 bb bd f6 f0 a8 bd 49 b8 9e bd 10 4c d0 bd
       -0.09156154 -0.08249085 -0.07749993 -0.10170758
000180 32 33 c9 bd 53 2a bc bd d3 ae ab bd 19 86 a8 bd
       -0.09824218 -0.0918776 -0.083829544 -0.08228702
000190 38 c9 60 bd c8 89 47 bd 34 f0 f2 bc e8 a5 d3 bc
       -0.054879397 -0.048715383 -0.029655553 -0.025835946
0001a0 8e 7e 6f bd 6c 2b 85 bd 72 d2 91 bd 78 54 3a bd
       -0.0584703 -0.06502423 -0.071202174 -0.045490712
0001b0 a0 a9 bd bc 38 50 32 bd 91 4d a8 bd 8b 3a a4 bd
       -0.023152173 -0.043533534 -0.082179196 -0.08018979
0001c0 2b 71 8d bd be ce 63 bd c8 5e 62 bd 8f 81 a3 bd
       -0.06906351 -0.055617087 -0.05526617 -0.07983696
0001d0 2c 3b a4 bd a4 85 9d bd 4a 7a 93 bd b9 cf 8b bd
       -0.08019099 -0.076915056 -0.07201059 -0.06826729
0001e0 18 ec a4 bd 43 04 af bd 2d 7f a6 bd 4c 6c 9a bd
       -0.08052844 -0.08545735 -0.081297256 -0.07540187
0001f0 04 31 93 bd 60 75 79 bd 3e 3c 4b bd ec db f9 bc
       -0.07187083 -0.060902953 -0.049618 -0.030500375
000200 24 ab f4 bc 2c de 60 bd 74 b0 85 bd 2a 03 81 bd
       -0.029866762 -0.05489938 -0.065277964 -0.062994316
000210 8a ed 19 bd 10 9f ab bc a6 f8 25 bd 7d da a0 bd
       -0.03758005 -0.02094987 -0.040520333 -0.07854173
000220 5c 91 8d bd 1e 68 6f bd 7e 36 4f bd 64 b3 57 bd
       -0.06912491 -0.058448903 -0.050589077 -0.052661315
000230 dc 33 90 bd ae 1b 8b bd 9a 4e 8b bd 73 e2 83 bd
       -0.070411414 -0.06792389 -0.068021014 -0.06439676
000240 2c be 81 bd b1 99 87 bd 99 70 8e bd 87 a3 8e bd
       -0.063351005 -0.06621111 -0.0695507 -0.06964784
000250 bb 69 86 bd d8 ec 73 bd 5a ac 5a 3d 47 b6 91 3d
       -0.06563135 -0.059552044 0.053387024 0.07114845
000260 2a 58 85 3d 53 37 12 3d 86 80 b9 3c 0f 93 70 3d
       0.065109566 0.035697293 0.022644293 0.058733996
000270 68 4d 93 3d e2 28 6d 3d 3a 9b ba 3c 2d f0 03 3d
       0.071924984 0.057900317 0.022779096 0.03221147
000280 62 54 5a 3d 61 34 88 3d 98 d1 4f 3d d4 5a 48 3c
       0.05330313 0.066506155 0.050736994 0.012228686
000290 88 3c ce 3b 04 f2 87 3d 98 72 8b 3d 1c f8 4b 3d
       0.006293837 0.06637958 0.068089664 0.049797162
0002a0 84 44 42 3c 88 e3 98 bb 4b 30 bb 3d 40 ef bf 3d
       0.011857156 -0.0046657957 0.091400705 0.09371805
0002b0 e0 ba 80 3d 43 66 19 3d a4 d8 f5 3c 96 49 de 3d
       0.062856436 0.03745104 0.030010529 0.10853879
0002c0 72 67 08 3e 2f 23 06 3e 0e a7 e5 3d 07 83 d9 3d
       0.13320711 0.13099359 0.11213504 0.106206946
0002d0 70 14 e1 3d e5 a6 04 3e fe 33 f2 3d 34 d4 b8 3d
       0.10990226 0.1295429 0.11826323 0.090248495
0002e0 07 c4 de 3d 2f 3e c6 3d 88 e4 e9 3d ec 98 d1 3d
       0.10877233 0.09679829 0.11420542 0.10234246
0002f0 c4 d0 93 3d 17 d3 a1 3d c6 b5 c8 3d b5 91 d4 3d
       0.07217553 0.0790159 0.098002955 0.10379354
000300 c2 2e c2 3d a4 a0 96 3d 3f ca 89 3d 3a 3f ed 3d
       0.094815746 0.073548585 0.067280285 0.11584325
000310 40 61 fc 3d 88 2e cd 3d 4e 06 bd 3d ff d9 bd 3d
       0.123232365 0.10018641 0.09229718 0.09270095
000320 f3 13 a8 3d 88 cd e5 3d e6 58 e0 3d 61 a6 bb 3d
       0.0820693 0.112208426 0.10954456 0.09162594
000330 62 d9 ab 3d 61 8c cb 3d 9a 98 ff 3d d0 d8 e2 3d
       0.08391072 0.099388845 0.12480278 0.1107651
000340 bb a5 a0 3d 47 f7 bd 3d ec 1f dc 3d 70 4e fb 3d
       0.078441106 0.0927568 0.10748276 0.1227082
000350 d0 97 d7 3d fc c1 8e 3d d6 c4 92 3d 1a 20 f2 3d
       0.10527003 0.06970593 0.0716645 0.11822529
000360 ef 2e ee 3d ba 99 cd 3d b2 7d 94 3d fc 29 84 3d
       0.116300456 0.10039087 0.07250537 0.064533204
000370 64 18 0b 3e c0 72 07 3e 6e 3f d7 3d b2 14 b8 3d
       0.13583523 0.13227367 0.10510145 0.08988322
000380 dc 77 b2 3d 94 5c df bd 2a 55 ed bd 2a 11 dc bd
       0.087142676 -0.1090633 -0.115885094 -0.10745461
000390 a4 f2 d2 bd aa bc e3 bd 3c 60 d4 bd 7d e5 cd bd
       -0.10300186 -0.11119969 -0.10369918 -0.10053537
0003a0 b8 ab c6 bd 5b 66 dc bd de 85 e6 bd 47 ed b3 bd
       -0.097007215 -0.1076171 -0.11256002 -0.087854914
0003b0 93 d5 bc bd c7 95 c9 bd 4d c5 e4 bd ee 62 d9 bd
       -0.092204235 -0.09843021 -0.11170445 -0.106145725
0003c0 df 8f 91 bd 7d c1 91 bd 30 20 a6 bd 80 12 b4 bd
       -0.07107519 -0.07116983 -0.08111608 -0.08792591
0003d0 e3 6a 94 bd e5 29 11 bd 2c 0b d2 bc b6 45 ce bc
       -0.072469495 -0.035440344 -0.025640093 -0.025179725
0003e0 4c f3 07 bd 62 e2 aa bc 3b 7b db bd 62 bc ec bd
       -0.03319101 -0.0208599 -0.10716864 -0.11559369
0003f0 f3 a1 dd bd 01 92 d7 bd 78 8c ee bd 8e 94 d1 bd
       -0.10821905 -0.10525895 -0.11647886 -0.10233413

momentum_buffer f4 [6]
000000 8c 4b fc 3c f6 8f 44 bc aa fa 98 bd 23 ea d2 3d
       0.030797742 -0.011997214 -0.074696854 0.10298564
000010 66 bd 8b 3d 80 c8 9f b9
       0.06823234 -0.00030476227

momentum_buffer f4 [16, 6, 5, 5]
000000 e0 b0 45 bd 44 8a 2a bd 35 c1 01 bd ba e3 43 bd
       -0.048264384 -0.041635767 -0.031678397 -0.0478246
000010 f8 c8 2b bd 58 e5 19 bd dc 53 2b bd fb 17 a9 bc
       -0.041939706 -0.037572235 -0.04182802 -0.020641318
000020 7e cf 7e bd 5a 36 2c bd 62 cc 19 bd 7a 87 3b bd
       -0.0622096 -0.04204402 -0.03754843 -0.045783497
000030 db 7a 13 bd cc e9 75 bd 1f 85 74 bd b6 50 3e bd
       -0.036005836 -0.06003742 -0.059697267 -0.04646369
000040 c3 92 c1 bc 20 4e 2d bd 0f 58 32 bd 1c 6f 81 bd
       -0.023629552 -0.042310834 -0.04354101 -0.063200206
000050 73 ea 07 bd ff 94 7d bc 56 3c ec bc 40 da e6 bc
       -0.033182573 -0.015477418 -0.028837364 -0.028180242
000060 49 a4 5f bd e3 6a 0f 3a 68 00 cf 3b bb 0a ab 3c
       -0.054600034 0.00054709445 0.006317187 0.02087914
000070 2e ab 95 bb 1e aa ab bb c0 9c cf bc 24 75 3f bc
       -0.0045675253 -0.0052387854 -0.025343299 -0.011685643
000080 e6 0c ae bb f6 9a 90 bc 64 4c 17 bc 1c c8 7d bc
       -0.005311596 -0.017652016 -0.009234522 -0.015489604
000090 51 4e b7 bc 53 58 20 bc e0 8a f4 bb 2f 79 d6 bb
       -0.022376211 -0.009786683 -0.0074628443 -0.006545208
0000a0 7d 6c 46 bc 4a e4 b3 bc 44 8d fd bb 38 0d 8c bc
       -0.012110827 -0.021959443 -0.0077377874 -0.017096147
0000b0 9e a8 dc bc 50 2d 93 bc 8f 6c 51 bc ca c2 07 bb
       -0.026935872 -0.017965943 -0.01278223 -0.0020715469
0000c0 88 fa e5 ba 1f 89 78 3c 10 ca 93 3c 97 45 49 3c
       -0.0017545978 0.015169411 0.018040687 0.012284658
0000d0 d5 70 68 3c d8 1a 4c bb c0 97 4b bc c4 a0 0e 3b
       0.0141870575 -0.003114393 -0.012426317 0.0021763304
0000e0 66 f0 f5 3b e0 ce 22 3c a8 64 f3 bb 96 78 a0 bc
       0.0075054644 0.009937018 -0.0074277706 -0.01958875
0000f0 fd 05 38 bc dc c8 87 3b 10 43 07 bc 05 70 d3 bc
       -0.0112318965 0.0041438174 -0.008255735 -0.025810251
000100 ef c7 a7 bc 50 5d be 3b 18 13 41 3c ee c0 0f 3c
       -0.020481078 0.0058094636 0.011784337 0.008774025
000110 10 b1 e1 ba a0 d0 cc bc 36 68 06 bc ea d2 31 3c
       -0.0017218906 -0.025001824 -0.008203557 0.0108535085
000120 00 10 3a 38 40 bc 38 ba 1a 62 d7 bc 00 78 46 38
       4.4360757e-05 -0.00070470944 -0.026291896 4.7318637e-05
000130 b0 4e 62 bb ec 6b 13 bc 70 68 80 bc 40 76 a1 ba
       -0.0034531765 -0.008997899 -0.0156748 -0.0012318566
000140 b8 80 16 bc 92 c9 ae bc b6 c9 b9 bc 1e df 84 bc
       -0.009185962 -0.02133635 -0.022679191 -0.016219672
000150 3c 91 78 bc 94 95 cb bc de eb fb bc 56 c1 bb bc
       -0.015171345 -0.024851598 -0.030752119 -0.022919338
000160 5c 2d d1 bc a6 a4 db bc 5d e4 3b bd 82 23 1d bd
       -0.025534324 -0.026811909 -0.04587208 -0.03836394
000170 42 e4 32 bd 1a 3c 30 bd e6 78 17 bd 56 f2 44 bd
       -0.043674715 -0.043026067 -0.036980532 -0.048082672
000180 62 43 4a bd dd 4a 6e bd 90 b7 64 bd 59 b0 4c bd
       -0.049380668 -0.058176864 -0.05583912 -0.049972866
000190 3c 5e e6 3c ab 67 a6 3c b4 79 57 3c 08 8b cc 3b
       0.028121106 0.020313105 0.013151575 0.0062421598
0001a0 60 88 a3 3c 4c 6b 4e 3c d4 9c bd 3c 28 e7 89 3b
       0.01996249 0.012598824 0.02314607 0.004208464
0001b0 32 18 34 bc fe be 0e 3c 48 29 b2 3b 3c 1c ab 3c
       -0.010992097 0.008712528 0.00543705 0.020887487
0001c0 00 ca ac 39 00 28 63 bc 00 63 99 38 4a 6d 46 3c
       0.00032956898 -0.013864517 7.314049e-05 0.0121110175
0001d0 52 45 64 3c cf 2c a6 3c b0 6a dc bb e0 e5 d3 3b
       0.013932543 0.020285038 -0.0067265853 0.006466612
0001e0 78 26 40 bb 19 6b 62 3c 08 3a 8a 3c c4 72 99 bb
       -0.0029319804 0.013819479 0.016873375 -0.0046828706
0001f0 94 5b 8f 3c 1c 63 74 bd 86 80 81 bd 07 20 a9 bd
       0.017499723 -0.05966483 -0.06323342 -0.08258062
000200 b6 69 8f bd 8f 96 6e bd 54 bc 5d bd f7 47 8b bd
       -0.07002585 -0.058249053 -0.05413468 -0.068008356
000210 28 a9 bc bd 41 b7 77 bd 0c f5 5c bd 70 06 4a bd
       -0.092119515 -0.0604775 -0.053944632 -0.049322546
000220 4c e8 83 bd d2 2d 8c bd 13 8c 40 bd dd ab 3a bd
       -0.064407915 -0.06844677 -0.047008585 -0.045574058
000230 40 a4 29 bd 5c f3 3c bd 61 be 1b bd 7b c4 1b bd
       -0.041416407 -0.046130523 -0.038023356 -0.038029175
000240 3e ed d4 bc 6f 78 24 bd e1 39 09 bd fb 02 20 bd
       -0.025992032 -0.040153917 -0.033502463 -0.039065342
000250 c9 41 b8 bc c4 ce a1 bc 44 0b 56 3d 3d 86 6d 3d
       -0.022492306 -0.019751914 0.052256837 0.057989348
000260 4a e7 c6 3c a4 21 d1 3c 74 e9 8d 3c cf c6 6f 3d
       0.02428021 0.025528736 0.017323233 0.058539208
000270 07 93 8d 3d 8b aa db 3c a6 61 98 3c c0 6b f4 3c
       0.06912809 0.02681472 0.01860125 0.029836535
000280 fc 47 a6 3d 9f b0 49 3d eb 59 21 3d ea b0 00 3d
       0.08119199 0.049240705 0.039392393 0.03141872
000290 6e 07 fe 3c 8d be 83 3d d5 3a 0c 3d 80 95 25 3d
       0.031009402 0.06432829 0.034235794 0.040425777
0002a0 d8 2f 1f 3d b8 3c b4 3c 50 3e 42 3d da e7 0d 3d
       0.038863987 0.02200161 0.047422707 0.03464494
0002b0 46 3a bd 3c 82 91 d0 3c 8d 3f 11 3c 7e 07 90 bc
       0.023099076 0.025460009 0.008865249 -0.017581698
0002c0 47 d5 62 bc 1c f1 da bb 03 1b 8a bc b8 3a 08 bd
       -0.013844795 -0.0066815745 -0.016858583 -0.033259124
0002d0 32 10 15 3c 1f f6 69 3c 2c 61 1b 3c 49 54 86 bc
       0.0090981 0.014279871 0.009483617 -0.016397612
0002e0 ee 5f dd bc 43 31 9d bc c6 31 67 bb 55 95 89 bc
       -0.027023282 -0.019188529 -0.003527747 -0.01679484
0002f0 3b f5 e2 bc 90 70 80 ba e3 8b af bb 33 f4 0b bc
       -0.027704826 -0.0009799171 -0.005357252 -0.008542108
000300 80 09 5d 39 4c b4 44 3c 2b c8 d1 bc 89 69 15 bc
       0.00021079741 0.012005877 -0.025608143 -0.0091194
000310 7a 69 40 3c 86 2d 1a 3c 9d b3 b0 bb ec ab 23 bc
       0.011743898 0.009410268 -0.0053925053 -0.00998972
000320 c3 71 10 3d 1d ac b5 3c a1 69 9a 3c e8 d4 e2 3c
       0.03526474 0.022176797 0.018849196 0.027689412
000330 77 58 a8 3c 43 87 c9 3c b6 22 80 3c fc 00 e9 3b
       0.020549996 0.02460063 0.015641551 0.007110713
000340 4e 4d 9e 3c 60 47 d8 3c 66 09 b8 3c ac 17 14 3b
       0.019323971 0.026401222 0.022465419 0.0022597117
000350 30 6c a9 bc d5 c1 03 bd 70 40 84 bc a5 61 fe 3c
       -0.02068147 -0.032167275 -0.016144007 0.03105242
000360 67 80 ad 3b ca 58 72 bc 99 45 79 bc 62 38 69 bc
       0.005294848 -0.014791677 -0.015214347 -0.014234634
000370 ee bb d8 3c 30 fe 8b 3a 38 40 42 bb 37 80 cf ba
       0.0264568 0.0010680612 -0.0029640328 -0.0015831058
000380 2e 8f 3c bc 2a 30 47 3d 66 c4 15 3d fb c3 ef 3c
       -0.011508746 0.048629917 0.036564253 0.029268255
000390 10 b6 0d 3d d1 59 f8 3c be f9 09 3d 3c ee 09 3d
       0.034597456 0.030316265 0.03368544 0.033674464
0003a0 d2 02 6d 3c a1 e1 8f 3c 3b 13 a6 3c 67 9a 11 3d
       0.014466004 0.017563643 0.020272842 0.03554764
0003b0 55 14 d6 3c ef 8f ad 3c c8 21 bc 3b de 88 34 3c
       0.026132742 0.021186797 0.0057413317 0.01101896
0003c0 b4 8b 0c 3d 08 68 ee 3c 13 e1 a8 3c 00 06 7c ba
       0.03431292 0.02910234 0.020615136 -0.0009613931
0003d0 60 69 de 3a a8 2f 21 3d b6 6d fd 3c 78 eb 67 3c
       0.001696866 0.03935209 0.030936103 0.014155261
0003e0 40 9d 78 3c 30 30 8a 3c 16 58 cc 3c 16 a2 11 3d
       0.01517421 0.01686868 0.024944346 0.035554968
0003f0 b2 66 d0 3c ea d4 fb 3b e6 51 33 3c 3b 24 10 3d
       0.025439594 0.0076852934 0.010944819 0.035190802

momentum_buffer f4 [16]
000000 3a d8 2b bd c1 32 97 3d 68 e7 5f bd 0c 66 15 be
       -0.041954257 0.073827274 -0.054664046 -0.14589709
000010 14 30 a9 bd 1d 5c 11 be 6d 62 94 bd 8a 06 81 bd
       -0.08261123 -0.14195295 -0.07245336 -0.06300075
000020 6f e9 72 bd b1 b1 a6 3b e0 27 bd bb 52 5d 4f 3e
       -0.05930465 0.0050871004 -0.0057725757 0.20250443
000030 e8 b3 ab bd 4e a0 2c 3d d8 1a 55 bc 4a 0f 81 bd
       -0.08383924 0.042145066 -0.013006888 -0.06301744

momentum_buffer f4 [120, 16, 5, 5]
000000 0d 7c 40 3b aa bc 1d 3b f2 0b eb 3a 8f 1a 93 3b
       0.0029370815 0.0024068751 0.0017932637 0.00448925
000010 6e 7b be 3b 99 f7 0b 3c 88 f9 9a 3b f8 30 cc ba
       0.005813054 0.008542919 0.0047294535 -0.0015578559
000020 26 c4 ac bb 07 91 02 3b e1 10 0b 3c 58 92 21 3b
       -0.005272406 0.0019922869 0.008487911 0.0024653878
000030 2c b1 b3 39 80 f4 c2 39 2e ee 3f 3b c0 23 db 39
       0.00034273544 0.0003718473 0.0029286253 0.0004179757
000040 2e 80 23 3b 94 f7 9d 3b 49 96 0c 3c 43 34 f5 3b
       0.0024948227 0.0048207734 0.008580753 0.0074830367
000050 40 56 09 3b 82 12 79 3b 5d 14 bb 3b 01 f4 c9 3b
       0.002095595 0.0038005416 0.0057092146 0.0061631207
000060 82 f0 7c 3b 3d b7 85 bb 4c 30 86 bb 98 11 d3 ba
       0.0038595502 -0.0040806816 -0.004095113 -0.0016103266
000070 64 58 45 ba 02 d2 b5 bb 32 79 83 bb a8 3f de ba
       -0.0007528125 -0.0055487165 -0.0040122503 -0.0016956227
000080 28 00 07 3a 14 ed 67 bb fe 6e ce bb 2e 3e ce 3b
       0.00051498646 -0.0035389112 -0.0062998524 0.0062940335
000090 c4 84 09 ba 3e 30 9a bb 9b fd a8 bb 69 98 80 bb
       -0.0005245919 -0.004705458 -0.0051571853 -0.0039244187
0000a0 32 c2 92 3b 40 d0 58 b8 33 c0 44 ba d5 ef cd bb
       0.0044787163 -5.169236e-05 -0.00075054466 -0.0062846937
0000b0 4c 56 be bb cb 40 7e 3b 6c f9 b9 bb b6 71 b2 bb
       -0.0058086272 0.0038795944 -0.0056754854 -0.0054456843
0000c0 b8 e7 b0 bb 61 50 8e ba 07 44 b2 39 f4 8f 03 3a
       -0.005398717 -0.0010857695 0.0003400149 0.0005018704
0000d0 21 dd dd ba ec 5c 88 3a 3c 9c 0e 3b 30 21 b4 3b
       -0.0016926863 0.001040367 0.0021760603 0.0054971203
0000e0 d6 36 36 3b 90 6a f6 39 d4 b4 3c ba 96 0d c6 ba
       0.002780368 0.00047000172 -0.00071985763 -0.001511025
0000f0 5d 3c b9 3b 7a b4 2f bb 85 00 35 bb 28 c3 fb ba
       0.005652948 -0.0026810453 -0.0027618718 -0.0019207941
000100 20 6d 97 3a 5c 9d 3a bb e9 58 0c bb d0 ea 8d 38
       0.0011552908 -0.002847514 -0.00214153 6.767141e-05
000110 4a 7b b1 3b 0b 21 1a 3b 53 12 56 3b 16 39 6a 3b
       0.0054163085 0.002351823 0.003266473 0.0035739592
000120 f6 04 a2 ba 49 fc 86 ba 30 2c ca b9 a8 1e c7 3b
       -0.0012361098 -0.0010298576 -0.00038561365 0.0060766526
000130 a4 b0 96 3b 08 c6 a2 3b 18 f3 e7 3b d0 ff d5 3b
       0.004598694 0.004967455 0.0070785396 0.0065307394
000140 0a f4 cf 3b 0c 3f 91 b9 1c 2e 2a 3b b1 33 0f 3c
       0.0063462304 -0.0002770353 0.0025967425 0.008740352
000150 4e a7 f8 3b 45 fb 32 3c 12 a9 2c 3b 88 f2 78 39
       0.0075883036 0.010924165 0.002634589 0.00023741473
000160 b6 e9 2c 3a 6f 49 6e 3b 84 4c 31 3c 86 60 50 3b
       0.0006596105 0.0036359688 0.010821465 0.0031795814
000170 6f 8c 99 3b f5 d6 60 bb f3 1d cb 3a f5 50 01 3c
       0.0046859304 -0.0034307812 0.0015496596 0.007892837
000180 08 02 99 3b 0e 05 29 3c 68 9e 6a 3b 70 d0 89 3b
       0.0046694316 0.010316147 0.0035799984 0.004205756
000190 4b ed 7c bb f3 68 d9 bb c5 ab 50 bb 75 d4 a7 bb
       -0.0038593586 -0.0066348254 -0.0031840664 -0.0051217624
0001a0 e1 36 2c 3b 6b ca b4 bb 0e 6a f7 ba 42 76 18 3a
       0.0026277828 -0.005517294 -0.0018876211 0.00058159616
0001b0 dd d9 32 3a d5 a0 61 3b 20 7c 14 b9 f7 8f 6c bb
       0.00068226253 0.0034428139 -0.0001416062 -0.0036096552
0001c0 17 b2 cf ba b0 5c 90 3a 59 09 49 bb 80 ff 46 ba
       -0.0015845922 0.0011013951 -0.0030675738 -0.0007591173
0001d0 c4 d0 38 bb d2 1b 20 3a fb 01 94 3b 43 c9 7b bc
       -0.0028200606 0.0006107661 0.0045168377 -0.015367809
0001e0 37 0b 5e 3a c0 d1 9d b9 98 7d 0d bb 40 d5 fa ba
       0.0008470299 -0.0003010165 -0.0021589752 -0.001913704
0001f0 a4 41 8b bc 3e 16 81 ba a2 b3 87 bb a4 06 3b bb
       -0.016999073 -0.0009848548 -0.004141287 -0.0028537894
000200 12 69 96 ba e8 5e aa ba 7f 52 b9 3b 1c ba 8e 3a
       -0.0011475405 -0.0012998255 0.0056555863 0.0010889205
000210 23 62 5a 3b 99 37 0b 3a 56 43 e8 b9 fe b5 93 3a
       0.0033322654 0.0005310714 -0.00044300657 0.0011269448
000220 96 e5 ad 3b 23 a6 e8 3b 8a d5 80 3b 3c 4c 32 bb
       0.00530691 0.007099883 0.003931706 -0.0027206084
000230 ac a2 41 ba 04 f7 1b 3b bd b6 3c 3b f4 62 af ba
       -0.0007386606 0.0023798356 0.0028795444 -0.0013380931
000240 ce c4 cb bb 22 58 f3 ba 20 87 d9 b8 dd 8a 1c bb
       -0.0062185293 -0.0018565694 -0.00010372535 -0.002388648
000250 94 72 49 bb ee 5f 12 bc f9 78 18 3b 6e 6a af 3a
       -0.003073846 -0.008934004 0.0023265465 0.0013383159
000260 29 99 c7 3a 3a 5d 37 3b 56 2a 17 bb de f6 1c bb
       0.001522814 0.0027979151 -0.0023066006 -0.0023950855
000270 e5 27 bf ba 18 54 67 3b 09 d8 d7 3b e8 73 fe 3a
       -0.0014584033 0.0035297927 0.0065870327 0.0019413205
000280 7f c2 1d bb be 98 41 bb 20 36 31 ba 48 6c 92 39
       -0.0024072228 -0.0029540504 -0.00067600794 0.00027927966
000290 c8 16 70 b9 5c 66 41 3b a0 5f b8 b9 ca 0c 3c bb
       -0.0002289667 0.0029510474 -0.0003516646 -0.0028694146
0002a0 cc 3e a7 bb 88 60 8d bb b4 7b 6d bb 2e c4 51 bb
       -0.0051039215 -0.004314486 -0.0036237063 -0.0032007801
0002b0 da 07 ae bb 1b ba 56 bb 00 3e 4f 39 2b c4 0a 3c
       -0.0053109946 -0.0032764736 0.00019764155 0.008469622
0002c0 14 24 9f ba f6 db d3 bb be 4e 8d bb 12 2b de ba
       -0.001214149 -0.0064654304 -0.0043123653 -0.0016950092
0002d0 bb 0c 38 3b ec bd 62 bb 31 5b 53 bb 83 43 4a bb
       0.002808376 -0.0034598066 -0.00322504 -0.0030862994
0002e0 20 8c da b8 5a 76 ac 3a 7d cf a3 ba a7 d4 8a 3a
       -0.000104211504 0.001315783 -0.0012497749 0.001059194
0002f0 24 58 f2 ba 0a 71 c5 bb fc cf 10 bb 60 cf 64 38
       -0.0018489403 -0.006025438 -0.0022096625 5.455257e-05
000300 b6 c1 80 3b 6c 3e 93 bb ee d4 06 bc 07 e3 2a bb
       0.003929342 -0.0044935253 -0.008229477 -0.002607526
000310 c0 ac a8 bb 89 f4 ab bb 76 bf f4 bb 47 35 a7 bb
       -0.0051475465 -0.0052476567 -0.007469113 -0.0051027867
000320 4a 1c 2d 3b 7a 01 73 ba 63 af dc ba 16 dc 2c bb
       0.0026414567 -0.00092699344 -0.0016836937 -0.0026376299
000330 28 13 22 b9 9e 6a a2 3a 3b e8 10 3a 67 ff 62 3b
       -0.0001545666 0.0012391394 0.0005527769 0.0034637095
000340 4e 84 21 3a 03 79 a7 3b e2 35 09 3c f8 54 a9 38
       0.00061613775 0.0051108613 0.008374663 8.074375e-05
000350 1a 6e 93 bb 6b 80 50 bb 25 e6 87 3b 74 1a d7 3b
       -0.004499209 -0.0031814824 0.0041473084 0.0065644328
000360 2e 90 d9 3a 60 0b 20 bb c0 48 71 bb e0 fe 03 3a
       0.0016598755 -0.0024420843 -0.0036817044 0.0005035233
000370 c2 db 8a 3b 98 58 6b ba 08 97 b4 39 c1 13 9c 3a
       0.004237623 -0.000897774 0.00034444802 0.0011907743
000380 17 b7 96 3b d1 e4 ae ba 6e 6a 07 3a ee 76 f4 3a
       0.0045994627 -0.0013343339 0.00051657006 0.0018651166
000390 96 2e 08 ba f1 41 7c bb 70 6c 41 ba da 09 26 3b
       -0.000519493 -0.0038491453 -0.0007378524 0.0025335462
0003a0 b6 7a 21 3b d6 41 e1 39 5c e0 03 bb 22 f0 99 3b
       0.0024639792 0.00042964396 -0.0020122742 0.0046978155
0003b0 16 d1 10 3c b9 4a fa 3a 62 cb f0 ba 90 b4 47 39
       0.0088389125 0.0019095755 -0.001837116 0.00019045384
0003c0 90 e5 1a 39 0b b1 4f 3b 80 51 46 3b 80 2b 43 b9
       0.00014772103 0.003169122 0.003026098 -0.00018612854
0003d0 00 1a da b6 fd 21 ae 3a de 3f 87 3b 5a ba a2 3b
       -6.499933e-06 0.0013285276 0.0041274866 0.0049660625
0003e0 48 52 4c bb c0 07 2d bb bf 05 84 3b 32 95 d1 3b
       -0.0031176973 -0.0026402324 0.0040290053 0.0063959593
0003f0 42 85 2e 3b 54 3f 91 3a a1 8f b1 3b 71 b9 a9 3b
       0.002662972 0.0011081495 0.005418733 0.005179577

momentum_buffer f4 [120]
000000 59 30 63 bb e8 41 7a 3c 00 ed 5d bc 0e dc 21 3b
       -0.0034666269 0.015274502 -0.013545275 0.0024697813
000010 c8 0f c7 3b ce 11 8d 3b cc c4 3e bb 1d 4e 8c 3b
       0.0060748793 0.004305101 -0.0029109 0.0042817728
000020 d0 c3 2e 3b 9b d7 70 3c 26 05 31 bc 08 a8 29 3b
       0.0026667006 0.014699842 -0.01080445 0.0025887508
000030 2c 3d cc 3a 05 93 8e 3b 4e 5e c4 3b 31 3b 34 bc
       0.0015582195 0.004351022 0.0059926873 -0.01100044
000040 a0 4b 9c 39 fc d1 6d 3b 7e b2 4d 3c ba 60 6b 3c
       0.00029810984 0.003628849 0.012554763 0.014366323
000050 b5 a8 84 3b e2 18 5b 3b 5c 43 37 bc ff d1 51 bc
       0.0040484318 0.003343158 -0.011185493 -0.012806415
000060 99 82 09 3c 94 50 c5 3b 3e 01 7c bc 3b df 54 3b
       0.008392953 0.0060215686 -0.015381156 0.0032481689
000070 a7 90 2b bc 0c 83 9f bc f5 7a 1b bc f8 62 b9 3b
       -0.0104714995 -0.019471668 -0.009489764 0.00565755
000080 9c 97 c3 b9 9f 71 6b bb d9 5e b9 3c a3 f9 11 bc
       -0.00037306256 -0.0035925878 0.022628235 -0.008909616
000090 c9 89 31 3c cb f1 08 bc 10 9b d5 3b 52 51 af bb
       0.010836073 -0.008358429 0.006518729 -0.0053502703
0000a0 e3 aa 53 3c 2c 5a be bb 2d 07 ea bb 21 91 cd 3b
       0.012919161 -0.005809089 -0.0071419687 0.006273404
0000b0 c0 f2 64 bb 68 00 e4 3b ba e3 0b 3c b3 84 f9 3b
       -0.003493473 0.0069580562 0.008538181 0.007614696
0000c0 53 73 bb bb 41 98 f4 bb 2b b9 1f bc 8e 2e 0f 3c
       -0.005720535 -0.007464439 -0.009748737 0.008739127
0000d0 9f 1d 97 bb 63 2f 63 bc 56 4a 43 bc 5a 01 f1 bb
       -0.0046116854 -0.013866278 -0.011919579 -0.0073548974
0000e0 f0 8b 35 bb 73 67 02 3c ae 67 c4 bb 1a d3 26 3b
       -0.0027701817 0.0079592345 -0.005993805 0.0025455416
0000f0 ea c2 25 bb 17 4d 7a bc 4c 6f 8e ba 9c 86 ae 3b
       -0.002529318 -0.015277169 -0.0010866909 0.0053261053
000100 f5 e4 3f bb ca 85 8c bb 94 2f ac bb 28 96 12 bc
       -0.0029280756 -0.00428841 -0.005254695 -0.008946933
000110 ee e5 40 bc 4c 9d be 3b 27 7b 96 bc 89 25 6a bc
       -0.0117735695 0.005817091 -0.01836927 -0.014291176
000120 f4 94 10 3c 5a 45 06 bc 67 d0 5a bb cf 04 2d bc
       0.008824576 -0.008195246 -0.0033388378 -0.0105602285
000130 61 7d 88 3c ba 08 d8 3a 63 c6 aa bc 91 3c 9e bb
       0.016661348 0.0016482093 -0.020846551 -0.0048289974
000140 d0 ec 71 3b 47 24 41 3c 80 81 61 ba fa 47 91 3c
       0.0036914833 0.011788434 -0.0008602366 0.017734516
000150 40 2b 74 b9 9e 46 77 bb e8 2b 03 3c a4 5d ac bc
       -0.00023285765 -0.00377313 0.008006074 -0.021040745
000160 b2 4f 44 3c df 09 97 bc aa 0b cb bb 46 26 cd bb
       0.0119818915 -0.018437324 -0.006196459 -0.006260666
000170 e7 d1 c0 3b a5 b3 44 3c dc 77 bd 3a d0 d2 5d 3a
       0.0058843973 0.012005721 0.0014455277 0.00084618945
000180 cf 5a d8 3b ad 6a 77 3c 1e f4 b8 3b a1 0e e6 3b
       0.006602622 0.015101117 0.0056443354 0.007020787
000190 c0 88 0f 3c 2e db 5d bb ec a5 fb 3a 02 93 10 3c
       0.008760631 -0.0033852565 0.0019199229 0.008824112
0001a0 76 d7 9d bb d3 ab 1d 3c aa 0a 96 bc 4e f6 68 3b
       -0.0048169447 0.009623486 -0.018315632 0.00355472
0001b0 72 8e 73 3a 87 e9 ab bc c2 bc 64 3c 30 4b 89 3c
       0.00092909404 -0.020985378 0.013961019 0.016759485
0001c0 4c 71 97 bb e5 6e fb 3b 50 72 ed b9 65 ee bc 3c
       -0.0046216603 0.007673132 -0.00045289332 0.023062894
0001d0 00 c5 9d 3c 74 bc a7 3c 33 0c b5 bb f9 84 e2 bb
       0.019258976 0.020475604 -0.005525136 -0.006912824

momentum_buffer f4 [84, 120]
000000 a9 f7 0e 3c 4e 88 93 bb 19 13 35 3b 12 d7 e1 bb
       0.008726039 -0.004502333 0.0027629791 -0.0068920935
000010 52 66 be ba 3a d7 ea 3b a0 6b e7 bb 49 28 9f bb
       -0.0014526343 0.0071667703 -0.0070623904 -0.0048570973
000020 e9 e1 50 bb 08 c6 81 39 0d 9f dc 3a de 5d 63 3b
       -0.0031872934 0.00024752342 0.0016832069 0.00346934
000030 7e 33 24 bc 3e 11 23 bc 99 c5 81 bb ca d4 cc 3b
       -0.010022042 -0.009952841 -0.003960323 0.0062509524
000040 d6 45 8c 3a 68 f8 95 3b b5 7f bc ba 3e 09 c7 bb
       0.0010701965 0.0045767315 -0.0014381321 -0.0060741
000050 d1 a3 d9 ba e8 83 98 bb 13 8a 7a 3b b4 a2 c4 bb
       -0.0016604607 -0.0046543963 0.0038229271 -0.006000841
000060 d5 e7 2b 3b 60 64 b5 bb 1c d2 d2 39 58 7b 06 3b
       0.0026230712 -0.0055356473 0.00040210865 0.0020520296
000070 20 00 05 3c d0 df 0f 3b a8 ca 8c 3b f9 82 05 3b
       0.008117706 0.002195347 0.0042966194 0.0020372255
000080 8c 40 d3 ba 4a 84 95 bb 40 ea 0c b8 8e 04 c1 ba
       -0.0016117259 -0.004562889 -3.3596763e-05 -0.0014726089
000090 56 44 ff ba 0c a1 85 ba 48 dc 7a bb 1e 43 85 3b
       -0.0019475322 -0.001019509 -0.003827827 0.004066839
0000a0 9f f0 80 3b 9c 42 a3 bb 4d 3d 88 bb be 94 c4 bb
       0.0039349343 -0.0049823057 -0.0041576982 -0.0059991768
0000b0 ce 32 a5 bb f9 86 13 3b c0 56 b2 b8 8d e2 af 3b
       -0.005041457 0.002251087 -8.50386e-05 0.005367583
0000c0 b0 09 d4 3b 9e f1 de 3b b4 33 52 3a d2 36 05 bb
       0.0064708814 0.0068037054 0.00080185686 -0.0020326865
0000d0 70 95 28 b9 ca cb 92 3a 84 a1 87 bb 0d 82 18 3c
       -0.00016077398 0.001119965 -0.004139127 0.00930835
0000e0 7d 07 bf 3a ac 9f bc 3b 6c f2 f1 3a e6 d8 96 3b
       0.0014574375 0.005756339 0.0018459088 0.004603493
0000f0 0c 79 a2 bb ba f6 03 3c fc 2c 43 bc 60 2b b5 39
       -0.0049582776 0.00805443 -0.011912581 0.00034555327
000100 07 ba df 3b a6 9b 01 bb ae 9c a3 3b 26 1c 67 3b
       0.006827596 -0.0019776612 0.004993043 0.003526458
000110 18 86 89 bb 43 ba 81 bb b3 99 1a 3b d4 7c c5 3b
       -0.0041968934 -0.0039589717 0.0023590147 0.0060268436
000120 4e 7f a7 3a a0 e9 b8 bb 22 4f a7 bb 09 79 59 ba
       0.0012779029 -0.0056430846 -0.005105869 -0.0008295929
000130 fd 67 30 bb 2a 69 1e bc 98 99 20 b9 f4 18 49 3a
       -0.002691745 -0.009668628 -0.00015316007 0.000767126
000140 89 27 b7 bb 55 bc 16 bc 8e f8 89 ba 68 3c 63 3b
       -0.0055894298 -0.009200175 -0.0010526346 0.0034673456
000150 be dd 00 bb e2 df e4 bb 89 8f d3 bb 20 9c 6c 3a
       -0.0019663419 -0.0069846967 -0.0064563197 0.000902595
000160 40 39 76 bb 8e f0 e0 3a ba 8f dd 3a e3 e9 7f 3b
       -0.0037570745 0.0017161535 0.0016903796 0.003904932
000170 46 33 47 3b d3 a3 89 3b ad fe 05 bc d9 d1 8c 3b
       0.0030395552 0.0042004376 -0.008178395 0.0042974767
000180 60 65 1f bb 13 98 0a bc 51 0b 18 bb 04 71 02 ba
       -0.0024321899 -0.008459109 -0.0023200104 -0.0004975947
000190 8b e3 05 3b e6 c8 ae 3b d2 92 39 3b 1d 19 9a bb
       0.0020429816 0.0053340076 0.0028316271 -0.004702701
0001a0 78 df 4f 3b ff 52 4e 3b 7f 6d b0 3b e5 b1 f0 3a
       0.003171889 0.0031482575 0.0053841467 0.0018363564
0001b0 41 eb 19 bb dd 80 5a 3c 51 52 ec bb ea 3a ac ba
       -0.002348617 0.013336387 -0.0072119613 -0.0013140116
0001c0 83 50 f0 3b 8a c6 22 bc b1 c5 10 3c 76 c3 03 bb
       0.0073338165 -0.009935031 0.008836196 -0.0020105517
0001d0 04 e2 9d bb 1c 45 d3 ba 83 f2 85 3b 54 f5 9d 3b
       -0.004818203 -0.0016118619 0.0040877475 0.004820505
0001e0 90 d8 82 bb 44 c6 b1 3a 44 b6 c8 ba 1c c0 35 3a
       -0.0039931014 0.0013563116 -0.0015313108 0.00069332286
0001f0 04 ec 58 bb 6e aa 2a bc 02 64 72 3b b8 eb cc 3b
       -0.003309966 -0.01041661 0.0036985879 0.006253686
000200 0a 87 87 bb 71 b2 77 3b 08 cd fe b9 78 90 de b9
       -0.004135971 0.0037795568 -0.00048599415 -0.00042450777
000210 1d 0a 17 3b 62 4f 79 3b 44 07 bb 3b 17 06 bd bb
       0.00230468 0.00380417 0.0057076532 -0.005768548
000220 69 70 32 3b 3e 35 41 bc 82 d1 00 ba fc 42 c6 3b
       0.0027227646 -0.011792479 -0.00049140316 0.0060504656
000230 90 f6 68 39 37 52 53 ba 82 f1 21 bb 3c 23 31 3b
       0.00022217096 -0.0008061262 -0.00247106 0.0027029058
000240 b9 ba 86 3b 20 72 18 3b b8 2d 03 bb 60 e9 e2 3b
       0.0041116145 0.0023261383 -0.0020016264 0.006924793
000250 b6 63 cc bb 1f 3c 77 bb f2 25 85 bb 76 c5 d0 3a
       -0.0062374724 -0.0037725044 -0.0040633613 0.0015927989
000260 68 e1 97 3b ac 15 67 bb 37 8d 9d 3a 2e ce fa 3b
       0.004635025 -0.003526072 0.0012020235 0.007653973
000270 cb 7c cc 3a 32 bb fa 3b 97 83 b8 3b a1 50 af ba
       0.0015601156 0.00765171 0.005630921 -0.001337547
000280 34 9e 8e 3b 04 ac 1e 3a fa b5 17 3c b8 68 e9 39
       0.0043523554 0.0006052854 0.009259695 0.00044519245
000290 54 66 61 3a 9c a0 b0 3a 84 4e 1d 3a 48 fa 49 bb
       0.0008598317 0.00134756 0.00060007744 -0.0030819345
0002a0 cf db f6 bb 85 34 d3 bb 9c 5d ef ba 70 29 57 b9
       -0.0075335274 -0.00644547 -0.0018262151 -0.00020519434
0002b0 02 30 3d 3b f4 ab 8d bb a2 ef 8f bb 88 9a e2 ba
       0.0028867726 -0.004323477 -0.00439258 -0.0017288486
0002c0 77 69 0c bb 9d 1a 89 bb d9 9e 01 ba dc 4a 3a ba
       -0.0021425167 -0.0041840808 -0.00049446296 -0.0007106492
0002d0 a1 4a 48 3c fe 5d 97 bb ba 7f 1b 3c 00 80 a7 3b
       0.012224824 -0.004619359 0.009490902 0.0051116943
0002e0 75 63 fd bb 14 57 41 3b 80 c7 64 38 0f 46 b1 bb
       -0.0077328035 0.0029501365 5.4545235e-05 -0.005409963
0002f0 88 68 90 bb b4 ea ba 3b 26 3b 60 bb 2f 83 c5 bb
       -0.0044069923 0.0057042483 -0.0034214943 -0.006027601
000300 8c a9 ed bb 20 43 01 3b e6 2b 36 3c 80 c3 2d b8
       -0.0072528776 0.0019723848 0.011118865 -4.1428488e-05
000310 60 da d0 38 bf 84 73 3c f3 46 7e bb 90 e8 49 b9
       9.9588884e-05 0.014863192 -0.0038799613 -0.0001925549
000320 6f 6f 61 3b 38 f2 0d 3c 22 7b 71 bb 40 9a 61 b9
       0.0034398695 0.0086637065 -0.0036847075 -0.00021515135
000330 4e 4f b0 3a 03 23 24 3c b3 e4 58 3b 38 9e 5a bb
       0.0013451369 0.010018113 0.00330953 -0.0033358466
000340 8c 2b c3 3b fc 93 d0 ba 59 42 9b bb a6 56 ba bb
       0.005956119 -0.0015913243 -0.004738134 -0.005686599
000350 1a b3 f3 bb e2 1d 8f 3b a8 4c 07 3a 18 f5 9b ba
       -0.007437122 0.004367576 0.0005161264 -0.0011898605
000360 74 71 23 3a 9e 42 9f 3b a0 c2 23 3a 62 1a a6 bb
       0.00062348624 0.0048602363 0.0006246958 -0.005069063
000370 f2 54 f0 bb 95 c0 59 bb 38 e2 c5 ba 14 52 bd ba
       -0.007334345 -0.003322636 -0.0015097326 -0.0014444017
000380 80 a4 09 b8 00 be 56 38 70 60 34 ba 44 b9 5c bb
       -3.2816548e-05 5.1198527e-05 -0.00068808254 -0.0033679763
000390 02 cb a9 3b 92 f8 73 bc d7 54 bd 3b 0b 4c 14 3b
       0.005181671 -0.014890807 0.005777936 0.0022628333
0003a0 54 ba e3 bb 34 98 aa 3a 88 37 b5 bb 40 c8 42 ba
       -0.0069497023 0.0013015331 -0.0055303015 -0.0007430352
0003b0 10 9a c3 3a a0 83 44 b9 94 2d bd bb 9f 39 96 bb
       0.0014923234 -0.00018741051 -0.0057732556 -0.0045845057
0003c0 42 c7 5b bb 08 79 e0 39 33 ee 02 bb aa df bb 3b
       -0.0033535515 0.00042814785 -0.0019978404 0.00573345
0003d0 89 64 0a 3a df df 82 bb b2 97 b6 3b 66 ef 89 3b
       0.0005279263 -0.0039939727 0.0055722827 0.0042094467
0003e0 d2 aa c4 3a 1c 07 6e 39 40 0a 90 b9 36 2c a9 ba
       0.0015004522 0.00022700097 -0.00027473457 -0.0012906853
0003f0 a4 ab e3 3b a4 f1 a1 3b 01 10 66 3b ac 72 52 bb
       0.0069479514 0.004942136 0.0035104754 -0.0032111807

momentum_buffer f4 [84]
000000 d5 15 91 bc ae 82 bd 3c 7a ac f6 3b aa 3d 15 bb
       -0.017710606 0.023133602 0.007527885 -0.002277235
000010 32 91 a1 bb f4 1b 29 3c 00 e2 85 bc 12 ef 95 bc
       -0.0049306387 0.010321606 -0.016343117 -0.018302474
000020 5f 18 9a 3b 03 fa 30 ba 2d 52 94 3b c4 ee 6c bc
       0.0047026123 -0.0006751122 0.0045263977 -0.014461223
000030 0f 0e 19 bc 34 dc 95 bb b8 30 64 bb 58 a2 dc 3b
       -0.009341731 -0.0045733694 -0.0034819078 0.00673322
000040 6c ae 99 3b 8c 4f 5e 3c 81 04 b7 3c a2 0c 2a bc
       0.004689982 0.01356877 0.022341015 -0.010378988
000050 c0 46 58 bb 14 7c b5 bc 0c a2 95 3c 2a e0 23 3c
       -0.0033001155 -0.022153892 0.018265747 0.010002175
000060 b1 62 4e 3c 51 86 67 bc 35 2d 95 bc ab df 67 bc
       0.012596772 -0.014131145 -0.018210033 -0.014152448
000070 56 29 70 bb b7 a2 98 3b 48 85 c9 bc 00 7f 22 3b
       -0.0036645732 0.004658069 -0.024599686 0.0024794936
000080 c3 a2 63 bc 89 f3 8d 3c d0 ed f3 bb 91 4c 94 bb
       -0.013893786 0.01732804 -0.007444121 -0.004525729
000090 60 e5 fc 3b 80 8c 45 bc e6 86 9e bb 78 97 03 bb
       0.0077177733 -0.012057424 -0.0048378585 -0.0020079296
0000a0 dc 5d 97 bb 2a e7 d8 3b 67 3d 98 bb f3 65 92 bb
       -0.004619343 0.006619354 -0.0046459916 -0.0044677197
0000b0 94 24 23 3c f3 65 68 bb 4a c9 15 bc 40 7a 0f 39
       0.009957451 -0.0035461157 -0.009142229 0.00013683084
0000c0 d2 0e 21 bc 9d 31 8d 3c f0 92 45 3a ff f1 97 bb
       -0.009830194 0.017235572 0.0007536849 -0.0046370025
0000d0 1c ba ca ba a9 e3 34 bb eb ef 8f 3b 2c 68 65 3b
       -0.0015466842 -0.0027601516 0.004392614 0.0035004718
0000e0 14 c0 29 3b fc 92 05 3c 3d 09 b7 bc 0e cc 9c bb
       0.002590184 0.00815272 -0.022343272 -0.0047850674
0000f0 a2 20 85 3c 43 eb 8d bc 64 ed 91 3b d8 b7 95 bc
       0.016250912 -0.017324096 0.004453348 -0.01827614
000100 d6 03 d6 3b 08 f2 2b 3c dc 59 88 bb c4 74 99 3b
       0.006531219 0.010494716 -0.0041611027 0.004683109
000110 0a 75 53 3b 73 22 e7 3b 88 6a ce 3b 14 7d 0a 3b
       0.0032265806 0.007053667 0.0062993206 0.0021131681
000120 55 da 8c 3b 14 b3 98 bb f2 51 19 3c 41 a5 98 3b
       0.004298488 -0.0046600197 0.009357916 0.0046583717
000130 96 10 a2 3b 3e 86 ef 3b 6e 0a d7 3b 88 05 7c bc
       0.004945825 0.007309704 0.0065625226 -0.015382178
000140 ac 4e 75 bb 3c de 5c 3b 5b 11 43 bc fa 19 96 3c
       -0.0037430925 0.0033701798 -0.011905993 0.018322933

momentum_buffer f4 [10, 84]
000000 d0 51 14 3b a6 12 6c bb 48 77 35 bc 04 47 7d 3c
       0.0022631772 -0.0036021858 -0.011075802 0.015458826
000010 3d b3 3f bb 5b 15 33 bb 98 e3 f3 3a 36 9d 40 3c
       -0.0029251121 -0.0027325961 0.0018607257 0.011756232
000020 bf 93 3a 3b 66 9f e6 3b f0 b8 5d bb 82 28 d2 bb
       0.0028469411 0.0070380447 -0.0033832155 -0.0064135203
000030 38 9d a9 ba 49 0f 38 bb a8 99 48 3c b2 02 25 bb
       -0.0012940532 -0.0028085283 0.012243666 -0.0025178608
000040 f8 50 3a 3b 80 6f 6b 3a 04 18 a4 bb ad 34 29 3b
       0.0028429609 0.00089811534 -0.0050077457 0.002581875
000050 3c a9 69 3b 7e 37 14 ba de bf e9 3a 18 e1 33 3c
       0.003565385 -0.0005654021 0.001783367 0.0109789595
000060 fc bb 67 3c 36 aa 10 bc 00 eb dc ba 02 9c 07 bc
       0.01414394 -0.008829644 -0.0016854703 -0.008276941
000070 7e b5 31 3c f1 a9 39 3b 7a e3 ab bb b5 3b 89 3a
       0.010846494 0.0028330053 -0.005245623 0.0010470065
000080 2b b8 d4 3b b4 0a 7b 3c b3 96 09 3c 5e 5d 37 bb
       0.006491681 0.015322376 0.008397746 -0.0027979235
000090 30 d0 03 3b 7b 0f 89 3c c9 08 68 bc 50 da f6 ba
       0.0020113103 0.016731014 -0.014162251 -0.0018833373
0000a0 f3 e5 38 bb 9c cd 06 bc ba 6c 39 bb f7 d1 05 3b
       -0.0028213232 -0.008227732 -0.0028293566 0.0020419338
0000b0 cd 58 23 bb f4 b7 6b bc 46 4c dc bb 2a 6e be 3b
       -0.0024924756 -0.01438712 -0.0067229597 0.0058114724
0000c0 a5 f7 a9 bb 5a 9b 6b ba 88 c7 e2 ba 65 42 39 bb
       -0.005186992 -0.0008987688 -0.0017301897 -0.0028268334
0000d0 2c 34 c7 ba 5a 14 76 3c c2 56 a2 bb e0 39 2f bc
       -0.0015198044 0.015019501 -0.00495419 -0.010694951
0000e0 81 b9 1c 3c fe fa 23 bc 30 a5 94 b9 1f 2b 3c bb
       0.009565712 -0.010008572 -0.00028351834 -0.0028712226
0000f0 74 40 58 3b 0d ff ca 3b 94 c9 5e bb ec 48 f0 ba
       0.0032997401 0.006194955 -0.0033994662 -0.0018332279
000100 24 ce 0f bc f3 63 0b bc d1 94 2f 3c de 2d 3a 3b
       -0.008777175 -0.0085077165 0.010716633 0.0028408687
000110 34 a7 f5 3a c6 87 c1 ba 01 1d 76 3b 4a f3 19 3b
       0.0018741847 -0.0014765195 0.0037553909 0.002349096
000120 9a ae 63 3c fe b4 39 bb 5c 56 47 3c ad ac 39 3b
       0.013896609 -0.002833664 0.012166586 0.0028331683
000130 99 25 40 3b 40 4e 3e bc 28 98 39 3b a6 69 05 bc
       0.0029319285 -0.011615336 0.0028319452 -0.008142864
000140 02 3a f0 3a 8c e0 cb bb e9 03 b3 bb 38 ae ae 3a
       0.0018327835 -0.0062218364 -0.0054631126 0.0013327068
000150 1f b2 27 bc e0 16 c2 b8 90 ae 0e 3c 6c d5 b5 bb
       -0.0102353385 -9.254902e-05 0.008708611 -0.0055491235
000160 18 2c 2f bb 3e d0 20 bc 44 e9 98 3b c4 81 b8 3a
       -0.0026729163 -0.009815274 0.0046664793 0.0014076759
000170 1c 5e 38 3b d3 26 46 3c cb c3 c6 3b c3 d2 81 bc
       0.0028132265 0.012094217 0.006065821 -0.01584757
000180 fe 2c af 3b bc 66 3d bb 56 70 5b bb ea 40 59 bb
       0.0053459397 -0.0028900346 -0.0033483705 -0.0033150264
000190 34 df 38 3b c0 bc 74 38 32 ba 67 3b 98 24 20 3c
       0.0028209211 5.834992e-05 0.0035358784 0.00977435
0001a0 c3 eb 17 bc ba c6 3c 3b 86 d2 8b 3b 70 05 53 ba
       -0.009272519 0.0028804974 0.0042670397 -0.00080498215
0001b0 5a 9c 50 3c a0 de 3a 38 71 95 8b bb dc 2c b3 ba
       0.01273259 4.455319e-05 -0.004259758 -0.0013669985
0001c0 88 06 9b ba f4 1b 3a 3b cf 49 44 bc 30 b6 bc 39
       -0.0011827508 0.002839801 -0.011980488 0.00035993895
0001d0 99 de b6 3b 85 64 d1 3b 89 05 85 bb 14 16 3f bb
       0.005580735 0.0063901567 -0.0040594977 -0.0029157447
0001e0 d6 38 8e ba c4 82 9a 3b fc b8 e5 3a f0 cd 7e bb
       -0.0010850679 0.0047152955 0.0017526443 -0.0038880073
0001f0 a4 91 3b bb 18 c3 06 3c f8 93 3a bb 79 48 34 3c
       -0.0028620744 0.008225225 -0.0028469544 0.011003607
000200 d3 02 22 bc f0 c7 19 3b 8b 71 46 bb 4b 5d f6 bb
       -0.009888369 0.002346512 -0.003028008 -0.0075184456
000210 8f 85 15 bc 97 1c 70 bb b6 cf d4 3b 08 e9 3a bb
       -0.009126081 -0.0036638135 0.0064944876 -0.0028520245
000220 d9 d7 80 bb 5d de bd bb 14 14 1e bc d0 67 76 3b
       -0.003931981 -0.00579433 -0.009648342 0.0037598498
000230 2b 62 35 3c 5b be e4 bb 18 2f c7 3b b0 52 35 bb
       0.011070768 -0.0069807 0.006078612 -0.0027667694
000240 d0 11 a0 3b 6b 16 c8 3b 83 70 c6 3b 08 c8 8b bb
       0.004884936 0.006106188 0.006055893 -0.004265789
000250 16 ef 94 3b 72 d6 b8 bb f0 11 69 bb c4 1b 39 3b
       0.004545103 -0.0056407982 -0.003556367 0.002824531
000260 7f df 8f 3b 0e 50 a6 bb 3a dc 71 3c 99 58 eb bb
       0.0043906565 -0.005075461 0.014761979 -0.0071821925
000270 98 da 07 bb f4 08 3a bb e8 46 2a ba 50 19 3a 3b
       -0.0020729657 -0.0028386684 -0.0006495551 0.0028396435
000280 cc 53 2e 3b 12 9e ba bb 0c bd dd bb fb f7 94 ba
       0.002660024 -0.005695113 -0.006766921 -0.0011365408
000290 25 24 33 3b d2 06 28 3b 30 41 7c bc 86 04 87 ba
       0.0027334776 0.002563883 -0.015396401 -0.0010301031
0002a0 e4 9e 65 bc 86 bd 1b 3b 84 a1 b0 3c 14 80 c0 bc
       -0.014014933 0.0023764088 0.021561392 -0.023498572
0002b0 17 77 a4 3c 00 9d 43 ba 8a 76 6e 3b a3 8d b3 ba
       0.020076318 -0.00074620545 0.0036386573 -0.0013698827
0002c0 b2 c6 a1 bc c3 e8 1b 3b 77 d4 8d 3c ba 45 3f bc
       -0.019748066 0.002378986 0.017313225 -0.011674339
0002d0 a5 b9 18 3b a0 51 a0 3c 12 d4 a7 bc 4d a8 bb bb
       0.0023304012 0.019570172 -0.020486865 -0.00572685
0002e0 52 a1 a1 bc 21 33 da bb f5 63 86 bb 66 a4 d6 3a
       -0.019730244 -0.006658927 -0.0041012713 0.0016375899
0002f0 d8 25 8f bb 32 6f f5 3b 2a ae 4b bc 04 ed 0d bc
       -0.004368525 0.007490062 -0.012431661 -0.008662466
000300 00 78 d3 ba d9 7b b6 3b 7b 04 4c 3c 6b 90 6e 3b
       -0.0016133785 0.005568963 0.01245224 0.0036401998
000310 23 45 fa bb 9d 44 a1 bc 2b 20 84 bb 5d f7 fe 3b
       -0.0076376363 -0.019686038 -0.004032155 0.007780953
000320 34 5c d8 3b 44 6e 1e 3a 67 9e 85 bc 40 d4 9f 3c
       0.0066027883 0.00060436525 -0.016310884 0.019510388
000330 dc 0c 77 bc 62 bd 8f 3b 86 c8 a8 3c 99 04 75 bc
       -0.0150787495 0.00438659 0.02060343 -0.014954709
000340 c1 d6 a0 3c 4d ec f3 3b ca 21 a1 3c 22 44 4a 3c
       0.019633653 0.0074439407 0.019669432 0.012345346
000350 d2 72 02 bb fa 7a ae 3c 81 09 23 3b e1 35 d2 bb
       -0.0019904864 0.021298874 0.002487749 -0.0064151143
000360 b0 91 4f 39 1e 43 20 bb af 92 6c 3c ee 08 a1 3c
       0.00019795331 -0.0024454067 0.014439269 0.019657578
000370 bf d0 8a bc 1e ae bf bc 63 ac 85 bc be 15 a6 3c
       -0.016945241 -0.023398455 -0.016317552 0.02027404
000380 b0 ff 9d 3b 0b db 32 bb d9 9c fd 3b d5 aa a2 3c
       0.00482174 -0.0027291204 0.007739645 0.01985685
000390 24 36 9d bc 90 2a eb 3b e7 e8 8d 3c 46 6c 4b 3c
       -0.019190855 0.0071767047 0.01732297 0.012415951
0003a0 b2 bd 54 3c 34 ce 3d bb 36 7c a2 bc e6 8e a1 bc
       0.01298468 -0.0028962018 -0.019834619 -0.01972146
0003b0 10 48 8f 3c be 28 26 bc 9e 3b 7f 3c 04 94 16 bc
       0.017490417 -0.01014155 0.015578179 -0.009190563
0003c0 7e a9 ad bc 52 4a a1 3c ac e2 1a bc 8d 45 a1 bc
       -0.021198984 0.019688759 -0.009453457 -0.019686485
0003d0 0c b3 a4 bc 88 a0 5c bb 08 de b3 b9 2e 7e 90 3b
       -0.020104907 -0.003366502 -0.00034306967 0.004409573
0003e0 44 86 31 3c 3f 32 2f bb 80 a2 51 bc ba 3b 14 bb
       0.010835234 -0.002673283 -0.012795091 -0.0022618608
0003f0 0c 97 ac 3b 76 55 43 bc 00 27 99 3a 5d 31 07 bc
       0.0052670296 -0.011922231 0.0011684597 -0.008251515

momentum_buffer f4 [10]
000000 82 6a db 3c 9a b2 53 3c 84 d7 c1 bc 4b 78 61 bc
       0.026784185 0.012921 -0.023662336 -0.01376159
000010 13 c3 80 bc 19 f0 93 bc b7 16 56 3d c9 ed e8 3c
       -0.015718019 -0.018058823 0.052267756 0.028433697
000020 20 e7 cc ba e3 24 43 bd
       -0.0015632845 -0.0476426

conv1.weight f4 [6, 3, 5, 5]
000000 fd 8f 21 bb 37 4f 22 3d 3b 0c 9d 3b cb e0 2f bc
       -0.0024652474 0.039626326 0.0047927178 -0.010734747
000010 35 19 7c 3c c6 25 b2 bc 0e 50 cc 3b 53 51 62 3c
       0.015386869 -0.021746527 0.006235129 0.0138133345
000020 22 26 a5 3d ce 46 6e bd 9a 79 03 3d 0d be 98 bd
       0.08063914 -0.058172993 0.03209839 -0.07458124
000030 84 b0 f9 bd 2d 3f b4 3e 3f 8c 0c be 9c 11 a0 3d
       -0.12191871 0.3520445 -0.13725375 0.07815859
000040 58 73 20 bd 92 f7 ac be 05 9e d1 3e 4d 59 1d bd
       -0.0391725 -0.3378263 0.40940872 -0.038415242
000050 46 11 86 3d a8 55 f9 3d 4a 38 81 be 71 95 42 3e
       0.065462634 0.12174541 -0.25238258 0.1900232
000060 ae ec e4 3d 7b c8 96 bc 3d c8 e8 ba e9 3b cf bc
       0.111779556 -0.018406143 -0.0017759871 -0.025297122
000070 99 96 3c bc 6e d1 6e bc 4f 7d e0 bb d4 2d 36 bd
       -0.011510515 -0.014576299 -0.0068508754 -0.0444773
000080 4c 3e 64 bc c9 a1 dc 3d 84 23 c9 bd 23 66 30 3d
       -0.013930868 0.107730456 -0.09821227 0.043066155
000090 8c f9 07 be 28 d6 1a be a4 59 c3 3e 4a e8 37 be
       -0.13278788 -0.15120757 0.38154328 -0.17959705
0000a0 35 9d c9 3d 06 aa aa bd 7d 0e c4 be 91 f7 d3 3e
       0.09844438 -0.08333211 -0.38292304 0.41399816
0000b0 38 2c 95 bd f8 64 31 3d df 23 3d 3d bb 2d bd be
       -0.07283825 0.043309182 0.046176787 -0.36948952
0000c0 71 28 d5 3d c7 59 ad 3c d1 7d 6b bc 56 46 22 3d
       0.10408104 0.021160973 -0.014373259 0.03961786
0000d0 dc d6 28 3d 55 4b 38 3d b9 e0 71 bc 90 bd 0e bd
       0.04122053 0.044993717 -0.014763051 -0.03484875
0000e0 3a bd 06 bc 33 0e 80 3d 90 f0 1a 3e a2 8e c3 bd
       -0.008223826 0.06252708 0.1513083 -0.095486894
0000f0 d0 bc 54 39 7b 86 c0 bd bd 01 85 bd 75 d0 d1 3e
       0.00020288234 -0.0940065 -0.06494472 0.40979353
000100 64 60 35 be 31 07 63 3d 99 e1 5e bd 5d f8 91 be
       -0.17712551 0.05542678 -0.054414365 -0.285098
000110 6b 6e e5 3e 84 60 80 bd 76 05 97 3c 79 33 b0 3d
       0.44810805 -0.06268409 0.018435221 0.08603568
000120 62 bb 84 be d0 0d 20 3e 55 8e 94 3c 67 19 56 3e
       -0.25924212 0.15630269 0.018134275 0.20908128
000130 f7 34 61 3e e8 6f 06 3e b1 b8 e4 bd 0c 72 b3 bd
       0.2199286 0.13128626 -0.111680396 -0.08761987
000140 67 6b 08 be 5b 0f 7f be 0e 94 6f be 69 89 27 be
       -0.1332222 -0.24908201 -0.23396322 -0.16361012
000150 98 4f 33 3d ab 95 42 be 71 b9 8d be ee 98 51 be
       0.04377708 -0.19002406 -0.27680543 -0.20468494
000160 de bc 58 3d 19 8f 04 3e c3 ca d4 3d 1b e9 18 3e
       0.052914493 0.12945212 0.10390236 0.14932673
000170 a1 11 3f 3e 72 26 21 3e 4f fc 21 3d e4 b9 06 3d
       0.18659069 0.15737322 0.03954726 0.032892123
000180 7c 1b 7e 3d e2 e0 a0 3d e2 ca 83 3d 05 27 9b bb
       0.06203793 0.07855393 0.06435181 -0.004734876
000190 03 94 64 3e 65 78 84 3e a5 4b 5d 3e 23 21 e0 bb
       0.22322087 0.25873104 0.21610887 -0.0068398877
0001a0 41 36 13 bd 4a ad 12 bd 81 13 05 be 0c 23 ec bd
       -0.035940412 -0.035809793 -0.12995721 -0.11530122
0001b0 0e 97 7a bd 1b 03 aa 3d 53 aa fe bd 82 cf 4c be
       -0.061179213 0.083013736 -0.124348305 -0.20001033
0001c0 46 b2 1d be b0 3f 83 3d 28 7a c6 3d db a4 bb 3d
       -0.15400037 0.06408632 0.09691268 0.09162303
0001d0 6d 94 1a 3e cb 64 0e 3e d1 5c 71 3d be ac 9b bd
       0.15095682 0.13905637 0.058926407 -0.07601307
0001e0 0b c6 37 bc 22 82 ca 3b 29 df f2 bc c6 14 85 bd
       -0.011216651 0.006180064 -0.029647427 -0.06498103
0001f0 26 18 10 be df 95 df 3d 03 de 10 3e 42 1f 15 3e
       -0.14071712 0.109172575 0.14147191 0.14562705
000200 a3 7a 20 ba a5 2e 64 bc 7b 40 60 bd 54 f4 b1 bd
       -0.000612179 -0.013927137 -0.054748993 -0.0868918
000210 2f a6 8e bd 20 4d 72 bd 9f c3 8d 3d 47 59 20 be
       -0.06965291 -0.059155583 0.069220774 -0.15659057
000220 5c b6 2a be 92 0a 0f be f9 eb 3e 3c f4 ce 9d 3d
       -0.16671127 -0.13968876 0.01165294 0.07705489
000230 78 4e ac 3c 3c 60 cc 3d 60 16 a8 3d 34 1d 69 3b
       0.02103351 0.09979293 0.08207393 0.0035570385
000240 cb 26 2a bd a8 89 6d bd 75 53 06 bd 45 3b 4c bd
       -0.041540902 -0.057992607 -0.032794435 -0.04986121
000250 57 75 4d bd b6 05 d4 bc 71 16 d9 3d 57 6a 35 3e
       -0.050160732 -0.02588163 0.105999835 0.17716347
000260 ca f0 21 3e d3 06 f6 3d 03 1e 8e 3d ea a0 32 3d
       0.1581451 0.1201302 0.06939318 0.04361049
000270 68 c3 1f 3d 15 50 7b 3d 45 96 8b 3d 2d 4d 9c 3d
       0.039004713 0.06135567 0.06815771 0.076319076
000280 06 31 82 3c e6 be f6 bc b9 39 1b bd fe 14 0c bd
       0.015892517 -0.030120324 -0.037896845 -0.034199707
000290 25 e0 48 3d 37 e0 9a 3c 6a b1 74 bd f3 6f af bd
       0.049041886 0.018905742 -0.059739508 -0.085662745
0002a0 7b c6 0b be 67 a3 94 bc 24 b7 93 3c b6 02 d9 bc
       -0.13649933 -0.018144323 0.018031664 -0.02649055
0002b0 ff 99 91 bd bc bf 02 be d7 7c f8 bd dc e8 13 be
       -0.071094505 -0.12768453 -0.12133186 -0.14444298
0002c0 73 40 e9 bd 57 58 be bd de f5 5f bd e3 6e 3c bd
       -0.11389246 -0.09294193 -0.054677837 -0.046004187
0002d0 de 1e d2 bd d1 11 23 be 6a 65 b2 bd 83 52 8a 3b
       -0.10259794 -0.15924765 -0.087107494 0.004221262
0002e0 cd 86 4b 3d 38 ea 01 3c b1 31 cb bd 2a 69 a9 bd
       0.049689103 0.007929377 -0.09921587 -0.082720116
0002f0 fb 5d 8a bc 04 96 d7 3d 8f 5c cd 3d 6a e2 25 bd
       -0.016890517 0.1052666 0.1002742 -0.04049913
000300 38 46 a4 bd 99 9a c6 bd 41 ee 71 3d 2a cf 3c 3e
       -0.08021206 -0.09697456 0.059065107 0.18438402
000310 f0 e7 a4 3d d5 51 9d 3a 6a 32 67 bd 42 47 8a bc
       0.08052051 0.0012002537 -0.056444563 -0.016879681
000320 52 0c 51 be 1e 35 0f be 21 c0 4e bd 01 c3 1c 3d
       -0.20414856 -0.13985106 -0.050476197 0.038271908
000330 a2 d7 98 3c d4 f7 5a be 34 ef 45 be 09 e3 04 bd
       0.01865751 -0.21383601 -0.1932953 -0.03244308
000340 2e 09 fb 3d 00 5b 09 3e f6 0d e1 bd 03 f7 04 be
       0.1225761 0.1341362 -0.10988991 -0.12984852
000350 8e aa 45 bc 2e a9 ea 3d 7c 7f 39 3e b7 72 5d 3d
       -0.012064589 0.1145805 0.18115038 0.05406448
000360 0f b3 f0 bc aa 1e c7 bb f6 a7 cb 3a 1f 3a d2 3d
       -0.029382257 -0.0060766535 0.0015537727 0.10264992
000370 b4 29 29 3e 6e af eb 3d 53 54 6e 3d ab a9 1f bc
       0.16519815 0.1150807 0.058185887 -0.009745042
000380 7f 10 d4 bc 65 84 e4 bd 4d 10 b1 3b ac ec 52 3d
       -0.025886772 -0.11158065 0.0054035545 0.05149524
000390 0a 42 1c 3d 84 1e 63 3d 3e 5c d9 3c f9 ab 25 3e
       0.038148917 0.055449024 0.026533242 0.16178884
0003a0 84 89 2c 3e a9 69 43 3d ab 45 da 3d 60 62 80 3d
       0.16849333 0.047708187 0.10657819 0.062687635
0003b0 75 8e 30 3e 09 6d ca 3d 79 42 97 bc e1 79 0a 3e
       0.17241843 0.09884078 -0.018464314 0.13523056
0003c0 0c b6 a9 3d 75 85 df 3d 1d ec 48 3c 3a 58 f2 3c
       0.08286676 0.10914127 0.012263325 0.029583085
0003d0 25 f8 29 3e 28 67 39 3d ab 75 2a 3d 5f b1 ee 3c
       0.16598566 0.045264393 0.041616123 0.029137312
0003e0 0d 5d a1 3d f0 d6 d5 3d 64 14 c9 bd bb 4f ed bb
       0.07879076 0.10441387 -0.09818342 -0.0072421706
0003f0 df 01 8a 3c 0f f0 23 bc 92 cf 3a 3c 9a 00 94 bc
       0.016846595 -0.010005965 0.011402028 -0.018066693
