models/pretrained/mixed_U_net_w_acc_97.pt (torch, 250189 bytes, 10 tensors)

conv1.weight f4 [6, 1, 5, 5]
-0.16377717 0.059709996 -0.44026485 -0.0432472 0.09674929 -0.10234781 -0.22723381 -0.14668657
-0.13775973 0.0122828 0.06783756 0.12184728 0.039369136 0.14430606 -0.039368 0.4163194
0.54688644 0.3665923 0.08263483 0.0069039427 -0.032124314 0.12906095 0.1878076 0.28679413
0.30864346 0.048284125 0.40781486 0.09157276 0.07476342 0.020969354 -0.25913987 0.023999076
0.2914951 0.094789915 -0.14166315 -0.1350518 0.21308646 0.058932904 -0.15373328 0.14333905
-0.18186007 -0.38396376 0.030836973 -0.037935324 -0.12695135 -0.16378826 -0.6243888 -0.14234506
0.19793698 -0.015417607 0.079197064 0.13239762 -0.100314304 -0.3503833 0.21418713 0.011156521
0.058958307 0.038993813 0.21298668 0.3389217 0.37941992 0.12776461 0.029585006 0.38328922
0.5863795 0.19147582 0.034288414 0.09364069 -0.06569962 -0.24211723 0.16586876 0.0364671
-0.11610047 -0.04243907 -0.16616607 -0.12658444 0.32835615 0.14072278 0.22878602 0.14509387
-0.2434707 0.221547 0.0261328 -0.14043322 0.18593618 -0.11808361 0.009970448 0.21404433
0.083817415 -0.2285172 -0.013568245 -0.023926796 0.30800748 -0.249842 -0.48235112 -0.029854193
-0.054235976 0.14917587 -0.22209987 -0.2676311 -0.3024872 0.069804005 -0.066395804 -0.18312624
-0.21241713 0.18621656 -0.08740425 0.32884952 0.27127963 0.120671384 -0.3960413 -0.0042954483
-0.0042811586 0.20922297 0.30891016 0.28387803 0.12601367 0.33821762 -0.0693367 -0.04940954
0.11806967 0.36200574 0.14230278 0.039511595 -0.34894213 -0.29098034 -0.10264675 0.042147566
-0.4694253 -0.07124441 0.10547003 0.09060385 -0.21289842 -0.19405867 -0.16984297 0.270608
0.33176672 0.028249566 -0.23972583 -0.0392718 0.4631214 0.33888292 -0.11336419 -0.074336104
0.023733811 0.18595362 0.04496588 0.055324726 0.1377614 -0.23766145
00000000: 34b5 27be 7892 743d 656a e1be fa23 31bd
00000010: 7e24 c63d bb9b d1bd fbaf 68be 0135 16be
00000020: e310 0dbe cc3d 493c 6bee 8a3d 118b f93d
00000030: 8841 213d f8c4 133e 5740 21bd d127 d53e
00000040: c000 0c3f fcb1 bb3e 733c a93d 783a e23b
00000050: c994 03bd 8e28 043e a350 403e aed6 923e
00000060: 8406 9e3e 93c5 453d 1ccd d03e 808a bb3d
00000070: 901d 993d ecc7 ab3c fbad 84be b699 c43c
00000080: d93e 953e 3721 c23d 2510 11be 054b 0abe
00000090: 5633 5a3e a163 713d 426c 1dbe 79c7 123e
000000a0: 8739 3abe e696 c4be d29d fc3c 1262 1bbd
000000b0: 89ff 01be 1cb8 27be f2d7 1fbf e7c2 11be
000000c0: feaf 4a3e 219a 7cbc 1232 a23d 3e93 073e
000000d0: 9671 cdbd 7165 b3be df53 5b3e d7c9 363c
000000e0: 447e 713d fab7 1f3d 2e19 5a3e 2587 ad3e
000000f0: 5443 c23e bad4 023e 415c f23c 7c3e c43e
00000100: f81c 163f 3d12 443e 0272 0c3d b1c6 bf3d
00000110: 868d 86bd 94ed 77be 80d9 293e 875e 153d
00000120: 15c6 edbd 97d4 2dbd 7027 2abe 5a9f 01be
00000130: 4c1e a83e a219 103e e246 6a3e 7d93 143e
00000140: 6250 79be 37dd 623e 7414 d63c bacd 0fbe
00000150: 0e66 3e3e d2d5 f1bd 175b 233c 702e 5b3e
00000160: 77a8 ab3d 6a00 6abe 584d 5ebc 2102 c4bc
00000170: 28b3 9d3e 95d6 7fbe baf6 f6be c890 f4bc
00000180: 8b26 5ebd 8fc1 183e 266e 63be f206 89be
00000190: 9adf 9abe 67f5 8e3d 86fa 87bd 7285 3bbe
000001a0: e083 59be 8eaf 3e3e 0001 b3bd f75e a83e
000001b0: 2ae5 8a3e 8f22 f73d edc5 cabe d5c0 8cbb
000001c0: f648 8cbb 8c3e 563e 7929 9e3e 7658 913e
000001d0: ba09 013e dc2a ad3e 6600 8ebd a861 4abd
000001e0: 83ce f13d d158 b93e d2b7 113e e9d6 213d
000001f0: 8ba8 b2be 60fb 94be 7638 d2bd eda2 2c3d
00000200: 8358 f0be 97e8 91bd ac00 d83d 838e b93d
00000210: 0b02 5abe 51b7 46be 51eb 2dbe 228d 8a3e
00000220: 54dd a93e a26b e73c b07a 75be 78db 20bd
00000230: 401e ed3e 1082 ad3e 7c2b e8bd 873d 98bd
00000240: 696d c23c a06a 3e3e 252e 383d 2e9c 623d
00000250: 5311 0d3e 865d 73be

conv1.bias f4 [6]
-0.6538952 -0.6656667 -0.72666955 -0.06746247 -0.8677475 -0.8917816
00000000: ad65 27bf 2269 2abf 0407 3abf c329 8abd
00000010: b324 5ebf cd4b 64bf

conv2.weight f4 [16, 6, 5, 5]
-0.23834495 0.10551764 0.27181458 0.13275021 0.04643478 0.22300532 0.051801063 0.025633987
-0.13348752 -0.22359088 0.11027401 -0.03953375 -0.38402414 -0.03785757 -0.0035846161 -0.036909983
0.055422556 -0.039784797 -0.04559361 -0.10947205 -0.05092964 0.005992243 -0.039592873 0.064671196
-0.011364461 -0.10734335 0.03894702 0.034354944 -0.05652567 -0.18467884 -0.23558871 -0.06013346
0.051947694 -0.13547179 0.1365952 -0.020274725 -0.04756055 0.17530626 0.22551344 0.08619299
-0.14219002 0.08689584 0.11961033 0.13519491 -0.046786614 -0.15407334 0.0858397 -0.136402
-0.11423317 0.014579327 -0.055722464 0.028637514 -0.056196 0.05695857 -0.10280086 -0.03176781
-0.13947286 -0.070690334 0.19817172 0.071703725 0.1520611 0.21927488 0.035301585 0.043498654
0.030416967 0.13929537 -0.023569971 -0.23672293 -0.24644978 -0.14717002 0.051165704 0.009599685
0.03942237 -0.15805465 -0.28950873 -0.18070184 -0.0429712 -0.06786518 -0.16493826 -0.082783505
0.016439581 -0.0016712524 -0.036549814 -0.12100497 -0.42231327 0.05229726 -0.09203695 -0.050867163
0.024957472 -0.0532382 0.08526293 0.020436142 -0.046509948 0.08696781 -0.11753533 0.035644326
-0.112981915 -0.09997578 -0.0829579 -0.16289577 -0.04707294 -0.04776558 -0.18545029 -0.25521678
-0.16158296 0.008331468 -0.0200831 0.06886317 0.12051726 0.10330089 0.19090329 0.046825
-0.11873618 -0.07707118 -0.074797936 0.3080181 -0.3496138 -0.07511265 0.19005814 -0.10558384
-0.0045980643 0.0013177028 0.00322529 -0.15257289 -0.04137851 0.120336674 0.0059250495 0.024224158
-0.17566282 -0.071771875 -0.069217555 -0.14074911 -0.09632889 0.01218487 0.20876239 0.14421986
0.27514905 -0.04108791 -0.22725008 -0.01332309 0.30019405 0.08125242 -0.21750589 -0.06625589
0.08241263 0.26638263 -0.22678633 -0.1071759 0.2739367 -0.147014 -0.14025678 -0.13837725
-0.09474069 0.17974061 0.11272143 -0.053077243 -0.013659513 0.0022153729 -0.060055967 0.07046128
-0.16479473 -0.086896405 -0.10785362 -0.16937569 -0.14254168 0.026335709 0.12104046 0.18400857
0.017874066 0.03566325 0.07831879 -0.13089444 -0.1070596 0.08413254 -0.20373842 0.02841053
-0.05286278 0.15483548 0.06718497 -0.08328357 0.14656618 0.057572518 0.08272802 0.054107714
0.10772861 0.29307145 0.100307405 0.17270355 0.21925959 0.19690405 -0.0871247 -0.021761281
-0.1586413 -0.18565044 0.12752727 0.0872431 -0.058992226 -0.087554656 0.029760046 0.18238708
0.025811143 0.21768959 0.14488678 0.08832201 -0.2520157 0.0990601 -0.06389497 -0.0949264
0.026458977 -0.15518661 -0.2009811 -0.10076416 -0.13551208 -0.2068801 -0.00716752 -0.15190981
-0.2337718 -0.090298355 0.075295314 -0.18182951 -0.16917689 0.013827932 0.07751763 0.17224659
-0.23259823 0.07089258 -0.12841709 -0.115390755 -0.09582829 0.013493071 0.051076874 0.06261931
-0.00028673478 -0.029475708 -0.07311892 -0.26399687 0.033166785 -0.0338267 -0.19212708 -0.19613153
-0.21535382 -0.46539217 0.004728061 -0.18901168 0.08989937 -0.073622756 -0.0710929 -0.18252438
-0.039832674 0.11278574 -0.034869123 0.10933423 0.24334371 0.089750834 0.083779484 0.21018612
00000000: b310 74be a219 d83d 482b 8b3e acef 073e
00000010: 6532 3e3d 825b 643e 5a2d 543d 5efe d13c
00000020: f4b0 08be 02f5 64be 57d7 e13d 24ee 21bd
00000030: d09e c4be 8a10 1bbd e1eb 6abb ec2e 17bd
00000040: c302 633d 62f5 22bd 5dc0 3abd e232 e0bd
00000050: 999b 50bd 945a c43b 232c 22bd 5572 843d
00000060: 0132 3abc d5d6 dbbd e986 1f3d c5b7 0c3d
00000070: 7687 67bd 731c 3dbe 2b3e 71be 814e 76bd
00000080: 1bc7 543d 1eb9 0abe 9ddf 0b3e 2e17 a6bc
00000090: dace 42bd 7c83 333e ffec 663e f385 b03d
000000a0: 439a 11be 72f6 b13d 43f6 f43d 8970 0a3e
000000b0: 52a3 3fbd 67c5 1dbe bacc af3d f7ac 0bbe
000000c0: 15f3 e9bd 21de 6e3c 3d3d 64bd 3899 ea3c
000000d0: c72d 66bd 644d 693d 4289 d2bd f71e 02bd
000000e0: f9d1 0ebe 18c6 90bd 87ed 4a3e 67d9 923d
000000f0: e8b5 1b3e 9889 603e 6598 103d a52b 323d
00000100: 012d f93c 72a3 0e3e d015 c1bc 7f67 72be
00000110: 555d 7cbe bdb3 16be 2193 513d ff47 1d3c
00000120: 5a79 213d 14d9 21be 7d3a 94be e709 39be
00000130: 9202 30bd e6fc 8abd 93e5 28be 668a a9bd
00000140: 4dac 863c ed0d dbba 42b5 15bd 74d1 f7bd
00000150: 7239 d8be a735 563d de7d bcbd 165a 50bd
00000160: 9d73 cc3c 4c10 5abd 559e ae3d b269 a73c
00000170: 3781 3ebd 2e1c b23d 5db6 f0bd c9ff 113d
00000180: 1063 e7bd 1ac0 ccbd d5e5 a9bd 26ce 26be
00000190: 8ecf 40bd d7a5 43bd aee6 3dbe c6ab 82be
000001a0: 0176 25be b680 083c 5085 a4bc 2208 8d3d
000001b0: c1d1 f63d 6b8f d33d 277c 433e 92cb 3f3d
000001c0: f42b f3bd 7fd7 9dbd a92f 99bd 8cb4 9d3e
000001d0: 9400 b3be a9d4 99bd 9a9e 423e 573c d8bd
000001e0: 5cab 96bb c5b6 ac3a 635f 533b 113c 1cbe
000001f0: 837c 29bd 1373 f63d eb26 c23b be71 c63c
00000200: f4e0 33be 22fd 92bd efc1 8dbd 8920 10be
00000210: 1548 c5bd 0da3 473c cfc5 553e 5fae 133e
00000220: 56e0 8c3e cc4b 28bd 3fb4 68be 1749 5abc
00000230: 09b3 993e ab67 a63d ddb9 5ebe 2bb1 87bd
00000240: f4c7 a83d 4e63 883e ad3a 68be 0a7f dbbd
00000250: 6e41 8c3e d78a 16be 799f 0fbe c4b2 0dbe
00000260: 6807 c2bd ec0d 383e 7eda e63d 8667 59bd
00000270: 26cc 5fbc ca2f 113b 3ffd 75bd 014e 903d
00000280: f3bf 28be bef6 b1bd 5ce2 dcbd d270 2dbe
00000290: 72f6 11be fcbd d73c 10e4 f73d be6c 3c3e
000002a0: a26c 923c a113 123d 9a65 a03d 3109 06be
000002b0: 1042 dbbd ae4d ac3d cea0 50be 33bd e83c
000002c0: a486 58bd 318d 1e3e 4698 893d 9490 aabd
000002d0: 7215 163e 29d1 6b3d 4f6d a93d 0da0 5d3d
000002e0: d1a0 dc3d 760d 963e f86d cd3d 33d9 303e
000002f0: 9685 603e 37a1 493e 6f6e b2bd b744 b2bc
00000300: dd72 22be 261b 3ebe 8296 023e 83ac b23d
00000310: d5a1 71bd db4f b3bd 57cb f33c aec3 3a3e
00000320: e471 d33c 05ea 5e3e 335d 143e 2ce2 b43d
00000330: 3408 81be 06e0 ca3d 5edb 82bd c668 c2bd
00000340: 7fc0 d83c 3de9 1ebe fdcd 4dbe 715d cebd
00000350: aec3 0abe 60d8 53be 84dd eabb 3f8e 1bbe
00000360: e061 6fbe 58ee b8bd 6e34 9a3d 8431 3abe
00000370: b53c 2dbe 8d8e 623c 90c1 9e3d 6961 303e
00000380: 3b2e 6ebe 2130 913d c57f 03be fd51 ecbd
00000390: 9f41 c4bd 0b12 5d3c fc35 513d 8e3e 803d
000003a0: e454 96b9 0a77 f1bc 5fbf 95bd 992a 87be
000003b0: e5d9 073d de8d 0abd f6bc 44be b4d6 48be
000003c0: b685 5cbe e247 eebe daed 9a3b 478c 41be
000003d0: 291d b83d 87c7 96bd 2899 91bd ace7 3abe
000003e0: 9627 23bd 36fc e63d edd2 0ebd a0ea df3d
000003f0: 182f 793e 49cf b73d 9494 ab3d 083b 573e

conv2.bias f4 [16]
-0.20584449 -0.094953805 -0.18287691 -0.37579578 -0.2570707 -0.36861765 -0.21268454 -0.06477856
-0.41782516 -0.3296142 -0.52805614 -0.3896696 -0.31687897 -0.24905357 -0.330045 -0.2848905
00000000: e6c8 52be 2477 c2bd 1644 3bbe 4e68 c0be
00000010: c59e 83be 74bb bcbe fac9 59be 9faa 84bd
00000020: 2eed d5be 31c3 a8be b02e 07bf c682 c7be
00000030: f63d a2be e607 7fbe a9fb a8be 2bdd 91be

conv3.weight f4 [120, 16, 5, 5]
0.025086194 -0.00839005 0.056176513 0.07162814 -0.008683722 -0.09014695 -0.038636927 0.040728875
-0.07271067 0.03295389 0.04739146 0.021858064 0.027625035 0.057966102 0.029283792 -0.0353127
-0.010504845 0.043487966 -0.02953546 0.02872695 -0.0096324375 0.034730334 -0.06589959 -0.04176465
-0.052434858 0.011039944 0.002081031 -0.03087495 -0.08061593 -0.035895996 -0.018949725 -0.048095763
0.021292852 0.05139229 0.023803484 -0.009720947 0.008842163 -0.06526806 -0.05601903 0.01952677
-0.058064356 -0.06777298 0.06176252 0.014661187 -0.00010079633 0.074641064 0.092812225 0.047556214
0.02153 0.029862788 0.055883378 -0.08158762 0.021847185 -0.012212797 -0.017655035 0.017255872
-0.03487701 0.010640463 -0.043480035 0.018653292 0.010681862 0.019726695 -0.0038255788 0.033999264
-0.05376424 0.024745055 -0.029241286 0.02082551 -0.026990594 -0.001208942 -0.0633679 -0.046632916
0.022245651 -0.003006017 0.0021928826 -0.00095545384 -0.026965737 0.0786623 0.022272315 -0.0020729776
0.011505732 -0.03850748 0.024611231 -0.0056614643 -0.033891596 -0.010962919 -0.030218165 0.0063116453
0.03424807 0.047470115 0.036063097 0.007566155 -0.047480986 0.0032338824 0.030977793 0.044016927
-0.0022511228 -0.016823135 0.021511855 0.027870575 0.03481963 0.049539376 0.0012403819 0.06064003
-0.019869395 -0.014808375 0.037154157 0.00065278064 0.00207946 -0.020609176 0.045578837 0.027054582
-0.0005810488 -0.028798671 -0.0057465225 -0.011401903 0.008203112 0.008371146 0.062463414 0.05034433
0.008660016 1.6090258e-05 -0.04464155 0.024753567 -0.04647818 0.042089596 -0.031407986 0.031259503
-0.009902201 -0.038375705 0.0067621907 -0.07092748 0.056329694 0.08156715 0.05957423 0.02377814
0.055511285 -0.005834719 -0.013674991 0.046025828 -0.011476392 0.022776838 0.03279795 -0.0018820319
0.03402635 0.017978888 0.043910973 -0.01739351 0.009261219 -0.06591807 0.039695397 0.010126777
-0.012495986 -0.02961721 -0.011319448 0.037508328 -0.01476631 0.018572384 0.00796323 -0.036050297
0.06481051 0.023405949 -0.008596333 -0.060137276 0.017563809 -0.00094886374 -0.01077193 0.014147448
-0.02941346 0.05254991 0.052217368 -0.04921636 -0.0014943319 -0.05008567 0.022506528 -0.002608783
-0.010528242 -0.026135838 -0.017877582 -0.008959903 0.04720426 -0.0155243045 0.038737744 0.017499931
0.05166548 0.03298468 -0.00094185333 0.039811738 0.036895942 0.048232622 0.005842546 -0.0031318646
-0.08886694 -0.015294969 -0.022481907 -0.023641374 -0.07309818 0.0071889004 -0.038873356 0.029367462
0.042322654 0.061621994 0.007332335 -0.008397731 -0.051605206 -0.0010185839 -0.040787227 -0.049662925
0.06550557 0.005857939 -0.03634035 -0.0035664618 0.051284265 0.0396105 0.037183255 0.014611087
8.744188e-05 0.018724216 0.036136553 0.054643407 -0.0659589 -0.023651032 -0.0043982654 0.042615794
-0.020275967 0.06910177 -0.030292366 0.020844366 0.0010375079 0.005389503 0.01857513 -0.030884147
0.048455726 -0.011440958 0.007309103 0.07498724 0.013459893 0.0011821333 0.052841138 0.010745004
-0.010120072 -0.04232279 0.022807762 0.050905198 -0.010745117 -0.037867576 -0.009599514 0.012822719
0.02423655 -0.04245807 -0.018393226 0.036157236 0.10516232 0.06673849 0.026102351 0.01907578
00000000: 9081 cd3c 6c76 09bc 5819 663d c6b1 923d
00000010: 2b46 0ebc f79e b8bd c141 1ebd 52d3 263d
00000020: 55e9 94bd a8fa 063d 8c1d 423d af0f b33c
00000030: e64d e23c dd6d 6d3d 90e4 ef3c 0da4 10bd
00000040: 831c 2cbc 7020 323d 59f4 f1bc c854 eb3c
00000050: 5fd1 1dbc 6541 0e3d 5df6 86bd 6911 2bbd
00000060: efc5 56bd e2e0 343c e861 083b 77ed fcbc
00000070: f719 a5bd ae07 13bd 743c 9bbc 1000 45bd
00000080: 596e ae3c b980 523d 86ff c23c 9b44 1fbc
00000090: b8de 103c 43ab 85bd 3674 65bd 9bf6 9f3c
000000a0: e4d4 6dbd 8fcc 8abd b2fa 7c3d 7a35 703c
000000b0: 9e62 d3b8 6add 983d 5614 be3d 4eca 423d
000000c0: af5f b03c cea2 f43c f8e5 643d 6917 a7bd
000000d0: def8 b23c 2f18 48bc 4ba1 90bc 305c 8d3c
000000e0: 32db 0ebd 5655 2e3c 1f18 32bd cace 983c
000000f0: fa02 2f3c e199 a13c 90b6 7abb d042 0b3d
00000100: e437 5cbd 24b6 ca3c 6c8b efbc 439a aa3c
00000110: 611b ddbc 5d75 9eba 08c7 81bd 2802 3fbd
00000120: 833c b63c 9900 45bb 77b6 0f3b 6c77 7aba
00000130: 40e7 dcbc b319 a13d 6e74 b63c cbda 07bb
00000140: 8a82 3c3c 05ba 1dbd 7e9d c93c ce83 b9bb
00000150: ead1 0abd d19d 33bc 168c f7bc ebd1 ce3b
00000160: b447 0c3d 0670 423d e6b6 133d 82ed f73b
00000170: 6c7b 42bd 8bef 533b 24c5 fd3c 184b 343d
00000180: 9387 13bb acd0 89bc a139 b03c d550 e43c
00000190: 079f 0e3d cde9 4a3d 4f94 a23a ae61 783d
000001a0: 24c5 a2bc d49e 72bc f52e 183d 5e1f 2b3a
000001b0: 8d47 083b 93d4 a8bc e0b0 3a3d 92a1 dd3c
000001c0: 8651 18ba 31eb ebbc 534d bcbb 0ccf 3abc
000001d0: 5866 063c 2227 093c a3d9 7f3d db35 4e3d
000001e0: bde2 0d3c 91f9 8637 0fda 36bd fec7 ca3c
000001f0: e75f 3ebd 2466 2c3d a9a5 00bd f709 003d
00000200: d73c 22bc d82f 1dbd 5e95 dd3b 6d42 91bd
00000210: f7b9 663d ae0c a73d 1c04 743d 60ca c23c
00000220: cd5f 633d 2c31 bfbb 120d 60bc 9485 3c3d
00000230: 7a07 3cbc 7e96 ba3c 2557 063d 83ae f6ba
00000240: 375f 0b3d 7648 933c fedb 333d d67c 8ebc
00000250: 5ebc 173c 0e00 87bd a497 223d c8ea 253c
00000260: f7bb 4cbc cb9f f2bc 3575 39bc 55a2 193d
00000270: 65ee 71bc 1d25 983c 3578 023c 7aa9 13bd
00000280: 5fbb 843d d5bd bf3c a2d7 0cbc 8152 76bd
00000290: fae1 8f3c 2bbd 78ba c07c 30bc b3ca 673c
000002a0: 7ff4 f0bc 933e 573d e1e1 553d 1897 49bd
000002b0: 75dd c3ba a226 4dbd 9c5f b83c 1ef8 2abb
000002c0: a67e 2cbc d31a d6bc 0274 92bc 8fcc 12bc
000002d0: 4159 413d a759 7ebc 78ab 1e3d 045c 8f3c
000002e0: 2f9f 533d f21a 073d b5e6 76ba a211 233d
000002f0: 3320 173d 928f 453d d472 bf3b f83f 4dbb
00000300: dfff b5bd c097 7abc fa2b b8bc 8eab c1bc
00000310: 80b4 95bd de90 eb3b ab39 1fbd 0894 f03c
00000320: 855a 2d3d 5867 7c3d 1644 f03b a396 09bc
00000330: fb5f 53bd 0182 85ba 8210 27bd 5a6b 4bbd
00000340: c927 863d f4f3 bf3b 9ed9 14bd 4dbb 69bb
00000350: 730f 523d 9f3e 223d 784d 183d 5763 6f3c
00000360: 0061 b738 8763 993c ec03 143d c4d1 5f3d
00000370: 7615 87bd cfbf c1bc 531f 90bb e68d 2e3d
00000380: c919 a6bc 3b85 8d3d b227 f8bc cec1 aa3c
00000390: fdfc 873a 6e9a b03b df2a 983c c000 fdbc
000003a0: 8379 463d db72 3bbc 3381 ef3b e992 993d
000003b0: e286 5c3c d0f1 9a3a f36f 583d d00b 303c
000003c0: a9ce 25bc a95a 2dbd 58d7 ba3c f881 503d
000003d0: 4a0c 30bc 081b 1bbd 4847 1dbc 6216 523c
000003e0: bb8b c63c 83e8 2dbd 64ad 96bc 9c19 143d
000003f0: 585f d73d 30ae 883d 99d4 d53c cf44 9c3c

conv3.bias f4 [120]
-0.044485774 -0.05314022 -0.01906343 0.040355884 -0.004370856 0.043347154 0.04417405 0.03920645
0.022537667 -0.06689034 -0.04897221 -0.018069157 -0.033042636 0.017696949 -0.072010174 -0.055955593
0.13216303 0.038316064 -0.010456318 0.06917859 -0.01820774 0.0111577865 -0.05821849 0.14150779
0.08323927 -0.0051948875 0.07694359 0.026862362 -0.017011683 0.0974334 -0.02471758 -0.0036234518
0.0018052041 -0.038128346 -0.057258654 0.059763346 0.07122509 0.03162846 0.020476364 0.07111248
-0.02467787 -0.015920365 0.01829948 -0.044194244 -0.037390992 0.07104888 0.013914141 0.041373502
0.07396218 0.016495371 0.046983514 -0.031138102 -0.002484875 0.0401093 -0.06380124 0.028552687
-0.065989144 0.04215851 -0.024808064 0.053713016 0.08420727 -0.024130639 0.016074909 0.024141638
-0.010915501 0.030312661 0.04720144 -0.0024226457 -0.10962433 0.054582987 -0.016024508 -0.0499472
-0.025965955 -0.0007640769 0.027739257 0.041662868 -0.00658505 -0.030680139 0.009693441 0.004995454
0.049217474 0.010849234 0.08474332 -0.044023063 -0.0043214983 -0.07255597 0.011317523 -0.018705696
-0.0032591582 -0.008219509 -0.060951423 -0.07002478 0.061487336 0.010487427 0.041701343 -0.05623491
0.068570524 -0.0611398 -0.022606974 -0.013165085 0.06540862 -0.030776298 0.007788426 0.027057549
-0.07710627 -0.029134022 0.08239482 0.12337629 0.056817506 0.04042635 0.0022379777 0.0045663724
-0.06786309 0.00511722 -0.0052549066 -0.078407794 -0.05824686 0.044780742 -0.045361627 0.007600726
00000000: b736 36bd 8fa9 59bd e92a 9cbc 364c 253d
00000010: 6639 8fbb c98c 313d d9ef 343d f196 203d
00000020: eaa0 b83c cdfd 88bd 1697 48bd c505 94bc
00000030: b757 07bd 31f9 903c 127a 93bd b131 65bd
00000040: bf55 073e 4ef1 1c3d fa50 2bbc 81ad 8d3d
00000050: 6628 95bc 26cf 363c 8376 6ebd 6be7 103e
00000060: 5a79 aa3d e039 aabb 9a94 9d3d 750e dc3c
00000070: 165c 8bbc 2a8b c73d 867c cabc 6f77 6dbb
00000080: 999c ec3a 782c 1cbd 0d88 6abd 69ca 743d
00000090: 76de 913d d88c 013d 0cbe a73c 6ba3 913d
000000a0: 3f29 cabc 6d6b 82bc cbe8 953c 0605 35bd
000000b0: 4c27 19bd 1382 913d 23f8 633c 4377 293d
000000c0: 7c79 973d 4d21 873c c971 403d 5515 ffbc
000000d0: 49d9 22bb a649 243d 39aa 82bd 53e7 e93c
000000e0: 5125 87bd 67ae 2c3d 483a cbbc 2e02 5c3d
000000f0: dc74 ac3d 9ead c5bc 87af 833c afc4 c53c
00000100: eed6 32bc 4252 f83c 4c56 413d 40c5 1ebb
00000110: b982 e0bd 6992 5f3d d445 83bc 6f95 4cbd
00000120: 8eb6 d4bc 554c 48ba 703d e33c afa6 2a3d
00000130: 67c7 d7bb ea54 fbbc 3dd1 1e3c e8b0 a33b
00000140: 4398 493d fcc0 313c e88d ad3d 8751 34bd
00000150: 5b9b 8dbb 3998 94bd 226d 393c b03c 99bc
00000160: 9a97 55bb 1fab 06bc 33a8 79bd 2769 8fbd
00000170: 25da 7b3d 75d3 2b3c 07cf 2a3d 9456 66bd
00000180: b46e 8c3d ba6d 7abd 4332 b9bc 5eb2 57bc
00000190: f4f4 853d 931e fcbc 0d36 ff3b cba7 dd3c
000001a0: e4e9 9dbd 79aa eebc 9ebe a83d b5ac fc3d
000001b0: 79b9 683d 1a96 253d 09ab 123b 82a1 953b
000001c0: cefb 8abd 5aae a73b 5a31 acbb 4494 a0bd
000001d0: 4294 6ebd 036c 373d 1dcd 39bd 830f f93b

fc1.weight f4 [84, 120]
0.08638119 -0.048872277 0.15265654 0.07655078 -0.043967254 0.115416914 -0.022436358 -0.1260892
-0.08026036 0.018619644 -0.02236951 0.12206771 -0.2789822 -0.12908348 0.08818196 0.10153419
-0.0016294409 -0.1556063 -0.12736723 0.16521315 0.040099025 0.005585929 0.12887149 0.24419925
-0.12945901 -0.0908778 -0.03778134 -0.14079177 0.14307909 -0.143727 -0.064852536 -0.11456965
-0.02295182 -0.12288319 0.0400769 -0.07173918 -0.05489661 0.055817585 0.05393389 0.115122564
0.012806286 0.040670212 -0.05590627 -0.023334349 -0.018065158 -0.053544037 -0.18662216 0.0198553
-0.10579507 -0.1411599 0.064229794 0.019115044 -0.017505424 0.1098026 0.0030999372 0.09360997
-0.0047593447 0.033333473 0.11118083 -0.14929141 -0.07134345 0.02415003 0.115192495 -0.050783355
0.15333955 -3.911336e-05 0.078812875 -0.020621272 0.05733441 -0.08128943 0.019799046 -0.08691859
0.068676695 -0.10610702 -0.08732657 -0.08031523 -0.20457605 0.033465464 0.092878796 -0.044744004
-0.0578832 -0.10211327 -0.0061681806 -0.10035904 0.01123667 0.08242336 0.021343397 0.036784317
-0.1428318 0.07168178 -0.004360194 0.124735504 -0.109333284 0.051121816 0.09126956 0.09974442
0.010995174 0.05151873 -0.120185204 0.035005044 -0.034773853 0.13854586 -0.06529171 -0.06804509
0.058943395 0.06344264 0.014665586 -0.05993677 -0.017208444 -0.030016942 -0.24960765 -0.037339725
-0.12559205 -0.08806568 -0.17179497 0.035440225 0.0054211398 0.064467706 0.10996888 -0.269702
0.077190496 0.05995353 0.034849025 0.08715587 -0.09554737 0.10055704 -0.06058599 -0.090714626
-0.045494925 -0.009278582 -0.00682923 0.110437855 -0.17729047 0.010000303 0.00017442426 0.12541045
-0.053050388 -0.09863827 -0.10172543 0.11717436 -0.02732663 0.07289697 0.090260394 0.17784923
-0.07805148 -0.13628103 -0.046618104 -0.17383774 0.124676466 -0.14025837 -0.041340306 -0.058711343
-0.022056838 -0.046376742 -0.06851002 -0.12612864 -0.15697496 -0.0062615583 0.05768718 0.06933153
0.03348576 0.1027721 -0.05950588 -0.054623965 0.11316909 -0.0009549126 -0.09565256 -0.09665782
-0.09433913 -0.13851844 0.0077183996 -0.002800863 -0.020149233 0.09320396 0.092954315 0.057614725
0.03743606 -0.048884436 0.009884552 -0.20158406 -0.06640664 -0.024544563 0.056573495 0.036256857
0.106548324 -0.061143283 0.08685882 0.03492324 0.004625679 -0.12810017 0.040776197 -0.16956814
0.066682726 -0.020724352 -0.11448538 0.015202419 -0.18498173 0.055872526 0.09949032 0.047036555
0.0011271621 -0.07770425 -0.13134807 -0.10098406 0.07615779 0.08823831 0.009522504 -0.019513685
-0.13511367 -0.0018033395 0.016113648 0.048216973 -0.14075916 0.016318833 0.04590107 0.08806409
-0.033380494 -0.022366477 -0.05947149 0.031899687 0.043794382 0.06529424 -0.008004345 0.00097093877
-0.008118154 0.05467239 0.03618847 -0.08208949 -0.07958263 0.12235813 -0.12878613 -0.13299108
-0.09363636 0.016356643 -0.118144415 0.08012448 0.036849666 0.0016113844 0.034820586 -0.15456218
-0.03910199 -0.06930227 0.06253652 0.06213739 0.04636733 -0.000510788 0.14369854 -0.009447718
0.07251908 -0.03365938 -0.032652818 0.045178138 -0.081934735 -0.049925853 0.02274793 0.0689363
00000000: 9fe8 b03d 4c2e 48bd ff51 1c3e a8c6 9c3d
00000010: 0217 34bd b45f ec3d 74cc b7bc 871d 01be
00000020: 8b5f a4bd 3988 983c 4340 b7bc a3fe f93d
00000030: c1d6 8ebe 762e 04be be98 b43d 28f1 cf3d
00000040: f792 d5ba 4257 1fbe 8e6c 02be a32d 293e
00000050: e03e 243d 2b0a b73b e3f6 033e 5e0f 7a3e
00000060: e790 04be 241e babd 9bc0 1abd b82b 10be
00000070: 5383 123e 2c2d 13be 68d1 84bd 7ea3 eabd
00000080: 7505 bcbc 2faa fbbd ad27 243d feeb 92bd
00000090: 45db 60bd fba0 643d c8e9 5c3d 61c5 eb3d
000000a0: 75d1 513c cf95 263d f9fd 64bd ad27 bfbc
000000b0: 62fd 93bc fe50 5bbd e119 3fbe 95a7 a23c
000000c0: 16ab d8bd 398c 10be e98a 833d 2797 9c3c
000000d0: 8967 8fbc 30e0 e03d 5128 4b3b 95b6 bf3d
000000e0: 47f4 9bbb ae88 083d c6b2 e33d d9df 18be
000000f0: 841c 92bd 49d6 c53c 0bea eb3d 3502 50bd
00000100: 0b05 1d3e a70d 24b8 a568 a13d f1ed a8bc
00000110: 7cd7 6a3d 137b a6bd 9c31 a23c 6002 b2bd
00000120: 5ea6 8c3d a34e d9bd 46d8 b2bd 507c a4bd
00000130: 627c 51be 1513 093d 3d37 be3d 7d45 37bd
00000140: ef16 6dbd c320 d1bd 731e cabb 0a89 cdbd
00000150: 031a 383c 94cd a83d 59d8 ae3c 27ab 163d
00000160: 8042 12be e6cd 923d f5df 8ebb 5475 ff3d
00000170: 21ea dfbd 1c65 513d 89eb ba3d cd46 cc3d
00000180: 1a25 343c 4e05 533d a923 f6bd 7361 0f3d
00000190: 076f 0ebd f7de 0d3e a9b7 85bd 395b 8bbd
000001a0: a16e 713d 37ee 813d ed47 703c 4280 75bd
000001b0: b9f8 8cbc 17e6 f5bc 2699 7fbe 8af1 18bd
000001c0: 349b 00be c75b b4bd 05eb 2fbe c529 113d
000001d0: d1a3 b13b a507 843d 5d37 e13d 6116 8abe
000001e0: 0d16 9e3d d591 753d dabd 0e3d c77e b23d
000001f0: 57ae c3bd d9f0 cd3d 0429 78bd 97c8 b9bd
00000200: e358 3abd 3205 18bc bcc7 dfbb 3e2d e23d
00000210: a28b 35be 50d8 233c a8e5 3639 996b 003e
00000220: 5d4b 59bd dc02 cabd 6c55 d0bd 1cf9 ef3d
00000230: 19dc dfbc 024b 953d 71da b83d 1c1e 363e
00000240: 74d9 9fbd 418d 0bbe a0f2 3ebd 8502 32be
00000250: 6056 ff3d e49f 0fbe 7454 29bd 4e7b 70bd
00000260: 8bb0 b4bc 8af5 3dbd fb4e 8cbd de27 01be
00000270: 0bbe 20be c22d cdbb 6449 6c3d b0fd 8d3d
00000280: 5d28 093d 2e7a d23d 70bc 73bd 61bd 5fbd
00000290: 32c5 e73d 1a53 7aba 7de5 c3bd 89f4 c5bd
000002a0: e034 c1bd c7d7 0dbe a1ea fc3b af8e 37bb
000002b0: 0110 a5bc b8e1 be3d d55e be3d 6bfd 6b3d
000002c0: 8e56 193d 0c3b 48bd d1f2 213c 0d6c 4ebe
000002d0: 3400 88bd ae11 c9bc 9cb9 673d 1282 143d
000002e0: 0236 da3d 6171 7abd 09e3 b13d ac0b 0f3d
000002f0: 0293 973b b12c 03be f104 273d 45a3 2dbe
00000300: f490 883d 1ec6 a9bc 5077 eabd 9113 793c
00000310: da6b 3dbe 97da 643d 95c1 cb3d 67a9 403d
00000320: 49bd 933a 6823 9fbd 1c80 06be bbd0 cebd
00000330: 9ef8 9b3d 49b6 b43d 4704 1c3c 2adb 9fbc
00000340: 3d5b 0abe 085e ecba c500 843c 297f 453d
00000350: 2b23 10be 13af 853c c302 3c3d f25a b43d
00000360: fcb9 08bd e739 b7bc 6198 73bd 3fa9 023d
00000370: bd61 333d fdb8 853d a824 03bc 9986 7e3a
00000380: 0102 05bc 28f0 5f3d 5c3a 143d 891e a8bd
00000390: 38fc a2bd e696 fa3d 83e0 03be d02e 08be
000003a0: 6bc4 bfbd 5efe 853c b3f5 f1bd 4e18 a43d
000003b0: adef 163d 1735 d33a 08a0 0e3d 8c45 1ebe
000003c0: 6929 20bd 59ee 8dbd 2613 803d c783 7e3d
000003d0: abeb 3d3d 67e6 05ba b625 133e 9aca 1abc
000003e0: e284 943d 6bde 09bd f6be 05bd b60c 393d
000003f0: 66cd a7bd 0d7f 4cbd de59 ba3c 7a2e 8d3d

fc1.bias f4 [84]
-0.0349458 -0.024980847 0.015096298 -0.04955797 -0.0066255806 0.019798117 0.028915104 0.04067329
0.06024736 0.005018047 0.039324872 0.012181617 0.06888588 0.039300464 0.012863115 -0.060841806
-0.01605852 0.05840979 -0.028814297 -0.040408466 -0.07102883 0.005647205 0.018547025 0.03356463
0.011345998 -0.010394931 0.009042676 0.0768366 -0.0076362183 0.022275224 0.085999705 -0.035952847
0.017097028 0.027068868 -0.014554413 0.026550544 0.028899498 0.016886987 -0.019969983 -0.04205706
0.040149353 -0.013909663 0.06524673 -0.021441365 -0.032917883 0.03490217 -0.030651303 0.025994245
-0.016319653 -0.028209282 0.030208943 -0.049194798 -0.050273374 0.0046364185 0.020626135 -0.095941015
-0.053897016 -0.0015546709 0.030127337 -0.056990955 0.00021353392 0.0071111787 -0.04029139 0.065518446
0.07890291 -0.01875257 -0.013810517 0.0054667247 -0.041781187 0.058161978 -0.024782524 -0.006895173
-0.10386106 0.07645652 0.021250036 -0.011345876 0.014654986 -0.012759751 -0.023459567 -0.06375791
0.068510406 -0.050082967 0.0381517 -0.017365681
00000000: 5423 0fbd a2a4 ccbc 7756 773c 4cfd 4abd
00000010: 661b d9bb a92f a23c 5edf ec3c 0999 263d
00000020: f0c5 763d 6e6e a43b 1e13 213d 6895 473c
00000030: 0a14 8d3d 86f9 203d d1bf 523c 4235 79bd
00000040: 288d 83bc 1b3f 6f3d f60b ecbc 5983 25bd
00000050: 9077 91bd 300c b93b eeef 973c 117b 093d
00000060: 91e4 393c 804f 2abc bb27 143c 825c 9d3d
00000070: 3e39 fabb 887a b63c 9d20 b03d 4b43 13bd
00000080: 110f 8c3c 88bf dd3c a275 6ebc 8780 d93c
00000090: a4be ec3c 9456 8a3c 1798 a3bc 0644 2cbd
000000a0: a673 243d 5be5 63bc 14a0 853d cda5 afbc
000000b0: e7d4 06bd 94f5 0e3d 7118 fbbc e2f1 d43c
000000c0: cbb0 85bc 2717 e7bc bf78 f73c 7c80 49bd
000000d0: 74eb 4dbd 19ed 973b 24f8 a83c b97c c4bd
000000e0: 1ec3 5cbd 19c6 cbba 9bcd f63c 596f 69bd
000000f0: 13e8 5f39 e404 e93b 9608 25bd 892e 863d
00000100: d997 a13d fd9e 99bc 8245 62bc 3622 b33b
00000110: c022 2bbd 413b 6e3d b804 cbbc e7f0 e1bb
00000120: 1cb5 d4bd 3c95 9c3d 8e14 ae3c 0ee4 39bc
00000130: 771b 703c 460e 51bc 472e c0bc 8293 82bd
00000140: 2f4f 8c3d cc23 4dbd f544 1c3d 7942 8ebc

fc2.weight f4 [10, 84]
0.37172008 -0.061551347 0.14937261 0.026486417 -0.24256948 -0.4427324 -0.30792361 -0.41817817
-0.33231083 -0.228763 -0.3981372 0.37007624 -0.34884346 -0.32179192 0.20212181 -0.21269123
0.34229574 0.40048483 -0.20666365 0.6544055 0.49337858 0.015022972 -0.4337129 -0.10900512
0.33587155 -0.33691958 -0.093903445 0.33438823 -0.07842329 0.22014011 0.20110664 -0.42981434
-0.19102103 -0.3483815 0.32073078 -0.26326323 -0.35128197 0.20165084 -0.22826836 0.07871816
0.2587433 -0.58349603 0.36879578 -0.47633898 -0.29702306 0.31496876 -0.30086264 0.25245878
-0.47877046 -0.24221154 -0.09232318 0.15269065 0.5721423 0.46615118 -0.47657645 0.44004804
-0.24749051 0.5399416 -0.36618114 -0.285408 0.19860189 -0.3833283 -0.4888319 0.23010348
0.110999964 0.0651382 -0.21257481 0.21071455 -0.23603018 0.066333406 -0.3234916 -0.5330059
0.18807268 -0.1867005 -0.40176162 -0.21126387 -0.08139357 -0.2791393 0.44603625 -0.24080473
0.33528543 -0.36194885 -0.29912856 -0.009252147 -0.17496698 -0.08057664 0.48797268 -0.31781656
-0.43509495 0.37540346 0.2579755 0.15951553 0.46687043 -0.3284909 0.2845828 0.021547804
0.25180632 0.32830328 -0.37700528 -0.26674336 0.33881813 0.2509317 -0.09317516 0.1026151
-0.17272285 -0.42922282 0.15687414 0.48453775 0.12322297 0.25209954 -0.019224012 0.11519762
-0.35525945 0.12671289 -0.07763852 -0.41253138 -0.19639087 0.30012652 -0.26221475 0.24672791
0.07447278 -0.15661636 -0.3868663 -0.67642236 -0.32212967 -0.05216943 -0.45187917 -0.23269856
0.37829393 -0.15328951 0.27279446 -0.4390478 -0.10164413 -0.2917075 0.2749929 -0.47270906
-0.23878753 -0.28478676 0.31271702 -0.31822208 0.12646298 0.10219606 0.36054292 0.1815886
-0.5002241 0.3251113 -0.21114482 0.5458542 -0.0110125495 -0.3616783 0.19017234 -0.6936779
-0.51383585 -0.0829339 -0.22761607 -0.47812733 -0.22282864 0.4711595 0.50786203 0.25064132
0.36471665 -0.20685092 -0.14038587 0.02678071 0.59443027 0.45583248 0.58196664 -0.52149576
0.3845909 0.64367235 -0.05443535 -0.44597962 0.51963633 -0.8457405 -0.3777952 0.29833674
-0.1702271 -0.016244998 0.586401 0.61217946 0.45727518 0.12011926 -0.156028 0.26241967
-0.17033918 0.4099918 0.66018075 0.2579588 -0.34725887 -0.7323871 -0.65222865 0.4047411
0.41668323 0.2631063 0.22833462 0.31724292 -0.36387932 0.56126475 0.1564445 0.37280813
0.07209293 -0.25727883 -0.4918801 -0.48395047 0.0053206654 0.3243648 -0.36878857 0.24968487
-0.13589299 -0.62864995 -0.06671927 0.5152026 0.42538518 0.02085661 -0.24700013 -0.16887757
-0.5242944 -0.2741047 -0.453819 0.37241203 -0.23825777 -0.43460578 0.3907123 -0.20795412
-0.5006718 -0.530774 -0.65110874 -0.3076128 0.46566552 0.39709666 0.16691083 0.04378851
0.31671655 0.39876124 -0.32130948 0.4447304 -0.43603125 0.57655174 0.65452933 0.30707145
-0.180606 -0.60787565 0.10306564 -0.33190447 0.34059823 0.026365427 -0.4410346 -0.1498119
0.048259713 0.21906127 -0.38602686 -0.15570433 0.50529414 0.11509934 0.39448002 0.6985413
00000000: 1852 be3e 441d 7cbd 22f5 183e 0bfa d83c
00000010: 2264 78be d2ad e2be 2aa8 9dbe 731b d6be
00000020: a524 aabe d940 6abe a4d8 cbbe a27a bd3e
00000030: 9c9b b2be e9c1 a4be 05f9 4e3e bbcb 59be
00000040: 6341 af3e 590c cd3e a39f 53be 1e87 273f
00000050: 1e9c fc3e e922 763c 9e0f debe 143e dfbd
00000060: 5bf7 ab3e b980 acbe 7350 c0bd ef34 ab3e
00000070: 649c a0bd 696c 613e e6ee 4d3e a010 dcbe
00000080: 049b 43be 0f5f b2be d336 a43e 70ca 86be
00000090: 3bdb b3be 8f7d 4e3e 2ebf 69be fd36 a13d
000000a0: 007a 843e ff5f 15bf cdd2 bc3e b4e2 f3be
000000b0: 6813 98be 9643 a13e ab0a 9abe 4742 813e
000000c0: 6721 f5be 4d06 78be ef13 bdbd f05a 1c3e
000000d0: eb77 123f 5eab ee3e d401 f4be fa4d e13e
000000e0: 276e 7dbe 9d39 0a3f 187c bbbe ff20 92be
000000f0: 4b5e 4b3e 9b43 c4be 2d48 fabe 3fa0 6b3e
00000100: f353 e33d 2d67 853d 36ad 59be 8ec5 573e
00000110: e5b1 71be cfd9 873d b1a0 a5be 1373 08bf
00000120: 2096 403e 6a2e 3fbe b3b3 cdbe 8e55 58be
00000130: acb1 a6bd 59eb 8ebe dd5e e43e 8495 76be
00000140: 88aa ab3e 5c51 b9be 6127 99be 5196 17bc
00000150: 8b2a 33be 5e05 a5bd 8ed7 f93e dab8 a2be
00000160: c4c4 debe e234 c03e 5d15 843e 0a58 233e
00000170: a409 ef3e f62f a8be d6b4 913e 0585 b03c
00000180: c2ec 803e 5e17 a83e d606 c1be 9692 88be
00000190: 9279 ad3e 1f7a 803e 9ed2 bebd de27 d23d
000001a0: 42de 30be 18c3 dbbe 9da3 203e 5515 f83e
000001b0: 535c fc3d 3113 813e ad7b 9dbc bbec eb3d
000001c0: 91e4 b5be 06c1 013e f200 9fbd 5037 d3be
000001d0: b01a 49be 2faa 993e 0341 86be 3ea6 7c3e
000001e0: 2f85 983d 0a60 20be 5713 c6be 042a 2dbf
000001f0: 2eee a4be 9daf 55bd b55c e7be 8848 6ebe
00000200: beaf c13e edf7 1cbe b7ab 8b3e e0ca e0be
00000210: cc2a d0bd af5a 95be dfcb 8c3e ec06 f2be
00000220: b884 74be 92cf 91be 721c a03e 01ee a2be
00000230: 837f 013e 2b4c d13d 1599 b83e 5df2 393e
00000240: b00e 00bf fd74 a63e 5936 58be 1abd 0b3f
00000250: fb6d 34bc e62d b9be 8abc 423e e094 31bf
00000260: bf8a 03bf 40d9 a9bd 3014 69be 1bcd f4be
00000270: 312d 64be d13b f13e 3f03 023f 0f54 803e
00000280: 24bc ba3e bad0 53be 50c1 0fbe 3863 db3c
00000290: 952c 183f e062 e93e c4fb 143f bf80 05bf
000002a0: 19e9 c43e b6c7 243f 9af7 5ebd 7157 e4be
000002b0: e306 053f 7382 58bf 5f6e c1be 98bf 983e
000002c0: 0350 2ebe 3b14 85bc 601e 163f cbb7 1c3f
000002d0: f91f ea3e 1601 f63d cec5 1fbe df5b 863e
000002e0: 656d 2ebe 72ea d13e 9b01 293f 2d13 843e
000002f0: eacb b1be b97d 3bbf 75f8 26bf 3a3a cf3e
00000300: 8157 d53e deb5 863e 8dd0 693e aa6d a23e
00000310: 644e babe 0caf 0f3f fd32 203e b5e0 be3e
00000320: 75a5 933d 0dba 83be b5d7 fbbe 5bc8 f7be
00000330: fa58 ae3b 2513 a63e dbd1 bcbe 64ad 7f3e
00000340: 8827 0bbe 34ef 20bf 1da4 88bd 51e4 033f
00000350: 16cc d93e 7bdb aa3c 9aed 7cbe 3eee 2cbe
00000360: 2838 06bf 7457 8cbe f75a e8be caac be3e
00000370: d8f9 73be a684 debe 710b c83e edf1 54be
00000380: 072c 00bf cee0 07bf 10af 26bf 6d7f 9dbe
00000390: b66b ee3e 4150 cb3e acea 2a3e 955b 333d
000003a0: ac28 a23e 6f2a cc3e ad82 a4be b4b3 e33e
000003b0: 7d3f dfbe e598 133f 3c8f 273f 7838 9d3e
000003c0: c7f0 38be bd9d 1bbf 1414 d33d 62ef a9be
000003d0: e462 ae3e 4ffc d73c 49cf e1be 4a68 19be
000003e0: faab 453d 9951 603e 50a5 c5be f570 1fbe
000003f0: f55a 013f 34b9 eb3d 49f9 c93e 9ad3 323f

fc2.bias f4 [10]
0.030524405 0.074458875 0.056695145 -0.046215136 -0.00645754 0.11768059 -0.054919124 -0.008510773
-0.115707405 -0.07254144
00000000: 510e fa3c e57d 983d 2b39 683d 154c 3dbd
00000010: c699 d3bb 8502 f13d e0f2 60bd c570 0bbc
00000020: 01f8 ecbd 9b90 94bd
