models/pretrained/mnist_softmax_uni_const_lenet_w_acc_17.pt (torch_old, 248399 bytes, 10 tensors)

conv1.weight f4 [6, 1, 5, 5]
00000000: 428d 1f44 55c4 8344 0717 1744 b926 db43
00000010: ee13 e9c3 ecd4 9644 ff27 8b44 9a14 6f44
00000020: 0ad7 6144 3bed d943 999e 8843 0ae7 1943
00000030: 3828 1444 0b22 5744 911f 5744 53f1 41c4
00000040: fa3d 80c3 5477 db43 96ab 0244 a6d6 f743
00000050: 8b27 66c4 e5c0 f042 7bb0 d942 e504 3d43
00000060: be5d 77c3 279f d843 46ef 4644 8e96 6a44
00000070: 0e69 c244 4d0f ee43 fefd ebc3 4b70 2cc1
00000080: b723 5a44 5d68 b944 695e e743 6160 6543
00000090: c3e7 4142 632c 7d44 9162 c744 4772 dd43
000000a0: 1793 3044 be3f 2944 994d 7244 1246 bd44
000000b0: eaed dd43 f0c7 7743 1ec8 30c3 240c 8b43
000000c0: fc88 8744 05f3 2a43 89c4 3dc4 805a 47c5
000000d0: 7476 49c5 d099 53c5 1e2d 40c5 aa70 2843
000000e0: 0098 b544 deda b344 89fc c544 7d2a 9f44
000000f0: a5d5 a844 da07 b844 77fa a544 32f1 a744
00000100: e9ea 4344 02ff ab44 528c af44 b82a a244
00000110: 7116 d044 5853 8944 1f41 9e44 4c34 9844
00000120: 8d30 8044 9bb3 c044 e725 c244 68e0 5744
00000130: a6b4 7044 d6fb 8044 59d0 8444 9718 b944
00000140: 9bb9 6544 d9df 8a44 4b73 3844 e41d 4844
00000150: adcd 7744 d4c1 8544 490d 8f44 7a41 2c44
00000160: cc02 0d44 d941 7443 5a45 8144 0e69 8f44
00000170: 9ad1 1344 13cd 0544 36a4 cbc4 c883 5944
00000180: 0a64 5144 367d 8743 fcae d343 942c 13c1
00000190: 144b 46c4 8bc9 0dc4 8b7b fdc3 33c9 c3c3
000001a0: 5fd2 ce44 48ef 1dc4 0e58 0ac4 bdb4 0cc4
000001b0: df24 f6c3 424f ba44 0fed 35c3 cc05 fec3
000001c0: cd4b ddc3 5d20 f8c3 7fba af44 b25a 2e45
000001d0: c3cf 2145 7f6f e843 dca9 f042 4ee8 b944
000001e0: 6af1 3045 babf 3a45 99c0 1f45 63ed 1145
000001f0: 0d91 7b45 6d1d 6b44 f10b 9044 4ea1 c244
00000200: a158 f044 dcf8 fe44 4e40 8a44 7836 a644
00000210: 81f0 bc44 17c7 ee44 3053 0945 31c7 ae44
00000220: aaaf af44 916b d544 3b3a f744 ac0e 0945
00000230: dfb9 b844 c903 b244 9057 ca44 7e85 c744
00000240: 7d10 5844 592f a144 8fa8 a244 23d2 9a44
00000250: 9406 a544 2a8b 07c6
638.20715 1054.1354 604.3598 438.30252 -466.1557 1206.6538 1113.2499 956.3219
903.36 435.85336 273.23904 153.9025 592.6284 860.5319 860.4932 -775.7707
-256.4842 438.93225 522.681 495.67694 -920.61786 120.37675 108.84469 189.01912
-247.36618 433.24338 795.73865 938.3524 1555.283 476.11954 -471.9843 -10.777415
872.55804 1483.2614 462.73758 229.37648 48.47633 1012.69354 1595.0802 442.8928
706.2983 676.996 969.21246 1514.1897 443.8587 247.781 -176.78171 278.09485
1084.2808 170.9493 -759.07086 -3189.6562 -3223.4033 -3385.6133 -3074.8198 168.4401
1452.75 1438.8396 1583.8917 1273.3278 1350.6764 1472.2454 1327.827 1343.5374
783.6705 1375.969 1404.385 1297.335 1664.7013 1098.6045 1266.035 1217.6343
1025.5172 1541.6127 1553.1844 863.50635 962.82263 1031.8699 1062.5109 1480.7684
918.9001 1110.9952 737.80145 800.46704 991.2137 1070.0571 1144.4152 689.0231
564.0437 244.25722 1034.1672 1147.283 591.275 535.2043 -1629.1316 870.0591
837.5631 270.9782 423.36707 -9.198383 -793.1731 -567.1491 -506.96518 -391.57187
1654.5741 -631.7388 -553.37585 -562.82404 -492.28806 1490.4768 -181.92601 -508.0453
-442.5922 -496.25284 1405.828 2789.6685 2588.985 464.87106 120.33176 1487.2595
2831.0884 2987.983 2556.0374 2334.8367 4025.0657 940.4598 1152.3732 1557.0408
1922.7697 2039.7769 1106.0095 1329.7021 1511.5157 1910.2216 2197.1992 1398.2247
1405.4895 1707.3615 1977.8197 2192.917 1477.8085 1424.1183 1618.7363 1596.1716
864.2576 1289.4796 1301.2675 1238.5668 1320.2056 -8674.791

conv1.bias f4 [6]
00000000: 6d48 98c3 2619 8b43 54ee 45c5 b82a fec4
00000010: ee1c 3045 afb5 8ec5
-304.56583 278.19647 -3166.8955 -2033.335 2817.808 -4566.7104

conv2.weight f4 [16, 6, 5, 5]
00000000: fd35 2642 6119 9743 d79c 8442 44a3 4043
00000010: f90a 1844 09a8 3dc2 d795 c042 56b1 4143
00000020: 2f45 1644 f439 0944 8125 3fc3 b31e b0c1
00000030: 513e 9542 a442 db43 c4d3 db43 221d 7ec3
00000040: 6d04 6341 d1bf afc2 8db0 2443 aa8d 6242
00000050: 1728 3bc3 15f3 88c3 77fb d042 b0b8 b9c2
00000060: 0a2e 77bf 9e9d 4d43 a090 3643 7316 e042
00000070: 1899 b443 09fe 0444 a1b2 73c3 d75f 0dc3
00000080: 1224 7e43 b223 0c44 3029 1344 993f 5ac3
00000090: 6cc9 37c3 2e9a 13c2 de1f 0741 1e74 4b43
000000a0: c0bc 90c3 88dd 86c1 3363 6cc2 9f2d 92c1
000000b0: 23d7 0643 b495 8ec3 5fe4 3cc0 4b26 5f43
000000c0: e8a9 dcc2 0312 8d42 cc43 7842 7c6e 9a42
000000d0: 05ff 6742 3935 c243 c964 1244 06a7 13c3
000000e0: 30ea 92c2 d501 f5c1 44b5 dfc2 6977 4e43
000000f0: 14db 32c3 dcf6 51c3 2fef abc3 abc6 b2c3
00000100: 213c 79c3 5633 f2c2 6dbf e2c2 6384 07c3
00000110: b2bf 9dc2 79a6 13c2 7d31 90c2 d7f7 d842
00000120: f0be 2e3d 5908 be42 299c 4942 bc7b 22c2
00000130: c433 ee43 8ed5 6943 cb61 5b43 06f5 ed43
00000140: c702 4c42 6689 4ec1 8fa5 3f43 7eef 1e44
00000150: 8944 2944 1266 9fc2 e613 afc2 4b09 c3c2
00000160: 797d 6743 c620 2243 d6e1 3bc3 6ff8 2dc2
00000170: 246a bf40 7f7a 95c3 2935 82c2 649b f7c2
00000180: b47b 3cc3 aa9e 9b42 efc7 1dc3 fb70 08c3
00000190: ff66 4643 c9c7 4643 3bd2 de42 fe7b e843
000001a0: c13f 9043 9e20 79c2 bbb1 ad43 7a47 fd40
000001b0: 8c58 e243 b183 b543 f1f2 75c3 7506 ea41
000001c0: 70dc 85c3 c393 2a43 b0c6 5a42 6b22 90c1
000001d0: f03e 8ec2 be26 8fc3 4ad8 2542 b67a c142
000001e0: 2515 f8c2 690a 3dc2 7bcc 47c3 dd87 58c3
000001f0: fa45 d042 b0e0 fd41 2a18 9b43 5636 ba42
00000200: 99e8 4543 4414 b743 c33d 0d43 81af 1e43
00000210: 19e1 9542 ee5a 2944 5683 1044 1dca 27c3
00000220: b74b 13c3 3fb1 f8c2 588d 7543 9630 6642
00000230: 7301 96c3 f8d9 c2c2 c12a c1c2 2564 35c3
00000240: 0cbd 15c3 84e4 09c3 3e91 33c3 d9cb 2b42
00000250: 8a15 f041 3cc0 a4c2 5d8b c0c3 5fad dec3
00000260: 8c8f e1c3 eeb2 91c3 813a 6bc1 8de3 b0c3
00000270: 5b26 82c2 1749 0043 36bd 4a43 3cdd bdc2
00000280: c600 eec2 4f3d bbc0 b62e 2543 ec3a 0543
00000290: cf58 dd42 eb54 1343 f462 0c43 cbd0 de43
000002a0: 6be7 f743 f98b e942 4e3e 6dc2 988f b843
000002b0: ab06 e143 f989 9a43 ef54 0942 8268 97c2
000002c0: fdd3 19c2 2aa7 ae43 3704 6d43 dc49 4e43
000002d0: 02e1 1ec2 4a85 0843 72c8 9943 0501 7243
000002e0: 9c54 9d43 6ef1 1343 65c3 8143 ce0c f543
000002f0: 0aad a743 ac6a 5443 fcd3 3b43 61b6 2c43
00000300: 4c84 8f43 3d40 0243 a401 79c1 9e08 90c2
00000310: 355a 0b43 adf8 e142 e3cb aac2 ab26 e9c1
00000320: 52fd ccc2 eb2b 1c43 939d 7e43 3007 6843
00000330: 0bf3 8643 f829 05c3 63cb 6642 00cf 6443
00000340: 555d 8e43 95c4 f042 f221 b140 7aae 8d42
00000350: 80c2 39c2 9f2a 49c3 6f55 d6c1 dbac 6fc2
00000360: 7587 7241 285d 4943 e14a a240 29ce ef42
00000370: a76e b6c2 24ba 1741 bead 54c2 b824 c4c2
00000380: 2a0c 9c41 6e13 6bc3 a7af 2bc3 896e 0fc3
00000390: e8df 3443 590e 3d43 03a5 09c3 8520 af41
000003a0: 514d 5043 5d31 9843 15ba 2043 2056 9441
000003b0: fdcd 8843 2239 d143 1a5b d843 9324 4b43
000003c0: 4ead c141 8fde 4843 2c1d 6143 f7d5 8443
000003d0: 26e7 c3c2 5c49 fcc2 17ec 3442 6e83 3743
000003e0: 2c32 8e43 3231 cac2 7423 edc2 4bbe b1c2
000003f0: ce32 8942 94f6 8743 100b 8942 9abd 8142
41.552723 302.19827 66.30633 192.63776 608.17145 -47.414097 96.292656 193.69272
601.081 548.9055 -191.1465 -22.01499 74.62171 438.52063 439.65442 -254.1138
14.1885805 -87.87464 164.68965 56.638344 -187.1566 -273.89908 104.49114 -92.86072
-0.96554625 205.61569 182.56494 112.043846 361.19604 531.9693 -243.69777 -141.37437
254.1409 560.55774 588.64355 -218.24843 -183.7868 -36.900566 8.44528 203.45358
-289.4746 -16.85817 -59.096874 -18.272276 134.84038 -285.16956 -2.9514387 223.14958
-110.33185 70.53518 62.066208 77.21579 57.999043 388.4158 585.57477 -147.65244
-73.4574 -30.625895 -111.854034 206.46645 -178.85577 -209.9643 -343.86862 -357.5521
-249.23488 -121.100266 -113.37388 -135.51714 -78.874405 -36.91257 -72.09666 108.48406
0.04266256 95.016304 50.4025 -40.620834 476.40442 233.8342 219.382 475.91425
51.002712 -12.908545 191.64671 635.74207 677.07086 -79.699356 -87.538864 -97.51815
231.49013 162.12802 -187.88217 -43.49261 5.9817066 -298.957 -65.10383 -123.8035
-188.48322 77.80989 -157.78099 -136.44133 198.40233 198.78041 111.41061 464.9687
288.49808 -62.281853 347.38852 7.914975 452.69177 363.02884 -245.94899 29.253153
-267.72217 170.5772 54.69403 -18.016806 -71.122925 -286.30267 41.46122 96.73967
-124.0413 -47.260166 -199.79875 -216.53072 104.13667 31.73471 310.18878 93.106125
197.90858 366.15833 141.24126 158.68556 74.939644 677.4208 578.0521 -167.7895
-147.29576 -124.34618 245.55212 57.547447 -300.01132 -97.42572 -96.5835 -181.39119
-149.73846 -137.89264 -179.56735 42.94907 30.010517 -82.37546 -385.08878 -445.35446
-451.12146 -291.3979 -14.701783 -353.77774 -65.07491 128.2855 202.7391 -94.9321
-119.00151 -5.851234 165.18246 133.23016 110.673454 147.33171 140.38654 445.6312
495.80795 116.773384 -59.310844 369.12183 450.0521 309.0779 34.332943 -75.70412
-38.45702 349.30597 237.01646 206.28851 -39.719734 136.52066 307.56598 242.00398
314.661 147.94308 259.52652 490.10004 335.35187 212.41669 187.82806 172.71242
287.03357 130.25093 -15.562901 -72.01683 139.35237 112.985695 -85.39822 -29.14388
-102.49477 156.17155 254.61552 232.02808 269.89877 -133.16394 57.69862 228.8086
284.72916 120.38395 5.5353937 70.840775 -46.43994 -201.16649 -26.791716 -59.918804
15.158071 201.36389 5.0716405 119.90266 -91.21612 9.4829445 -53.16967 -98.07172
19.50594 -235.0759 -171.68614 -143.43178 180.87463 189.05605 -137.64458 21.890879
208.30202 304.38565 160.72688 18.542053 273.60928 418.44635 432.71173 203.14287
24.209621 200.86937 225.11395 265.6716 -97.95146 -126.14328 45.230556 183.5134
284.39197 -101.096085 -118.569244 -88.871666 68.59923 271.9264 68.52161 64.870316

conv2.bias f4 [16]
00000000: 3a30 8c41 dce0 9b42 8581 f342 5475 8443
00000010: 0c75 0843 5b1b 4143 b3c8 1943 8c7c 8cc2
00000020: 26e9 0043 7380 08c3 458e 3843 ecfc 4d43
00000030: 82b1 5fc3 09b4 7cc3 0244 0344 e1d6 f5c2
17.523548 77.93918 121.75297 264.91663 136.45721 193.10686 153.78398 -70.243256
128.91074 -136.50175 184.55574 205.98798 -223.69339 -252.70326 525.0626 -122.919685

conv3.weight f4 [120, 16, 5, 5]
00000000: 441c a442 1d7b bb42 df11 9bc1 dfef 79c2
00000010: 0f19 44c2 8260 8942 696d c541 095b f041
00000020: 0ca0 9f42 213e 2542 4954 e4c1 6a21 38c0
00000030: a403 c93f 23ba 9e42 18c4 6d42 9816 03c2
00000040: 0c46 3ac2 d09c 80c2 0a19 54c2 180d 9a3f
00000050: 9852 3142 db3b ae41 774f 3fc1 ed1a 0a41
00000060: 6eee 5541 b509 c141 38f1 7442 196c e442
00000070: 5683 7342 118c 5042 20f6 aa40 cfb8 5642
00000080: b782 2540 a5c4 03c2 a694 2a42 796d 24c2
00000090: d00b df41 88e9 77c1 4fa1 0341 c358 6741
000000a0: 5f8c 903f 5464 1342 bd95 0242 3567 f741
000000b0: 2d21 92c2 4c35 c941 36e4 c042 fd3a 0941
000000c0: 97db a041 7c75 8142 4ac1 d740 3e6b dc41
000000d0: 72ac 3b42 4a5c ad42 8fe3 e042 90cb f8be
000000e0: f62d 8fc1 b052 2a3f d584 aa40 c560 0e42
000000f0: 0a15 66c2 8939 1142 9cd1 eec1 6ee6 bf40
00000100: 45fd 3042 7cc0 1a41 1f8d a541 a995 c2c1
00000110: dd03 f341 0e2d 4d41 cef8 a042 0c4e 9c41
00000120: 64bc 61c1 112c be42 ca04 4241 5234 2c41
00000130: ae70 01c1 da7b 573f 9ec3 a2bf c29c 48c2
00000140: 0bd7 3f42 cbe5 3242 d8d6 1542 4a68 6ec0
00000150: 676a 1342 f0bb 8cc2 63d6 38c2 fa9c bb41
00000160: c8ca ba40 1e6c 7e41 b558 33c3 0c7e b3c1
00000170: 7e9f 4341 7d79 6941 f82f b9c1 d3a9 12c2
00000180: d9bd 1bc1 51ce c13f 37ba 65bf 804a a4c2
00000190: c7cb 6641 c3b0 83c1 1f17 d4c2 b324 cb41
000001a0: 54f8 6842 a14b 7040 7d08 e2c2 9eef d9c1
000001b0: 3a29 b8c2 b763 c5c2 7ae2 2841 2cb6 6542
000001c0: 7b69 93c2 3cc1 19c2 cadd d141 3896 9642
000001d0: 8f69 1bc1 508d afc0 73e4 2542 642b 8441
000001e0: 82f4 f2c1 50df 0ec3 c1cc c6c2 6757 ffc2
000001f0: 8370 dfc1 daf6 1ec1 b79e a042 3ad1 8442
00000200: a137 9642 e291 2742 a786 6e41 ae27 f941
00000210: 3366 6f41 f378 2142 5fb2 5342 55f9 b041
00000220: bdde 3140 946e 9a41 f8f6 923e c720 8ec1
00000230: b4c5 dd41 4b08 4e42 e9a5 0c42 79cb 8642
00000240: d254 9fc0 e369 a042 3b77 e942 bb25 9142
00000250: ab54 aa42 2018 38c1 e139 25c1 bcd4 fa40
00000260: 61f6 d041 e435 f441 3da4 7cc1 a206 bd41
00000270: d50f 27c2 acb1 6642 071b a741 7c27 8c41
00000280: c8eb 2cc1 5482 bdc2 2711 3542 524e 2441
00000290: 5d99 8841 6372 bf40 7567 bec2 a0d1 11c2
000002a0: bce8 3cc1 577b 5141 a95f c5c1 2f3c 53c2
000002b0: 6af4 b140 e90f 7a41 988a 0842 2490 8441
000002c0: 095e 7f42 002b 9d42 9269 e241 5b20 dbc1
000002d0: 3f9c f9bf 4858 5f42 fea5 1342 0c9b 2842
000002e0: 2bd1 4342 6df4 b7c1 83b5 2a42 5acd bd41
000002f0: ab3f d341 9462 5bc1 c73e 2a3e 4efc d541
00000300: 72ab 0a41 a02d 0342 d5f4 67c1 40ed 7342
00000310: 1e3d 9642 4c48 1842 bba0 d542 6bd7 1242
00000320: e187 cb42 3c6c 6c42 8716 0e42 49ef b040
00000330: 4678 e241 5ace 1ac2 dfb5 c841 f1ca 5ebf
00000340: a053 4542 95ce 3a42 ce3a 8f41 ff9d 8241
00000350: 6fde 9e41 3c47 4241 bb49 af40 bbb4 8841
00000360: 73cb 2441 4204 ad41 1fc5 ee41 0e86 e041
00000370: cdea b842 9a0c 6342 665d 9f42 88f8 c442
00000380: f7db a441 f8b7 7cc1 5444 c342 c837 5243
00000390: f1c6 4b43 8383 b241 c2a5 c341 f371 fb40
000003a0: 39db 2341 057c 9041 6665 1e42 376a f6c1
000003b0: 13a8 b7c1 6455 d8bf 3147 3b42 3dd3 2742
000003c0: 2f83 1c40 c39c 4e42 8077 4942 86ae f741
000003d0: e120 06c0 4700 4bc1 7386 7542 46cc d741
000003e0: e045 c341 d27a 6442 b53f cbc1 cb3f 0142
000003f0: e772 3242 1e63 ee41 e663 5042 4956 f2c1
82.05521 93.740456 -19.383726 -62.48425 -49.02447 68.68849 24.678423 30.04445
79.81259 41.310673 -28.541155 -2.8770394 1.5704236 79.36355 59.441498 -32.772064
-46.568405 -64.306274 -53.024452 1.2035246 44.330658 21.779226 -11.956901 8.631574
13.37071 24.12974 61.235565 114.21113 60.878258 52.136784 5.3425446 53.680477
2.5861032 -32.942036 42.645164 -41.106907 27.880768 -15.494514 8.226882 14.45917
1.1292838 36.847977 32.64623 30.925394 -73.0648 25.151024 96.445724 8.576901
20.107222 64.72946 6.742345 27.552364 46.918404 86.68025 112.44445 -0.48592806
-17.897442 0.6653242 5.328715 35.5945 -57.520546 36.306187 -29.852348 5.9968786
44.247334 9.671993 20.693907 -24.323076 30.376886 12.8235 80.48595 19.538109
-14.108494 95.08607 12.126169 10.7627735 -8.09001 0.8417336 -1.2715948 -50.153084
47.960003 44.724407 37.45981 -3.7251153 36.85391 -70.367065 -46.209362 23.451649
5.8372536 15.901396 -179.34651 -22.436546 12.2264385 14.59216 -23.148422 -36.665844
-9.73385 1.5141088 -0.89737266 -82.14551 14.42475 -16.46131 -106.04516 25.39292
58.242508 3.754616 -113.01658 -27.242 -92.08052 -98.694756 10.555292 57.427902
-73.70602 -38.438705 26.233295 75.293396 -9.713271 -5.486 41.473095 16.521187
-30.369389 -142.87231 -99.39991 -127.67071 -27.929937 -9.9352665 80.30999 66.408646
75.10865 41.892464 14.907874 31.144375 14.962451 40.368114 52.92419 22.121744
2.7792199 19.303993 0.28704047 -17.766005 27.721535 51.5081 35.16202 67.39741
-4.979104 80.20681 116.73287 72.57369 85.16537 -11.50589 -10.326631 7.8384686
26.120302 30.526314 -15.790097 23.628239 -41.76546 57.673508 20.888197 17.51928
-10.807564 -94.75455 45.26675 10.269121 17.074884 5.982713 -95.202065 -36.454712
-11.80682 13.092612 -24.67171 -52.808773 5.5610857 15.628884 34.135345 16.570381
63.84183 78.583984 28.301548 -27.390799 -1.9500808 55.836212 36.9121 42.151413
48.954266 -22.994349 42.677258 23.72527 26.406088 -13.711567 0.1662551 26.748196
8.666857 32.794556 -14.497273 60.98169 75.11937 38.070602 106.81393 36.71037
101.76539 59.105698 35.522 5.5292096 28.308727 -38.701515 25.088804 -0.87028414
49.331665 46.70174 17.903713 16.327147 19.85861 12.142391 5.4777503 17.088247
10.29967 21.627079 29.84625 28.065456 92.458595 56.762306 79.68242 98.48541
20.607405 -15.794914 97.63345 210.2179 203.77711 22.314215 24.455936 7.85766
10.241021 18.060556 39.599022 -30.801863 -22.957067 -1.6901059 46.819523 41.956287
2.4455068 51.653088 50.3667 30.960217 -2.0957568 -12.687568 61.381298 26.974743
24.409119 57.11994 -25.406107 32.312298 44.61221 29.798397 52.097557 -30.292131

conv3.bias f4 [120]
00000000: 56cf a641 b851 52c1 dde1 be40 42c0 42c1
00000010: d677 a3c1 527d 5d40 6ad6 8cbf d853 a7c0
00000020: 7f1d 4640 6525 cb40 2591 ef3f 2f53 edc1
00000030: 4398 3d41 6dc4 5d40 b9d1 99c0 36b0 7541
00000040: 5312 50c0 aec2 8cc0 8108 70c0 32bf 1b40
00000050: 815d f4c1 32c8 97c0 69d5 96c0 031b 633f
00000060: 4d90 a540 0fa0 d2c0 d5ff 29c1 cf7d 9fc1
00000070: 8cad 6dc0 6720 1e41 be83 d53f d546 0342
00000080: 7f11 05c0 1b46 e43f 65db 40c1 d7bc 0ac1
00000090: 7ceb bf41 b6b3 43c1 392e 5341 0a6b b2bd
000000a0: 70e0 06c1 d94e 9640 c9a9 4fc0 be51 5440
000000b0: 6f4c 2e42 d47e ce3f 0991 1e41 be34 ea3e
000000c0: c644 0ec0 878b 9941 a956 7dc1 b76b babe
000000d0: 0714 efc0 0b55 8cc1 7d90 b9c0 10f7 0342
000000e0: 842c c0bf 4887 8341 5b87 84c0 7cd8 92c0
000000f0: 3b84 a73f 6a94 5ac1 64be b040 98aa 3d42
00000100: 744c 2c41 5254 22c1 945c b3c0 86db 9c3f
00000110: f418 3c41 d4bf 34c1 a8a6 7440 c939 4840
00000120: c7e5 8dc0 ede8 9c41 ec76 41c1 77b4 62c0
00000130: f8fa 43c1 b83e 8bc1 bd66 a441 465d 1640
00000140: aacd acc0 0ecb 54c0 0e47 26c1 fb1f 7840
00000150: e6a9 2d40 3bf0 bc40 3e22 9b40 4539 18c1
00000160: 94f2 2840 d2b6 0d41 c5cd edc0 e6b0 1b40
00000170: 3f55 bd41 f8c1 96bf cca5 da41 29d9 7ac0
00000180: 70a5 9540 3f21 eabe 76b4 3841 0455 f740
00000190: 7c2d 3d41 7591 1fbe 1455 3fc0 41a8 a8bf
000001a0: 636d 4641 00ed fcc1 c64f 9ac0 f877 d4bf
000001b0: 298c 6f40 7d4d 98c1 9156 8fc1 aae0 8440
000001c0: 71b0 a540 a1f6 e3c0 a58b 0541 ec91 e1c0
000001d0: f7c1 bec0 f08b 68c1 3861 c441 1f3d b8c0
20.851238 -13.144951 5.965071 -12.171938 -20.433514 3.460774 -1.1002934 -5.228985
3.0955503 6.348315 1.871617 -29.665617 11.849673 3.4651139 -4.806851 15.35552
-3.2511184 -4.3987646 -3.750519 2.4335446 -30.545656 -4.743188 -4.713551 0.8871309
5.173865 -6.5820384 -10.624959 -19.93643 -3.7137175 9.882911 1.668083 32.81917
-2.0791929 1.7833894 -12.053563 -8.6711035 23.989983 -12.231375 13.198785 -0.08711822
-8.429794 4.697125 -3.2447379 3.3174891 43.574642 1.6132455 9.910409 0.45743364
-2.2229476 19.193129 -15.833657 -0.36410305 -7.4711947 -17.541525 -5.7988877 32.991272
-1.5013585 16.441055 -4.141523 -4.5889263 1.3087229 -13.661234 5.523241 47.416595
10.768665 -10.145586 -5.605051 1.2254493 11.756092 -11.296833 3.822672 3.128527
-4.434299 19.613733 -12.091534 -3.5422647 -12.248772 -17.405624 20.550165 2.349443
-5.4001055 -3.3248935 -10.392347 3.876952 2.7134948 5.904325 4.84793 -9.513982
2.6398058 8.857134 -7.4313684 2.432672 23.666624 -1.1777945 27.330956 -3.9195044
4.676445 -0.4572849 11.544058 7.729128 11.823605 -0.15582831 -2.9895678 -1.3176347
12.401706 -31.615723 -4.822238 -1.6599112 3.7429297 -19.037836 -17.917269 4.152425
5.1777883 -7.123856 8.346593 -7.0490627 -5.9611773 -14.534164 24.54747 -5.757461

fc1.weight f4 [84, 120]
00000000: 3c45 a641 c818 1941 fb01 ecc0 420e 7b41
00000010: c624 bc41 19a0 d5c0 9212 1341 3a23 03c0
00000020: d37b 10c1 f96b d540 d30f 1ec1 f068 fc41
00000030: ce0e 8b41 fab7 15c1 ded7 a53c 2dc8 fb40
00000040: a809 adbf e2c9 8140 00fa 37c1 923b c8c0
00000050: fdf8 fcc1 4f83 c640 4495 f740 3df8 30c0
00000060: 6adc 5440 6a40 80c1 5ca3 34c1 52a8 cfc1
00000070: cf7d ea40 5dcf 493f f6ad 3dc1 a24b 6341
00000080: 07bd 1641 4479 8640 b3ca 2bc1 2780 41c1
00000090: 71c9 d041 12bf 67c0 6138 a440 34f3 24c1
000000a0: fd72 98c0 4e49 9ac0 a923 3f41 64ca f8bf
000000b0: fa82 bf41 ab42 e6c0 093a 1ec1 1ccb 5640
000000c0: e12f 1e41 3ad8 d840 fd31 a5c1 4f5b 9b41
000000d0: a77d a2c0 93ba 2ac1 7fdc ec3f 1a37 4641
000000e0: c6ed 2741 01fc f440 3190 1e41 8a55 9ebe
000000f0: d5e7 26bf edef 8bc1 38fc 79c0 d909 40c2
00000100: 7741 2741 97e6 abc1 7959 27c0 c6ce a0c0
00000110: d552 25c1 d4a3 4ac1 4d22 01c1 722a bdc0
00000120: a8f7 7a41 6169 3941 2900 84c1 4ba5 ce40
00000130: 6f72 15c1 0cdf 44c0 d51a 7941 21e3 07c0
00000140: c3b8 c640 5214 f540 e1c7 d3c1 a4bf 3cc1
00000150: 22c7 17c1 e30f 003f 7c0d 20c1 fec9 eec0
00000160: 59bc 2c40 0e2d e540 bd72 e840 1e4d 02c1
00000170: 2b29 6741 b501 0641 f5d3 80c2 e336 4d41
00000180: 0fa6 55c0 a527 a340 0288 d040 4dc7 bdbf
00000190: 89c5 8141 d4d7 1841 6e7d 0941 2cb0 c5bc
000001a0: 9f46 bb40 24b4 cfc1 acea 1ec0 0be0 1441
000001b0: cdbc cd40 e123 4fc1 40e6 bdc0 3d24 a5c0
000001c0: d5c6 2dc1 259d b040 0de7 2341 3edb 1d41
000001d0: ccd4 3f40 13a5 1fc1 a5a9 9041 df95 ab40
000001e0: c4c8 3141 f755 35c1 8dc4 4d40 474f 88c1
000001f0: 3f77 a6c1 fb89 2ec0 a4f5 9fc0 8f49 b03e
00000200: 91e1 b740 06a1 47c0 2e50 c73e 2035 58c1
00000210: 1b49 a9c1 decb 6a40 4e34 91c0 096d 5ac1
00000220: ef80 113e 340f 17c1 fbcc 2c41 0f70 e43f
00000230: 9560 0c42 4751 70c0 b009 a6bf c58a ea3f
00000240: 7454 c9c0 2eae 8a41 8d59 fc40 4d04 9341
00000250: 5faf 80c0 8fa4 f4bf 5e6d d3be 9fe0 8cc1
00000260: 770c a3c0 bf99 0dc0 8be9 c13f 12d1 8d41
00000270: 2272 8740 0d97 37c1 33ed a1c0 f6f2 3f40
00000280: 4f8e 63c0 6768 b540 f261 67c1 6a5a 0540
00000290: 7cf7 9c40 9b08 21bd 2ad5 47be c176 82c0
000002a0: 83c4 9bc0 d461 2641 52c1 b141 3834 12c1
000002b0: b0cf ab40 d1fb ba41 7d96 1b3e d1bb 3840
000002c0: 0718 c1c0 cbc9 9d3f 6757 34c1 068a 36c0
000002d0: e367 4640 fa40 0042 f095 6841 161b 8b41
000002e0: 3d48 aebd 04ec b840 1d26 c4bf 6548 2f40
000002f0: a476 0541 d60b 2541 e1ec 4240 3c1b 3f40
00000300: bc20 9e40 7366 a940 8281 a241 8feb 4fc0
00000310: 0e5a 4fc0 1416 74c0 ffe0 78c1 1fe2 9240
00000320: 2d0d aac0 9432 0bc0 6465 b941 b101 aebf
00000330: bcdc 7440 f1c7 b9c0 8fd1 4a40 5965 813f
00000340: 2fbc 20c0 9d8d 64c0 72b4 0d3f 5891 1641
00000350: 012b 39c1 f9a3 a2c0 45e5 e241 6665 40c0
00000360: 7223 fa3f 2833 de3f 8018 dcc0 6119 583e
00000370: dbb3 7dc1 c93b 1ac1 ffa8 95bf b244 97bf
00000380: 3e52 4a40 47a8 0442 d5a6 cd3f aa33 8dc0
00000390: 8ec2 abc1 fedb b441 ddd5 c2bf be8c 3e40
000003a0: f2e6 4a40 6020 6d40 990a 3bc1 2627 0fc1
000003b0: 6a1f 2940 e872 2bc1 22b5 1141 66c7 7fc0
000003c0: 9203 e0c0 7f5b 5541 73c6 b9c0 afc2 9741
000003d0: 79cd 8741 de60 4a40 1d0c ad40 dcd9 9abf
000003e0: 8c83 e9c0 55e7 c63f 5fba d3bf 872e 4741
000003f0: 63a2 bf41 d031 82c0 8eea 2840 895f 3641
20.783806 9.56855 -7.3752418 15.690981 23.517956 -6.675793 9.192034 -2.049025
-9.0302305 6.6694303 -9.878863 31.551239 17.382229 -9.357416 0.020244535 7.8681855
-1.3518572 4.055894 -11.498535 -6.257272 -31.621576 6.203529 7.736971 -2.7651513
3.325953 -16.031452 -11.289883 -25.957188 7.3278575 0.78832036 -11.854971 14.205965
9.421149 4.202303 -10.736987 -12.093787 26.09836 -3.621037 5.131882 -10.309376
-4.7640367 -4.8214483 11.946206 -1.9436765 23.938953 -7.195638 -9.889169 3.3561468
9.886689 6.776395 -20.649408 19.419584 -5.0778384 -10.67055 1.850479 12.388453
10.49555 7.655762 9.910203 -0.30924636 -0.651975 -17.492151 -3.9060192 -48.009617
10.453483 -21.487593 -2.614836 -5.025241 -10.332723 -12.664997 -8.070874 -5.9114313
15.685463 11.588227 -16.500078 6.4576774 -9.340438 -3.0761137 15.569051 -2.1232378
6.210054 7.6587305 -26.472597 -11.796787 -9.486116 0.5002424 -10.003292 -7.4621572
2.6989958 7.16175 7.264006 -8.143827 14.447551 8.375417 -64.41398 12.8259
-3.3382604 5.0985894 6.5166025 -1.4826447 16.221453 9.552692 8.5931225 -0.024131857
5.8523707 -25.96296 -2.4830732 9.304698 6.429297 -12.9462595 -5.9343567 -5.1606736
-10.861043 5.5191827 10.243909 9.866026 2.997363 -9.977801 18.082834 5.362045
11.111515 -11.3334875 3.2151215 -17.03871 -20.808226 -2.7271717 -4.9987354 0.3443112
5.746285 -3.119203 0.3892836 -13.51297 -21.160696 3.668693 -4.537635 -13.65162
0.1420934 -9.441212 10.800044 1.7846698 35.09432 -3.7549608 -1.2971706 1.8323599
-6.291559 17.335049 7.8859315 18.3771 -4.0214076 -1.9112719 -0.41294378 -17.609678
-5.0952716 -2.212509 1.5149397 17.727085 4.232682 -11.474378 -5.060205 2.9992042
-3.5555608 5.6689944 -14.461412 2.0836434 4.9052105 -0.039314847 -0.1951491 -4.0769963
-4.8677382 10.398884 22.219395 -9.137749 5.3691025 23.372957 0.15194125 2.8864634
-6.034183 1.2327207 -11.271338 -2.8521743 3.1000907 32.063454 14.536606 17.388226
-0.08509872 5.7788105 -1.5324131 2.7387936 8.341465 10.31539 3.045708 2.9860373
4.941496 5.293756 20.313236 -3.2487524 -3.2398715 -3.8138475 -15.554931 4.5901027
-5.3141084 -2.174962 23.174507 -1.3594266 3.8259726 -5.805657 3.1690404 1.0109054
-2.5114858 -3.5711434 0.5535346 9.410484 -11.572999 -5.082516 28.361948 -3.0061889
1.9542067 1.7359362 -6.8779907 0.21103431 -15.85641 -9.639596 -1.1692199 -1.1817839
3.1612697 33.164333 1.6066538 -4.4125566 -21.469997 22.607418 -1.5221516 2.9773402
3.1703458 3.705101 -11.690087 -8.947058 2.6425424 -10.715553 9.106722 -3.9965453
-7.000436 13.334838 -5.8054748 18.97006 16.975328 3.1621623 5.4077287 -1.2097735
-7.297308 1.5539347 -1.6541251 12.448859 23.95429 -4.0685806 2.639316 11.398324

fc1.bias f4 [84]
00000000: 1f56 2bc1 c7ba cf40 e8ce dac0 1102 d540
00000010: 8394 81c0 3011 053e 18d2 1341 822c 59c1
00000020: e013 463e 9c98 85c0 37ee 88c0 ae5a febf
00000030: 1cbf f440 a82a bec0 4133 2841 352a ad40
00000040: 87f8 56c1 b517 1041 c112 d13d 01c8 91c0
00000050: c190 8840 7b39 6ac0 262d f7bc 4aef 0a41
00000060: 53fe 59c1 232a 6cc0 f201 dac0 331e fabf
00000070: f15d 1040 eb47 27bf 2605 5b41 e980 28bf
00000080: a29a 233d 08f8 7540 01e5 c940 15b1 173e
00000090: 0cce ba3e 9c98 533f 48e8 b640 51d9 83be
000000a0: d4e7 16c1 1bf8 1abf 50d3 1741 4ae4 87be
000000b0: 52a6 d340 b6c9 e83e 6cac 6bc0 7482 d8c0
000000c0: fa36 8bc0 7b69 dd40 b761 8840 7d9c 0641
000000d0: 0a86 fd3f 2b25 8cbf fa3b 5941 862c 3540
000000e0: 7902 91c0 4051 a2c0 215c 8740 00ad 5941
000000f0: f7ad ac40 a866 d03e 9f67 8e40 0307 293f
00000100: f59d 1ebd e119 cf3e 1048 433d 914c 5c41
00000110: 76f0 473e 009c 993e 06fe 65c0 2547 8bc0
00000120: dee1 86c0 af37 3c40 b49d 8abe 9276 d5bc
00000130: 7e47 9d40 9769 1ac0 b384 bebb 73c7 12c1
00000140: 17e6 9d40 73b6 7440 faff b4bd 9ca7 a4c0
-10.708526 6.49155 -6.837757 6.6565022 -4.049379 0.12994838 9.238792 -13.573366
0.19343519 -4.174879 -4.279079 -1.9871423 7.648329 -5.942707 10.512513 5.411402
-13.435676 9.005788 0.10208655 -4.5556645 4.26767 -3.6597583 -0.030172896 8.68342
-13.624591 -3.6900718 -6.8127375 -1.9540466 2.2557337 -0.65344113 13.688757 -0.658217
0.03994239 3.8432636 6.3092046 0.14813645 0.36485326 0.8265474 5.7158546 -0.25751737
-9.431599 -0.6053483 9.48909 -0.26541358 6.614053 0.45466393 -3.6823988 -6.7659245
-4.350461 6.919126 4.261928 8.413205 1.980653 -1.0948843 13.577143 2.8308425
-4.531552 -5.072418 4.229996 13.604736 5.396236 0.4070332 4.450149 0.66026324
-0.03872486 0.40449432 0.047676146 13.768693 0.19525322 0.3000183 -3.5936294 -4.3524346
-4.2150717 2.9408987 -0.27073443 -0.026057515 4.914977 -2.4126947 -0.005814159 -9.173694
4.934337 3.8236358 -0.08837886 -5.14546

fc2.weight f4 [10, 84]
00000000: 7f81 bcc2 b5fb 5c43 c051 5bc3 7dd1 5b43
00000010: e903 8843 4f82 f543 5333 bc43 a6a3 7ec3
00000020: 99bd 1643 6fdd ca43 e592 8743 41d3 94c3
00000030: 58bf 98c2 02a9 99c3 1152 2643 3f53 aa43
00000040: 87aa 7fc3 8809 6043 460c 1843 a089 8743
00000050: 98bc 87c3 8885 bdc3 6dbc 17c3 513e bc43
00000060: 3369 7fc3 ce2d bec3 d361 5bc3 feb0 1bc3
00000070: 2154 d843 81b5 5443 e7c4 7f43 23ad 6343
00000080: 6ac0 1643 e34f 87c3 55af 5b43 1b35 0dc3
00000090: 9423 1743 f498 64c3 e4a0 9943 d4bc 16c3
000000a0: 25e6 bbc3 9b3c 0d43 9373 bc43 878d 1743
000000b0: d0b5 5c43 2b26 1743 91a7 8a43 b41f 5cc3
000000c0: db9a 8743 cd12 5b43 c659 cac3 80b7 c043
000000d0: 5181 9443 3e9d 6143 d1e2 7e43 b1a1 49c3
000000e0: 5be1 2cc1 354b 48c1 48d1 cac3 0d36 8043
000000f0: bcf4 a943 9c3c 0cc3 17b5 87c3 78bb 54c3
00000100: 8ddb 1643 5293 1643 8459 1743 8f3b 7f43
00000110: 22e4 f143 7336 1743 cd18 bec3 1467 8743
00000120: 36b4 cb43 526f 49c3 4f48 0d43 c3e8 f343
00000130: 200c 2b41 f341 96c3 0780 1743 bd15 bcc3
00000140: 8acd 5541 e0dd be43 5fab 0c43 2d76 aac3
00000150: 45b3 2243 9174 42c2 517b 4442 b424 41c2
00000160: 8a34 0041 f0a4 a642 5e02 8fc3 b6f6 2e43
00000170: 633c 0443 9579 e142 69fa f440 d6b5 8a43
00000180: 8920 a943 6012 a7c3 64c2 4a43 20cd cac1
00000190: b931 3043 202c 8842 3fa3 0443 8288 eb40
000001a0: 3f50 00c1 db04 39c3 ad8f 04c3 bcc7 8fc3
000001b0: fe77 3043 b4e2 39c3 873a 4042 5adc 8f42
000001c0: 76b7 4f43 39d4 79c1 a459 2fc3 cf16 5942
000001d0: 9818 0343 c59f ecc0 2d49 43c2 939a 9d43
000001e0: 350f 0443 fa59 4cc2 87f3 a643 01d2 03c3
000001f0: 233c 8f43 aeb6 9dc3 23f5 8dc3 c633 0443
00000200: 060b 43c2 e910 0443 3e35 46c3 d92b 4342
00000210: 4f08 ea40 33a0 44c2 a0de e5c2 4d2d 83c3
00000220: 8c80 8bc3 7480 4442 fadb 2fc3 2fd2 b441
00000230: 1151 4043 3dff 3f43 cc6f ddc2 7010 30c3
00000240: 2acd cdc1 092d 9d43 f992 01c1 3215 7841
00000250: 9854 0343 0c39 0443 9deb 0343 d1b0 2fc3
00000260: e55d c242 fc3b 0443 9ba6 38c3 fb33 e340
00000270: fe84 dc42 9fdb b541 6d6e 9dc3 1aa0 b442
00000280: 93c8 41c3 29ae 8b43 8674 0443 abe1 8e43
00000290: 9aa5 3fc3 8d89 3a43 92d4 9dc3 f4d4 d241
000002a0: f484 5a43 b62c a5c3 715f a443 eff8 a3c3
000002b0: 6e32 8d43 b5ab 6e43 3106 9043 0c6c 8a43
000002c0: 474c 8ac3 fae2 7643 8c82 8d43 a6b2 8dc3
000002d0: c51d a4c3 6065 8c43 9aca 27c3 5f41 b543
000002e0: f094 8a43 6fee 47c3 d765 8ac3 c961 8d43
000002f0: 7e06 8dc3 35c6 a143 c438 8a43 095f 9043
00000300: 349d 8a43 f349 a143 5493 a443 302b a643
00000310: 2190 8843 ef7c 8843 fa77 8ac3 f5db bc43
00000320: 2e78 89c3 a8d8 8cc3 aafb a3c3 1ca6 a6c3
00000330: d144 8ac3 e901 bdc3 c02f 8cc3 6af6 8943
00000340: 5665 90c3 9860 a743 0159 9043 eb25 8ac3
00000350: 170e a4c3 340a 8ac3 fe21 5b43 62a7 a443
00000360: 1eef 8c43 9e4e a3c3 3f3a 77c3 f8d1 8e43
00000370: 4e2d 8d43 9297 bd43 0ac3 8ac3 0d63 89c3
00000380: 681f 5843 6aca 5743 3e0a 76c3 cda1 8ac3
00000390: 7069 b643 fdd2 a6c3 55f7 8cc3 c675 88c3
000003a0: 0a21 8ac3 31d1 89c3 8403 8ac3 3d95 8ac3
000003b0: 7281 7043 1f0c 8ac3 77c3 a143 f91d 8d43
000003c0: ab02 7643 5884 89c3 48bc a643 276d 6d43
000003d0: e7cf 57c3 3144 8dc3 ba6c 8ac3 ca8e 90c3
000003e0: 843e 57c3 3f3b a1c3 d429 a743 57c0 b5c3
000003f0: 976e 3044 8204 17c4 396b 1744 ca28 17c4
-94.25292 220.98323 -219.31934 219.81831 272.03055 491.01804 376.40097 -254.63925
150.74062 405.72995 271.1476 -297.65042 -76.37372 -307.32037 166.32057 340.65036
-255.66612 224.03723 152.04794 271.0752 -271.4734 -379.0432 -151.73604 376.48685
-255.41093 -380.35785 -219.38213 -155.69138 432.65726 212.709 255.76915 227.67632
150.75162 -270.6241 219.68489 -141.20744 151.13898 -228.59747 307.25696 -150.73761
-375.798 141.23674 376.90292 151.55284 220.7102 151.1491 277.3091 -220.12384
271.2098 219.07344 -404.70135 385.4336 297.01028 225.61423 254.886 -201.6316
-10.805018 -12.518361 -405.635 256.42227 339.912 -140.23676 -271.41476 -212.7323
150.85762 150.57547 151.34967 255.23265 483.7823 151.21269 -380.19376 270.8053
407.4079 -201.43484 141.28246 487.81845 10.69046 -300.51523 151.5001 -376.16983
13.36268 381.7334 140.66942 -340.92325 162.70027 -48.613834 49.120426 -48.285843
8.012827 83.32214 -286.0185 174.96371 132.23589 112.737465 7.6555676 277.4206
338.25418 -334.14355 202.75934 -25.350159 176.19423 68.08618 132.63768 7.3604136
-8.019591 -185.01897 -132.56123 -287.56042 176.46872 -185.88556 48.057156 71.930374
207.71664 -15.614312 -175.35016 54.272274 131.09607 -7.394503 -48.82146 315.2076
132.0594 -51.087868 333.90256 -131.82033 286.46982 -315.4272 -283.91513 132.20224
-48.760765 132.06606 -198.20798 48.79282 7.313514 -49.156445 -114.934814 -262.3539
-279.00427 49.125443 -175.85928 22.602629 192.31667 191.99702 -110.71835 -176.06421
-25.725178 314.35184 -8.098382 15.505175 131.33044 132.22284 131.92036 -175.69069
97.18339 132.23431 -184.6508 7.1000953 110.25975 22.732237 -314.8627 90.3127
-193.7835 279.36063 132.45517 285.76303 -191.64688 186.53731 -315.6607 26.353981
218.51935 -330.3493 328.74564 -327.9448 282.39398 238.67073 288.04837 276.84412
-276.59592 246.88663 283.0199 -283.3957 -328.23257 280.792 -167.79141 362.5107
277.16357 -199.93138 -276.79562 282.76395 -282.05072 323.5485 276.44348 288.74246
277.22815 322.57773 329.151 332.3374 273.126 272.97604 -276.93732 377.7184
-274.9389 -281.69263 -327.96613 -333.29773 -276.53763 -378.01492 -280.37305 275.9251
-288.7917 334.75464 288.69534 -276.29623 -328.11008 -276.0797 219.13278 329.30768
281.8681 -326.6142 -247.22752 285.64038 282.35394 379.18414 -277.52374 -274.77383
216.12268 215.79068 -246.04001 -277.26407 364.82373 -333.64835 -281.93228 -272.9201
-276.25812 -275.6343 -276.02747 -277.16592 240.50565 -276.0947 323.52707 282.23416
246.01042 -275.03394 333.47095 237.42638 -215.81212 -282.53275 -276.84943 -289.11554
-215.2442 -322.46286 334.32678 -363.50266 705.72797 -604.07043 605.67535 -604.6373

fc2.bias f4 [10]
00000000: 49d7 54c3 f608 7941 957f 88c3 c024 3844
00000010: 7f73 9042 2304 90c3 3b03 8c43 a4c3 8342
00000020: 54df 44c3 4288 47c3
-212.84096 15.564688 -272.99673 736.5742 72.22558 -288.03232 280.02524 65.88211
-196.87238 -199.53226
