models/pretrained/mnist_fstlay_uni_const_lenet_w_acc_95.pt (torch_old, 248399 bytes, 10 tensors)

conv1.weight f4 [6, 1, 5, 5]
00000000: de5b 393e e2d4 34be d4d5 c23a f6d8 a23e
00000010: 3aff e9be 713a 8e3e 3730 47bd df35 993e
00000020: 6623 783e ebb3 90bb 2785 433e fde8 fcbc
00000030: 9602 183e 8fe7 173e 2dd7 d2ba 97b6 c53d
00000040: 0dc2 063e fd09 13bd 9023 ac3e 60b5 e3bd
00000050: 974d 36be c809 a2be 57aa 59bc 2088 e0bd
00000060: ecd2 7cbe 3e95 e43d f91f 3a3d 4987 24bb
00000070: 755c a5be 05cc fc3d 1b78 693e 473b a13e
00000080: dd7b 653e 2860 58be d034 1bbf 92fc 403d
00000090: db8f 983e d012 ff3c 23ab 31bd 2dce e4be
000000a0: e936 a83e 99dd 053d a269 853e 0c0c 0c3d
000000b0: c261 4abe 038c 053c 0090 4dbe aed2 ed3c
000000c0: 4de8 fe3d 3cf2 56bd 349e d0be 411f 2dbe
000000d0: 9a7d 03be 6640 5ebc d284 ef3e 0694 7f3e
000000e0: 87dd df3d 8a22 313c 7874 553e d99b 103e
000000f0: 369a 28be 43cf 9e3e cae0 e13e f511 843e
00000100: 87cb f33d 3831 193d 3609 133d b3ba 13be
00000110: 4505 65be 7b68 52be 3561 6b3e e458 a8bd
00000120: aa5d fc3d 265e 9d3d 5a86 973b f016 48bd
00000130: 20a9 303e 7ffc 673d c8af a6be 6432 6e3e
00000140: d014 bdbe fa8e 91be 3519 b03c 61c4 f7bd
00000150: 1f17 303e 40ae c3be 7a95 03bf bbca 683e
00000160: 2d7a 8bbd 2aed 9c3d 4bf9 0a3c abca 06bf
00000170: de33 d53b bab1 13bc 9431 85be c01c 37bc
00000180: d906 e5bd d172 883d b4ae d6bd 1e80 96bd
00000190: e028 c03d 6dd7 e63d 2b40 113e 5667 323e
000001a0: 35bd e0bd 4177 823c 7684 9d3e 7e3d d63d
000001b0: 963a 5d3e 4d56 963d 364f 3d3e f941 123f
000001c0: 284e 9d3e b541 38bd 632b a4bd b88d ca3d
000001d0: 2d35 893e 61c7 063e 33c6 76be 8810 62be
000001e0: 238b 7bbe a507 293e 0f07 993e adc5 a7be
000001f0: e5c2 d53c 7f6c 04be df57 a1be ce78 8ebd
00000200: 1dcf 353e 5fc0 613e 6964 18be 9b0c bd3d
00000210: f8b1 b53e fc00 ff3e 7365 163e 9d69 243e
00000220: c09f 843e 3df1 513c 9d63 04be 5daa 86be
00000230: 93bf b5bd 07ab f7bd e8f2 1abe b7c8 513e
00000240: c5c1 5c3e 866f 1dbe d48d 983d 5959 953d
00000250: 2882 8a3e fbce a13e
0.18101451 -0.17659333 0.0014864751 0.31806153 -0.45702535 0.27778962 -0.048629966 0.29923913
0.24232253 -0.004415979 0.19093762 -0.030872816 0.14844736 0.14834426 -0.0016085856 0.09653967
0.13159962 -0.035898197 0.33620882 -0.11118579 -0.17803036 -0.31648088 -0.013285241 -0.10963464
-0.24689835 0.11161278 0.045440648 -0.002510505 -0.32297102 0.12343601 0.22799723 0.31490538
0.22410531 -0.2113043 -0.6062746 0.04711587 0.29797253 0.0311369 -0.0433761 -0.4468855
0.32854393 0.032682035 0.26057154 0.034191176 -0.19763854 0.008151057 -0.20074463 0.029031124
0.124466516 -0.052477106 -0.407457 -0.16906454 -0.12840882 -0.0135651585 0.4678102 0.2495881
0.10930925 0.010811457 0.2084521 0.14121951 -0.16465077 0.31017503 0.44116813 0.2579495
0.11904054 0.037400454 0.035897456 -0.14426689 -0.22365291 -0.20547669 0.229863 -0.082200795
0.123225525 0.07683973 0.0046241703 -0.04885 0.17252016 0.056637283 -0.32555985 0.2326141
-0.3692994 -0.28429395 0.021496395 -0.12098003 0.1719632 -0.3821888 -0.5139996 0.22733586
-0.068104126 0.07662423 0.008482288 -0.52652997 0.006506427 -0.009014541 -0.26014388 -0.011176288
-0.11182947 0.066625245 -0.10482541 -0.07348655 0.09382796 0.11271558 0.14184634 0.17422232
-0.109735884 0.015926005 0.30765122 0.104609475 0.2160438 0.07340679 0.18487248 0.57131916
0.3072369 -0.044984538 -0.08016088 0.09890312 0.26798382 0.13161995 -0.24099045 -0.22076619
-0.24564795 0.16506822 0.29888198 -0.32768002 0.02609391 -0.12932013 -0.31512353 -0.069566354
0.17754789 0.2204604 -0.14882053 0.0923092 0.35487342 0.4980544 0.14687137 0.16055913
0.2590313 0.012813863 -0.12928624 -0.26301852 -0.088744305 -0.12093168 -0.15131724 0.20486723
0.21558292 -0.15374574 0.074489266 0.07292432 0.27052426 0.31603226

conv1.bias f4 [6]
00000000: ea2d 5cbf 2c66 90be 855a 14bf 0285 3abf
00000010: a23a 04bf 7de6 3fbf
-0.8600756 -0.2820295 -0.5795062 -0.72859204 -0.51651967 -0.7496107

conv2.weight f4 [16, 6, 5, 5]
00000000: daed 22bb e7e9 03be 0de3 9d3d 113d 50be
00000010: 7c3f f13d 9f01 a33b b481 fc3c 6ec3 553d
00000020: 222d b03c 0cc9 273e e5d1 81bc b077 313e
00000030: 00ee 063d 2ef5 48be 994e f7bd 096f 673e
00000040: 76d8 ae3d 979f 9f3b ea52 e0bd 545a 92bd
00000050: f559 023e 1821 aebd 1533 fabd 2fde 15be
00000060: 9d31 0e3e 49ca d1bc f704 f03d 70bd 91bd
00000070: 29f2 d9be 7d9a 9cbd 1f02 403e d4d3 0abe
00000080: b5af e33d 7549 c1be 077c 1e3e 163a 533d
00000090: 30fb c2bd a3d2 a83d 9a74 06be 309f b13d
000000a0: 86a9 2d3e d298 dd3d bfee 00be a692 02bd
000000b0: c716 59be 9839 07bf 9228 01be a3cf cb3b
000000c0: 81ea 66bc 6acb 3ebe e4f3 813d 1d0d ef3d
000000d0: 7ca5 8dbd 090c 623d 499d 123e 39f2 c4bd
000000e0: 4bac 02be e577 1a3e c622 603d 4809 953d
000000f0: 9075 843c cea5 22be 14a9 85bc a705 79bc
00000100: ff5c 1c3e 1655 d3bd 3e33 79bd cd80 54be
00000110: 86cc 10bb 68aa 95bd 3741 4abe 1e21 3ebd
00000120: 4537 debd ab36 823c 308d fcbc 56d7 07be
00000130: dde6 943d 47e2 d6bd 32ad f63c 2137 7b3e
00000140: 77e2 59bc b705 303e fe52 563e e56d cebe
00000150: ff40 7fbe f965 8e3d d8d2 69bc 4641 a7bc
00000160: 2af6 073e 3880 31be fd10 9ebe 80f1 eabd
00000170: 56f2 d5bd dc62 013e ccce 553e 3ed5 1abe
00000180: ee1b a23d b699 18be cfc3 913d 51ff 1bbe
00000190: 5f0b 913e cd0b 263d aec5 1dbe 826b ad3c
000001a0: 2b2f 633e 5db3 273e 6ee9 69bd b14b 263e
000001b0: b71e 943d 764c 44bc 208b 543d 0ba6 9cbe
000001c0: ea9e 853c 55df bbbd fabd 27bd a006 843d
000001d0: 2ee8 2e3e b308 863e d9b9 65bd 8c9c 00be
000001e0: 376c 8abe c6cb 7d3d d79d 6ebd 6cf8 e3bc
000001f0: 4eee a5bc 8794 553e 7196 c23e acd8 f93d
00000200: e30d c6bc 2e79 203d 7ed2 73be 9e90 86bc
00000210: 6d48 033d 9c47 5c3c b3ff 113d 87a3 6dbe
00000220: 4e8b 563d ceda ccbc be19 33be fd52 bcbd
00000230: 35fc febd 47fb 4b3e e564 0cbd 0f93 dfbd
00000240: 3bad bbbc 5752 16be 5c81 08be 0e7c 35be
00000250: 5a26 97bb 9a8e 95be 4239 bebe cb38 a0bd
00000260: b914 98bd 06ab 2e3e 4ea7 09be 3eec afbd
00000270: 4679 4f3d 22e4 3cbd 2d12 283d 00b8 dfbd
00000280: 742a debd 6aae c53d aa43 93bd 35a2 973d
00000290: 3293 20be 5067 8e3b 0ee0 6bbd ec8c 67bd
000002a0: 463f 653e 6c7b 083d bd92 4fbe afad 55bd
000002b0: d247 3cbe 341e 73bc e046 5b3e 3bd1 f6bb
000002c0: e1ed e73d 034f 43be 1a54 923d 3a23 f0bb
000002d0: a169 50bc b91a 50be 6514 3cbe 54b0 2a3e
000002e0: 0585 54be 5005 77be e9d5 b93d fe4e 653e
000002f0: 1738 d0bd 4dfd 71bd e031 ccbd 23e1 40be
00000300: afd2 90be 6871 a4bd 63ec 41bc 6e38 243e
00000310: e7ed 1abe 1c7b a33c b23d f2bd 3947 693d
00000320: cd66 34bd 7527 61bd 0b32 963e bb1a 25be
00000330: 02b1 b3bd 5530 60ba 9844 70bd b338 143e
00000340: 2950 e0bd bb9d 2c3d 0f2e 82be 21e5 32be
00000350: 88ba babd 5a72 363d d3e6 ffbd ea46 4e3e
00000360: 8f26 8dbd ee0e 29bd 3359 7a3d 3e92 c63c
00000370: dfc5 05bd f969 383e dece 143e 9ab8 283d
00000380: 2d27 6dbe 2941 63be 7271 8c3d beac 453d
00000390: 73f5 4cbe 1dd4 a4bc ff98 68bd a594 843d
000003a0: 814a 26be cce7 f0bc 9cf1 003e cf06 f23d
000003b0: 78a7 0abe 9f74 413e 791b 173e 4a23 853c
000003c0: f374 7b3e 32d7 51be e9b2 a0be de23 9c3e
000003d0: b57c 3ebd ec7f 363d 0540 9fbb c8fc 5cbe
000003e0: 0b71 0e3b b5b2 613d 1b91 7e3a e7a2 efbe
000003f0: 211c e2bb 53d8 223e 8853 e83d ecf0 073d
-0.002486101 -0.12882195 0.07709322 -0.20335795 0.11779687 0.0049745585 0.030823566 0.05218833
0.021505896 0.16385287 -0.015847156 0.17330813 0.03294182 -0.19624779 -0.12075538 0.2260095
0.085373804 0.0048713195 -0.109533146 -0.07146135 0.12729628 -0.08502406 -0.122167744 -0.14635538
0.13886113 -0.025609152 0.11719697 -0.071162105 -0.42567566 -0.07646654 0.18750809 -0.13557369
0.11117498 -0.37751356 0.15477 0.051569067 -0.095205665 0.08243301 -0.13130417 0.08672941
0.169592 0.10820164 -0.12591074 -0.031878136 -0.21200095 -0.52822256 -0.12613133 0.0062198206
-0.014093996 -0.18632284 0.063453466 0.11672423 -0.06916329 0.05518726 0.14317812 -0.09616513
-0.12761037 0.15084799 0.054720663 0.07277161 0.01616934 -0.15883562 -0.016315974 -0.0151991015
0.1526985 -0.10318963 -0.060839884 -0.20752259 -0.0022094562 -0.07307893 -0.1975144 -0.0464183
-0.108503856 0.015895208 -0.030829042 -0.13265738 0.07270596 -0.10492378 0.030111883 0.24532749
-0.013298622 0.1718968 0.20930097 -0.40318218 -0.24927138 0.069530435 -0.0142714605 -0.020416867
0.13277498 -0.17334068 -0.30872336 -0.11471844 -0.104466125 0.12635368 0.20879668 -0.15120408
0.079154834 -0.14902386 0.07117426 -0.15234114 0.28328988 0.040538598 -0.1540744 0.021169428
0.22185962 0.16377015 -0.05710738 0.16239811 0.07232421 -0.01198112 0.051890492 -0.3059543
0.016311128 -0.091734566 -0.04095266 0.06446576 0.17080757 0.26178512 -0.05608544 -0.12559718
-0.27035686 0.06196191 -0.058255997 -0.027828418 -0.020255234 0.2085744 0.38005403 0.1219953
-0.024176544 0.039178066 -0.23810765 -0.01642638 0.032051492 0.013444807 0.035644244 -0.23206912
0.052378945 -0.025006678 -0.17490289 -0.09195516 -0.124504484 0.19920073 -0.034275908 -0.10916721
-0.022909751 -0.14679848 -0.13330597 -0.17723104 -0.004612726 -0.2921036 -0.3715306 -0.078233324
-0.074258275 0.17057428 -0.13442728 -0.085899815 0.050652765 -0.046116002 0.04103296 -0.10923767
-0.10847941 0.096524075 -0.0719064 0.074039854 -0.1568115 0.004345812 -0.057586722 -0.056530878
0.22387418 0.03332083 -0.2027082 -0.05216759 -0.18386772 -0.014838744 0.21413755 -0.0075322664
0.11324669 -0.1907311 0.07144947 -0.007328418 -0.012720496 -0.20322694 -0.18367155 0.16668826
-0.20753868 -0.2412312 0.09074003 0.22393414 -0.10166948 -0.059079457 -0.099704504 -0.18835883
-0.2828574 -0.08029443 -0.011836144 0.16037151 -0.15129815 0.019956164 -0.11828174 0.05695269
-0.04404335 -0.05496927 0.29335055 -0.16123478 -0.08773996 -0.0008552124 -0.058659166 0.14474754
-0.10952789 0.04214261 -0.25425765 -0.17470218 -0.09117609 0.044542648 -0.12495198 0.20144239
-0.0689212 -0.041274004 0.061120223 0.024239656 -0.032659408 0.18009175 0.14532039 0.041191675
-0.23159476 -0.22192825 0.068575755 0.048260443 -0.20015506 -0.020120675 -0.056786533 0.06473664
-0.16239358 -0.029407404 0.12592167 0.11817705 -0.13540447 0.18892144 0.14756574 0.016252179
0.24556331 -0.20492247 -0.31386498 0.30496114 -0.04650565 0.04455559 -0.0048599266 -0.21580803
0.002173486 0.05510207 0.00097109535 -0.46803972 -0.006900326 0.15902834 0.11344057 0.033188745

conv2.bias f4 [16]
00000000: c915 83be d98b 82be dbf8 dabd 04b2 46be
00000010: 8e47 1bbe 1e0a b0be 9364 85be ad7e a3be
00000020: 5411 8cbe ea6b 51be 9867 9fbe 3a8a 83bd
00000030: 0333 75be 79cc a0be bfab 4abe d126 66be
-0.25602558 -0.2549732 -0.10691997 -0.19403845 -0.15164015 -0.3438272 -0.26053295 -0.31932583
-0.2735697 -0.20451322 -0.31133723 -0.06422849 -0.2394524 -0.31406 -0.19792078 -0.22475745

conv3.weight f4 [120, 16, 5, 5]
00000000: bf98 29bd 61e3 07bd 3ffa cb3b efa6 8ebd
00000010: d33a 29bd 56cd 313d bae3 2cbd 6d67 523d
00000020: 122b 73bc 551a df3c a699 5d3d 57f6 a7bb
00000030: 8f64 a53d f775 00be 0ee2 96bc 80d0 35bd
00000040: 87bc 8c3d cf30 84bd 0db6 0ebc bf9c 773c
00000050: 2d79 173d e677 7dbd 4605 6fbd f2c8 c8bd
00000060: f43c babc 2ed9 84bc f3d1 a6bc 8c8f 273b
00000070: d2b2 0d3d cfdf 213d 03a6 17bd acfe e8bb
00000080: e319 a8bb 2770 873c 6b71 e4bb e96a ddbc
00000090: 4d08 03bd 51f9 32bd 3b1c 44ba 237b 8d3d
000000a0: 2e13 81bd 2bfa c53c 40b2 ccbc 5494 283d
000000b0: ec0a 883c ef70 abbd 1c85 65bd c994 ffbc
000000c0: aeb8 0d3d f852 a33a 857e de3d 2ae3 28bc
000000d0: 5370 ae3b 69e2 0e3d 8f44 443d 099c 123d
000000e0: f245 ddbc 2a94 7fbd db53 a63d c970 8c3d
000000f0: fb99 913b 64ba 16bd 9369 b7bc 4ff5 37bd
00000100: 288b efbb 74c2 debb 658b f93c ecef b53c
00000110: 4767 83bc f587 e23b 6d96 2abd 1251 75bd
00000120: 72a8 063a 993f 0ebd c3e2 d9bc 4b52 953d
00000130: 4c84 33bd 07bc e73c 50ec f03c 557f d93b
00000140: 0c9f 3bbd 8b1c 45bd 7a57 54bd a19b abbd
00000150: 30b6 44bc 7105 6ebd 28f2 6c3d 1bb0 c33c
00000160: f280 293c b850 83bc d1ec b53b 359b a13d
00000170: d67e 893c 2508 c6bc b0d7 1ebc 2874 123d
00000180: 7352 92bc 4f91 f23c 7014 043d be5a b63d
00000190: aa5b f6bb 4986 8f3d 6a20 4fbd 7f4a bd3c
000001a0: 9f42 b13d a239 c33b 1a72 eeb9 612d 89bc
000001b0: b544 cabc 35c9 c4bc 3690 5e3d 14e8 4ebd
000001c0: a7e1 34bc 9e8f 8a3c 784e d33d e6f1 c8bb
000001d0: e009 2f3d 9eb8 5abc f5c8 4b3d b301 1abd
000001e0: 9bf4 ce3c 90dd 0fbd 1c53 de3a a440 473d
000001f0: 3de2 a6bb df09 cc3d 81a1 86bc 6f64 8a3c
00000200: 32c4 11bd 5a71 47bd 0ecb 2ebc 421a ee3c
00000210: 4713 0b3d 908d d83d e14c b2b9 9fd9 17bd
00000220: 5fd2 a73c 6c98 17bd 9674 fb3c 6740 bbbc
00000230: 7adb 893c 70a8 a8bc 38cd 6fbc 8779 84bc
00000240: 73f9 3abd b80e d43c 2155 84bd 1510 1abd
00000250: d763 51bd cb13 643d b1b6 e7bc b746 a33d
00000260: 8b31 7ebd 0e37 da3b e0f1 a23d ab09 43bc
00000270: 106e 39bd d48c db3a 0c9a 6bbb 5226 693d
00000280: 8830 d33c 98e6 51bd 4b36 bb3c 735a b3bd
00000290: 2afd e03c a554 8d3d 91a9 1e3d 03cd 00ba
000002a0: 6622 263d 16e0 8a3a d810 323b 67e8 94bd
000002b0: 14ce 93bd f93d 05bd 49c0 fbbd 2729 463d
000002c0: 551d b33c 55fc 07bb d692 fb3c c6b1 e6bc
000002d0: a645 e3bc 9fba 17bc e462 7b3c 2df4 c3ba
000002e0: cd7f ae3c 008a f2bc d1d6 9d3d 86a4 51bd
000002f0: 11c5 34bc 4990 68bd 18db c2bc 6f84 86bc
00000300: 930f 753d 5b75 adbd 6702 dcbc 7e6e ae3b
00000310: 8b33 653d 1180 4abc f404 a93c 2135 fdbc
00000320: 11b5 76bc d05e 203d a344 74bd 095f bf3c
00000330: 9ade d73c 79d9 ae3c eff7 963d 200c b2bc
00000340: a3f5 54bd e99d 36bb 752a dfbc ffc6 983c
00000350: 1f33 f23c 2f5c 073c 6482 48bc bddd b2bd
00000360: 50df ac3d 08c3 af3c 3fcd 91bc 125d f6bc
00000370: 3ba9 96bd 7016 753d 639e d9bc d7ca 323d
00000380: dbc8 05bd 8385 fa3c d60b d1bc 0b2f a0bd
00000390: fb84 0dbd b49d e53c d3eb cfbc 5d5c d7bd
000003a0: 3d4d 963c cd7b ac3b ac3a f73c 680d 413c
000003b0: b75b 793d 9049 4f3d c615 5e3b 4a2b d4bd
000003c0: b788 c3bc d816 e7bc 5868 9ebc 0db3 913c
000003d0: 5d4b d53c 9a60 133d e774 8dbd 14f6 15bc
000003e0: 6d1c e0bc b53a 893b d220 20bd b054 b83c
000003f0: 90ad b03d 3ed9 0c3d c6c8 913c f1c8 b3bb
-0.041405436 -0.03317583 0.0062249 -0.06965434 -0.041315865 0.043408714 -0.042209364 0.051368166
-0.014841812 0.027234236 0.05410161 -0.0051258015 0.08075821 -0.12545 -0.018418338 -0.044388294
0.06871896 -0.06454622 -0.0087103965 0.015113055 0.036980797 -0.061881922 -0.05835464 -0.09803952
-0.022734143 -0.01621684 -0.020363783 0.0025567738 0.034594364 0.03952008 -0.037023555 -0.0071104374
-0.005130039 0.01653297 -0.0069715283 -0.027028518 -0.031990338 -0.043694798 -0.00074810133 0.06908252
-0.06302486 0.024167141 -0.02498734 0.04115708 0.01660677 -0.0837115 -0.056035146 -0.031198876
0.034599952 0.001246064 0.108639754 -0.010308066 0.0053234487 0.03488389 0.047916945 0.035793338
-0.027010892 -0.06239716 0.08121463 0.068574496 0.0044434047 -0.03679885 -0.022389209 -0.04491168
-0.00731029 -0.006798083 0.030461976 0.02220913 -0.016040457 0.00691318 -0.041647363 -0.059891768
0.00051367946 -0.03472862 -0.026597386 0.07291087 -0.04382734 0.0282879 0.029409558 0.0066374936
-0.045805976 -0.048122924 -0.051841237 -0.08379293 -0.0120063275 -0.058110658 0.057848126 0.023887685
0.010345684 -0.0160297 0.0055519124 0.078909315 0.016784113 -0.024173805 -0.009694979 0.035755306
-0.01786158 0.029610304 0.032246053 0.089040264 -0.0075182514 0.07008035 -0.05056802 0.023106812
0.08655285 0.005957798 -0.0004547991 -0.016745271 -0.024690965 -0.024021724 0.05433675 -0.050514296
-0.011040128 0.016914185 0.10317701 -0.006132352 0.042734027 -0.01334968 0.049752194 -0.037599277
0.025263121 -0.035123408 0.0016962024 0.04864563 -0.0050928877 0.0996282 -0.016434433 0.016893594
-0.035587497 -0.048692085 -0.010668529 0.029065255 0.03395393 0.10573876 -0.00034008085 -0.037072774
0.020486055 -0.037010595 0.030695241 -0.022857858 0.016828287 -0.02058813 -0.01463633 -0.01617123
-0.04564805 0.025885925 -0.064615496 -0.037612993 -0.051120605 0.05568294 -0.028285356 0.07972472
-0.062058967 0.006659395 0.0795629 -0.0119041605 -0.04527098 0.0016750344 -0.0035949973 0.05692131
0.025779977 -0.051245302 0.022853037 -0.08757486 0.027464468 0.0690091 0.03873593 -0.00049133616
0.04056015 0.0010595347 0.0027170684 -0.0727089 -0.07217041 -0.032529805 -0.12292535 0.04837909
0.021864573 -0.0020749767 0.030709665 -0.02816094 -0.027743172 -0.0092608025 0.015343402 -0.0014950089
0.021301175 -0.02960682 0.077069886 -0.051182292 -0.011033312 -0.056778226 -0.023786113 -0.016420571
0.059829306 -0.084696494 -0.026856614 0.0053232303 0.05595736 -0.012359635 0.020632245 -0.030909123
-0.015057818 0.03915292 -0.05963577 0.023360746 0.026351262 0.021343933 0.07371508 -0.021734297
-0.05199207 -0.0027865118 -0.027241925 0.018649576 0.029565392 0.008261724 -0.012238119 -0.087336995
0.08441031 0.021455303 -0.017798064 -0.030073676 -0.07356497 0.05983585 -0.026564782 0.043650474
-0.032662254 0.030581241 -0.02551834 -0.07821473 -0.03455065 0.0280293 -0.025381004 -0.10515664
0.018347377 0.0052637816 0.030179344 0.011782981 0.06087848 0.050607264 0.003388749 -0.10359819
-0.023868902 -0.028209135 -0.019336864 0.017785573 0.026036913 0.0359808 -0.06907063 -0.009152908
-0.027357304 0.0041879066 -0.0390938 0.02250132 0.086268544 0.034386866 0.017795932 -0.0054866006

conv3.bias f4 [120]
00000000: 2ea1 cf3c 1a0d 143d 2640 12bb 0f17 823d
00000010: 39cb 203d 36cf c3bc 2c7a 06bd 2f0c ec3c
00000020: 22a2 bfbc 1fcd 2d3c 0a5f 87bc da4c 96bd
00000030: fbd3 c8bb ff85 d8bc 550a 843a 28fc 8e3b
00000040: 6b77 6a3d c049 80bd a60f 5dbc 7ab0 09bd
00000050: 52cc 80bd 72e3 ce3c 1942 293a 5ef3 f53b
00000060: d3f0 973d 622c c03c 140e f0bb 49c4 3b3d
00000070: 0d01 b3bd c8f4 eb3c fea2 cebc f6e3 0f3d
00000080: dd7c 76bc cf49 45bc 4153 05bd 37b5 35bd
00000090: 92ab 8c3c 6356 60bb af3d fc3b fc6b 97bd
000000a0: 8e2d 4cbd 19da 46bd baaf ae3c 7038 5d3d
000000b0: 90a7 6b3c 69dc 13bd bb56 013d db0b 3dba
000000c0: a8d5 c83c 5177 3dbc ff50 8bbc 3480 afbd
000000d0: 3c27 883b 090e 873c 1423 34bd 3c50 9c3c
000000e0: b004 cc3c 0c6a 803b b830 90bc f48e c6bb
000000f0: ed52 873d cfe9 003c 2928 33bd b4df d1bc
00000100: 8067 6cba 4139 393d bc62 38bc e9d4 793d
00000110: 52f4 0abb 2e6f a9bd 37fc 4ebc 5932 35bd
00000120: 90c3 923c 88e6 013d f3b4 af3c def6 82bd
00000130: 5a6d 863d 6ca3 98bd 325c 143d 32ba 91bd
00000140: 844e 6c3d 6e5a 9dbc fac4 743d f5a0 943c
00000150: 755c 003e 9cdb 293d 4f2e 913d 3ce8 bb3b
00000160: fe3f 25bd 6a70 2dbd af57 33bc 7841 b6bb
00000170: e290 e43c bd98 a7bc 81e6 8e3c dca1 043c
00000180: 1fd0 60bc ac82 00bd e592 0cbd d01a 0fbc
00000190: 0c61 6bbd 2681 a4bd 5349 a93b f976 0bbd
000001a0: 649f 3f3d b6aa aa3c 97f8 ad3c 6b95 b43d
000001b0: 55fc 7dbd 0fdf 573d 3f8e 583d 1e17 df3c
000001c0: 11ed 8a3d 81d2 30bd 6a6e 7a3b c42c c9bd
000001d0: 3ce7 bf3d 8364 3bbc 5eaf a33c 30fa 0fbd
0.025345411 0.036145307 -0.0022316067 0.06352054 0.03925631 -0.023902517 -0.032831356 0.028814403
-0.02339274 0.010607987 -0.01652481 -0.07338877 -0.0061287857 -0.026431082 0.001007388 0.0043635555
0.057242792 -0.06264067 -0.0134925 -0.033615567 -0.06288971 0.025254939 0.00064566877 0.0075058183
0.074189804 0.023458663 -0.007325897 0.04584149 -0.08740435 0.028803244 -0.025224205 0.03512951
-0.015044418 -0.012041523 -0.0325501 -0.044362273 0.017171655 -0.0034231178 0.007697783 -0.07393643
-0.04984813 -0.048547838 0.021324027 0.0540089 0.014383212 -0.03609887 0.031576853 -0.00072115444
0.024515942 -0.011564092 -0.017006395 -0.08569375 0.0041550677 0.016486185 -0.043978766 0.019081227
0.024904579 0.003918892 -0.017601356 -0.006059522 0.06607614 0.007868244 -0.04373947 -0.025619365
-0.0009018108 0.045220617 -0.011254009 0.060994063 -0.0021202755 -0.08273159 -0.012633375 -0.04423747
0.017915517 0.031713992 0.021448588 -0.063947424 0.06563826 -0.07453045 0.036220737 -0.07115592
0.057692066 -0.01920816 0.059758164 0.018143157 0.1253527 0.0414692 0.07088911 0.0057344716
-0.04034423 -0.042343535 -0.010946198 -0.0055620037 0.027901117 -0.020458573 0.017443897 0.008095231
-0.013721495 -0.03137462 -0.034319777 -0.00873442 -0.057465598 -0.080324456 0.0051662116 -0.034049008
0.046782866 0.020833354 0.021236701 0.08817562 -0.06200822 0.05270296 0.05287003 0.027232703
0.06783498 -0.043169502 0.0038212785 -0.098229915 0.09370276 -0.011437538 0.019981083 -0.035150707

fc1.weight f4 [84, 120]
00000000: 91aa 35bc a0d3 17be d25b 8d3d 135d 1e3d
00000010: 2a22 5cbd 76fd 913d 26af 7fbd 2114 cdbd
00000020: 1695 88bd af07 083c f9ad eb3d 1681 67be
00000030: e8f9 243b 1e8a 0cbe acb1 55bd e11a fdbb
00000040: 73ef 1b3e 69f4 13bd b09f 1abd 5b06 023e
00000050: 9f01 babd 69e9 b83d c489 85bd 0f10 2bbd
00000060: 6f2e 943d 916a 003d 3f8f e6bc 384c 483d
00000070: ad54 f7bd 6b49 8f3c 326f 00bd 2917 f4bb
00000080: 265c 04bd f371 4abd 2d1a 6cbd 0638 1e3d
00000090: 36eb 19bd da49 88bd 0d60 9ebd d3db 29bd
000000a0: 4e1b 08be 3bf5 103e f04e 5f3d 0ae2 973b
000000b0: 2160 50bd cda6 02be 2fa3 42bc c36e 1fbd
000000c0: 0004 c63c 6915 e1bd 19b5 ad3d 1d4e 33be
000000d0: 1420 30be 9874 88bd ca3f b3bd 23a1 0d3d
000000e0: 485f dfbd dda7 f2bc d996 b23d 3ec6 9c3d
000000f0: b0d8 d9bd 499c d03d 9766 c3bc a18e 363d
00000100: 50fa 91bd 6915 3f3d 3405 97bd f606 013e
00000110: ab35 80bd 91d0 4e3d 354b c2bc d2b0 87bd
00000120: dc3a 26bd 0104 0fbd ed4b 68bd cec4 11be
00000130: ee56 eebc 6892 51bd b355 e3bd 8b4f 21bd
00000140: 8717 b33d bc3b dabd d821 ce3d e618 cd3a
00000150: 0852 b63d b567 ba3c 3e1c 8ebc baf7 21bd
00000160: bc46 873d 86b7 08bd f07d c53d 7418 e7bd
00000170: 0707 ac3d 01b1 63bd 8f2d 93bd f007 33bd
00000180: b506 03bd 81c1 a03d 5fc2 7f3c d1d3 383d
00000190: 9828 753d 1555 873d 4d10 86bd 8c36 353d
000001a0: 3ac4 563d 79d1 cd3d 1e3c 383d 3d0b b13d
000001b0: 1ec1 c93d f869 783d 9636 403d 9f48 04bc
000001c0: a6a6 15be 8c5a b7bc 4386 01bd 24d6 03be
000001d0: 422e d0bc 53fd 93ba 0e6a f33c d645 8cbd
000001e0: b08b df3d 6e90 ccbc 76f4 01bd 49ca 76bd
000001f0: 4436 e23c c632 ac3d 1ad2 9d3b 2faa 0fbe
00000200: db9f 853d 2f69 24be 36b8 7dba 3292 f23c
00000210: b2f6 0d3d c2b9 0fbd 22bb cbbd 6f7e b33c
00000220: a103 963d fbdf 02bd 7935 033c dfac fb3d
00000230: a10e 34bd 561a e3bd 8e7e e9bc 4cba 76bd
00000240: ba4c 143d f7f0 913d 7501 c5bd 5bef 1abd
00000250: 008a bd3d 1e7d 993d 17dd 12be 69ef 86bc
00000260: 4404 41be 484d 0a3e fa30 b73c 5a0c 563e
00000270: 3223 11be 7a94 30be 2960 80bd fb4c af3d
00000280: 9736 d13d 9820 9c3e 4360 e4bd db6d f3bd
00000290: 1217 bdbc 76fa 17bd 2ded fc3d f393 4bbd
000002a0: 3c41 193e 67ce 87bd 902a 393e 4cbe 563b
000002b0: cd9a 0ebe 5a00 63bd f77c 04bd 4d4f 703c
000002c0: 134d 8e3a 9c56 923d 9ec1 a1bd 2156 2f3d
000002d0: b116 613d 1226 c93d 7c0b 49bd b5aa e2bd
000002e0: 5431 9a3d 2786 613d 0129 48bd 033e c2bd
000002f0: f449 363d e4ef 68bd 067f 9fbc 5f0b 383d
00000300: 3efc 8c3d 48cc d7bd a8b2 a1bc 5408 57be
00000310: 0e11 b7bd a1a7 a13d c2e9 18be 142d 5ebd
00000320: 083f 63bd 0157 a9bd dd5e 84bd 1a68 4a3c
00000330: 8283 3fbb 77ae 853d 05c1 6cbd 8d2b 2e3d
00000340: ba72 e73c 93f7 39bd 7b52 173e 0165 2abe
00000350: c366 74bc d7e5 0f3d cbff aabd 3586 ce3c
00000360: d2ad 08be 4e9c 793d aa4d 68be 3199 c2bd
00000370: b57e df3d 3179 f03d af00 33be aaec 8bbc
00000380: 45ab 0bbd 4935 c5bd 5f32 11be 407a 033e
00000390: 0e80 3f3c 930e 8c3d 3825 ca3d 4101 233d
000003a0: 6c3a 96bd 207f 15bd ec38 18be d658 0a3c
000003b0: ba3f 0bbb e1b6 4d3d 9799 10bc 7d75 f8bc
000003c0: 03b5 94bc 010e 503c 607d 01be 0d37 ee3c
000003d0: 14c4 d6bd c525 efbd dc86 94bd b95e 173d
000003e0: 05ab b4bd b137 f33d fd68 a93d efc7 b33d
000003f0: c648 d5bd 0c2d 103d 8aa7 423e 797a a03d
-0.0110880295 -0.14826822 0.06902279 0.03866298 -0.05374352 0.07128422 -0.062422894 -0.10013605
-0.06669061 0.008302613 0.11507792 -0.22607836 0.002517337 -0.13724563 -0.052171394 -0.0077241515
0.15228061 -0.03612176 -0.037749946 0.12697737 -0.090823404 0.090288945 -0.06520417 -0.04176336
0.07235419 0.03135163 -0.028144477 0.048900813 -0.120766975 0.017491063 -0.031356044 -0.00744905
-0.032314442 -0.049425077 -0.05764215 0.038627647 -0.03757783 -0.06654711 -0.07733164 -0.041469406
-0.13291666 0.14156048 0.05451864 0.0046351003 -0.050872926 -0.12758942 -0.011879726 -0.03892399
0.02417183 -0.10990412 0.08481807 -0.17510267 -0.17199737 -0.066628635 -0.08752401 0.0345775
-0.10906845 -0.02962106 0.08720178 0.07654999 -0.10637033 0.10186059 -0.02385263 0.044569615
-0.071278214 0.046651278 -0.07374039 0.12600312 -0.06260236 0.050491873 -0.023717502 -0.06625523
-0.040583476 -0.034915928 -0.056713033 -0.14235231 -0.029094186 -0.051165015 -0.1110033 -0.0393825
0.08744722 -0.10655925 0.10065049 0.0015647679 0.08902365 0.02275453 -0.017347451 -0.03954289
0.066052884 -0.033378147 0.09643161 -0.11283961 0.08399778 -0.055588726 -0.07186424 -0.04370874
-0.03198882 0.07849408 0.0156103065 0.04512388 0.059853166 0.06608025 -0.06546078 0.044241473
0.05243323 0.10049719 0.044979207 0.08644722 0.09851287 0.060647935 0.046927057 -0.008073955
-0.14614353 -0.022382043 -0.031622183 -0.12874657 -0.025412682 -0.0011290706 0.029713657 -0.06849258
0.10915315 -0.024971213 -0.031727277 -0.060251508 0.027613766 0.08408122 0.004816306 -0.14029764
0.06524631 -0.1605575 -0.00096786337 0.029610727 0.034659095 -0.03508926 -0.09947802 0.021910874
0.07324911 -0.031951886 0.008008354 0.12288832 -0.043959264 -0.110890076 -0.028502729 -0.06023626
0.036205985 0.071260385 -0.096194185 -0.037825923 0.09254837 0.07494567 -0.14342152 -0.016471582
-0.18849283 0.13506043 0.022362221 0.20903149 -0.14173582 -0.1724414 -0.06268341 0.08559605
0.1021549 0.30493617 -0.11151173 -0.11886188 -0.02308229 -0.037104093 0.12349925 -0.049701642
0.14966291 -0.06631165 0.18082643 0.0032767234 -0.1392624 -0.055420257 -0.03234574 0.014667344
0.001085671 0.07145426 -0.07898258 0.04280675 0.05495328 0.098217145 -0.049083218 -0.11067716
0.0752894 0.05505958 -0.04886723 -0.09484484 0.04450412 -0.056869403 -0.01946975 0.04493272
0.06884049 -0.105370104 -0.01973851 -0.2099927 -0.089388 0.07893301 -0.14932922 -0.05424221
-0.055480033 -0.08268548 -0.06463406 0.012353921 -0.0029222672 0.06527417 -0.057801265 0.042522002
0.028252948 -0.04540212 0.14777558 -0.16640092 -0.014917078 0.0351313 -0.0834957 0.02521048
-0.13347557 0.06094008 -0.22685876 -0.09501875 0.10912839 0.117418654 -0.1748073 -0.017080624
-0.034098882 -0.09629304 -0.14179371 0.12839603 0.011688245 0.06838717 0.0987038 0.039796118
-0.07335362 -0.03649819 -0.14865464 0.008444032 -0.00212477 0.050223235 -0.008825681 -0.03032946
-0.01815272 0.012698651 -0.12645483 0.029078985 -0.10486618 -0.11677126 -0.07252285 0.03695557
-0.08821682 0.11875857 0.08271978 0.08778369 -0.10414271 0.03519921 0.19009224 0.0783586

fc1.bias f4 [84]
00000000: 3d95 0e3b 8a92 543b 7ea2 683b 5ea2 213b
00000010: fea8 2c3d 144d 023e 5dcd ca3d dba0 da3d
00000020: 71a6 d03b e79a 2c3d c4b2 f6bc f706 2c3d
00000030: 22b6 123e c934 8bbd 0b50 983d a04f 28bb
00000040: 167a 9b3c d19c 30bd b8d4 de3b d0db ba3c
00000050: 7aff 47bd 6996 183d dffe 613d 4dce 1ebd
00000060: 865c 573d 81a8 2a3c 896f 233d c431 37bc
00000070: 7948 34bc b1f6 513d 547e 33bc 64f1 2a3d
00000080: 6afe b0bd 2f83 f6bc 8fe8 3b3c f31a b2bc
00000090: 57f8 82bd 6b5a 58bd e1d0 ec3c 4ace 17bd
000000a0: e3b0 853d 8d1a 4ebd 9d49 0ebd 9f0f 8fbc
000000b0: 9d05 533c 244a 1bbb 22c3 a93c b21a 0f3d
000000c0: 2dda 9a3b dc3f 1e3c b6a7 953d 74e4 d63c
000000d0: 2e8e a53d 6310 9bbd e553 c2bd b353 f93c
000000e0: 64b2 ef3c 77db 06bd 8039 fbbc 331d 84bd
000000f0: 0d76 83bb 6604 c43d 9b8f 903c 4444 383d
00000100: 7c08 f4ba 8172 b8bd ba4e cf3b 977e 323c
00000110: 686e 813d 1cb7 34bc 6312 92bc 375a 843d
00000120: a352 b33d e913 5cbc 8cab adbc 1269 6f3c
00000130: d957 14bd 1f43 3ebd e0bb f6bc aa14 2b3d
00000140: c73c abbd 71b1 9dbd 5150 40bd 50ae 98bb
0.0021756433 0.0032435977 0.0035497244 0.0024663429 0.04215335 0.12724715 0.09902451 0.10675212
0.0063674976 0.042139914 -0.030114539 0.04199883 0.1432729 -0.06797177 0.07437142 -0.0025682226
0.018979114 -0.0431183 0.0068002604 0.022809893 -0.048827626 0.037252817 0.055174705 -0.038770963
0.05257847 0.010416151 0.03990129 -0.011181299 -0.011003607 0.051260654 -0.010955412 0.041734114
-0.08642276 -0.03009185 0.0114690205 -0.021741366 -0.06395023 -0.052820604 0.028908195 -0.037061967
0.06527879 -0.05031829 -0.03473817 -0.017463503 0.012879756 -0.0023695314 0.02072293 0.034937568
0.0047257156 0.00965878 0.07307379 0.026231982 0.08083759 -0.07571485 -0.09488658 0.030435419
0.029259868 -0.03292414 -0.030667067 -0.06450882 -0.0040118755 0.095711514 0.017646601 0.04498698
-0.0018618251 -0.09006215 0.0063265236 0.010894439 0.063198864 -0.011029985 -0.017831033 0.064625196
0.08755996 -0.013432481 -0.021199964 0.014612453 -0.03621659 -0.04645073 -0.030118883 0.041767754
-0.08361202 -0.0769986 -0.046951596 -0.0046594515

fc2.weight f4 [10, 84]
00000000: 008a 39be 20b5 ffbe 73b5 df3e c2ba ff3d
00000010: 6a7c ad3e d437 233e 353b c53e a5e7 a2bd
00000020: db3b 32bf 9b61 a0bd 07d9 ddbd 63aa 44bc
00000030: 7b5c 463e 0960 bdbc 777e 92bd f288 a83e
00000040: 823e a8be 5f5a debd af88 9bbe d35a a53e
00000050: d0b2 cebe afa0 01bf 0ebc ccbe de11 e33e
00000060: fc1d f2bb 827e d3be e0ea ccbe 1fd4 a03c
00000070: b711 e23e e6a4 76be 66d1 073e ebd4 b93e
00000080: bafe 82be 8b1d 503d 1ba3 7a3e c457 5e3e
00000090: ad84 78be 1e73 57be ca5a 5ebe afff abbe
000000a0: 8889 cabe ebb6 023f 4eeb 81be 8bf6 c5be
000000b0: c3c8 36bb 8764 f3be daf8 833e 690f e93e
000000c0: a0c4 9c3e 5098 44be a0a8 bbbe e91d ea3e
000000d0: 94cd febe 489f 85be 43d0 94be b71d ebbe
000000e0: 49ca 813e 7400 fc3e a870 9a3e ea3d 033f
000000f0: fcc6 123f 8a3a 833d 97d7 59be c97a d43e
00000100: 6ab7 8abe 2c9c 83bd a895 773e 6629 183e
00000110: 177e c83e a9f1 b9be aca1 7abe 8f30 953e
00000120: 57b8 e53e 15b5 99be 7ef3 f7be 806c 24bd
00000130: 09bb db3e ea57 5d3e c9b7 c0be f78b b8be
00000140: 7e95 8cbe ff08 913e 378e 0abf 7407 c23e
00000150: 108e d5be 2c2a 873e a947 2bbe a972 bebe
00000160: e45a f2bd 584e 3a3e 3a4a 91bd 6dfd f13e
00000170: 4fd9 453e ca7b bc3e 28bf 0ebf 6bf8 f73e
00000180: f50b 773e f1d1 efbe 742e 0b3f 99c7 08bf
00000190: f793 41be 1a75 393e e583 af3e 558b 41be
000001a0: 44c3 76be 0a9e 543e d9c0 593e 935f 50be
000001b0: c043 dc3e 3e38 e2bb 8188 9b3e 360a 87be
000001c0: a92c 943e 3891 a53e c5ea 9ebe 319d 043f
000001d0: 6d86 d23e 8b09 debe f973 36be d629 893e
000001e0: 67e1 ae3e bba8 b63e decf 623e 870b 7abe
000001f0: 425b ba3d 4e4b adbe 9f3e 2f3e fb8e cc3d
00000200: 096c 75be 87c5 c43e 9fac 8ebe 5ecd bc3e
00000210: 4735 3b3e 3a12 933e 7d0d 773e 62b0 b8be
00000220: da35 903e 7c45 dd3d aa56 ddbe 80a3 2f3b
00000230: a87f 44be bec8 a3be 697d 90be deba 8a3e
00000240: d20c 40be bbe3 a23e c62b 29be de06 a5be
00000250: 18b5 aa3e c01d cf3e ef9f 103f 52a3 a23e
00000260: 24b4 0c3f e9a4 813e 1834 31be 8bda 7bbd
00000270: 7caa 7dbd d714 803e ad50 eebd 80f1 40bd
00000280: 319a ecbe 9cf0 ddbe f290 6e3e 8c39 1d3f
00000290: 0f1d 4e3e b090 a7bd 504d 98be 9ca6 cbbe
000002a0: 9212 debd e51f 27bf 89f1 413f a664 8abe
000002b0: ee5d 5f3e b611 a23e c4dc 553e 3cb9 de3e
000002c0: 040e 313e 3c6f db3e 92cc 1a3f 7b3f bcbd
000002d0: 7a1e 68bc 9bcc b93e d501 6fbe a8db 933e
000002e0: d6e9 ec3e 20cd 7f3e 22b0 c5be 5bd6 b33d
000002f0: c6ff dfbe b44a 973e f003 163f b2fd 3a3e
00000300: ed8b 713e 5a50 6b3e 7cf6 ab3e 15da 183f
00000310: 28a7 533e 6aeb 003f 68a8 fdbe 7063 a5be
00000320: ba01 d9be f125 9ebe d7b1 26be 29fd dfbe
00000330: 340d b4be d304 05bf df9e 14bf b4d8 f23e
00000340: f1cf 3fbe f246 103d c5ca 103f 0c0f 163e
00000350: da3e 96be af12 0dbe 67b4 f93e fdc9 a03e
00000360: e572 d23e 4b2d e5be c9c2 063e f49b 343f
00000370: 2c04 cf3a bc97 c13e a4bb fdbe 4204 3e3e
00000380: 6af5 a23d 08af e5bc 9456 ebbe 8f29 e8be
00000390: 9dde f83e eef8 833e 866c 32bf 6f41 20bf
000003a0: e6b0 f1bd 23ba 87be ab3b 9dbe 2ee4 c5be
000003b0: 0fe8 3d3f f0e5 6dbb 9439 fa3e 0a27 713d
000003c0: 05a9 4b3e a7f1 05be 57b4 ad3e 3cda 0e3e
000003d0: 827d 8dbe 3d6d b4be 4870 58be 08d7 3ebe
000003e0: 55ec 09bf 2410 87be 1c3b ef3e f8cd 22bf
000003f0: bc96 053f f9fa 8e3e 36df fbbe ee2c fabe
-0.18119049 -0.49942875 0.43693122 0.12486793 0.33883983 0.15939265 0.38521734 -0.07954339
-0.6962258 -0.07831117 -0.1083241 -0.012003514 0.19371216 -0.023117082 -0.071530275 0.3291698
-0.3286019 -0.10857081 -0.3037772 0.32295856 -0.40370798 -0.5063581 -0.39987224 0.4434957
-0.0073888283 -0.41307455 -0.40022945 0.019632397 0.4415414 -0.24086341 0.13263473 0.36295256
-0.25584966 0.050809424 0.24476282 0.21713167 -0.24269362 -0.21040007 -0.21714321 -0.3359351
-0.39558053 0.5106036 -0.25374836 -0.3866466 -0.002789066 -0.47537634 0.25775796 0.4551957
0.30618763 -0.19198728 -0.36652088 0.45725945 -0.4976622 -0.26098084 -0.2906514 -0.45921108
0.25349644 0.49219096 0.30164075 0.5126635 0.57334876 0.0640765 -0.21273647 0.41499928
-0.2709306 -0.06426272 0.24178183 0.14859542 0.391587 -0.36317185 -0.24475735 0.2913861
0.44867203 -0.30020967 -0.48427957 -0.040142536 0.42916134 0.21615568 -0.37640217 -0.36044285
-0.27457803 0.28327176 -0.5412325 0.3789631 -0.41709948 0.26399362 -0.16726555 -0.37196854
-0.11833742 0.18193948 -0.07094236 0.4726366 0.19321178 0.36813194 -0.5576043 0.48431715
0.24125655 -0.4683986 0.54367757 -0.5342956 -0.189041 0.18111077 0.34280315 -0.18900807
-0.24097925 0.20763412 0.21264972 -0.20348959 0.4302044 -0.0069036772 0.30377582 -0.26374978
0.28940323 0.32337356 -0.3103849 0.51802355 0.41118184 -0.43366656 -0.17817678 0.2678973
0.34156343 0.35675606 0.22149608 -0.2441846 0.09099437 -0.33846515 0.17113732 0.09988209
-0.23966993 0.3843195 -0.27866074 0.36875433 0.18282042 0.28724843 0.24126239 -0.3607207
0.28166085 0.10804269 -0.43230182 0.0026800334 -0.19189322 -0.31989092 -0.2822068 0.27095693
-0.1875489 0.3181437 -0.16520604 -0.32231802 0.3334129 0.40452385 0.5649404 0.3176523
0.5496237 0.2532113 -0.17305028 -0.061487716 -0.061930165 0.250159 -0.116364814 -0.047105312
-0.4621139 -0.43347633 0.2329748 0.61415935 0.20128272 -0.08181894 -0.29746485 -0.3977555
-0.10843386 -0.6528304 0.7575918 -0.27029914 0.21813175 0.31654137 0.20884997 0.43500698
0.17290503 0.42858303 0.604684 -0.091917954 -0.014167422 0.36288914 -0.23340543 0.28878522
0.46272153 0.24980593 -0.3861094 0.087811194 -0.43749827 0.2954918 0.5859976 0.1826084
0.23588534 0.2297987 0.3358649 0.59707767 0.20669234 0.50359213 -0.49542546 -0.32302427
-0.4238413 -0.30888322 -0.16278778 -0.43747833 -0.35166323 -0.51960486 -0.5805492 0.47430956
-0.18731667 0.03522391 0.565594 0.14654177 -0.29344827 -0.13776658 0.4877045 0.31404105
0.41103283 -0.44761118 0.13160242 0.70550466 0.001579409 0.37811077 -0.4955722 0.18556312
0.07956965 -0.028037563 -0.4596449 -0.45344207 0.4860734 0.25775856 -0.69696844 -0.62599844
-0.11801319 -0.265092 -0.30709586 -0.3865065 0.7418222 -0.0036300384 0.48872054 0.05887512
0.19888695 -0.13080464 0.3392665 0.13950437 -0.27634817 -0.35239592 -0.21136582 -0.18636715
-0.5387624 -0.26379502 0.46724784 -0.63595533 0.5218313 0.27925852 -0.49193734 -0.48862404

fc2.bias f4 [10]
00000000: f24d a9bd 554b 273d 8595 133e e519 47bd
00000010: 1866 77bd 8a3f a13d ed8b 5ebc 0681 1a3e
00000020: 852d 3dbe 82de a7bc
-0.0826682 0.040843327 0.14412506 -0.04860868 -0.0604001 0.07873447 -0.013583166 0.15088281
-0.18474396 -0.020491842
