models/pretrained/U2_of_10_net_w_acc_95.pt (torch_old, 248437 bytes, 10 tensors)

conv1.weight f4 [6, 1, 5, 5]
000000 26 be 5c 3e d9 11 40 be 57 cb f9 3d 86 0d e5 3d
       0.21556911 -0.18756808 0.12196987 0.1118422
000010 92 bd cc be 6c 72 59 3e 5b 35 17 be 26 87 96 3e
       -0.3998838 0.21235055 -0.14766447 0.29399985
000020 50 7e 35 3e 53 a6 35 be 8c 9a cc 3c b9 17 18 3e
       0.17723966 -0.17739229 0.024976037 0.148528
000030 82 c5 99 3e 52 58 19 be 29 29 0c be 2a c6 b7 bc
       0.300335 -0.14975098 -0.13687576 -0.02243336
000040 22 5a 08 bd 34 01 e9 3a 72 e5 8c 3e 21 31 8b 3d
       -0.033289082 0.0017776848 0.27518803 0.0679648
000050 cc b5 30 be c2 54 ca be 6f 1b 25 be 47 ee 54 be
       -0.1725685 -0.3951779 -0.16123746 -0.2079402
000060 b1 23 b8 be 51 74 26 3e 27 20 a9 3e 25 8f fc 3d
       -0.3596473 0.16255309 0.33032343 0.1233199
000070 52 6f bc be 90 41 2c bd 9a b7 24 3e 20 90 a0 3e
       -0.3680368 -0.042054713 0.16085663 0.3135996
000080 ff 44 65 3e a8 37 e6 be 60 d8 ba be 44 29 7b bd
       0.22389601 -0.44964337 -0.36493206 -0.06131865
000090 57 4b b3 3e 83 3c cf 3d 6b b3 0d 3d 39 95 88 be
       0.35018417 0.101189636 0.034594934 -0.26676348
0000a0 b0 ad 45 3e 90 45 8e bb 73 1a aa 3e 34 7e 22 3e
       0.19304538 -0.0043417886 0.33223304 0.15868455
0000b0 60 d0 74 be 0c 2d aa 3d fc 4e 9e 3d 3e ad 0c 3e
       -0.23907614 0.08309373 0.07729909 0.13737962
0000c0 e2 4d 90 3c 7e 54 1f bc 0e 1a a4 be 31 af 93 be
       0.017615262 -0.009724734 -0.32051128 -0.28844598
0000d0 3c fb b3 bd f2 a1 1e be 4d 73 b0 3e 8e 41 b5 3d
       -0.087881535 -0.15491465 0.34462968 0.08850394
0000e0 5a 02 bb 3d 10 94 80 3d 85 dc 8d 3e cd e6 9a 3e
       0.09131308 0.06278241 0.27707306 0.30254212
0000f0 17 d2 93 be 27 af 2d 3e 54 b7 8f 3e 09 56 ab 3e
       -0.28871223 0.16961347 0.28069556 0.33464077
000100 91 63 30 be d7 7c 88 bc ed e8 21 3d dd 45 1b 3e
       -0.17225482 -0.01666109 0.039528776 0.1516337
000110 7b e5 2b be c6 05 8a be 58 50 76 3e 35 23 b5 bc
       -0.16786759 -0.2695753 0.24054086 -0.022111515
000120 b8 9e 85 3e 45 18 57 3d b8 17 8d 3e 21 15 98 3d
       0.26097655 0.05251338 0.27557158 0.07425905
000130 36 70 81 3d 69 32 6c 3c 17 10 14 be 35 2c bf 3e
       0.06320231 0.014416316 -0.14459263 0.37338415
000140 b8 cc 4c be ad 19 d0 be 2c 63 16 bd a9 79 4c be
       -0.19999969 -0.4064459 -0.03671567 -0.19968285
000150 67 f2 9c 3e 2b 6a 96 be 9a db f8 be 5e 95 ba 3d
       0.30653688 -0.29377875 -0.48605043 0.09110521
000160 ca 11 91 3c 67 4a d0 3d f7 5c fa bc 30 85 ad be
       0.017708678 0.10170441 -0.030561907 -0.33890676
000170 2b 87 ec 3d 6c 24 0a 3e 11 89 81 be be e1 ff bb
       0.11549219 0.13490456 -0.25299886 -0.007808893
000180 b8 70 5d 3d d6 33 0a 3c 0e 5f 51 be bc 2e c7 bd
       0.054062575 0.00843521 -0.20446417 -0.09725711
000190 cf e2 68 3e 5f 8b e4 3d 1b 1c a8 3e 66 60 4d 3e
       0.2274277 0.111593954 0.32833943 0.20056304
0001a0 bc 6e 21 be db 02 7d be b6 e8 af 3e e1 c9 6f 3e
       -0.15764898 -0.2470812 0.34357232 0.23416854
0001b0 0b 4a 50 3e 40 f7 16 3e b2 e1 3d 3e e9 d8 d1 3e
       0.20340745 0.14742756 0.18543127 0.40985802
0001c0 42 74 00 3f 43 8a 93 3d c7 25 80 3d 41 ec b1 3a
       0.50177395 0.07204106 0.062572055 0.0013574437
0001d0 e3 d8 9d 3e dd f7 b1 3e ec 28 77 bd 49 60 9d 3d
       0.30829534 0.34759417 -0.06034176 0.076843806
0001e0 9e 79 d0 bd 4f 3f e5 3d 1c 0c 1f 3e 19 44 ed bd
       -0.10179447 0.11193716 0.15531963 -0.11585254
0001f0 2f fe f9 bc d3 f0 46 be aa 2d ae be 35 18 9c bd
       -0.030516712 -0.19427805 -0.34019214 -0.076218046
000200 58 af bc 3e c7 ad 7c 3e f0 9d ef bd bc 8f a8 bd
       0.36852527 0.24675666 -0.11700046 -0.0823054
000210 97 b4 02 3e 69 7e 9f 3e ba 4a 84 3e af 06 16 3e
       0.12764202 0.3115113 0.25838262 0.14650987
000220 ef 8e 90 3e c0 09 d7 3d 2d 5c 01 be e0 5c 1c be
       0.2823405 0.104999065 -0.12632819 -0.15269804
000230 0a fd 5f be 71 b7 dd 3c 34 56 73 be b4 df dd 3d
       -0.2187387 0.02706501 -0.23763353 0.108336836
000240 3e 86 1f 3e 64 45 d0 bd b6 3d e4 3c 03 97 56 3d
       0.15578553 -0.10169485 0.027861457 0.05239011
000250 38 46 ba 3e 95 1d 87 3e
       0.36381698 0.26389757

conv1.bias f4 [6]
000000 f1 af 51 bf b2 10 f3 be 96 02 ef be 13 e1 13 bf
       -0.8190909 -0.47473675 -0.4668166 -0.5776531
000010 11 a9 c6 be f2 63 3e bf
       -0.38800862 -0.74371254

conv2.weight f4 [16, 6, 5, 5]
000000 95 35 43 bb ae 62 68 bc 4f e4 02 3e 4f fd 3a 3e
       -0.0029786576 -0.014183683 0.12782405 0.18260692
000010 67 34 45 be 06 34 eb bd 55 93 97 3c 2b 86 96 3d
       -0.19258271 -0.11484532 0.01850287 0.07349809
000020 dc b7 a5 3d 56 7b ec bd c5 bf a8 bd 0a b1 b6 3d
       0.08091709 -0.11546962 -0.08239702 0.08920486
000030 fc d2 42 3e 11 33 19 3e 19 9f b1 bc f1 4d 19 3e
       0.19025797 0.14960887 -0.021682309 0.14971139
000040 57 76 bf bc 6d ad a7 bc 77 86 9b 3d 30 ce 5a 3e
       -0.023371859 -0.020468438 0.075940065 0.21367717
000050 5a 55 32 3d 88 05 39 be f2 21 5b bd 94 b7 d8 bd
       0.04353843 -0.18068516 -0.05349917 -0.1058189
000060 10 a4 91 3d 84 59 7e 3d 4d cb 65 be 0a ba 03 3e
       0.071113706 0.062097088 -0.22440834 0.12863937
000070 a0 16 1d be 3f a6 ce 3d 5c af ff b9 44 28 33 be
       -0.15340662 0.10090303 -0.00048768043 -0.17495829
000080 d2 d0 c6 bc 16 1a 1d be 0f e4 bb ba c6 75 a7 3d
       -0.024269495 -0.15341982 -0.0014334935 0.081767604
000090 6d e3 b6 3d 86 7e 89 3d 5d 36 54 3d 7e ec 8e bd
       0.08930097 0.067135856 0.051809657 -0.06978701
0000a0 7a a0 91 3e ff e8 45 3e 38 41 11 3e f3 40 3e bd
       0.28442746 0.19327162 0.14185035 -0.04644866
0000b0 65 21 4c 3e d4 e0 0f be d7 63 0e 3d 95 d1 3b be
       0.19934614 -0.14050609 0.034763183 -0.18341668
0000c0 42 2f 77 3d 89 ee 89 be 86 4c af 3d 5f 5d 12 3e
       0.060347803 -0.269398 0.085595176 0.14293431
0000d0 9a a8 46 3e ac d4 bf 3d 56 40 fa 3c 8b 92 f8 bd
       0.19400254 0.09366736 0.030548256 -0.12137326
0000e0 83 6e 41 be 7d 38 79 3e af 62 b2 bb 55 63 99 3d
       -0.18889813 0.24337955 -0.005443893 0.07489649
0000f0 14 b9 65 be ac 30 10 3e 6c 3b d2 bd bb cc d4 3d
       -0.22433883 0.14081067 -0.1026524 0.10390612
000100 4c a3 a1 bd 63 c5 a1 bd 71 4a b5 bd 16 6f a8 be
       -0.078924745 -0.07898977 -0.08852089 -0.32897252
000110 94 86 c1 bc 0a 30 27 be 41 24 03 bb a9 4a 67 3d
       -0.023623742 -0.16326919 -0.0020010623 0.056467686
000120 16 60 00 3c e2 91 e5 3c f3 62 95 be 3b 94 17 bd
       0.007835409 0.028023664 -0.29177055 -0.037006598
000130 03 1c 5a bc 42 c0 08 be 64 fd 88 be ac cb a6 bc
       -0.013312343 -0.1335459 -0.26755822 -0.02036079
000140 4e 01 32 be 33 d7 93 bc fd 5b 04 be db 14 20 bd
       -0.1738331 -0.01804695 -0.12925716 -0.03908239
000150 d1 31 1e be c9 28 d4 bd d1 c5 b4 bd 99 7d 03 be
       -0.15448691 -0.10359342 -0.08826793 -0.1284088
000160 ef 18 90 bd e1 5f 6f 3d e8 4a 2c be f2 14 1c be
       -0.07036006 0.058441047 -0.1682545 -0.15242365
000170 5d 91 25 be de 1d a9 bc 0e 84 35 be 6a 55 3f be
       -0.16168733 -0.020644125 -0.17726156 -0.18684927
000180 23 3c 06 bd ef 24 8b bd af 3c f7 bd 9d 21 1e be
       -0.032772195 -0.06794154 -0.12072121 -0.1544251
000190 c3 83 6d 3d 53 b5 49 bd 6b 4a 01 3e 84 c9 0c 3e
       0.057986986 -0.04924519 0.12626044 0.13748747
0001a0 20 11 57 3e bc 2c 6d 3d 60 ab 9f be b3 9b 07 3e
       0.21002626 0.05790399 -0.31185436 0.13242988
0001b0 dc b0 22 3b 3c f0 27 3e d7 ad 54 3c 02 40 e0 bd
       0.0024824655 0.16400236 0.0129809 -0.109497085
0001c0 09 1c e4 3d 9a 81 85 be a3 59 9e bd 44 76 f8 3b
       0.1113816 -0.2607544 -0.077319406 0.0075824577
0001d0 f8 19 f4 3d e6 08 c2 bd 4b 4e e2 3c 13 01 07 3e
       0.11919016 -0.094743535 0.027625224 0.13184004
0001e0 4b 32 b1 bd 04 dd 89 bd 38 64 11 bd 08 04 83 bd
       -0.08652171 -0.067316085 -0.035495967 -0.06397253
0001f0 67 89 e2 bd b0 a8 39 be 50 67 5a 3c 47 8f d1 bd
       -0.11061364 -0.18130755 0.013330296 -0.10232406
000200 09 3e 70 be ca 26 f1 bd 7f f6 59 be d9 9d dd 3d
       -0.23461165 -0.117749766 -0.21285437 0.10821123
000210 d9 72 7e 3d 43 2d 62 3e 42 e0 8b bc 21 57 9e be
       0.062121246 0.22087578 -0.017074708 -0.3092585
000220 d7 fc 7f 3e af ab c9 bd c6 28 e9 3d 2b 10 3b 3b
       0.24998794 -0.09847199 0.1138473 0.0028543572
000230 e9 89 29 be 58 a3 a0 bd f2 7b 9d be 13 f3 1f be
       -0.16556515 -0.07843655 -0.30758625 -0.15620069
000240 2b d0 90 bd ca 3e 41 bd 87 af 19 3e 9f ad 42 be
       -0.07070955 -0.04717902 0.15008365 -0.19011544
000250 e8 89 12 3d 7f e7 86 3d 31 8f 9c be 96 08 e1 3c
       0.03577605 0.06587123 -0.30577996 0.027469914
000260 cc 7d 3c be 1a fe 6c 3e 32 e4 1f 3e dc 84 83 3d
       -0.18407363 0.23143807 0.15614393 0.06421825
000270 cc c6 26 be e3 7b 40 bd 7a 96 3c bc 82 dc 09 bd
       -0.16286772 -0.046993148 -0.011510486 -0.03365756
000280 64 da 40 3c b6 f0 cb 3d 9a 0d 4c 3e 4d 2d de bd
       0.011770818 0.09958021 0.19927064 -0.10848484
000290 a3 7b 16 be 8d 0f b9 bd 89 a6 a7 bd 45 1b 29 be
       -0.14695601 -0.09036169 -0.08186061 -0.16514309
0002a0 88 06 59 bd 3a 27 a2 3d 12 f4 c4 bd 03 2c dc 3d
       -0.052984744 0.07917638 -0.09616865 0.10750582
0002b0 d9 93 53 3d b2 5c 8e bd c8 38 be bd 68 3c cf 3c
       0.05165467 -0.06951274 -0.09288174 0.025297359
0002c0 6d c0 76 3d 79 d3 81 3d f9 65 b6 3d 0f a0 9f bd
       0.060242105 0.06339163 0.089061685 -0.07794201
0002d0 ce 52 cd bd 50 9b ad be 03 41 6c 3d fa 12 09 be
       -0.10025559 -0.33907557 0.057679188 -0.13386145
0002e0 dc f1 35 bd ee 3f 8c 3d 09 3b ab 3d 34 83 ee bc
       -0.04442011 0.06848131 0.083608694 -0.029115297
0002f0 4c c1 ba 3c 86 65 61 bd d7 05 37 be 3f ec f5 bc
       0.02279725 -0.05502846 -0.17873321 -0.030019877
000300 7b 95 e3 bd 3e f9 de 3d 7c cc d6 3d 92 2e 96 bd
       -0.111124955 0.10887383 0.10488221 -0.07333101
000310 f5 8f c7 bd 3f ec 33 be ff c6 9d bd 3c 5b bf 3d
       -0.097442545 -0.1757059 -0.07703971 0.093435735
000320 38 17 b4 bd 50 8a 7c bb 12 b5 0d 3d 47 9a 64 bd
       -0.08793491 -0.003853459 0.03459651 -0.055811193
000330 55 db 0e be 7f e7 55 be 7d 55 ae 3d 6b 19 8f bd
       -0.13950856 -0.2088909 0.08512399 -0.0698727
000340 ef 7b 1c 3d 7d 39 22 be 5a 22 e7 bd cb 9b 23 be
       0.03820413 -0.15842243 -0.11285849 -0.15977399
000350 85 23 a6 bd d6 1d b8 bc b6 6f 8e be 5d 51 c7 3d
       -0.081122436 -0.022475164 -0.27819604 0.09732316
000360 af a5 73 bd 6d 33 7e bd 5b 0d c6 3b 9c 01 fb bb
       -0.05948418 -0.062060762 0.0060440726 -0.007660104
000370 bc a3 0e be e6 19 37 be 6a c6 55 3c c5 2f 3d 3d
       -0.13929647 -0.17880973 0.013047794 0.046188135
000380 9a f9 3b bd 2d c1 b0 be de 38 b7 bd f0 4c f6 3c
       -0.045892335 -0.3452238 -0.089463934 0.030065984
000390 f7 0f 99 be 2e 2f 9f be d8 27 96 3d ad d2 a9 3d
       -0.29894993 -0.31090683 0.07331818 0.08292136
0003a0 76 4c c0 be 71 1a 48 bc 13 2c 27 be ae c4 53 3d
       -0.37558335 -0.012213335 -0.16325407 0.05170124
0003b0 94 1d b0 3d dd b5 ce bd 86 cb 9c 3d 65 f1 52 be
       0.085993916 -0.100932814 0.076560065 -0.20599897
0003c0 49 6f 21 3e cd 52 a2 3d fd f6 2d 3e 43 6e 8c 3d
       0.15765108 0.07925949 0.1698875 0.06856968
0003d0 b7 90 35 be d6 b4 18 3e 02 6b 43 be ae 52 c0 bd
       -0.17730986 0.14912733 -0.19083789 -0.0939077
0003e0 62 d1 12 be b7 74 46 be 17 e8 98 be b3 93 4f 3d
       -0.14337686 -0.1938046 -0.2986457 0.050677966
0003f0 78 b5 f7 3d 90 63 f1 bc 33 99 63 be 2e 52 24 be
       0.12095159 -0.02946642 -0.2222641 -0.16046974

conv2.bias f4 [16]
000000 95 cf 38 be a8 7d 57 be bd a0 9d be 63 43 7c bd
       -0.18047936 -0.21044028 -0.30786696 -0.061587702
000010 20 e2 38 be 63 73 af be a4 fb 1d be 3a 89 67 be
       -0.1805501 -0.3426772 -0.15428025 -0.22610942
000020 96 1c ab be 54 fc 0c be aa 39 8f be 92 32 97 be
       -0.33420247 -0.1376813 -0.27973682 -0.2953077
000030 21 5a 77 be 98 e9 ab be 6c c2 99 be 57 59 30 be
       -0.24155475 -0.33576655 -0.30031145 -0.1722158

conv3.weight f4 [120, 16, 5, 5]
000000 bb 37 6d bd cc d4 cc bc dc de 9c 3d c2 8e 37 bc
       -0.057914477 -0.025003813 0.076596946 -0.01120347
000010 3a aa 2d 3c 63 b1 b7 bc 08 74 9f 3a ba d2 c2 3d
       0.010599667 -0.022423452 0.0012165317 0.09512849
000020 34 49 b9 3c 36 b3 42 3c 48 97 2d bd 87 15 f9 bc
       0.022617914 0.0118835475 -0.0423806 -0.030405773
000030 d4 7c 51 bc 16 1c ca bc f7 e1 aa bb f9 92 78 bc
       -0.012786109 -0.024671596 -0.0052149254 -0.01517176
000040 f6 90 1d 3d db d4 19 3d b0 19 8c bd 13 a5 18 bd
       0.038468324 0.03755651 -0.06840837 -0.037266802
000050 25 64 30 3d 3f 0d 7f 3d e4 47 8b 3c dc 76 2e 3c
       0.043064255 0.06226849 0.017002054 0.0106484555
000060 48 af 2a bd 0d 03 63 bc 01 e9 7e bd 3b cf a6 3c
       -0.041671067 -0.013855708 -0.06223393 0.020362487
000070 96 47 48 bb d7 9a 4f bd 16 03 4c 3d 6f 8d 45 3a
       -0.0030560247 -0.050684776 0.04980763 0.0007536029
000080 e0 b9 17 3d 81 71 9e 3c da 99 be 3c 91 ff d1 bc
       0.0370425 0.019341232 0.023266722 -0.025634559
000090 90 91 cf bc 9a f7 29 3c 04 d2 18 bd 86 e0 08 3e
       -0.025337964 0.010373974 -0.03730966 0.13366899
0000a0 a4 ed a8 bc a1 e3 e1 3c 10 b1 97 bd ae b5 64 3c
       -0.020621128 0.027574362 -0.07406819 0.013959331
0000b0 e7 d7 71 3d 4e 3c 91 3d 62 3f b3 3b 40 f8 60 3d
       0.05904379 0.0709158 0.0054702023 0.05492425
0000c0 66 01 80 bc a5 7e 38 bc b0 ba d4 3d 7c cb 6c bd
       -0.015625667 -0.011260663 0.1038717 -0.057811245
0000d0 9c 2b 3a 3b 50 c1 85 3d 8b 15 8c 3c 50 2b d3 bc
       0.002840734 0.06531012 0.017100116 -0.025777489
0000e0 0f f5 9a 3d bd 1c 81 bc 16 b3 88 3d 1a b3 3b 3d
       0.075662725 -0.015760774 0.06674783 0.0458251
0000f0 c3 03 70 3c 82 da 6b bc 50 fe e5 bd 70 e2 63 3c
       0.014649334 -0.014395358 -0.11230147 0.013908967
000100 cc 40 68 bd e7 36 b8 3d 03 0b a5 bc 62 6a be 3c
       -0.05670242 0.08994847 -0.020146852 0.023244087
000110 9f 78 59 bd 90 c0 18 bd 3c 4e 9c bc 8b df 36 bd
       -0.05309355 -0.037293017 -0.019080274 -0.04464678
000120 24 1c 37 3d d7 58 8d bd 32 24 dc 3d 83 30 4c bd
       0.04470457 -0.069017105 0.10749091 -0.049850952
000130 d7 93 87 3c 14 43 81 bc 5e b8 cf bd ee 11 67 bd
       0.016549988 -0.015779056 -0.10142587 -0.056413583
000140 95 07 c6 3a c6 9f 05 bb d2 ca cf 37 3a 46 35 3a
       0.0015108461 -0.0020389422 2.4770769e-05 0.00069150666
000150 eb ef 8a 3b 86 8b 81 bd f2 58 14 3d 58 20 16 3c
       0.004240026 -0.0632544 0.036217637 0.009162985
000160 1a 5b e1 3c 23 e4 da bc 0b 78 75 3c 24 80 16 3d
       0.02750926 -0.026720112 0.014982234 0.0367433
000170 c5 7d 46 3d 6b d2 21 3b 95 59 66 3c 4e 67 0d 3d
       0.048459787 0.002469207 0.014059444 0.034522347
000180 07 6f 47 3d b6 78 5c bc 11 fe a1 3c 0e 7d 64 3d
       0.04868987 -0.013456514 0.019774469 0.055783324
000190 bb 2a 4b bd 3d e2 05 3c f2 12 88 3c 16 62 c3 3c
       -0.049601298 0.008171615 0.016610596 0.023850482
0001a0 44 72 76 3d a4 56 88 3c 9b 5c 94 bc 8b 83 05 bc
       0.060167566 0.016642876 -0.018110564 -0.008149038
0001b0 bc 5a ca bc 39 e7 90 bb a3 64 5f bd 65 66 88 3c
       -0.024701469 -0.004422095 -0.054539334 0.016650388
0001c0 76 c3 26 bc ab c6 30 bd 31 48 68 3c 3f 5e e9 3d
       -0.010178437 -0.043158215 0.014177368 0.11394929
0001d0 6d e0 5b 3d 26 25 7f 3c 5f 5f 89 3b 9c b2 72 bd
       0.053680826 0.015572822 0.0041922773 -0.059252366
0001e0 1b 0d 52 3d 42 e6 f6 bc 0d e2 aa 3d a2 29 06 3d
       0.05128203 -0.030139092 0.08343897 0.032754548
0001f0 a2 1b ea 3c e2 dd 07 bd 10 29 aa bc ae aa bf bc
       0.02857763 -0.03317059 -0.020771533 -0.023396816
000200 9f cd 16 3c 8a 8d 4e bc 96 a0 02 39 32 fe b2 bb
       0.009204297 -0.012606988 0.00012457589 -0.0054624313
000210 62 5d eb bc ef 41 07 3c 61 bf 82 bd 9c 43 39 3d
       -0.028731052 0.008255466 -0.06384159 0.045230493
000220 f8 96 b6 3c 65 f1 a8 3d 68 c8 39 3d 7e 4c 66 bc
       0.022288784 0.08249167 0.045357138 -0.014056323
000230 65 38 5c 3a a9 a5 10 bd 5f bb 47 3b 9a 89 d1 bc
       0.00084007374 -0.035314236 0.0030476672 -0.025578309
000240 dc 39 3e 3d 2d e1 86 3d ab 66 26 bc 55 25 f3 ba
       0.046441898 0.065859176 -0.010156314 -0.0018550555
000250 76 d9 67 3c 3e 0c 22 bc 83 15 e3 bc b4 9d 90 3d
       0.014150968 -0.009890614 -0.027720219 0.070613295
000260 d9 83 b2 bd 2a 67 f5 bb 7c d9 88 3b 38 17 02 3c
       -0.08716554 -0.0074891048 0.004176317 0.007940106
000270 b9 d0 8a 3b 2d b2 09 bc 79 d4 7a 3c 27 94 32 3d
       0.0042363075 -0.008404297 0.0153094465 0.04359832
000280 e2 cf b2 3c 23 d8 35 3d 2f ee 96 bd 10 ed 09 3d
       0.021827642 0.044395577 -0.07369649 0.033673346
000290 fe 0a 51 bc 61 66 c1 bc 7e e1 14 3c 8c b7 69 3d
       -0.012758968 -0.023608388 0.009086965 0.05705981
0002a0 63 13 35 3c 19 72 14 bb 9a 9c b4 bc 20 02 88 bc
       0.011051985 -0.0022651015 -0.02204733 -0.016602576
0002b0 46 12 ef bd 32 a7 30 bc 77 db b5 3d 2f b8 c0 3c
       -0.11673407 -0.01078205 0.0887975 0.023525326
0002c0 3a 81 0b 3c a6 19 ea b9 14 e3 5c 3d 51 60 59 3b
       0.008514697 -0.00044651068 0.053927496 0.0033168981
0002d0 d8 62 8d bd e8 7f 9c b8 4f 94 85 3d 2c 87 13 bd
       -0.069036186 -7.462484e-05 0.06522428 -0.03601758
0002e0 34 00 97 bd c3 46 c8 bb 61 f5 4a 3d e4 15 d0 bd
       -0.073730856 -0.006111951 0.049550418 -0.10160425
0002f0 f0 82 e1 3c 65 e3 a8 bd 4a f3 ab 3b 67 8d 08 bd
       0.027528256 -0.08246497 0.005247508 -0.033337977
000300 71 8b ca 3d df dc 60 3d aa 28 3a bd d4 4b b1 3c
       0.098898776 0.05489814 -0.045448937 0.021642603
000310 24 ed 8b bc b3 c4 c3 3c 9b 17 00 bd 86 08 6a bd
       -0.01708085 0.023897504 -0.031272512 -0.057137035
000320 7f e2 a8 3b 09 ce 88 3d 8f 62 90 bd f2 05 3c 3d
       0.0051539536 0.06679923 -0.070500486 0.045904107
000330 fc f7 33 bc dd c2 d7 bc 13 f1 c9 3c 1d 52 3d bd
       -0.010984417 -0.026338035 0.024651086 -0.046220887
000340 d9 ff 9b 3d be 37 3f 3d bc 18 20 bb 80 a5 eb 3b
       0.076171584 0.04668402 -0.0024428805 0.00719136
000350 d7 cc b7 bc 90 33 44 3d 5d 75 96 bd 71 6d 2f bd
       -0.022436542 0.047900736 -0.07346604 -0.04282898
000360 c2 42 bb 3d 50 3f 05 bd d7 c4 c5 bd 52 f4 78 bd
       0.091435924 -0.032531083 -0.09656685 -0.060779877
000370 8c 99 c0 bc 03 20 9c 3d 80 62 6f 3c 2c ee bd bd
       -0.023510717 0.07623293 0.014610887 -0.09273943
000380 0f 84 67 3a d2 5a 38 3d cb d3 37 3c 87 eb 3d bc
       0.0008831629 0.045008488 0.011219929 -0.011591799
000390 5b 29 85 bb 09 22 14 bd d2 49 22 bd 96 2b 0c bd
       -0.004063768 -0.03616527 -0.03962118 -0.034221254
0003a0 8a 02 7f 3d a5 50 90 3d e7 d9 a1 3c bd 8a 84 3d
       0.06225828 0.07046632 0.019757224 0.06471775
0003b0 74 82 6d 3d 23 e7 a9 3c 79 60 2d bc 36 d6 4e bb
       0.057985738 0.020740097 -0.010582083 -0.0031560785
0003c0 5a 6f e0 bc 0d 00 13 bd 85 71 6a 3d 8e 4f a6 3c
       -0.027396847 -0.03588872 0.057237167 0.020301607
0003d0 27 5a 44 3c 39 4f 34 3d ae 0a 4a bd 45 09 a7 bd
       0.011984385 0.044020865 -0.04932659 -0.08156065
0003e0 09 d5 9b ba dd b3 a9 3c 05 8f 7e 3d e9 35 4f 3d
       -0.0011889051 0.020715648 0.062148113 0.050588522
0003f0 32 48 55 3d d7 c3 99 3c bb 7e cd 3c af 51 26 bd
       0.052070804 0.018770142 0.025084844 -0.040605243

conv3.bias f4 [120]
000000 a0 87 ab 3c bd 69 eb 3d 8b af 3d bd d0 13 39 bd
       0.020938694 0.11494777 -0.04630999 -0.04518491
000010 df 4d 32 3d fb b9 7c 3c 94 d8 e6 bc bb ef 1d bc
       0.043531295 0.015425201 -0.028179444 -0.009639676
000020 75 2c ae 3a f6 81 87 bd d7 0d 66 b9 87 0f 1c bc
       0.0013288396 -0.06616585 -0.00021939665 -0.009525186
000030 c9 3a 19 bd 56 ec 16 bd 5f a7 24 bd 11 e7 0b bd
       -0.037409578 -0.03684648 -0.04019868 -0.03415591
000040 06 de ba 3d 60 7c ca bc 61 90 81 bd 50 2e 3e 3d
       0.09124379 -0.02471751 -0.06326366 0.046430886
000050 df 4f 2d bd 29 bf 6d 3d 57 5e 83 3d 6d a2 11 bd
       -0.0423125 0.058043633 0.06414478 -0.035555292
000060 31 fa 6c 3d 9b 11 17 bd a9 da 37 bd 59 ad ce bb
       0.05785579 -0.036882024 -0.044886265 -0.0063072857
000070 85 dd 6c bd 46 36 93 3b 41 77 9e bc fe d6 b1 3d
       -0.057828445 0.004492554 -0.019343974 0.08683585
000080 cc 48 be bd 11 a9 31 3d 5a ee b7 bb 8f 39 65 bd
       -0.09291229 0.043374125 -0.0056131305 -0.055963095
000090 99 2e b9 3c 00 ce ee bc 91 00 5e 3d 17 d4 98 bd
       0.022605227 -0.029150963 0.05419976 -0.07462328
0000a0 90 aa a5 bc 92 c6 ac 3c 96 ed db bc dd 7c 08 3c
       -0.020222932 0.02109078 -0.026846688 0.008330551
0000b0 72 de 9b bd c8 c0 2f 3b 19 8b 11 3d eb 6e 23 bd
       -0.076107875 0.0026817787 0.035533044 -0.0399007
0000c0 d7 08 82 3c ad e3 b4 bd bd da 8c 3b 99 5b 36 bd
       0.015873356 -0.08832488 0.0042985366 -0.044520948
0000d0 6c ef 6b 3c 1a 9e e5 bb 0e 62 8d bc 53 bd 30 3d
       0.014400344 -0.0070073726 -0.01725867 0.043149304
0000e0 52 43 50 bc 3d 71 cc bb cc 1e de bb b2 1f b6 bc
       -0.012711363 -0.006239085 -0.0067785736 -0.02223191
0000f0 16 82 88 3d 32 3a 71 bd 34 65 9b bd cd fc 03 3d
       0.06665437 -0.05889339 -0.07587662 0.03222351
000100 da d7 6a bd 46 ce dd 3c 36 45 3d bd c8 64 d3 ba
       -0.05733476 0.027075898 -0.046208583 -0.0016128058
000110 3c 49 fe bc 64 5f 9a bd f8 e0 79 bc 86 8c ca bb
       -0.03104078 -0.075377256 -0.015251391 -0.0061813025
000120 21 d3 ca 3c fd 45 8e 3c ff 0e 80 3d 71 a9 8d 3b
       0.024758877 0.017367357 0.0625286 0.0043231775
000130 9c fd 77 3d 93 09 43 bd b2 90 4d 3d 5d d0 16 bd
       0.060544595 -0.047616553 0.05018682 -0.036819804
000140 81 1c 42 bb 17 d1 fb bc cd 3e 02 3c 45 9e a7 bc
       -0.002961904 -0.03073935 0.007949543 -0.020461211
000150 f5 12 dc 3c b6 f4 fb bc 8f 27 2f 3d 89 4d b6 3c
       0.026864508 -0.030756336 0.042762335 0.022253769
000160 d8 e6 ab bc 45 5f a7 bd ea f0 9b bb 0b e0 9e bc
       -0.020984098 -0.08172468 -0.004758944 -0.019393941
000170 a9 67 cf 3d b6 1f 51 bd 11 26 9a bd 32 1c 8e bd
       0.101271935 -0.051055633 -0.07526792 -0.069389716
000180 f4 e2 e9 bc 9b 01 83 3b e6 63 a1 3c 81 e3 9e 3c
       -0.028550602 0.003997994 0.019700956 0.019395592
000190 7a a1 54 bc 98 ff 09 3d c3 19 e4 3c de 0a 6a bc
       -0.012977952 0.03369102 0.027844315 -0.0142848175
0001a0 dd 4c 80 3c d0 d8 3a 3d aa 3c ed bc d6 d5 ac 3c
       0.015661651 0.045616925 -0.028959591 0.021098059
0001b0 b1 d1 8e bc fe 99 3d bd ea 2f bb 3d 5b 67 8f bc
       -0.017433973 -0.046289437 0.09139998 -0.017505338
0001c0 47 c8 9d 3c af 0b 5b 3c 06 29 71 3c bf bc bb bc
       0.019260539 0.013369485 0.014719253 -0.02291715
0001d0 48 e4 0a bc d3 0d 3d bc 5b 9b 94 3d ab 27 3d bd
       -0.008477278 -0.0115389405 0.07256194 -0.04618041

fc1.weight f4 [84, 120]
000000 55 ec ef bd 93 2e a9 bc b6 09 0e be d6 cd 98 3d
       -0.11714999 -0.020652091 -0.13870892 0.07461135
000010 43 99 30 be 75 cd 49 3e ca c7 2b be 17 80 0d be
       -0.17245965 0.19707282 -0.16775432 -0.13818394
000020 b3 18 f3 bd f7 8c 0b bd 25 ac 0b 3c 93 01 bd bd
       -0.118699454 -0.03406998 0.008524929 -0.09228816
000030 53 fa 36 3c e2 3b 60 be 77 9a 29 3c 26 b0 ab 3d
       0.01116808 -0.21897843 0.010351769 0.08383207
000040 70 8c 44 3e 67 f5 08 be 57 ab 19 3d d1 80 06 3e
       0.19194198 -0.13374864 0.037516918 0.13135077
000050 24 e4 d7 bd 57 60 52 3d ad db 9b 3a 78 f4 bd bd
       -0.10541561 0.051361408 0.001189103 -0.09275144
000060 af 12 3f bd cb 11 f0 bd 5f 9c 7f bd d3 c5 59 3d
       -0.046648677 -0.11722144 -0.062404986 0.053167176
000070 a0 e3 e2 bc f0 a0 74 3d 78 0a a8 bd 27 88 2d 3e
       -0.02769643 0.059723794 -0.08205122 0.16946469
000080 d9 c9 9a bd 32 75 db bc c9 7d 33 3c ab 3f 54 bd
       -0.07558031 -0.026789282 0.0109552825 -0.05181853
000090 c6 a9 f0 3c c5 e4 0d be d2 2b 17 bd 3a 79 77 bd
       0.02937783 -0.138568 -0.036907025 -0.060418345
0000a0 fa 85 d8 bd ca 87 3f bb e9 b8 20 bd 3c c2 84 bd
       -0.10572429 -0.0029225224 -0.039238844 -0.0648236
0000b0 ea 77 dc bc fc 28 2b bd 6f 7c 85 3d 0c 4c 27 be
       -0.026912648 -0.041787133 0.065178744 -0.16337603
0000c0 ba 8b 93 3d 6f 92 98 bd b2 5a c8 3d 74 00 a9 bc
       0.07204385 -0.07449805 0.09782924 -0.020630099
0000d0 ef ef 8a be 6e 49 61 3d f4 1d 56 3c c2 f3 07 3e
       -0.2713618 0.05500167 0.013068665 0.1327658
0000e0 25 1c 14 bd d9 02 9d bd a6 7b 76 bc e2 df 06 3d
       -0.036159653 -0.07666559 -0.0150441285 0.032928355
0000f0 ec e5 3f bd 4b 11 1c bd cf dc bf ba fa b3 d2 3d
       -0.04685013 -0.03810243 -0.001463795 0.10288234
000100 59 d0 ba bd 66 12 84 bd 1f 69 2b bc 8d f4 cb 3b
       -0.091217704 -0.06448822 -0.010462075 0.006224221
000110 be 8e c0 3c 86 a8 f0 bd c7 08 e1 3d ff c2 3b 3c
       0.023505565 -0.11750893 0.10988002 0.011460065
000120 74 04 c2 3c 4b 8b 10 bc b3 55 da bd d6 21 f6 bd
       0.023683764 -0.0088222725 -0.10660877 -0.120181724
000130 10 6a 15 3e 38 b7 13 be 02 24 bb bd 54 4d 60 bc
       0.14591241 -0.14425361 -0.09137727 -0.013690311
000140 24 24 05 3e 43 2a 03 be a6 8f a8 3d 20 3b 9e 3c
       0.13002068 -0.1280909 0.08230524 0.019315302
000150 90 fc 79 bc 5d e8 88 bc ad 31 0e 3d b6 44 33 3c
       -0.0152579695 -0.016712362 0.034715343 0.010941675
000160 52 e1 d6 3d 6c f3 ae bd 0b 6f 5b 3e 7e 17 7b bc
       0.10492195 -0.08542523 0.21429078 -0.015325425
000170 b0 ba 2e 3e 45 75 82 be b0 64 c9 bd 17 ac 2b bd
       0.17063403 -0.25480095 -0.09833658 -0.041912165
000180 17 fe d4 3b ae 35 bb 3c 8b 75 ae bc 71 9a 62 3c
       0.0065000164 0.022852745 -0.021296283 0.013830767
000190 e2 b0 6c bb 73 8e e3 3d 44 51 d0 bd 32 d2 c0 3c
       -0.0036116173 0.111111544 -0.1017175 0.023537729
0001a0 b7 dd a4 3c 9f 56 fa 3d 1b 3b e9 3d ba 1d b9 3d
       0.020125253 0.12223553 0.113882266 0.09038873
0001b0 41 06 8c 3c 20 e4 b5 bc f3 90 49 3c 17 0d 50 bc
       0.017092826 -0.022203505 0.012302625 -0.012698433
0001c0 1b bf aa bd b3 38 09 3d 78 0a 8d 3c 82 38 26 bd
       -0.08337232 0.03350134 0.017216906 -0.040581234
0001d0 0c 60 05 3d 09 e4 8a 3d dd 48 0e 3e 85 1e 98 bd
       0.0325623 0.067817755 0.13894983 -0.07427696
0001e0 8c fa 9d 3d b0 3d fb bc ed 69 3d 3d fa 31 85 3b
       0.07713804 -0.030669063 0.046243597 0.0040647956
0001f0 ba 2d 25 3e 4c b4 e0 3c 8b df de bc c5 eb d3 bd
       0.16130725 0.027429722 -0.027206203 -0.10347704
000200 1e 67 fa 3d c5 58 0c be 1f f2 7e bd d7 04 43 3d
       0.12226699 -0.13705738 -0.062242623 0.047612038
000210 7f 58 f0 bc a4 55 fa bb 64 74 eb ba 46 af 0d bc
       -0.029339073 -0.0076396037 -0.0017963764 -0.0086477455
000220 36 17 41 3c d3 92 48 3d 1f 45 a2 bc 90 b3 c7 3d
       0.011785319 0.048968147 -0.01980835 0.09751046
000230 64 29 b1 3c 41 45 ac bd 1c 40 c1 bc 7d 3f c9 3c
       0.021626182 -0.08411647 -0.02359014 0.024566406
000240 3e 1a a3 3d 29 e0 e7 3d 3d 56 9e bd 38 10 94 3b
       0.0796399 0.11322052 -0.077312924 0.004518535
000250 0b 35 88 3d 01 72 e7 3d 49 4b ce bd f2 b2 b7 bd
       0.06650742 0.113010414 -0.10072953 -0.08969678
000260 be 1c 0e be 6f 9b 70 3d 86 2c d8 3d 03 fb 0e 3e
       -0.13878152 0.058741983 0.10555367 0.13962941
000270 97 43 b8 bd 40 01 e5 bd e0 10 42 be 1c d0 c3 3d
       -0.08997267 -0.11181879 -0.1895175 0.09561178
000280 51 74 02 3e 50 99 3b 3e fc 2b 25 be aa cf b9 bd
       0.12739684 0.18320203 -0.1613006 -0.09072812
000290 d4 ca c1 bd 4d 62 a6 bd ed 18 37 3d 19 21 e6 bc
       -0.094625145 -0.08124218 0.044701505 -0.028091954
0002a0 d7 d5 00 3d c7 39 f8 bc f7 6b 0b 3e b8 bf ea 3c
       0.031453934 -0.030300988 0.13615404 0.028655872
0002b0 87 ca 0b be e3 75 df 3c ae 8a b5 bd b9 ef fe bc
       -0.13651477 0.027277892 -0.08864342 -0.031120168
0002c0 c4 be bb bd 6a 7a 28 3e b3 2f 81 3c 32 78 1a 3e
       -0.09167245 0.16452947 0.015769815 0.15084913
0002d0 67 77 b2 bd 6f 6f 92 3d a5 63 90 bd 7a b4 34 bd
       -0.087141804 0.071501605 -0.07050256 -0.04411743
0002e0 92 86 b8 3d 32 45 27 3d 1c 36 02 3c 02 fb c3 bd
       0.09010042 0.040837474 0.007947471 -0.0956936
0002f0 09 27 c9 3d ec 27 06 bd 99 bc 06 3e a5 7b 5b 3d
       0.098218985 -0.032752916 0.13157882 0.053584713
000300 4a 47 ad 3d 69 d7 b6 bd 86 34 e1 3c 71 17 1c be
       0.08460863 -0.08927805 0.027490865 -0.15243317
000310 1c b0 2b bd 05 08 43 3c df 3a 76 be 20 d8 e6 bc
       -0.041915998 0.0119037675 -0.24045895 -0.028179228
000320 df 41 a5 3d c5 58 85 bc 34 03 e4 bd 32 c7 19 bd
       0.080692045 -0.01627768 -0.111334234 -0.037543483
000330 1c 1f 01 3d c4 1a 60 3d 0b fd 98 3d 25 52 80 bd
       0.03152381 0.054713026 0.07470139 -0.06265668
000340 9d 38 74 3c 6d d3 96 bd 40 1b 48 3d 90 13 f5 bd
       0.014906076 -0.07364545 0.048854113 -0.11966622
000350 6f 13 c1 bd be 4a 41 bd c0 57 03 bb 32 a8 09 3e
       -0.09427535 -0.04719042 -0.0020041317 0.13443068
000360 32 e0 c3 bd da ed 9d 3d 90 c3 ce bc 5e 00 28 bd
       -0.09564246 0.07711382 -0.025239736 -0.041015975
000370 98 29 f8 3d 1a ca 06 3e bd e8 47 be 8d 8a 61 3d
       0.121173084 0.13163033 -0.19522376 0.055063773
000380 7b 33 6e bd 28 84 a7 bd f6 4c a5 bd 86 c9 a6 3d
       -0.058154564 -0.08179504 -0.0807132 0.08143906
000390 07 d8 c5 3d 05 67 51 3d 24 94 d0 3d 0a 7c ef 3d
       0.096603446 0.051123638 0.101845056 0.116935804
0003a0 4a 51 c1 bd 31 6b 18 be ff 7e 20 bb 73 1b e2 3d
       -0.09439333 -0.1488464 -0.0024489758 0.11040392
0003b0 77 f7 65 3d 23 fd 62 bc e5 fc 8f 3d d8 07 26 bd
       0.056144204 -0.013854298 0.07030658 -0.040534824
0003c0 8a 45 f9 3a 83 1c b7 3c 82 29 87 be f0 d1 0e 3e
       0.0019017917 0.022352463 -0.26398855 0.13947272
0003d0 b6 cf 6b be 9a 57 49 3d b5 c6 04 bd 64 ea 7d bd
       -0.23028454 0.04915581 -0.032416064 -0.06199111
0003e0 f3 57 08 bd 63 22 db 3d a2 3b a2 3c f7 91 8e 3d
       -0.033287 0.10699918 0.019803826 0.06961434
0003f0 bc 65 0e be e2 ae 91 bc 57 a4 f0 3d 61 4f 10 3e
       -0.13905996 -0.017783586 0.11750095 0.1409278

fc1.bias f4 [84]
000000 f0 67 a4 3d 3d e3 6d bd 55 b4 eb 3c 50 be 03 3d
       0.08027637 -0.05807804 0.028772512 0.032163918
000010 f8 7d 38 3d b0 45 aa 3d 49 c3 76 3d 81 bb 09 3e
       0.04504201 0.08314073 0.060244832 0.13450433
000020 fc 17 a2 bc d0 a8 b3 bb e9 9f 76 bd dd 4f d5 3c
       -0.019786827 -0.0054827705 -0.060211096 0.026039058
000030 36 be 99 3d 05 54 3e bd 57 02 a5 bc a3 29 41 bd
       0.07506983 -0.046466846 -0.020142717 -0.04715885
000040 7c f5 dc bc f9 28 9f bd ff 2f 4a bd d0 3b f9 3c
       -0.026972525 -0.07771487 -0.04936218 0.030424029
000050 91 20 39 3c b6 77 62 3d fe 43 00 bb 97 b5 e1 3b
       0.011299268 0.055289946 -0.0019571777 0.0068881023
000060 b1 b7 b6 3c e4 50 2c bb 65 16 c8 3b c0 db 47 3c
       0.022304388 -0.0026293332 0.0061061853 0.012198389
000070 54 70 c9 3b 74 31 6a 3d ab bd 81 3d 04 6c 45 3c
       0.0061474238 0.05717607 0.063350044 0.012049679
000080 c0 a1 8b bd 28 f6 de bc 6b f2 1f 3c 88 fc 7d bc
       -0.06817961 -0.027216986 0.009762387 -0.015502103
000090 0c 85 d8 bd 62 7a c2 bd 28 2f 17 3c 79 4d 08 bb
       -0.10572252 -0.09495999 0.0092275515 -0.002079813
0000a0 da df 84 3d bb 80 17 bd 8e f9 0f 3d d9 41 ad 3b
       0.06488009 -0.036988 0.035150103 0.0052873907
0000b0 b3 43 49 3d a6 18 42 bd e0 bc 2f bc aa 3a aa 3c
       0.04913683 -0.047386788 -0.010726184 0.020779926
0000c0 09 f3 02 bd b9 71 2c 3d c7 d9 92 3c ae 19 3a 3b
       -0.031970058 0.042100642 0.01792611 0.0028396654
0000d0 fb 7b c1 3d 97 7f 90 bd eb 8e d8 bd be e1 28 3c
       0.094474755 -0.07055586 -0.105741344 0.010307727
0000e0 71 fc 45 3d 7f 55 a9 bc 2e 0f e3 3c 52 bb 11 3c
       0.04833645 -0.02067065 0.0277172 0.008894758
0000f0 40 b6 7f bd ec 37 be 3d 15 71 42 3c 8d 48 2c 3d
       -0.062429667 0.0928801 0.011867781 0.042061377
000100 6b 1d 94 3d 67 af 7e bd 10 b2 ac 3d 18 fb 6a 3d
       0.072321735 -0.062178995 0.084324 0.057368368
000110 b3 e3 4e 3d 78 b2 a9 bc b0 e0 18 bd be 14 68 3d
       0.05051012 -0.020714983 -0.037323654 0.056660406
000120 0c b1 98 3d f8 25 90 3c 7d 2f 11 3d 0a 8c 94 3c
       0.07455644 0.01759623 0.03544568 0.018133182
000130 88 58 2a bc 63 e5 5c bd f4 d0 84 3c f6 cd a0 3d
       -0.010397084 -0.053929698 0.016212918 0.07851784
000140 1b 2a 59 bc e2 07 03 3d b3 d7 3c bd 70 9d 84 bc
       -0.013254668 0.03198994 -0.046104144 -0.016188353

fc2.weight f4 [10, 84]
000000 5a 15 2d bf bd 3c 9d be f1 69 91 3e c3 f1 95 bb
       -0.67610705 -0.30710402 0.2840114 -0.0045759394
000010 a0 3e a7 3e a5 b8 dc bd 30 ea d3 3e bf d4 73 3e
       0.32664967 -0.10777406 0.41389608 0.23811625
000020 39 08 10 bf d4 df 90 3d d2 a3 62 be 34 f6 7a 3e
       -0.56262547 0.07073942 -0.22132805 0.24507982
000030 24 ab 14 3e c8 a4 0f be 5c 02 71 3c 49 e3 af 3e
       0.1451841 -0.14027703 0.014710035 0.34353092
000040 0d 94 35 be e8 d6 81 be 35 77 84 be 80 ea 09 3f
       -0.17732258 -0.25359273 -0.25872198 0.53873444
000050 d9 66 c0 be 65 f0 dd be ef d1 b0 be 2d c0 c5 3e
       -0.37578467 -0.4334747 -0.34535167 0.3862318
000060 7b 6e 0e be f5 97 90 be 3c 56 af be 6d 81 40 3e
       -0.13909332 -0.28240934 -0.3424548 0.18799372
000070 d4 95 eb 3e e7 16 e3 be 77 7b 24 3e 52 2d d7 3c
       0.46012747 -0.4435341 0.16062723 0.026266728
000080 17 a0 a6 be 35 b3 1b bc dc d8 c7 3d 02 91 c5 3d
       -0.32544014 -0.0095031755 0.097581595 0.09646799
000090 08 3b 88 be da 03 4f be 65 4b 16 be 63 73 95 be
       -0.26607537 -0.20216313 -0.14677198 -0.29189596
0000a0 20 6e 6d be 9a 17 14 3f 67 ab 86 be 8f 8c dd be
       -0.2318654 0.57848513 -0.26302645 -0.432713
0000b0 2c 94 7f 3e 2c ba 93 be 60 78 a9 3e 94 eb 05 3f
       0.24958867 -0.28852975 0.3309965 0.5231259
0000c0 6c db cb 3e 86 a7 18 3e bc a8 9a be 71 26 cf 3e
       0.39815843 0.14907655 -0.3020686 0.40459016
0000d0 90 a1 0e bf 3b e5 b0 be 4d 5e af be 6f b8 a5 be
       -0.55715275 -0.3454989 -0.34251633 -0.32367274
0000e0 b4 fa 9a 3e 42 0e a2 3e ba 67 a5 3e cf 49 aa 3e
       0.30269396 0.31651503 0.323057 0.33259436
0000f0 fa 38 02 3f 3c 24 bb 3e 1b 15 45 be dc 03 91 3e
       0.5086819 0.36551082 -0.19246332 0.28323257
000100 da 47 60 be 07 14 4c be 20 4c 24 bc cf 8c ff 3d
       -0.21902409 -0.19929515 -0.010027915 0.12478029
000110 52 81 0b 3e 43 41 87 bd 87 8a 75 be 82 72 a8 3d
       0.1362355 -0.066042446 -0.23978625 0.08224966
000120 0e 30 a3 3e dc 6d b7 be 17 83 0f bf 0d 95 90 3e
       0.318726 -0.35826004 -0.560594 0.28238717
000130 ed 57 28 3e 57 4a 60 3e c3 91 02 bf 40 f5 a9 be
       0.16439791 0.21903358 -0.51003665 -0.33194923
000140 54 c2 8c be e8 9e 94 3e 6f 88 ee be d6 02 65 3e
       -0.2749201 0.29027486 -0.46588466 0.22364363
000150 07 c1 e5 bd d4 09 db 3e 21 56 85 be e3 99 08 be
       -0.11218458 0.42780936 -0.26042274 -0.13339953
000160 8e 51 3f be 4b 31 2b 3e 33 7b f9 bd 8a 77 4d 3e
       -0.18683454 0.16718023 -0.121817015 0.20065132
000170 fa d2 b3 3e 1f 08 d5 3e ee a9 f8 be b4 3b 07 3f
       0.351219 0.41607758 -0.48567146 0.52825475
000180 df 77 b7 3e da f0 14 bf 76 8a 3f 3f 6d de 08 bf
       0.35833642 -0.5818001 0.7482065 -0.53464395
000190 e1 86 4e be 22 52 be 3e d5 ed 14 3f cb 44 3e be
       -0.2016864 0.37172037 0.581754 -0.1858093
0001a0 72 ee f6 bd 5f 9e 6e 3e 0b 24 9e 3e e5 6f 30 be
       -0.120571986 0.23302601 0.30886874 -0.17230184
0001b0 ac 6a c9 3e 25 11 72 3d 71 7b 62 3e 6f 7a 7a be
       0.39339197 0.05909838 0.22117402 -0.24460767
0001c0 d7 94 04 be bf 24 1b 3e 93 ee 95 be 54 c2 da 3e
       -0.12947403 0.15150736 -0.2928358 0.42726386
0001d0 8b 72 86 3e 2a 70 e7 be 03 c4 cc bd 15 5b 8a 3e
       0.26259264 -0.45202762 -0.09998324 0.27022615
0001e0 3a ec ac 3e 21 91 e0 3e 10 8d 8e 3e 79 f0 55 be
       0.33773977 0.43860725 0.27841997 -0.20892514
0001f0 96 7d ee 3d f7 65 81 be 4c fd 52 3d d4 55 e1 bd
       0.11645047 -0.25273106 0.051511094 -0.110026985
000200 9c e0 34 be 8b a4 a2 3e 70 4a 21 be 6c 17 cf 3e
       -0.17663807 0.3176616 -0.15751052 0.40447557
000210 92 7f f1 3e f9 8f 2e 3e 16 74 86 3e cf 26 dd be
       0.4716764 0.17047109 0.26260442 -0.4319367
000220 df 2f 8e 3e 36 5c fa 3d 92 80 cb be d8 f4 0d 3d
       0.27770898 0.12224619 -0.3974653 0.03465733
000230 7f af 40 3e f6 ad f7 be e2 5c b8 be 34 fb 52 3e
       0.18816946 -0.4837491 -0.36008364 0.20603639
000240 b1 95 91 be b0 33 70 3e 22 c7 2d be 70 4a a5 be
       -0.28434518 0.23457217 -0.16970494 -0.32283354
000250 ad 80 c8 3e f8 c2 b7 3e 08 54 e9 3e c0 de 8a 3e
       0.39160672 0.35890937 0.45571923 0.2712307
000260 6c bd e5 3e 81 bf d1 3e 2b 24 56 bd 65 e2 8a be
       0.4487108 0.40966418 -0.052280586 -0.2712585
000270 68 56 c9 bd fb 67 83 3e e1 2f 43 3e 3f 6d 80 3d
       -0.09830934 0.25665268 0.19061233 0.06270837
000280 59 3b d4 be d3 1e ec be 49 30 00 3e 97 78 a8 3e
       -0.4145153 -0.46117267 0.1251842 0.32904503
000290 a4 fc 47 3e cf 3c ab 3d 5f 91 4b be 14 f7 f0 be
       0.19529969 0.08361208 -0.19879673 -0.47063506
0002a0 d8 05 2d 3e 06 be f7 be 48 93 1a 3f 6e 60 8e be
       0.1689676 -0.48387164 0.60380983 -0.27807945
0002b0 e0 8e 34 3f 30 c1 ea 3e 66 e1 f6 3e 97 1c b2 3e
       0.7053051 0.45850515 0.4821884 0.34787437
0002c0 29 af ea 3d 7f 0a 5e bd 64 be 38 3f 9f 99 9e 3e
       0.114591904 -0.05420923 0.72165513 0.3097658
0002d0 d2 32 e8 bd e2 cc 01 3f 5e 02 bc be 4f 2d 57 3e
       -0.11337818 0.5070325 -0.36720556 0.21013378
0002e0 51 88 dc 3e 1b 3e aa bd 79 d6 b7 bd 63 8d 23 be
       0.4307275 -0.08312627 -0.08976454 -0.15971904
0002f0 71 44 9b be 58 a7 8f 3e 4e 44 88 3e 5a 9c 05 3f
       -0.30325654 0.2805736 0.26614612 0.521917
000300 39 77 8e 3e c8 91 ba 3e ff 36 99 3e 05 2d 06 3f
       0.27825335 0.36439347 0.2992477 0.52412444
000310 36 e3 50 3e 6c 1a 02 3f 06 d2 f1 be b8 0d 80 be
       0.20399174 0.50821567 -0.47230548 -0.25010467
000320 aa f0 28 be 59 69 c3 3d ab 24 8d be 56 8f 00 bf
       -0.16498056 0.09541578 -0.27567038 -0.50218713
000330 76 9a 89 be 45 49 82 be fe 39 25 bf c3 94 de 3e
       -0.26875657 -0.25446525 -0.64541614 0.4347287
000340 8c 59 e9 be fd f3 52 3e 8d f4 1c 3f 23 15 2d 3e
       -0.4557613 0.20600887 0.61310655 0.16902594
000350 b3 40 b5 be 1b 7e 24 3e cf 91 52 bc bb a2 6d 3e
       -0.35400924 0.1606373 -0.012852146 0.23206608
000360 17 19 df 3e 23 ff e8 be ed 1c cf bd 84 a4 2f 3f
       0.4357383 -0.45507154 -0.10112939 0.68610406
000370 ab 3e 50 3e 06 8d 9d 3e db c0 fa be 3b cd 8f 3e
       0.20336406 0.30771655 -0.48975262 0.28086266
000380 a7 30 1a bd 30 7f a6 3e 5e d7 af be 9a c8 6c be
       -0.037644055 0.3251891 -0.34344 -0.23123398
000390 c2 bd 1a 3f 6a 18 02 3e 9e bf 1b bf 29 5b c4 be
       0.604458 0.12704626 -0.6083926 -0.383508
0003a0 6f a7 a9 bc c3 2a 7c be d3 0f f1 be cb 2b e0 be
       -0.020709721 -0.24625687 -0.47082385 -0.4378341
0003b0 38 e1 21 3f 7b 98 da be 48 63 26 3f c8 7c e2 3e
       0.6323428 -0.42694458 0.6499524 0.44235826
0003c0 20 9e 97 3e 06 f0 4f 3d 00 d6 df 3e f1 9d b9 3e
       0.29612827 0.050766014 0.43717957 0.36253312
0003d0 eb 8e ae be 7e 21 b8 be 34 e8 80 3e bf 36 a5 be
       -0.34093413 -0.35963053 0.25177157 -0.3226833
0003e0 12 22 22 bf 5e e2 0a be 37 2e bd 3e 52 49 16 bf
       -0.6333324 -0.13562915 0.36949322 -0.5870563
0003f0 d6 15 29 3e 7b 31 84 3e 7d a5 a9 bc 2b ef 08 bf
       0.16512236 0.25819 -0.020708794 -0.5348994

fc2.bias f4 [10]
000000 7d 8a c5 bd e2 3e 08 3d bf 76 17 3e e8 fc c9 bd
       -0.09645555 0.033263095 0.14791392 -0.09862691
000010 34 b5 d0 bc ef 88 8c 3d 54 8c 9e bc 1b 0b 06 3e
       -0.02547703 0.068620555 -0.019354023 0.13090174
000020 e2 87 1b be c8 12 79 3c
       -0.15188554 0.015202232
