models/pretrained/U5_of_10_net_w_acc_95.pt (torch_old, 248435 bytes, 10 tensors)

conv1.weight f4 [6, 1, 5, 5]
0.31912825 -0.2780141 -0.15426019 0.27795267 -0.3389104 0.43827033 0.04156593 0.26927927
0.14904548 -0.09193209 0.26216218 0.010893371 0.1325828 0.024526203 -0.033999555 -0.042214125
0.13291085 -0.055132255 0.402359 0.17645103 -0.0053131147 -0.22357537 -0.10831383 -0.23758332
-0.24288702 0.06984708 0.3233264 0.14008449 -0.24508809 0.06414455 0.045858685 0.43226
0.15278815 -0.10023842 -0.16244031 0.2090845 0.39881486 0.11788784 -0.06787263 -0.26061416
0.09781895 -0.08723075 0.27796564 -0.030403752 -0.2932719 0.059243694 -0.30858794 0.07547003
0.0017693756 -0.25830552 -0.1646306 -0.1854165 0.02239091 -0.25571668 0.45604193 0.29320267
-0.13038187 -0.09848233 0.02960872 0.18731423 -0.04942424 0.22789955 0.24706456 0.3599123
-0.019357381 -0.2773734 -0.14080836 0.094733834 -0.21281603 -0.16120094 0.1971056 0.08447728
0.27757108 0.1238049 0.22539687 -0.07011697 0.14828375 0.12282585 -0.05373683 0.083575495
-0.24768868 -0.33224252 -0.040967375 0.1909814 0.09005946 -0.27026808 -0.5515935 -0.122750916
0.1155097 0.1459522 0.060168095 -0.45139956 -0.07943324 -0.017840749 -0.1788874 -0.13076021
-0.09306436 -0.23273972 -0.2518853 -0.14601368 0.21798168 0.12911761 0.17846632 0.23321877
-0.017495165 -0.05217202 0.30377153 0.18164892 0.15925196 -0.050126575 0.14708763 0.47076422
0.4361417 -0.25161934 -0.019060679 0.18862717 0.29198596 0.079199605 -0.22451714 -0.13443998
-0.19852169 0.13207605 0.19943826 0.01673334 0.16957723 -0.18567204 -0.13607837 -0.082797185
0.046365548 0.43228248 -0.21118702 -0.029490825 0.35321024 0.31617212 0.28208086 0.23650634
0.18821266 0.19594455 -0.08444624 -0.19449899 -0.04577852 -0.12560022 -0.2959717 0.1038146
0.1080004 0.031330854 0.0038061219 0.0852592 0.23936938 0.21276923
00000000: c764 a33e dd57 8ebe 62f6 1dbe d04f 8e3e
00000010: aa85 adbe f864 e03e 0941 2a3d f9de 893e
00000020: 619f 183e e446 bcbd 1f3a 863e 1c7a 323c
00000030: c9c3 073e 2deb c83c 1e43 0bbd b8e8 2cbd
00000040: c819 083e 5cd2 61bd 0002 ce3e 94af 343e
00000050: a319 aebb f1f0 64be a4d3 ddbd 0b49 73be
00000060: 60b7 78be fc0b 8f3d 0a8b a53e 4f72 0f3e
00000070: 5ff8 7abe 385e 833d 51d6 3b3d 2f51 dd3e
00000080: 7f74 1c3e cd49 cdbd c156 26be 3f1a 563e
00000090: 7631 cc3e 2e6f f13d ce00 8bbd 386f 85be
000000a0: 4d55 c83d 09a6 b2bd 8351 8e3e 4a11 f9bc
000000b0: bc27 96be 84a9 723d 3dff 9dbe 0890 9a3d
000000c0: 65ea e73a 9f40 84be ed94 28be d3dd 3dbe
000000d0: 246d b73c 4ced 82be 547e e93e a91e 963e
000000e0: d382 05be 1bb1 c9bd fd8d f23c 4dcf 3f3e
000000f0: 1271 4abd 805e 693e 7efe 7c3e 6d46 b83e
00000100: 5f93 9ebc e303 8ebe 1130 10be d003 c23d
00000110: 72ec 59be dc11 25be 0dd6 493e 6d02 ad3d
00000120: cc1d 8e3e 6c8d fd3d 70ce 663e 7c99 8fbd
00000130: b2d7 173e 1f8c fb3d 261b 5cbd a129 ab3d
00000140: 1aa2 7dbe b11b aabe 68cd 27bd a190 433e
00000150: 1871 b83d 9460 8abe 3b35 0dbf d564 fbbd
00000160: 5990 ec3d 7e74 153e d272 763d d81d e7be
00000170: e5ad a2bd c326 92bc 422e 37be 01e6 05be
00000180: 8798 bebd 5253 6ebe 1cf7 80be 9c84 15be
00000190: 9736 5f3e 6837 043e e0bf 363e e7d0 6e3e
000001a0: 0552 8fbc 54b2 55bd f187 9b3e 2d02 3a3e
000001b0: f212 233e 8651 4dbd 249e 163e 0208 f13e
000001c0: f74d df3e 40d4 80be 2425 9cbc 7b27 413e
000001d0: 2f7f 953e 6733 a23d d2e7 65be a2aa 09be
000001e0: 4549 4bbe f23e 073e 8b39 4c3e 5c14 893c
000001f0: a7a5 2d3e d020 3ebe 2158 0bbe 9291 a9bd
00000200: cde9 3d3d 2154 dd3e 6941 58be be96 f1bc
00000210: f9d7 b43e 50e1 a13e e76c 903e b82e 723e
00000220: d2ba 403e b0a5 483e 26f2 acbd be2a 47be
00000230: 4282 3bbd 589d 00be 9a89 97be c09c d43d
00000240: 502f dd3d c854 003d 2170 793b 609c ae3d
00000250: 3f1d 753e 2de0 593e

conv1.bias f4 [6]
-0.8331956 -0.36640573 -0.71768546 -0.2896333 -0.4782593 -0.8700878
00000000: 4f4c 55bf 8899 bbbe 3cba 37bf d14a 94be
00000010: 67de f4be 13be 5ebf

conv2.weight f4 [16, 6, 5, 5]
-0.16159526 0.085738465 -0.061000742 0.051713347 0.037590347 0.04441518 0.29689306 -0.012553581
-0.05128298 0.25261447 -0.14507009 0.069692254 -0.16820551 0.023176488 -0.013259264 -0.08769899
0.16710827 0.066686906 -0.020428805 -0.05928552 0.2778213 0.115077056 -0.013038962 0.14315285
0.04180934 -0.10236655 -0.07932569 -0.036323983 -0.11877305 0.13622579 0.083381586 -0.110862754
-0.14746495 -0.10024107 -0.08863533 -0.0001574261 -0.06756655 0.09906966 0.08633721 -0.2603017
0.024722338 0.12051672 0.18176006 -0.07891873 -0.25354367 -0.17048493 0.08061592 0.04561943
0.04683682 -0.035322897 -0.03736167 0.08435951 0.029145563 0.13983439 -0.24709414 0.09480817
0.09578095 0.074557856 0.117618226 0.30087146 -0.22506583 -0.10823144 -0.24803326 0.10747801
-0.08375448 1.1800591e-05 -0.04066298 0.02521201 0.013108509 -0.26855835 -0.0354576 0.07670702
0.121023275 -0.0058716107 -0.101452895 -0.32831815 0.1855365 -0.27495098 -0.154162 -0.20498914
-0.20645493 0.28159425 -0.18077025 -0.22411545 -0.12805593 0.034687128 0.12799405 0.06615097
-0.13653222 -0.013878348 -0.09873351 -0.24723965 0.1034601 0.16690281 0.17372066 -0.16322438
0.046613924 0.26017895 0.16497988 0.057781514 0.035638295 0.21236613 -0.029971313 -0.1728368
-0.21402623 0.22411916 -0.04149888 0.10929934 0.087670706 0.12997955 0.105753966 -0.21922757
0.15487494 -0.09504738 -0.14318505 -0.0021287566 -0.104016274 0.1937594 -0.05328209 -0.20368542
-0.2903864 -0.0538203 -0.2223568 -0.31434357 -0.0081201885 -0.0042772903 0.18579152 0.19999534
0.17229024 -0.18182711 0.1844508 -0.23914571 0.30939385 0.2365454 0.07776228 -0.16890553
-0.113686815 0.03499244 -0.11177805 -0.036222324 0.10661771 0.16890395 -0.16383487 -0.083080895
0.14083698 -0.023110373 0.0087316 -0.17558713 -0.15827398 -0.1734537 -0.017843707 0.041854758
0.05179209 0.12968302 -0.0052111666 0.05575672 -0.34725657 -0.12849869 0.057798345 -0.2883723
0.036747575 -0.021883406 0.13767031 -0.049431946 -0.13949223 0.086930335 -0.2196755 -0.040755723
0.048094504 -0.23474762 -0.052893497 0.06432194 -0.1357992 0.17985992 0.1049636 0.0642431
-0.08250218 -0.30021855 0.15912366 0.119488984 -0.11706064 0.030022485 0.042729914 -0.08501369
0.18983686 -0.30774808 0.08484068 0.070365354 -0.07634914 -0.02213506 -0.21325867 -0.014910177
0.0850621 -0.10189221 0.10754643 0.08460851 -0.1542528 -0.18525743 -0.01956112 0.32035008
-0.018569006 0.031057714 -0.0634308 -0.12006973 -0.17609169 -0.31481612 0.076697096 0.055713844
0.036766954 -0.07727521 -0.027916009 -0.18140899 -0.16211401 -0.17999017 -0.069218665 -0.10225703
0.10334067 -0.30427694 -0.010221514 0.023648892 0.14269513 0.333485 0.26288843 0.12081063
0.124954335 0.077548034 0.12732826 -0.16267264 -0.13129278 -0.17431453 0.16234599 0.11865101
-0.17528488 -0.076360285 -0.041500296 0.2962102 0.002778578 -0.15370405 0.07776673 -0.11083293
-0.080151156 0.12737593 0.19826324 -0.011906691 -0.038482167 0.05182023 -0.018520094 -0.14961115
-0.024039794 -0.2948689 -0.19173971 0.019580951 -0.015927615 -0.03848288 -0.14351018 -0.14373404
00000000: 3a79 25be a697 af3d eadb 79bd 60d1 533d
00000010: 56f8 193d b1ec 353d 5e02 983e 89ad 4dbc
00000020: 1a0e 52bd af56 813e 418d 14be d0ba 8e3d
00000030: 113e 2cbe 9edc bd3c 623d 59bc 879b b3bd
00000040: 6e1e 2b3e 2593 883d 4f5a a7bc 60d5 72bd
00000050: 983e 8e3e 85ad eb3d 5fa1 55bc a996 123e
00000060: 4540 2b3d 8ea5 d1bd 8275 a2bd 75c8 14bd
00000070: 493f f3bd c67e 0b3e f7c3 aa3d 030c e3bd
00000080: 0d01 17be 314b cdbd 7186 b5bd bf12 25b9
00000090: 5560 8abd 09e5 ca3d 90d1 b03d 4446 85be
000000a0: 8086 ca3c 78d1 f63d 4f1f 3a3e 25a0 a1bd
000000b0: 7ad0 81be 9a93 2ebe f619 a53d 70db 3a3d
000000c0: f7d7 3f3d beae 10bd 8d08 19bd aec4 ac3d
000000d0: adc2 ee3c bf30 0f3e 3f06 7dbe c92a c23d
000000e0: cd28 c43d cab1 983d d3e1 f03d d30b 9a3e
000000f0: a877 66be 72a8 ddbd 6efc 7dbe 6e1d dc3d
00000100: 7887 abbd 27fb 4537 3a8e 26bd 6b89 ce3c
00000110: 12c5 563c 7b80 89be fd3b 11bd 9218 9d3d
00000120: 0ddb f73d a466 c0bb 89c6 cfbd 5119 a8be
00000130: 48fd 3d3e 60c6 8cbe a5dc 1dbe ace8 51be
00000140: ec68 53be 1f2d 903e d61b 39be 857e 65be
00000150: 1821 03be 1714 0e3d df10 033e 297a 873d
00000160: 1acf 0bbe 0362 63bc cb34 cabd 642c 7dbe
00000170: e4e2 d33d 92e8 2a3e d4e3 313e 4b24 27be
00000180: 3eee 3e3d 2d36 853e 7cf0 283e 4fac 6c3d
00000190: 76f9 113d 8276 593e 6686 f5bc 21fc 30be
000001a0: b129 5bbe 7e7f 653e bbfa 29bd 55d8 df3d
000001b0: b38c b33d 5c19 053e 8995 d83d 317d 60be
000001c0: 8997 1e3e 33a8 c2bd 1a9f 12be 9c82 0bbb
000001d0: 7c06 d5bd dd68 463e 523e 5abd e992 50be
000001e0: 87ad 94be ad72 5cbd 80b1 63be a4f1 a0be
000001f0: 8a0a 05bc 8328 8cbb 2240 3e3e 94cb 4c3e
00000200: da6c 303e e330 3abe ace0 3c3e 9de2 74be
00000210: df68 9e3e f538 723e d541 9f3d 92f5 2cbe
00000220: a2d4 e8bd 3c54 0f3d e4eb e4bd dc5d 14bd
00000230: 635a da3d 28f5 2c3e 54c4 27be 5126 aabd
00000240: 9237 103e f751 bdbc fc0e 0f3c 1dcd 33be
00000250: 9312 22be d99d 31be f72c 92bc e56f 2b3d
00000260: f123 543d a0cb 043e 6fc2 aabb 2961 643d
00000270: 9dcb b1be 2995 03be f5bd 6c3d 89a5 93be
00000280: a084 163d d444 b3bc 72f9 0c3e 2779 4abd
00000290: 0dd7 0ebe 8808 b23d 9df2 60be 79ef 26bd
000002a0: befe 443d ae61 70be daa6 58bd 39bb 833d
000002b0: f20e 0bbe 332d 383e 28f7 d63d e391 833d
000002c0: e7f6 a8bd 3fb6 99be 50f1 223e a4b6 f43d
000002d0: 7dbd efbd b7f1 f53c 9005 2f3d a81b aebd
000002e0: 9864 423e 2891 9dbe f3c0 ad3d b61b 903d
000002f0: f05c 9cbd 9654 b5bc 7b60 5abe d149 74bc
00000300: 0a35 ae3d ddac d0bd 4d41 dc3d 3a47 ad3d
00000310: 72f4 1dbe 20b4 3dbe a43e a0bc ed04 a43e
00000320: 071e 98bc bf6c fe3c 02e8 81bd 1ee7 f5bd
00000330: 6151 34be 942f a1be 5e13 9d3d 3334 643d
00000340: f298 163d 7742 9ebd 1db0 e4bc 47c3 39be
00000350: 3701 26be 584f 38be 84c2 8dbd 226c d1bd
00000360: 46a4 d33d 30ca 9bbe 2378 27bc 52bb c13c
00000370: ac1e 123e 8cbe aa3e 5099 863e 906b f73d
00000380: 0fe8 ff3d 81d1 9e3d 5762 023e a893 26be
00000390: 9d71 06be 827f 32be 073e 263e 4dff f23d
000003a0: e17d 33be c862 9cbd 37fc 29bd dda8 973e
000003b0: ce18 363b 9864 1dbe 2a44 9f3d 60fc e2bd
000003c0: 4a26 a4bd d66e 023e 8505 4b3e 4814 43bc
000003d0: 7a9f 1dbd 7341 543d 74b7 97bc aa33 19be
000003e0: 1aef c4bc 0ef9 96be 6a57 44be 3b68 a03c
000003f0: a17a 82bc 39a0 1dbd 55f4 12be 042f 13be

conv2.bias f4 [16]
-0.1267808 -0.15560503 -0.17340285 -0.23884891 -0.2648487 -0.3156198 -0.20944631 -0.43467522
-0.21627817 -0.33931106 -0.3117066 -0.35023117 -0.3595172 -0.21689755 -0.115521744 -0.2396764
00000000: d3d2 01be ed56 1fbe 8490 31be cf94 74be
00000010: 409a 87be eb98 a1be 1879 56be c08d debe
00000020: 0678 5dbe 2eba adbe 0298 9fbe 8051 b3be
00000030: a312 b8be 641a 5ebe aa96 ecbd bb6d 75be

conv3.weight f4 [120, 16, 5, 5]
-0.0030297195 0.012472588 0.0013485616 0.024528889 -0.043165073 0.08786485 -0.029727034 0.041855287
0.030910108 0.036839105 0.07896098 -0.02381978 0.08630192 0.019848077 0.02452714 0.07576472
-0.022746045 0.027330272 -0.03183731 0.013428715 -0.032212067 -0.062372427 -0.052140053 0.084573604
-0.03230142 0.06606782 0.059693478 -0.066118054 -0.044567034 -0.0128552215 -0.041050557 -0.007033144
-0.02401799 0.012414012 0.01395195 0.031089004 -0.0040378515 -0.053666152 0.017301528 0.08171039
-0.050273746 0.047917504 -0.028938623 -0.008554553 0.06370924 0.033230767 -0.046696045 -0.07199933
-0.027935823 -0.04795026 0.055947777 -0.038645696 -0.048291523 -0.023511086 0.05480314 -0.10306163
-0.0035902322 -0.047932573 -0.022313565 0.013587478 0.0033347395 0.011184985 -0.022708196 -0.03225225
-0.053382877 0.008276191 -0.018750915 -0.0012055249 0.078296974 -0.103297524 0.03593507 -0.0073371325
0.018677834 -0.09693115 -0.018909154 0.06011693 0.052556258 -0.085469805 -0.077153824 0.014585574
0.004450342 0.043994807 -0.042883243 -0.04920311 -0.017167766 -0.021402387 0.019096425 -0.06483948
0.039404612 0.047771405 0.00141135 0.054093163 0.029991712 0.015036743 -0.07734899 0.015193096
0.0036623955 -0.059178226 -0.016073087 0.04516844 -0.084967986 0.031386957 0.011521205 -0.09332802
-0.008301558 -0.012445035 -0.02144544 0.027681796 0.034848623 0.020576699 0.11677118 -0.05709841
0.009445631 0.025787413 0.020872919 -0.01221822 0.049268585 0.039046988 0.008785459 -0.030250084
0.015144481 -0.001405387 -0.022464674 0.0024347336 0.027193928 0.015633138 -0.018742139 -0.044315636
-0.012959215 -0.02395736 0.051239572 0.02888604 -0.043569364 0.029601442 0.019697616 -0.043948904
0.0691418 0.005869148 0.07830654 -0.036187302 0.12383949 0.049453158 -0.007668453 -0.07602845
0.06917587 0.004191002 -0.0051207263 -0.014692251 -0.024465403 0.11674335 -0.050113894 -0.0075020157
-0.032706447 -0.027982488 0.071730874 -0.044089478 -0.11792839 -0.10697737 0.0008128355 0.035790987
0.06311559 0.014702725 -0.042713612 0.05620534 0.0035462622 0.10623616 -0.062290564 0.03573659
0.027903015 -0.1032726 0.031957198 0.014587917 -0.029345293 0.009457444 0.07752244 0.011693258
0.048335694 0.046179723 -0.075902775 0.08654882 -0.044244822 0.010197209 -0.010533868 -0.061885472
0.052382287 0.033903193 0.1565082 -0.04179252 0.06196505 0.033133645 0.034027204 -0.05148145
0.011936767 -0.051806107 0.029481428 0.094776876 0.063601136 0.023013072 0.046186335 0.028059695
-0.12950088 -0.032306895 0.047199793 0.04893547 -0.009264499 -0.013204917 0.045166537 -0.054631546
-0.021306159 0.0694587 -0.054271653 0.060258854 0.07246712 0.031083615 0.004246519 -0.016940119
0.039159384 -0.001861058 0.0071378737 -0.04577215 -0.058967527 0.062040225 0.0032447963 0.13245045
0.050133895 -0.030621337 -0.04373038 0.0014908516 0.014238327 0.07332924 -0.022095062 -0.02108305
-0.014945944 -0.024909463 0.035652805 0.023330165 0.017468167 -0.078250214 0.08043989 -0.06933925
0.008205575 0.024136275 0.023570092 -0.045782633 0.07835607 -0.014522534 -0.05797498 0.0024065592
0.044817768 -0.06974553 -0.011206219 -0.02867758 0.038164888 -0.04701665 0.09466275 -0.0081594465
00000000: 428e 46bb d359 4c3c 38c2 b03a cff0 c83c
00000010: dccd 30bd 7df2 b33d 1c86 f3bc 7370 2b3d
00000020: 3237 fd3c 9ae4 163d 4bb6 a13d b321 c3bc
00000030: 10bf b03d 6f98 a23c 24ed c83c 892a 9b3d
00000040: ea55 babc bce3 df3c d767 02bd 1d04 5c3c
00000050: cdf0 03bd 3b7a 7fbd cf90 55bd ed34 ad3d
00000060: 7e4e 04bd 914e 873d 2681 743d e768 87bd
00000070: ec8b 36bd b59e 52bc a124 28bd 4a76 e6bb
00000080: 60c1 c4bc 2464 4b3c b896 643c 5eae fe3c
00000090: f44f 84bb 0ad1 5bbd efbb 8d3c c757 a73d
000000a0: d8eb 4dbd 2545 443d b110 edbc 6528 0cbc
000000b0: fd79 823d fc1c 083d 5a44 3fbd 6274 93bd
000000c0: abd9 e4bc 7e67 44bd 7f29 653d f34a 1ebd
000000d0: 55cd 45bd 529a c0bc 4279 603d fa11 d3bd
000000e0: 1a4a 6bbb f254 44bd f0ca b6bc 039e 5e3c
000000f0: a58b 5a3b 3a41 373c 8a06 babc ef1a 04bd
00000100: 01a8 5abd dc98 073c 859b 99bc b402 9eba
00000110: 2a5a a03d a78d d3bd a730 133d 546c f0bb
00000120: 4202 993c d783 c6bd 5fe7 9abc 2c3d 763d
00000130: 3b45 573d cb0a afbd d302 9ebd 55f8 6e3c
00000140: 2dd4 913b e633 343d 57a6 2fbd 3389 49bd
00000150: 6aa3 8cbc 0f54 afbc 1b70 9c3c 90ca 84bd
00000160: bb66 213d f3ab 433d 0cfd b83a cb90 5d3d
00000170: 2eb1 f53c ac5c 763c 2669 9ebd 77ec 783c
00000180: cd04 703b de64 72bd b5ab 83bc 8b02 393d
00000190: b203 aebd 9c8f 003d 70c3 3c3c c322 bfbd
000001a0: 4203 08bc 43e6 4bbc 59ae afbc efc4 e23c
000001b0: 6ebd 0e3d 7790 a83c ba25 ef3d 06e0 69bd
000001c0: d9c1 1a3c 2040 d33c affd aa3c ee2e 48bc
000001d0: dbcd 493d bcef 1f3d e3f0 0f3c 06cf f7bc
000001e0: 8f20 783c f634 b8ba d607 b8bc 0d90 1f3b
000001f0: cdc5 de3c 1111 803c 1d89 99bc 5084 35bd
00000200: e352 54bc 3a42 c4bc 96e0 513d 6ba2 ec3c
00000210: ca75 32bd b97e f23c e55c a13c c403 34bd
00000220: 379a 8d3d fb51 c03b 2e5f a03d 2339 14bd
00000230: 8f9f fd3d 658f 4a3d a547 fbbb ceb4 9bbd
00000240: 14ac 8d3d ac54 893b c4cb a7bb c4b7 70bc
00000250: ab6b c8bc 2317 ef3d 3a44 4dbd 78d3 f5bb
00000260: 32f7 05bd 883b e5bc a3e7 923d 2b97 34bd
00000270: 7184 f1bd f416 dbbd 7814 553a 9299 123d
00000280: bf42 813d b3e3 703c 78f4 2ebd 9237 663d
00000290: 6868 683b 5892 d93d 6424 7fbd 8860 123d
000002a0: dd94 e43c 9680 d3bd 8de5 023d 2902 6f3c
000002b0: 8a65 f0bc 65f3 1a3c 16c4 9e3d 1495 3f3c
000002c0: a6fb 453d f326 3d3d ea72 9bbd 8240 b13d
000002d0: 0f3a 35bd 3212 273c 3f96 2cbc 9f7b 7dbd
000002e0: cf8e 563d 13de 0a3d b043 203e a22e 2bbd
000002f0: 10cf 7d3d 25b7 073d 1c60 0b3d 37de 52bd
00000300: 6e92 433c a432 54bd 0983 f13c 611a c23d
00000310: 5041 823d e985 bc3c e22d 3d3d 72dd e53c
00000320: e19b 04be 3c54 04bd 9254 413d 8f70 483d
00000330: 20ca 17bc 7059 58bc 8c00 393d 54c5 5fbd
00000340: 418a aebc 5d40 8e3d f44b 5ebd fdd1 763d
00000350: a469 943d 11a3 fe3c 6226 8b3b 01c6 8abc
00000360: 9765 203d beee f3ba d3e4 e93b 947b 3bbd
00000370: ef87 71bd e41d 7e3d a6a6 543b 17a1 073e
00000380: 3359 4d3d 99d9 fabc a01e 33bd ae68 c33a
00000390: df47 693c a42d 963d b400 b5bc 5cb6 acbc
000003a0: d5df 74bc ee0e ccbc ad08 123d e71e bf3c
000003b0: 6719 8f3c a641 a0bd abbd a43d bd01 8ebd
000003c0: ad70 063c 70b9 c53c 1116 c13c 9286 3bbd
000003d0: 2679 a03d ecef 6dbc 2c77 6dbd 5db7 1d3b
000003e0: d692 373d bfd6 8ebd 4a9a 37bc 3fed eabc
000003f0: c952 1c3d 8894 40bd 8bde c13d 33af 05bc

conv3.bias f4 [120]
0.026413614 0.055755842 -0.053559285 0.021680668 -0.02330851 -0.039370514 -0.035840996 -0.031359594
-0.05593349 -0.054305967 -0.050278377 -0.06681972 0.048077732 -0.039250955 -0.02588901 -0.119147874
0.09097797 -0.020072222 -0.025894037 -0.060085826 -0.020151785 0.019902362 0.005771696 0.053677995
0.03212365 -0.013235463 -0.04616757 0.06629871 -0.11666227 0.0093426425 0.022613823 0.07594897
-0.019616941 0.100682706 -0.02023689 0.053288132 0.010672002 0.08841313 0.052195113 -0.004044074
0.0074198586 -0.00924016 -0.042189017 0.07578844 0.014146134 -0.014690207 0.029102653 0.04584295
-0.01111046 -0.021063326 0.027077584 -0.051045153 0.014731464 -0.04696314 -0.057091694 0.03376222
0.037354715 -0.037113003 -0.043682896 -0.03869547 0.0717995 -0.031804696 -0.014740225 -0.042036057
0.07970253 0.059130404 -0.009662015 0.0020226892 -0.049449984 -0.045350235 0.028392963 -0.0136877205
0.02327144 0.05244694 0.035760067 -0.034698907 0.050036162 -0.022688512 0.06798904 0.025659392
0.12713267 0.0077432515 0.017003624 0.057820015 0.034539104 -0.027486041 -0.00061400444 0.04146621
-0.02396781 -0.039144345 0.040203325 -0.046507653 0.010186333 0.0065266984 -0.0515331 -0.047707986
0.042004984 -0.035434376 0.033332195 -0.06884867 -0.026445085 -0.01378187 0.050854065 -0.022559818
0.039433658 0.0032491314 0.05556158 0.037389357 -0.05860557 0.04694477 -0.02472345 -0.031955127
-0.0069050756 -8.653279e-05 -0.02011096 -0.06267251 0.077612884 -0.02110496 0.06253038 0.0996988
00000000: 5d61 d83c 3d60 643d fb60 5bbd a89b b13c
00000010: 7df1 bebc fa42 21bd 02ce 12bd eb72 00bd
00000020: 841a 65bd ef6f 5ebd b3f0 4dbd c7d8 88bd
00000030: 28ed 443d 9cc5 20bd 3015 d4bc cd03 f4bd
00000040: a852 ba3d 806e a4bc bb1f d4bc 8e1c 76bd
00000050: 5b15 a5bc 470a a33c 7f20 bd3b 75dd 5b3d
00000060: 1794 033d 8ed9 58bc 351a 3dbd 9ec7 873d
00000070: a1ec eebd e211 193c a040 b93c 228b 9b3d
00000080: b5b3 a0bc bc32 ce3d d6c7 a5bc a844 5a3d
00000090: 9fd9 2e3c f111 b53d 8bca 553d 2784 84bb
000000a0: 4922 f33b 0a64 17bc 64ce 2cbd f836 9b3d
000000b0: 30c5 673c 32af 70bc b068 ee3c d1c5 3b3d
000000c0: a608 36bc ff8c acbc cfd1 dd3c b914 51bd
000000d0: 3d5c 713c 6c5c 40bd fbd8 69bd 414a 0a3d
000000e0: 4201 193d ce03 18bd d6ec 32bd 247f 1ebd
000000f0: 9e0b 933d a445 02bd fc80 71bc 002e 2cbd
00000100: 143b a33d b932 723d 6e4d 1ebc 188f 043b
00000110: 118c 4abd 2bc1 39bd 5c98 e83c 7642 60bc
00000120: bfa3 be3c 9ad2 563d 2679 123d 7120 0ebd
00000130: b8f2 4c3d 42dd b9bc d63d 8b3d a533 d23c
00000140: 112f 023e 1abb fd3b 2f4b 8b3c aed4 6c3d
00000150: e078 0d3d 682a e1bc 24f5 20ba 79d8 293d
00000160: 2458 c4bc d255 20bd 3eac 243d cf7e 3ebd
00000170: 94e4 263c eadd d53b 5f14 53bd 7369 43bd
00000180: 6b0d 2c3d a323 11bd 5787 083d 8800 8dbd
00000190: 5da3 d8bc 5acd 61bc 5a4c 503d 5ecf b8bc
000001a0: 3085 213d 61ef 543b 8a94 633d 9525 193d
000001b0: 650c 70bd 2949 403d d588 cabc 61e3 02bd
000001c0: f943 e2bb f078 b5b8 bdbf a4bc 725a 80bd
000001d0: 81f3 9e3d 4fe4 acbc ee0f 803d e22e cc3d

fc1.weight f4 [84, 120]
-0.14450663 -0.07792029 0.0014737826 -0.054812264 -0.122563735 0.09260997 -0.09560009 -0.1958426
-0.022486577 -0.059992995 -0.0024975233 -0.15257508 -0.0046435785 -0.05446396 -0.1632076 -0.0911736
0.17503895 -0.11960063 -0.105591916 0.07516392 -0.12297153 0.058877625 0.019216225 0.05880822
0.14152807 -0.016791198 -0.1758236 0.18187656 -0.16267899 0.024295066 0.0013544479 0.13239758
0.023601111 -0.115075596 -0.14250346 0.038358916 -0.021743799 -0.15136254 -0.058590036 -0.072497524
-0.027127266 -0.08937863 0.058138307 0.040390212 -0.059606064 -0.01825483 0.075944304 -0.078458786
0.014545981 -0.083105646 0.14599991 -0.12359241 -0.13129263 0.02252345 -0.0057443636 -0.02155414
-0.15269445 -0.19513659 0.114712775 -0.036395315 -0.20336796 0.026774142 0.020718003 0.07777633
0.015184633 0.0709382 0.026032237 0.0773674 0.010069052 -0.053880915 0.091187775 -0.042082485
0.07071252 -0.05262952 -0.06594255 -0.21100107 -0.044277538 -0.06272492 -0.08724887 -0.009793728
-0.063227065 -0.18377295 0.12928823 -0.009812463 -0.021901648 -0.011462691 -0.10582262 -0.011272307
0.19494262 0.028036106 0.030309176 -0.07172851 0.056338042 -0.08124204 -0.14689733 -0.005913839
0.10664047 0.10067833 0.011663896 -0.0019451025 0.06601899 0.077645965 -0.029539501 0.013608576
0.08142956 0.022252668 0.13902476 0.081544 0.0848239 -0.073653266 -0.04936509 0.09008733
-0.1488306 0.017980505 -0.0604859 -0.06697566 -0.08232823 0.0883272 0.08994632 -0.22624496
0.09314399 0.016496817 0.026735717 0.00079246605 0.1687204 0.06554274 0.052252185 -0.12739843
0.03551166 -0.11407056 -0.19075732 0.009984202 0.020105598 0.006261711 0.1527199 0.12173816
-0.014688792 -0.0072425343 -0.016018031 0.046365872 0.058757838 -0.08463163 -0.00045659402 0.06401417
-0.057975568 0.07988091 -0.082027934 -0.037571043 0.07854894 0.04587728 -0.02888135 -0.08352034
-0.079302706 0.12881862 0.07910126 0.04668139 -0.07420538 -0.25744107 -0.118673 0.117211476
0.07730827 0.14773665 -0.040662017 -0.1655123 -0.08370265 -0.15859747 -0.038487878 -0.15638553
0.06489227 -0.032923654 0.15738736 -0.011847951 -0.06884536 -0.0010464092 0.032340016 -0.08273159
-0.038046606 0.12508793 -0.0030687212 0.021591673 -0.07080778 0.044225402 -0.080927536 -0.061224345
0.10977753 0.058150306 -0.034639247 -0.08439022 0.055196486 -0.122097366 0.050343618 0.03330295
0.0074702892 -0.13487886 0.015026796 -0.023376849 -0.07222808 -0.00625886 -0.17576171 -0.15475346
0.022053666 0.0037331514 -0.19461119 -0.08471855 -0.009070392 0.12722297 0.09227211 -0.065448485
-0.025303375 -0.01710026 -0.034024782 0.062174764 -0.04679589 -0.0048313993 0.05541155 -0.071459316
-0.16413844 0.012100817 -0.11589858 -0.08719932 0.1036701 0.06315332 -0.15686496 0.07823744
-0.0014850973 -0.16589648 -0.11606944 0.07081416 0.10126358 0.027349383 0.11210748 -0.01886669
-0.14512512 -0.07253355 0.001397287 0.021083627 0.054788146 0.067094706 0.07339246 -0.04173052
0.080056176 -0.025802266 -0.08462511 -0.03843327 -0.0508324 0.0229946 -0.10810296 -0.061458524
-0.095401555 0.112578645 -0.038728926 -0.0004176351 -0.051092763 -0.08033213 0.08990473 0.13019511
00000000: 8cf9 13be ac94 9fbd f02b c13a d382 60bd
00000010: b202 fbbd 4caa bd3d fbc9 c3bd f68a 48be
00000020: c535 b8bc 37bb 75bd 7dad 23bb a43c 1cbe
00000030: 2929 98bb 9a15 5fbd e51f 27be 39b9 babd
00000040: 693d 333e 2df1 f4bd 9340 d8bd 8bef 993d
00000050: 7fd8 fbbd aa29 713d 586b 9d3c e3e0 703d
00000060: bcec 103e b28d 89bc 1a0b 34be d93d 3a3e
00000070: 5295 26be 7206 c73c bb87 b13a 3b93 073e
00000080: 1e57 c13c c1ac ebbd 6dec 11be 3d1e 1d3d
00000090: 0d20 b2bc c8fe 1abe 1bfc 6fbd 9579 94bd
000000a0: 003a debc 250c b7bd 6f22 6e3d 3570 253d
000000b0: 7d25 74bd 278b 95bc b088 9b3d 00af a0bd
000000c0: 4452 6e3c 4b33 aabd 0081 153e 041e fdbd
000000d0: 9371 06be 1983 b83c 373b bcbb 4f92 b0bc
000000e0: ef5b 1cbe e3d1 47be 88ee ea3d 4113 15bd
000000f0: b13f 50be 7255 db3c cdb8 a93c 3249 9f3d
00000100: f8c8 783c 0c48 913d 8f41 d53c cd72 9e3d
00000110: aaf8 243c 3cb2 5cbd a8c0 ba3d af5e 2cbd
00000120: bad1 903d 0d92 57bd e30c 87bd aa10 58be
00000130: 5d5c 35bd ec75 80bd 89af b2bd df75 20bc
00000140: 317d 81bd fa2e 3cbe 2264 043e 74c4 20bc
00000150: 166b b3bc 03ce 3bbc 88b9 d8bd 7baf 38bc
00000160: 0a9f 473e faab e53c f34a f83c 66e6 92bd
00000170: b8c2 663d 3a62 a6bd 416c 16be e1c8 c1bb
00000180: 5266 da3d 7130 ce3d ed19 3f3c cff2 feba
00000190: f734 873d d904 9f3d d3fc f1bc 81f6 5e3c
000001a0: 8bc4 a63d 3a4b b63c 825c 0e3e 8a00 a73d
000001b0: 27b8 ad3d 86d7 96bd 0c33 4abd b57f b83d
000001c0: 0c67 18be da4b 933c 10c0 77bd 892a 89bd
000001d0: b49b a8bd e4e4 b43d c735 b83d c2ac 67be
000001e0: 47c2 be3d 5524 873c dd04 db3c 7fbd 4f3a
000001f0: 0ac5 2c3e 463b 863d 6306 563d bc74 02be
00000200: ad74 113d d39d e9bd e355 43be c794 233c
00000210: 7fb4 a43c 0a2f cd3b 9b62 1c3e db51 f93d
00000220: 42a9 70bc c852 edbb 3f38 83bc 24ea 3d3d
00000230: 0fac 703d 5953 adbd 0363 efb9 dc19 833d
00000240: ca77 6dbd 9a98 a33d 43fe a7bd 18e4 19bd
00000250: 44de a03d d1e9 3b3d 9598 ecbc b60c abbd
00000260: 7569 a2bd 07e9 033e d7ff a13d fc34 3f3d
00000270: fef8 97bd 51cf 83be d40a f3bd 920c f03d
00000280: cc53 9e3d 4748 173e 378d 26bd 0e7c 29be
00000290: 4c6c abbd 6067 22be 77a5 1dbd 8723 20be
000002a0: 3de6 843d f4da 06bd 272a 213e e91d 42bc
000002b0: ccfe 8cbd ab27 89ba f776 043d 2e6f a9bd
000002c0: c2d6 1bbd 0d17 003e 991c 49bb 05e1 b03c
000002d0: ab03 91bd b225 353d 56bd a5bd 61c6 7abd
000002e0: 0bd3 e03d 042f 6e3d e2e1 0dbd c8d4 acbd
000002f0: b615 623d 2f0e fabd 1c35 4e3d ad68 083d
00000300: 54c9 f43b af1d 0abe f332 763c ce80 bfbc
00000310: 51ec 93bd 2017 cdbb e1fa 33be b177 1ebe
00000320: e4a9 b43c e3a7 743b 2848 47be eb80 adbd
00000330: fb9b 14bc bd46 023e 29f9 bc3d db09 86bd
00000340: 0649 cfbc d815 8cbc 925d 0bbd f7aa 7e3d
00000350: 0cad 3fbd b750 9ebb 39f7 623d 4359 92bd
00000360: e813 28be 8142 463c 3c5c edbd 8f95 b2bd
00000370: fd50 d43d 8756 813d 35a1 20be f33a a03d
00000380: 99a7 c2ba c4e0 29be d1b5 edbd 0407 913d
00000390: 4863 cf3d d00b e03c 9b98 e53d 518e 9abc
000003a0: ae9b 14be 788c 94bd 2c25 b73a 92b7 ac3c
000003b0: 8969 603d f368 893d c94e 963d 9fed 2abd
000003c0: 7ef4 a33d 465f d3bc ee4f adbd 346c 1dbd
000003d0: a235 50bd 2c5f bc3c 1665 ddbd efbb 7bbd
000003e0: e461 c3bd a28f e63d 39a2 1ebd 09f6 dab9
000003f0: a546 51bd 2c85 a4bd f91f b83d de51 053e

fc1.bias f4 [84]
-0.0050484817 -0.09100135 0.010789432 0.017745804 0.045998223 0.055375457 0.07875672 0.12811457
0.008772114 0.033485968 -0.043861702 0.06605471 0.06642932 -0.0045115612 0.044523202 -0.043530796
-0.0014432193 -0.03813807 -0.026697366 0.01820377 -0.0379978 -0.0026649842 0.016413568 -0.023638139
0.08855302 0.024518253 0.08837185 -0.012128216 0.020930972 0.04509036 0.03250342 0.05591106
-0.028132668 -0.042597406 -0.030703334 -0.031584647 -0.06648765 -0.07122044 0.01041768 -0.017200414
0.018376622 -0.008519789 0.011630783 0.0022687889 0.08736316 0.026813913 0.0007116481 0.025382932
-0.022676136 0.018088488 -0.01556574 0.008989984 0.07951401 -0.051368713 -0.09710283 0.035984132
0.02550694 -0.0021727174 0.0343925 -0.052527595 -0.07556229 0.0779913 -0.04282922 -0.007197945
-0.016890148 -0.071362294 0.039689936 0.01841124 0.03305827 -0.0038602045 -0.034751832 0.09795519
0.04206935 0.029932363 0.027045835 0.056989335 -0.026662724 -0.06014451 0.02882117 0.062196184
-0.08416637 -0.03203986 0.025266964 -0.019089308
00000000: bc6d a5bb ea5e babd 28c6 303c a65f 913c
00000010: a268 3c3d 60d1 623d 344b a13d 7730 033e
00000020: eab8 0f3c 9528 093d 54a8 33bd b147 873d
00000030: 180c 883d b8d5 93bb f65d 363d 594d 32bd
00000040: 672a bdba aa36 1cbd 6fb4 dabc 1320 953c
00000050: 95a3 1bbd 04a7 2ebb bf75 863c c5a4 c1bc
00000060: 495b b53d 81da c83c 4dfc b43d 6db5 46bc
00000070: 6e77 ab3c abb0 383d 4e22 053d ff02 653d
00000080: 7b76 e6bc 9e7a 2ebd 8f85 fbbc e75e 01bd
00000090: ad2a 88bd 06dc 91bd ebae 2a3c e2e7 8cbc
000000a0: 928a 963c 9696 0bbc 0a8f 3e3c f6af 143b
000000b0: 75eb b23d daa8 db3c e58d 3a3a deef cf3c
000000c0: 4ec3 b9bc 4f2e 943c 7207 7fbc ba4a 133c
000000d0: 3ed8 a23d 0068 52bd d9dd c6bd 1964 133d
000000e0: eef3 d03c 2664 0ebb 26df 0c3d 2d27 57bd
000000f0: 67c0 9abd e7b9 9f3d b16d 2fbd bddc ebbb
00000100: 355d 8abc 6526 92bd ea91 223d 2bd3 963c
00000110: 1c68 073d 7cfb 7cbb f057 0ebd bb9c c83d
00000120: e950 2c3d b734 f53c 3a8f dd3c a66d 693d
00000130: c96b dabc 175a 76bd 601a ec3c 6dc1 7e3d
00000140: 6b5f acbd 3a3c 03bd aafc ce3c 2e61 9cbc

fc2.weight f4 [10, 84]
-0.3392773 -0.22073103 0.36464235 -0.023283398 0.2161637 -0.36933056 0.24832012 0.27209276
-0.56595105 0.041860286 -0.15046212 0.019829527 0.07602554 0.23179717 0.24755663 0.3630214
-0.4953223 0.020001767 -0.22303666 0.37142676 -0.3033895 -0.47061825 -0.17211118 0.3609076
0.17763935 -0.44320655 -0.18810429 -0.3853341 0.41071585 -0.09165264 -0.052842624 0.3654862
-0.27379847 0.086215585 -0.051299155 0.24996082 -0.20750013 -0.2723305 -0.03280479 -0.056814287
-0.25498885 0.31603768 -0.13704978 -0.4352408 0.08031292 -0.6028752 0.32963786 0.45615432
0.29293564 -0.10530772 -0.36054856 0.44832662 -0.4959057 -0.4466027 0.02803237 -0.3851605
0.3235401 0.3602214 0.28761658 0.19966899 0.5940646 0.32458138 -0.064469576 0.48509777
-0.25505444 -0.32171583 0.2786863 0.06667077 0.59920007 -0.31056473 -0.24803562 0.06498993
0.49409297 -0.37384608 -0.43078277 -0.14664552 0.2915373 0.36691755 -0.3920314 -0.2901187
-0.29552472 0.1970908 -0.68457156 0.3138435 -0.36588243 0.41642895 -0.28079337 -0.40546933
0.039192542 0.2606996 0.151336 0.3372074 0.36522824 0.3247685 -0.34352455 0.62994754
0.4112091 -0.5543212 0.53791344 -0.46766895 -0.08052726 0.09516602 0.49813604 -0.045785934
-0.24523218 0.22030403 0.041597378 -0.200296 0.38375705 0.03049727 0.21699907 0.0871268
0.04944602 0.3272589 -0.34452605 0.2117618 0.43537706 -0.37986887 0.14326926 0.14043516
0.5819404 0.40575865 0.2729222 -0.28816795 0.15947011 -0.24325748 0.2263555 -0.0014973021
-0.13356923 0.3148322 -0.05699 0.42717454 0.4968096 0.3462763 0.26671135 -0.44750738
0.12248335 0.05742348 -0.49404174 0.2235352 -0.13047111 -0.47340977 -0.34684545 0.16740748
-0.2951575 0.30366963 -0.28464246 -0.34900355 0.48903707 0.38515234 0.518243 0.21267802
0.362158 0.4155927 0.087416574 0.0027673484 -0.08733715 0.1972009 -0.23652776 0.24120507
-0.49699295 -0.398046 0.3838494 0.4492737 0.04644076 0.09001715 -0.096183896 -0.51753306
-0.15302621 -0.5222573 0.46136126 -0.46919373 0.70425814 0.6324482 0.2874332 0.4980718
0.07908955 -0.060201515 0.34306335 0.361962 -0.1497107 0.42232403 -0.19241554 0.202487
0.48762566 0.14224613 -0.22992139 -0.2448978 -0.30908078 0.24023889 0.25490433 -0.0039942595
0.20718706 0.3180446 0.32678118 0.6667316 0.3923859 0.37548986 -0.3660691 -0.19141997
-0.3568337 0.13418178 -0.41932857 -0.31054714 -0.582213 0.13922673 -0.6362266 0.37886012
-0.41057286 0.24942529 0.39427295 0.3204207 -0.5207576 0.11031548 0.008851433 0.08259899
0.23804143 -0.49089336 0.120777965 0.83902097 -0.020126661 0.34009883 -0.33836997 0.16263999
0.23223136 0.2471267 -0.2826565 -0.14964047 0.6268597 0.09720418 -0.44259778 -0.5430744
-0.2853797 -0.23599552 -0.3831303 -0.46219313 0.6876098 -0.4271251 0.3248186 0.28909904
0.35775504 0.24874191 0.22065775 0.48207343 -0.17686726 -0.2651787 -0.27242655 -0.07960563
-0.55784124 -0.1402963 0.4134398 -0.70508933 0.52927995 0.2591424 0.2351502 -0.13627692
00000000: c1b5 adbe 5107 62be 67b2 ba3e d3bc bebc
00000010: 045a 5d3e e518 bdbe a147 7e3e be4f 8b3e
00000020: 2be2 10bf b175 2b3d be12 1abe 8871 a23c
00000030: 47b3 9b3d 3d5c 6d3e 7c7f 7d3e f1dd b93e
00000040: e29a fdbe bfda a33c b963 64be a62b be3e
00000050: de55 9bbe e0f4 f0be ea3d 30be e2c8 b83e
00000060: 17e7 353e f8eb e2be 699e 40be 834a c5be
00000070: 5949 d23e 61b4 bbbd 8271 58bd 0221 bb3e
00000080: 502f 8cbe cc91 b03d 101f 52bd bbf5 7f3e
00000090: ea7a 54be e76e 8bbe 515e 06bd 19b6 68bd
000000a0: e68d 82be b1cf a13e c756 0cbe e2d7 debe
000000b0: 1a7b a43d 0756 1abf 4bc6 a83e 0f8d e93e
000000c0: a9fb 953e 93ab d7bd d299 b8be 118b e53e
000000d0: 5ae7 fdbe 1ca9 e4be 24a4 e53c c233 c5be
000000e0: 0ca7 a53e f06e b83e 7b42 933e 0776 4c3e
000000f0: 9e14 183f 882f a63e a008 84bd bc5e f83e
00000100: 7f96 82be f0b7 a4be f9af 8e3e af8a 883d
00000110: 2d65 193f 5702 9fbe 0dfd 7dbe 7119 853d
00000120: c1f9 fc3e c168 bfbe 8f8f dcbe 3e2a 16be
00000130: 6144 953e 9edc bb3e 57b8 c8be 708a 94be
00000140: 044f 97be 2cd2 493e 1540 2fbf 18b0 a03e
00000150: f154 bbbe 2d36 d53e 26c4 8fbe ad99 cfbe
00000160: 5c88 203d 6b7a 853e d3f7 1a3e 73a6 ac3e
00000170: 32ff ba3e 0f48 a63e 73e2 afbe 3e44 213f
00000180: 008a d23e ffe7 0dbf b2b4 093f 4e72 efbe
00000190: 7aeb a4bd 67e6 c23d b00b ff3e 088a 3bbd
000001a0: 251e 7bbe 6197 613e 0362 2a3d 651a 4dbe
000001b0: ce7b c43e 69d5 f93c 0135 5e3e 896f b23d
000001c0: e987 4a3d 7b8e a73e b865 b0be 16d8 583e
000001d0: bee9 de3e 2c7e c2be 2db5 123e 3cce 0f3e
000001e0: 0cfa 143f 99bf cf3e 75bc 8b3e c08a 93be
000001f0: 224c 233e 7d18 79be bcc9 673e 1f41 c4ba
00000200: 5fc6 08be b031 a13e 596e 69bd 9fb6 da3e
00000210: d45d fe3e 214b b13e 648e 883e b01f e5be
00000220: 8dd8 fa3d e234 6b3d 0af3 fcbe 69e6 643e
00000230: 389a 05be c462 f2be ba95 b1be de6c 2b3e
00000240: e21e 97be 967a 9b3e a8bc 91be 98b0 b2be
00000250: 1163 fa3e b032 c53e 93ab 043f 44c8 593e
00000260: c66c b93e 91c8 d43e 7607 b33d 675c 353b
00000270: d2dd b2bd 08ef 493e 5534 72be 76fe 763e
00000280: dc75 febe afcc cbbe e987 c43e 3407 e63e
00000290: ab38 3e3d e95a b83d 10fc c4bd 0c7d 04bf
000002a0: e7b2 1cbe a8b2 05bf 8b37 ec3e 293a f0be
000002b0: 434a 343f 20e8 213f 722a 933e 4403 ff3e
000002c0: b4f9 a13d dd95 76bd 00a6 af3e 1553 b93e
000002d0: c34d 19be db3a d83e 9408 45be c158 4f3e
000002e0: 12aa f93e f8a8 113e 8370 6bbe 7dc6 7abe
000002f0: d63f 9ebe 2f01 763e d282 823e 47e2 82bb
00000300: d828 543e bed6 a23e dd4f a73e ecae 2a3f
00000310: cee6 c83e 3540 c03e 696d bbbe 9903 44be
00000320: e8b2 b6be f366 093e 3cb2 d6be 0900 9fbe
00000330: e90b 15bf 7491 0e3e bfdf 22bf f4f9 c13e
00000340: 9b36 d2be 5869 7f3e 25de c93e 2f0e a43e
00000350: 5f50 05bf 15ed e13d 9a05 113c a929 a93d
00000360: 22c1 733e 6056 fbbe 705a f73d 14ca 563f
00000370: abe0 a4bc 6f21 ae3e d43e adbe 198b 263e
00000380: 0fce 6d3e c80e 7d3e 5ab8 90be 5a3b 19be
00000390: e179 203f fc12 c73d 2d9c e2be ed06 0bbf
000003a0: 4a1d 92be cfa8 71be a829 c4be 94a4 ecbe
000003b0: 3207 303f 24b0 dabe a04e a63e ca04 943e
000003c0: ab2b b73e 33b6 7e3e 1bf4 613e 54d2 f63e
000003d0: b11c 35be 81c5 87be 7e7b 8bbe 4708 a3bd
000003e0: afce 0ebf d5a9 0fbe 62ae d33e bc80 34bf
000003f0: e47e 073f 50ae 843e 37cb 703e 2d8c 0bbe

fc2.bias f4 [10]
-0.11550598 0.07204718 0.106805034 -0.083714135 -0.0044605215 0.114456035 -0.025253322 0.0968793
-0.15491882 -0.0022493058
00000000: 668e ecbd 798d 933d 99bc da3d 5172 abbd
00000010: 9129 92bb ed67 ea3d 0ee0 cebc a868 c63d
00000020: 0aa3 1ebe 1769 13bb
