models/pretrained/U8_of_10_net_w_acc_95.pt (torch_old, 248431 bytes, 10 tensors)

conv1.weight f4 [6, 1, 5, 5]
000000 f3 1d 34 3e 11 9e 1b bd 68 15 ab 3d 99 73 bd 3e
       0.1758955 -0.03799254 0.08353692 0.37002257
000010 9c 37 c3 be b9 e5 9c 3e a7 5e 89 3c 44 55 2b 3e
       -0.38128364 0.30644014 0.016768767 0.16731745
000020 2e 3a 87 3e 32 26 4c be 6a 99 16 3e 61 28 c0 bc
       0.26411575 -0.19936445 0.1470696 -0.023456754
000030 19 b1 5e 3e 51 4f db 3d 0c 34 3a 3b 28 39 9d 3c
       0.21747245 0.10708488 0.002841237 0.019192293
000040 b8 65 de bd dc b9 b5 3c 25 ae b5 3e d6 cb e5 3d
       -0.10859245 0.022183351 0.35484424 0.11220519
000050 d9 1d b2 bd 4a 55 02 bf c3 59 6a be 56 6a 3b be
       -0.08697099 -0.5091139 -0.22885804 -0.18302283
000060 3d 2e 4e be 4a 68 8a bc ae f9 b9 3e 56 09 97 3d
       -0.20134826 -0.016895432 0.36323303 0.073748276
000070 15 f0 e0 be ed 4f 35 bd 81 a0 20 3e 3a 74 b9 3e
       -0.43933168 -0.044265676 0.15686227 0.36221486
000080 65 56 fd 3e 01 e7 44 be 7c 4e cd be 2e 21 33 be
       0.49479976 -0.19228746 -0.4009894 -0.17493126
000090 26 cb df 3e af f4 25 3e ec 4d 6e be 75 44 4c be
       0.43709677 0.1620662 -0.23271912 -0.1994799
0000a0 7f 99 a7 3e 3c 7c 8b 3e 9b 1a 1a 3e 02 c4 31 be
       0.32734296 0.2724322 0.15049212 -0.17359927
0000b0 59 9c 4e be b4 65 bc 3d a4 ef dd bd a2 d1 60 3b
       -0.2017683 0.09199086 -0.108367234 0.0034304638
0000c0 27 e3 09 3d 8f 5e 18 3e 01 b3 95 be d8 c2 97 be
       0.033663895 0.14879821 -0.29238132 -0.2964084
0000d0 74 fc 00 3e 83 7f ff 3d 1c 52 eb 3e 9c e5 ab 3d
       0.12596303 0.12475493 0.45961082 0.08393404
0000e0 ac c5 8a 3d 90 6c 63 be 7d 18 a4 3e f8 c9 e3 3d
       0.06775984 -0.22209382 0.32049933 0.11122507
0000f0 00 d5 5a 3c 3d 8d 6d 3e 32 46 ab 3e 59 5f e4 3e
       0.013356447 0.2319841 0.33451992 0.44603994
000100 00 af a6 3d d0 2c fe 3d 65 fb d3 3d e2 80 7c bb
       0.08138847 0.12410891 0.10350684 -0.0038528969
000110 47 db a1 be 3e fa 32 be b2 cb 80 3e 61 4b ce 3d
       -0.31612608 -0.17478272 0.25155407 0.10072971
000120 93 5e d4 3e bb 3e 28 be b8 8e d4 bd c3 d4 d4 3d
       0.41478404 -0.1643018 -0.10378784 0.103921436
000130 f4 f4 9c bd 9b d3 22 be 4d 3e 90 be d5 72 ab 3d
       -0.076639086 -0.15901034 -0.28172532 0.08371512
000140 32 d8 74 be d1 02 07 bf d3 55 25 3d c5 f3 ad 3c
       -0.23910597 -0.5273867 0.04036505 0.021234402
000150 fe 4c d3 3d 9c 51 fc be 09 f8 d7 be a7 02 be 3d
       0.103174195 -0.49281013 -0.42181423 0.0927785
000160 7a 94 c8 bd e2 cb 66 3e a4 1c 40 3d 4a c2 90 be
       -0.09793945 0.22538713 0.046902314 -0.2827323
000170 7d 67 88 3e d8 cf 7d 3c 54 9a ee bd 41 02 2b be
       0.26641455 0.015491448 -0.116505295 -0.16700079
000180 1f 7d ae 3c c0 20 2f bd 4c 5c 2d bb 56 f2 9d 3a
       0.021299897 -0.042755842 -0.0026452718 0.0012050371
000190 f7 47 a3 3e 9e 4e ca 3d df 53 5e 3e cd 7c 59 3e
       0.31890842 0.09878276 0.21711682 0.21239014
0001a0 6a 6b fc bd e3 81 49 3c 99 7c ab 3e 98 bc 9b 3e
       -0.12325175 0.012299034 0.33493498 0.30417323
0001b0 5b da 91 3e 77 4f 25 3e a2 83 67 3e a1 e9 21 3e
       0.28486905 0.16143595 0.22608808 0.15811779
0001c0 d6 2e 44 3e 3c fc 6a 3c d5 9c e0 bd 3c aa 00 3e
       0.19158491 0.014342364 -0.10967413 0.1256494
0001d0 b3 6f c4 3e 37 c5 70 3e 86 7f fe bd fc f6 81 bd
       0.3836647 0.23512731 -0.12426667 -0.06345937
0001e0 9d cc 58 bd 2b 60 b1 3d da de 64 3e b5 1e 7b be
       -0.05292951 0.08660921 0.22350636 -0.24523433
0001f0 e0 d5 8c 3e 9a 41 57 be 0e 02 a2 be d4 9f d5 3c
       0.27506924 -0.21021119 -0.31642193 0.026077189
000200 db 69 cc 3e d5 d0 ba 3e 91 6c b2 bd b9 90 28 3d
       0.3992451 0.3648745 -0.08712114 0.041153643
000210 7f c2 98 3e ae 00 d1 3e 87 2c f0 3d 81 fc fe 3d
       0.2983589 0.4082083 0.11727243 0.12450505
000220 e5 38 b6 3c a9 62 0c bd 1a c8 bc bd 5e 7d ad be
       0.022243926 -0.034273777 -0.09217854 -0.3388471
000230 44 ce 20 be 5d 3c 2a be 55 34 da bd 5c e4 26 3e
       -0.15703684 -0.1662459 -0.10654513 0.1629805
000240 02 dd ee 3d c9 e5 ec 3b 4f 05 36 3e 9d 4c 61 3e
       0.11663248 0.007229541 0.17775463 0.22001882
000250 5c e0 96 3e be 38 63 3e
       0.29468048 0.22189614

conv1.bias f4 [6]
000000 fe 79 2f bf 28 be 82 be 17 85 0a bf 1b 1f 08 bf
       -0.6854552 -0.25535703 -0.5410933 -0.53172463
000010 3d b1 08 bf 04 6b 43 bf
       -0.53395444 -0.7633517

conv2.weight f4 [16, 6, 5, 5]
000000 09 f2 84 bc c3 e6 a5 bd 83 85 15 3e 79 1c 76 bd
       -0.016228693 -0.08100655 0.14601712 -0.060085747
000010 e3 00 54 be 2e 16 db bc 85 9e 56 3d 7c b3 d5 bd
       -0.20703463 -0.026743975 0.05239727 -0.104346246
000020 2f af 19 bb a9 a9 bc 3c d4 9b b0 be 23 ee ac bd
       -0.0023450365 0.023030119 -0.34493887 -0.084438585
000030 c5 de 57 be bf fe a5 3c 61 c7 3b bd 37 c0 00 3d
       -0.21081074 0.020263074 -0.04584444 0.03143331
000040 d1 03 28 3c 27 b3 67 3d c1 5c d5 3d 12 69 80 3e
       0.010254816 0.056567337 0.10418082 0.25080162
000050 9c cd 4e 3e b6 b3 2a 3d 7a c7 23 3d d5 46 52 3e
       0.20195621 0.041675292 0.039985158 0.20534833
000060 60 08 84 bd b1 d1 a2 bd cc 57 a9 bd a0 18 66 be
       -0.0644691 -0.07950152 -0.08268699 -0.22470331
000070 c5 95 85 be 6e 31 9c 3e 63 a0 71 bd af 64 ae 3d
       -0.26090828 0.30506462 -0.058990847 0.085152976
000080 9a f7 a7 be 81 5c e1 3d 48 1f db bd 62 7e 7d 3d
       -0.32806093 0.11003972 -0.10699326 0.061888106
000090 32 e4 b7 bd a4 01 bd bd e3 ef 86 3d fd 31 1f bd
       -0.08979072 -0.092288285 0.065887235 -0.038866032
0000a0 17 e4 21 be ea 61 fc bb 3c 02 f8 bc b5 b3 cd 3c
       -0.15809666 -0.007702102 -0.030274503 0.025110105
0000b0 52 ef d4 3d 43 78 d6 bd db 14 be bd 12 6b 8b bd
       0.10397209 -0.10472157 -0.092813216 -0.068075314
0000c0 8d f1 ed 3d 1d 08 17 3d 35 2f 53 bd bb ee 99 3b
       0.11618338 0.03687297 -0.051558692 0.0046976483
0000d0 15 76 9b bc c9 64 21 3c ce 47 7e 3c 6c 91 13 3d
       -0.018977204 0.009850689 0.015520049 0.036027357
0000e0 c4 d6 a5 be 63 8e 4d 3e 91 94 f5 3c a3 15 ee bb
       -0.32390416 0.20073847 0.029978069 -0.007265763
0000f0 99 b5 38 3e a0 bc 44 3e b4 cf 2f bc 02 05 ff bd
       0.18038024 0.1921258 -0.010730673 -0.12452127
000100 ea 07 d8 bc 80 f4 cb 3c e1 fe 13 bd a5 9e 22 be
       -0.026370961 0.02489686 -0.036131743 -0.1588083
000110 52 91 19 bc 4e 37 b3 be d4 99 c5 bd ce 8d a4 be
       -0.009373026 -0.35003132 -0.09648481 -0.32139438
000120 29 6b 5e bd c8 11 d5 3d 63 a9 27 be ff 95 52 be
       -0.054301415 0.10403782 -0.1637321 -0.20565031
000130 46 db 1b 3e 56 c9 96 be 30 5d d0 3b 04 12 73 3d
       0.15220365 -0.29450482 0.006358765 0.059343353
000140 1a cd 4b be 13 8b c0 3d ad f0 26 3e 5c 0c 12 be
       -0.19902459 0.09401526 0.16302748 -0.14262527
000150 e3 50 64 bc a0 93 7e 3c c8 85 16 3e 6a ca 5b be
       -0.0139353005 0.015538126 0.14699471 -0.21463934
000160 f5 7f 8e 3d 48 9a f8 bd 75 ad a6 be 90 0b 5a bc
       0.069579996 -0.12138802 -0.32554212 -0.013308421
000170 7d 90 af bd 34 af 13 3d 2b d3 75 3e 80 30 0f be
       -0.08572481 0.03605576 0.24006335 -0.13983345
000180 7d ec b5 be 5b c4 fc 3c 6c dd 38 bd f6 c3 62 bc
       -0.3553199 0.030855348 -0.04513304 -0.013840666
000190 e7 26 9e bd 07 0a 5f 3e 73 4f d3 3d 0d 07 04 3e
       -0.07722264 0.21781169 0.10317888 0.12893315
0001a0 6a e6 5a 3e d7 4e 41 3d 56 5d bd 3c fc 4c 95 3e
       0.21376958 0.04719433 0.023115795 0.29160297
0001b0 b2 29 50 bc c8 21 02 3e 67 7d ad bd 04 62 2c bc
       -0.012705253 0.12708199 -0.08471184 -0.010521416
0001c0 a2 a1 f8 3d 07 42 f8 bd c8 1a da 3d cf f5 f1 bc
       0.12140204 -0.12121969 0.10649639 -0.029536156
0001d0 1e 58 e8 bd dc 50 5e 3e 37 52 b6 3c 62 aa 40 be
       -0.11344932 0.21710533 0.022256 -0.18814996
0001e0 5f 0f e4 3d ec 6e 1b 3c bf c2 28 be fb 60 ec 3d
       0.11135744 0.009486895 -0.1648054 0.11541935
0001f0 ef 33 5d bd 83 a7 f3 bd 29 21 53 3e a7 e8 13 be
       -0.054004606 -0.11897185 0.20618118 -0.14444219
000200 0f 97 91 bd ae 95 09 3d 31 e6 77 be f2 4b a7 bc
       -0.0710889 0.03359001 -0.24208905 -0.020421956
000210 26 78 5a bd ab 64 4c 3e 50 ff c6 bc c6 2f ab bd
       -0.05333724 0.19960277 -0.024291664 -0.083587214
000220 fd 2c 14 3d ec 7a 82 3e c0 57 da bd 54 9c 99 bd
       0.036175717 0.25484407 -0.10661268 -0.0750052
000230 95 d0 df bd 1a 93 e9 3d 6c 9b fe 3d f9 ef 09 be
       -0.10928456 0.114050105 0.12431988 -0.13470449
000240 f9 7b 40 3d cd 74 3b 3d 11 4b da bc 32 89 e8 bd
       0.04699323 0.045765687 -0.026647123 -0.11354293
000250 11 32 20 3d fa 4e 85 3d 7f e6 9a bd 6d 32 7d 3d
       0.039110247 0.06509204 -0.07563495 0.061815668
000260 1d 82 f4 3b 43 8c 34 3e c1 c9 8b be 6c 39 aa be
       0.0074618 0.1763163 -0.27302364 -0.33246934
000270 3b 8f b7 3c 8d 96 b6 3d 62 48 95 bc e3 6b c8 bc
       0.022407165 0.08915434 -0.018222991 -0.024465507
000280 b0 26 3a 3d ef 46 ac 3e 49 e5 03 be 85 14 40 bd
       0.04544705 0.33647868 -0.12880434 -0.04689457
000290 6f 77 86 be 80 b7 b2 bc b6 62 13 3e 58 50 07 3c
       -0.26262996 -0.021816015 0.14393124 0.008258902
0002a0 1e f2 c5 3c df 31 86 3e 73 e4 9e 3d 0b 4d 87 3c
       0.024163302 0.26209924 0.07758417 0.01651623
0002b0 04 77 7a be 74 26 00 3e 68 05 4c 3c 76 f2 11 be
       -0.24459463 0.12514669 0.012452461 -0.14252648
0002c0 b0 0b fa bd 5c 0f e9 bd 4d 57 79 3d 7d aa ac bd
       -0.122092605 -0.11379883 0.060874272 -0.084309556
0002d0 71 1c db 3c d0 5e bc 3d bf 4f ff 3a 72 e8 07 bd
       0.02674696 0.091977715 0.0019478722 -0.03318066
0002e0 01 50 22 bd 2e 1e 4d bd 44 9a 9b bd ef ad 93 bd
       -0.03962708 -0.05007761 -0.07597783 -0.072109096
0002f0 5f 96 c6 bc c4 a6 d2 3c 37 01 3d 3c 7d a9 67 bd
       -0.024241624 0.025714286 0.011535934 -0.05655812
000300 da 4f ea bd 55 c2 8e be f6 b9 4f bd 0d dc f7 bd
       -0.11441012 -0.2788264 -0.050714456 -0.12102518
000310 35 bf 5f 3c e6 48 62 be 26 c6 16 bb 92 34 3c 3e
       0.013656427 -0.22098121 -0.002300629 0.18379429
000320 fe 1c 37 3e 68 48 eb bc 5d 9d 7b 39 18 01 4a be
       0.17882153 -0.02872105 0.00023995848 -0.1972698
000330 8f 56 9a be c2 3b a2 be 29 76 d1 3b d2 de 33 3e
       -0.30144164 -0.31686217 0.0063922596 0.17565468
000340 1a db 54 bc 6d bb 46 3e eb 14 5f be 54 2a c1 bd
       -0.012991691 0.19407435 -0.21785323 -0.094319016
000350 56 d1 7a 3e 6e d8 38 bd 60 86 31 3b ff dc 12 be
       0.24493918 -0.04512828 0.002708815 -0.14342116
000360 19 f0 d9 bd 60 6a 98 be 46 3c 6b 3e 2f c1 fe bd
       -0.10641498 -0.29768658 0.22972211 -0.124391906
000370 7c 52 60 be c1 92 2c 3e 86 bb c3 bb 19 02 94 3e
       -0.21906465 0.16852857 -0.0059732823 0.2890785
000380 76 d3 f4 bd 4e a8 50 bd 2a 0b 89 3e 02 60 1e be
       -0.119543955 -0.050941758 0.2676633 -0.15466312
000390 15 05 99 be 58 3e ae bd ae 44 be bd 42 15 30 3d
       -0.2988669 -0.08507985 -0.09290443 0.042989023
0003a0 09 6b 5d be 6b 5c 3e be d6 e0 21 3d 0b 5f 97 3c
       -0.21622862 -0.18589942 0.03952106 0.018477937
0003b0 e4 35 d2 bd f0 95 d4 bd 59 3e 0b 3e 0b be ac bd
       -0.10264185 -0.10380161 0.13598002 -0.08434685
0003c0 b6 ca 42 3d 7f 50 a0 3e 6c 1d 37 be 36 65 4b 3e
       0.0475566 0.31311414 -0.17882317 0.19862828
0003d0 02 c2 fd bd 41 ac 09 3e 80 09 b9 3d 4c 34 83 bc
       -0.1239052 0.13444616 0.09035015 -0.016016148
0003e0 7e 69 fe 3d 32 1a c2 bd 4a 95 a8 be 2a 27 7e be
       0.12422465 -0.094776526 -0.329264 -0.24819627
0003f0 f1 9c 58 bd cd 71 21 3e 4d f0 6d 3c 8a 01 30 3d
       -0.052884046 0.15766068 0.014522624 0.042970218

conv2.bias f4 [16]
000000 b1 85 3b be cb 2e ae 3c 10 dd bc be e3 1c 6c bd
       -0.18312718 0.021262547 -0.36887407 -0.057644736
000010 bd 89 0f be 79 9a 99 be af 05 8f be 2a 16 8b be
       -0.14017387 -0.30000666 -0.27934024 -0.27165347
000020 3c 10 38 be 6e 22 1d 3c 1f c3 a6 be e6 cf 55 be
       -0.17974943 0.009590728 -0.3257074 -0.20880088
000030 fc 82 19 be 71 20 50 be b1 4b 89 be 06 64 9b be
       -0.14991373 -0.20324875 -0.2681556 -0.3034975

conv3.weight f4 [120, 16, 5, 5]
000000 2b c3 93 3c a5 16 0f bd 26 91 d7 ba 3f 76 9f 3b
       0.0180374 -0.034933705 -0.0016446456 0.004866391
000010 27 da 7e bd 6e c3 b0 bc 05 bf 42 bd fc 16 4b 3d
       -0.062219765 -0.021577563 -0.04754545 0.049582466
000020 d9 cd 75 bd 41 4c 39 3c b0 e1 9f bc a1 0a 53 3a
       -0.060010765 0.011309684 -0.019516796 0.0008050595
000030 7c da 4e 3d d5 f6 27 bd 43 a1 a7 3c 21 81 44 3d
       0.05050133 -0.04100688 0.020462638 0.04797471
000040 49 73 96 3c 9c b5 31 bd 2b 10 82 bd a4 4e f6 bc
       0.01836552 -0.043386087 -0.0635074 -0.030066796
000050 77 7b 69 bc 08 a3 07 bd eb 6d 10 bc 96 4a 5a bc
       -0.014250628 -0.033114463 -0.008815269 -0.013323447
000060 0d 21 0c 3d d2 a4 3d bd 56 be b5 3d 39 a5 19 bd
       0.034211207 -0.046299763 0.08874194 -0.037511084
000070 c1 10 71 3c 22 2d 0f bd 5e 88 c5 3c 5a 62 31 bd
       0.014713467 -0.03495515 0.024112877 -0.043306686
000080 e3 12 27 3d df f3 04 bd 6b 3f 53 bc df d6 6e 3d
       0.040789496 -0.032459136 -0.012893538 0.058310386
000090 f6 f4 42 3d ad 27 37 bd 0e 7c 61 3c d6 a4 fb 3c
       0.047596894 -0.044715572 0.013762487 0.030718248
0000a0 45 e5 ca bb 10 8f 9d 3b e6 b2 f1 bc 63 35 12 3d
       -0.006191882 0.004808314 -0.02950425 0.035695445
0000b0 30 18 63 3b 14 32 00 bd 9c 2a 44 3c c7 8f a2 bc
       0.0034651868 -0.03129776 0.0119730495 -0.019843949
0000c0 f0 88 2e 3d 8d 0f 29 bc 6d bc 40 3d ca 15 7b bd
       0.042611063 -0.010318649 0.047054697 -0.061300077
0000d0 c0 f3 ec 3c 7e d0 9c ba 97 a6 56 3c db 90 8b bd
       0.028924823 -0.0011963991 0.013101242 -0.06814738
0000e0 83 90 1c bc 34 7f c5 bc d4 34 0c bc 81 07 c1 3c
       -0.009555939 -0.024108507 -0.008557517 0.023563148
0000f0 b2 f6 e5 39 c8 7b 72 3c f1 ae 87 bd d6 ee 21 bd
       0.00043862086 0.01480002 -0.06625164 -0.039534412
000100 18 93 d7 bd 9b 52 50 bc 72 a6 cd 3a 70 f5 1a bd
       -0.10526103 -0.012715007 0.0015689863 -0.037831724
000110 65 67 b8 3c fa 08 73 3d 0d 2f 94 3c fc a7 b9 ba
       0.02251024 0.059334733 0.018088842 -0.0014164443
000120 6d 4d 1a bc 7f b6 e7 3c 3a f1 24 3d ca 19 11 3d
       -0.009417874 0.028285263 0.040269114 0.035424985
000130 74 e2 f0 3c a6 29 4c bd 55 70 32 3b 81 db 08 bd
       0.029404856 -0.049844407 0.00272276 -0.03341246
000140 39 55 d2 3d f0 62 0e bd 4c 0c 79 bc e3 15 72 bd
       0.10270161 -0.034762323 -0.015200686 -0.059102904
000150 42 93 04 bd 51 7e c5 3c a8 1a 13 bb d8 58 00 3d
       -0.032367 0.024108084 -0.0022446308 0.031334728
000160 a1 60 34 3d db 39 c7 3c 77 de 80 3d 71 0b 07 3d
       0.044037465 0.02431958 0.06292432 0.032969896
000170 9c 92 92 3d 9e 52 76 3b 55 b3 42 3c 7d 8d 8a 3d
       0.0715687 0.0037585865 0.011883576 0.06765268
000180 6d 44 80 3d 81 c6 cb bb c1 73 68 bd df 60 b3 3d
       0.06263051 -0.006218732 -0.056751017 0.08758711
000190 b3 0c 79 bb 24 07 e2 bc f7 9e 81 bc b9 be 0e bd
       -0.0038001954 -0.027591296 -0.01582287 -0.034849856
0001a0 40 ea 21 3d 3a 30 9c bd c0 d5 a4 3c 4b 46 07 3d
       0.03953004 -0.07626386 0.020121455 0.03302602
0001b0 54 90 eb 3c 26 6b 10 bc 9c c9 c4 3c f2 9c 54 3c
       0.028755344 -0.008814609 0.024021916 0.012976872
0001c0 0f cd 85 bc 86 a2 69 bd 39 c4 4a 3d 10 17 02 3d
       -0.016333131 -0.05703976 0.04950354 0.031760275
0001d0 87 41 b6 3d f2 89 c1 bd 80 e7 1b bd f2 f1 8e bc
       0.08899217 -0.09450139 -0.038062572 -0.017449353
0001e0 25 59 08 3d ad af a7 bc 9c ff 23 3d d1 27 20 ba
       0.03328814 -0.02046951 0.04003869 -0.0006109449
0001f0 2b f3 99 3c 80 2a b1 3a 50 9f ac 3c fe b7 b0 bc
       0.01879271 0.0013516694 0.02107206 -0.02157211
000200 22 ae 50 bc 3f 59 e0 bb 9a 72 59 bc 11 3b d8 bc
       -0.012736829 -0.0068465765 -0.013271952 -0.026395353
000210 ee 31 2d bd 82 6d e0 3c 4d 8b c0 bc a1 61 6a 3c
       -0.042283945 0.027395967 -0.023503924 0.014305503
000220 66 07 b4 3c c5 8c 9c 3d fa 2d 28 3d d6 4b 95 bd
       0.021976184 0.07644037 0.04105947 -0.07289855
000230 66 da 92 3b 52 54 71 3c f4 a1 c6 bc c4 8c 00 3c
       0.0044816015 0.014729576 -0.024247147 0.007846061
000240 66 87 03 bc 7f e4 62 3c 87 9c 09 bd 37 65 ea bc
       -0.008027887 0.013848423 -0.03359654 -0.028612716
000250 a1 f3 a8 bd f7 72 86 bc cd 16 ef bc 42 c0 3b 3d
       -0.082495935 -0.016412241 -0.029185677 0.04583765
000260 fc 1c a7 bc 2d 82 3d bc 16 95 8c 3c c0 af 42 bc
       -0.020399563 -0.011566681 0.017160933 -0.011882722
000270 4e 2a 69 3d 36 bb 31 3d fc 2c 6e 3d 13 2c 9d 3c
       0.05692511 0.04339143 0.05814837 0.019186055
000280 e4 0c 06 bd ed b4 af 3c fa e8 2b bc 0e 26 b2 bd
       -0.032727137 0.021448577 -0.010492558 -0.086986646
000290 1a cc 8a bc c6 ae 07 bd ed 61 37 bd 31 77 15 bd
       -0.016943026 -0.03312566 -0.044771124 -0.036490623
0002a0 d9 e6 ce b8 84 20 0e bc 70 72 09 bd 2d 06 5f 3d
       -9.865844e-05 -0.0086747445 -0.0335564 0.05444925
0002b0 28 05 3a bd cf 76 2d 3c c1 7f 39 3d b2 92 a1 3c
       -0.045415074 0.010587408 0.04528785 0.01972327
0002c0 9b a8 dd 3c a5 37 52 3d f5 07 2d 3d ce e7 8c 3c
       0.027057936 0.051322598 0.042243917 0.017200377
0002d0 28 45 72 bc cf 1c ff bc 23 91 9d bc 1b 36 3f bd
       -0.014786996 -0.031141667 -0.019234246 -0.04668246
0002e0 db 8a fc bc 60 c3 b0 bc 2d 69 a4 bc ba 0f a3 bc
       -0.03082793 -0.021577537 -0.020069683 -0.01990496
0002f0 75 b8 83 3d 62 22 19 bd 6c 88 d4 3d 1c cf cd bc
       0.06431667 -0.037386306 0.10377583 -0.025123172
000300 b7 03 0e 3d 32 45 02 3d 92 4e 89 bd 6e cb 7c 3d
       0.03467151 0.03180427 -0.06704439 0.061717443
000310 60 f8 ec bb ad 32 85 3c 91 96 65 bc 19 b9 78 bb
       -0.007231757 0.016259516 -0.014012949 -0.0037952124
000320 7f d6 73 bd 79 45 ca 3c 27 ff 42 bc 33 1f 2a 3d
       -0.05953073 0.02469133 -0.011901653 0.04153366
000330 47 11 11 3d 39 68 00 3d 8f 15 e4 bc e2 91 65 bd
       0.035416868 0.031349394 -0.027842311 -0.056047328
000340 a6 d5 8f bc c5 d3 7d 3d 6d 87 eb bc ee 27 ca bc
       -0.01755793 0.061969537 -0.0287511 -0.024677243
000350 2a 2d 8e 3d 10 c2 bd 3c c6 35 18 bd b0 44 8b bc
       0.06942208 0.023163825 -0.037160657 -0.017000526
000360 99 fa 57 3d f5 7f ad 3b 5a 6d be 3d 06 65 41 bd
       0.052729223 0.0052947947 0.09298201 -0.047215484
000370 a4 fb 1b bd 66 00 81 3d 33 71 49 3c 66 0a f4 bc
       -0.03808178 0.06298904 0.012295055 -0.029790115
000380 bd 6f 94 3d bc 47 91 3d f9 53 2b 3c 3e 89 44 bd
       0.07247875 0.0709376 0.010457032 -0.047982447
000390 f2 1f 39 bc f1 0b 9e 3b 93 0e 2c 3d 42 25 86 bd
       -0.01129912 0.004823201 0.042006087 -0.06550075
0003a0 29 fd 98 3d a2 b4 ba 3c 57 f5 18 bc 92 a7 37 3d
       0.074701615 0.02279121 -0.009335837 0.044837542
0003b0 6a d2 60 3c 0b 27 c0 bc e9 2f 6a 3c e3 70 a3 bc
       0.013722042 -0.023456117 0.014293649 -0.01995129
0003c0 c7 52 12 bc c3 96 76 bc 7b 4d 29 3d 99 eb de bd
       -0.0089308685 -0.015050593 0.041333657 -0.108847804
0003d0 c0 6b 17 3d ae af 36 3d d2 26 a1 bb 38 44 09 3d
       0.036967993 0.044601135 -0.004917958 0.033512324
0003e0 5d 2c 69 3c 7f 4b 27 bd 3f 7e 8b 3d 36 72 93 3d
       0.014231768 -0.040843483 0.06811189 0.071995184
0003f0 4b 6e c6 3b 86 dd 6f bc ec 01 f5 bc f4 c4 66 3d
       0.0060556284 -0.014640218 -0.029908143 0.056340173

conv3.bias f4 [120]
000000 2c 57 af bc ee 98 c0 3d a8 64 f2 bb 84 b7 c9 3a
       -0.021403871 0.09404169 -0.007397253 0.0015389775
000010 91 3f d3 bc 97 1d 40 bd 39 f5 a2 bc 67 c7 9b 3c
       -0.025787147 -0.04690322 -0.019892322 0.01901598
000020 1b cf a4 bd 16 fc 51 bd c4 e3 aa 3d 90 2b f2 bc
       -0.08047315 -0.0512658 0.08344224 -0.029561788
000030 0c 8c 99 bd ef 3d cd 3b 4c a5 9f bd 0a ba fb 3b
       -0.07497415 0.0062634866 -0.077952 0.0076820897
000040 4c 66 c6 3d 29 48 ea bc 69 df be bd b0 92 00 bd
       0.0968748 -0.028598862 -0.09319956 -0.031389892
000050 60 c2 3a 3d 29 01 5f 3d 2e e4 69 bc bc 92 66 3d
       0.045595527 0.054444466 -0.014275594 0.05629228
000060 53 68 05 3d 1a 97 d1 3c 3c 5d 88 bd 94 43 9c 3d
       0.032570194 0.025584746 -0.06658408 0.07630077
000070 db 6b a6 3c 58 de 20 bc 78 78 6e bc 3e 79 d2 3d
       0.020315101 -0.009818636 -0.014555089 0.10277031
000080 06 12 bc bc 7a 5c d4 bd 02 31 94 bd 87 85 42 bd
       -0.022957813 -0.10369201 -0.0723591 -0.047490623
000090 d7 86 9a 3b 68 7e cb 3c 59 66 a0 bd 27 34 6e bd
       0.004715781 0.024840549 -0.07832021 -0.058155205
0000a0 db e7 dc bc 3b 33 eb 3a c3 a0 3e 3b e1 c7 21 3d
       -0.026966026 0.0017944345 0.002908752 0.03949726
0000b0 fd 93 f4 3c 87 57 27 3c e4 e4 c6 3c 5e 91 41 3c
       0.029855723 0.010213739 0.024279065 0.011814443
0000c0 de a2 ff 3c 0c 46 a1 bc 99 dd d0 bb d6 b8 3e 3d
       0.03120559 -0.019686721 -0.0063740727 0.046562992
0000d0 ca 4c dc 3b d6 1b 16 bd 5d 3c c6 bc b2 ef 77 3c
       0.006723021 -0.03664764 -0.024198705 0.015132831
0000e0 c7 ec 82 3d b0 37 41 bb d2 8d b8 3c 1c 1e 39 3c
       0.06392818 -0.0029482655 0.022528563 0.011298683
0000f0 53 2a 0b 3b ac 79 58 bc f6 f2 ae bc d7 ce aa 3d
       0.0021234944 -0.013212603 -0.021356087 0.08340233
000100 02 f0 a2 3d 09 43 ae 3d 5e de f8 3c c6 52 49 3d
       0.07955934 0.0850888 0.03037947 0.049151205
000110 43 63 c0 3b 4a 8f 7f bc 59 d4 85 3d 2d 4e 72 bd
       0.005871208 -0.015598128 0.06534643 -0.059156585
000120 e9 ff 92 3c 60 70 93 3d d8 d4 5e 3d 97 1c c5 bc
       0.017944293 0.07199168 0.054402202 -0.024061484
000130 ba b1 4f 3d 57 3b fa bc 72 d4 25 3d 5d 13 99 bd
       0.050706603 -0.030545874 0.040485807 -0.074743964
000140 fd 53 01 3d 0c 49 f3 3c 65 9a d4 3c 20 bb 28 3d
       0.031574238 0.029697917 0.025952527 0.04119408
000150 50 af 01 3d d1 28 ce 3d 35 48 bd bb d3 0c 51 3d
       0.03166133 0.10066379 -0.00577643 0.05103762
000160 11 22 ab bb b3 92 00 3d 37 66 04 3b 26 f9 c1 3b
       -0.005222567 0.031389903 0.0020202526 0.0059195934
000170 40 70 51 3d 1d 33 4a bd 5f fb 94 bd f4 a9 b7 b8
       0.05113244 -0.04936515 -0.07274508 -8.757776e-05
000180 8f 0d 7a 3b 7c 16 70 3c 16 42 64 3d 8f 47 2a 3a
       0.0038155054 0.014653798 0.055727087 0.00064956484
000190 75 7e dd bd 4f e7 33 3d 82 d7 8a 3d 09 f7 c6 bd
       -0.108151354 0.043921765 0.06779386 -0.09715087
0001a0 fb 51 87 3d a3 5a ab bc 63 97 85 3d 41 f6 ae bb
       0.066074334 -0.020917242 0.06523015 -0.0053394143
0001b0 f2 16 ef bc 4d 4c 99 3d df 5a ba bd dd b6 c2 bc
       -0.029185746 0.07485256 -0.090993635 -0.023768837
0001c0 bb f0 ac 3c e1 8b 83 bb 07 91 73 bc 76 4d 17 3d
       0.021110883 -0.0040144776 -0.01486612 0.036939107
0001d0 c8 66 4b 3c 9b f4 54 3d 9f 1f b0 3d f5 16 46 bd
       0.012414642 0.051991086 0.08599781 -0.048361737

fc1.weight f4 [84, 120]
000000 80 f5 11 be 09 03 07 be 8d 1f 89 3c 06 c3 07 3d
       -0.14253807 -0.13184752 0.016738677 0.033144973
000010 5b 9a 15 be 89 34 94 3d 75 f8 96 bd a1 06 c7 bd
       -0.14609663 0.07236583 -0.07371608 -0.09718061
000020 76 95 e3 bd 43 bc 72 bd ae 1e b2 bc d9 f1 2d be
       -0.11112492 -0.05926157 -0.021743145 -0.16986789
000030 2d 55 f4 3c 8d bf 59 bd 24 bf c4 bc 60 aa 5f 3d
       0.029825771 -0.053161193 -0.024016924 0.05460584
000040 02 f4 4f 3e d6 0c c4 bd 99 b2 c3 bd 05 fc fe 3d
       0.20307925 -0.09572761 -0.09555549 0.12450413
000050 5f 01 16 be bf 3a 75 3e 59 16 1c 3c 84 c8 54 3d
       -0.1464896 0.23948191 0.0095268125 0.05194904
000060 5f 23 f8 3c 6a e8 9f bc 2d d6 99 bd 49 de 46 3e
       0.030290304 -0.019520003 -0.07511554 0.19420733
000070 2e 20 37 be 21 2c 9c 3d 98 82 18 be 80 06 16 3e
       -0.1788337 0.076256044 -0.14893568 0.14650917
000080 c2 07 51 3d 03 ce 55 bd 76 d5 3d bd c8 d1 04 bc
       0.05103279 -0.05219842 -0.04634615 -0.008106656
000090 66 dd d2 3d 4d fb b9 bc 6a b2 bc 3c 99 48 1f be
       0.10296135 -0.022702837 0.023034293 -0.15555038
0000a0 10 17 6a bc 5f 1e 10 3d 43 e6 2f 3d e8 2b bb 3d
       -0.014287725 0.035185214 0.042944204 0.09139234
0000b0 5f a9 b4 3c 15 d0 a2 3c cf 91 2a bd 6c 11 03 be
       0.022053419 0.019874612 -0.04164296 -0.12799615
0000c0 23 e8 0b 3d 3b 91 79 bd 40 bf 0f 3e 37 2c 7a bd
       0.03415693 -0.06092952 0.140378 -0.061077323
0000d0 08 fc f9 bd 52 1d 0d 3e e3 df 9a b9 15 c3 bc 3c
       -0.12206274 0.13780716 -0.00029539978 0.023042241
0000e0 83 c5 f1 bd 05 86 d5 bd cf e8 1f 3d 1f 5a 89 bd
       -0.118052505 -0.10425953 0.039040383 -0.06706642
0000f0 62 1b 30 be 9c 86 9f 3c e6 c1 7a bd 75 cd 38 3e
       -0.17197946 0.019473366 -0.061220072 0.18047126
000100 f5 3d 40 3d 6a 61 34 bd 0a 03 87 bd 07 3a f1 3d
       0.046934087 -0.044038214 -0.065923765 0.11778646
000110 d3 d6 49 3d 2b e5 5d bd 9a a6 d8 3d 4b 73 46 be
       0.049277138 -0.05417363 0.10578652 -0.19379918
000120 85 79 11 bd 3d 65 34 3c 52 d5 f4 bc b6 0b 2d be
       -0.03551628 0.011010465 -0.029886875 -0.16898999
000130 c6 b1 91 ba 10 d5 5f bd ad 3a 94 bd 73 b0 2c be
       -0.0011115603 -0.05464655 -0.07237754 -0.16864185
000140 b5 f7 4a 3d eb 4e e9 3b 79 a2 ff 3d 6f c2 dc 3c
       0.049552638 0.0071200035 0.12482161 0.026948182
000150 d8 fb 70 bc 04 61 df 3c 28 d1 de bd 1c 59 e3 bd
       -0.014708482 0.02726794 -0.10879737 -0.11100981
000160 43 53 bc 3d de f2 95 bc bf 98 10 3c 93 81 e8 bd
       0.091955684 -0.018304285 0.00882548 -0.11352839
000170 f7 c0 5d 3d 4b 2d d2 bd 7d d7 33 ba 06 f9 10 bd
       0.054139104 -0.10262545 -0.00068604184 -0.035393737
000180 da 72 6e 3d b6 97 fc 3c e0 04 29 3d 0c 3f 27 bd
       0.058215 0.03083406 0.041264415 -0.04083161
000190 80 bb 1e 3e c5 30 17 3d b1 fc 42 bd e6 35 f0 bc
       0.15501213 0.036911745 -0.047604267 -0.029322576
0001a0 cf 98 83 3d c0 21 97 3c 68 78 a8 3d bf 58 0e 3d
       0.0642563 0.01844871 0.08226091 0.034752604
0001b0 1e 7e 41 3d c8 33 7a 3d 9f e5 ab bb 08 43 be 3d
       0.047239415 0.06108454 -0.005245879 0.09290129
0001c0 76 6c 55 be 3c 1b 5a bc 70 17 86 3c 5e ed 73 bd
       -0.20842156 -0.013312157 0.016368598 -0.059552543
0001d0 f9 5b 16 3b 5c 85 aa bb 67 9c 6f 3e 93 f3 2c be
       0.0022943004 -0.005203886 0.23399507 -0.16889791
0001e0 d3 56 04 3d 68 b1 8d bc ff c5 7f bd 60 dd ed 3b
       0.032309365 -0.017296508 -0.062444683 0.007259056
0001f0 4b f8 93 bd 6d a6 96 bc 61 f5 d1 3c 9a be f9 bd
       -0.072250925 -0.018389905 0.025629701 -0.121945575
000200 80 dc 67 3d 43 4e 00 be b2 cf a6 bd 19 7b 54 3d
       0.05660677 -0.12529854 -0.081450835 0.051875208
000210 7a 96 84 3d f4 11 70 bc b3 57 04 3d fd aa 30 bd
       0.064740136 -0.014652718 0.0323102 -0.043131817
000220 4f 8d 55 3d 95 31 c1 bc 09 1b a4 3c ba 70 f0 3c
       0.052136716 -0.023583213 0.020032423 0.029350627
000230 65 c9 05 bc 3f 2d 0e be f9 db 95 3d 3a f6 b4 bc
       -0.008165692 -0.13884448 0.07317347 -0.022090066
000240 ba 85 55 bd 65 d2 fc 3d d1 55 6c bc 19 82 57 3c
       -0.052129485 0.12344817 -0.014424757 0.013153576
000250 d8 c4 0a 3d dd ec a2 3d a2 47 03 be 45 14 9f bc
       0.03387913 0.07955334 -0.12820294 -0.019418845
000260 d1 33 1f be a6 72 e8 3d 20 0b 91 3c d2 c9 c7 3b
       -0.1554711 0.113499925 0.0177055 0.006097057
000270 31 12 e8 bd a2 cf 9e bd e7 dc 24 3c 86 05 a7 3d
       -0.11331595 -0.077544466 0.010062433 0.081553504
000280 27 d5 20 3e 4b e1 03 3e c9 4f 2e bd 41 fe cf bd
       0.15706311 0.12878911 -0.042556558 -0.10155917
000290 b2 54 38 bd 25 a4 7c bd 49 30 3c 3a d4 33 bc bd
       -0.045002647 -0.061679978 0.0007178826 -0.09189573
0002a0 a7 64 b0 3d 5e fc b3 3d 7e 05 99 3d a5 18 d1 3c
       0.08612948 0.087883696 0.07471751 0.025524447
0002b0 05 99 a9 bd 65 d0 cd 3b db 3c 47 bd 0e 8c 3f bd
       -0.08281139 0.006280946 -0.04864202 -0.046764426
0002c0 67 50 16 3d 22 36 be 3d 15 70 a0 3b 90 28 5f 3d
       0.03669777 0.09287669 0.0048961737 0.054482043
0002d0 06 8f 30 3d 1f a9 0f 3d 5c a0 2a bd 5f fa c7 bd
       0.043105148 0.035073396 -0.041656837 -0.09764551
0002e0 17 8d ac 3c ae a0 a4 3d d9 64 c9 bd 54 48 c2 bd
       0.02106337 0.0803846 -0.09833688 -0.09486452
0002f0 e6 24 06 3e a3 ec f4 bd d8 55 9c 3d 67 58 f3 3d
       0.13100013 -0.11959197 0.07633561 0.11882096
000300 1e 06 aa 3c 6b cc e9 bd af 96 19 3c 1d cb fa bd
       0.02075487 -0.11415943 0.009374305 -0.12245772
000310 c7 2f 87 bd f6 6c a3 3d d0 48 bc bd 97 40 56 bd
       -0.0660091 0.07979767 -0.091935754 -0.05230769
000320 26 9f b1 3d 3e 5c 53 bd 70 ca db bd c4 8b c9 bd
       0.08672933 -0.05160164 -0.10731971 -0.09841111
000330 d5 52 5b 3a 0a 5e f7 3c aa 8c f3 bc 37 ee f1 bc
       0.000836653 0.030196209 -0.02973016 -0.029532535
000340 bb 93 56 3d 38 09 b6 bd 64 6a 20 3e c7 f3 18 be
       0.05238698 -0.08888477 0.15665585 -0.14936744
000350 b1 dc 86 bd a7 6d aa 3d df 86 18 bd 77 47 c1 bc
       -0.06585062 0.08321696 -0.037237998 -0.023593647
000360 10 d5 0a bd 3d 8d a4 3d 66 1d 0b be a2 8f f1 3c
       -0.0338946 0.080347516 -0.13585433 0.029487435
000370 97 cc 3a 3d 73 41 17 3d 10 c9 47 be 48 f5 29 3d
       0.04560527 0.03692765 -0.19510293 0.041493684
000380 aa ff 66 bd 88 9f 96 bd 4c 66 ca bd 4c 1f 38 3e
       -0.056396164 -0.07354647 -0.09882793 0.17980689
000390 b2 6e 80 3c 2f 8b 83 3d 5e 2d b2 3d 64 fa f7 3c
       0.015677784 0.064230315 0.08700059 0.030270763
0003a0 64 86 c6 bc 9b 86 8a bd f6 5e 6a bd 8c cb 87 3d
       -0.024234004 -0.06763955 -0.057219468 0.0663062
0003b0 fa ee 8c 3d 6b 82 a2 3c fa 55 16 3d 81 c3 6e bd
       0.06881519 0.019837579 0.036703087 -0.058291916
0003c0 1c 44 d8 bc 32 30 90 3b 28 b1 01 be 12 04 d4 3c
       -0.026399665 0.0044002766 -0.12665236 0.025880847
0003d0 73 24 d2 bd cd eb 5b bb 28 7e 32 bd 5f e6 39 be
       -0.102608584 -0.0033557296 -0.043577343 -0.18154286
0003e0 62 12 19 be 0b 85 7c 3d 33 ff 86 bb 1b 27 61 3c
       -0.14948419 0.061650317 -0.0041197776 0.013742234
0003f0 ce 7e df bd 6d 3f 14 bc 7a 18 e6 3d ca 22 c5 3d
       -0.10912858 -0.009048325 0.11235137 0.09625776

fc1.bias f4 [84]
000000 41 93 2b 3d 4f 69 8a bd 6c b5 2e 3d 55 f8 84 3c
       0.04188848 -0.06758367 0.042653486 0.016231695
000010 0f 4d 58 3c 6a c9 5f 3d 88 25 09 3d f8 de bb 3d
       0.013201966 0.054635443 0.03348306 0.09173387
000020 c7 f7 11 bd 67 69 20 3d 9d 9c 6d bd 6b 25 a1 3c
       -0.03563669 0.03916302 -0.058010686 0.019671163
000030 96 7d 41 3d 60 85 d4 bd a3 18 5c bc 80 79 0c bd
       0.04723891 -0.10377002 -0.013433608 -0.03429556
000040 d7 69 80 ba 17 0e ec bc d9 a6 74 bc ff 50 cb 3c
       -0.0009797168 -0.028815312 -0.014932358 0.024818895
000050 70 b7 b4 bc aa 52 8a bb c8 4d b7 3c 42 fd 01 bd
       -0.022060126 -0.00422128 0.022375956 -0.031735666
000060 05 f9 c3 3c 08 0b fb 3c a1 0d 86 3c 55 87 1a 39
       0.023922453 0.030644909 0.01636392 0.00014737
000070 db a3 25 3c d3 3d 29 3d b1 9f 83 bc 44 11 4a 3d
       0.010109867 0.041318726 -0.016067358 0.049332872
000080 a2 11 a4 bd fd 88 ad bd 1b 63 cc bc e0 72 0a bd
       -0.08011176 -0.08473394 -0.0249496 -0.03380096
000090 57 70 8d bd 46 c5 76 bd 5c 75 73 bc f7 31 2d 3c
       -0.06906193 -0.06024673 -0.014859524 0.010570995
0000a0 2b 75 53 3d 2f 4a c8 bd de fc c6 3c e3 54 22 3b
       0.051625412 -0.097797744 0.024290498 0.0024769835
0000b0 5f b2 07 3c 9c 13 59 3b 95 a6 e9 3c 79 8a 4c 3b
       0.008282273 0.003312326 0.028521815 0.0031210466
0000c0 f0 a6 53 bd 96 4f 31 3d 95 a6 40 3c d0 39 90 3c
       -0.051672876 0.04328879 0.011758466 0.017605692
0000d0 dd 80 c3 3c b9 8c b4 bd eb 60 b7 bd b7 dd 1e bd
       0.023865158 -0.08815903 -0.089540325 -0.038785663
0000e0 82 fe 81 3d 8e 95 36 bd c1 90 55 bc d7 3c c3 bd
       0.06347372 -0.04457622 -0.013035 -0.09533089
0000f0 d7 dd 33 bd 57 79 10 3e 23 54 2f bd 0e d8 32 3d
       -0.043912735 0.14108787 -0.04280485 0.043663077
000100 fe 0c ec 3c 1d 16 09 bc fa 21 98 3d 47 19 35 3b
       0.028814789 -0.008367089 0.074283555 0.0027633475
000110 aa fb 55 3d 77 51 c7 bc e5 90 1f bd 64 e4 c7 3d
       0.05224196 -0.024330838 -0.03895654 0.09760359
000120 43 d2 88 3d 9b 56 e1 3a 14 8e ad 3d 21 68 19 3d
       0.06680729 0.0017191948 0.08474365 0.03745282
000130 ac 63 21 3b d6 86 03 bd ed fe 55 bc 38 0d b8 3c
       0.002462606 -0.03211101 -0.013061267 0.02246724
000140 52 85 c7 bd c9 5e 62 bd fa 7a 5d bd c7 86 06 bd
       -0.09742226 -0.055266175 -0.054072358 -0.032843377

fc2.weight f4 [10, 84]
000000 60 66 01 bf 33 76 ca be 0d 41 34 3e a6 b9 09 3c
       -0.50546837 -0.39543304 0.1760294 0.008406078
000010 ef 32 89 3e ac 1e 1d be 7e b7 ce 3e 57 a9 05 be
       0.26796672 -0.15343732 0.40374368 -0.1305288
000020 17 a0 ee be ba b7 c0 bc 6d b5 53 3d 12 be 8a be
       -0.46606514 -0.023525108 0.051686693 -0.27098137
000030 f1 9b 9b 3e 03 60 54 bc 48 5b af bc 76 d2 ed 3e
       0.3039241 -0.012962344 -0.021405831 0.4644963
000040 a9 c6 d8 be a0 11 33 be 18 27 a5 be 1a 03 dc 3e
       -0.42339066 -0.17487192 -0.3225639 0.42971116
000050 0f 5d 23 be c4 7f ad be 8a 3c 81 be 38 50 b9 3e
       -0.15953468 -0.3388654 -0.252415 0.36194015
000060 4a fc 90 be f8 7d ef be 58 8e d1 be 84 e6 80 3e
       -0.2831748 -0.46775794 -0.40928912 0.2517587
000070 98 cb ed 3e 36 61 a2 be 83 cd 26 3e 3e d5 a2 bd
       0.46444392 -0.3171479 0.16289334 -0.07950829
000080 05 f3 8f be ef c2 9b 3e 4e 5c ac 3e d6 dd a3 3d
       -0.28115097 0.3042216 0.33664173 0.08001296
000090 93 c2 82 be 28 dc 74 be 59 9e a5 bd aa a3 df bc
       -0.25539073 -0.23912108 -0.08086843 -0.02729972
0000a0 33 26 6f be e7 db 0d 3f a3 fc da be 1b c5 09 3e
       -0.23354416 0.5541367 -0.42770872 0.13454096
0000b0 d9 d9 2a 3e 00 94 b1 be 4c b3 8c 3e 79 58 fe 3e
       0.16684665 -0.34683228 0.27480543 0.49676874
0000c0 7e b0 ef bc 77 ee 98 3e b3 63 f3 be 5e 48 08 3f
       -0.029258963 0.29869434 -0.47537002 0.53235424
0000d0 57 1e b6 be a2 92 b2 be f6 ae 4f be af bd e0 be
       -0.35570022 -0.34877497 -0.20281586 -0.43894717
0000e0 02 bf 36 3e a1 22 9d 3e 55 97 e9 3e 3b 4a b5 3e
       0.17846301 0.30690482 0.4562327 0.35408196
0000f0 89 70 00 3f 3a d8 8a 3e bf bb 86 3e 27 22 cd 3e
       0.50171715 0.27118093 0.26315114 0.4006512
000100 00 02 ef be e1 7f 99 be d5 2f 17 3e 9a 37 32 3e
       -0.46681213 -0.29980376 0.1476434 0.17404023
000110 d2 ff 73 3e 24 ed b3 be b7 ed 92 be e5 4c 12 3e
       0.23828056 -0.3514186 -0.28696987 0.14287145
000120 26 4a e5 3e be fc e1 be 75 78 41 bf fe 9d 8d 3d
       0.44783133 -0.4413814 -0.7557443 0.069149
000130 2c 80 79 3e c3 bc 88 3d b0 d2 ff be fc 90 87 be
       0.243653 0.066766284 -0.4996543 -0.26477802
000140 38 6a a7 be 80 9c c8 3d 94 da f0 be 03 38 9b 3e
       -0.32698226 0.09795475 -0.47041762 0.3031617
000150 46 58 8e be 69 b7 72 3e cd 7e 07 be e5 c0 a3 be
       -0.27801722 0.23702778 -0.13231964 -0.31983104
000160 25 4d a4 3c 2a 6d 37 3e 6d 7d 87 bd 3e e8 b4 3e
       0.020056317 0.17912737 -0.0661572 0.35333437
000170 c4 ba ea 3e 06 f1 f3 3e 13 70 fb be 08 c2 05 3f
       0.45845616 0.47644824 -0.49108943 0.52249193
000180 01 a0 c1 3e 99 b8 e6 be c1 b2 35 3f b2 ec b1 be
       0.37817386 -0.45062712 0.7097588 -0.34750897
000190 06 56 6d be 31 69 93 3e 27 78 cd 3e 0f 78 ba bd
       -0.23177347 0.28791192 0.4013073 -0.091049306
0001a0 2a 17 30 3d cd d0 76 3e 08 af 22 3e d2 ce 7e be
       0.04299084 0.24103089 0.15887082 -0.24883583
0001b0 f0 0b ca 3e 51 68 50 3e 48 b4 98 3e cc 69 a3 be
       0.39462233 0.20352294 0.29825044 -0.31916654
0001c0 52 69 a0 3e cf fb 88 3e c4 dd 5f be 53 0e fe 3e
       0.31330353 0.26754615 -0.2186194 0.49620304
0001d0 f0 18 a3 3e f3 a0 c8 be a4 20 6b be c8 31 79 3e
       0.31854963 -0.39185295 -0.2296167 0.24335396
0001e0 d8 50 6f 3e 93 73 b5 3e fd 23 af 3e c9 08 04 be
       0.23370683 0.3543974 0.34207144 -0.12893976
0001f0 10 fe 3f 3e fb c9 aa be 35 5d 24 3e 72 6a a4 be
       0.18749261 -0.33357224 0.1605118 -0.3211246
000200 21 78 db bd 30 9f 97 3e 23 25 55 be 07 88 ec 3e
       -0.10716272 0.29613638 -0.20814948 0.4619753
000210 7b 26 f0 3e 31 6e 6e 3e a1 95 57 3e d5 2a b1 be
       0.46904358 0.23284222 0.21053173 -0.3460299
000220 ae d7 80 3e de ab 34 3e 2d bf dc be 59 7e cb 3d
       0.2516455 0.17643687 -0.43114606 0.09936208
000230 f8 ea 0b 3e 24 0e ce be f3 cc 83 be b0 18 71 3e
       0.13663852 -0.40245163 -0.257423 0.23544574
000240 16 a4 62 be e5 8b 9d 3e d7 9e 82 be a1 64 a7 be
       -0.22132906 0.30770794 -0.2551181 -0.3269396
000250 1f 97 a4 3e 6a fd c9 3e 50 34 ea 3e 0a 76 89 3e
       0.32146546 0.39451152 0.45743036 0.2684787
000260 d9 f8 19 3f 92 dc 8d 3e b0 85 d0 3c 79 ba 80 bd
       0.60145336 0.27707344 0.025454372 -0.06285567
000270 46 3c 0e 3c af c8 61 3e 09 f3 17 bd 6f 63 fe 3d
       0.0086813625 0.22049211 -0.03709701 0.12421309
000280 f8 2c 0f bf 7d ca b6 be 26 fc 44 3d 0d ca eb 3e
       -0.5592799 -0.3570136 0.04809203 0.4605259
000290 b7 24 b7 3d 5b 38 9f 3e 87 b0 b7 be 41 2a f8 be
       0.0894255 0.31097683 -0.35876867 -0.48469737
0002a0 6a 11 4d 3d 24 b6 d7 be 19 1a 2c 3f 20 1e fd bd
       0.050065435 -0.4213115 0.6722732 -0.123592615
0002b0 a1 be 32 3f aa 77 1c 3f 6c c3 18 3f 3b 83 b0 3e
       0.69822127 0.6112009 0.5967319 0.3447512
0002c0 99 dd 6d be 29 8b 4c 3e c2 8f 08 3f 84 60 aa 3e
       -0.23229064 0.1997496 0.53344357 0.3327676
0002d0 d4 9e a1 be db c5 03 3f d0 90 42 be 5e 91 44 3e
       -0.3156649 0.5147378 -0.19000554 0.19196078
0002e0 8b 08 12 3f 3e e4 84 3d 88 c5 8e be ed 4c 12 bc
       0.57044286 0.06488846 -0.2788508 -0.008929473
0002f0 cd 4f 9c be 02 c0 79 3e 25 a3 ef 3e a7 5c 9b 3e
       -0.30529633 0.24389651 0.46804157 0.30344126
000300 01 cc aa 3e a6 ba ab 3d e9 f3 93 3e b0 9c 06 3f
       0.33358768 0.0838521 0.28897026 0.52582836
000310 da 74 5a 3e 71 8b ec 3e 44 4b eb be 5d 72 e8 bc
       0.21333638 0.46200135 -0.4595586 -0.028374845
000320 1d 12 ed be 95 7f 2f be 13 44 a7 be 0c b2 d2 bd
       -0.46302882 -0.17138512 -0.32669124 -0.10287866
000330 77 cc a1 be ba 24 af be 11 71 10 bf af 7b d7 3e
       -0.31601307 -0.34207708 -0.56422526 0.4208655
000340 6d c5 60 be 43 9e 16 3f 38 b5 f0 3e 5b cd 11 3e
       -0.21950312 0.5883524 0.4701326 0.14238493
000350 46 2b ab be f0 6b d6 be 89 96 8b be 95 6d ff 3d
       -0.33431453 -0.41879225 -0.27263287 0.12472073
000360 fa 85 48 3e 5c 85 47 be 4e d9 b3 3e 48 2f 28 3f
       0.19582358 -0.19484466 0.35126728 0.65697145
000370 0d ff 1d bc 9a e8 c2 3e 62 e6 99 be f8 6e f2 3d
       -0.009643328 0.38068086 -0.3005858 0.11837572
000380 74 4b 8e 3d 21 14 dc 3d 79 c1 9f be 15 3b 60 be
       0.06947985 0.10746027 -0.31202295 -0.21897538
000390 6b c4 fb 3e fa 0d e2 3d c2 9f f3 be 90 f5 1d bf
       0.49173293 0.11037822 -0.47582823 -0.61702824
0003a0 44 bc 3c 3e 4f 0b f8 bd 71 72 9d be 75 7d 01 bf
       0.18431193 -0.12111532 -0.30751374 -0.5058206
0003b0 05 30 24 3f 1f 31 07 bf 95 f8 84 3e 13 d7 cf 3e
       0.6413577 -0.5280933 0.25970903 0.40593776
0003c0 77 26 82 3e 43 90 45 3e 40 53 d0 3e 1c 4e 04 3f
       0.2541997 0.19293313 0.40688515 0.51681685
0003d0 0c 7c a4 be 1b 1d 15 be 5b 44 33 be 62 67 84 be
       -0.3212589 -0.14561884 -0.17506544 -0.25860125
0003e0 1d e1 14 bf a5 c9 23 be cc 9f c3 3e bb d8 34 bf
       -0.58155996 -0.1599489 0.38207853 -0.70643204
0003f0 40 c1 0d 3f 1d 74 24 3d 84 d8 85 3d d8 94 fc be
       0.55373 0.040149797 0.06535438 -0.4933231

fc2.bias f4 [10]
000000 0b a6 0c bd cc 6c a0 3c 03 3f db 3d c6 a0 8b bd
       -0.03433804 0.019583128 0.10705378 -0.068177745
000010 86 23 ba bc 3b 25 35 3e eb 99 86 bc 14 29 ac 3d
       -0.022722017 0.17689984 -0.016430816 0.084062725
000020 92 69 31 be de 7e 8c bd
       -0.17325428 -0.068601355
