models/pretrained/U9_of_10_net_w_acc_95.pt (torch_old, 248435 bytes, 10 tensors)

conv1.weight f4 [6, 1, 5, 5]
000000 1c 00 2e 3e 10 b6 1e be 4d 5f 51 bd 96 ac 98 3d
       0.16992229 -0.15499139 -0.051116277 0.07454793
000010 6e 17 05 bf 88 85 0f 3f dc a7 ee bb cd 9d 02 3e
       -0.51988876 0.5606313 -0.007283194 0.12755509
000020 4a 8d a4 3d 80 e3 15 be 6b 6e bc 3e d9 f7 10 3e
       0.08034761 -0.14637566 0.36802992 0.14157046
000030 e5 b2 b8 3e d6 12 42 3d 2d 51 49 3e 58 44 36 bc
       0.36073986 0.047381245 0.19659872 -0.011124693
000040 55 0a 12 3d 22 0c 12 3d 16 d7 17 3e 7f e1 a9 3e
       0.035654385 0.035656102 0.14828143 0.33179852
000050 56 73 41 be ae f3 09 be b6 c3 39 be c0 ab d1 bc
       -0.18891653 -0.13471863 -0.18141064 -0.025594592
000060 25 ba 16 be 63 02 62 3e bb ef 8e 3e 56 95 5c 3e
       -0.14719446 0.22071223 0.27917275 0.21541342
000070 86 40 d8 be 56 38 8d bd a2 56 05 3b 5c 0c ad 3e
       -0.42236727 -0.06895511 0.0020345827 0.33798492
000080 d4 d9 a6 3e db e2 e9 be 86 64 e8 be 7a fa cb bd
       0.32588065 -0.4568089 -0.45389193 -0.09959884
000090 c8 eb 74 3e 83 b7 f4 3b 43 f4 97 bc c8 ac d1 be
       0.23918068 0.0074681654 -0.01854909 -0.40952134
0000a0 c1 f5 83 3e a9 0f 26 bb 15 92 8d 3e b5 15 1e 3c
       0.25773433 -0.0025338924 0.27650514 0.00964873
0000b0 e8 e7 e8 bd 9c cd 1d bd f3 1c 74 be 88 42 1a 3e
       -0.113723576 -0.038526163 -0.23839168 0.15064442
0000c0 87 65 a2 bd 8f f3 6f bd 43 93 9e be bb d4 2f be
       -0.07929521 -0.058581885 -0.30971727 -0.17170994
0000d0 ed f2 69 3e e8 75 00 3d 12 87 e4 3e 5d 8d ed 3e
       0.22846575 0.031362444 0.446343 0.46396914
0000e0 cb 97 44 3e b6 2a d5 bc b3 81 33 3e ce 89 4a 3e
       0.1919853 -0.026021343 0.17529945 0.19779131
0000f0 29 bc 21 3e 7d 42 f0 3e 96 f0 4a 3e f5 c9 96 3e
       0.15794434 0.46925727 0.19818339 0.29450956
000100 d3 7a 22 be 31 0d 15 bd 7c 27 26 3e 97 8b 57 3e
       -0.15867166 -0.036389533 0.16226 0.21049343
000110 87 0f bb bd 97 f5 6d be d5 41 5e 3d 74 0f 0b bd
       -0.09133821 -0.23238216 0.054262 -0.033950284
000120 f5 7f 20 3e 8d 77 c3 3d ce a1 03 3d 85 18 28 3c
       0.15673812 0.09544287 0.03213673 0.010259752
000130 b6 99 0c 3e f8 92 a7 3d f9 f0 90 be 41 f0 1c 3d
       0.13730511 0.08182329 -0.28308848 0.03831506
000140 ba 2f ab be ab 74 37 be c0 0a bf bc 46 37 45 bd
       -0.3343485 -0.17915599 -0.023320556 -0.048148416
000150 ec f3 1c 3e e1 44 92 be 17 40 00 bf 72 0e 5c 3e
       0.15327424 -0.28568175 -0.50097793 0.21489885
000160 4a 32 98 3e a0 8e 5b 3e b6 6c cf 3c d6 3c f2 be
       0.29725868 0.21441126 0.025320392 -0.4731204
000170 ee 2d 8d bd 39 2e 06 3e ad 70 83 be ce 15 f6 bd
       -0.06893526 0.1310357 -0.25671902 -0.12015878
000180 95 a5 ae bd 74 7f 1b 3e 2d e7 e2 bd d8 95 7e bd
       -0.08527676 0.15185338 -0.110792495 -0.06215462
000190 d4 fa 5d 3e 36 f3 6f bc 47 e6 8f 3e ec 84 ea 3d
       0.21677715 -0.014645388 0.28105375 0.11451134
0001a0 ce 2c 37 be ee 6a f2 bc 02 13 4a 3e cf 37 b4 3e
       -0.17888185 -0.029592004 0.19733813 0.3519883
0001b0 7a fa 54 3e 85 64 7a 3e 9c c8 f2 3d 47 fb d3 3e
       0.20798674 0.24452408 0.118546695 0.41402647
0001c0 3b 49 ef 3d 35 a1 5e bd 03 09 1b bd 44 df 92 3e
       0.116838895 -0.054352958 -0.03785039 0.28685963
0001d0 cb 7a 96 3e 8f 9c b5 3e b8 6b 02 3d 0e f5 a7 bd
       0.2939056 0.35471007 0.03184101 -0.08201037
0001e0 59 6d 29 be a2 57 0d 3e 5b b9 47 3e f7 d4 7d be
       -0.16545619 0.1380296 0.19504301 -0.24788271
0001f0 89 f9 39 3e 13 01 b2 bd cf 10 a4 be 8b 1d ea bc
       0.18161596 -0.08691611 -0.32044074 -0.02857854
000200 dd 0e 91 3e 3b 02 54 3e bb b0 cf bd 8f 96 81 3e
       0.28331652 0.20703976 -0.101411305 0.2531018
000210 dd bf a9 3e f4 d6 94 3e 76 84 d9 3d 1f c6 b3 3e
       0.33154193 0.29070246 0.10620968 0.35112092
000220 a5 99 6b 3e 05 ab 16 bd 36 b6 43 be 7c a8 65 be
       0.2300783 -0.03678419 -0.19112477 -0.22427553
000230 98 6a c8 3b 7e e6 a4 bd 65 57 59 be 53 be 7a 3e
       0.0061162226 -0.080517754 -0.21224745 0.24486665
000240 26 39 08 3e 66 8b 32 be 9b a4 8c 3e ad 63 8c 3e
       0.1330305 -0.17435989 0.27469334 0.27419797
000250 d4 ff ba 3e 03 6d d4 3e
       0.36523306 0.4148942

conv1.bias f4 [6]
000000 53 31 21 bf 9e 5f 9f be a8 87 fb be 03 49 1a bf
       -0.6296589 -0.31127638 -0.49126935 -0.6026766
000010 88 dd 4f bf fc c7 4d bf
       -0.81197405 -0.80383277

conv2.weight f4 [16, 6, 5, 5]
000000 b6 24 ba bd c8 a2 0d be e3 7c e7 3d 0d c6 87 3d
       -0.09089033 -0.13831627 0.11303117 0.06629572
000010 69 1c cd 3d 43 30 bc 3b e8 9d 2f bd 76 b9 d4 bd
       0.100151844 0.005743058 -0.0428752 -0.10386936
000020 ba 64 b1 b9 b8 d6 c9 bd a5 12 1c be 96 1c e6 bd
       -0.00033835118 -0.098554075 -0.15241487 -0.11235921
000030 07 64 8d bd 03 9c 47 3d c1 09 48 bd 65 be e9 3d
       -0.06903844 0.04873277 -0.048837427 0.11413268
000040 d8 c7 a8 be 69 fb 2c be 21 fb 4c 3e f3 83 3d 3e
       -0.3296497 -0.1689278 0.20017673 0.18507366
000050 05 57 d1 3d 83 32 e1 bb ef b7 1f bd 5a 75 f8 bb
       0.10221676 -0.0068724765 -0.038993772 -0.007582349
000060 4c b3 6c 3d 26 2d 3e 3d 0a 8a 76 be 63 3b 35 be
       0.05778818 0.046429776 -0.24076095 -0.17698435
000070 b4 c0 06 bd b3 53 09 3d 09 e3 86 bd ee f3 98 be
       -0.03289862 0.033527087 -0.06586272 -0.29873604
000080 d7 8d e9 3d a2 2d d7 3d 27 26 a9 3c e6 1d bd 3d
       0.11404007 0.10506751 0.020648075 0.09234218
000090 6d 5d a7 3d 6e fe 1a bc 40 4a 85 3e cb 73 84 3d
       0.081721164 -0.009460075 0.2603321 0.06467398
0000a0 37 47 1d 3e 82 fc a6 bd 7a 99 74 3e bb 43 9f 3c
       0.15359198 -0.08153631 0.23886672 0.019441476
0000b0 bd 71 a1 bc 82 46 03 be 4a f5 08 3d 11 0a 4a bd
       -0.019707555 -0.12819865 0.03343705 -0.049326006
0000c0 6b 9e 86 3d 71 a4 f8 3d 30 73 2a bd 12 77 6f be
       0.065731846 0.1214074 -0.041613758 -0.23385265
0000d0 9a d3 00 3d ba c9 aa bd 06 d1 c7 bd 80 bb e5 bc
       0.0314518 -0.083392575 -0.09756665 -0.028043509
0000e0 bf b7 88 be 5e 36 d4 3d a1 de 58 3e 0d 22 09 be
       -0.26702687 0.10361932 0.21178676 -0.13391896
0000f0 b4 4c 89 bd 5e a7 8d be 74 60 3e bd 37 bf 06 3e
       -0.06704083 -0.27666754 -0.046478704 0.1315888
000100 9f b2 14 3e 70 15 a0 3d d8 dc af 3d 2c 1a 45 be
       0.14521264 0.07816589 0.085870445 -0.19248265
000110 1c 8f 28 bd fc 2f 95 be 2c 6b 10 bd 26 49 f4 bd
       -0.041152105 -0.29138172 -0.035258457 -0.119280145
000120 ac fd f0 bc 3d ca 24 bd 6e 71 fb bd a3 33 a2 bd
       -0.029417835 -0.040231932 -0.12277494 -0.07920005
000130 c4 8e 43 bd f4 12 f3 bd d6 5e 63 be ae e2 23 bd
       -0.047743574 -0.118688494 -0.22204146 -0.0400111
000140 c7 b1 54 bc e5 8d a2 3e 73 5d cb 3d 2d 14 70 be
       -0.012981839 0.31748882 0.099299334 -0.23445196
000150 46 d4 e7 bd 9e cf 86 be 2e 3b f8 3d ec c9 cb bd
       -0.11319785 -0.26330274 0.12120663 -0.09950623
000160 ad 6d 70 be 52 ff bc 3d 1c f1 16 3c 58 69 da be
       -0.23479338 0.09228386 0.009212758 -0.42658496
000170 13 98 8e bc d8 c2 08 3c 50 1e ec 3c 3d 9b 87 bd
       -0.017406499 0.008347236 0.028823048 -0.06621406
000180 15 0c 11 be f8 eb 91 bc 6e 4d a1 3d c5 5b df 3c
       -0.14164765 -0.017812714 0.07876097 0.027265439
000190 6f d5 30 3e 85 09 d1 3d 49 e5 82 bd c6 94 f0 bd
       0.17268918 0.10206894 -0.06391389 -0.11747126
0001a0 13 2e 93 3e 78 9c cc bb 08 cc 31 bd 3c 5d c9 3c
       0.2874609 -0.0062442385 -0.04340747 0.02458059
0001b0 78 d3 a1 3e 8a cf 1d be 3d b9 75 3e 0d b1 08 be
       0.3160665 -0.15411201 0.23996444 -0.1334879
0001c0 1f d4 b1 3d 0a e3 8c 3d 20 48 05 3e 49 42 c4 bd
       0.08683037 0.06879242 0.13015795 -0.095829554
0001d0 99 55 95 3d dd bc 4d 3e 44 43 1d be db 22 4a bd
       0.07291717 0.20091577 -0.15357691 -0.049349647
0001e0 14 eb 28 be af 15 02 3e ee a7 f2 3c fb dc 53 bc
       -0.16495925 0.12703584 0.02962109 -0.012931104
0001f0 a1 66 d3 bd 46 0c 6f 3e bb c4 67 3e ba 80 19 bc
       -0.10322309 0.23344526 0.2263364 -0.00936907
000200 55 95 4b 3d dc 93 ed bd 3d 31 2d be ac 28 2b 3e
       0.04970296 -0.116004676 -0.16913314 0.16714734
000210 0a e1 aa bc 84 12 1d 3a f8 76 69 3d bb 6d ae 3b
       -0.02085926 0.0005991834 0.056998223 0.0053231395
000220 fe 96 08 3d a8 3f 19 3d 7b 93 57 bd 89 a6 83 be
       0.033347122 0.037414223 -0.052630883 -0.25712994
000230 df af 88 be 85 fc 99 bc d2 26 81 be 79 f6 1a be
       -0.2669668 -0.018797169 -0.2522493 -0.15133084
000240 91 2f 07 be a9 13 47 bd 21 57 ab 3c 6a 77 de bd
       -0.13201739 -0.048602734 0.02091557 -0.1086262
000250 18 4e 48 3e ce 34 9f be 60 ad fa 3c c0 4d 22 3d
       0.1956104 -0.31094974 0.03060025 0.03962493
000260 b3 62 85 bb b4 9f 17 be 90 f9 16 be 2a ea 01 bc
       -0.0040706038 -0.14807016 -0.14743638 -0.007929364
000270 67 42 aa bc 5e a8 15 bc 38 38 c0 bd 4a 85 e4 bd
       -0.020783616 -0.00913438 -0.09385723 -0.11158235
000280 dc 4e e8 bc 97 a1 42 3e 62 74 44 3d 00 5d c5 bc
       -0.028357916 0.19006954 0.047962554 -0.024092197
000290 ef c4 05 be a7 bb 27 3e ac e3 4c be 81 dd 60 be
       -0.13063405 0.16380177 -0.20008725 -0.21959497
0002a0 93 74 ae 3d bf ce 54 be 72 2c 84 3d 67 6f 09 3e
       0.085183285 -0.20781992 0.0645379 0.13421403
0002b0 d6 cb 8f be 03 d5 a4 3c c8 22 d2 3d 6a de 17 3c
       -0.28085202 0.020121103 0.1026054 0.009269336
0002c0 0b 68 ab 3d cd b9 38 be 0f 5e 05 be a9 05 4a be
       0.08369454 -0.18039627 -0.13024162 -0.19728722
0002d0 84 c1 05 be c8 e7 6e be d3 fd e3 3c 4e 49 64 3e
       -0.13062102 -0.23330605 0.027830994 0.22293589
0002e0 62 1e af bd df e7 41 bd 28 da 49 be 05 21 b7 3c
       -0.08550717 -0.04734027 -0.19712126 0.022354612
0002f0 16 cf 49 3e 68 83 5b bc 13 cb 90 be 81 cb a5 be
       0.19707903 -0.013398029 -0.28279933 -0.32381824
000300 79 4f 97 be 25 c3 5d be 33 e8 d5 bd cc 7e 86 bd
       -0.2955282 -0.21656473 -0.10444679 -0.06567153
000310 03 0a 8c 3d ed 69 24 be bf 01 23 be 3e e1 ee 3c
       0.06837847 -0.16056032 -0.15918635 0.029160138
000320 2a d3 64 3d 1b dd 58 be 29 fc 73 3e 61 c0 bd 3d
       0.055865444 -0.21178095 0.2382666 0.09265209
000330 a2 0d 85 be cc 1c bf bd ec 6a 95 3d ca 75 37 bc
       -0.25986964 -0.093316644 0.07295784 -0.011197517
000340 43 91 b1 bd a8 be d9 3d 78 42 52 be e1 99 c7 bc
       -0.086702846 0.10632068 -0.20533168 -0.024365367
000350 c0 b4 90 bc 11 ce 0f 3d 8d 41 20 be 5e e5 60 3d
       -0.017664313 0.03510863 -0.15650006 0.05490624
000360 ce b0 bd 3d 3b 6e 2f 3d e8 b7 6a 3e 8d 1f 52 bd
       0.092622384 0.042829733 0.22921717 -0.05129962
000370 c1 ac 83 be 5e 4e 62 3e fe a9 a3 bd 14 28 28 3c
       -0.25717738 0.22100207 -0.07991408 0.010263462
000380 ca 96 45 be bf 4d be 3d 8b 9d 42 3d b0 99 0a be
       -0.19295803 0.09292173 0.047513526 -0.1353519
000390 e2 51 25 be 44 1e 9d bd ae 7c 09 bd 77 a1 24 bc
       -0.16144517 -0.07671788 -0.03356617 -0.010048262
0003a0 31 40 86 bd 27 30 b7 bd e5 a7 4c 3e 8d 91 05 3e
       -0.06555212 -0.08944731 0.19985922 0.13043804
0003b0 48 74 07 3e 6c 7d 54 3d 1f f2 49 3e d3 f3 02 3d
       0.13227952 0.051877424 0.19721268 0.03197081
0003c0 6a da 3a 3e 0e 2d b3 bd c3 84 52 3e 04 c7 1b 3e
       0.18247381 -0.08748828 0.20558457 0.15212637
0003d0 86 13 b0 3d ba b4 fb bd d1 3d 16 3e de ab 7d 3c
       0.08597474 -0.1229033 0.14672019 0.015482871
0003e0 1f e8 d2 3d 88 e3 11 be 9a 91 3d bd 6b 66 1c 3e
       0.1029818 -0.14246953 -0.046281435 0.15273444
0003f0 78 d7 1a 3e de 88 8f bd 9d 05 27 bd 21 e8 de bd
       0.15121257 -0.07008527 -0.040776838 -0.10884119

conv2.bias f4 [16]
000000 f9 bc 41 be ce 3e 5d bc 6a cf b1 be d9 86 50 be
       -0.18919744 -0.013503743 -0.34728557 -0.2036394
000010 75 91 f3 bd 2c 92 84 be 81 f4 c6 be 1b 3c 9d be
       -0.11892978 -0.2589277 -0.38858417 -0.3070992
000020 b1 99 cf bd 28 b5 2a be 45 88 9b be 1a b8 9a be
       -0.10136736 -0.16670668 -0.30377403 -0.30218583
000030 45 11 1c be 43 65 14 be 4f 03 0f be d0 68 dd bd
       -0.15240963 -0.14491753 -0.13966106 -0.10811007

conv3.weight f4 [120, 16, 5, 5]
000000 51 3b 1a bd 1e 08 e2 bc 9e 9b b3 3d 8a 07 57 bd
       -0.037654225 -0.027591761 0.08769916 -0.052497424
000010 a9 ac 8c 3c 05 09 98 3c 5e 6b a8 bd d0 5e ed 3c
       0.017172175 0.018558988 -0.08223604 0.028975874
000020 ea e5 5a bc 50 ff c1 bc 4d 7b 93 bc 33 64 c6 3c
       -0.01336048 -0.023681313 -0.01800313 0.0242177
000030 1d dc 34 3d cb 37 11 bd 1a 62 0e 3c 10 cf 98 3d
       0.04415523 -0.0354536 0.008690381 0.07461369
000040 7f 80 37 3d 75 74 53 3d e7 94 7a bd 80 3e 3b bd
       0.044800278 0.051624734 -0.06117716 -0.0457139
000050 70 34 b6 3d 75 8e 21 bd 26 5c d1 3c 28 71 21 bd
       0.088967204 -0.0394425 0.025556635 -0.039414555
000060 8d 05 1d bd ce c6 e4 bc 0e df 82 3c 6b 08 06 bd
       -0.03833537 -0.027926829 0.015975501 -0.03272287
000070 a9 be 40 3d a7 73 7a bd 5d 18 8b 3d b9 32 67 3c
       0.047056828 -0.06114545 0.06791756 0.014111214
000080 ee f0 8c 3d c1 f9 0a 3c c6 ef b3 bd 48 48 e2 3d
       0.06881891 0.0084823975 -0.087859675 0.11048943
000090 21 03 ca bc 54 95 ba bd 72 fc 0a 3d 93 38 24 3d
       -0.024659695 -0.09110513 0.033932157 0.040093016
0000a0 b4 51 48 bc d5 d4 10 bd ae 79 a8 3b 1f 00 a6 bb
       -0.012226511 -0.035359222 0.0051414585 -0.0050659324
0000b0 2d dd 61 3d cb c1 74 3c 58 64 6a bd af 8d d0 bb
       0.05514257 0.014938782 -0.0572246 -0.0063645463
0000c0 e9 05 a1 bd 8d 2a 42 3d e4 4e 94 bd c0 9d 0e 3d
       -0.078624554 0.04740386 -0.0724161 0.03481841
0000d0 80 8f 83 bc ff 17 0a 3d a9 26 c3 3b 05 d5 6d bd
       -0.016059637 0.03371429 0.0059555364 -0.05806448
0000e0 46 a1 ae bc 24 69 b0 3b ff 94 00 3d 18 75 5e bd
       -0.021317136 0.0053836275 0.031392094 -0.054310888
0000f0 be cb 7d 3d 47 32 a5 bc dc 31 20 bd 48 92 8f bc
       0.06196188 -0.020165576 -0.03911005 -0.017525807
000100 87 9a a7 bd 03 ff 3a 3a e2 b1 93 3d 25 0a 17 bc
       -0.081837706 0.00071333366 0.07211663 -0.009218727
000110 ed a5 62 bd 9c 39 bd 3d 6a cd f3 bd 08 d8 f6 bb
       -0.05533402 0.09239504 -0.11904414 -0.007533077
000120 f5 36 b6 bc 86 e6 94 3c a8 d4 27 bc 00 92 98 3d
       -0.022243002 0.018176328 -0.010243572 0.07449722
000130 1c 1b 87 bc 66 ac da bc 6e d7 b2 3d 36 6e 4b bd
       -0.016492419 -0.026693534 0.08732496 -0.049665652
000140 68 d8 f2 bc a0 d5 92 bc d6 b4 a4 3c ee 3b c9 3a
       -0.029644206 -0.01792413 0.02010576 0.0015352943
000150 c2 c4 8e bc e3 a8 0f bd 43 5c fe 3c 75 8a f8 bc
       -0.017427806 -0.035073172 0.031049853 -0.030339459
000160 14 36 ae 3b f2 a2 81 3d 81 39 1f 3d 7f bd 1f 3d
       0.005316505 0.063299075 0.0388732 0.038999077
000170 fe 81 ec bb 7e 17 01 bd 79 1c 82 bc e8 c7 33 3d
       -0.0072176447 -0.031516545 -0.015882717 0.043891817
000180 77 b5 66 3d e7 78 1d bd 8e c5 c2 3d af f5 8f bd
       0.056325402 -0.03844538 0.09510337 -0.07029282
000190 ec c0 10 bd bb 3f 0f bd 87 d0 f5 3a 72 54 94 bd
       -0.035340235 -0.034972887 0.0018754163 -0.07242669
0001a0 a1 68 62 bd 21 a4 cd bd 51 b6 bc bd 31 17 81 3d
       -0.055275563 -0.10041071 -0.092144616 0.063032515
0001b0 26 60 f0 3b 7d 61 83 3b a9 e7 81 3d ca 6e bb bd
       0.0073356805 0.0040094242 0.06343014 -0.09151991
0001c0 2b a4 79 bc 9d d1 6d 3c 22 6b c6 39 6a ce 1f 3d
       -0.015236895 0.014515308 0.00037845323 0.03901521
0001d0 50 83 88 3d 85 f0 5b bb bc dc 8b bc 47 f3 7c bd
       0.06665671 -0.003356011 -0.017073028 -0.061755445
0001e0 28 1c b7 3c ec 4d ca bc d7 22 84 bb 45 00 6a 3d
       0.022352293 -0.02469536 -0.0040324735 0.057129163
0001f0 b4 db db 3c 52 12 33 bd 85 c8 6d bd 4f 6d 65 3c
       0.026838161 -0.043718643 -0.05805256 0.014003112
000200 8b f5 b1 3d 3a 4d a9 bc 7e 1b 70 bc 53 18 8f 3d
       0.08689412 -0.020666707 -0.014654992 0.06987061
000210 e8 51 9f bc f3 7e cb 3c 7b b2 8b bd 81 da fc 3b
       -0.019448236 0.024840808 -0.06821152 0.0077164774
000220 8b 17 92 3d 21 b5 83 3c 04 e4 3a bc 13 85 06 bc
       0.07133397 0.01607758 -0.011406902 -0.008210438
000230 f2 fc 09 3e 9b d4 34 bd 58 a0 dd 3c fb 81 75 3a
       0.13475397 -0.04414807 0.027053997 0.0009365377
000240 f5 d1 2a 3d 19 fc 4f bd c2 85 93 bc a0 c4 39 3d
       0.041704137 -0.05077753 -0.018008117 0.04535353
000250 91 1f 9a 3d 81 80 aa 3d f1 d6 5f 3c 0b a0 2e bd
       0.07525552 0.083252914 0.013662086 -0.042633098
000260 05 b5 0e be b5 41 94 3d 21 eb 88 3c 9d dd b1 3d
       -0.13936241 0.07239095 0.01671368 0.086848475
000270 6c 9d 53 bd 64 72 42 bc 1f 81 c3 3d 79 33 2c 3d
       -0.0516638 -0.011868093 0.09546112 0.042041276
000280 bd af aa 3d 1f 41 18 3d 36 fd 53 3c e3 fb eb bc
       0.08334301 0.03717148 0.012938788 -0.028806632
000290 6b 17 57 3c e0 24 da 3c ab 9a 12 bc 35 02 6c 3d
       0.013128142 0.026628911 -0.0089480085 0.057619292
0002a0 c6 17 8c 3d f0 91 02 3d f0 e5 c1 3b fb 6c b3 3b
       0.06840472 0.031877458 0.0059173033 0.005475638
0002b0 b8 4f c9 bd 51 02 49 bd 6c 6e d9 bb 4d 4f 9d 3d
       -0.09829658 -0.049074475 -0.0066354778 0.07681141
0002c0 97 55 76 bd 59 92 47 3d ea 2a 32 bd 0b 32 f3 3a
       -0.06014022 0.048723552 -0.043497957 0.0018554343
0002d0 cf 9d 41 3c c6 e2 7f 3c e6 94 6b bd ea 69 f3 bd
       0.01181741 0.015618032 -0.057515047 -0.11885436
0002e0 a4 6e f7 bb 84 ce 62 bd 45 f2 3d bb 5b 88 69 bd
       -0.007551031 -0.05537273 -0.0028983515 -0.057014804
0002f0 29 5f ee 3c 2f 63 ba bb 04 c0 82 bd 1b cf b2 bd
       0.02909811 -0.005688093 -0.0638428 -0.087309085
000300 0f d6 a3 3d 25 87 b8 bd 88 91 58 bd 2f 92 8c bc
       0.07999813 -0.09010152 -0.052873164 -0.01715955
000310 1d ac 5e 3d f9 3e bb bc df 42 8c 3d 08 9c 83 bc
       0.05436336 -0.022857176 0.06848692 -0.016065612
000320 36 b4 fc 3c 8c 1c cb bc f4 cd a5 bd b1 bd 05 3d
       0.03084765 -0.024793886 -0.08095923 0.032651607
000330 8d d5 d0 bc ee 9b 8d 3c c3 8b 9e 3b 1f a8 c7 bd
       -0.025492454 0.017286267 0.0048384382 -0.097488634
000340 06 ba ed 3c 6c 2d a5 bc 2f 8f 60 3d ad fe 9a bc
       0.029019367 -0.02016326 0.05482405 -0.018920267
000350 12 29 52 bd 41 7e 87 3c 93 ad ae 3a bc 43 b6 bc
       -0.0513087 0.016539695 0.0013326876 -0.022249095
000360 34 5f 7d 3d 25 2e 8a 3d 27 18 55 3b e6 ca 18 bd
       0.06185837 0.067470826 0.0032515617 -0.037302874
000370 dd 3b b7 bc 3c be df bc c9 64 c3 bc 31 f6 7e bd
       -0.022367412 -0.02731239 -0.023851769 -0.062246505
000380 5d cd eb bc 75 c1 71 3d 54 83 23 3d 88 3c 15 bd
       -0.028784448 0.059022386 0.039920166 -0.03643468
000390 6a 7f 1f bc 40 b5 20 3d 8c 38 92 bc 01 c1 8a bd
       -0.009734968 0.039235353 -0.01784923 -0.06775094
0003a0 59 05 9a bb 20 ba 80 bc ca c0 66 3c da 25 6f 3d
       -0.0047003445 -0.015713751 0.01408405 0.058385707
0003b0 f3 c3 15 3d 1a 7b 2c bc 9c fa 6a 3c 26 65 56 bb
       0.036563825 -0.010527397 0.0143419765 -0.0032714098
0003c0 e6 d6 ee bc ea 11 28 bd 70 10 16 bd d6 bd 32 3c
       -0.029155206 -0.04103271 -0.03663677 0.010909518
0003d0 c4 86 63 bd ae 99 01 bd ca 02 15 3d d2 9b 66 3d
       -0.055548444 -0.0316407 0.036379613 0.056300946
0003e0 1d 49 07 3d 0c ec f9 3c 9e ac 65 3d a4 de 03 3d
       0.03302871 0.030508064 0.056072824 0.03219475
0003f0 8e aa 61 3d a0 2b cc bc d2 e5 32 bc 40 88 4e bc
       0.055094294 -0.024923146 -0.010919051 -0.012605727

conv3.bias f4 [120]
000000 35 fd 07 3c 82 50 80 bc a7 cf 7e bd 80 22 5e 3d
       0.008300115 -0.01566339 -0.06220975 0.05423212
000010 a6 d5 31 3d d0 02 78 bd 23 83 42 bd fa 6a 61 3c
       0.04341664 -0.060549557 -0.047488343 0.013758415
000020 40 27 a7 bc c7 75 c3 3c 08 a0 e9 bb 30 df 0a bd
       -0.020404458 0.023859872 -0.007129673 -0.033904254
000030 0d c9 20 bc 42 fb 4e bd 30 37 f8 bb a8 c6 9d 3c
       -0.009813559 -0.050532587 -0.0075749382 0.019259766
000040 ad 73 36 3d a6 e9 18 bd 46 6d 03 3d 40 09 81 bc
       0.04454391 -0.0373322 0.032086633 -0.015751481
000050 d1 a4 9b 3c 07 d1 f7 3d fe 94 2e bd 7a bb 4d 3d
       0.018999489 0.12100416 -0.04262256 0.05022762
000060 d5 db ee 3b 0a be cc 3c b8 81 ac 3c 62 61 2c 3d
       0.0072893896 0.024992961 0.021057948 0.04208506
000070 40 07 4b bd f4 94 91 3c aa 43 90 bc 50 4c 97 3b
       -0.04956746 0.017771222 -0.01761039 0.0046172515
000080 42 83 1b bd ca 9e 08 3c 89 d2 e4 bc eb 04 f5 bc
       -0.037966974 0.0083386395 -0.027932422 -0.029909572
000090 fc 75 8c 3c 57 47 f1 3c d7 05 db 3b 5b f8 a8 bd
       0.017146103 0.029452963 0.006684046 -0.08250495
0000a0 df 0f 92 bd eb ab 7c bc b7 8a e6 3a 7f c7 65 bc
       -0.071319334 -0.015421848 0.0017588948 -0.014024614
0000b0 da fd 17 bd 06 a0 ed bc d5 93 67 bd 0a b3 81 3b
       -0.037107326 -0.02900697 -0.056537468 0.0039581107
0000c0 02 f2 26 bc 26 37 8f bd 33 4b 8d bd 46 02 ca bc
       -0.010189535 -0.069929406 -0.06899109 -0.024659287
0000d0 58 01 0c 3d 07 1b 2b bd f0 52 4a bc 04 d8 a0 39
       0.03418097 -0.041773822 -0.012348875 0.00030678522
0000e0 cd e3 a8 3d db 5c 75 bd 1d 4c 0b bd 2c 3c 31 bd
       0.082465746 -0.059903007 -0.034008134 -0.043270275
0000f0 c6 d0 75 3c c0 1a a5 bc 8f 81 4f 3a 75 ad cc bb
       0.015003389 -0.020154357 0.0007915729 -0.0062462636
000100 79 b7 81 3c 43 ba 1e 3d c8 5e f1 bc ee 35 b8 3d
       0.015834557 0.03875185 -0.02946414 0.08994661
000110 e9 85 c1 3b 97 f4 34 bd c0 75 8c ba 62 11 a4 bc
       0.005905856 -0.04417857 -0.0010716245 -0.02002782
000120 47 0f 46 3c 88 56 d2 3d 1c ca 19 ba 6f c5 cd bc
       0.012088603 0.10270411 -0.00058666035 -0.025118558
000130 4c 4a de 39 87 97 11 bc 98 04 a5 3d 4a 55 13 3c
       0.00042398495 -0.008886225 0.08057517 0.0089925025
000140 e4 54 f2 3c 47 44 36 3c 55 3a 2d bc 73 dd 89 3c
       0.029581495 0.011124677 -0.0105729895 0.016829228
000150 37 4d 0f 3c ed a9 4c bc 5f c5 82 bc 63 43 4e bd
       0.008746437 -0.012491685 -0.015963254 -0.050357234
000160 4d 69 3a bd a6 12 25 3c e1 f1 5b bc 91 7e 64 bc
       -0.04551058 0.010075247 -0.013424368 -0.013946191
000170 cd 36 86 bc c0 e6 39 3d 6e ab 0a bc 05 c1 e5 bc
       -0.016383553 0.045386076 -0.008463724 -0.02804614
000180 4c 9a 19 3d b7 ce 85 bc 50 7d 55 3c 06 87 3f bd
       0.037500665 -0.01633392 0.013030365 -0.046759628
000190 d8 ad c5 bd 12 76 c2 3c af 09 99 bc 8a 0c 6b bd
       -0.09652299 0.023737941 -0.018681375 -0.057385005
0001a0 47 41 5b ba a8 09 35 3d 1a 4f 89 3d 6c 5a 53 3d
       -0.0008363914 0.044198662 0.067045406 0.051599905
0001b0 36 d2 5e bd 73 51 e4 bb 51 32 9c 3c da 45 39 bd
       -0.05439969 -0.0069677173 0.019066961 -0.04523263
0001c0 33 5d bc 3d f5 d4 a8 bc 83 ae 85 3c 4d 65 79 bd
       0.09197464 -0.020609358 0.016318565 -0.060887624
0001d0 e5 22 82 3d 0f ed b6 3c f9 f2 8d 3d bf 63 7e 3d
       0.06354312 0.022329835 0.06931109 0.062106844

fc1.weight f4 [84, 120]
000000 a5 d9 db bd 8f ed d7 bd 95 d1 c4 bc 1a ad f5 3d
       -0.10734872 -0.105433576 -0.024025718 0.11995907
000010 e4 36 03 be f7 aa 3d 3b 9c b8 42 bd 0b 09 f9 bd
       -0.12813908 0.0028941014 -0.04753934 -0.12159928
000020 a1 1a bb bb 0b 0c 93 3d ee 88 de bd 77 36 ca bd
       -0.0057099615 0.071800314 -0.10865961 -0.098736696
000030 21 a7 1f bd 06 e4 ba bd 51 ff c9 bc db d4 60 bd
       -0.038977746 -0.09125523 -0.024657877 -0.054890495
000040 07 da 1e 3e a7 8c e0 bd e9 ff 10 be 8d 1a 50 3d
       0.15512858 -0.10964327 -0.14160122 0.05080657
000050 9a 89 cd bd a2 ad 8a bd a9 22 fd 3c 13 09 f3 bd
       -0.10036011 -0.06771399 0.030900316 -0.11866965
000060 a6 d1 ab 3c e5 15 61 bc 9b 6a 96 bd f5 a1 98 3d
       0.020973992 -0.01373813 -0.07344552 0.07452766
000070 c9 ed d8 bd 24 fb 95 3b 72 38 60 bd 92 db e0 3d
       -0.10592229 0.0045770574 -0.05474133 0.1097938
000080 34 ea e5 bc 16 2a 3e bc 4a d1 ef bd 7e 33 05 3d
       -0.028065778 -0.011606714 -0.117098406 0.03251981
000090 c4 94 ce bc 3c d3 6c bd e9 29 89 bd f8 8d 07 be
       -0.025217421 -0.057818636 -0.06697447 -0.1323775
0000a0 b4 1a 94 bd d4 d7 c1 3d 70 e7 93 3b 43 34 a2 3c
       -0.07231656 0.09464994 0.0045136735 0.019800311
0000b0 8a e4 a9 bc 94 07 14 3c 64 9a c9 3d 1b 88 f2 bd
       -0.020738859 0.00903501 0.09843901 -0.11842366
0000c0 a5 2b b7 3d cf 6e a7 bd 43 df 22 3d a2 eb 14 be
       0.089438714 -0.08175432 0.0397637 -0.14543012
0000d0 7e 28 58 be a5 03 16 bd f8 9e ad bc fe 54 31 bb
       -0.21109197 -0.03662457 -0.021193966 -0.0027058716
0000e0 74 8b c4 bd d9 d2 b0 bd 76 b9 9b 3d 0f c6 e5 bc
       -0.09596911 -0.08633966 0.07603733 -0.028048543
0000f0 ad 34 bd bd fe 9b c2 3c 82 ed df bb e7 bb 16 3e
       -0.09238563 0.023756023 -0.006833733 0.14720117
000100 97 a8 93 bd 61 00 0a 3c b4 27 66 bd f1 67 ad 3d
       -0.0720989 0.008422942 -0.056190208 0.08467091
000110 24 67 a1 3c 5c 29 5b bc 34 f6 1b 3e 86 3c 61 bc
       0.019702502 -0.01337656 0.15230638 -0.01374734
000120 79 c9 f4 39 15 c2 83 3b 87 15 8d 3b 7d 22 48 be
       0.00046689415 0.004020939 0.004305545 -0.19544406
000130 97 6c 93 3d 40 b1 43 be 8a 6c 00 be 22 52 8b bd
       0.07198446 -0.19110584 -0.12541404 -0.06802775
000140 3e 5e d0 3d ee 03 c8 bc bf 24 13 3e 9f 5c c6 3c
       0.10174225 -0.024415936 0.14369486 0.024214087
000150 d5 7b c5 3d bc 74 0c bd fa 66 e0 bd 20 dd 52 bd
       0.0964276 -0.034291014 -0.10957141 -0.051480412
000160 15 e9 bb 3d d3 24 33 3c 74 f8 67 3c 14 bf 78 bd
       0.09175316 0.010934073 0.014158357 -0.0607291
000170 75 08 9c 3d 3a 29 39 be cd 03 ac bd f1 42 16 be
       0.076188006 -0.18082133 -0.083991624 -0.14673974
000180 dc 1f 95 3c 72 2a dc 3c 83 05 13 3d 98 c0 df 3c
       0.018203668 0.026875708 0.03589393 0.027313516
000190 aa 7d 1e 3c 99 03 92 3d 43 b1 2a be 6e bf d0 3d
       0.009673515 0.071295924 -0.16669182 0.10192762
0001a0 59 65 74 3d ab e5 35 bd d9 e4 f4 3c 18 29 a6 3d
       0.059666965 -0.04440848 0.02989428 0.08113307
0001b0 9c c5 33 3e ce 13 33 3c 79 e8 69 bd a4 e9 d2 3c
       0.1755585 0.010930015 -0.05710647 0.025746174
0001c0 9b e2 07 be 0d b8 5e bd 4c 1b 41 bd b9 04 0f be
       -0.13270037 -0.054374743 -0.047145173 -0.13966645
0001d0 08 c4 28 bb 6c fa 25 3d 8a 0a b4 3d 69 33 61 be
       -0.002575161 0.040522024 0.08791073 -0.21992268
0001e0 83 fc 9e 3d b5 ba 9e 3c 71 fc 07 bd 8f c2 87 3d
       0.077630065 0.019376138 -0.03319973 0.06628906
0001f0 d0 e5 3a bd 75 54 4b 3c 1f 45 a4 bd 7b 98 b8 bd
       -0.045629323 0.012410273 -0.08020996 -0.09013458
000200 54 b7 8d 3d c6 fc b6 bc 18 59 88 bd fe 1b 3a bc
       0.06919733 -0.022337329 -0.06657618 -0.011359213
000210 28 66 ab ba ab 60 51 3d 56 54 2f 3d ab 85 9b bc
       -0.001307671 0.05111758 0.04280504 -0.018984636
000220 c9 42 e9 ba cd d8 53 3d 0e 13 16 bd 0e b5 32 3e
       -0.0017796393 0.05172043 -0.036639266 0.1745188
000230 09 00 18 bd 05 af 00 be 64 f2 29 3d 91 40 30 bc
       -0.03710941 -0.12566765 0.041490927 -0.010757581
000240 82 27 b7 3c 3d 5a 6c 3d 1c 02 f2 bd 99 90 29 bd
       0.022357706 0.057703245 -0.118168086 -0.041397665
000250 4a 3b c1 3d 1e ea 63 3d 18 46 18 be 1d 05 ed bb
       0.094351366 0.055643193 -0.14870489 -0.0072332756
000260 0a cc ec bd d0 8a e9 3d 2d 05 16 3d 2a 42 c5 3d
       -0.11562355 0.114034295 0.03662603 0.096317604
000270 da 37 72 bd 62 23 b9 bd 01 09 ac bd 3a 00 e1 3d
       -0.059135295 -0.09039952 -0.08400155 0.10986371
000280 a6 f2 59 3d 9a 87 56 3e 5f 35 e4 bd b4 2c 87 bd
       0.053209923 0.20950165 -0.11142992 -0.06600323
000290 40 90 7b bd 6d 97 78 bd 43 b9 a8 3d 51 b2 29 bd
       -0.061416864 -0.060691286 0.08238461 -0.04142982
0002a0 75 67 00 3e e7 4d 16 bd d3 20 08 3e 3b e4 17 3d
       0.12539466 -0.036695387 0.13293771 0.037082892
0002b0 81 85 04 be 19 e9 ca 3c c7 f4 9d bc 76 b6 77 bb
       -0.12941553 0.024769353 -0.019281758 -0.0037797964
0002c0 70 8d 15 3d de 1f e4 3d 41 e5 60 bd 6b 50 fd 3d
       0.03651184 0.11138891 -0.054906134 0.12368854
0002d0 e6 68 0b bd e9 80 3e bd f5 a2 71 bd 59 df 00 be
       -0.034035586 -0.046509657 -0.0589933 -0.125852
0002e0 d5 58 24 3e 26 d6 bc 3c 60 2f 35 bb 35 2b 89 bd
       0.16049512 0.023051333 -0.0027646646 -0.06697694
0002f0 93 d4 4b 3d d2 cf 7b bd bf a4 08 3e f2 a0 83 3e
       0.049763273 -0.06147749 0.13344096 0.2570873
000300 ed b3 7b 3d ca 16 f9 bd 23 9f 03 3d 22 d5 14 be
       0.061450887 -0.1216255 0.032134186 -0.14534429
000310 cd e7 8d 3d 4f 01 4d 3d 8c 47 e1 bd d1 8b 46 bd
       0.06928978 0.050050076 -0.109999746 -0.048473183
000320 c4 5f 9b 3c 8e 3a 65 bc 35 14 b3 bc 79 8e 98 3c
       0.018966563 -0.013991011 -0.021860221 0.018622624
000330 c2 85 a6 bc 4c 31 35 3d 68 12 be bc f5 6a 1f bd
       -0.020327453 0.044236466 -0.023202136 -0.03892036
000340 5e 3b 8c 3d 5d 2b 8a bd 84 d9 b5 3d b4 8e da bd
       0.06847261 -0.06746552 0.088793784 -0.1067175
000350 02 d7 ce 3c 99 30 ea 3c 7d 57 8b bd 9e f1 e5 3b
       0.025249008 0.028587626 -0.068037964 0.0070173284
000360 e7 27 a2 bd a6 21 3f 3d 7f 8e d0 bc d7 b3 98 bd
       -0.07917767 0.04666295 -0.025458572 -0.07456177
000370 86 73 88 3d 46 dd c0 3d 3c 90 15 be 72 73 aa bb
       0.06662659 0.094172046 -0.14605802 -0.0052017504
000380 26 f5 86 bd d4 c6 06 be e4 19 33 be a0 15 2f 3e
       -0.06589727 -0.13161784 -0.17490345 0.17098093
000390 61 67 26 bc 23 2f 80 bc 47 05 0d 3d f4 5f 48 3d
       -0.010156483 -0.015647477 0.03442886 0.048919633
0003a0 95 7c ca bd 05 0e b3 bc 26 b1 76 bd 5a 27 1b 3d
       -0.098870434 -0.021857271 -0.060227536 0.037879325
0003b0 0d f3 85 3d e0 db cb 3c 86 3d 8e bb 9f 3d 35 bc
       0.06540499 0.024885118 -0.0043408303 -0.011062055
0003c0 5a f7 eb 3c 03 78 21 3c ed 9f 88 be bb 75 be 3b
       0.02880447 0.009855273 -0.26684514 0.0058123744
0003d0 b2 8a 00 be 59 94 4e bc 12 a5 c4 3c 83 f1 f8 bc
       -0.12552908 -0.012608611 0.024004493 -0.0303886
0003e0 a3 f6 33 bd 8d 83 ff 3d 5b 73 cf 3d 33 dc 0f 3e
       -0.043936383 0.12476263 0.10129424 0.14048843
0003f0 1e f4 9f bd 09 8f 2d bd d8 1e 9c 3b 2e 76 5d bd
       -0.078102335 -0.042372737 0.004764419 -0.054067783

fc1.bias f4 [84]
000000 18 f6 67 bc fa 78 86 bd 87 7e 02 bb a3 da 0b 3d
       -0.014157794 -0.06566043 -0.0019911842 0.034144055
000010 e9 63 65 3d 8c 9e 72 3d 9d f4 9e 3d f5 bd a8 3d
       0.056003485 0.059233233 0.077615 0.082393564
000020 bb c7 32 bc 29 fb 9f ba e6 0f 53 bd c6 0e 09 3d
       -0.010911877 -0.0012205589 -0.051528834 0.033461355
000030 09 02 b6 3d 59 cd 83 bd 10 86 5a 3b 89 fa d5 bc
       0.08887107 -0.06435651 0.0033344068 -0.026120441
000040 73 44 db bc a6 ac 11 bd 1c 1b 2f bc 3d 5e 80 bc
       -0.026766038 -0.03556504 -0.010687616 -0.015669936
000050 3e 1c 84 bb 07 1b 53 3d 34 23 0d 3c 0b 3f de 3c
       -0.004031687 0.051539447 0.00861435 0.02712967
000060 ce a6 ab 3d 3c 60 36 3d e7 7c 06 3d 4d 48 36 3d
       0.08381425 0.04452537 0.03283396 0.044502545
000070 23 e7 64 ba 1f 66 54 3d 24 7d 55 bc eb 2d 9e bc
       -0.0008731952 0.051855203 -0.013030324 -0.019309005
000080 a8 38 86 bd ca 3f 72 bc 0a 5c ef bc 1d 42 b3 bc
       -0.06553775 -0.014785716 -0.029218692 -0.021882111
000090 1b 6b bd bd a1 e0 71 bd d4 00 2c 3b a0 cc cd bc
       -0.09248944 -0.059052113 0.002624561 -0.025121987
0000a0 6e ae 85 3b da c3 98 bd 58 3e 19 3d cb c6 04 bc
       0.0040796315 -0.07459231 0.03741297 -0.008104037
0000b0 d1 24 0f bb 61 7f bc bb 2c 09 78 bb f5 15 f2 3b
       -0.0021842013 -0.0057524894 -0.0037847264 0.0073878714
0000c0 06 3c e7 bb 38 57 38 bc 18 c8 43 3d bb ce 82 3c
       -0.007056716 -0.011251263 0.047798246 0.015967717
0000d0 77 8c 98 3d d4 49 2c bd 1b 1b 01 be 87 ea 02 3d
       0.074486665 -0.042062595 -0.12607996 0.031961944
0000e0 b8 6f 2d 3d bb 94 a1 bc d1 16 90 bc 4b 0c e9 bc
       0.04234287 -0.01972424 -0.017589005 -0.028448245
0000f0 df d1 d7 bc 0d ac 0e 3e f6 56 b7 bb e3 ce bb 3c
       -0.026345192 0.1393282 -0.0055950833 0.0229258
000100 63 f9 00 3d 75 40 2e bd f2 5b dd 3c 72 7e 6c 3c
       0.031487834 -0.04254194 0.027021382 0.014434444
000110 83 e3 65 3d 5f f8 7d 3c 5b 3a 40 bd 5d c3 8d 3d
       0.056125175 0.015501111 -0.046930652 0.06922028
000120 f1 79 93 3d 3a 55 06 3d 1a 39 b0 3c 7f bc 79 3d
       0.07200993 0.032796122 0.021511603 0.06097078
000130 ff 29 cf bc 0b 62 2a bd c4 4f e2 3b 15 fc d8 bb
       -0.02528858 -0.041597407 0.0069064815 -0.0066218474
000140 02 39 cf bd d8 d9 16 bd fb c9 49 bd 33 b5 9a bc
       -0.10118295 -0.036828846 -0.04926489 -0.01888523

fc2.weight f4 [10, 84]
000000 79 54 e8 be 72 0f e0 be b0 fb 0c 3f 8e 20 42 3e
       -0.45376948 -0.43761784 0.55071545 0.18957731
000010 ed 64 92 3e c1 0d 94 3d 6d 3a b8 3e 3f bf 5b 3e
       0.28592625 0.07229186 0.35982075 0.21459673
000020 44 a7 23 bf a7 9c d5 bd ee 0f 20 be 80 83 92 bb
       -0.639271 -0.1043027 -0.15631077 -0.0044712424
000030 de 75 b7 3e fc a7 3d bd 23 79 cb bd 06 72 9d 3e
       0.35832113 -0.04630278 -0.09935214 0.30751055
000040 df ed c6 be e0 ab 09 be 37 ce 98 be 7f 1c e1 3e
       -0.38853356 -0.13444471 -0.2984483 0.43967053
000050 b2 b2 a6 be b2 7f fe be 66 53 90 be b0 0f cc 3e
       -0.3255821 -0.497068 -0.28188628 0.3985572
000060 c8 dc 49 be 74 17 b9 be 30 48 8a be 0b da 0a 3e
       -0.19713128 -0.36150706 -0.270082 0.1355974
000070 01 e6 2c 3f f8 52 c4 be ee 5a 5c bc 51 ac 87 bd
       0.6753846 -0.3834455 -0.013449414 -0.066246636
000080 76 98 b1 be 9a 8c 5f 3e 3d 03 ab 3e 8c dd 89 3d
       -0.3468663 0.21830979 0.33400908 0.0673171
000090 3d 41 93 be c6 0e b2 be 74 1d 51 bd 4c ca 8c be
       -0.2876071 -0.34776896 -0.05105348 -0.2749809
0000a0 6b 82 30 be b3 91 04 3f 28 74 d1 be c9 f5 e1 bd
       -0.1723725 0.5178482 -0.40908933 -0.11033208
0000b0 e9 b7 8e 3e ba c4 5d be fb b6 ac 3e 10 ae e8 3e
       0.27874687 -0.21657076 0.33733353 0.454453
0000c0 99 15 ba 3e 21 fd 8b 3d 47 39 dc be ac 4c 02 3f
       0.36344603 0.0683539 -0.4301245 0.5089824
0000d0 7f f2 f4 be 77 04 81 be 85 ed c9 be 5b 0d b1 be
       -0.4784126 -0.2519872 -0.39439026 -0.34580502
0000e0 42 09 c5 3e a2 75 09 3f 9a 84 d5 3e f8 2a a9 3e
       0.38483626 0.5369512 0.4170273 0.33040595
0000f0 c1 ae 05 3f a9 d8 b3 3e 4b 1d c6 bc 67 d1 cf 3e
       0.5221978 0.35126236 -0.02418389 0.4058945
000100 8f 63 b7 be fc ce 2b be 87 6d ce 3d 2f c7 ab 3e
       -0.35818145 -0.16778177 0.100794844 0.33550403
000110 ee 4b 2c 3e a1 f4 61 bd 7e 4d 63 be 90 fc 85 3b
       0.1682584 -0.055164937 -0.2219753 0.0040889457
000120 a9 3a c7 3e dd ee e7 be 17 65 02 bf 7b f4 4d 3d
       0.38911942 -0.45299426 -0.509355 0.050281983
000130 1c bd 63 3e fc 18 5a 3e 36 72 d2 be 76 a8 b8 be
       0.22240108 0.21298593 -0.4110276 -0.36066025
000140 8f ed 6c be a6 0d 9f 3e 33 8d a0 be 30 8c 43 3e
       -0.23137496 0.310651 -0.31357726 0.19096446
000150 3b 57 d2 be 78 25 6d 3e 98 4b f5 bd 4d 0b a7 be
       -0.41082177 0.23158824 -0.11977309 -0.3262581
000160 17 67 06 3e 6e e0 65 3e 0c 16 37 3e 4e 9a a4 3e
       0.13125263 0.22448894 0.17879504 0.32148975
000170 45 8a a5 3e 1b 10 fb 3e 95 a1 f0 be e3 fa 16 3f
       0.32332054 0.49035725 -0.46998277 0.5897657
000180 03 30 af 3e 29 c4 d4 be 11 17 18 3f 07 86 0c bf
       0.34216318 -0.41555908 0.59410197 -0.5489201
000190 a1 59 10 be 8f 83 38 3e 55 ba ff 3e 97 4f 0a bd
       -0.1409669 0.18018936 0.49946848 -0.03376731
0001a0 36 4e 33 3c fc 1d 45 3e b2 45 e0 bd c2 1c 32 be
       0.01094394 0.1924972 -0.10950793 -0.17393783
0001b0 a4 f6 9b 3e 75 f1 0c 3e 50 3b 8a 3e 43 62 21 be
       0.3046161 0.13763984 0.26998377 -0.1576014
0001c0 26 87 1a 3e 47 54 62 3e b5 dd 66 be cc 93 26 3f
       0.15090618 0.22102462 -0.22545512 0.6506927
0001d0 79 7f cd 3e 12 67 00 bf 64 d8 82 be c1 12 5b 3e
       0.40136316 -0.5015727 -0.25555718 0.21393873
0001e0 04 53 e1 3e 56 7c d5 3e 06 fb ba 3e 3d 72 81 be
       0.44008648 0.41696423 0.3651964 -0.2528247
0001f0 f6 ec 57 3d 88 21 9d be 7f 5b 7a 3e 75 f3 8c be
       0.052716218 -0.30689645 0.24448965 -0.27529493
000200 19 93 28 be a0 d5 b5 3e f6 91 94 be 4a a8 fe 3e
       -0.16462363 0.35514545 -0.2901761 0.4973777
000210 d5 a5 f9 3e 3d 5b 5b 3b 49 38 83 3e 09 f7 b6 be
       0.48759332 0.003347113 0.2562888 -0.35735348
000220 c8 c7 9a 3e f6 81 84 3e 8a af 83 be 56 b3 a1 3b
       0.30230546 0.25880402 -0.25719863 0.0049347086
000230 02 0f 03 be b6 bf af be 12 37 ac be b2 c3 b5 3d
       -0.12798694 -0.3432595 -0.33635765 0.088752165
000240 e7 7f 2c be 43 68 90 3e 6c 36 a3 be 0b fc ab be
       -0.16845666 0.28204545 -0.31877458 -0.3359073
000250 d1 96 ab 3e 18 9e af 3e 09 e3 fa 3e 28 e8 65 3e
       0.335135 0.34300303 0.4900134 0.22451842
000260 7a 35 07 3f 1d b2 6c 3e 8c 50 91 bc 83 91 c9 3d
       0.52815974 0.2311482 -0.017738603 0.09842207
000270 1a 39 25 be 2a f6 a1 3e c7 ea fe 3b 29 b2 32 3e
       -0.16135064 0.3163312 0.0077794525 0.17450775
000280 29 00 ca be 0d c4 e3 be 36 4c 52 3e ea ab e6 3e
       -0.39453247 -0.44485512 0.20536885 0.45053035
000290 01 76 55 3c eb 8e 55 3e 3d e6 82 be 31 28 f8 be
       0.013028623 0.208553 -0.25566283 -0.48468164
0002a0 c1 f8 2b be e0 81 06 bf a3 31 23 3f bf a2 de be
       -0.16794111 -0.52541924 0.63747615 -0.4348354
0002b0 d1 71 41 3f bf 3a 20 3f ba d0 df 3e 3a 27 f0 3e
       0.75564295 0.6258964 0.43713933 0.46904927
0002c0 05 49 a8 be e0 7d 58 3d a2 71 ff 3e 57 c0 3e 3e
       -0.3286821 0.05285442 0.49891382 0.1862806
0002d0 f9 fe 8a be ee b6 12 3f b6 25 92 be 74 95 90 3d
       -0.27147654 0.5731038 -0.28544396 0.07059756
0002e0 da d7 99 3e c4 40 06 3d f0 2b d0 be f1 72 1e be
       0.30047494 0.03277661 -0.40658522 -0.15473534
0002f0 a5 72 ea be 71 78 86 3e 54 a0 02 3f 87 d6 bd 3e
       -0.45790592 0.26263765 0.5102589 0.37077734
000300 d3 7c a7 3e ea f7 a6 3e 00 88 af 3e 9b cb d8 3e
       0.3271242 0.32611018 0.34283447 0.4234284
000310 78 08 cb 3e 7f 1c e1 3e 6a 1d fe be 46 45 25 be
       0.396549 0.43967053 -0.49631816 -0.16139707
000320 75 a4 b8 bd e1 28 2d be a8 d6 3b be 86 ea b4 be
       -0.09015743 -0.16910125 -0.18343604 -0.35335177
000330 71 44 9f be 8a 05 7a be 49 7d ed be 80 42 04 3f
       -0.31106904 -0.24416175 -0.46384647 0.5166397
000340 e9 64 b7 be ab 04 bd 3e da bf eb 3e 58 c7 47 3e
       -0.35819176 0.36917624 0.4604481 0.19509637
000350 8b 74 97 be 26 a7 a4 be 5f e7 65 be 06 24 0c 3e
       -0.29581103 -0.32158774 -0.22451542 0.13685617
000360 6f ab 5c 3e b7 e1 94 be 68 32 5f 3e de 73 23 3f
       0.21549772 -0.29078457 0.21796572 0.63848674
000370 c9 85 ef bc e7 c0 d5 3e 60 f1 e3 be f0 6d 55 3e
       -0.029238598 0.41748735 -0.44520092 0.20842719
000380 c3 a4 b3 3e 98 97 b2 3d 10 8f dd be 11 01 b7 be
       0.3508664 0.087203205 -0.4327321 -0.35743
000390 8e 7c 07 3f ee ce c5 bc 05 a7 cf be 1b 06 07 bf
       0.5292443 -0.024146523 -0.40557113 -0.5274369
0003a0 8e a2 9e be af e7 41 be 6e bf fd be ee d5 9f be
       -0.30983394 -0.18936037 -0.49560112 -0.31217903
0003b0 cb 7a 57 3f 1b f7 9f bd 18 3f 98 3e dc a6 9d 3e
       0.8417174 -0.078108035 0.29735637 0.30791366
0003c0 20 bd 48 3e 37 1c d5 3d dd 77 fc 3e b1 53 d5 3e
       0.19603395 0.10405772 0.49310198 0.41665414
0003d0 90 bf 9a be 1b be 79 be e8 4e e6 bc 0f b0 46 be
       -0.30224276 -0.24388926 -0.028113797 -0.19403099
0003e0 b9 69 e0 be a9 56 0c be 42 88 f0 3e f7 14 36 bf
       -0.4383066 -0.13704933 0.46978956 -0.7112574
0003f0 49 3c fd 3e 2d 0f e7 3d e3 56 05 be 30 aa 06 bf
       0.49460056 0.112821914 -0.13021426 -0.52603436

fc2.bias f4 [10]
000000 ae 32 9a bd 2c b3 37 3d 68 91 0c 3e 1a 2e 7f bd
       -0.07529198 0.044848606 0.13727343 -0.062299825
000010 c0 9d 58 bd f6 23 bb 3d ba e0 ca bc 9f 69 13 3e
       -0.052884817 0.091377184 -0.024765361 0.1439576
000020 e4 02 18 be 11 6d 4b bd
       -0.14844853 -0.04966456
