mixed_U_net_w_acc_36.pt (torch, 250193 bytes, 10 tensors)

conv1.weight f4 [6, 1, 5, 5]
000000 4d aa 17 be bf 47 ff 3d 3a 0a fd bd 9f 4f fb bc
       -0.14811058 0.12464856 -0.12355466 -0.030677615
000010 67 d4 84 3d da e1 cd 3d 69 b6 c5 bd 60 6b 4f be
       0.06485825 0.100528434 -0.096539326 -0.20255804
000020 e6 ea e9 bd 2b 4f 25 be 85 ac f9 bd db a5 cb 3d
       -0.114217564 -0.16143481 -0.121911086 0.09943744
000030 e0 97 ad 3d f5 87 03 3e ac 7c 3d bd 8c 45 34 3e
       0.084762335 0.12844832 -0.046261474 0.17604655
000040 03 56 53 3e 2f ac e8 3d 9b 26 d6 bd a8 eb c2 bd
       0.2063828 0.113609664 -0.10456582 -0.09517604
000050 bf 8a bf bd 42 af f8 3d d1 c9 01 3d 5c 4f 49 3e
       -0.093526356 0.12142803 0.031686608 0.1965918
000060 8d 90 0b bd 0b 0b 2b 3e 71 99 ed 3d cd b8 d5 bb
       -0.0340734 0.16703431 0.11601532 -0.006522274
000070 01 b4 cf bd 9f ba 8c 3d 30 c3 ee 3b 6a 30 c5 bd
       -0.10141755 0.06871533 0.0072864518 -0.09628375
000080 f8 37 d9 3d 6a c1 18 bd e3 fc 47 be bd 0f d1 bd
       0.10606378 -0.03729383 -0.19530062 -0.1020808
000090 3f ec 2f 3e 83 86 94 3d 4a 96 04 be 74 b4 28 3e
       0.17179964 0.072522186 -0.12947956 0.16475087
0000a0 64 15 1e bc 71 97 4b be 50 50 91 3d e4 4d 46 bd
       -0.009648655 -0.19881989 0.070953965 -0.048414126
0000b0 f4 26 a4 bd 5d 11 97 bc ba 9d 51 be 49 24 f9 3b
       -0.08015242 -0.018440897 -0.20470324 0.0076032025
0000c0 1e f3 34 3e 2b c6 21 3d 71 28 30 bb ce 65 b4 3d
       0.17670867 0.03949563 -0.0026879574 0.0880848
0000d0 8d a4 03 bc 8f bc 3f bd 8c dc 43 3d bc c8 9b 3c
       -0.008034837 -0.046810683 0.04781775 0.019016616
0000e0 5b 07 bb 3d 9e cb 34 bd 33 84 34 3e d1 de f3 3d
       0.09132262 -0.044139497 0.17628555 0.11907733
0000f0 19 64 aa bd c9 9b bc 3d f3 69 61 3d 77 a5 45 3e
       -0.08319873 0.09209401 0.05503268 0.19301401
000100 b4 cf 42 3e 4b d8 d1 3d 96 ba dd 3d a4 0d 54 3d
       0.19024545 0.10246333 0.10826604 0.05177082
000110 67 df 3e bd 91 02 e9 bd 8d 9a 32 3e aa af ab 3d
       -0.04659977 -0.11377443 0.17441769 0.08383115
000120 7f 30 1d be 90 a8 aa 3d 33 2e 1c bd 03 dc 3f be
       -0.15350531 0.08332932 -0.038129997 -0.18736272
000130 cb 2a 43 3e 13 bc 2b 3d cd d2 9b 3d da c5 b6 bb
       0.19059293 0.04192741 0.076085664 -0.005577785
000140 d4 73 2c be 4f c3 3c 3e ee 2b 8e bd 1a 80 55 be
       -0.1684106 0.1843388 -0.06941973 -0.20849648
000150 04 ae 33 3e d1 3a b9 bd f2 33 c6 bd d3 b0 27 3e
       0.1754685 -0.090444215 -0.096778765 0.16376047
000160 97 aa d2 3d 4f 1a 18 be 3f 70 82 bc a8 3f bd bd
       0.10286444 -0.14853786 -0.015922664 -0.09240657
000170 c8 41 1f 3e 51 e8 37 be 44 3c 1d be da 0a a8 bd
       0.15552437 -0.17959715 -0.15355021 -0.08205195
000180 39 7b ec bd 16 fd 2e 3e 03 a8 f3 bd 41 ce 24 bd
       -0.1154694 0.17088732 -0.1189728 -0.04023576
000190 91 32 1f 3d 8c 0c e3 bb 35 ab 58 bc b7 31 4f bd
       0.038866583 -0.006928986 -0.013224413 -0.05058452
0001a0 6b 8c 41 be dc 81 37 3e 1e 45 85 bd 04 7d 29 3d
       -0.18901221 0.17920631 -0.06507324 0.04137899
0001b0 e8 90 0d 3e 9b a9 87 3d 48 e1 21 be db 24 5f bb
       0.13824809 0.066241466 -0.15808594 -0.0034049067
0001c0 b6 78 16 3d 00 ec e4 3d ea 30 19 3e f5 d7 16 3e
       0.036736213 0.11177826 0.14960065 0.14730819
0001d0 83 c1 f4 3b d6 81 3f 3e df 04 dd bc d0 6a b9 bd
       0.0074693575 0.18701872 -0.026979862 -0.09053576
0001e0 28 ef 44 bd 11 82 5a 3e c8 2f ec 3d f6 94 8b 3d
       -0.04807964 0.21338679 0.11532551 0.068155214
0001f0 75 fc b0 bd 19 62 e3 bd a4 da 9b bb 24 51 d1 3c
       -0.08641902 -0.11102695 -0.0047562886 0.025551386
000200 46 c1 30 be 00 94 2a 3e b5 97 90 bd 1d ce 51 bd
       -0.17261228 0.1665802 -0.07060186 -0.051221956
000210 9b 08 03 be 6f 2b 68 bb 1c 82 d4 bd ba cd 42 3e
       -0.12796251 -0.003542628 -0.10376379 0.19023791
000220 30 52 5e 3e 1f 3e 1a 3d 4b 1c 9a bd 4b a9 29 3e
       0.2171104 0.0376569 -0.07524928 0.16568486
000230 f7 8e 10 3e 69 b7 5b 3e c3 a5 25 be bf 13 81 bb
       0.14117037 0.21456684 -0.16176514 -0.0039391215
000240 72 eb 4e bc fa 39 2c bd 51 7f 76 3b 29 79 79 3a
       -0.012629377 -0.04204748 0.0037612508 0.00095166505
000250 d9 09 42 3e 03 ff 59 be
       0.18949069 -0.21288686

conv1.bias f4 [6]
000000 28 27 4c be 1d d6 b6 bc 93 be 01 be 8c 4e 05 bd
       -0.19936812 -0.022318894 -0.12670355 -0.03254561
000010 8f 74 2c be 9b 89 53 be
       -0.16841339 -0.20657961

conv2.weight f4 [16, 6, 5, 5]
000000 35 40 88 3c 8f b3 f5 bc be 04 bb 3c 16 31 3b 3d
       0.016632179 -0.029992847 0.02282941 0.04570111
000010 9b 92 4e bd ed 52 56 3d 3d d7 fd 3c 2f c0 e5 bc
       -0.050432783 0.052325178 0.030986423 -0.028045742
000020 02 96 60 bd 98 66 ef bc df a9 bd 3d 56 c4 3a bd
       -0.05483056 -0.029223725 0.09260916 -0.045597397
000030 fa 6e 83 bd 4b b3 5f bd d8 57 8b 3d 2c 86 32 3d
       -0.064176515 -0.054614346 0.06803864 0.043584988
000040 dc df 35 bd 2d 13 a5 3d 3c 05 7d bd 05 df a5 bd
       -0.044402942 0.08060298 -0.06177257 -0.08099178
000050 53 a8 5a bd 29 2c 5c 3d 6d be 2e bc 1d 40 d3 bc
       -0.053383183 0.053753052 -0.010665518 -0.025787408
000060 3c c6 c0 bc 99 be 4a bd 9d 2c b7 3d 4b a1 ed 3a
       -0.023532026 -0.049498174 0.08944056 0.0018129734
000070 a1 2f 87 bc 03 7f 92 3d 81 de 8c bd 6c 58 ea bc
       -0.016502203 0.07153132 -0.06878377 -0.028606616
000080 38 8b ac 3d 13 04 68 bd 3a 56 02 3d b1 9a 56 bd
       0.08424991 -0.05664451 0.031820513 -0.05239362
000090 f2 21 80 bd 47 32 d8 bc 67 80 6a bd ad 84 9f bc
       -0.062564746 -0.026391162 -0.05725136 -0.019472444
0000a0 12 8e 13 bd f4 1a 13 bd 1e 1e 63 bc e7 f2 08 bd
       -0.03602416 -0.035914376 -0.013862161 -0.033434775
0000b0 82 e9 19 bd 08 9a 06 3c b9 14 a0 3c ec 6e a5 bc
       -0.037576206 0.008215435 0.019541131 -0.020194493
0000c0 33 b5 2c bd d2 7b 93 3d 3b 3b 85 bd b6 18 8f 3d
       -0.042164993 0.07201351 -0.06505438 0.06987135
0000d0 01 8b d7 3c 80 a4 a2 bc 61 b7 95 bd 27 2f 9a 3c
       0.0263114 -0.01985383 -0.073103674 0.018821312
0000e0 8e 7f 92 bd 83 56 5e 3d 8f 40 d0 b9 fa d5 8e bd
       -0.071532354 0.054281723 -0.00039720951 -0.069744065
0000f0 50 28 b4 3d d4 0c 68 3c 62 e3 cb 3c 68 31 0c bc
       0.087967515 0.014163215 0.024888698 -0.008556701
000100 cd de 91 3d 27 e0 14 bd 76 b1 85 bd d7 64 1e 3d
       0.07122574 -0.03634658 -0.065279886 0.038670387
000110 2f 5b 38 bc e6 2d 98 3c c3 d3 81 bd 24 f6 f1 3c
       -0.011252209 0.018576574 -0.063392185 0.029536314
000120 78 f5 9f bd 93 36 74 3b 09 17 10 bd 68 aa 80 bd
       -0.07810491 0.0037263974 -0.035178218 -0.062825024
000130 6f 32 d8 3c 0e 0e 8e bc 36 ac 30 3c b4 69 93 bd
       0.026391236 -0.017340686 0.010783246 -0.07197896
000140 dc b1 98 3d 68 db 90 bd 77 51 34 bd 1e 2a 5d bd
       0.07455799 -0.070730984 -0.044023003 -0.053995244
000150 68 9b 8c bd 6d 09 db 3c ef 25 e9 bc 19 5d 3c 3d
       -0.06865579 0.026737893 -0.028460471 0.045987222
000160 3f e1 f7 3c 7c fb a2 3d 39 b9 ae bc 40 0b dc bc
       0.030258773 0.07958123 -0.021328555 -0.026860833
000170 48 5a 8d bd 2b 6b 3c bb 4a b3 b0 3d ef 13 5f bd
       -0.069019854 -0.00287504 0.08627947 -0.05446237
000180 2b c4 65 bd ce 73 7c 3d 17 eb 19 3d a9 c7 95 3d
       -0.056095283 0.061633877 0.037577715 0.07313473
000190 8d e5 62 bd a9 2b da bc 32 e5 a7 3d 16 b8 55 bd
       -0.055394698 -0.026632147 0.081980124 -0.05217751
0001a0 62 59 69 bd 0d 21 07 bd a0 27 a6 bd 0b 20 da bc
       -0.056970008 -0.032990504 -0.081130266 -0.026626607
0001b0 3b da 97 3b 88 bc d4 3c 4d 44 80 3d 53 ec 17 bd
       0.0046341694 0.025968805 0.06263027 -0.03709061
0001c0 a6 59 46 bd 6a 94 8b bd 26 b2 a9 3b b8 f7 5a bc
       -0.04842534 -0.06815417 0.0051787077 -0.013364725
0001d0 ac 54 96 bd 32 54 25 3d fe 0e 0f 3d b3 eb 25 bd
       -0.07340369 0.040363498 0.034926407 -0.040507983
0001e0 30 19 64 bd 94 53 51 bd 24 bf 0c bd d6 75 6a bd
       -0.055688083 -0.051105097 -0.034361973 -0.057241283
0001f0 62 d9 51 bd b8 fb 5a 3d 7f 61 85 bd 7a 91 fa 3c
       -0.051232703 0.053462714 -0.065127365 0.030586947
000200 f5 7b 61 bd 3b f7 0c bd fa 15 b1 bc 97 b0 f1 bb
       -0.055049855 -0.034415465 -0.021616925 -0.0073757875
000210 1a c3 9f bc 60 7a 00 3d c6 a8 86 3d 1c 26 85 3d
       -0.019502211 0.031366706 0.0657516 0.065014094
000220 75 fe 0f 3d d9 59 49 3d 1e b4 7f bd 86 bd 67 bd
       0.03515478 0.04915795 -0.062427633 -0.056577228
000230 d6 18 96 3d c7 f3 9f bd c9 a4 a9 bd 4c 43 a1 3d
       0.07328956 -0.07810169 -0.082833834 0.07874164
000240 d9 66 9b 3b 09 af 4c 3d ba 01 68 bd 9a 7c 4d bb
       0.004742485 0.049971614 -0.05664227 -0.0031354786
000250 6b 66 14 bd e9 2e 7d bd 2e 40 75 bc 6a ae a5 bd
       -0.036230486 -0.061812315 -0.014968915 -0.080899075
000260 13 46 b6 3c 7d 32 61 3d 2c 56 3c bd 1d 98 5b 3d
       0.02225021 0.05497979 -0.045980617 0.053611863
000270 a3 ac 59 3d f2 e4 5d bd 62 53 8a bd 26 bc 43 bc
       0.053143155 -0.054173417 -0.06754185 -0.011946714
000280 a6 ea 98 bd e3 22 96 bd 04 22 21 bd 5d 95 7d bd
       -0.07466631 -0.07330873 -0.03933908 -0.061910022
000290 07 cc c6 bc df 66 32 bb 2b 35 d6 3b 37 ff 91 bd
       -0.02426721 -0.002722196 0.0065371 -0.071287565
0002a0 38 5b 89 3d e8 10 70 3d c5 43 77 bd c9 3a 7c bd
       0.06706852 0.058609873 -0.060367364 -0.0615795
0002b0 76 05 13 3d a3 4f 8c 3d 1a 32 79 bd 5c a0 95 bc
       0.03589388 0.06851127 -0.060838796 -0.018264942
0002c0 06 29 63 bd a5 1e 04 bd a5 e3 b3 3d 4b 6a bd bc
       -0.055459045 -0.032255787 0.08783654 -0.023121973
0002d0 e1 f9 fe 3c 98 a5 90 3d 5c d6 91 bd 99 04 2b bc
       0.03112501 0.070628345 -0.07120964 -0.010438108
0002e0 a0 92 91 bd a2 b1 19 bc f6 c6 8e bd e6 9f dd bc
       -0.071080446 -0.00938073 -0.069715425 -0.027053785
0002f0 1e 65 38 3d 05 e7 9f 3d 90 5e 8b 3d b7 06 82 bd
       0.045018308 0.07807735 0.06805146 -0.06348937
000300 5a e8 6c bd 8b e2 61 bc 4a 18 23 bc 1f 6b c5 bc
       -0.057838775 -0.013786922 -0.009954521 -0.02409893
000310 4c 73 73 bd a0 27 96 3d 42 96 82 3d 73 85 82 3b
       -0.059436128 0.073317766 0.06376316 0.0039831935
000320 65 ac 7c 3b 88 88 4a bd d9 40 e1 3c 80 5b 01 3d
       0.0038554904 -0.049446613 0.027496742 0.0315814
000330 e9 10 af bd d7 d8 c2 3c 86 60 5f bd b9 fb c3 3b
       -0.08548147 0.023785038 -0.05453541 0.0059809354
000340 19 f0 88 bd 85 06 14 bc 9f 8e 63 bd 2c 1d 69 bd
       -0.0668642 -0.0090347575 -0.055555936 -0.056912586
000350 32 6e b3 3c c8 b3 c2 bc 21 b5 a4 bc 89 d1 e7 3c
       0.021903131 -0.023767367 -0.0201059 0.028298156
000360 52 8b 9a bd 04 aa 40 bd 10 39 59 3d 76 81 92 3d
       -0.075461045 -0.04703714 0.053032935 0.07153599
000370 ba 2a 05 bd 7c be 58 bd f4 58 42 3d 69 94 aa 3d
       -0.03251145 -0.052916035 0.047448114 0.08329088
000380 11 89 94 bc f9 56 81 bd b1 bb 05 3c a1 c8 06 3d
       -0.018131765 -0.06315417 0.008162425 0.03290618
000390 af c3 81 bd 66 36 00 3d 15 c3 48 bd ae a4 51 bd
       -0.06336152 0.03130188 -0.04901417 -0.05118244
0003a0 ce 17 4e 3c 49 c5 55 ba 89 df 49 3d db 49 30 bd
       0.012578918 -0.0008154703 0.049285445 -0.043039184
0003b0 10 fd e2 3c 5b d2 02 3d 73 31 9d bd ff ff 81 bc
       0.02770856 0.03193889 -0.07675447 -0.015869139
0003c0 fb fe 06 3b 8a 95 38 bd 1c d4 85 3d 6c ff 9d bd
       0.0020598758 -0.045064487 0.06534597 -0.077147335
0003d0 f1 69 52 3d 81 a2 be bc 31 01 97 bd 27 c4 16 bd
       0.051370565 -0.023270847 -0.07373274 -0.03680816
0003e0 a3 09 1d 3d ff 80 07 3a 3b 18 f4 3c 4f 12 93 3d
       0.03833927 0.0005169063 0.02979671 0.071812265
0003f0 d8 66 63 3d 8e c0 2d 3d ba b9 9b 3d f0 17 10 3b
       0.055518 0.042419963 0.07603784 0.0021986924

conv2.bias f4 [16]
000000 a2 32 82 bc 78 d2 c2 3d 16 5f 47 3d a5 92 18 bd
       -0.015893284 0.095128 0.048674665 -0.037249226
000010 01 d7 e1 3c ae 93 b3 bd 83 99 88 3d 55 d7 1e 3d
       0.027568342 -0.08768402 0.06669905 0.038779575
000020 59 f1 08 bd 14 9e 0b 3d 62 81 6b bc 25 7f 4b 3d
       -0.033433292 0.034086302 -0.014374109 0.0496818
000030 37 27 87 3d d2 9e 96 3c 69 71 2a 3d 34 db 03 bc
       0.065992765 0.018386278 0.041612063 -0.008047868

conv3.weight f4 [120, 16, 5, 5]
000000 22 38 f3 3c cb d1 b2 bc f6 3d 2e bc 11 d2 c1 3c
       0.029689852 -0.021828553 -0.01063489 0.023659738
000010 1c 01 40 3d 63 4e 16 bc 83 8c 5b bb c9 e0 04 3c
       0.046876058 -0.009173962 -0.00335005 0.008110234
000020 d3 4d 28 bd d2 df 25 3d 4c f7 34 3a d3 f7 cc 3c
       -0.041089844 0.040496655 0.0006903305 0.025020516
000030 ef f0 4b bc bd 9b 2c 3d 64 9c 1f 3d 7c a2 17 bd
       -0.01244758 0.04214071 0.038967505 -0.03702019
000040 e0 a2 ea bc 77 2b 71 bc 2e 2c fa bb 8b b3 3a 3d
       -0.028642118 -0.0147198355 -0.007634661 0.04558138
000050 e8 33 ec 3c 11 fb 8a bc d7 2d d4 bc e7 cf 24 bd
       0.028833345 -0.01696542 -0.025900764 -0.040237334
000060 7d 53 bd bc 7a 98 cc 3c 15 e9 2f bd ca 38 10 bd
       -0.0231111 0.02497505 -0.042946894 -0.03521041
000070 c9 3d c2 bc 9d 0a 03 3d 0b a9 50 bc 7a 4d 06 3b
       -0.023711102 0.031992543 -0.0127356155 0.0020492957
000080 a9 28 01 bd 32 a9 de bb c5 bf 55 3c 67 0f d9 ba
       -0.031532917 -0.006795072 0.01304621 -0.0016560376
000090 f7 9b 13 3d 79 09 4b bd 02 19 33 3d c3 72 5d bc
       0.03603741 -0.04956958 0.04372502 -0.013516131
0000a0 1c fc 26 bd 2c 66 e0 bc 19 81 fd 3c 16 f5 28 3c
       -0.040767774 -0.02739247 0.030945348 0.010312339
0000b0 89 bb ec ba 76 82 f5 39 75 66 05 3c 46 26 f5 3b
       -0.0018061261 0.00046827242 0.008142103 0.007481369
0000c0 26 ae 3a 3c 25 fb 45 bd f7 f4 5a bc 0c af 20 bd
       0.011394059 -0.048335213 -0.013364068 -0.039229438
0000d0 67 6b 30 bb 94 a2 fe bc 2d 46 4c 3b ba 35 fe 3c
       -0.0026919486 -0.031083383 0.0031169758 0.031031478
0000e0 88 b0 16 3b 27 10 6d bc 18 66 b3 bc 5a 4f 91 bc
       0.0022993404 -0.014469183 -0.021899268 -0.017738033
0000f0 ba fd 05 bd d9 11 31 3d 7b 72 9a bc 51 1b 36 bb
       -0.032712676 0.04322991 -0.018853417 -0.0027787278
000100 91 e2 88 bc 73 76 e7 bb 98 39 f8 3c cc 51 c6 3c
       -0.016709598 -0.007063681 0.0303009 0.024208926
000110 ec fc c3 bc 6e c8 85 bc 42 be 29 bd 9d 22 29 bd
       -0.023924313 -0.016330924 -0.04144121 -0.041292775
000120 9e 28 fa 3b ba ed ba 3c f2 6f 3d 3d a8 3d 22 bd
       0.0076342365 0.022818435 0.046249337 -0.03960958
000130 2a 6d b9 bc 13 f5 48 3d 0c ad 18 bb 3a 0d 99 3c
       -0.022635061 0.049061846 -0.0023296503 0.018683065
000140 b6 05 46 3d f4 3e 03 bd 56 49 d5 bb 9a 5f 13 bb
       0.04834529 -0.03204246 -0.0065089865 -0.0022487403
000150 42 ed 9a bc 8d 30 c9 bb 59 28 02 3d 85 0d e1 bb
       -0.018911961 -0.006139821 0.03177676 -0.0068680667
000160 6a f2 fa bc 33 ba 3e 3d 0e 7b 60 bb c8 b1 f8 3c
       -0.03063317 0.046564292 -0.0034253034 0.03035821
000170 ee 7d e3 bc cf 6f 2e bd 21 a7 a3 3c 68 89 c1 3c
       -0.027770009 -0.042587098 0.019977154 0.02362509
000180 fc e6 7f 3b 1b 70 7e 3c a2 97 46 3c 2b 44 e9 bc
       0.003904759 0.015529658 0.012121113 -0.028474888
000190 aa 48 45 3d c2 2a eb ba 99 d9 38 bc ad 58 2a 3d
       0.048165 -0.001794182 -0.011282348 0.041588474
0001a0 ae d5 a0 3c 84 57 b1 3c 4d 9a 5c 3c 57 de 29 3c
       0.01963314 0.021648176 0.013464523 0.010367951
0001b0 09 92 33 bd 8d e6 ce bb 7a 28 9d b9 c1 8f 52 bb
       -0.04384044 -0.006314105 -0.0002997553 -0.003212914
0001c0 aa b0 33 3d c3 e6 36 bd 8f 15 26 bd 2b a8 24 3d
       0.04386965 -0.044653665 -0.040547904 0.04019944
0001d0 db e2 97 3b 37 7f 4a 3d 1e 0a 12 3d 24 e0 43 3d
       0.0046351976 0.049437728 0.03565418 0.04782118
0001e0 5c fa 41 3b 93 b7 0e bb c1 37 d5 bc 0c 83 1d 3d
       0.0029598689 -0.00217769 -0.026027562 0.038455054
0001f0 18 e5 a0 bc 7c a7 32 bd a5 13 4e bd c2 8f 2b bd
       -0.01964049 -0.043616757 -0.050311703 -0.041885145
000200 fe 72 0d bd 3a e8 76 3a cf 54 99 bc 73 62 1f bd
       -0.034533493 0.000941876 -0.018717198 -0.038912248
000210 e9 ff 66 3c 62 e5 44 3d 4f 10 3c 3d 74 c2 38 3d
       0.0140991 0.04807032 0.04591399 0.04510732
000220 64 29 03 3d 38 c8 78 bc d3 cd ee bc a9 45 46 3d
       0.032021895 -0.015184455 -0.029150879 0.048406277
000230 14 ad 39 bd 90 10 12 bd 5d d2 e4 3c 48 d5 8a bc
       -0.045331076 -0.035660326 0.02793234 -0.016947404
000240 94 1e e1 3c 0c a5 ad 3c e9 12 d7 3a e7 8f ce bb
       0.027480401 0.021196865 0.0016408834 -0.0063037756
000250 73 21 6e bc 02 2f a3 bc 17 cc fe 3c a6 81 41 3d
       -0.014534342 -0.019919876 0.031103177 0.047242783
000260 7e 70 35 bd 83 f8 3c bc 28 dc 14 bc df 7e 46 3c
       -0.044296734 -0.011533859 -0.009085692 0.012115209
000270 6f 6c bb 3c 25 a2 f5 bc 48 32 ae 3c 89 ce d9 bb
       0.022878854 -0.029984543 0.02126421 -0.0066469354
000280 d3 df 3d 3d 3d 59 07 3d 83 16 2d bd 02 49 10 3c
       0.046356034 0.03304409 -0.042257797 0.008806469
000290 09 52 49 bd c7 71 e6 bc 35 ef 3c 3c 9e 52 e7 3c
       -0.0491505 -0.028130425 0.011531641 0.028237637
0002a0 14 e8 3e bc 7d 05 16 bd df d8 54 3c 19 cc f9 3c
       -0.011652011 -0.036626328 0.012991159 0.03049283
0002b0 d2 24 d7 bc 35 9c 22 bc 51 05 02 3d 3a a2 de bc
       -0.026262674 -0.009924938 0.03174335 -0.027176965
0002c0 3b 4b 08 3a 2a 6c e7 ba 0c 76 e2 3b d2 d3 2e bd
       0.00051991985 -0.0017656137 0.006911045 -0.042682476
0002d0 29 b1 1c 3d 56 a6 06 3d 8a b4 28 3d 5a 4f 13 3d
       0.03825489 0.032873474 0.0411878 0.035964347
0002e0 10 64 c9 3b cd c2 30 3d a0 8c ba bc 2a 40 1c bd
       0.0061459616 0.043154527 -0.022772133 -0.03814713
0002f0 6c 4e 4c 3d 65 5e e9 b9 00 77 be 3c 09 6f 0d 3d
       0.049879476 -0.00044511553 0.023250103 0.03452972
000300 6c fc f2 bc 9d df f7 3c db 66 f7 bc 89 35 cf 3c
       -0.02966138 0.030257994 -0.030200412 0.025294082
000310 bd 29 0c bc 66 f5 53 bc e2 f6 00 bc 30 b2 10 bd
       -0.008554873 -0.0129369255 -0.007871361 -0.035326183
000320 36 db 3d 3d 6f d9 c4 3c c1 79 f1 3b b8 5c 04 3d
       0.046351634 0.024029462 0.0073692505 0.032314986
000330 3e dd d3 bc d3 06 c5 bc ea 01 22 bd 2d f3 cf 3a
       -0.025862332 -0.024051106 -0.039552607 0.0015865319
000340 d3 8d fb bc b5 63 54 3c 57 b1 3c bd 71 b1 cc bc
       -0.030707275 0.012963225 -0.046067562 -0.024986954
000350 c6 55 d5 3c 28 3a 20 bd b7 eb 4e 3d cf 6e 01 bd
       0.026041877 -0.039117962 0.050517764 -0.031599816
000360 a2 8c 60 bc 21 27 84 3c 26 27 3f 3b 2c 8f 7a 3c
       -0.0137054045 0.01613194 0.0029167621 0.015292924
000370 b2 6a 39 bd 26 dc 0f bd 51 aa c9 3c 79 00 2d 3d
       -0.04526777 -0.03512206 0.024617346 0.04223678
000380 4b 36 01 3d f3 78 5a bb 91 89 72 bc 85 76 d0 bc
       0.03154592 -0.0033336252 -0.014803306 -0.02544714
000390 dc 3a ae 3c b4 81 c4 3c 6b 34 13 bd 7e bd 30 bd
       0.0212683 0.023987629 -0.03593866 -0.043149464
0003a0 82 7d 07 3d 4e aa 3d bc 4e 55 b5 bc 51 ce 22 3d
       0.033078678 -0.011576248 -0.022135403 0.03974754
0003b0 61 33 18 bd 9b a7 3d bd 38 b6 e8 bc 1e 33 96 bc
       -0.037158374 -0.04630242 -0.028407201 -0.018334921
0003c0 bf 5b 43 3c 7d 14 0e bd 73 ef 21 3d d5 9a 39 3c
       0.011923729 -0.034687508 0.039534997 0.011328419
0003d0 f7 88 d6 bc 8b bc 34 bd 6c d2 1a 3d 30 9f 00 bc
       -0.026188357 -0.04412512 0.03779833 -0.007850453
0003e0 47 42 d6 3b 86 d5 00 bd e0 09 92 3c 09 83 f2 3c
       0.0065386626 -0.03145363 0.017826974 0.029603498
0003f0 3b fb 68 bb 61 e0 12 bc 70 b8 8f 3c 34 9c f9 bc
       -0.0035550136 -0.008964629 0.017544001 -0.030469991

conv3.bias f4 [120]
000000 c5 cc 33 bd 02 49 17 bd 9d 17 5b bb ed 3b ca ba
       -0.043896455 -0.03693486 -0.0033430823 -0.0015429236
000010 bd 23 d1 bc 4a 0a f1 3a cb f4 4b 3d 2f a5 ac 3c
       -0.025529737 0.0018389907 0.049794 0.02107486
000020 95 b3 5c 3d 1b f8 58 bc fb 3d ca ba f0 27 92 bc
       0.0538822 -0.013242747 -0.0015429849 -0.01784131
000030 61 79 0a 3d 5a ef 6c 3c 12 f8 19 bd 2a 28 d2 bb
       0.033807162 0.014461363 -0.037590094 -0.0064134793
000040 34 82 bc bc 00 e2 67 3b 1e ae ea bb f1 7b 0c 3c
       -0.023011304 0.003538251 -0.0071618697 0.008574472
000050 6f 37 b4 3c 56 07 3d 3d e0 5c 04 bd 58 93 07 3d
       0.021999089 0.046149574 -0.032315135 0.033099502
000060 6b e7 19 3d fd 00 b8 3c f5 02 32 bd 9c 70 8a bc
       0.037574213 0.022461409 -0.04345985 -0.0168994
000070 39 64 8a 3b eb df 6c 3c a8 c1 81 3c ed ac c1 bb
       0.0042233733 0.014457683 0.015839413 -0.005910507
000080 e7 df 36 3d e8 b8 00 3c 5c 20 60 3b 89 29 cf bb
       0.044647124 0.007856585 0.0034198975 -0.00632209
000090 48 28 b3 ba 33 78 1c b9 93 48 83 bc 15 5b 48 bb
       -0.0013668621 -0.00014922097 -0.016025817 -0.0030571867
0000a0 d0 46 25 bd b8 86 91 3c b3 ae 80 3c ff 4b 44 bc
       -0.040350735 0.017764434 0.015708303 -0.0119810095
0000b0 d0 1e 05 3d 4f a0 bc bc 99 51 a4 ba 49 9f f4 bb
       0.03250009 -0.02302566 -0.0012536525 -0.0074652773
0000c0 02 ce 2a 3d 40 63 0f 3c 28 33 ed bc d2 34 82 3c
       0.04170037 0.00875169 -0.028955057 0.015894327
0000d0 d4 de 46 3d c0 3c 1e 3d 36 32 4c bc e9 dd 63 3c
       0.04855235 0.038632154 -0.012463143 0.013907888
0000e0 e2 e0 42 bc a1 b9 2a 3d d9 3e da 3c cd e8 1e bd
       -0.011894437 0.041680936 0.026641296 -0.038796235
0000f0 16 a2 e7 3c 87 4f a8 bc 8d 23 f3 bc 1e 2b f0 3c
       0.02827553 -0.020545734 -0.029680038 0.029317435
000100 7e 14 f8 bc f3 3e 18 3c 80 b8 da 3c a3 0b 4f bb
       -0.030283209 0.009292352 0.026699305 -0.003159263
000110 2f 0b ef bc 05 15 44 3d 49 97 2d 3c 58 14 86 bc
       -0.029180137 0.04787161 0.010595151 -0.016367123
000120 25 3b 4a 3c 06 c6 33 3b a3 37 ce bc 27 dd 0e 3d
       0.012343203 0.0027431264 -0.025173014 0.034878876
000130 ac dd 3c bd dc 59 34 bd c1 dd 19 bd 19 ef d2 3c
       -0.04610984 -0.04403101 -0.037564997 0.025748776
000140 db 9e c3 bb d9 e1 82 bc 7b ba f3 bc d7 8d c0 3c
       -0.005969865 -0.015976833 -0.029752007 0.023505135
000150 14 9e 3f bd 42 f2 fa bc f7 29 3a bd 7e bb 0e bd
       -0.046781614 -0.030633096 -0.045450177 -0.034846775
000160 ae a5 11 3d 78 fb a4 3a d0 01 1f bd a6 08 3c bd
       0.035558395 0.001258715 -0.038820088 -0.045906685
000170 af 97 69 bc 93 13 a0 bc cd b3 72 3b 09 da 17 bd
       -0.014257356 -0.019540584 0.003703344 -0.03707317
000180 28 bf d6 bc 49 6e 33 bd 36 fb 6d 3c 3c 6e 73 3c
       -0.026214197 -0.043806348 0.014525225 0.014857825
000190 34 5f 26 3c 31 c7 3b 3d 0e 32 00 bd 60 d9 a4 b9
       0.010154534 0.04584426 -0.031297736 -0.00031442475
0001a0 c0 d2 87 bc 92 2f 78 3c d2 de 2a bd 39 be b1 bb
       -0.016579986 0.01514806 -0.041716404 -0.0054242876
0001b0 ec 2e 82 bc dd f8 20 3c ba 4c 2b 3c 68 19 82 bc
       -0.015891515 0.009824959 0.010455305 -0.015881255
0001c0 5b 9e 01 bd ba 86 25 3d 82 44 43 bd 98 50 93 bc
       -0.03164516 0.04041169 -0.047672756 -0.017982766
0001d0 c3 b2 31 bd 09 02 64 3b 41 75 2e bd 98 43 38 bd
       -0.04338337 0.0034791252 -0.04259229 -0.044986337

fc1.weight f4 [84, 120]
000000 26 b2 25 3c c9 21 a8 bd 4c f9 c0 3d 41 ae 9f 3d
       0.010113275 -0.08209569 0.094225496 0.07796908
000010 e0 99 0c bd 10 c8 69 bc 9e 58 07 bd d4 42 15 bd
       -0.034326434 -0.01426889 -0.033043496 -0.036440685
000020 3d 63 38 bd 26 40 2f 3d bb 3b a9 bd e0 fa ba bb
       -0.045016516 0.042785786 -0.08263346 -0.005706176
000030 2a 4b 7e bd fa 79 8d bd ae 87 b5 3d 3f 49 23 bd
       -0.0620834 -0.06908031 0.088637695 -0.039864775
000040 84 c9 58 bc bd 21 17 bd 98 b0 03 bd 8b d1 4b bc
       -0.013231639 -0.03689741 -0.032150835 -0.012440096
000050 59 df 44 3c 95 ee b7 3c e6 ea 0f bc 5a 65 8e 3d
       0.012016141 0.022452632 -0.0087840315 0.06952925
000060 95 be 3a 3c b2 e6 48 bc 82 d4 51 bd b3 56 35 3d
       0.011397977 -0.012262033 -0.051228054 0.044272136
000070 cd 74 92 3d af b2 ad bb 85 fa 75 bd e9 b0 bf bd
       0.07151184 -0.0053008418 -0.060053367 -0.09359915
000080 74 35 8f 3d 9f 3f a1 bd e5 51 81 3c be 46 4c bc
       0.06992617 -0.07873463 0.01578612 -0.012468038
000090 3d 8f 3d 3d b0 07 95 3d 40 be f7 3b ca 12 05 3d
       0.04627918 0.07276857 0.0075605214 0.03248862
0000a0 fe bd a0 bd 3c f3 6c 3c 72 fe 25 3d 5b 68 9e 3d
       -0.07848738 0.0144622885 0.04052586 0.07734748
0000b0 2d 7b 97 bd 91 1e 30 bd 64 bf 81 bd 4b 46 1e 3d
       -0.07396541 -0.0429979 -0.06335333 0.038641255
0000c0 e8 c2 fe 3c 43 74 c2 bd 0c ac 07 3b 48 f4 5c 3d
       0.031098798 -0.094948314 0.0020701913 0.053943902
0000d0 1d 8a 78 3d 3a f9 8a bd 78 af 68 3d 84 8c 59 3d
       0.06067859 -0.067858174 0.056807965 0.05311252
0000e0 92 c9 a2 bd 58 12 2a bd 4b be ae 3d a0 1d 2b bb
       -0.07948603 -0.0415214 0.08532389 -0.0026110187
0000f0 98 ed db bc b8 7d a3 3c f8 99 33 3d 73 e4 01 bd
       -0.026846692 0.019957408 0.043848008 -0.031712007
000100 99 ef cf 3c 14 44 05 bd 9a 64 45 bd fb 5d bf bc
       0.025382804 -0.032535627 -0.048191644 -0.023360243
000110 87 9d 93 3d 21 ce d1 bc 52 1b 47 bd d0 51 74 bd
       0.0720778 -0.025610985 -0.04861004 -0.059648335
000120 21 be 7e bd ac 4e 38 bd 20 77 46 3d 5c 2d 86 3d
       -0.06219304 -0.044996902 0.04845345 0.0655162
000130 e1 91 bb bd 49 bf cb bc 70 1c 98 3d 8b 1a 87 bd
       -0.091586836 -0.024871485 0.07427299 -0.065968595
000140 cd 64 63 bd 4a 28 ac bd 7b 6e 9e bc e0 fa 34 3d
       -0.055516053 -0.08406122 -0.01933979 0.044184566
000150 cb 14 8a 3c 6c 4e 0f 3d 77 b9 e5 bc 54 34 49 bd
       0.016855618 0.0349869 -0.028042538 -0.04912217
000160 65 7a 0e bd 09 98 b6 bc 70 52 49 3d 30 b6 10 3d
       -0.034784693 -0.022289293 0.049150884 0.035329998
000170 f6 3c d0 bb dc bd 72 3b 17 a3 97 bc 36 ab b0 3d
       -0.0063549234 0.0037039435 -0.018510384 0.08626406
000180 ec 2d 38 3d 0f 4e b0 3d 7a 07 6f bd 48 67 b1 3d
       0.04496567 0.086086385 -0.05835674 0.086622775
000190 10 44 a8 bd ab 60 0b 3d 84 9d 1c bb 34 c4 6c bd
       -0.08216107 0.034027737 -0.0023897598 -0.0578043
0001a0 49 03 4a bc 7c e7 a4 3d b5 bc 69 bc 38 14 43 bd
       -0.012329885 0.08051965 -0.014266183 -0.047626704
0001b0 d1 be 81 bd ed a4 9a bd 4a 11 24 bd 7e ad 67 3d
       -0.063352235 -0.07550988 -0.04005555 0.05656194
0001c0 5e 59 87 bd cb 58 2f bd 4b 7a 90 bd 46 ff b5 3d
       -0.06608842 -0.04280929 -0.070545755 0.0888658
0001d0 fd cb da 3c 52 52 71 3c d8 fc af 3d be 6f a6 bd
       0.026708597 0.014729099 0.08593148 -0.08126782
0001e0 0b 20 16 bd f5 4f c8 3c 92 6a 21 bd 87 32 f1 3c
       -0.036651652 0.024452189 -0.039408274 0.029443039
0001f0 da e9 c7 bc f6 b4 88 3d ff 7e 92 bd d3 ba 2d bc
       -0.024403501 0.066751406 -0.07153129 -0.010603624
000200 d4 0a 61 bc fc 1d 2b 3c e1 91 0b 3d b1 52 3a 3d
       -0.013735492 0.010444161 0.034074668 0.045489017
000210 aa 31 a1 bd d5 db ff bc 54 bb a8 bd f8 15 1c 3d
       -0.07870801 -0.031232754 -0.08238855 0.03810689
000220 b1 0d c1 bc 93 59 af bc 4a 74 b1 bd 14 4d 4d bd
       -0.023566099 -0.021405017 -0.086647585 -0.050122336
000230 2c 2a 04 bd a4 d0 aa 3d 83 10 7c 3d 5c 51 4d 3d
       -0.03226678 0.08340576 0.061539184 0.05012642
000240 ab 19 11 bd 74 4f a0 bd 56 52 c4 bc 43 7a a6 bd
       -0.03542487 -0.078276545 -0.023965042 -0.08128788
000250 ff db e1 3c 1b 50 4b bd 2e 64 f4 bb cd b3 dd 3c
       0.027570723 -0.04963694 -0.0074582314 0.027063275
000260 a7 e4 d7 3c db a3 8b 3d 1b 35 c9 bc 9b 81 a2 bd
       0.026354147 0.06818362 -0.024561455 -0.079348765
000270 73 1d 98 bd 4b 1a 22 3d 37 6d 6e bd 43 1b 27 bc
       -0.07427492 0.039575856 -0.058209624 -0.010199371
000280 3e a0 8f 3b 6c 7a 83 3d 40 23 97 bd 80 36 a2 3d
       0.004383116 0.064198345 -0.0737977 0.07920551
000290 89 01 9c 3d 57 3f b4 3d 27 a6 ad bd e9 38 9b bd
       0.0761748 0.088011436 -0.08478957 -0.07579214
0002a0 74 63 9c bd c9 f2 bd bd 3c 77 47 3d 83 97 77 bc
       -0.07636157 -0.09274823 0.048697695 -0.015111807
0002b0 1f 71 ac 3d ee 40 8a 3c 29 08 9e 3c 3f 68 8a bd
       0.08420014 0.016876664 0.019291 -0.067581646
0002c0 f5 77 f0 3c d8 7e 09 bd 3c 26 87 bc d8 d3 93 bd
       0.029354075 -0.033568233 -0.016497724 -0.0721814
0002d0 e2 26 b4 bd bc 34 76 3c 31 95 7d 3d f2 68 c0 bb
       -0.08796479 0.015027221 0.06190986 -0.0058718855
0002e0 75 6a 6c 3d 88 ce b3 bd b0 26 71 3d 58 19 ad bc
       0.057718713 -0.08779627 0.058874786 -0.021130249
0002f0 f9 23 97 bc 38 9d 99 bd 12 4e d2 bc 9f 5f 97 3c
       -0.01844977 -0.0750069 -0.025671992 0.018478213
000300 55 c4 66 bc 35 f3 97 bc a0 2d bb bd 77 f8 90 bc
       -0.014084895 -0.018548587 -0.09139562 -0.017696602
000310 26 50 4d bd 35 80 87 3d b3 d3 bd 3c 2c 4f ae 3d
       -0.050125264 0.066162504 0.023172235 0.085111946
000320 64 2b 44 3d 66 de 81 bd 5f 52 9c bd 94 c0 d8 3c
       0.047892943 -0.06341247 -0.076328985 0.026459016
000330 c7 f6 42 3b 96 dd 73 3c 75 25 67 3c fe fd 8e bd
       0.0029749142 0.014884373 0.014108052 -0.06982039
000340 fd d7 31 bd 11 08 66 bd 8e 10 91 bd a7 e8 c0 3c
       -0.043418873 -0.056160036 -0.07083236 0.023548437
000350 48 24 b1 bd bf 2d ea bb 0f b8 9c 3d 1b 5f 35 3c
       -0.08649498 -0.0071465666 0.07652294 0.011070038
000360 ef 7e b5 bd 2f ba f9 3c 25 48 ad 3d 10 35 b6 3d
       -0.08862101 0.030484287 0.08461026 0.088968396
000370 66 7e e6 3a d9 9a 2c bd 03 90 00 3d 1d 1c 12 bc
       0.0017585277 -0.04213986 0.03138734 -0.008917836
000380 ac 8b 25 3d 42 e6 0c bd 91 9e e8 3c d7 b3 42 bd
       0.040416405 -0.03439928 0.028395923 -0.04753479
000390 fb 8b 80 bd f3 e3 b9 3d 17 93 b4 bd 37 07 b0 bd
       -0.06276699 0.09076681 -0.08817118 -0.08595126
0003a0 1a 11 fc bb 26 5a 95 bc e9 67 9c bc d8 27 6a bd
       -0.0076924684 -0.018231463 -0.019092517 -0.057166904
0003b0 34 43 c1 bb 79 89 49 bd 9c 9d d2 3b d4 de 83 ba
       -0.005897904 -0.04920337 0.00642748 -0.0010060915
0003c0 74 f0 aa bd 1b a5 85 3c ee 91 9d 3d 33 a1 8c bb
       -0.08346644 0.01631408 0.076938495 -0.0042916774
0003d0 c7 0e 8e 3d 22 57 3d 3d bb f4 d8 bc 12 c0 16 bc
       0.06936412 0.046225674 -0.026483884 -0.009201067
0003e0 5e aa 72 3d 05 78 e4 bc c3 32 00 bd 08 91 a1 3d
       0.059244506 -0.027889261 -0.03129841 0.07888991
0003f0 a1 b7 2c 3c 85 f6 96 3d 88 0d da bc 7a 97 29 3c
       0.010541827 0.073712386 -0.02661778 0.010351056

fc1.bias f4 [84]
000000 37 d3 b3 3b f8 6c 44 3c b3 2e 0e bb 6c c9 ba bd
       0.0054878253 0.011988871 -0.0021695315 -0.091204494
000010 15 76 56 3d 1a b2 8c bd 71 3e 6f 3d 4c 41 84 bd
       0.052358706 -0.06869908 0.05840916 -0.06457767
000020 33 d0 a4 3d f6 6a 01 bd 8a 92 82 3d 0e 62 cf bc
       0.08047523 -0.031596147 0.06375606 -0.02531531
000030 99 e2 03 bd 10 03 b3 bd a2 bf 95 bc c2 e4 05 bb
       -0.032198522 -0.087408185 -0.018279854 -0.002043054
000040 bf 95 95 bd ab ba 63 bd 95 b9 88 bd 9e 49 82 bd
       -0.073039524 -0.055597942 -0.06676022 -0.063616976
000050 84 3d 39 bc ca c8 42 3c 68 b9 f1 3c a0 bc 62 bb
       -0.01130617 0.011888692 0.029507354 -0.0034597293
000060 68 d1 6a bd 3b 8b 4e bd 1b 84 1a bc 21 06 9c 3d
       -0.05732861 -0.05042575 -0.00943091 0.076183565
000070 66 07 83 bd 6a 22 94 3d 5c a9 b0 3d 9c 20 96 3d
       -0.063978955 0.072331265 0.08626053 0.073304385
000080 a3 c0 8f 3d e6 58 f6 3c aa 7d a6 bd ba e0 85 3c
       0.070191644 0.030071687 -0.08129437 0.01634251
000090 df f9 2f 3d d3 ad ba bc a9 28 5d bd 46 fc 9c bd
       0.042962905 -0.022787964 -0.053993855 -0.07665305
0000a0 5c 64 8f 3c 93 14 aa bd c3 86 4e 3d 5e a3 93 bc
       0.01750391 -0.083047055 0.050421488 -0.018022235
0000b0 54 0a 9b 3c aa 25 9d 3c 51 31 59 bd 64 98 a9 3d
       0.018925823 0.019182999 -0.053025547 0.08281019
0000c0 33 14 c4 3b cd d9 da 3c 16 c3 d9 3c d0 a8 8f bd
       0.0059838532 0.026715184 0.026582282 -0.0701462
0000d0 75 5b 77 bd 90 1e 0d 3d b1 0e 1c bc f8 c2 83 3b
       -0.060389955 0.034452975 -0.009524987 0.004021045
0000e0 b4 2b 55 bd 38 84 0b 3c b3 96 b2 3d d1 50 7a bd
       -0.05204363 0.00851541 0.0872015 -0.06111223
0000f0 b7 4d 49 3d 2a b5 34 bc ef 77 21 bd af 38 d6 3c
       0.04914638 -0.011029521 -0.03942102 0.026150076
000100 a4 fe 3d ba bc 5f 9c 3d 89 41 9f bd db b3 32 3c
       -0.0007247722 0.076354474 -0.07776172 0.010907139
000110 25 1d ea bc 49 5b 1f 3d 68 dd ec bc e9 04 b5 3c
       -0.02857835 0.038905416 -0.028914168 0.022097068
000120 35 35 1f bd f9 38 9a 3d 2e 54 9d 3d 6d ad 3e 3c
       -0.0388691 0.07530398 0.076820716 0.011638028
000130 ed 1a 87 bc 2f 49 5c bb 9b 51 a4 bd 56 ab 5f bc
       -0.016492331 -0.0033612957 -0.080233775 -0.0136516895
000140 1d 52 4e bd 84 d5 0b bd f9 87 30 3d b7 85 a4 bd
       -0.050371278 -0.03413917 0.043098424 -0.080333166

fc2.weight f4 [10, 84]
000000 5a a5 c3 3d 01 6f ae bc fd 15 a3 3d 90 b3 86 bb
       0.09553023 -0.021293165 0.07963178 -0.004110761
000010 08 ea bd bc cc ae ad bd e1 6d 84 bd 0b 41 1e bd
       -0.023182884 -0.084806055 -0.0646627 -0.03863625
000020 10 27 7b bd 05 51 fd bc 9a 21 f2 bd 6f 9b 74 3d
       -0.06131655 -0.030922422 -0.11822815 0.059718546
000030 3f d7 c6 3c 2a 1a 2b 3d 14 c2 81 3d 48 86 49 bd
       0.02427256 0.041773 0.063358456 -0.049200326
000040 92 85 a5 3d 0e d8 92 3d 0f f8 1a bd 34 01 d7 3d
       0.08082117 0.071701154 -0.037834223 0.10498276
000050 6f c4 38 3d 44 79 24 3b 9a 64 82 bd 59 59 20 3c
       0.04510921 0.0025096694 -0.063668445 0.009786927
000060 96 83 c6 3c d3 70 0a bc 02 5c 07 bd 41 e1 a6 3c
       0.024232667 -0.008449751 -0.03304673 0.020371081
000070 f8 41 ad 3b f1 45 95 bd 3d f0 97 bd d0 74 c5 bd
       0.005287405 -0.07288731 -0.07418869 -0.09641421
000080 5e ae 8b bc 76 53 2b bd 4d 71 bb 3d 4c 80 85 bc
       -0.017050918 -0.04182764 0.0915247 -0.016296528
000090 74 60 15 bd 31 3d 9b 3d 17 d0 99 bd be 88 a6 bc
       -0.036468938 0.07580031 -0.07510393 -0.020328876
0000a0 75 b0 ae 3d 07 ee e4 bd b7 57 8e 3d c3 ca 4e bd
       0.0852975 -0.111782126 0.06950324 -0.050486337
0000b0 74 48 34 bd 6e 62 87 3d 17 58 ef bd 3c d9 b4 3d
       -0.04401441 0.06610571 -0.11686724 0.08830497
0000c0 fe 1f 52 3b 82 c7 c9 bc 39 29 1a bc 9a 87 82 bd
       0.0032062526 -0.024631266 -0.009409242 -0.0637352
0000d0 59 f6 30 3d b2 d4 9a 3d b9 2b 86 3c 21 0b c4 3d
       0.043203685 0.075601 0.01637827 0.09572435
0000e0 02 2d ee bc 5c 47 de 3c 92 61 b7 bd ed e9 ca bd
       -0.029074196 0.027133636 -0.08954157 -0.09907899
0000f0 8d e3 b1 3c bc 64 65 bc 8e c7 c1 bd f7 12 a5 3d
       0.02171495 -0.014001068 -0.0946189 0.08060258
000100 91 7f 3f 3d 55 8a 63 bb cd 55 38 bd 6f f2 ff 3d
       0.046752516 -0.0034719903 -0.0450037 0.124974124
000110 e6 26 98 bd 30 ea fa bc 37 9d fe bd ea 0c dc bd
       -0.07429294 -0.030629247 -0.1243233 -0.10744651
000120 4e f4 94 3d db 08 09 bc 79 8a cb bc 8e ac eb bd
       0.0727316 -0.008363928 -0.024846302 -0.115075216
000130 3e f8 7c bd 68 05 ba bd 24 00 bd 3d 9e fc 59 bd
       -0.06176018 -0.090830624 0.092285424 -0.05321943
000140 35 31 31 3d 10 52 db bd f7 5f d6 bb 24 f0 be 3c
       0.043259818 -0.107090116 -0.0065422016 0.023307867
000150 73 70 8a 3d ca 2e 73 bd 4c 86 44 bc 46 c5 ef 3b
       0.06759729 -0.059370793 -0.0119949095 0.007317218
000160 96 84 e8 bd aa 8c fa 3d f3 26 cb 3d 5c 80 28 3c
       -0.11353414 0.12233861 0.09919538 0.0102845095
000170 b6 ae a4 3d 38 46 e8 bc df 02 c2 3d ac 95 1f bc
       0.08041136 -0.028353795 0.09473204 -0.009740274
000180 34 01 c9 3d 51 db 3a 3c 07 09 3a bb 83 a5 c4 bd
       0.098146826 0.011404828 -0.0028386728 -0.09601881
000190 36 ba a8 3d 9f fa 58 bb fa 13 8c bd 01 6f b4 3d
       0.08238642 -0.0033108366 -0.06839748 0.08810235
0001a0 ae 70 45 3c 30 fa 23 bd 4e e8 4d 3d 3f ff f6 3d
       0.012050791 -0.04003352 0.05027037 0.12060403
0001b0 37 03 b2 3d 58 4e a6 3d 63 47 56 3d cd 1a 5a 3b
       0.086920194 0.08120412 0.052314173 0.0033280135
0001c0 b7 28 db bd 27 c9 9d bd c7 8d 6b bd a1 e8 97 bd
       -0.10701125 -0.077043824 -0.057508256 -0.07417417
0001d0 a1 f9 ab bd f2 28 8f 3d 29 46 ba bb fb 69 02 3e
       -0.08397222 0.069902316 -0.0056846333 0.12735741
0001e0 39 60 78 bc 9a ba 94 3c ed d0 5a bd 62 db 09 be
       -0.01515966 0.018155385 -0.053421903 -0.13462594
0001f0 78 e3 b3 bd 0f 5e 85 bc 8a 28 b0 bd f9 e4 a8 bd
       -0.087836206 -0.016280202 -0.08601482 -0.08246798
000200 d6 f6 d8 3d 82 bf ab 3c 90 c0 17 3d 2b 87 6f bd
       0.10593955 0.020965341 0.037048876 -0.058478516
000210 55 81 56 3c c2 8e 99 bc cd 40 3c 3d b9 43 95 bd
       0.013092359 -0.01874483 0.045960236 -0.07288308
000220 19 7a 0f bd 0a 37 c8 bd b0 b0 cf 3d e0 d6 a0 bd
       -0.03502855 -0.09776123 0.10141122 -0.07853484
000230 41 e8 eb 3c 21 21 6d 3c 3e 9a 69 3d a8 fa 95 3d
       0.02879727 0.014473231 0.057031862 0.073231995
000240 42 84 ea bd 76 96 b5 3d 16 45 9c bd bc 99 de 3d
       -0.114510074 0.08866589 -0.076303646 0.10869166
000250 c4 99 50 3d d8 d4 cc bd 3c 1a 4b bc 78 12 de bd
       0.050927892 -0.10001534 -0.0123963915 -0.108433664
000260 13 14 63 bd 55 d6 91 bd 7b 16 80 bd db 27 6b bd
       -0.055439066 -0.07120959 -0.06254288 -0.057411056
000270 5b b2 54 bc db 6c 8d 3d a7 ec 1c 3d a5 85 23 3d
       -0.012981976 0.06905528 0.038311627 0.039922375
000280 84 5f 18 3d ee 49 87 bd fd 40 11 bd 0c 27 1e 3d
       0.037200466 -0.06605898 -0.03546237 0.038611457
000290 c8 ea a1 3d 0d f0 de 3d 08 d1 bb 3d 22 c0 1b bd
       0.07906109 0.1088563 0.09170729 -0.03802503
0002a0 b4 f9 a5 3d 62 68 c1 3d 27 e4 8a bc ee 22 ff bc
       0.08104268 0.094437376 -0.016954495 -0.031144585
0002b0 d8 19 77 3d 4d c2 9c bd ff d9 89 39 d4 b5 95 3d
       0.06032738 -0.076542474 0.00026293096 0.073100716
0002c0 cb 66 f9 bc 1a aa 47 bd f4 d3 3a 3c c0 04 d3 3d
       -0.030444523 -0.048746206 0.011403073 0.1030364
0002d0 20 2b ba 3d 7c 8b 25 3d a9 49 23 bd 8d 52 97 3d
       0.09090257 0.040416226 -0.03986517 0.07388792
0002e0 69 ad d3 bb 22 a0 e0 3d 29 06 df 3d 93 0b 71 3d
       -0.006459881 0.10968043 0.10889847 0.05884893
0002f0 30 c6 90 bc 0c a9 72 bd 3d fb 93 bd a3 ed ed 3c
       -0.017672628 -0.059243247 -0.07225654 0.029043978
000300 43 17 a1 3d 2b 1e 16 3d b3 b0 5c 3d 60 9b b4 3d
       0.07865765 0.036649864 0.05387945 0.08818698
000310 e8 63 11 bc 50 89 3f bd e8 f0 1a 3d d4 d8 3c 3d
       -0.008873917 -0.04676181 0.037827402 0.04610522
000320 b7 5a 88 bc 25 a9 50 bc 1c 24 c0 bd 96 0b 33 39
       -0.016644819 -0.01273564 -0.09381887 0.00017075086
000330 51 1e 29 bd ae 46 e3 bc 2f 51 60 bd 77 75 1a 3d
       -0.041288678 -0.027743664 -0.054764923 0.03770968
000340 be 5f ef 3c b0 2a 8c bd 78 05 a5 3c be 04 1c 3c
       0.029220458 -0.068440795 0.02014421 0.009522615
000350 9e 6b c8 3d cb 7b 8a 3d b7 6c 2f bd ab 9a 07 3c
       0.09786151 0.06761893 -0.042828288 0.008276622
000360 d8 cc b2 bd 1b 28 29 bd d3 8e 35 3d a8 be 60 3d
       -0.08730477 -0.041298013 0.04432566 0.054869324
000370 aa 0f d6 ba 66 65 6c bd fc 52 62 3d 45 ee 6f 3c
       -0.0016331573 -0.05771389 0.05525492 0.01464421
000380 81 c2 e6 bd 5e 88 e0 bd ee 9f cb bd 8d 4f 94 bd
       -0.112675674 -0.1096351 -0.099426135 -0.072417356
000390 6e 3c 93 3d ca 12 aa 3c 84 5b e6 bc 0d 38 23 bd
       0.071892604 0.020760912 -0.02811981 -0.039848376
0003a0 94 05 a4 3d 7b de 92 3d 07 53 65 3b 1c 3e b4 3d
       0.080088764 0.07171341 0.0034992115 0.08800909
0003b0 44 6e 84 bd 55 cd 80 3d 78 2f df 3d 96 05 ea 3c
       -0.06466344 0.06289164 0.10897726 0.028567117
0003c0 e8 d9 e6 3c 84 7a b6 bd db 13 9c bd 77 d7 4a bd
       0.028180078 -0.08910087 -0.07620975 -0.04952189
0003d0 2a 68 e1 3d 44 61 ca bd f1 e5 9f bd bc da d4 3a
       0.11006196 -0.09881833 -0.0780753 0.0016239504
0003e0 21 76 05 3b 22 f4 bc bc f2 ea b6 bd 68 85 02 3d
       0.00203646 -0.02306563 -0.08931531 0.031865507
0003f0 b7 87 0a 3d fe b9 0e bd d8 f0 ec 3c 01 4d cf 3d
       0.033820834 -0.034845345 0.028923437 0.10122109

fc2.bias f4 [10]
000000 f5 46 ec 3c 1b 5f 4b 3c 6c 20 90 bd 24 17 e1 3c
       0.028842429 0.012412812 -0.07037434 0.027476855
000010 27 41 52 3d a3 56 46 bd bd 86 6d bd 01 8b 65 bd
       0.051331665 -0.048422467 -0.057989825 -0.056040768
000020 90 25 dd bc be d8 99 3d
       -0.02699545 0.075120434
