mnist_lenet_w_pretrained_kernels_w_acc_92.pt (torch_old, 209619 bytes, 10 tensors)

conv1.weight f4 [6, 1, 5, 5]
000000 87 2f 33 be f4 7b f5 bb d5 cc 2c bd 10 3c a0 3d
       -0.17498599 -0.007491583 -0.04218753 0.07823956
000010 31 7c 80 be 0c 93 a0 3e 94 ea ad bd 8d ae c6 3c
       -0.2509475 0.31362188 -0.08492008 0.024253154
000020 b3 c4 26 3e 04 64 04 bd 2f df 26 3f 58 d3 dd 3d
       0.16285972 -0.032321945 0.651843 0.10831326
000030 98 59 ba 3e 01 cd b5 3e ed 60 0d bd 66 4c ae 3e
       0.3639648 0.35507968 -0.034516264 0.34042662
000040 64 49 05 3e 67 8e 58 3e 68 69 f1 3e 01 4b a8 bd
       0.13016278 0.21148072 0.4715073 -0.08217431
000050 87 bc df bd c8 77 29 be 52 bd b6 3c 28 e5 c4 bd
       -0.109246306 -0.16549599 0.022307072 -0.096140206
000060 66 18 57 be 62 f7 cf 3d 67 10 a7 3d a5 dc 8f 3d
       -0.21005401 0.101546064 0.081574254 0.070245065
000070 22 24 77 be f5 f5 41 3e da 70 3f 3a 7c 6a c6 3e
       -0.24134877 0.18941481 0.0007302888 0.38753116
000080 02 f2 92 3e ed da b0 be 78 33 7c bd 3e be 0a be
       0.28700262 -0.34542027 -0.061572522 -0.13549134
000090 59 13 8a 3e b9 67 f4 3d 26 c4 11 be a8 42 06 be
       0.26967886 0.11933846 -0.14234981 -0.13111365
0000a0 32 71 26 3d 93 fd 08 be 4c 8b 33 bd 3e 5a d3 bd
       0.040635295 -0.13377981 -0.043834016 -0.10319947
0000b0 26 8b 7f be 57 01 76 3e 7e 33 58 be fa 21 a3 be
       -0.24955425 0.24023949 -0.21113393 -0.3186186
0000c0 43 76 93 bc c4 f8 b8 bd 46 7d 97 be b0 fc 78 be
       -0.018000728 -0.09031823 -0.29587764 -0.24315143
0000d0 bf 23 24 3d 65 7d 07 3d 67 be a4 3e ff e9 53 3e
       0.040073153 0.03307857 0.32176515 0.20694731
0000e0 48 fe 3b 3d 79 39 3d bd 43 fd a3 3e 84 72 b0 3e
       0.0458968 -0.04619739 0.3202916 0.34462368
0000f0 69 c9 9d bd 2d 14 5c 3d 59 50 88 3e 2b ad 8a 3e
       -0.077044316 0.05373018 0.266238 0.27085242
000100 e3 0d e4 bd 5e e4 10 3d 42 1a 99 3d 80 a5 09 3e
       -0.11135461 0.035374038 0.074757114 0.1344204
000110 0e 42 38 be 0a 9a 70 be 35 7b a9 3e 3f 63 2f 3e
       -0.17993948 -0.23496261 0.33101812 0.17127703
000120 8f 76 8e 3e 64 ed 18 3e bb 44 52 bd ae 44 4b 3e
       0.27824828 0.14934307 -0.051335078 0.19850418
000130 37 ad 32 3e 9b f6 26 3e 55 d4 90 bd 4c 2f 02 3e
       0.17448889 0.1630501 -0.07071749 0.12713355
000140 3b f1 77 be 02 ac 5f bc c2 a7 f3 3d 36 9a 10 3e
       -0.24213116 -0.01365185 0.11897232 0.14121327
000150 d5 fe 93 3c d9 7f f8 be ca 83 88 be b0 0b 7f bd
       0.01806585 -0.4853504 -0.26663047 -0.062267005
000160 ab 71 f8 bc b0 af 86 3d 5d 69 f2 bd ed af ed be
       -0.030327639 0.065764785 -0.11836503 -0.46423283
000170 49 62 07 bf dd 77 5e be 1f 97 9b bd 99 37 9e 3e
       -0.52884346 -0.21725412 -0.075971834 0.30901793
000180 ba aa 86 3e 49 85 16 3e fa 97 b7 bd c1 b5 1d be
       0.2630213 0.14699282 -0.08964534 -0.15401365
000190 39 12 ca 3c 7d d6 25 3e ec 64 c8 3c 02 2b 17 3e
       0.024666892 0.16195102 0.024462186 0.147625
0001a0 59 22 bc bd 5c f2 43 bd 78 59 b4 3e 14 76 06 3e
       -0.09186239 -0.047838554 0.3522451 0.1313098
0001b0 03 0e a8 3e 05 82 84 3e 98 be 06 3d f3 fc c0 3e
       0.3282319 0.25880447 0.032896608 0.37692985
0001c0 8b b7 96 3e a8 89 a7 3c fd 97 45 3c d5 51 4f 3c
       0.29436907 0.020451382 0.012060163 0.012653788
0001d0 9f f5 83 3d e8 6a 06 bd 59 f4 2b be b6 ff a5 be
       0.06443333 -0.032816797 -0.1679243 -0.32421654
0001e0 50 fa 55 be e3 66 33 be 40 7a 1d be 53 70 0a be
       -0.20896268 -0.17519717 -0.15378666 -0.13519411
0001f0 05 ac 0c be d8 29 e8 bd c1 80 fe be 3e 0a cb bd
       -0.13737495 -0.11336106 -0.49707606 -0.09914063
000200 f2 a5 76 3d 03 c9 b0 3d 4b 25 86 bd b0 5a 65 3d
       0.06021685 0.0863209 -0.06550082 0.05599469
000210 22 f2 4b 3e f8 ed 8a 3e b6 dc a1 3e 51 43 b2 3e
       0.19916585 0.2713468 0.31613702 0.34816983
000220 d4 ce 34 3e 00 42 7b 3d de d9 c6 3c 71 14 0d be
       0.17657024 0.06134224 0.024273809 -0.13777329
000230 e5 fe 50 be c8 1b bf 3d 33 b1 2a 3d 07 4f 06 3e
       -0.20409735 0.09331471 0.041672897 0.13116084
000240 cd a3 31 3d 88 0c b0 be e0 87 3b 3c 8f ed 84 3c
       0.043369103 -0.3438456 0.011445969 0.016226558
000250 f6 91 1c 3e 0d c1 2d bd
       0.15290055 -0.042420436

conv1.bias f4 [6]
000000 35 89 65 be a2 aa 0b 3f 05 fb 30 bd cb b9 85 be
       -0.22415622 0.5455724 -0.04320814 -0.2611831
000010 7d 74 f5 be 23 f3 e8 be
       -0.47940436 -0.45498

conv2.weight f4 [16, 6, 5, 5]
000000 5f eb 2c be bd ea 2b be bd a8 e9 bd 64 72 f0 bc
       -0.16886662 -0.16788764 -0.114091374 -0.02935142
000010 a0 a2 dd 3d 0c a6 87 3d dd e0 2a bd 06 e3 54 3d
       0.10822034 0.06623468 -0.041718353 0.05197432
000020 97 1e b4 3c 41 bc 0f 3e 7b 68 58 bd 3a 09 85 3d
       0.021987243 0.14036657 -0.052834015 0.064959005
000030 04 b2 77 3e e5 0d 77 3e 88 44 c8 3d 81 95 a3 3d
       0.24189001 0.24126394 0.09778696 0.079875
000040 52 ba f5 3b 6b e1 ff 3d 16 47 d9 3d 3d f9 35 3d
       0.0074990178 0.12494167 0.10609262 0.044427145
000050 b3 3a 86 3b 1c ed 45 3c 91 1f ac bc ba a1 0f 3d
       0.004096353 0.012080457 -0.021011146 0.035066344
000060 33 0e bd bd 42 bd 52 bd ae 9e f5 bd 74 92 ba 3c
       -0.09231224 -0.05145002 -0.119931564 0.022774912
000070 98 82 c5 3b 37 a7 59 bd 3d d1 1a be b2 3d 08 be
       0.006027531 -0.053137984 -0.1511888 -0.13304785
000080 72 9f fc bd 14 c9 87 3c c6 1e 94 3d 34 60 3c 3d
       -0.12335099 0.016575374 0.07232432 0.045990184
000090 c6 c9 77 bd a8 70 a0 bd 90 64 cf 3d f8 d0 80 3d
       -0.06049516 -0.078339875 0.10126603 0.062898576
0000a0 61 32 23 be 90 ac 81 bc 48 05 a7 3d 00 1d cc bd
       -0.15937187 -0.015829355 0.08155304 -0.09966469
0000b0 76 1a 4f bc 73 0d bd bd b5 df 14 3c 16 13 19 3b
       -0.012640586 -0.09231081 0.009086539 0.0023357323
0000c0 e6 da 41 3c 4a 44 29 3d cb 73 a6 3d b5 a5 2b bd
       0.011831975 0.04132489 0.081275545 -0.041906077
0000d0 c7 75 a8 bd 2a a9 b5 bd 0e 90 74 ba 80 bc fd bd
       -0.08225589 -0.08870156 -0.0009329327 -0.12389469
0000e0 2b ad 68 be 0b c7 45 be 11 ee a8 3d 0b 69 8b bd
       -0.22722308 -0.1931421 0.082485326 -0.06807145
0000f0 6e 5a 4d bd f7 c9 95 bd e0 d9 a2 bd b4 9a 83 bd
       -0.05013507 -0.07313912 -0.079517126 -0.06425992
000100 bd e4 6a be 64 58 e7 3d 80 8c 1f bd 7e bb de bd
       -0.22938819 0.11296156 -0.03895235 -0.10875605
000110 cc 50 88 bd ba c6 df bd 01 38 a5 bc 27 26 24 be
       -0.06656036 -0.10926576 -0.020168306 -0.16030179
000120 6e 2f c0 bc 6b 38 78 3d c9 44 b1 bd fb a4 17 bd
       -0.023460116 0.06060068 -0.08655698 -0.037022572
000130 c7 fa e8 3d ea 07 04 be b0 33 bf bd 96 c0 08 be
       0.11375957 -0.12893644 -0.093360305 -0.13354716
000140 7d 33 50 3d 6d 0b b2 bd c8 b4 e3 bd de 6d 49 be
       0.050830353 -0.086935855 -0.11118466 -0.19670817
000150 d4 6f 57 bc 2b b5 31 3d 93 f6 d4 bd 6c d9 1e be
       -0.0131492205 0.043385666 -0.10398593 -0.15512627
000160 90 d6 14 be af 38 bd 3d 49 58 57 bd a0 bc 28 be
       -0.14534974 0.09239327 -0.05257443 -0.16478205
000170 f8 b1 f9 bc 14 ca 72 3d ac 0f 06 3e 50 92 97 bd
       -0.03048037 0.059274748 0.13091916 -0.07400954
000180 30 df c0 bc e7 28 2b 3e 92 b4 61 3d 08 d3 fb 3c
       -0.023543924 0.16714822 0.055103846 0.030740276
000190 ed 4a 38 3d dc d3 bf 3b 57 f0 35 bd 05 03 08 3c
       0.04499333 0.005854113 -0.04441866 0.008301501
0001a0 58 30 42 3e a6 b0 76 3d 98 3a 2e bb 02 fc 44 3d
       0.18963754 0.06022706 -0.0026585218 0.048091896
0001b0 09 29 38 3d 20 ff 21 3e 92 b1 68 3d b7 39 16 be
       0.04496101 0.15819979 0.05680997 -0.14670454
0001c0 89 4a f7 3d d6 f5 1f 3e fc de cc 3d 62 e2 3b 3c
       0.12074763 0.15621123 0.100034684 0.011467548
0001d0 81 cd 42 3e a4 ff 24 3e 6d a5 4f 3d 05 93 54 bc
       0.19023706 0.16113144 0.05069487 -0.012974505
0001e0 71 2c b6 3d f1 e5 db 3d a5 a8 06 bd c2 2a d4 bd
       0.08895195 0.10737217 -0.032875676 -0.10359718
0001f0 cc 70 a1 bd fa ab a9 3c f4 42 86 3d 53 76 04 3d
       -0.078828424 0.020711888 0.06555739 0.032339405
000200 2e 19 a8 3d ec 18 5d 3d 45 1b 30 bd 87 ef 1f 3d
       0.08207928 0.053978845 -0.042994756 0.03904679
000210 f7 97 95 bd 3d 34 23 3d ec 6c e8 3a d5 44 41 3c
       -0.073043756 0.03984474 0.0017732657 0.011796196
000220 60 44 26 3c b3 4b b6 3c 70 37 00 3d be af 35 be
       0.010148138 0.022252893 0.03130287 -0.17742822
000230 59 ea 1b 3d 15 22 37 bb f3 45 53 3d 4c 59 e5 bd
       0.03806529 -0.0027943898 0.05158038 -0.11198673
000240 51 a9 3e be 56 8b 82 3d b7 11 87 bc a9 19 99 3c
       -0.18619277 0.063742325 -0.01648794 0.018688994
000250 81 0e 17 3d d5 8a 04 be 53 41 0c bd 3d 44 8d bd
       0.036879066 -0.12943585 -0.034241986 -0.06897781
000260 c0 fc 02 3e bc 64 7f 3e 9c 34 d3 ba ca 85 c7 bd
       0.12791729 0.24940771 -0.0016113701 -0.09742315
000270 07 be cd bd f6 5d 09 3e 58 de 90 3e a5 da 0e bd
       -0.100460105 0.1341475 0.28294635 -0.034876484
000280 e7 9a 07 bc a1 45 08 3e ff c8 2f 3e b0 ad 0a 3e
       -0.008276678 0.13307811 0.17166518 0.13542819
000290 eb 16 ac 3b ca b0 3a bd fe fe 54 3d 4d d1 e8 3c
       0.0052517555 -0.045578755 0.052000992 0.028420115
0002a0 92 fc bc 3c 30 ee d2 bd d1 d2 da 3c 63 af 66 3d
       0.023069654 -0.10299337 0.026711853 0.056319606
0002b0 df 64 2a 3d 89 d3 b7 bc 13 c3 2b 3c 9c 2b 64 3d
       0.041600104 -0.022439735 0.010483521 0.05570565
0002c0 d0 31 8e 3d e2 f4 eb bd cf 60 48 bd 65 16 61 bc
       0.06943095 -0.11521317 -0.04892045 -0.013738249
0002d0 5b fc 51 3c 1a b2 4d be e8 0a 59 3c 3c ae 44 bc
       0.012816514 -0.20087472 0.013247229 -0.012004431
0002e0 83 76 db bd 46 ea ed bd 3f 5d 0b be 42 e7 85 3d
       -0.10715964 -0.1161695 -0.1360979 0.065382496
0002f0 7e 51 35 bd 21 63 db bd 7b 8c 32 be 99 73 28 bd
       -0.04426717 -0.10712267 -0.17436402 -0.041125868
000300 ba 9f 89 bd ea 51 26 be 63 d7 fa 3d 49 cd 01 be
       -0.067199185 -0.16242185 0.12248113 -0.12675966
000310 51 cf 1f bc 90 0b 50 bd 79 69 21 3d 63 30 2e bd
       -0.009754018 -0.050792277 0.039407227 -0.042526614
000320 0e a4 26 bd 9a 13 07 be 88 0c c3 bb bb 9e 9b 3b
       -0.0406838 -0.13191071 -0.0059524216 0.0047491468
000330 8e 06 50 be c7 54 60 be ea 06 06 be 69 22 b9 3d
       -0.20315 -0.2190734 -0.13088575 0.09039766
000340 4e ed e4 bc cd 51 55 be 43 53 31 be 5b c6 57 bd
       -0.027945187 -0.20831986 -0.17316918 -0.0526794
000350 68 a0 eb bc cb 55 ef bd d8 8d a1 bd 5b 5b db 3d
       -0.028763011 -0.116862856 -0.07888383 0.10710784
000360 3c f9 cd 3b 61 73 54 be 80 90 87 bc 49 5e 13 bc
       0.0062858146 -0.20747139 -0.016548395 -0.008994647
000370 ac 3b 2d 3d 90 9e cb bd 86 79 12 bd 2e 6c c9 3d
       0.042293236 -0.09942353 -0.035760425 0.09835087
000380 2e df 05 3c 05 61 91 3c 0c fc f8 3d 57 e8 67 3d
       0.008170886 0.017746458 0.12157449 0.05661806
000390 d6 45 87 bd e4 9b c7 bd 94 6a b1 3d aa 5f 69 3d
       -0.06605117 -0.09746531 0.08662906 0.056975998
0003a0 25 59 b6 bd c6 22 b3 be 8a 70 06 be be 3c 4b 3d
       -0.08903722 -0.34987468 -0.13128868 0.049618475
0003b0 1d 84 63 bd 4b d0 1d be e3 23 a7 3d 1a 36 09 3c
       -0.055545915 -0.15411489 0.08161142 0.008374715
0003c0 53 71 91 3c 02 3c b1 bd 52 0c c5 3c 56 ae 8c 3d
       0.017754233 -0.08654024 0.024053726 0.068691894
0003d0 4c 99 d9 3c af 5c 11 bd 28 ca 3f bd d1 3a 33 bd
       0.026562355 -0.03548878 -0.04682365 -0.043757264
0003e0 63 c5 17 bd d3 3e a2 3c bf 59 87 3d bb 4c 8e 3c
       -0.037053477 0.019805348 0.066089146 0.017370572
0003f0 1f d1 39 3e 2d 9a e9 3d 90 34 14 3e 2f b7 91 bd
       0.1814618 0.1140636 0.14473176 -0.071150176

conv2.bias f4 [16]
000000 af 25 86 be d1 06 51 be b6 c1 19 be ab 55 80 bd
       -0.26200625 -0.20412757 -0.15015301 -0.0626634
000010 73 15 8f bd 94 9b 2f be 06 32 4c be f0 5c 04 be
       -0.06986513 -0.17149192 -0.19940957 -0.12926078
000020 dd a8 19 be 91 58 53 be 53 66 75 be e2 62 1c be
       -0.15005822 -0.20639254 -0.23964815 -0.15272096
000030 49 bd bf bd 24 58 78 bd d6 37 71 bd a5 9a 12 be
       -0.09362275 -0.060630932 -0.05889114 -0.14316805

conv3.weight f4 [100, 16, 5, 5]
000000 66 2c ec bc 50 aa fb bb 08 f4 2c 3d a1 7f 81 bd
       -0.028829765 -0.007680215 0.042224914 -0.063231714
000010 20 a6 a2 bd 7a a3 25 3d 46 57 96 3d 56 10 12 3d
       -0.07941842 0.040439107 0.07340865 0.03566011
000020 ee a1 13 bd 44 cc b8 bc 12 ba 59 3d 84 42 5d 3d
       -0.0360431 -0.022558339 0.053155966 0.054018512
000030 69 1b 05 3d d4 65 61 bd 9a e8 0c 3c d0 ae 04 bc
       0.032496843 -0.05502875 0.008600378 -0.008098319
000040 f6 90 13 3c c9 36 3b bc d5 0f fe bc 19 56 37 3d
       0.009006729 -0.011426636 -0.031013409 0.044759843
000050 12 c9 ea bc f9 17 53 bd ee 39 d7 bd e4 f2 11 bb
       -0.02866033 -0.051536534 -0.10509096 -0.0022270018
000060 dc b3 92 3b ba b4 0f 3b f5 2b d3 bc 94 22 5c 3c
       0.0044770073 0.002192779 -0.025777796 0.013435978
000070 4c bc 13 bd 19 db 9a bd 3d 87 66 3c 22 93 08 3d
       -0.036068246 -0.07561321 0.014070329 0.03334344
000080 25 cc 2d bd 35 50 85 bd a8 48 8c bd a3 9f 5c 3d
       -0.042431016 -0.06509439 -0.068497956 0.05386318
000090 8c 38 8c 3d 4c 54 35 bc 0a 47 86 bd 2b 17 b5 3d
       0.06846723 -0.011067461 -0.065565184 0.088423096
0000a0 48 b3 ef bb 25 ec 35 3c 83 a1 f3 bb c5 3f e1 3b
       -0.007315073 0.0111036645 -0.007435025 0.006874057
0000b0 e5 e5 61 3d 91 e0 23 bd fb 92 4c bd 10 fe 83 bd
       0.055150885 -0.040009085 -0.04994486 -0.06444943
0000c0 bd 4f 01 3d 74 e8 fe bb fd b3 b1 3c 76 28 36 bd
       0.031570185 -0.0077791754 0.02169227 -0.04447218
0000d0 a5 f9 e4 bd 1c e0 83 bd a0 3f dc 3b d1 ab 91 bd
       -0.111804284 -0.0643923 0.006721452 -0.071128495
0000e0 fe 25 0e 3d 79 9d ba bd 09 60 87 bc da 10 45 3d
       0.0347042 -0.09112067 -0.016525285 0.048111774
0000f0 72 48 cf 3b fb 2f 66 bb fa c2 9f bd 9d 13 e5 bc
       0.006325775 -0.0035123813 -0.07800861 -0.027963454
000100 35 ed 71 3b dd 33 84 3c 21 6d 71 3d bd 27 46 bc
       0.0036915068 0.016138012 0.058941964 -0.012094435
000110 c4 ef 36 bd 13 06 06 3c 2e 42 ff bc e6 51 4b bd
       -0.044662252 0.008180159 -0.031159487 -0.04963865
000120 7b f4 ae 3c 27 8b 38 bd f9 f8 d0 3c ec 0a bf 3b
       0.021356812 -0.04505458 0.025509344 0.0058301594
000130 63 ab 60 3d ff e2 57 bd e6 f6 80 bd 4b f3 00 bd
       0.054850947 -0.052706715 -0.06297092 -0.031482022
000140 a7 9a 39 3d 7e 9f f2 bc 4a db 7e bd b2 73 a5 bd
       0.045313504 -0.029617067 -0.06222085 -0.08078708
000150 19 3b a7 bc 96 78 ec 3a 13 7c c2 bc 57 c4 c9 3c
       -0.020413922 0.0018041309 -0.023740804 0.024629755
000160 dd d8 59 3c eb 38 33 3d dd d9 b5 3b ed 32 43 3d
       0.013296333 0.043755453 0.005549653 0.04765599
000170 a3 f1 06 3d 7e a9 3f 3c 07 b4 0a 3b 96 27 1f 3d
       0.032945286 0.011698125 0.0021164434 0.03885611
000180 5c f9 c2 3c f4 eb 13 bd 9b a4 b4 bb 12 68 c4 3c
       0.023800544 -0.036113694 -0.0055127866 0.023975406
000190 06 d0 4f 3d 3d d8 2d bc 37 f9 87 bd 01 ce c2 bd
       0.050735496 -0.010610637 -0.06639331 -0.095119484
0001a0 0a 58 10 bd cc b1 70 bc 6c c8 51 bc 9a 29 b1 3c
       -0.03524021 -0.014690828 -0.012804132 0.021626282
0001b0 e3 f2 59 bd 19 01 50 bd 06 ec 10 bb 8c 64 10 bc
       -0.05321015 -0.050782297 -0.0022113337 -0.008813035
0001c0 39 c7 02 bc 6a 4f d0 3c 17 07 05 3d 96 a8 9b bb
       -0.007982069 0.025428493 0.032477465 -0.0047503216
0001d0 6d f2 7a 3d 35 11 fe bc 56 f4 5b bc 04 69 80 3c
       0.06126635 -0.031014064 -0.013424953 0.015675075
0001e0 cf 00 15 3c 25 a9 15 bd 18 84 06 bd 5e 9c 8c 3d
       0.009094431 -0.036538262 -0.03284082 0.06865762
0001f0 78 b2 0c 3e 46 25 5d 3c 50 a7 4d bc 3c dd 70 3d
       0.13739955 0.013497656 -0.012552097 0.058804736
000200 c2 df 22 bd 98 71 88 bd bf 62 51 3c c6 d1 98 3c
       -0.039764173 -0.06662291 0.012779891 0.018654715
000210 6b f7 96 3d 87 c8 a4 3d 9b 41 0e bd 5d c7 f9 bb
       0.0737141 0.0804606 -0.034730535 -0.007622643
000220 95 6a a0 3d 55 0b 13 3d 4e 2e 95 3d f4 71 02 bd
       0.07832829 0.03589948 0.072842225 -0.031846955
000230 be d9 da 3c f7 af 03 bc a4 c7 3b 3c b0 cf a6 bd
       0.026715156 -0.008037559 0.011461172 -0.08145082
000240 6a f0 ab bd 22 b2 4b 3d bf b2 e3 bc ad 2d 0f bc
       -0.08395465 0.049730428 -0.027795194 -0.008738917
000250 9f 03 eb bc 99 7a b8 bc f9 9a ca bc d6 7f bb 3d
       -0.02868825 -0.022519397 -0.0247321 0.09155242
000260 48 90 37 3d 29 6d af 3d 73 e1 7c 3c 33 6b b1 3c
       0.04481533 0.085657425 0.015434611 0.021657562
000270 7a 9f ec 3c af 67 06 bc b4 a3 22 3d 49 4a b8 bc
       0.028884638 -0.008203431 0.0397069 -0.02249636
000280 1b a3 1d 3c 12 26 8b bd 12 0b 51 3b 77 45 cf bc
       0.009621407 -0.06794371 0.0031897468 -0.025301678
000290 ab 63 b3 3c 83 ea 18 bb 56 ff a0 bd 07 78 03 bd
       0.021898111 -0.002333314 -0.078612015 -0.03209689
0002a0 a3 2f b9 3d b2 d0 32 3d 4b 43 db bc bc 68 83 3c
       0.09042289 0.04365606 -0.026765486 0.016041152
0002b0 4a 94 8c 3d 5a 50 85 3d ff 28 8c 3d 95 28 b0 3b
       0.068642214 0.065094665 0.06843757 0.0053759315
0002c0 db fc b9 3b 99 5c 88 bc 2f 68 cf bd 1d bb 98 bd
       0.0056758947 -0.016645717 -0.10127293 -0.07457564
0002d0 9a d0 97 3c c6 0d 2e 3d 83 76 13 3c ba b9 43 3b
       0.018532086 0.042493604 0.009000423 0.002986534
0002e0 39 f4 28 3c 77 3f 4c 3c ae b3 da bc f9 31 f4 bc
       0.0103121335 0.012466303 -0.026697006 -0.029808985
0002f0 19 66 7f 3d 09 b7 ec bb 6f 87 0a bd c9 4d 9d bd
       0.062353227 -0.007223968 -0.033820566 -0.07680852
000300 e7 43 13 3d c9 67 1e 3d 68 1c 02 bd 7e 26 08 bb
       0.03595343 0.038673196 -0.03176537 -0.0020774896
000310 b8 35 1a 3d d9 b7 2b bd 42 be b8 bc 3d f1 ec bc
       0.037648886 -0.041923378 -0.02255166 -0.028923625
000320 e8 52 5a 3c 86 6e c7 3d d8 45 71 3d d6 36 15 3d
       0.01332543 0.097378775 0.0589045 0.03642925
000330 f6 0e 19 bd 0e 84 2d 3d 9c fa 94 bd 2a 18 91 bd
       -0.037367783 0.042362265 -0.072743624 -0.07084687
000340 5a 67 8a 3b 66 0b ef 3c 8a d6 69 bd 01 16 73 bd
       0.0042237462 0.02918024 -0.057089366 -0.059347156
000350 34 4b 83 3d ea f0 97 bb 76 29 c2 bc a9 98 86 bd
       0.06410828 -0.0046368735 -0.02370141 -0.06572086
000360 cf b0 42 bd ec 22 97 3d ec b6 94 3c 3b 89 35 bd
       -0.0475319 0.07379708 0.01815363 -0.044320326
000370 8e 99 eb bb 71 e0 97 bc 6a 78 37 bd bd 6b 3a bd
       -0.007189936 -0.01853964 -0.04479257 -0.045512903
000380 bf 70 8a bd 37 96 28 3c f8 a9 1f 3b 74 37 be bc
       -0.06759786 0.01028972 0.0024362784 -0.023219801
000390 d3 f8 27 bb 2d 2b 30 bd 2e 79 a5 3b 16 5d 1e bd
       -0.0025630489 -0.043009926 0.005049846 -0.038662992
0003a0 c1 83 05 bc 7e 34 c8 3b fb e9 4f bc 3e 61 c4 3c
       -0.008149088 0.006109773 -0.012690063 0.02397215
0003b0 59 b9 13 bd 60 61 7a bd 7d 3a bc bc bb 38 4f bd
       -0.036065433 -0.06112802 -0.022977108 -0.05059121
0003c0 f3 1e 04 bd f2 08 ac bc 5c 88 da 3d 9c a2 ab bc
       -0.032256078 -0.02100036 0.1067054 -0.020951562
0003d0 f4 2a 45 3d 03 6d 15 3d 04 d0 6c 3d e2 80 8b 3d
       0.048136666 0.036480915 0.057815567 0.06811692
0003e0 b5 09 d5 3c 84 41 7d bc 78 03 b6 3b c6 04 d7 3d
       0.026005605 -0.015457515 0.0055546127 0.10498957
0003f0 51 14 01 3e 8f 41 16 3c 19 1a a4 bc 12 c0 b4 bc
       0.12605406 0.009170904 -0.020031976 -0.022064243

conv3.bias f4 [100]
000000 15 f4 f2 3b 68 09 09 3d 1c 43 96 bc ea ec 34 bc
       0.0074143508 0.033456236 -0.018342547 -0.011042813
000010 95 59 7e 3c 9a c6 f6 3c c5 d0 26 3d 3b 1a 0c 3d
       0.015524288 0.030123997 0.040726442 0.034204703
000020 4a 4b a4 ba 98 41 43 3d 13 f9 95 3b ed 57 f3 3c
       -0.0012534645 0.047669977 0.004576811 0.029705012
000030 9a 4e 4d 3d 80 71 60 bd 1d 88 7a bc 94 0a 9f 3c
       0.05012379 -0.054795742 -0.015291241 0.019414224
000040 06 25 5e bc ee 32 bc ba 2e ea a4 bc e7 73 ca bc
       -0.013558632 -0.001435844 -0.020131197 -0.02471347
000050 17 9e 22 bd a1 f1 a1 bb ef eb f8 3c c6 cf 0a 3c
       -0.039701547 -0.0049421345 0.03038594 0.008472389
000060 e6 d6 d2 3b 3d cb 5e 3d d7 d0 e1 bc 77 eb 8e ba
       0.0064343093 0.054393042 -0.027565403 -0.0010903914
000070 e6 65 ce b9 6e 45 cf bc 85 29 90 3c 6b 13 cd 3a
       -0.00039367302 -0.025301661 0.017597923 0.0015646046
000080 dc 52 03 3d e3 44 87 3c 23 8d 5e bc cd 7b df bb
       0.032061443 0.01651234 -0.013583454 -0.006820178
000090 97 8e ca 3c c6 d8 3f bd d4 f9 7e bc f9 c5 bf 3c
       0.024726195 -0.04683759 -0.015562493 0.02340983
0000a0 bf b8 18 bc 04 94 3b bc 3e b3 d1 b8 de de 7c 3d
       -0.009321391 -0.011448864 -9.999283e-05 0.06173598
0000b0 aa df 34 bd ae 5b 8b 3c be 48 01 3c 40 3b 43 bc
       -0.044158615 0.01701149 0.007890878 -0.011915982
0000c0 e7 73 d0 bc 86 c6 8b 3b ef 06 5f bc 12 6e 68 3c
       -0.025445892 0.004265609 -0.013612493 0.014186399
0000d0 23 ae 03 3c f6 a3 b0 3a 22 eb 00 3b 4d 4f 3d 3d
       0.008037123 0.0013476599 0.00196714 0.046218205
0000e0 dd 66 2a bd aa 13 78 bc ab 27 f4 b9 21 9f 51 bc
       -0.041602004 -0.015141407 -0.00046568862 -0.012794287
0000f0 9c 0a 1f 3d 3a ef fc bc 7f ea 16 bd a7 4c 03 bd
       0.038828477 -0.03087579 -0.036844727 -0.032055523
000100 47 0e a0 3c 35 e6 13 3d f5 bd 1d bc e0 d5 6b 3d
       0.019538058 0.036108214 -0.009627809 0.057577014
000110 56 e5 f1 bc 0f c9 01 bd b6 96 0b 3c 6d ea 81 3d
       -0.029528301 -0.031685885 0.008519819 0.06343541
000120 49 e4 2a 3d c2 55 f8 3c c9 e6 f3 3a cd e8 0b 3d
       0.041721616 0.03031433 0.0018608208 0.034157563
000130 9c 53 14 bd 17 a0 34 3a 79 1f a8 bc 71 0b 0e bc
       -0.03621255 0.00068903103 -0.02052282 -0.00866972
000140 d3 53 06 bd ff 4f ed 3b d8 60 8f bc 1e a7 3a 3d
       -0.032794785 0.0072422023 -0.017502233 0.04556953
000150 41 b5 6e 3c 28 14 ba bc 76 bd 20 bd 84 cf 79 3c
       0.0145695815 -0.02271469 -0.039243184 0.0152472295
000160 33 88 67 bb f4 11 9a ba ea 1a b2 3c 3f f8 5c bd
       -0.0035328984 -0.0011754618 0.02174135 -0.053947683
000170 27 a3 03 bd a9 0b 91 3c 1c 0f 5b bd 01 b4 e4 bb
       -0.032138016 0.017705755 -0.053481206 -0.006979466
000180 ce 27 b7 bb 36 b1 1c 3d 3e c9 ed bb 26 9c 9b bc
       -0.005589462 0.03825494 -0.007256656 -0.018995356

fc1.weight f4 [84, 100]
000000 30 2e 76 bc aa e1 5e 3d 91 cd ac 3d b3 ab a9 bd
       -0.01502566 0.05441443 0.08437646 -0.08284702
000010 c8 a4 a0 bd 79 c8 83 3d 10 c4 5a 3c 3d 3c 7d bd
       -0.078439295 0.064347215 0.013352409 -0.061825026
000020 28 fa e4 bc c6 9e 6c 3d d7 d0 43 bd be d6 09 3d
       -0.027951315 0.057768606 -0.047806587 0.03365206
000030 32 66 55 3d b0 57 41 3c 00 92 6a bc 28 f9 0e 3c
       0.052099414 0.0118006915 -0.014317036 0.008726396
000040 f1 94 bb 3d ac 01 cf bc ad b6 a1 bd 8c 87 84 bd
       0.09159268 -0.025269352 -0.07896171 -0.06471166
000050 e9 80 9d 3d 00 07 c8 3b ce 77 1e 3d 60 03 4b bb
       0.07690603 0.00610435 0.038688473 -0.0030977353
000060 57 3e 6d bd 00 c4 72 3a 92 e0 54 3d 0f bb c3 bd
       -0.05792078 0.00092607737 0.05197198 -0.09557163
000070 80 93 4f bc 66 19 9d bd f5 1c 90 3d a1 76 8b 3d
       -0.012669444 -0.0767086 0.07036773 0.06809736
000080 dc 54 01 bd ee d5 5c 3d 1a 3c 69 3d 92 9a 6f 3d
       -0.03157507 0.053914957 0.056942083 0.05849702
000090 3d 9b c9 3d a2 93 75 3d 50 f3 10 bc a0 7a 03 bb
       0.098440625 0.059955247 -0.008847073 -0.0020062104
0000a0 03 d2 91 bd a8 4c 34 3c 69 c8 92 3d 80 e0 d3 bc
       -0.07120135 0.011004604 0.071671315 -0.025863886
0000b0 f4 d6 07 bd a8 f2 0f 3c a2 ab 20 3d c0 fc 0a 3b
       -0.03316398 0.008785881 0.03922618 0.002120778
0000c0 30 35 be bb 22 67 14 3d 60 f6 32 bd 6c 5b 91 3c
       -0.0058046803 0.036231168 -0.043691993 0.017743789
0000d0 f0 e4 7d 3c 51 fc c9 3d e2 bf 5e 3d a5 b6 cb bd
       0.0154964775 0.09862579 0.054382212 -0.09946946
0000e0 48 c0 96 bc 82 44 4e 3d e6 74 44 3d 30 cf d4 bb
       -0.018402234 0.050358303 0.047963046 -0.0064944252
0000f0 c0 e3 4b 3c 12 33 26 3d c0 d6 10 3c d2 a3 10 3d
       0.012444437 0.04057605 0.008840263 0.03531248
000100 6d f2 c6 3d ce 7b 05 3d 28 99 1c bc c0 15 16 bc
       0.09714208 0.032588772 -0.009558 -0.009160459
000110 65 06 88 3d 33 25 8a 3d ba d9 11 bd ca 90 6f 3d
       0.06641845 0.067453764 -0.03560803 0.05848769
000120 c1 b0 87 3d 9c ec ed 3c 88 d6 95 bc 53 e3 ba 3d
       0.0662551 0.029043488 -0.018290773 0.0912539
000130 74 85 18 bd 0d e4 8f bd 68 b2 e7 bc 39 10 ae 3d
       -0.037236646 -0.07025919 -0.028283313 0.08499188
000140 bb a6 8f bd d9 ec c6 3d 09 eb c1 3d 83 79 6c bd
       -0.07014223 0.09713144 0.094686575 -0.05773307
000150 03 c7 5d bd 30 3b 48 bd b6 af 20 3d 50 d5 32 bd
       -0.05414487 -0.04888457 0.03923007 -0.043660462
000160 d5 29 89 bd 21 98 bc 3d 80 7b 84 3a aa c3 3f 3d
       -0.06697432 0.09208704 0.0010107607 0.04681746
000170 5a 2e 3d bd d4 f2 82 3c 59 60 91 3d db 39 aa 3d
       -0.046186782 0.01598493 0.07098455 0.08311816
000180 b8 18 ca bd f0 e3 43 bc 30 e2 c0 bb 16 0e 68 3d
       -0.09867996 -0.0119562 -0.0058863387 0.05665406
000190 4e 8d 18 3d e3 24 89 3d 0c 69 a9 3c b9 b1 c0 3d
       0.037244134 0.06696489 0.020679973 0.09408898
0001a0 5a db 0c bd 23 84 50 bd a7 0f a3 3d d0 f3 87 bd
       -0.034388877 -0.050907265 0.0796197 -0.066383004
0001b0 c8 1f 80 bc 8a 2f 7e bd 40 fd 67 bc b1 96 b4 3d
       -0.015640154 -0.062057056 -0.014159501 0.088178046
0001c0 5b 56 cb 3d f0 aa 46 bc ea 1b 5a 3d 54 ce ba bc
       0.099285804 -0.012125716 0.053249277 -0.022803463
0001d0 12 39 6e 3d 00 08 86 b9 77 58 91 3d 47 38 b2 3d
       0.058159895 -0.00025564432 0.070969515 0.0870214
0001e0 c1 e5 92 3d 0d bd 8e bd 90 dc 67 bd 69 62 a7 3d
       0.07172728 -0.06969652 -0.05660683 0.08173067
0001f0 2a 34 63 bd 28 01 51 bc d8 68 c8 bd 60 d2 3c 3b
       -0.05546967 -0.012756623 -0.09785622 0.0028811917
000200 86 d4 8c bd 40 eb 61 bd 89 34 9b 3d fe 11 39 3d
       -0.06876473 -0.055155993 0.0757838 0.045183174
000210 14 1b ab bc 32 9e 10 3d b1 53 c9 3d 18 a5 dc bc
       -0.020886935 0.035307117 0.09830416 -0.026934192
000220 b3 e2 ca bd 20 8c f0 3b ea 70 c3 bd 60 64 ee bc
       -0.09906521 0.007340923 -0.09543021 -0.029100597
000230 8d 47 ae bd c0 a6 6d 3c e0 da cb bd 5d ad 87 3d
       -0.08509741 0.014505088 -0.099538565 0.06624863
000240 e8 9f 0e bc 4a b5 7b bd 06 53 11 3d ec 97 d1 bc
       -0.008705117 -0.061452188 0.035479568 -0.025585137
000250 0a 0f 76 3d 49 2c a0 3d 51 26 9b 3d 9e b8 3a 3d
       0.060072936 0.07820947 0.07575668 0.04558622
000260 f0 68 0e bc 38 e5 92 3c 07 90 b2 bd 9a 27 37 bd
       -0.008692011 0.017931566 -0.08718877 -0.0447155
000270 a5 c3 8e bd c0 fd 77 3b 61 0b b8 3d 50 d7 0f bc
       -0.0697091 0.0037840456 0.08986545 -0.008779362
000280 50 61 89 3b 72 3c 78 3d 4d 2b ca 3d b3 8b 3c bd
       0.0041925088 0.06060452 0.0987154 -0.046031665
000290 40 5f 78 3c 2a 2c a9 bd 58 7c 00 bc 17 da 91 3d
       0.015159428 -0.08260377 -0.007842146 0.071216755
0002a0 6e cb 44 3d 50 c5 d0 bb c7 25 63 bd e0 08 90 3b
       0.04804557 -0.0063711777 -0.05545595 0.004395589
0002b0 bd 9b 42 bd fa ca 36 bd 45 54 ae 3d 62 a6 2d 3d
       -0.047511805 -0.044627167 0.08512167 0.042395003
0002c0 cd d4 72 bd 2b 1b c8 bd 40 a5 dc ba 3d c5 bc bd
       -0.059284974 -0.09770807 -0.0016833916 -0.09217308
0002d0 80 5f 9c bd a5 70 c3 3d 84 98 f0 3c 18 76 8e bd
       -0.07635403 0.095429696 0.0293696 -0.06956118
0002e0 00 4b 51 bb 45 85 af bd 06 75 4f 3d 91 fb 89 3d
       -0.0031935573 -0.08570341 0.05064871 0.067374356
0002f0 83 b7 92 bd 80 d8 aa bc 76 d2 60 3d 1b 25 94 bd
       -0.07163908 -0.020855188 0.05488821 -0.0723364
000300 d8 05 66 bc f7 4a 32 bd 72 a8 77 3d c0 19 0e 3c
       -0.014039479 -0.043528523 0.060463376 0.0086731315
000310 00 e5 00 bb 1e 97 2a 3d 02 e0 ae bd c9 14 b9 3d
       -0.0019667745 0.041648023 -0.0853882 0.090371676
000320 12 ea c6 bd da d3 6e 3d d7 4f 2b bd 97 b2 75 bd
       -0.09712614 0.058307506 -0.041824188 -0.05998477
000330 0b b7 a2 3d 0a 22 15 bd b0 8b 0f 3c 30 69 f0 bb
       0.07945069 -0.036409415 0.008761331 -0.007336758
000340 cd 69 6b bd f3 7a af bd 50 4b 40 3c cc 5f 82 bc
       -0.057473946 -0.085683726 0.011736706 -0.01591482
000350 ed dd 7e bd d4 b5 80 3c 2b 1a 9d 3d ad b7 32 bd
       -0.062223364 0.015711702 0.07671007 -0.043632198
000360 ca ca 59 bd a4 5b d0 3c 40 b7 ed 3a ad 31 62 bd
       -0.05317191 0.025434323 0.0018136278 -0.055223156
000370 72 ec ac bd 42 4d 1c 3d 00 00 04 39 43 f6 69 bd
       -0.08443536 0.038159616 0.00012588501 -0.05711962
000380 00 94 15 3c 3a 89 4c 3d 2a 6f 0f 3d b4 a8 c4 bc
       0.009129524 0.049935557 0.035018124 -0.024006225
000390 b6 2b 4e 3d 80 ca ec 3b e2 3b 28 3d 0e 40 6c 3d
       0.050334655 0.0072262883 0.041072734 0.057678275
0003a0 60 60 94 bd 8b c7 ba 3d 60 c5 ef 3b 43 d7 b8 bd
       -0.072449446 0.09120091 0.00731723 -0.09025433
0003b0 30 85 1e 3c 40 0e b8 bd fa 1e a1 bd 0c 7c 14 bd
       0.009675309 -0.08987093 -0.078672364 -0.036251113
0003c0 20 cb e2 bb 58 c6 67 3c e0 66 e1 3b fd b3 b5 3d
       -0.006921187 0.01414641 0.0068787187 0.08872221
0003d0 40 30 23 bd ba c4 2e bd f4 83 dc 3c 4f 31 b8 bd
       -0.039840937 -0.04266808 0.026918389 -0.0899378
0003e0 85 9d 96 bd b4 0b b9 bc c0 fc 80 bd df 03 c0 bd
       -0.07354263 -0.022588588 -0.06298208 -0.09375738
0003f0 52 f1 92 bd 5a 7f 6e bd 42 72 6f 3d ea f8 b2 bd
       -0.071749344 -0.05822692 0.058458574 -0.08738883

fc1.bias f4 [84]
000000 da 6b 17 3d 1d b4 c3 3d 6d 5a 4a bd 18 b1 be 3c
       0.03696809 0.09555838 -0.049402643 0.023277804
000010 80 39 41 ba 6a 13 93 bd 30 7b e6 bb 06 4e 92 bd
       -0.0007370934 -0.07181437 -0.007033728 -0.07143788
000020 52 06 1f 3d bf ac c7 3d 8d 32 c5 bd f7 64 cb bd
       0.038824387 0.097497456 -0.096287824 -0.09931367
000030 50 cc 52 3c 61 0b 94 3d e0 0e 97 bb a6 eb a1 bd
       0.012866095 0.07228733 -0.0046099275 -0.079062745
000040 14 28 10 bd bb c8 b9 bd 60 61 a2 3b 53 91 98 3d
       -0.03519447 -0.090714894 0.0049554557 0.074495934
000050 99 23 9a 3d dd e2 74 bd b7 fd c8 3d da ff 0c 3d
       0.07526321 -0.059786666 0.09814017 0.034423687
000060 88 07 d4 bc 31 d0 85 3d dd f2 9a bd a4 09 08 bd
       -0.025882497 0.0653385 -0.07565854 -0.03321232
000070 9f 72 ae 3d ac 99 8a 3c 5a 50 2b bd 78 66 9e bd
       0.08517956 0.01691898 -0.041824676 -0.07734388
000080 7b 31 8f bd 37 84 41 bd 30 21 3e bd 10 e2 59 bc
       -0.069918595 -0.04724523 -0.04641837 -0.013298526
000090 22 ab 21 3d 95 63 96 3d a0 2f 43 3b 65 21 9f 3d
       0.039469846 0.073432125 0.0029783025 0.077700414
0000a0 a9 74 a6 3d a2 3b 29 3d 21 45 8b 3d 20 4c d5 bc
       0.0812772 0.041316636 0.06800295 -0.026037276
0000b0 c4 39 f5 3c 62 da 21 3d ec 74 d5 bc 80 a5 c1 bd
       0.029934771 0.039514907 -0.02605673 -0.09455395
0000c0 46 4e a0 bd 40 c1 7c bd c0 c6 1e bc 1a fb 3d bd
       -0.078274295 -0.061707735 -0.00969094 -0.046382047
0000d0 91 23 93 3d 77 d8 68 bd 89 f9 a7 3d 9f 8d 8c 3d
       0.07184518 -0.056847062 0.08201892 0.068629496
0000e0 c8 dc 9d bd 97 b9 67 bd 44 d3 d4 3c b0 50 46 3c
       -0.07708126 -0.056573477 0.025979646 0.012104198
0000f0 76 dc 88 bd 40 99 e4 3a 30 aa 95 bb 18 e6 13 bc
       -0.066826746 0.0017440692 -0.004567407 -0.009027027
000100 9a 9f 65 3d b4 52 e4 3c e0 74 cd bb c6 ca 79 3d
       0.05606041 0.027871467 -0.006270036 0.060984395
000110 a9 a3 85 3d 5d 46 31 bd b5 ba c3 bd 9e f5 8a bd
       0.06525356 -0.043279994 -0.09557096 -0.06785129
000120 a2 5b 39 3d a8 c3 67 3c 26 22 7d 3d 94 b5 ed bc
       0.045253403 0.014145769 0.061800145 -0.029017247
000130 53 1c bd 3d 54 b6 e3 bc 98 63 03 bc b2 46 90 bd
       0.09233918 -0.027796902 -0.0080193505 -0.07044734
000140 3d a9 ac bd 08 8c c9 3c 6f b4 aa 3d 37 64 c8 bd
       -0.08430717 0.024602905 0.08335196 -0.097847395

fc2.weight f4 [10, 84]
000000 f6 17 6b 3d 3f 43 bd bd ed fc 93 3d f6 f1 9e bd
       0.057395898 -0.09241342 0.07225976 -0.07760994
000010 f2 74 7c 3d 72 b6 84 bd 63 1a 45 bd 1c ef c8 bc
       0.061634965 -0.06480111 -0.048120867 -0.024528079
000020 72 50 24 bd 95 0a cd 3d 34 48 81 3c d4 93 bd 3c
       -0.04011578 0.10011784 0.0157815 0.023141779
000030 24 9a 1d bd 65 01 a1 3d 00 da f7 3a c5 d4 b0 bd
       -0.038477078 0.07861594 0.0018909574 -0.086343326
000040 41 45 a1 3d e6 90 ab bd 01 6a 82 3d 6e 20 16 bd
       0.07874537 -0.083772466 0.06367875 -0.03665202
000050 c6 a0 58 3d 6c ed 9b 3c c7 7d 8d 3d c3 8b c5 3d
       0.0528877 0.01903411 0.06908756 0.09645798
000060 1e 5d 05 bd 1a 4a 08 3d 4c fe 95 3c fe 1e c9 bd
       -0.032559507 0.033273794 0.018309735 -0.098203644
000070 9a 98 64 3d ec a7 bb 3c c0 b7 3b 3b 5c e6 81 bc
       0.055809595 0.02290722 0.002864346 -0.015856914
000080 e3 fc 40 bd 3f 95 51 bd 06 bc 59 3d 75 0b d9 3d
       -0.04711617 -0.051167723 0.05315783 0.105978884
000090 6b eb 5d bd c2 6d 0e bd c8 45 33 bc 2e 16 be bd
       -0.05417959 -0.034772642 -0.01094193 -0.09281574
0000a0 d0 85 eb 3b 34 a8 b6 bd dc 2b ae 3c 47 f5 a0 3d
       0.0071875826 -0.08918801 0.021261148 0.07859283
0000b0 df 5a 9e 3d 60 bc c1 bb 35 e6 dc 3d 3e 62 5a 3d
       0.07732176 -0.0059123486 0.10786096 0.053316347
0000c0 90 00 50 bc fa 09 71 3d 4f 7c 6e bd 10 87 a5 bb
       -0.012695447 0.058847405 -0.05822402 -0.005051501
0000d0 31 a9 92 3d 5c 84 af 3c ac 12 f1 3c f6 15 b0 bd
       0.07161177 0.021425419 0.029427849 -0.08597939
0000e0 c1 ad 83 bd 33 7b b0 bd b4 d7 93 bd ac d5 f8 3c
       -0.06429625 -0.086172484 -0.072188765 0.030375324
0000f0 80 76 50 3a 00 51 fa bb f6 45 60 bd af f7 bf 3d
       0.0007952228 -0.0076390505 -0.05475422 0.09373414
000100 ec 01 d1 bd 40 aa 50 bb a7 f2 b7 3d e0 64 7b 3c
       -0.10205445 -0.0031839758 0.08981829 0.015343875
000110 95 05 ce 3d d0 1d 40 bd 1a b9 1d 3d 66 9c 24 3d
       0.100596584 -0.04690343 0.038506605 0.040188216
000120 87 71 da 3d c0 28 c1 bb 50 4a ca bd 81 d7 d7 bd
       0.10666185 -0.0058947504 -0.09877455 -0.10539151
000130 ad f5 87 3d 2c 90 75 bd cb 30 b4 bd 2c 06 d6 bc
       0.06638656 -0.059951946 -0.08798369 -0.02612599
000140 20 e9 d2 bb fe ae 70 3d 5b ee be 3d 58 38 44 3c
       -0.006436482 0.058760636 0.093228064 0.011976324
000150 60 ee d5 3b 80 a1 08 ba 76 79 29 3d 58 a8 62 3c
       0.0065286607 -0.00052120537 0.0413756 0.013834082
000160 e9 27 b1 3d 14 67 da bc 25 16 71 bd 54 fa bd 3c
       0.086501904 -0.02666048 -0.05885901 0.023190655
000170 1a 0b 0e 3d 9c 6c 95 3c 0a 88 31 3d fb 6c 5b bd
       0.034678556 0.018240266 0.043342628 -0.05357073
000180 f4 aa 8f 3c 9d 50 52 bd a0 2a 2f bc aa 51 83 bd
       0.017537571 -0.05134641 -0.010691315 -0.064120606
000190 22 37 1e 3d 60 11 d5 bd 14 b3 c0 3c e8 79 df bc
       0.038626797 -0.10403705 0.023522891 -0.02727981
0001a0 c0 5a 6f bb 5e 34 c6 bd 67 9d 40 bd 7a 64 71 3d
       -0.0036522597 -0.09677957 -0.04702511 0.058933713
0001b0 88 5f c8 bd c7 20 94 3d a8 56 68 bd 90 d1 e4 bb
       -0.09783846 0.07232814 -0.056723267 -0.0069829896
0001c0 80 02 b5 ba 90 cd ec 3b 80 a1 da 3b 00 5b cc bb
       -0.0013809949 0.0072266534 0.0066720843 -0.006236434
0001d0 7c 31 b1 3c 30 07 b7 3b 51 5c a0 3d 30 86 39 bc
       0.021630041 0.0055855736 0.07830108 -0.011323497
0001e0 7d ae aa 3d 86 65 24 3d e0 d1 94 bb a7 87 9a bd
       0.08334062 0.040135883 -0.0045416206 -0.07545405
0001f0 80 26 b6 bd eb 4f c4 3d 7a 5a 7a 3d 12 30 db bd
       -0.08894062 0.09585556 0.06112144 -0.10702528
000200 e8 33 22 bc 42 c8 61 3d cb d1 bb 3d a0 86 c3 bb
       -0.009900071 0.05512262 0.09170874 -0.0059669763
000210 a0 91 53 bc 85 39 bd 3d 77 a3 54 bd d9 89 c1 3d
       -0.012913138 0.092394866 -0.051913705 0.094501205
000220 0a fe 29 3d 66 3d 5e 3d 83 3f 64 bd 42 40 05 bd
       0.041502036 0.054257773 -0.055724632 -0.032531984
000230 08 10 98 bd 35 0c 9f 3d 6c 9d aa bd 92 94 5d 3d
       -0.07424933 0.07766 -0.08330807 0.054096766
000240 90 35 64 bc c4 c7 91 bc 0c d7 f2 3c 24 43 f1 bc
       -0.013928786 -0.017795451 0.029643558 -0.02945096
000250 cb 4c a6 3d 00 30 97 bc 20 60 45 bc 73 29 ce bd
       0.08120116 -0.018455505 -0.012046844 -0.100664996
000260 8b 1e b5 3d 86 54 97 bd 46 f6 68 3d de 78 75 3d
       0.08843716 -0.073891684 0.05687549 0.05992972
000270 4e c6 a4 bd 4f 44 93 3d 7c 45 81 3c 30 b2 45 3c
       -0.08045636 0.07190763 0.015780203 0.012066409
000280 d6 a4 0b bd c0 26 e1 3a 60 5a 6c bc 80 94 97 bd
       -0.034092747 0.0017177686 -0.014425844 -0.07401371
000290 83 e0 9a 3d 65 04 da 3d f5 c4 ca 3d aa 96 69 3d
       0.075623535 0.106453694 0.09900848 0.05702845
0002a0 a0 68 e5 bb a5 72 bc 3d fe fc 78 3d 05 40 c4 bd
       -0.0070009977 0.09201554 0.060788147 -0.09582523
0002b0 84 1b 8e bc d2 5e c4 bd 46 5f a1 bd 60 59 94 bd
       -0.017347105 -0.09588398 -0.078795 -0.072436094
0002c0 aa 47 d5 bd ed 86 8f 3d 10 6f 25 3c e8 42 4e bd
       -0.104140595 0.07008157 0.01009728 -0.050356776
0002d0 5e 01 3b bd d6 ee 5d 3d 34 b4 c9 bd c0 37 71 bc
       -0.0456556 0.05418285 -0.09848824 -0.0147227645
0002e0 20 d4 5c bb f6 13 89 bd a4 9e 37 bd 6b ae dd 3d
       -0.0033695772 -0.0669326 -0.044829026 0.10824283
0002f0 41 40 c0 3d 80 72 09 bb 1e 2a 8d bd 73 31 c1 3d
       0.093872555 -0.0020972788 -0.06892799 0.0943326
000300 8a 01 2e 3d ad f2 97 3d e0 35 f9 3b b8 42 15 3c
       0.042481937 0.074193336 0.0076052994 0.009110145
000310 21 56 4c bd 7c 5b c9 bd 96 6f 36 3d c0 bd 77 3b
       -0.049886826 -0.098319024 0.04454001 0.0037802309
000320 c8 62 29 bc a1 7b b6 3d dc 9f d4 bc 4c 2f d2 bc
       -0.010338493 0.08910299 -0.025955133 -0.025657319
000330 d9 e7 65 bd 1e 18 13 3d 9c ac 9d 3c 2e a7 8c bd
       -0.05612931 0.03591167 0.019247346 -0.068678245
000340 9d 1a bb 3d 87 fa ae 3d f6 75 03 3d 80 66 f4 ba
       0.091359355 0.08543878 0.03209492 -0.001864627
000350 71 ab a0 3d 34 aa c2 3c 30 8a 9d 3b cf 1d 71 bd
       0.078452 0.0237628 0.004807733 -0.05886632
000360 4a 57 68 3d ec 09 c3 3c 4c ef bd 3c 40 a7 61 bc
       0.05672387 0.023808442 0.023185395 -0.013772786
000370 0c 94 dc 3c 2b dd ae 3d 2a 2e 68 3d 95 c6 c8 3d
       0.026926063 0.08538278 0.05668465 0.098035015
000380 b8 8b 65 bd d6 34 8c bd d8 a1 f8 bc 56 ad 50 3d
       -0.05604145 -0.06846015 -0.03035061 0.050946556
000390 da 7b 92 bd f6 f4 2b bd 8c 46 00 bd 9f 0e 97 3d
       -0.07152529 -0.04198166 -0.03131728 0.073758356
0003a0 40 99 fe ba 36 25 28 bd 04 b6 d5 bc a6 f2 9b bd
       -0.0019424334 -0.041051112 -0.026087768 -0.07614641
0003b0 1a af 0a 3d 60 51 16 bd 0f 46 bf 3d 60 44 20 bd
       0.033858396 -0.0366987 0.093395345 -0.039127707
0003c0 c2 a0 1f 3d e4 2a f7 3c e4 4e f4 3c 5e ff 22 3d
       0.03897167 0.030171819 0.029822774 0.03979432
0003d0 be fa 8f bd 64 24 dd 3c da e7 0d 3d 90 a4 16 bc
       -0.07030247 0.026994891 0.03464494 -0.009194508
0003e0 22 3c 98 bd a7 01 82 bd 8f 5c cd 3d cc c0 a3 bc
       -0.074333444 -0.063479714 0.1002742 -0.019989394
0003f0 6d ce 95 3d 75 f1 99 3d de 0b 5a 3d 10 db a5 bb
       0.07314763 0.075167574 0.053233974 -0.0050615147

fc2.bias f4 [10]
000000 54 06 81 bc 1c 8d bf 3c 15 4a b0 3d 98 0c 46 3c
       -0.015750088 0.023382716 0.0860788 0.0120879635
000010 a4 b4 83 bd b0 8a 4c 3c e6 73 ad bd 98 b7 73 bd
       -0.06430939 0.012484238 -0.084693715 -0.05950126
000020 2f 67 a7 bd 94 6a 20 bd
       -0.081739776 -0.03916414
