mnist_unilenet_w_acc_14.pt (torch_old, 209599 bytes, 10 tensors)

conv1.weight f4 [6, 1, 5, 5]
0.09656376 -0.09317865 -0.0422135 0.09184895 -0.1889537 0.11425864 -0.044892102 0.09826053
0.025620593 -0.025582131 0.050795972 0.006567332 0.07021327 -0.07952644 -0.016384535 -0.02174882
0.02690675 -0.002067853 0.17368442 0.060801364 -0.07686711 -0.12191975 -0.034499843 -0.08640014
-0.06436855 0.010506406 0.11938266 0.10893041 -0.19497244 0.124347255 0.056862023 0.18997441
0.13235493 -0.18155405 -0.18944006 -0.09534043 0.17565769 -0.032753114 0.08712059 -0.0910727
0.19706173 -0.08410471 0.15161441 0.004867262 -0.10250739 0.103820816 -0.104981616 0.061089683
-0.054334167 -0.018586708 -0.19353963 -0.09656927 0.10732714 -0.0490753 0.19884107 0.15911622
-0.011071031 -0.13528459 0.12057682 0.061111674 -0.13050537 0.12817147 0.11969783 0.1762538
-0.11269493 -0.033863366 -0.004757891 0.02876596 -0.15231045 -0.14207853 0.10828282 -0.04680573
0.097791106 0.010689493 0.06524239 0.047046777 0.07534176 0.101005904 -0.18444124 0.101172544
-0.13748343 -0.14806655 0.01535281 -0.03142532 0.11931747 -0.1129619 -0.17377956 0.15010332
-0.02515951 0.115198374 0.068608664 -0.14443669 0.045186076 0.051853895 -0.13205434 -0.08965726
0.07355041 0.040171366 -0.08256069 -0.059566803 0.17967145 -0.039409872 0.11070374 0.084979065
-0.12969801 -0.17154932 0.1910476 0.009675556 0.13648301 0.041280538 0.06374035 0.14932819
0.18941143 -0.1325684 0.02520717 0.14883125 0.14506981 0.1245743 -0.14415249 -0.14292614
-0.12024216 0.025924582 0.20004833 -0.12534347 0.107501194 -0.10803453 -0.18561842 -0.04027704
0.11688143 0.18651988 -0.12146776 0.045912318 0.17483163 0.13419805 0.125481 0.14419135
0.12866202 0.053720374 -0.13497904 -0.16634688 -0.09011033 -0.021466022 -0.120515384 0.07520816
0.06420083 -0.04393481 0.078905195 0.067308575 0.1249653 0.13777731
00000000: 38c3 c53d 73d4 bebd 10e8 2cbd 4d1b bc3d
00000010: 147d 41be 6f00 ea3d c8e0 37bd d13c c93d
00000020: 47e2 d13c 9e91 d1bc 700f 503d c632 d73b
00000030: facb 8f3d c2de a2bd dc38 86bc 952a b2bc
00000040: 8b6b dc3c d184 07bb 54da 313e da0a 793d
00000050: 816c 9dbd 10b1 f9bd b54f 0dbd 8ef2 b0bd
00000060: a9d3 83bd 1023 2c3c e57e f43d e816 df3d
00000070: dba6 47be c6a9 fe3d 27e8 683d a788 423e
00000080: 0d88 073e 4ee9 39be 93fc 41be d841 c3bd
00000090: 9cdf 333e 2128 06bd 486c b23d 5384 babd
000000a0: 8dca 493e 173f acbd cf40 1b3e 8e7d 9f3b
000000b0: 65ef d1bd 02a0 d43d 9a00 d7bd 2d39 7a3d
000000c0: 818d 5ebd 2743 98bc 412f 46be 1cc6 c5bd
000000d0: 55ce db3d 2f03 49bd fe9c 4b3e 5def 223e
000000e0: 4563 35bc 0b88 0abe fbf0 f63d 3c50 7a3d
000000f0: 33a3 05be 623f 033e 2324 f53d e07b 343e
00000100: 99cc e6bd 50b4 0abd 15e8 9bbb 97a6 eb3c
00000110: 45f7 1bbe 097d 11be 62c3 dd3d 5db7 3fbd
00000120: b446 c83d fc22 2f3c cd9d 853d 1fb4 403d
00000130: c84c 9a3d 2fdc ce3d 2ade 3cbe 8d33 cf3d
00000140: 75c8 0cbe c29e 17be 5a8a 7b3c d6b7 00bd
00000150: b85c f43d 9258 e7bd 45f3 31be afb4 193e
00000160: 511b cebc 20ed eb3d b382 8c3d 36e7 13be
00000170: 0915 393d c064 543d 4139 07be 3a9e b7bd
00000180: 99a1 963d bb8a 243d 9415 a9bd 52fc 73bd
00000190: cbfb 373e 3f6c 21bd a4b8 e23d 8109 ae3d
000001a0: 8ecf 04be a0aa 2fbe fba1 433e 3986 1e3c
000001b0: 34c2 0b3e c815 293d 4d8a 823d 7de9 183e
000001c0: 12f5 413e 03c0 07be 447f ce3c 3867 183e
000001d0: 2e8d 143e d020 ff3d b69c 13be 3b5b 12be
000001e0: 8641 f6bd ca5f d43c 78d9 4c3e 0a5a 00be
000001f0: 9629 dc3d 3541 ddbd c112 3ebe 8af9 24bd
00000200: 885f ef3d 11ff 3e3e 17c4 f8bd 8e0e 3c3d
00000210: 1007 333e 376b 093e 177e 003e e6a6 133e
00000220: fabf 033e e509 5c3d f237 0abe d656 2abe
00000230: c48b b8bd 83d9 afbc c5d0 f6bd bc06 9a3d
00000240: ba7b 833d fdf4 33bd 0c99 a13d 14d9 893d
00000250: cfed ff3d 7f15 0d3e

conv1.bias f4 [6]
-0.06711746 0.19246459 -0.021494934 -0.0063617784 -0.18938379 -0.13055578
00000000: e174 89bd 7015 453e 2516 b0bc 7776 d0bb
00000010: d3ed 41be 6ab0 05be

conv2.weight f4 [16, 6, 5, 5]
-0.048342954 -0.035959642 0.056785677 -0.027038887 -0.06094799 0.030995674 0.025413984 0.052134503
-0.042571366 0.017170774 -0.029069062 -0.017317956 -0.06395532 -0.036351886 -0.025383845 0.033860795
0.014779588 0.02095287 0.08184509 0.07925516 0.053833123 0.0019934296 -0.05590958 0.06372049
-0.021473255 -0.00793553 -0.07111451 -0.016462531 -0.053029343 0.07384634 -0.0720485 -0.06397228
-0.0015083423 -0.04468783 0.02779641 -0.033319805 -0.038019374 0.005927374 0.05779563 -0.059270613
0.03560825 0.052803475 0.08042603 -0.057762563 0.017947504 -0.06331691 0.06988207 -0.03148932
0.047772802 0.00038776422 -0.007108448 -0.002226796 0.014507139 0.038336117 0.011764017 0.024649704
-0.07257267 0.059347562 0.06979554 0.0660286 0.060410336 -0.058068886 -0.031499878 0.07035049
-0.0631762 0.074562505 -0.063579924 -0.05891832 0.037951842 -0.05999391 -0.018413756 0.059001043
0.06260182 0.07478261 -0.018453076 -0.06313848 0.0810368 -0.016872657 -0.03344358 0.020404091
-0.057657674 0.0536157 0.049928527 -0.06549623 -0.06580094 -0.006662354 0.034127835 -0.0046580066
-0.042307295 0.0017442056 -0.07465537 -0.05752431 -0.05536048 0.06731591 0.07241693 -0.02558065
0.0041458136 0.035470854 0.0098268045 -0.039927796 0.04542665 0.049183767 -0.00505568 -0.0114560025
0.07237314 0.07065407 -0.04560859 0.08081891 0.018625848 -0.056400377 0.044041805 -0.05919203
0.07583687 -0.05471706 0.020624027 0.023028009 0.020650754 0.06778512 -0.035472743 -0.03753831
-0.07291526 -0.0034983752 -0.038908403 9.365557e-05 -0.020403987 0.026308022 0.07067745 0.023133751
-0.027418328 -0.04175611 -0.07032294 0.069507055 -0.016278323 0.014799465 0.0011121646 -0.05169899
0.046043687 0.043857906 0.0014166661 -0.047845915 -0.033816822 0.0015334742 -0.049006082 -0.04854494
-0.014292164 -0.023595419 0.019266147 -0.024755688 -0.014336517 -0.033929467 -0.074047245 0.071664475
0.015455805 0.07242563 -0.013742426 -0.020374782 -0.07653371 -0.030644652 0.053644888 -0.08062069
-0.028591419 0.04943699 0.04667539 0.029352063 -0.016780324 -0.0056654136 -0.0145182 -0.029321013
0.03397347 -0.028155891 -0.044816405 0.019508187 -0.058156922 -0.017558672 0.04100843 0.0315681
0.07022495 -0.05524685 0.00030317585 -0.025830967 -0.044801988 -0.045523908 0.020943774 0.0077237994
-0.044060897 -0.05680266 -0.06613027 0.08052279 -0.014988481 -0.020680416 -0.028320419 -0.03893082
-0.07327245 -0.049127854 0.048476323 0.020350179 -0.026813189 -0.029682683 0.05112119 0.058017336
0.07884851 0.023316493 0.03880682 -0.0077023287 -0.04862081 -0.08004657 0.0493655 -0.012876882
0.031559937 0.0033911038 -0.075074054 -0.04002076 0.021601584 -0.018157918 -0.079662256 0.029973447
0.0030271146 -0.02760978 0.03200425 0.016808625 -0.028655572 0.07342558 0.039990403 0.009224713
-0.015534 -0.07006474 0.062585816 -0.02155591 -0.05276997 0.053342648 0.028655758 0.019908786
-0.01704249 -0.025862558 0.014742215 0.062854946 0.011009956 -0.03984811 0.08117838 0.0020619624
0.063442044 0.018438298 0.07220439 0.046159644 -0.040907312 0.05619748 -0.0006086288 -0.06681434
-0.017543908 -0.07265482 -0.04029951 -0.056906838 0.055631846 -0.018848231 -0.01635889 0.040826894
00000000: 4303 46bd 6b4a 13bd 1998 683d a880 ddbc
00000010: 99a4 79bd a4ea fd3c fd30 d03c fd8a 553d
00000020: 505f 2ebd b9a9 8c3c 3e22 eebc 63de 8dbc
00000030: 02fb 82bd b7e5 14bd c8f1 cfbc 9eb1 0a3d
00000040: 1626 723c 5aa5 ab3c 669e a73d 8850 a23d
00000050: 1f80 5c3d 33a4 023b 7201 65bd e37f 823d
00000060: aee8 afbc 0604 02bc 7ca4 91bd 6edc 86bc
00000070: 4c35 59bd c03c 973d 2a8e 93bd e603 83bd
00000080: 92b3 c5ba 960a 37bd 4cb5 e33c 597a 08bd
00000090: 34ba 1bbd 6b3a c23b 1cbb 6c3d bec5 72bd
000000a0: f5d9 113d 7548 583d 67b6 a43d 7098 6cbd
000000b0: a506 933c 4cac 81bd 551e 8f3d f2fa 00bd
000000c0: 6aad 433d d54c cb39 fced e8bb 70ef 11bb
000000d0: 5aaf 6d3c 5506 1d3d ddbd 403c 2dee c93c
000000e0: fba0 94bd 6e16 733d f7f0 8e3d 013a 873d
000000f0: d470 773d a4d9 6dbd 0406 01bd eb13 903d
00000100: 8662 81bd 3ab4 983d 3136 82bd 5654 71bd
00000110: 6473 1b3d 2dbc 75bd 72d8 96bc 14ab 713d
00000120: 6235 803d a027 993d e82a 97bc bf4e 81bd
00000130: 9ff6 a53d 8738 8abc 23fc 08bd 7b26 a73c
00000140: 742a 6cbd 239c 5b3d db81 4c3d e322 86bd
00000150: a5c2 86bd e04f dabb a1c9 0b3d 31a2 98bb
00000160: 6a4a 2dbd d49d e43a eae4 98bd 9c9e 6bbd
00000170: acc1 62bd ecdc 893d 544f 943d 838e d1bc
00000180: 9bd9 873b e349 113d 9b00 213c 548b 23bd
00000190: 4c11 3a3d eb74 493d 1eaa a5bb f5b1 3bbc
000001a0: 5e38 943d 15b3 903d 13d0 3abd 6284 a53d
000001b0: 3c95 983c 1504 67bd 2e65 343d 5873 72bd
000001c0: 5c50 9b3d ff1e 60bd b8f3 a83c 3ca5 bc3c
000001d0: c52b a93c edd2 8a3d de4b 11bd c5c1 19bd
000001e0: 9954 95bd ff44 65bb 6b5e 1fbd f468 c438
000001f0: 4326 a7bc ec83 d73c 57bf 903d fe82 bd3c
00000200: 679c e0bc 7408 2bbd 7905 90bd b759 8e3d
00000210: 1e5a 85bc 7579 723c 0dc6 913a 52c2 53bd
00000220: 4e98 3c3d 59a4 333d 6daf b93a 14fa 43bd
00000230: 8283 0abd dbfe c83a 9aba 48bd 0fd7 46bd
00000240: ae29 6abc 2e4b c1bc 0ad4 9d3c 71cc cabc
00000250: b6e3 6abc a0f9 0abd 15a6 97bd d3c4 923d
00000260: 583a 7d3c e453 943d ea27 61bc 04e9 a6bc
00000270: b5bd 9cbd 7e0a fbbc beba 5b3d 761c a5bd
00000280: 8d38 eabc 717e 4a3d b22e 3f3d bd73 f03c
00000290: e476 89bc efa4 b9bb bfdd 6dbc 9f32 f0bc
000002a0: c427 0b3d 2fa7 e6bc 6891 37bd a2cf 9f3c
000002b0: f435 6ebd 34d7 8fbc 75f8 273d 8d4d 013d
000002c0: 19d2 8f3d 854a 62bd 93f3 9e39 779b d3bc
000002d0: 4a82 37bd 4777 3abd 4792 ab3c ed17 fd3b
000002e0: 3379 34bd e8a9 68bd 4f6f 87bd 22e9 a43d
000002f0: 3f92 75bc fa69 a9bc 3900 e8bc ec75 1fbd
00000300: de0f 96bd 4a3a 49bd 1c8f 463d 6bb5 a63c
00000310: 55a7 dbbc 1929 f3bc 7464 513d 96a3 6d3d
00000320: 547b a13d 3b02 bf3c e6f3 1e3d d163 fcbb
00000330: 9d26 47bd 75ef a3bd 7b33 4a3d 8ff9 52bc
00000340: fe44 013d 483d 5e3b 6dc0 99bd cfec 23bd
00000350: cef5 b03c eabf 94bc f725 a3bd e08a f53c
00000360: 8e62 463b e82d e2bc e316 033d 3eb2 893c
00000370: 17bf eabc 2760 963d facc 233d 4023 173c
00000380: 5182 7ebc 1a7e 8fbd fe2c 803d 0596 b0bc
00000390: 5325 58bd d27d 5a3d 7bbf ea3c c017 a33c
000003a0: b19c 8bbc b7dd d3bc 5589 713c 18ba 803d
000003b0: 1a63 343c c637 23bd da40 a63d fd21 073b
000003c0: e7ed 813d ea0b 973c e5df 933d e511 3d3d
000003d0: 6d8e 27bd 542f 663d 638c 1fba f5d5 88bd
000003e0: 3eb8 8fbc 0dcc 94bd 1911 25bd 2517 69bd
000003f0: 38de 633d 9b67 9abc 1403 86bc 1a3a 273d

conv2.bias f4 [16]
-0.031299856 -0.05774252 0.004568788 0.028988896 0.06054605 -0.04459565 -0.009774914 -0.047315028
-0.057271037 -0.06501886 -0.05772396 -0.050014067 0.02476072 -0.013190913 0.050438635 0.062107515
00000000: 4734 00bd 6c83 6cbd c6b5 953b 1f7a ed3c
00000010: 23ff 773d eea9 36bd f626 20bc 67cd 41bd
00000020: 0995 6abd 9c28 85bd f66f 6cbd 8ddb 4cbd
00000030: fed6 ca3c b31e 58bc be98 4e3d 7364 7e3d

conv3.weight f4 [100, 16, 5, 5]
-0.03904303 0.010583805 0.028613374 -0.040510874 -0.013689203 0.035593897 -0.03475727 0.04468955
0.0038652385 0.009869235 0.041411486 -0.044507332 0.040409017 -0.045751236 0.024537547 -0.00017553262
0.04073507 -0.0022774816 -0.047967196 0.008463052 0.035896573 -0.008785955 -0.04723806 -0.004767547
0.0054733832 0.012319199 0.017212983 -0.0067474474 -0.0030172076 -0.009808962 0.020306613 0.012795772
0.019599782 -0.0058232946 -0.0029021662 0.038830098 0.008151338 -0.04644801 0.009771 0.048490297
-0.007541351 0.032657713 -0.03765121 -0.008050745 0.034780994 -0.024539338 -0.0123697 -0.0024944113
-0.007839713 -0.013150822 0.034622736 -0.009010321 -0.01361185 0.037478663 0.0110957 -0.023688575
0.030612625 -0.025416266 0.049523458 0.041814048 0.0047135176 0.014172582 -0.022318868 -0.038470425
-0.034911036 0.01677365 0.02438814 -0.003884841 -0.015837915 -0.016670803 -0.026026268 -0.03073924
0.030718835 -0.042532325 0.03611945 0.02799384 -0.014204719 -0.006328368 -0.014956233 -0.04148145
0.0047926516 -0.039053496 0.0029166455 -0.017247343 -0.04032527 -0.04522078 0.04438228 0.042811487
0.044821497 0.016864369 0.023589559 0.026489383 0.04056379 0.005952715 0.006499004 0.035252366
0.024800155 -0.029234394 0.030967304 0.050376847 -0.019199234 -0.04715098 -0.007061084 -0.03210054
0.049437776 -0.011894353 -0.025021773 0.03311638 0.017618624 0.014063367 0.0436514 -0.048711363
0.024694044 -0.02645741 0.017412603 -0.018400999 0.045669567 -0.011169168 0.0046033915 -0.03712951
0.03149902 -0.047350653 0.027669458 0.0359668 0.040373705 0.030498479 -0.016109766 0.010561733
0.013707327 -0.046748843 0.026903588 -0.041089315 0.019352404 0.048959523 -0.013569221 0.0068139983
0.046323244 0.042537674 0.041779246 -0.035080697 0.009763905 -0.04110094 0.010135062 -0.047944438
0.0056691696 0.026396483 -0.042061523 -0.004905247 -0.019391827 0.04293044 -0.0047964514 0.03219404
-0.03516163 0.006784754 0.035703264 0.003002217 -0.015931677 -0.019053906 0.03437205 0.021600569
0.0040292335 0.030961562 -0.026234657 -0.038004022 -0.008793725 0.03760893 -0.046543844 -0.024356037
0.012665738 0.020591183 0.027670227 0.01728008 -0.043575294 -0.016188182 0.03210091 0.008868401
0.027321363 0.03674857 0.02927963 -0.021498749 -0.023434069 -0.009706992 -0.001466268 -0.0036613902
-0.011298633 0.0063446206 0.028933497 -0.03429801 0.024660882 -0.051112413 0.0028642097 -0.047936007
0.04663361 -0.044252835 -0.02843195 0.03173867 0.025214339 0.038687423 0.013500712 -0.044472426
-0.035066474 0.03337847 -0.04960103 0.044979423 -0.008187059 0.008851365 -0.0037657015 -0.013422544
-0.013481167 0.014278694 -0.009967237 0.005594544 0.04272206 0.002277867 -0.04124092 -0.039980568
0.02989705 0.017909795 0.005596884 -0.026024796 -0.044123095 0.042604517 -0.047127515 -0.027910277
0.020409005 0.043210756 -0.017354872 -0.04855139 0.011353194 -0.0006504859 -0.0067963256 -0.04356487
0.03561363 0.007898452 0.015750997 0.031052433 0.045429677 -0.011505819 0.004885502 -0.030014198
-0.03630569 -0.022185706 0.00863441 -0.03204666 0.029622782 0.017441062 -0.016124295 0.023628296
0.03697728 -0.014913745 0.028227698 0.03167064 0.04716189 -0.035865504 0.040161815 0.00050016405
00000000: 96eb 1fbd b267 2d3c 9866 ea3c bbee 25bd
00000010: ae48 60bc e8ca 113d a45d 0ebd 640c 373d
00000020: f14f 7d3b 92b2 213c 179f 293d 524d 36bd
00000030: ed83 253d a665 3bbd f702 c93c 2e0f 38b9
00000040: d1d9 263d cd41 15bb 4079 44bd 9da8 0a3c
00000050: 4908 133d f7f2 0fbc b27c 41bd 1539 9cbb
00000060: 115a b33b 77d6 493c 3e02 8d3c b119 ddbb
00000070: 58bc 45bb c5b5 20bc 0e5a a63c 5ca5 513c
00000080: b98f a03c 56d1 bebb 4532 3ebb 4f0c 1f3d
00000090: 318d 053c 4540 3ebd 8b16 203c c39d 463d
000000a0: 701d f7bb 18c4 053d 2838 1abd 46e7 03bc
000000b0: 8476 0e3d b906 c9bc 48aa 4abc 4779 23bb
000000c0: 2472 00bc 8c76 57bc 92d0 0d3d 07a0 13bc
000000d0: 3d04 5fbc 3a83 193d bdca 353c 8b0e c2bc
000000e0: 54c7 fa3c c635 d0bc 1cd9 4a3d 3545 2b3d
000000f0: da73 9a3b 1e34 683c 0fd6 b6bc 2a93 1dbd
00000100: e0fe 0ebd e568 893c a3c9 c73c d198 7ebb
00000110: 84be 81bc 3591 88bc 0a35 d5bc dcd0 fbbc
00000120: 11a6 fb3c 6036 2ebd fdf1 133d 5653 e53c
00000130: e9ba 68bc 335e cfbb fd0a 75bc 74e8 29bd
00000140: ad0b 9d3b 8ff6 1fbd 3125 3f3b 4d4a 8dbc
00000150: 1c2c 25bd 6d39 39bd 32ca 353d 195b 2f3d
00000160: bf96 373d 2527 8a3c e43e c13c 4300 d93c
00000170: 3726 263d fe0e c33b 99f5 d43b c964 103d
00000180: b229 cb3c f87c efbc 25af fd3c f457 4e3d
00000190: b647 9dbc 6321 41bd aa60 e7bb db7b 03bd
000001a0: 447f 4a3d 88e0 42bc 76fa ccbc 0ba5 073d
000001b0: ef54 903c 096a 663c cfcb 323d 9185 47bd
000001c0: 2a4b ca3c 36bd d8bc e0a4 8e3c b1bd 96bc
000001d0: 0310 3b3d e3fe 36bc 0cd8 963b 1d15 18bd
000001e0: 1e05 013d c2f2 41bd 0fab e23c ec51 133d
000001f0: e65e 253d f2d7 f93c a1f8 83bc 1e0b 2d3c
00000200: b294 603c b77b 3fbd ea64 dc3c 454d 28bd
00000210: ef88 9e3c c889 483d 7051 5ebc f647 df3b
00000220: 71bd 3d3d fc3b 2e3d b720 2b3d c7b0 0fbd
00000230: c9f8 1f3c 7659 28bd 880d 263c 6361 44bd
00000240: 71c4 b93b 703d d83c b448 2cbd 32bc a0bb
00000250: 9cdb 9ebc d4d7 2f3d 8d2b 9dbb e6dd 033d
00000260: a405 10bd a452 de3b 963d 123d d8c0 443b
00000270: 2683 82bc f016 9cbc b5c9 0c3d adf3 b03c
00000280: a907 843b 1aa3 fd3c 10ea d6bc 1baa 1bbd
00000290: 8e13 10bc d20b 1a3d c2a4 3ebd 5086 c7bc
000002a0: f583 4f3c d7ae a83c acac e23c f48e 8d3c
000002b0: 027c 32bd 149d 84bc 3e7c 033d c54c 113c
000002c0: 0dd1 df3c ab85 163d d6db ef3c 251e b0bc
000002d0: cef8 bfbc 130a 1fbc ca2f c0ba eff3 6fbb
000002e0: e71d 39bc 89e6 cf3b f105 ed3c 127c 0cbd
000002f0: 9e05 ca3c 405b 51bd 77b5 3b3b 8c58 44bd
00000300: e202 3f3d 7642 35bd 1fea e8bc 6800 023d
00000310: 4d8e ce3c b476 1e3d 1732 5d3c b828 36bd
00000320: dda1 0fbd ddb7 083d 732a 4bbd 583c 383d
00000330: 0423 06bc 5105 113c fdc9 76bb 3bea 5bbc
00000340: 1de0 5cbc 2ff1 693c 9f4d 23bc 7052 b73b
00000350: 54fd 2e3d 4448 153b 3dec 28bd aac2 23bd
00000360: a8ea f43c 90b7 923c 1166 b73b f431 d5bc
00000370: 6bba 34bd 1382 2e3d c808 41bd 18a4 e4bc
00000380: c930 a73c c3fd 303d ce2b 8ebc d3dd 46bd
00000390: bf02 3a3c 5f85 2aba b6b3 debb 1471 32bd
000003a0: 99df 113d 8268 013c 3c08 813c ac61 fe3c
000003b0: 7814 3a3d e782 3cbc 9016 a03b 56e0 f5bc
000003c0: 46b5 14bd ccbe b5bc 5777 0d3c 5c43 03bd
000003d0: 7aab f23c 8fe0 8e3c 1917 84bc 2190 c13c
000003e0: 7d75 173d c858 74bc c63d e73c 13b9 013d
000003f0: d32c 413d b5e7 12bd b780 243d 711d 033a

conv3.bias f4 [100]
0.01990539 0.025931671 -0.0065451586 -0.010696851 0.03458546 0.019089973 0.042415533 0.0069736307
0.03505788 -0.0021042053 -0.017836638 -0.00897747 0.039973106 -0.045584347 -0.022770915 0.024345975
-0.022375263 0.024923282 -0.014176855 -0.022430489 -0.049900007 0.022572221 0.017549496 0.011763648
0.017379604 0.025244983 -0.047028586 0.016486473 -0.022785133 -0.041638948 0.029062666 -0.004541779
0.044665042 0.002023273 -0.042564463 -0.0034033698 0.04090574 -0.024458505 -0.04687617 0.027600234
0.0014831491 -0.04210471 -0.01939455 0.03951288 -0.030681718 0.010794152 0.04010268 0.027587853
-0.02959924 -0.042495616 -0.010096887 -0.005224979 0.04347526 -0.0071617425 0.01879279 0.015003675
-0.031339608 -0.016724063 -0.038078252 0.009562189 0.044154428 -0.04206091 0.0014444147 -0.026075186
0.037802465 0.0447109 -0.026285384 0.025237357 -0.0008677628 -0.049033955 -0.023270633 0.025220595
0.041982237 0.019424835 0.009158587 0.012935404 -0.0057286606 0.00619324 0.0042719077 -0.044201903
-0.034459855 0.03851199 -0.035332575 0.019751238 0.037537884 0.0031549707 -0.027422886 0.016171768
-0.03751782 0.00486213 0.047279693 -0.023316652 -0.043183107 0.03572223 -0.009098665 0.033159133
-0.0056548933 0.03940242 -0.038793124 -0.04245886
00000000: a110 a33c a86e d43c c578 d6bb d841 2fbc
00000010: 7ca9 0d3d 9362 9c3c e9bb 2d3d 0e83 e43b
00000020: da98 0f3d b5e6 09bb 241e 92bc 3d16 13bc
00000030: d7ba 233d a7b6 3abd 128a babc 3671 c73c
00000040: 544c b7bc e92b cc3c 0a46 68bc 25c0 b7bc
00000050: f363 4cbd 61e9 b83c f6c3 8f3c 51bc 403c
00000060: ac5f 8e3c 91ce ce3c 0ca1 40bd a40e 873c
00000070: e3a7 babc 9a8d 2abd d414 ee3c 34d3 94bb
00000080: b1f2 363d e398 043b 1358 2ebd 120b 5fbb
00000090: c78c 273d 345d c8bc 3a01 40bd e319 e23c
000000a0: 3a66 c23a fd75 2cbd 52e1 9ebc 42d8 213d
000000b0: 3a58 fbbc f4d9 303c b542 243d ecff e13c
000000c0: 1b7a f2bc e20f 2ebd 6a6d 25bc 4d36 abbb
000000d0: 1d13 323d 0dad eabb 56f3 993c f9d1 753c
000000e0: f65d 00bd e700 89bc f1f7 1bbd baaa 1c3c
000000f0: 46db 343d 1048 2cbd 8452 bd3a a19b d5bc
00000100: c2d6 1a3d c722 373d 7254 d7bc 93be ce3c
00000110: 937a 63ba d4d7 48bd 0ea2 bebc 6c9b ce3c
00000120: 91f5 2b3d d520 9f3c e60d 163c 04ef 533c
00000130: 7db7 bbbb aaf0 ca3b 5cfb 8b3b 0e0d 35bd
00000140: c725 0dbd c0be 1d3d e4b8 10bd 59cd a13c
00000150: 53c1 193d a0c3 4e3b f6a5 e0bc a87a 843c
00000160: 49ac 19bd 8152 9f3b 5aa8 413d 9002 bfbc
00000170: c5e0 30bd 7951 123d 9112 15bc dfd1 073d
00000180: af4c b9bb 6f64 213d 8ae5 1ebd 57e9 2dbd

fc1.weight f4 [84, 100]
-0.01327159 0.05462029 0.084169015 -0.08288405 -0.07816678 0.06464682 0.013344946 -0.061386686
-0.027790537 0.05775743 -0.047645185 0.035629347 0.052459575 0.011334869 -0.014479286 0.008666191
0.09161096 -0.024959784 -0.07914278 -0.06476277 0.07643571 0.0065086754 0.04041705 -0.0029601832
-0.05817952 0.0010562072 0.05203713 -0.09484335 -0.012544597 -0.07687372 0.07046538 0.06821198
-0.03111143 0.055626858 0.057199337 0.058445506 0.09879746 0.059878174 -0.0084637655 -0.0023734542
-0.07115299 0.010903188 0.07126146 -0.02527454 -0.032074485 0.008441583 0.039023496 0.00155108
-0.0060498416 0.0365552 -0.043628603 0.017750876 0.01562657 0.098269396 0.054497123 -0.09735139
-0.01808056 0.050295804 0.04782991 -0.0066490253 0.012360139 0.04098402 0.009145975 0.03546704
0.09662975 0.03241474 -0.008400439 -0.0088248495 0.06658727 0.066951916 -0.035257313 0.058978
0.0660802 0.028853076 -0.018467695 0.091211714 -0.03714235 -0.06810654 -0.028317975 0.08450156
-0.06995353 0.09736476 0.09496878 -0.057844188 -0.054600045 -0.048526287 0.039259475 -0.043610983
-0.06496592 0.09181553 0.00080105115 0.046486616 -0.04581867 0.015560225 0.07103209 0.082956545
-0.09828648 -0.012265784 -0.0053382968 0.05788584 0.03803164 0.06706577 0.02092322 0.09432631
-0.034178145 -0.050977655 0.07934057 -0.06615689 -0.015876483 -0.061479397 -0.013761223 0.08875778
0.09908276 -0.012214755 0.05367272 -0.022541229 0.058177862 -0.00050863466 0.07123488 0.0871113
0.071695924 -0.0699524 -0.05556996 0.082415625 -0.055384267 -0.012983922 -0.09798898 0.0031093592
-0.06937679 -0.055222336 0.075780705 0.0452966 -0.02094819 0.03613295 0.097857766 -0.027012778
-0.09891553 0.00778636 -0.09536359 -0.028968642 -0.08494734 0.014331981 -0.09943554 0.06586097
-0.007620976 -0.06124549 0.035958827 -0.02562949 0.059876192 0.07836206 0.07565638 0.045788184
-0.008434196 0.017689897 -0.0871136 -0.04440295 -0.069940224 0.0039046693 0.09036229 -0.008534447
0.0043085148 0.060272876 0.0984439 -0.04578882 0.015632585 -0.08268224 -0.0072608287 0.07085385
0.04831642 -0.0063978652 -0.055649813 0.004782933 -0.047251966 -0.04434131 0.08468894 0.042573914
-0.05907268 -0.09666308 -0.0010547929 -0.09193901 -0.07583444 0.09534112 0.029288657 -0.06944365
-0.0026344855 -0.08566875 0.051423144 0.06699273 -0.071227364 -0.020665132 0.05483433 -0.0723044
-0.013768069 -0.043625657 0.06035396 0.008259251 -0.002042711 0.041324202 -0.08574948 0.09168972
-0.09697227 0.058145568 -0.04180706 -0.059976898 0.07929019 -0.036571562 0.008859503 -0.0073122857
-0.057525877 -0.08577374 0.011565699 -0.015855473 -0.062232718 0.015695352 0.07659536 -0.04380475
-0.053189814 0.025591664 0.0017832485 -0.055148844 -0.084320456 0.038249567 8.423288e-05 -0.05711771
0.009143375 0.04982478 0.03499796 -0.024086708 0.05052396 0.0073745274 0.040979587 0.057595655
-0.072381005 0.09103791 0.00738203 -0.0901163 0.009718272 -0.089818336 -0.07859717 -0.03624741
-0.0070652617 0.014040878 0.0068896413 0.08893944 -0.039798584 -0.04260912 0.026824148 -0.08986487
-0.073375426 -0.022721572 -0.06282133 -0.093750484 -0.07167677 -0.05822259 0.05841911 -0.08728484
00000000: 1571 59bc 86b9 5f3d ce60 ac3d 1dbf a9bd
00000010: e815 a0bd 8d65 843d c3a4 5a3c 9b70 7bbd
00000020: fba8 e3bc 0e93 6c3d 9927 43bd 14f0 113d
00000030: dadf 563d e3b5 393c 873a 6dbc a4fc 0d3c
00000040: 879e bb3d 7678 ccbc 9c15 a2bd 58a2 84bd
00000050: 538a 9c3d ba46 d53b 598c 253d a2ff 41bb
00000060: a64d 6ebd 6f70 8a3a e324 553d 3b3d c2bd
00000070: da87 4dbc f86f 9dbd 2750 903d b9b2 8b3d
00000080: 66dd febc fdd8 633d da49 6a3d 8e64 6f3d
00000090: 5356 ca3d d142 753d 9bab 0abc f48b 1bbb
000000a0: a9b8 91bd 49a3 323c 87f1 913d 8d0c cfbc
000000b0: 8960 03bd 914e 0a3c 1ad7 1f3d 9c4d cb3a
000000c0: c03d c6bb e8ba 153d e8b3 32bd 496a 913c
000000d0: 4b03 803c 7741 c93d 6038 5f3d 2a60 c7bd
000000e0: af1d 94bc f902 4e3d 4ce9 433d 11e0 d9bb
000000f0: 2e82 4a3c dcde 273d 00d9 153c e345 113d
00000100: d2e5 c53d 52c5 043d ffa1 09bc 1a96 10bc
00000110: e85e 883d 161e 893d f969 10bd ea92 713d
00000120: 0e55 873d 495d ec3c 9049 97bc 35cd ba3d
00000130: 9422 18bd 717b 8bbd 19fb e7bc 270f ad3d
00000140: cc43 8fbd 2d67 c73d fe7e c23d 07ee 6cbd
00000150: 4ca4 5fbd 80c3 46bd 8bce 203d 6ea1 32bd
00000160: da0c 85bd c809 bc3d a2fd 513a c068 3e3d
00000170: 5cac 3bbd 50f0 7e3c 4679 913d 1fe5 a93d
00000180: 6c4a c9bd 6df6 48bc e1ec aebb b419 6d3d
00000190: 11c7 1b3d c759 893d 2c67 ab3c 272e c13d
000001a0: 62fe 0bbd f2cd 50bd 4f7d a23d 437d 87bd
000001b0: 660f 82bc d2d1 7bbd c176 61bc a4c6 b53d
000001c0: e7eb ca3d 6520 48bc edd7 5b3d 62a8 b8bc
000001d0: e94b 6e3d e555 05ba 98e3 913d 6967 b23d
000001e0: 50d5 923d 3443 8fbd 549d 63bd 86c9 a83d
000001f0: 9dda 62bd 84ba 54bc 72ae c8bd 64c6 4b3b
00000200: 6b15 8ebd d130 62bd ea32 9b3d ed88 393d
00000210: 8a9b abbc 2500 143d a769 c83d e749 ddbc
00000220: 3a94 cabd b924 ff3b fc4d c3bd a54f edbc
00000230: dff8 adbd afd0 6a3c dca4 cbbd 1ee2 863d
00000240: 61b9 f9bb 8ddc 7abd 9049 133d f0f4 d1bc
00000250: bd40 753d 4a7c a03d bbf1 9a3d 648c 3b3d
00000260: 952f 0abc 67ea 903c 9d68 b2bd dedf 35bd
00000270: d23c 8fbd 7be5 7f3b dd0f b93d 11d4 0bbc
00000280: 712e 8d3b b1e0 763d f59c c93d 0f8d 3bbd
00000290: e80f 803c 4e55 a9bd 3fec edbb d31b 913d
000002a0: 70e7 453d 2fa5 d1bb 0ff1 63bd 26ba 9c3b
000002b0: 478b 41bd 3c9f 35bd 6571 ad3d fc61 2e3d
000002c0: 32f6 71bd 4bf7 c5bd fa40 8aba 854a bcbd
000002d0: 164f 9bbd 3542 c33d c4ee ef3c 7938 8ebd
000002e0: 55a7 2cbb 1973 afbd 13a1 523d 7c33 893d
000002f0: a7df 91bd ec49 a9bc f699 603d 5414 94bd
00000300: 7893 61bc d1b0 32bd b735 773d cf51 073c
00000310: 01df 05bb 9143 293d 6c9d afbd d2c7 bb3d
00000320: 6699 c6bd 0c2a 6e3d e13d 2bbd 56aa 75bd
00000330: e562 a23d 10cc 15bd 7327 113c e69b efbb
00000340: 41a0 6bbd 25aa afbd 0f7e 3d3c 56e3 81bc
00000350: bce7 7ebd 8a93 803c 07de 9c3d 9c6c 33bd
00000360: 90dd 59bd 9ca5 d13c e4bb e93a c1e3 61bd
00000370: 34b0 acbd 94ab 1c3d 2fa6 b038 43f4 69bd
00000380: 18ce 153c 1215 4c3d 055a 0f3d 7d51 c5bc
00000390: 36f2 4e3d 05a6 f13b 36da 273d 6ce9 6b3d
000003a0: 7e3c 94bd 1572 ba3d f5e4 f13b e58e b8bd
000003b0: 6339 1f3c adf2 b7bd 8ef7 a0bd 2a78 14bd
000003c0: b683 e7bb b60b 663c 80c2 e13b e225 b63d
000003d0: d703 23bd e786 2ebd 51be db3c 130b b8bd
000003e0: db45 96bd 9722 babc 78a8 80bd 4100 c0bd
000003f0: 45cb 92bd cf7a 6ebd e048 6f3d 65c2 b2bd

fc1.bias f4 [84]
0.032477867 0.08916174 -0.04969978 0.03020184 -0.0029124117 -0.06502839 -0.004738827 -0.067173675
0.048606884 0.08862595 -0.0956949 -0.09666738 0.016387781 0.06391427 -0.00054080837 -0.073082164
-0.034049604 -0.0933848 0.01629095 0.062795945 0.06743615 -0.067007504 0.10087666 0.024559246
-0.033463355 0.060616087 -0.0784295 -0.033720214 0.08167627 0.022468265 -0.048131835 -0.0760314
-0.07428871 -0.05404564 -0.04559349 -0.010049225 0.046509057 0.07525916 -0.00080975983 0.07457087
0.07801642 0.041296877 0.06658099 -0.032373816 0.021895709 0.041542053 -0.0271891 -0.09680228
-0.07917062 -0.06570707 -0.009935293 -0.03782937 0.068412386 -0.060257316 0.07858511 0.06106497
-0.0744938 -0.05006926 0.021480557 0.008043209 -0.0693854 0.0057895803 -0.0007597305 -0.011453213
0.05735786 0.030697465 -0.004952909 0.06152991 0.06085262 -0.04910538 -0.09575142 -0.062037595
0.042452045 0.008894872 0.061149586 -0.026528236 0.09510372 -0.03469459 -0.007803928 -0.07654585
-0.071392715 0.031397622 0.0818378 -0.09920345
00000000: 8307 053d 6e9a b63d ff91 4bbd d969 f73c
00000010: 29de 3ebb 9b2d 85bd 2948 9bbb 5a92 89bd
00000020: 0318 473d 8681 b53d b0fb c3bd 8cf9 c5bd
00000030: ab3f 863c 7ce5 823d 09c5 0dba 1aac 95bd
00000040: 9977 0bbd 8840 bfbd 9974 853c 299b 803d
00000050: f71b 8a3d 3b3b 89bd 6c98 ce3d 7930 c93c
00000060: df10 09bd 9348 783d a59f a0bd 351e 0abd
00000070: e345 a73d 5e0f b83c e325 45bd 5ab6 9bbd
00000080: ae24 98bd f65e 5dbd 3dc0 3abd 81a5 24bc
00000090: 4880 3e3d 7921 9a3d 1046 54ba 9db8 983d
000000a0: 13c7 9f3d ea26 293d 9d5b 883d 689a 04bd
000000b0: a15e b33c 0028 2a3d adbb debc 4640 c6bd
000000c0: 3524 a2bd 6e91 86bd a4c7 22bc f8f2 1abd
000000d0: cb1b 8c3d 60d0 76bd 3bf1 a03d 431f 7a3d
000000e0: 3590 98bd 6d15 4dbd fef7 af3c aac7 033c
000000f0: ef19 8ebd 85b6 bd3b a728 47ba 42a6 3bbc
00000100: 13f0 6a3d 4079 fb3c 034c a2bb c906 7c3d
00000110: 9940 793d b922 49bd 5219 c4bd 221b 7ebd
00000120: 32e2 2d3d ccbb 113c fd77 7a3d be51 d9bc
00000130: bdc5 c23d ea1b 0ebd 18b8 ffbb 12c4 9cbd
00000140: 5836 92bd cb9a 003d 949a a73d 2e2b cbbd

fc2.weight f4 [10, 84]
0.05300285 -0.094908416 0.07210849 -0.07917805 0.06283225 -0.061941765 -0.050280374 -0.021489965
-0.03999372 0.102458894 0.018071081 0.021397533 -0.04429446 0.08020453 -0.0003560048 -0.08104926
0.078330435 -0.07948849 0.06131376 -0.03630968 0.05813545 0.019173339 0.068071574 0.09674036
-0.03402494 0.031541925 0.019697942 -0.09704497 0.059912976 0.016972652 0.0033513554 -0.014222851
-0.046244 -0.049294606 0.05391777 0.1047835 -0.057063583 -0.04058017 -0.0058356724 -0.09237511
0.0064787343 -0.0921195 0.019280523 0.076952636 0.07528003 -0.0046676695 0.10437605 0.054712035
-0.015841153 0.057093486 -0.060069557 -0.0013153072 0.066413745 0.02574037 0.0265563 -0.08777437
-0.06622437 -0.08964916 -0.07327747 0.025619997 0.0037478227 -0.007742611 -0.053927872 0.08614128
-0.106286846 -0.003241684 0.08982549 0.013460726 0.094414815 -0.045245208 0.037655488 0.042010088
0.108456396 -0.006165321 -0.103313245 -0.101645134 0.0643103 -0.057106853 -0.09222233 -0.028498268
-0.00891298 0.060415465 0.09465899 0.012486337 0.009585239 0.003282631 0.042929966 0.016001195
0.086232744 -0.032319315 -0.049568407 0.015881252 0.033915505 0.012859361 0.038639426 -0.047410607
0.02648862 -0.049139038 -0.002731534 -0.07452017 0.039105494 -0.11350356 0.027003175 -0.026691925
-0.01483336 -0.09230269 -0.046702653 0.0557715 -0.0913606 0.074684195 -0.0590989 -0.009851684
-0.0156441 0.023449492 0.0045850296 -0.010387767 0.01666404 0.003616965 0.07755193 -0.011265903
0.09292836 0.053576816 -0.01778329 -0.07659636 -0.09032722 0.1000282 0.06726212 -0.09846748
-0.0045336825 0.052945867 0.103180654 -0.00902062 -0.005844811 0.09697387 -0.04967251 0.08608128
0.05094812 0.043553844 -0.054631546 -0.026597248 -0.0705343 0.08741273 -0.0794646 0.061310135
-0.02111629 -0.013093486 0.0298684 -0.013811612 0.09014695 -0.017879285 -0.014442667 -0.09540041
0.09602968 -0.07635428 0.056689363 0.055051155 -0.085899316 0.07260953 0.02627213 0.008370445
-0.031196387 -0.00033426905 -0.0052722627 -0.06575485 0.081644386 0.1051655 0.1008416 0.054465648
-0.010174581 0.0869051 0.061629713 -0.096246034 -0.018118175 -0.090527214 -0.081843495 -0.065315545
-0.10613449 0.06769036 0.015901513 -0.04626767 -0.04845069 0.04974338 -0.100359194 -0.0072199963
-0.0018805484 -0.058470976 -0.04709374 0.10411031 0.09461333 -8.2633436e-05 -0.074379176 0.09476703
0.04103599 0.07015112 0.013169889 0.011916844 -0.048031323 -0.10496679 0.04663366 0.007983529
-0.0039895475 0.09265296 -0.022641353 -0.023478754 -0.06186326 0.02764007 0.024357278 -0.07181797
0.08855154 0.08043557 0.025007496 -0.0037171636 0.074855104 0.022614552 0.0017286445 -0.05292952
0.056810066 0.024782784 0.021971837 -0.008994909 0.019269688 0.092405096 0.051609587 0.0917804
-0.05289623 -0.069445476 -0.03213769 0.045770824 -0.06765984 -0.045239177 -0.032211754 0.068534225
-0.0070922473 -0.043131176 -0.023528887 -0.08066559 0.028331585 -0.03244552 0.098475136 -0.033700038
0.03929852 0.028841505 0.024438234 0.040323365 -0.07640142 0.029050604 0.030975694 -0.006743169
-0.072560795 -0.06462828 0.09277773 -0.015863916 0.0715153 0.07453366 0.05178535 -0.003535693
00000000: 8419 593d 585f c2bd 9ead 933d 1a28 a2bd
00000010: 32ae 803d a6b6 7dbd cbf2 4dbd b90b b0bc
00000020: 74d0 23bd f8d5 d13d ce09 943c e149 af3c
00000030: 1c6e 35bd 4642 a43d 28a6 bab9 28fd a5bd
00000040: b56b a03d ddca a2bd 2324 7b3d 76b9 14bd
00000050: 701f 6e3d 6811 9d3c 1c69 8b3d cf1f c63d
00000060: bc5d 0bbd 1b32 013d 945d a13c 83bf c6bd
00000070: 4f67 753d 3b0a 8b3c 6aa2 5b3b f606 69bc
00000080: 596a 3dbd 24e9 49bd e1d8 5c3d bb98 d63d
00000090: 81bb 69bd 6437 26bd 2b39 bfbb 292f bdbd
000000a0: 904b d43b 26a9 bcbd 30f2 9d3c 5899 9d3d
000000b0: 6b2c 9a3d 40f3 98bb 1cc3 d53d ba19 603d
000000c0: 4ec5 81bc dcda 693d 7f0b 76bd 6366 acba
000000d0: ee03 883d 78dd d23c 998c d93c 0dc3 b3bd
000000e0: a4a0 87bd fb99 b7bd 8012 96bd 07e1 d13c
000000f0: 089e 753b bbb5 fdbb 79e3 5cbd d76a b03d
00000100: ebac d9bd 6f72 54bb 6df6 b73d 608a 5c3c
00000110: 8e5c c13d 0a53 39bd a43c 1a3d c512 2c3d
00000120: 631e de3d 7606 cabb e595 d3bd 532b d0bd
00000130: 1eb5 833d e0e8 69bd 10df bcbd 3375 e9bc
00000140: bf07 12bc 3576 773d 93dc c13d 7e93 4c3c
00000150: 680b 1d3c 6921 573b 55d7 2f3d f014 833c
00000160: cb9a b03d 4261 04bd 3e08 4bbd 6619 823c
00000170: fcea 0a3d 12b0 523c 6044 1e3d a031 42bd
00000180: aafe d83c 0446 49bd 8903 33bb 089e 98bd
00000190: 152d 203d 8e74 e8bd c335 dd3c 06a9 dabc
000001a0: 9f07 73bc 3109 bdbd 484b 3fbd a870 643d
000001b0: 441b bbbd 07f4 983d b011 72bd f568 21bc
000001c0: 0e28 80bc 2619 c03c 043e 963b 7431 2abc
000001d0: 0683 883c 9a0a 6d3b 8cd3 9e3d 9f94 38bc
000001e0: 3951 be3d 5d73 5b3d 43ae 91bc 8dde 9cbd
000001f0: 7afd b8bd 96db cc3d b9c0 893d 51a9 c9bd
00000200: 498f 94bb c4dd 583d 6150 d33d 39cb 13bc
00000210: d485 bfbb 3d9a c63d 6775 4bbd 624b b03d
00000220: faae 503d 8465 323d 54c5 5fbd 79e2 d9bc
00000230: 4974 90bd 7205 b33d 56be a2bd 5620 7b3d
00000240: 12fc acbc 1086 56bc 93ae f43c 194a 62bc
00000250: f79e b83d 9477 92bc f0a0 6cbc 4a61 c3bd
00000260: 35ab c43d a25f 9cbd 1b33 683d 527d 613d
00000270: fbeb afbd 4eb4 943d a638 d73c 3124 093c
00000280: 918f ffbc d540 afb9 f2c2 acbb 7baa 86bd
00000290: 2c35 a73d 0261 d73d 0a86 ce3d 5f17 5f3d
000002a0: 49b3 26bc 4dfb b13d 706f 7c3d a41c c5bd
000002b0: 916c 94bc 5566 b9bd 909d a7bd 28c4 85bd
000002c0: 0a5d d9bd 3ea1 8a3d e443 823c 2b83 3dbd
000002d0: 3b74 46bd b7bf 4b3d 1f89 cdbd b895 ecbb
000002e0: bc7c f6ba 437f 6fbd 5ee5 40bd c937 d53d
000002f0: a2c4 c13d 7d4b adb8 1c54 98bd 3715 c23d
00000300: 5b15 283d 64ab 8f3d 85c6 573c de3e 433c
00000310: 7ebc 44bd d4f8 d6bd f002 3f3d 59cd 023c
00000320: c0ba 82bb d6c0 bd3d 5c7a b9bc 8456 c0bc
00000330: 5464 7dbd 6e6d e23c ea88 c73c 4d15 93bd
00000340: 835a b53d 67bb a43d 85dc cc3c a89b 73bb
00000350: a24d 993d 2742 b93c af93 e23a a0cc 58bd
00000360: acb1 683d 4405 cb3c 48fe b33c 625f 13bc
00000370: 77db 9d3c e23e bd3d 9364 533d 5df7 bb3d
00000380: b8a9 58bd 6e39 8ebd cfa2 03bd 307a 3b3d
00000390: 3e91 8abd b74c 39bd 79f0 03bd ac5b 8c3d
000003a0: 1566 e8bb 51aa 30bd a7bf c0bc 0034 a5bd
000003b0: a417 e83c 98e5 04bd 55ad c93d 0d09 0abd
000003c0: 7cf7 203d 0545 ec3c b132 c83c 1d2a 253d
000003d0: 5978 9cbd 88fb ed3c bdc0 fd3c cdf5 dcbb
000003e0: c19a 94bd d55b 84bd 4002 be3d 0bf5 81bc
000003f0: 9d76 923d 1ba5 983d e01c 543d 16b7 67bb

fc2.bias f4 [10]
-0.031394906 0.044594303 0.02738918 0.0036556106 -0.048130594 -0.0114951255 -0.05302548 -0.025877815
-0.068369746 -0.048369758
00000000: f297 00bd 84a8 363d 465f e03c f892 6f3b
00000010: 9624 45bd 0d56 3cbc 3f31 59bd b6fd d3bc
00000020: 7005 8cbd 5e1f 46bd
