mnist_randlenet_w_acc_97.pt (torch_old, 209599 bytes, 10 tensors)

conv1.weight f4 [6, 1, 5, 5]
-0.020258956 -0.17234403 -0.19986562 -0.29247716 -0.2418122 0.24383242 0.2331505 -0.015867824
-0.0907813 -0.023605129 -0.05934097 0.29229164 0.2930087 0.3786861 -0.037534993 -0.10990351
0.13697055 0.42915952 0.32136026 0.27016628 -0.2652971 -0.23816879 -0.54598516 -0.2755497
-0.00041463436 -0.28632236 0.17995325 0.044483583 -0.4162524 -0.07407649 0.06270587 0.3571025
0.14627388 -0.117711596 -0.46940687 -0.060500197 0.4938484 -0.258146 0.05457587 -0.08365524
0.29195562 -0.06533938 0.2149749 0.24852487 -0.048028298 0.2947968 0.25502154 -0.18568261
-0.4877653 -0.016353529 -0.4247184 -0.3929004 -0.12004041 -0.09719417 0.32499123 -0.3217909
-0.064861685 0.20244142 0.2349027 0.08286087 -0.066690885 0.31350255 0.24301301 0.11141442
-0.24394712 0.17655945 0.023803016 -0.03241286 -0.22257847 -0.33204272 0.122993514 -0.07712925
0.0013497442 -0.18907282 -0.06688761 0.13977455 0.16059104 0.101070575 0.12873541 -0.043033943
-0.55327475 -0.07436154 0.012819936 0.12662826 0.0992329 -0.39082628 -0.47435653 -0.14186358
0.044397373 0.16845503 -0.09352108 -0.45056465 -0.6294931 -0.47440174 -0.17510259 0.21661429
0.2983569 0.17130218 -0.10553293 -0.20466265 -0.03441792 -0.10524659 -0.027915636 0.44589734
-0.22633745 0.22600223 0.1281426 0.066614516 0.4874215 0.24121627 0.39521644 0.28349498
0.010744784 -0.07824294 0.15412113 0.53144234 0.26580238 0.18636075 -0.024189955 -0.07454975
0.019306486 -0.23703428 0.130159 -0.15149193 -0.14080751 -0.10223983 -0.5174472 0.07442794
0.27818716 0.24598302 -0.27353293 -0.04889955 0.19984318 0.11835422 0.501544 0.18780151
0.154161 -0.030962499 0.27673784 -0.17623946 -0.17258438 0.13827449 -0.17581803 0.32028618
0.02993688 -0.23614496 0.004337626 0.25707301 0.4249863 0.26064882
00000000: 1cf6 a5bc f47a 30be 93a9 4cbe 91bf 95be
00000010: 9e9d 77be 35af 793e 01bf 6e3e 3dfd 81bc
00000020: 8ceb b9bd 8b5f c1bc 840f 73bd 40a7 953e
00000030: 3c05 963e 25e3 c13e 4bbe 19bd 1715 e1bd
00000040: 0242 0c3e ccba db3e 5589 a43e 3c53 8a3e
00000050: 06d5 87be 85e2 73be afc5 0bbf da14 8dbe
00000060: 4863 d9b9 d898 92be aa45 383e 6b34 363d
00000070: 091f d5be 6ab5 97bd ef6b 803d 24d6 b63e
00000080: d2c8 153e c712 f1bd 1956 f0be 0ecf 77bd
00000090: b3d9 fc3e b62b 84be f38a 5f3d 7053 abbd
000000a0: 357b 953e a7d0 85bd 6122 5c3e 4e7d 7e3e
000000b0: 52b9 44bd 9bef 963e 2f92 823e 9523 3ebe
000000c0: 60bc f9be d6f7 85bc b174 d9be 3e2a c9be
000000d0: bfd7 f5bd bd0d c7bd 4065 a63e c7c1 a4be
000000e0: 34d6 84bd ce4c 4f3e 558a 703e f6b2 a93d
000000f0: 3b95 88bd 6883 a03e 67d8 783e 3e2d e43d
00000100: 46cd 79be 00cc 343e 8bfe c23c 59c3 04bd
00000110: 9ceb 63be 8101 aabe 06e4 fb3d f1f5 9dbd
00000120: e6e9 b03a 4e9c 41be 5ffc 88bd 0f21 0f3e
00000130: fa71 243e 17fe ce3d 37d3 033e 5c44 30bd
00000140: 6aa3 0dbf dd4a 98bd b50a 523c d7aa 013e
00000150: 9e3a cb3d 621a c8be dcde f2be b044 11be
00000160: 05da 353d 7a7f 2c3e fb87 bfbd 69b0 e6be
00000170: 7626 21bf c9e4 f2be 184e 33be 23d0 5d3e
00000180: 3cc2 983e d769 2f3e a621 d8bd 1693 51be
00000190: cef9 0cbd 868b d7bd 55af e4bc a84c e43e
000001a0: 01c5 67be 216d 673e d037 033e 316d 883d
000001b0: 508f f93e 6601 773e cf59 ca3e 4126 913e
000001c0: e40a 303c d63d a0bd eed1 1d3e 9b0c 083f
000001d0: 4017 883e 5ad5 3e3e 032a c6bc 8aad 98bd
000001e0: a328 9e3c 1db9 72be 6748 053e b320 1bbe
000001f0: d82f 10be 1e63 d1bd 6b77 04bf ad6d 983d
00000200: 8c6e 8e3e f9e2 7b3e 820c 8cbe e54a 48bd
00000210: b1a3 4c3e b363 f23d 3065 003f 0a4f 403e
00000220: 62dc 1d3e 11a5 fdbc 95b0 8d3e 1e78 34be
00000230: f6b9 30be d497 0d3e a409 34be 8dfc a33e
00000240: 303e f53c fccf 71be a522 8e3b 139f 833e
00000250: ce97 d93e c373 853e

conv1.bias f4 [6]
-1.6138388 0.36007145 -0.75614786 -0.600338 -0.41428092 -0.18541385
00000000: 4592 cebf 495b b83e e892 41bf c0af 19bf
00000010: a11c d4be 21dd 3dbe

conv2.weight f4 [16, 6, 5, 5]
-0.00082439027 0.08582251 0.015820513 -0.0651908 0.10594207 0.2024935 0.18604462 -0.06458824
-0.12947677 -0.02283039 0.06857937 0.015405604 -0.22851188 -0.11967844 -0.29637298 -0.06560805
-0.29347205 -0.08466767 0.16162637 0.23804852 0.04667868 -0.1800974 0.02273923 0.23228425
0.054323874 -0.116617665 0.05909621 -0.062069952 -0.049406692 -0.16871288 -0.020948516 -0.237314
-0.054952115 -0.029187007 -0.10789541 -0.17869551 -0.06714792 -0.12802143 -0.20048492 -0.18323448
0.0341754 0.057482824 0.072039634 -0.054412592 0.15753093 -0.020626402 0.11735939 0.056054547
0.03319209 -0.029926427 0.12317854 -0.024280349 0.25685674 0.17678489 0.15791479 -0.0050831465
-0.1728244 0.05365918 0.15133224 0.26133296 -0.023027085 -0.09858003 0.1918237 0.15611458
0.22106424 0.037505277 0.32752204 0.11729267 0.07789197 -0.10600797 0.08641656 0.07544395
0.019442834 0.0875464 -0.059854366 0.07402114 0.26376972 0.14352265 -0.09681902 -0.07378744
0.22053133 0.21370022 -0.028807968 -0.14304653 -0.4026237 0.02249647 -0.288244 -0.38196024
-0.29522777 -0.28685123 -0.21606797 -0.5235658 -0.38309884 -0.016039733 0.4623098 -0.27084643
0.033215463 0.052401617 0.1375671 0.23648462 0.1358966 0.18245086 0.005901988 -0.073352344
-0.19334812 0.15271768 -0.107053146 0.1660223 0.12857296 -0.03244258 0.043602407 -0.054049462
0.017160531 0.07223518 0.08589793 0.020843849 -0.13444321 0.075140566 -0.008073036 -0.04135412
-0.1721348 -0.030863881 -0.015907105 0.006177694 -0.036054455 0.09255319 0.087380536 0.033038925
0.032826275 0.2621888 0.0652491 -0.07997008 0.14562103 0.046405073 -0.13386707 -0.21689633
0.06716232 -0.1455274 -0.2182486 -0.123310335 0.05374203 -0.04275936 0.013993377 -0.109332584
0.05903966 -0.1089164 -0.21804976 0.00011294808 0.083505794 0.023849599 0.05409575 0.048862062
0.17261031 0.31079215 0.21299969 0.017668871 0.06947601 0.07667274 0.2902928 -0.059653357
0.051027525 0.049060874 0.17413196 0.09475512 -0.019355008 0.22672787 0.16903445 -0.09079217
-0.12339244 -0.16133213 0.32512438 0.17619033 0.09485568 -0.032527827 -0.080611765 0.15367657
0.15294047 -0.036389533 -0.065652825 0.1590387 -0.12780918 0.0133509245 0.03518717 0.0773939
0.053612113 0.024690563 -0.24966787 -0.10695148 -0.11362118 -0.026096128 0.02662302 -0.052838117
-0.15544479 -0.0027549479 -0.03879797 0.180033 0.12483805 -0.0066347574 0.045206208 -0.033402916
0.15650147 0.051042773 0.03687993 0.11175709 0.15154883 0.07754592 -0.027381066 0.016368423
0.02324929 0.06118723 -0.035985485 0.04110427 0.10140352 0.059610352 -0.024172725 0.19197774
0.04071641 -0.09395955 0.12542762 -0.045039352 -0.051407494 -0.0060491837 -0.07313712 0.29766625
0.2547432 0.04724686 -0.0062552555 -0.06359933 -0.07962536 0.10372566 0.16328725 0.16489924
0.08634027 0.07752166 0.059064455 0.23849931 0.04207201 -0.047084056 0.03536103 -0.18487874
0.28190902 0.14977556 0.119714566 -0.07586194 -0.43388036 0.17362772 0.14705792 0.10991054
0.03525087 -0.169968 -0.19024749 0.08642154 -0.04129775 -0.08839778 0.09938061 -0.10186736
00000000: e51b 58ba b6c3 af3d 059a 813c c182 85bd
00000010: 28f8 d83d 755a 4f3e 7b82 3e3e d746 84bd
00000020: 8f95 04be cc06 bbbc 5773 8c3d c967 7c3c
00000030: 05ff 69be f819 f5bd 33be 97be 835d 86bd
00000040: f841 96be 3e66 adbd 6281 253e fec2 733e
00000050: 2532 3f3d 746b 38be 9f47 ba3c ecdb 6d3e
00000060: b682 5e3d 3ed5 eebd de0e 723d 103d 7ebd
00000070: ac5e 4abd 12c3 2cbe 399c abbc 7102 73be
00000080: 7815 61bd 9719 efbc 45f8 dcbd f5fb 36be
00000090: d984 89bd 0d18 03be eb4b 4dbe d2a1 3bbe
000000a0: 81fb 0b3d 1c73 6b3d 8489 933d bddf 5ebd
000000b0: ca4f 213e b3f8 a8bc 1f5a f03d 7499 653d
000000c0: 6ef4 073d 4428 f5bc 0845 fc3d 95e7 c6bc
000000d0: ba82 833e 1907 353e 6ab4 213e 8690 a6bb
000000e0: e1f8 30be bac9 5b3d d7f6 1a3e 6fcd 853e
000000f0: 4ca3 bcbc 54e4 c9bd 6f6d 443e 80dc 1f3e
00000100: aa5e 623e 229f 193d f8b0 a73e 2437 f03d
00000110: d385 9f3d b51a d9bd 2afb b03d 5c82 9a3d
00000120: 9446 9f3c 874b b33d da29 75bd 6598 973d
00000130: d30c 873e 9af7 123e 0d49 c6bd df1d 97bd
00000140: f7d2 613e 3bd4 5a3e b0fe ebbc ca7a 12be
00000150: b224 cebe 844a b83c b894 93be 4b90 c3be
00000160: 1828 97be 2ade 92be ec40 5dbe 6908 06bf
00000170: 8825 c4be c265 83bc dfb3 ec3e 62ac 8abe
00000180: f00c 083d 14a3 563d 64de 0c3e 0629 723e
00000190: 7a28 0b3e 66d4 3a3e 7765 c13b c139 96bd
000001a0: 0dfd 45be 0662 1c3e ae3e dbbd c001 2a3e
000001b0: a1a8 033e 83e2 04bd 7098 323d f862 5dbd
000001c0: 3e94 8c3c 0af0 933d 41eb af3d b8c0 aa3c
000001d0: 7bab 09be 4ce3 993d c444 04bc f062 29bd
000001e0: 1b44 30be 40d6 fcbc 9e4f 82bc 416e ca3b
000001f0: d6ad 13bd 878c bd3d 91f4 b23d d353 073d
00000200: d874 063d 9c3d 863e 52a1 853d 5ac7 a3bd
00000210: ae1d 153e 3f13 3e3d 7314 09be 121a 5ebe
00000220: 668c 893d 2205 15be 907c 5fbe 218a fcbd
00000230: 9a20 5c3d 7024 2fbd 7a44 653c c3e9 dfbd
00000240: 92d3 713d 900f dfbd 7048 5fbe 8ade ec38
00000250: 1605 ab3d 3c60 c33c 8193 5d3d 9623 483d
00000260: c2c0 303e 2620 9f3e 971c 5a3e 4fbe 903c
00000270: 7049 8e3d 9906 9d3d 42a1 943e 1457 74bd
00000280: 3d02 513d 0ef4 483d a64f 323e f90e c23d
00000290: 658e 9ebc 5a2b 683e 5e17 2d3e 3ff1 b9bd
000002a0: 2db5 fcbd 4034 25be b476 a63e 3d6b 343e
000002b0: b243 c23d e63b 05bd c817 a5bd 645d 1d3e
000002c0: 6d9c 1c3e 310d 15bd fd74 86bd 0adb 223e
000002d0: 69e0 02be d6bd 5a3c 6c20 103d b180 9e3d
000002e0: 6098 5b3d dd43 ca3c efa8 7fbe 6109 dbbd
000002f0: 39b2 e8bd 8cc7 d5bc 8518 da3c c86c 58bd
00000300: eb2c 1fbe 5b8c 34bb 9fea 1ebd 925a 383e
00000310: 17ab ff3d 6168 d9bb 252a 393d 7fd1 08bd
00000320: ec41 203e 3a12 513d 690f 173d e7e0 e43d
00000330: 9e2f 1b3e 65d0 9e3d 424e e0bc 1217 863c
00000340: 4c75 be3c 769f 7a3d 8465 13bd f35c 283d
00000350: a6ac cf3d fc29 743d e105 c6bc d095 443e
00000360: 40c6 263d dd6d c0bd 1970 003e 2f7b 38bd
00000370: aa90 52bd 3b38 c6bb eac8 95bd b667 983e
00000380: b36d 823e ec85 413d e3f8 ccbb 5e40 82bd
00000390: 9f12 a3bd 1e6e d43d c634 273e 59db 283e
000003a0: 2bd3 b03d adc3 9e3d 92ed 713d 2a39 743e
000003b0: b353 2c3d 36db 40bd bad6 103d da50 3dbe
000003c0: 6156 903e c45e 193e e92c f53d 815d 9bbd
000003d0: 9125 debe 77cb 313e 5a96 163e c718 e13d
000003e0: 3763 103d 170c 2ebe 3dd0 42be c7fd b03d
000003f0: d427 29bd e509 b5bd 1088 cb3d d69f d0bd

conv2.bias f4 [16]
-0.18690786 -0.11718875 -0.024214242 0.1612278 -0.14930686 -0.15394695 -0.036164563 -0.149217
-0.29213643 -0.13796788 -0.30536425 -0.18123454 0.008429995 -0.28360158 -0.22099072 -0.13230081
00000000: c664 3fbe a800 f0bd f25c c6bc e718 253e
00000010: e6e3 18be 45a4 1dbe 4b21 14bd 57cc 18be
00000020: e892 95be 7447 0dbe b458 9cbe 8c95 39be
00000030: f61d 0a3c 3a34 91be 644b 62be dd79 07be

conv3.weight f4 [100, 16, 5, 5]
0.03511314 -0.04413715 0.13422458 -0.021342121 0.03740326 0.029734556 -0.08585278 -0.14268757
-0.19190119 -0.04785127 -0.024020951 -0.11142527 -0.06174619 -0.0064281784 0.07327736 0.07000483
0.09087966 0.09370131 0.03314229 0.052765027 -0.004962746 -0.04347307 -0.14229105 -0.096993074
-0.11590586 0.04201965 0.07315578 0.04834437 -0.12361198 -0.020787576 -0.12414392 0.09691222
-0.08233684 0.108949505 0.12606314 0.02946664 0.03638576 0.20468678 -0.025335068 -0.004758643
-0.07379096 0.08939391 -0.21850501 -0.07018987 0.038300827 0.038978726 0.09829967 0.08984016
-0.019820537 0.019086737 0.035454392 -0.07654257 -0.06442809 -0.0052194917 -0.00035870034 -0.2215345
-0.14137283 -0.10634452 -0.041505706 0.28745887 -0.21777062 -0.20445283 -0.010154444 -0.019360809
0.033114143 0.0033995123 -0.017001947 -0.04064004 -0.076583825 -0.004651947 0.16486858 0.13756
0.07510407 0.16952318 0.029289594 -0.04250472 -0.05367803 -0.103115186 -0.061020635 0.0063420665
-0.058349557 0.068389155 -0.1830757 -0.040954314 0.068910375 -0.05205892 0.15695605 -0.09708535
0.018977366 -0.046518337 -0.013656858 -0.0042838803 0.17417943 -0.096459605 0.14067753 -0.039373588
-0.097851776 0.005036257 -0.041979704 0.05234138 -0.06012106 0.030410064 0.007712813 0.072437726
-0.1256348 -0.0014270674 0.12470786 -0.08174248 0.109549016 -0.060714383 0.16379847 0.10273381
0.13431467 -0.07830127 -0.015120437 0.171839 0.28828067 0.008414183 0.15370618 0.15409431
0.21005714 -0.1017021 0.0073937536 -0.24466665 -0.02388322 -0.031440787 -0.059760198 -0.08598856
-0.024892306 -0.031118996 0.05629684 0.018251613 0.0374153 -0.093376376 -0.14013153 -0.0018767642
0.12299048 0.012989821 -0.106394276 -0.08913915 -0.054988503 -0.09657797 -0.13263026 0.019011833
-0.062579565 0.003949888 -0.04467274 0.041326642 0.15277952 0.12644786 0.008984077 0.07060504
-0.04851925 0.04304149 -0.009242975 -0.032245725 -0.12985292 -0.07250974 -0.14302193 -0.11361638
-0.08274369 -0.08568098 0.08333377 -0.13257073 0.04053463 -0.084363416 0.030562513 0.05884602
0.120877504 0.12817135 0.027450591 -0.01786734 -0.08104992 0.09416993 0.10405892 0.044085227
0.035445534 0.0747483 0.17697659 0.11493655 0.04354317 0.14899857 0.14942262 0.13810691
0.09696176 -0.07999416 0.011207132 -0.20005135 -0.0077142394 0.1352082 -0.30214196 -0.2075982
-0.12905996 0.041000128 0.10561423 -0.08836951 -0.03795872 0.19669294 0.2244743 0.005317763
0.006978526 -0.020261826 -0.0971237 0.05112548 0.0654112 0.036543574 -0.016781399 -0.045038413
-0.09986847 -0.032479826 -0.011055408 0.05165595 0.08567483 0.15331104 0.10008205 -0.07509484
-0.047555998 -0.057464413 0.07088266 -0.030153776 -0.15628651 -0.18921947 -0.31818026 -0.18609107
0.11295742 0.008249851 -0.0022137295 -0.12161762 -0.004286146 -0.08891304 -0.015508229 0.043482948
-0.061888684 -0.031535335 0.063282326 0.0032625871 -0.21286406 -0.02240247 0.15793844 0.092127435
-0.120945185 -0.1768706 0.11590068 0.049869925 0.21728338 0.042308766 -0.030278817 0.049606927
0.10730991 0.07691404 0.05935103 0.13586354 0.0607979 -0.090486765 -0.03342743 0.077867806
00000000: ccd2 0f3d 28c9 34bd 2b72 093e acd5 aebc
00000010: 2934 193d e295 f33c 95d3 afbd b11c 12be
00000020: bf81 44be b1ff 43bd 96c7 c4bc ef32 e4bd
00000030: 93e9 7cbd 78a3 d2bb 7112 963d b15e 8f3d
00000040: 1d1f ba3d 79e6 bf3d 36c0 073d 2420 583d
00000050: 889e a2bb d110 32bd bfb4 11be 4ea4 c6bd
00000060: 0d60 edbd cc1c 2c3d b3d2 953d bf04 463d
00000070: 4728 fdbd b54a aabc 2b3f febd ea79 c63d
00000080: 38a0 a8bd eb20 df3d b216 013e 0664 f13c
00000090: 3c09 153d 6999 513e 7d8b cfbc 64ee 9bbb
000000a0: b71f 97bd 2714 b73d c7bf 5fbe b5bf 8fbd
000000b0: 54e1 1c3d 28a8 1f3d 5651 c93d 1efe b73d
000000c0: ae5e a2bc ca5b 9c3c a038 113d 5ac2 9cbd
000000d0: e0f2 83bd 4508 abbb f20f bcb9 f1d9 62be
000000e0: 0ac4 10be 28cb d9bd e301 2abd cf2d 933e
000000f0: 43ff 5ebe 155c 51be d35e 26bc 8f9a 9ebc
00000100: b2a2 073d 5aca 5e3b ab47 8bbc 2c76 26bd
00000110: fbd7 9cbd 5c6f 98bb 4fd3 283e 87dc 0c3e
00000120: 2ad0 993d 7c97 2d3e bbf0 ef3c 6e19 2ebd
00000130: 7edd 5bbd 0e2e d3bd c6f0 79bd 1cd1 cf3b
00000140: f2ff 6ebd 9d0f 8c3d 3278 3bbe b6bf 27bd
00000150: e220 8d3d bc3b 55bd 16b9 203e afd4 c6bd
00000160: 6c76 9b3c 038a 3ebd 04c1 5fbc cb5f 8cbb
00000170: 185c 323e 9d8c c5bd c50d 103e 3346 21bd
00000180: 8366 c8bd 3007 a53b e9f2 2bbd ea63 563d
00000190: 8041 76bd 871e f93c c4bb fc3b 3b5a 943d
000001a0: 69a6 00be 700c bbba d666 ff3d 9a68 a7bd
000001b0: 3c5b e03d a5af 78bd c9ba 273e 1b66 d23d
000001c0: c989 093e 6b5c a0bd b6bb 77bc 90f6 2f3e
000001d0: 8699 933e a4db 093c 2765 1d3e e6ca 1d3e
000001e0: 3819 573e 3149 d0bd 4d47 f23b e589 7abe
000001f0: bea6 c3bc 0ec8 00bd 1cc7 74bd c51a b0bd
00000200: f3ea cbbc 44ed febc 8497 663d 6884 953c
00000210: c940 193d 1d3c bfbd a47e 0fbe c2fd f5ba
00000220: 6fe2 fb3d 42d3 543c 3ee5 d9bd 968e b6bd
00000230: a03b 61bd acca c5bd 3ad0 07be b4be 9b3c
00000240: b729 80bd 106e 813b c3fa 36bd 2046 293d
00000250: 3c72 1c3e 8c7b 013e f331 133c 6099 903d
00000260: 1fbc 46bd 464c 303d d96f 17bc 1814 04bd
00000270: 2af8 04be fd7f 94bd 5774 12be b4af e8bd
00000280: 8675 a9bd 8279 afbd e5aa aa3d 9fc0 07be
00000290: a407 263d bac6 acbd 3c5e fa3c 8608 713d
000002a0: a08e f73d 5a3f 033e 10e0 e03c 875e 92bc
000002b0: 80fd a5bd 2adc c03d d81c d53d b692 343d
000002c0: 562f 113d a315 993d 5a39 353e db63 eb3d
000002d0: 535a 323d 1593 183e 3e02 193e e66b 0d3e
000002e0: e393 c63d fad3 a3bd 1e9e 373c 43da 4cbe
000002f0: bbc7 fcbb 0574 0a3e 5ab2 9abe 9f94 54be
00000300: 4b28 04be c0ef 273d 464c d83d 13fb b4bd
00000310: 9a7a 1bbd e069 493e 97dc 653e a140 ae3b
00000320: 1eac e43b 21fc a5bc cae8 c6bd f468 513d
00000330: 4ff6 853d b7ae 153d 2579 89bc 337a 38bd
00000340: d787 ccbd 9109 05bd be21 35bc 3095 533d
00000350: 4976 af3d 92fd 1c3e d1f7 cc3d 53cb 99bd
00000360: 14ca 42bd ce5f 6bbd ee2a 913d 0d05 f7bc
00000370: 9209 20be c0c2 41be 86e8 a2be a88e 3ebe
00000380: 3856 e73d 622a 073c 3814 11bb a912 f9bd
00000390: cc72 8cbb 0a18 b6bd 3a16 7ebc 2d1b 323d
000003a0: fd7e 7dbd 322b 01bd 2a9a 813d 21d1 553b
000003b0: 09f9 59be 6285 b7bc 9dba 213e 4fad bc3d
000003c0: 1cb2 f7bd 911d 35be 565d ed3d 6844 4c3d
000003d0: 897f 5e3e f54b 2d3d 480b f8bc a230 4b3d
000003e0: 4cc5 db3d 1c85 9d3d 111a 733d d01f 0b3e
000003f0: 3807 793d 2051 b9bd 33eb 08bd 2879 9f3d

conv3.bias f4 [100]
-0.038400896 0.05232737 -0.05997243 -0.06115776 0.021617126 -0.021166053 0.013737314 0.028108671
-0.037015617 -0.08903597 -0.051131584 0.0014400937 0.049919777 -0.08893063 -0.0698629 0.058178864
0.05913539 0.029353054 0.018683983 -0.017905831 0.016832478 -0.064365365 0.039015584 0.03160043
0.03124534 0.052764323 0.017336087 -0.025649464 -0.08275583 -0.047792673 0.062215634 0.034573138
-0.0015411405 0.029958924 -0.06319751 -0.028302647 0.018382603 0.03163331 -0.027687037 0.05208543
0.013655646 -0.0377152 -0.07145551 0.047711037 0.014433354 -0.046619564 0.017356075 0.055015232
-0.04818104 0.032638006 -0.032561917 -0.043442085 0.034028772 0.020054607 0.05372949 0.044527233
-0.029666753 0.021535512 0.0120428335 -0.059263267 0.026564673 -0.07349535 -0.07514868 0.0073593115
0.03669051 0.07287562 -0.030270666 -0.005889579 -0.08886719 -0.048694406 -0.007342772 -0.012750082
0.019222187 -0.033428136 -0.014679304 -0.039167777 0.030291082 -0.11401138 0.05104988 -0.05237961
0.011601188 -0.019545011 0.015253143 0.021292554 0.061119527 -0.044410992 0.035125922 -0.0092675695
-0.07533661 0.0091773225 0.07210417 0.030013237 -0.032995056 0.0043348684 -0.045400605 0.051117253
-0.014537599 0.022234574 -0.028064111 -0.08004959
00000000: 424a 1dbd 3955 563d a7a5 75bd 8f80 7abd
00000010: 6616 b13c 6e64 adbc 7912 613c 2844 e63c
00000020: b09d 17bd 7e58 b6bd 5a6f 51bd 87c1 bc3a
00000030: ae78 4c3d 4321 b6bd 4814 8fbd f64c 6e3d
00000040: f337 723d d175 f03c 270f 993c 40af 92bc
00000050: 44e4 893c fdd1 83bd cece 1f3d 746f 013d
00000060: 3af6 ff3c 671f 583d 6904 8e3c d31e d2bc
00000070: e37b a9bd 40c2 43bd d2d5 7e3d 909c 0d3d
00000080: 1800 caba 6b6c f53c b26d 81bd f4da e7bc
00000090: 1d97 963c ee91 013d edcf e2bc 8857 553d
000000a0: eebb 5f3c 417b 1abd 4457 92bd a66c 433d
000000b0: e079 6c3c 28f4 3ebd 542e 8e3c a757 613d
000000c0: 7b59 45bd 6eaf 053d a55f 05bd 54f0 31bd
000000d0: c161 0b3d 8f49 a43c 7413 5c3d 3062 363d
000000e0: b107 f3bc 3e6b b03c 4e4f 453c 0abe 72bd
000000f0: 289e d93c bb84 96bd 8de7 99bd 6126 f13b
00000100: ca48 163d d03f 953d 30fa f7bc 5ffd c0bb
00000110: 0000 b6bd c973 47bd a39b f0bb b8e5 50bc
00000120: d977 9d3c f1eb 08bd 7781 70bc 646e 20bd
00000130: 0125 f83c cc7e e9bd ae19 513d 008c 56bd
00000140: e912 3e3c dc1c a0bc 52e8 793c b96d ae3c
00000150: 7858 7a3d 4de8 35bd 33e0 0f3d 01d7 17bc
00000160: 154a 9abd 7b5c 163c 5aab 933d 52de f53c
00000170: d325 07bd 830b 8e3b fcf5 39bd 5360 513d
00000180: 1c2f 6ebc 4825 b63c b5e6 e5bc 0af1 a3bd

fc1.weight f4 [84, 100]
-0.097309224 0.041335236 0.07703622 0.0077560255 -0.009206014 0.047363702 0.036282152 0.00057791866
0.021378558 0.044767354 0.037467197 -0.068378255 0.041643165 0.05781475 0.023446249 0.03693983
0.07332962 0.04240583 0.028512897 0.022873204 0.09809693 0.025764199 -0.07683261 0.027443048
0.029751401 0.053662468 0.055138662 0.02512776 0.047508724 0.012062344 0.049702723 0.04701757
0.016759431 -0.0761707 0.03629565 0.058919646 0.07178037 0.06327491 0.019208318 0.017828444
-0.011348028 0.018578414 0.048532818 0.027547268 -0.11043968 0.037069544 0.06636228 0.028370453
0.015302379 0.054511003 0.02491691 0.034116536 0.03606628 0.08636056 0.04751082 -0.13919729
0.031203542 0.06623055 0.05184917 0.035977054 0.033925973 0.04568414 0.030829834 0.060062457
0.07482324 0.039712384 -0.099591665 0.03154869 0.06084139 0.032871183 0.008449427 0.05562391
0.049907554 0.06090201 0.017931368 0.065293185 0.018420767 -0.11981814 0.006097484 0.057066467
0.009895144 0.055368688 0.07065353 0.00799775 0.01147789 0.01797144 0.048803907 0.020882228
-0.11368509 0.05510927 0.0394818 0.039460193 0.002628196 0.034657534 0.07407932 0.058282003
-0.00085465854 0.04329499 0.042818528 -0.05406336 -0.18239875 0.026376601 0.043342948 0.058601562
-0.0015738058 0.011399627 0.05363757 -0.009210475 0.02069275 -0.0144515345 -0.00945494 -0.19726008
0.05311383 0.017351195 0.02916291 -0.011294469 0.05279037 -0.0072223837 0.05766207 0.027519634
0.05708002 -0.014981502 -0.2213683 0.059743896 -0.016835367 0.040613484 -0.014005447 0.019141296
0.004037426 -0.000562886 0.031243635 0.015223505 0.024395097 -0.19364086 0.065809704 0.01811843
-0.04832973 0.010509764 -0.018411975 -0.0078039668 -0.027234752 0.013455066 -0.01943064 0.055152
-0.21200296 0.00034450463 0.041109815 0.0147559885 0.044331495 0.058030162 0.060924463 0.04279552
0.039400987 0.054964982 -0.029046204 -0.22296588 -0.012190264 0.032145586 0.076703 0.02013234
0.022401547 0.0313298 0.04924597 -0.0019131745 0.020122524 -0.013374675 -0.21247572 0.035105918
0.059515297 -0.002655627 0.01306166 0.022157712 0.029324759 0.023655757 0.07780867 0.06849592
0.009660293 -0.24423948 0.051759504 -0.004202466 -0.01497329 0.04054153 0.021514824 -0.0077684415
0.01022784 -0.010577756 0.06681199 0.060643204 -0.23521711 -0.008218341 0.040024612 -0.0116898995
0.029345294 0.016947512 0.055014554 0.03760292 0.035886124 0.014249001 -0.0064368183 -0.15798257
-0.0063073183 -0.019491006 -0.10525031 -0.074912384 0.037807263 -0.08665088 -0.0055933357 -0.06402763
-0.1145156 -0.04524771 0.033007167 0.0025667816 -0.068083584 -0.019204492 0.065495215 -0.07189292
-0.016226644 -0.014145559 -0.07758084 0.008465367 0.03342748 0.041630574 0.029234525 -0.030653019
0.07700784 0.012200169 0.070102274 -0.0029584833 -0.009426083 0.044325378 0.0702973 0.039656404
-0.060113113 0.07877344 0.08192167 -0.054334916 0.032000363 -0.04088301 -0.08407817 0.018531386
-0.0148989465 -0.06669494 -0.09430974 -0.051826824 -0.0029336459 -0.109802775 -0.032232583 -0.12535575
-0.1492108 -0.042331975 0.055678062 -0.013881752 -0.024536075 -0.02201956 0.10447264 0.00035597157
00000000: 0f4a c7bd 234f 293d 2ac5 9d3d 4226 fe3b
00000010: d2d4 16bc 7100 423d 989c 143d 777f 173a
00000020: 1622 af3c f95d 373d 3477 193d e609 8cbd
00000030: 0692 2a3d 29cf 6c3d 5912 c03c 384e 173d
00000040: d72d 963d bcb1 2d3d e193 e93c 9660 bb3c
00000050: 0be7 c83d 710f d33c 6a5a 9dbd 3ed0 e03c
00000060: 36b9 f33c 2dcd 5b3d 14d9 613d bbd8 cd3c
00000070: 8298 423d 23a1 453c 1595 4b3d 7f95 403d
00000080: 134b 893c 62ff 9bbd bfaa 143d ba55 713d
00000090: 9601 933d 4796 813d c35a 9d3c f50c 923c
000000a0: 14ed 39bc c231 983c 59ca 463d cfaa e13c
000000b0: 332e e2bd 3cd6 173d f2e8 873d 2769 e83c
000000c0: d4b6 7a3c ee46 5f3d 8c1e cc3c c8bd 0b3d
000000d0: 3cba 133d cedd b03d b59a 423d bc89 0ebe
000000e0: 929e ff3c e2a3 873d cc5f 543d ad5c 133d
000000f0: f6f5 0a3d 4b1f 3b3d d98e fc3c 0d04 763d
00000100: ed3c 993d 74a9 223d b7f6 cbbd 3339 013d
00000110: d234 793d efa3 063d 776f 0a3c e6d5 633d
00000120: dd6b 4c3d 6374 793d cee4 923c 6fb8 853d
00000130: 26e7 963c 3763 f5bd 67cd c73b 87be 693d
00000140: 3e1f 223c 47ca 623d ccb2 903d ff08 033c
00000150: c30d 3c3c d738 933c 9be6 473d 3511 ab3c
00000160: bad3 e8bd 42ba 613d abb7 213d 03a1 213d
00000170: d03d 2c3b 0ff5 0d3d e6b6 973d 1cb9 6e3d
00000180: 2a0b 60ba 1656 313d 7b62 2f3d 8b71 5dbd
00000190: bdc6 3abe be13 d83c 6088 313d 3108 703d
000001a0: 2948 ceba 80c5 3a3c 12b3 5b3d 88e7 16bc
000001b0: d883 a93c 21c6 6cbc e5e8 1abc 8cfe 49be
000001c0: e38d 593d 1824 8e3c 0ee7 ee3c 700c 39bc
000001d0: b73a 583d bfa9 ecbb 102f 6c3d db70 e13c
000001e0: bdcc 693d f974 75bc 5fae 62be 04b6 743d
000001f0: 53ea 89bc 535a 263d 1a77 65bc 35ce 9c3c
00000200: 624c 843b a48e 13ba a7f2 ff3c 026c 793c
00000210: 3ad8 c73c ca49 46be 3dc7 863d 1a6d 943c
00000220: 65f5 45bd 2531 2c3c b6d4 96bc 6bb8 ffbb
00000230: 6a1b dfbc a372 5c3c 012d 9fbc 10e7 613d
00000240: 4e17 59be a19e b439 c462 283d 1ac3 713c
00000250: f194 353d 09b1 6d3d ee8b 793d 5b4a 2f3d
00000260: ee62 213d f622 613d 4ef2 edbc 2b51 64be
00000270: acb9 47bc 17ab 033d 7616 9d3d 94ec a43c
00000280: 7383 b73c ad53 003d 24b6 493d 7cc3 faba
00000290: fed7 a43c 7421 5bbc 3c93 59be 39cb 0f3d
000002a0: 50c6 733d 070a 2ebb 9300 563c 1784 b53c
000002b0: 7a3a f03c b8c9 c13c 275a 9f3d 9747 8c3d
000002c0: 3546 1e3c ea19 7abe c601 543d d7b4 89bb
000002d0: 8852 75bc e00e 263d db3f b03c 698e febb
000002e0: ac92 273c 534e 2dbc bad4 883d 0265 783d
000002f0: c1dc 70be 38a6 06bc d9f0 233d fe86 3fbc
00000300: 8b65 f03c 82d5 8a3c f156 613d 8505 1a3d
00000310: 54fd 123d a474 693c f2eb d2bb 2fc6 21be
00000320: 9fad cebb 9aab 9fbc 798d d7bd aa6b 99bd
00000330: cadb 1a3d 0476 b1bd 4d48 b7bb eb20 83bd
00000340: 2887 eabd aa55 39bd 8632 073d 7337 283b
00000350: 686f 8bbd bd52 9dbc 5b22 863d 983c 93bd
00000360: bded 84bc c6c2 67bc b4e2 9ebd 53b2 0a3c
00000370: 41eb 083d d284 2a3d 3e7d ef3c 0a1c fbbc
00000380: 49b6 9d3d 38e3 473c c891 8f3d 1de3 41bb
00000390: dc6f 1abc 878e 353d 08f8 8f3d c16e 223d
000003a0: 2b39 76bd f853 a13d 8cc6 a73d 4a8e 5ebd
000003b0: d012 033d f174 27bd 2d31 acbd 22cf 973c
000003c0: b61a 74bc 5b97 88bd 7725 c1bd 5d48 54bd
000003d0: 6942 40bb 47e0 e0bd 5006 04bd 425d 00be
000003e0: b7ca 18be 4b64 2dbd ae0e 643d 4a70 63bc
000003f0: e1ff c8bc 5d62 b4bc c0f5 d53d b2a1 ba39

fc1.bias f4 [84]
0.6237128 0.3891349 -0.24016769 0.7217185 0.0066369507 -0.14167073 -0.5985731 0.107105926
0.3024423 0.20371422 -0.19032791 -0.5611855 1.0617932 0.20241232 0.32143137 0.51960176
0.040038 -0.11395086 -0.03977966 0.4827586 0.73085326 -0.45403558 -0.0865151 0.31769878
0.05813497 0.28784874 -0.06351691 0.22329377 -0.0020084237 -0.35138997 -0.67284626 0.22909081
-1.0270814 0.562233 0.05699387 0.09438379 0.28188142 0.6906812 0.55856836 0.40591186
0.68131196 0.2961175 1.0762818 -0.18294705 0.025122171 0.27200195 -0.3611778 -0.42735073
-0.67039394 -0.3565922 0.1356243 0.30972138 -0.37059364 -0.2562432 -0.19042477 0.7340976
0.3041395 -0.06594565 0.18616197 0.44863957 -0.07774373 0.08062752 -0.56776124 -0.66778076
1.266744 -0.15903446 -0.71788436 -0.20903574 0.63947 0.1940531 -0.08295999 -0.088254996
0.05421242 -0.04693497 0.35793546 0.27866423 -0.04895418 -0.47890717 0.207771 -0.5357761
-0.2879503 -0.46551442 0.87208086 0.088880055
00000000: a4ab 1f3f b13c c73e 85ee 75be 8bc2 383f
00000010: c77a d93b 2212 11be 163c 19bf 5a5a db3d
00000020: b8d9 9a3e 769a 503e 52e5 42be daa9 0fbf
00000030: d7e8 873f 2d45 4f3e a792 a43e 9f04 053f
00000040: e3fe 233d 125f e9bd ffef 22bd 232c f73e
00000050: 3319 3b3f 5a77 e8be d42e b1bd 6aa9 a23e
00000060: ef1e 6e3d e960 933e 2715 82bd 1fa7 643e
00000070: c29f 03bb 63e9 b3be a73f 2cbf c896 6a3e
00000080: 6777 83bf 80ee 0f3f 6772 693d 4a4c c13d
00000090: c352 903e 7cd0 303f 56fe 0e3f aed3 cf3e
000000a0: 766a 2e3f b79c 973e 9ac3 893f 7956 3bbe
000000b0: 03cd cd3c d743 8b3e 4cec b8be b7cd dabe
000000c0: f09e 2bbf 4193 b6be 19e1 0a3e cd93 9e3e
000000d0: 73be bdbe 4f32 83be b6fe 42be d2ed 3b3f
000000e0: 2cb8 9b3e 830e 87bd 3ea1 3e3e 16b4 e53e
000000f0: 1b38 9fbd 0b20 a53d cd58 11bf aef3 2abf
00000100: ab24 a23f eed9 22be 45c7 37bf 770d 56be
00000110: 4eb4 233f dbb5 463e ede6 a9bd 09bf b4bd
00000120: d80d 5e3d e23e 40bd 5143 b73e 14ad 8e3e
00000130: 2e84 48bd 5233 f5be ecc1 543e 9f28 09bf
00000140: 396e 93be e857 eebe b140 5f3f bf06 b63d

fc2.weight f4 [10, 84]
-0.1851872 -0.76320696 0.07002943 0.16833526 0.23410538 0.077045135 0.17702308 0.17571491
-0.4896726 0.18276973 0.540836 0.10897971 0.16397192 0.08578608 -0.011561669 -0.26085222
0.23516056 0.11312377 0.40167233 -0.18802728 0.38982788 0.5695529 0.36753798 0.5094245
-0.50585693 -0.44857398 0.3107206 -0.45378822 0.16697717 -0.41815728 0.2224829 -0.3863631
-0.20086874 -0.22088881 0.31930992 0.21715082 -0.2147127 -0.05243821 -0.23559473 -0.81167275
-0.22169553 -0.19803044 0.15521085 0.40953735 0.31725037 -0.48026502 0.68352777 0.17670977
0.6067331 0.046302963 -0.00050790777 -0.4214973 0.5483557 0.014772417 0.39541826 -0.2730125
-0.23348883 0.15658768 0.032622207 0.041806716 0.24812527 0.08934257 0.18161708 0.12522031
0.11033392 0.019951664 0.2768746 -0.2606565 -0.15549193 0.08417415 -0.19340657 0.23834261
0.27672535 -0.27977833 -0.29795504 -0.53429264 0.363593 0.17482044 -0.6736999 -0.3566949
0.044979975 0.10367235 0.1629876 0.21822202 0.24385145 -0.22403868 0.21931256 -0.085215695
-0.20106678 -0.24234262 -0.3744662 -0.24348618 0.34743944 -0.25253692 0.36638018 -0.08682197
0.25543502 -0.28951868 -0.16264519 0.16354872 -0.25523385 -0.29945952 -0.2905815 0.22486585
0.3784325 -0.31194246 -0.34301805 0.40655273 -0.46216562 0.37032223 -0.279954 0.32259214
-0.14967372 -0.34331515 -0.26604664 0.32929066 -0.3161512 0.23946552 0.55241054 -0.27276158
0.2248632 0.21314491 0.33633113 -0.32850304 0.2602567 0.23564284 0.39291954 -0.16798577
-0.27147365 0.37078923 0.21490371 -0.21223171 -0.23118122 -0.018584272 -0.26429033 0.25575602
-0.2327236 -0.13214305 -0.32275638 0.32792538 0.065019995 -0.34653604 -0.2988642 0.20644906
-0.287548 -0.26712248 -0.20730814 -0.69893545 0.37948588 0.17703305 -0.31373963 -0.80375546
0.3108812 -0.28958023 0.1939306 -0.23691557 -0.33664966 0.33941856 0.21468739 0.2901209
-0.32656267 -0.16381483 -0.44745633 -0.41553107 -0.13951412 -0.1042848 0.25689405 0.51139313
0.37792656 0.1058878 0.438157 -0.7287241 -0.43243477 -0.44463253 -0.45216948 -0.48493364
0.14379889 -0.4390959 -0.0664676 -0.6355938 -0.83690226 -0.44201884 -0.5324868 0.43972164
-0.39178103 -0.4835816 -0.3461968 0.33635953 0.72029924 -0.11879606 -0.28110674 0.42622477
-0.01933572 0.21946079 -0.38196442 0.2105663 -0.3833014 -0.41300815 -0.36466807 0.14897282
0.69991297 0.4510281 -0.096861 -0.46404058 0.33503634 0.22341278 0.42739898 0.08440474
0.45444077 0.40515232 -0.58246744 -0.15295282 -0.33588365 0.231933 -0.04634904 -0.35317227
-0.19232126 -0.19591835 -0.41094542 0.047570143 -0.08631143 -0.33995387 -0.17831723 0.4218701
0.37965512 -0.46202883 -0.4302676 0.29443502 -0.4537239 -0.45023423 -0.45098713 -0.54521036
-0.73734796 0.37931648 -0.41606095 -0.28221053 0.40362892 -0.40005288 -0.06841909 -0.4473237
-0.42246816 0.43869627 0.3519902 0.18678309 -0.3553011 -0.41587082 0.04331429 -0.5393529
-0.35081258 -0.43530878 -0.2329735 -0.09482835 0.1419763 0.36037648 0.1842721 -0.8880542
00000000: b7a1 3dbe 8861 43bf 976b 8f3d 1460 2c3e
00000010: 52b9 6f3e d7c9 9d3d 8a45 353e 9cee 333e
00000020: 5eb6 fabe fd27 3b3e 3a74 0a3f c130 df3d
00000030: 41e8 273e 9db0 af3d 286d 3dbc 6c8e 85be
00000040: eecd 703e 6fad e73d ffa7 cd3e 398a 40be
00000050: 8597 c73e 38ce 113f f02d bc3e a569 023f
00000060: d77f 01bf 7dab e5be c516 9f3e ee56 e8be
00000070: 10fc 2a3e b618 d6be 8fd2 633e 62d1 c5be
00000080: 89b0 4dbe ad30 62be 977c a33e c95c 5e3e
00000090: a5dd 5bbe 73c9 56bd bf3f 71be c9c9 4fbf
000000a0: 2704 63be 7ec8 4abe 98ef 1e3e e1ae d13e
000000b0: a46e a23e 4ce5 f5be adfb 2e3f 68f3 343e
000000c0: dc52 1b3f 2da8 3d3d 1d25 05ba 7ece d7be
000000d0: 0a61 0c3f 0208 723c 4374 ca3e 4bc8 8bbe
000000e0: b217 6fbe 8558 203e dd9e 053d 853d 2b3d
000000f0: 8d14 7e3e 3df9 b63d d4f9 393e c139 003e
00000100: c0f6 e13d ac71 a33c 82c2 8d3e c574 85be
00000110: 4739 1fbe 7f63 ac3d 5f0c 46be 1610 743e
00000120: f2ae 8d3e 1b3f 8fbe 908d 98be 67c7 08bf
00000130: dd28 ba3e 2104 333e 9977 2cbf b7a0 b6be
00000140: ec3c 383d 2b52 d43d 39e6 263e 9875 5f3e
00000150: 32b4 793e 656a 65be 7993 603e 9185 aebd
00000160: 73e4 4dbe aa28 78be 09ba bfbe 7154 79be
00000170: 95e3 b13e 854c 81be 2f96 bb3e b8cf b1bd
00000180: 61c8 823e cb3b 94be 768c 26be 5179 273e
00000190: 03ae 82be c252 99be 19c7 94be 3c43 663e
000001a0: e8c1 c13e ecb6 9fbe 10a0 afbe ae27 d03e
000001b0: f9a0 ecbe e09a bd3e 2156 8fbe cc2a a53e
000001c0: 1144 19be 01c7 afbe 4437 88be c998 a83e
000001d0: 92de a1be 7336 753e c76a 0d3f 68a7 8bbe
000001e0: 8a42 663e a942 5a3e 9833 ac3e 8d31 a8be
000001f0: 5e40 853e 5b4c 713e c02c c93e 7604 2cbe
00000200: 98fe 8abe 16d8 bd3e b80f 5c3e 4553 59be
00000210: c5ba 6cbe 0b3e 98bc 1051 87be 74f2 823e
00000220: 184f 6ebe 8250 07be 5340 a5be d6e5 a73e
00000230: 3429 853d 2c6d b1be ba04 99be 6267 533e
00000240: 7e39 93be 47c4 88be 9648 54be 6fed 32bf
00000250: f94b c23e 2748 353e 7ba2 a0be ebc2 4dbf
00000260: d22b 9f3e dc43 94be be95 463e ff99 72be
00000270: 585d acbe 45c8 ad3e 03d7 5b3e ba8a 943e
00000280: 3933 a7be 13bf 27be ff18 e5be 7dc0 d4be
00000290: cadc 0ebe 4593 d5bd 9e87 833e a9ea 023f
000002a0: 977f c13e b4db d83d 1d56 e03e aa8d 3abf
000002b0: 1768 ddbe e0a6 e3be c282 e7be 3949 f8be
000002c0: 0440 133e 2ed1 e0be 2a20 88bd 46b6 22bf
000002d0: 3a3f 56bf 4b50 e2be 0e51 08bf 3223 e13e
000002e0: 8697 c8be 0298 f7be b540 b1be 5137 ac3e
000002f0: 8865 383f 594b f3bd 39ed 8fbe 223a da3e
00000300: f265 9ebc 54ba 603e d790 c3be b19e 573e
00000310: 1540 c4be ce75 d3be c6b5 babe 558c 183e
00000320: 7f2d 333f 28ed e63e 0f5f c6bd ba96 edbe
00000330: e289 ab3e 52c6 643e 0ad4 da3e 64dc ac3d
00000340: 76ac e83e 2070 cf3e 961c 15bf aa9f 1cbe
00000350: f1f8 abbe d87f 6d3e 7ed8 3dbd ffd2 b4be
00000360: ddef 44be d29e 48be 7067 d2be e9d8 423d
00000370: 0cc4 b0bd 6f0e aebe cb98 36be 5cff d73e
00000380: 2862 c23e 0b8f ecbe 094c dcbe 30c0 963e
00000390: 804e e8be 1a85 e6be c9e7 e6be e892 0bbf
000003a0: d6c2 3cbf c535 c23e f105 d5be e67d 90be
000003b0: 73a8 ce3e bbd3 ccbe 4f1f 8cbd 9d07 e5be
000003c0: bf4d d8be cc9c e03e 0f38 b43e 1144 3f3e
000003d0: 07ea b5be 05ed d4be 536a 313d 0813 0abf
000003e0: b59d b3be cbe0 debe 9b90 6ebe 5e35 c2bd
000003f0: 3c62 113e 4483 b83e d3b1 3c3e 8557 63bf

fc2.bias f4 [10]
-0.53625596 -0.09984726 0.84038997 -0.25375217 0.6726513 -0.03915523 -0.56854314 -0.15803936
-0.11501351 0.1274554
00000000: 1248 09bf b87c ccbd cc23 573f ceeb 81be
00000010: e032 2c3f 3c61 20bd 0b8c 11bf 12d5 21be
00000020: 348c ebbd ab83 023e
