mnist_unilenet_w_acc_11.pt (torch_old, 209607 bytes, 10 tensors)

conv1.weight f4 [6, 1, 5, 5]
0	0x3d9f85c7	0.07789188
1	0x3c41753a	0.011807734
2	0xbce083e5	-0.027406642
3	0xbde4195c	-0.111376494
4	0xbc7bd4f5	-0.015370597
5	0xbe49ef2a	-0.1972014
6	0x3dff3e2b	0.124630295
7	0x3e1eb1d0	0.15497518
8	0xbdbe439c	-0.09290239
9	0x3ad1bc72	0.0016001596
10	0x3e2d8434	0.16944963
11	0xbd5fac5f	-0.054607745
12	0x3e231856	0.15927252
13	0x3d358830	0.04431933
14	0xbe1445c7	-0.14479743
15	0xbe094b0e	-0.13407537
16	0xbda64705	-0.08119015
17	0x3e1ec608	0.1550523
18	0xbd80f7ff	-0.062973015
19	0x3e1cf34b	0.15327184
20	0x3e2130dc	0.15741295
21	0xbe289b7c	-0.16465563
22	0xbca07fb3	-0.019592142
23	0x3db1d90e	0.08683978
24	0x3df11f48	0.117735445
25	0xbe4683c3	-0.193862
26	0xbd5bc032	-0.05365009
27	0x3e43b246	0.19110975
28	0x3e07cef5	0.13262542
29	0x3da9125c	0.08255455
30	0xbd869bc7	-0.06572681
31	0x3d3806f8	0.04492852
32	0x3dee34bb	0.11631151
33	0x3e27ead0	0.16398168
34	0x3e2a58df	0.16635464
35	0x3e15fd0f	0.14647315
36	0x3e094eaf	0.13408922
37	0x3e2d60d8	0.16931474
38	0xbd9e9e00	-0.0774498
39	0xbbe43bef	-0.0069651525
40	0xbe04fe7e	-0.12987706
41	0xbe3f9f7e	-0.18713185
42	0x3d3f65b6	0.04672786
43	0x3db58c56	0.088646576
44	0x3d36adee	0.044599466
45	0x3e306919	0.17227592
46	0x3c27a89a	0.010233069
47	0xbdd3b35b	-0.10336944
48	0xbbf70df8	-0.007539507
49	0x3e04f3a6	0.1298357
50	0xbd02a180	-0.0318923
51	0xbd6429f9	-0.05570409
52	0x3c45396a	0.012037614
53	0x3e1f0656	0.1552976
54	0x3de57c1f	0.11205315
55	0x3e06acff	0.1315193
56	0x3dcb29a4	0.09920052
57	0x3dc3f971	0.095690615
58	0x3e3f572d	0.18685599
59	0xbe24bcfe	-0.1608772
60	0xbca16819	-0.019702958
61	0xbbe93634	-0.007117057
62	0xbdee08b1	-0.116227515
63	0x3e485126	0.19562206
64	0xbe3e2a18	-0.18570745
65	0x3e04ec8a	0.12980857
66	0xbdf63732	-0.120222464
67	0xbdb7084e	-0.08937131
68	0xbe00d08d	-0.12579556
69	0x3de59e69	0.11211855
70	0xbd848f54	-0.0647265
71	0x3d128d96	0.035779558
72	0xbda235d2	-0.07920422
73	0xbdf90b04	-0.12160304
74	0x3d25f9cf	0.04052144
75	0xbe18fef5	-0.14941008
76	0xbc6c94d3	-0.014439779
77	0x3d86e712	0.06587042
78	0xbe0bf3b7	-0.13667189
79	0xbe419051	-0.18902709
80	0xbd9a1958	-0.07524365
81	0x3e47588f	0.19467376
82	0x3e152128	0.1456343
83	0x3e128224	0.14307457
84	0xbde6beeb	-0.112668835
85	0xbd35db2a	-0.044398464
86	0xbdedbbc3	-0.11608078
87	0xbddb4e05	-0.107082404
88	0xbe0587e4	-0.1304012
89	0x3e3d26e3	0.18471865
90	0xbd9352a2	-0.07193495
91	0xbe413a0a	-0.18869796
92	0xbcb8cd79	-0.022558914
93	0x3b39bdbe	0.0028341855
94	0xbdcc4f92	-0.09976114
95	0xbe186f1c	-0.14886135
96	0x3d9d3922	0.07676913
97	0xbdedf852	-0.11619629
98	0xbe34a412	-0.17640713
99	0xbe4a630f	-0.1976435
100	0xbe450141	-0.1923876
101	0xbd57242d	-0.052524734
102	0xbe3fd52f	-0.18733667
103	0xbd5258d9	-0.051354263
104	0xbd71921d	-0.058977235
105	0x3e2609f2	0.16214731
106	0xbe2d92e3	-0.16950564
107	0x3e43d188	0.19122899
108	0x3e3547da	0.1770319
109	0xbcca9e4f	-0.02473369
110	0xbe4351c4	-0.1907416
111	0x3d02b8b4	0.031914428
112	0xbe27b46a	-0.16377416
113	0x3e49679d	0.19668432
114	0x3e2b9b8d	0.16758557
115	0xbd8300b0	-0.063966155
116	0x3e15d2f0	0.14631248
117	0xbe39bf88	-0.1813947
118	0x3ddd4647	0.1080442
119	0xbe28c114	-0.16479903
120	0xbe3d4c78	-0.18486202
121	0x3dced6b2	0.10099544
122	0x3bfedaa5	0.0077775293
123	0xbd056edd	-0.03257643
124	0x3e1e1195	0.15436395
125	0xbc25cf90	-0.010120288
126	0x3d6834ab	0.056690853
127	0xbe36daca	-0.17856899
128	0x3d7617fc	0.060081467
129	0x3c3d4359	0.011551701
130	0xbe2e5bf3	-0.17027263
131	0x3ccf9e75	0.025344113
132	0x3db218f6	0.08696167
133	0x3ddc7fc4	0.10766557
134	0x3e238110	0.15967202
135	0xbb4a6ef4	-0.0030888887
136	0xbd1f2cf3	-0.038861226
137	0xbdd71806	-0.10502629
138	0x3d9052d4	0.07047048
139	0xbdcd2481	-0.10016728
140	0xbd2c72d4	-0.042101696
141	0xbe26fe02	-0.16307834
142	0x3ced5121	0.02896935
143	0x3dc6b734	0.09702912
144	0xbdbfe11a	-0.093691066
145	0x3dd7b41c	0.105324
146	0xbe1bdf0a	-0.15221801
147	0x3cf8d58e	0.030375268
148	0xbb9cc79c	-0.0047845375
149	0x3e25d682	0.1619511

conv1.bias f4 [6]
0	0x3e2b7721	0.16744663
1	0xbdc98c28	-0.09841186
2	0x3e0b6424	0.1361242
3	0xbd97bc5a	-0.07408972
4	0x3e17a20c	0.1480791
5	0xbd6fd960	-0.058556914

conv2.weight f4 [16, 6, 5, 5]
0	0xbd9ba5e6	-0.07600002
1	0x3da0e5f7	0.07856362
2	0xbda07313	-0.07834449
3	0x3ccb533c	0.024819963
4	0xbcc47c44	-0.023985036
5	0xbd4e6bdd	-0.050395835
6	0xbce53ab8	-0.0279821
7	0x3c9cc65d	0.019137556
8	0x3da1ca3f	0.078999035
9	0x3c5077fd	0.01272392
10	0xbc9c8fdf	-0.019111572
11	0x3b5b2db9	0.0033444
12	0x3c94938c	0.018136762
13	0x3cc4773a	0.023982633
14	0x3d7c6da5	0.061628003
15	0x3c1beee1	0.009517402
16	0x3d86aeee	0.06576334
17	0xbd6d51a9	-0.057939205
18	0xbd8667d8	-0.065627754
19	0x3d505404	0.050861374
20	0x3caf3139	0.021385776
21	0x3d399396	0.045306765
22	0x3c1cbb91	0.009566204
23	0xbd0b5189	-0.034013305
24	0x3d78b68a	0.060720958
25	0xbd57c8c8	-0.052681714
26	0xbd60b04b	-0.054855626
27	0xbd742e41	-0.059614424
28	0xbd98514a	-0.0743738
29	0x3d0048c7	0.031319406
30	0x3d29903b	0.041397315
31	0xbd9a19ee	-0.07524477
32	0xbd18926b	-0.03724901
33	0xbda4d7e7	-0.080489926
34	0x3d811f45	0.06304792
35	0x3d99d75b	0.07511779
36	0x3d14e6dd	0.03635298
37	0x3d406134	0.0469677
38	0xbc5e0bd1	-0.013552622
39	0x3c6169f0	0.013758168
40	0xbd4e34a3	-0.050343167
41	0x3d9ddd10	0.0770818
42	0x3d9d8d97	0.07693022
43	0x3d60a605	0.05484583
44	0xbca264ef	-0.01982352
45	0x3d35f851	0.044426266
46	0x3bcd8b76	0.0062727286
47	0x3d817ba1	0.063224085
48	0x3c8afe83	0.016967064
49	0xbd99d609	-0.07511527
50	0x3d0908fd	0.033455838
51	0x3d29cc62	0.04145468
52	0xbd47c1bd	-0.048768748
53	0xbd148781	-0.03626204
54	0x3d5c6bc2	0.053813703
55	0x3d35dcf1	0.04440016
56	0x3d45d425	0.04829802
57	0x3c993b76	0.018705111
58	0xbd5ccec5	-0.05390813
59	0x3d7c64ce	0.061619572
60	0x3c547430	0.012967154
61	0xbb302317	-0.0026876384
62	0x3bddd358	0.006769579
63	0x3d969e0b	0.07354363
64	0x3c48ea6d	0.012262923
65	0xbce8268a	-0.02833869
66	0x3bcc6512	0.0062376345
67	0xbd0c7d05	-0.034298915
68	0x3d97d04f	0.074127786
69	0x3d61be49	0.05511311
70	0xbd0e8c60	-0.03480184
71	0x3c2bad74	0.010478366
72	0xbd273ab1	-0.040827457
73	0xbd77f675	-0.060537774
74	0xbd817c82	-0.06322576
75	0xbd30544d	-0.043049145
76	0x3d6f5258	0.05842814
77	0x3cd0d2ee	0.025491204
78	0x3d3411c4	0.043962255
79	0x3cdb1b9c	0.026746564
80	0x3d99605c	0.07489082
81	0x3d86cb8b	0.065817915
82	0x3b3048e2	0.002689891
83	0x3ced18d7	0.028942509
84	0xbd0d287e	-0.034462444
85	0xbd406a31	-0.046976272
86	0xbd803c79	-0.06261534
87	0xbd7a3dad	-0.061093975
88	0x3bac5a4d	0.005259788
89	0xbda8b8e9	-0.08238394
90	0x3d497919	0.049187753
91	0xbd572003	-0.052520763
92	0xbda3df9b	-0.08001634
93	0x3c241327	0.010014332
94	0x3d968a27	0.07350569
95	0x3c989a22	0.018628184
96	0x3d7e6d1c	0.062115774
97	0xbd7ca418	-0.06167993
98	0xbda56738	-0.08076328
99	0xbd2b5a69	-0.04183427
100	0x3d02bd08	0.031918555
101	0x3cc65904	0.024212368
102	0x3cb0b866	0.021572303
103	0xbc910ae8	-0.017705396
104	0xbd069e2b	-0.032865684
105	0x3ccecfaa	0.025245506
106	0x3c84751b	0.016169121
107	0xbda68430	-0.081306815
108	0xbd3c63b5	-0.045993526
109	0xbcb7dcd0	-0.022444159
110	0xbd4d1f28	-0.05007854
111	0x3d7bb8ee	0.06145566
112	0xbc2594a8	-0.010106243
113	0x3cf723ac	0.030168377
114	0x3d868931	0.06569136
115	0x3d9cb1e1	0.07651115
116	0xbd7e18f7	-0.062035527
117	0xbd4e2bb9	-0.050334666
118	0x3d57d336	0.05269166
119	0xbd7ace44	-0.061231866
120	0x3d90cf1f	0.07070755
121	0xbd181ef9	-0.037138913
122	0x3bbba69d	0.005726649
123	0xbd1ae64b	-0.03781728
124	0xbd4ed3c9	-0.050494943
125	0xbd41bfb6	-0.04730197
126	0x3c642e37	0.013927034
127	0x3c640a3f	0.0139184585
128	0x3c8b2c06	0.016988765
129	0xbd790ab9	-0.06080124
130	0x3cf01949	0.029308932
131	0x3cdb50b0	0.026771873
132	0xbafa60b3	-0.0019102305
133	0xbd37412f	-0.0447399
134	0x3d7a33c0	0.06108451
135	0xbc9ba5f1	-0.019000025
136	0xbd978735	-0.073988356
137	0xbb9c6164	-0.004772352
138	0xbd7e8f68	-0.06214848
139	0x3c19fb6c	0.009398323
140	0x3d740481	0.059574608
141	0x3d3bbc91	0.045834128
142	0x3d1e0a46	0.038584016
143	0x3c729ae0	0.014807433
144	0x3c65d805	0.014028554
145	0x3c07f092	0.0082971025
146	0xbca4feb6	-0.020140987
147	0xbcbc8d03	-0.023016458
148	0xbc46ab10	-0.012125745
149	0xbd18cd08	-0.037304908
150	0xbd8a5f78	-0.067564905
151	0x3be48892	0.0069742883
152	0x3d3000a3	0.042969357
153	0x3d49fe6d	0.049314905
154	0xbd53f6b9	-0.051748965
155	0x3ca98970	0.020695418
156	0x3da268b9	0.079301305
157	0x3d25e46c	0.040501043
158	0xbceb3772	-0.028712962
159	0xbd7250c3	-0.05915905
160	0xbd12b31b	-0.03581534
161	0xbc67a766	-0.014139032
162	0xbd7af207	-0.06126597
163	0xbd079edc	-0.033110484
164	0x3abad9ca	0.001425558
165	0x3d6020c5	0.05471875
166	0xbcf35111	-0.029701741
167	0xbd05c83d	-0.032661665
168	0xbc98e2cf	-0.018662838
169	0xbd63f5a3	-0.05565418
170	0xbd599355	-0.053119022
171	0x3c79a3a0	0.015236765
172	0xbcec5163	-0.028847402
173	0xbd0e502b	-0.034744423
174	0xbc6d8163	-0.01449618
175	0xbd9ec9ae	-0.07753311
176	0xbd8b156d	-0.06791196
177	0x3c2729dc	0.010202851
178	0xbd186ce5	-0.037213225
179	0x3c04e354	0.00811084
180	0xbd158360	-0.036502242
181	0x3d8e6a77	0.069539
182	0x3ad25b7b	0.0016048992
183	0xbd6db35a	-0.05803237
184	0xbd5ae6af	-0.053442653
185	0xbda413f4	-0.08011618
186	0x3c990f39	0.018684017
187	0x3d3d5498	0.046223253
188	0xbd64fbbd	-0.05590414
189	0xbd9528b7	-0.07283156
190	0x3d39e243	0.045381796
191	0x3c4842d8	0.012222968
192	0xbd9f75c9	-0.077861376
193	0xbbad7e88	-0.0052946247
194	0x3d40d71d	0.047080148
195	0xbcae0bab	-0.021245798
196	0xbd904004	-0.0704346
197	0xbc88ec2c	-0.016714178
198	0x3bb05161	0.005380795
199	0xbd101aaa	-0.03518168
200	0xbd4e4dee	-0.05036729
201	0x3d904f68	0.070463955
202	0x3d9ba160	0.07599139
203	0xbd8f77cb	-0.070052706
204	0xbd27b769	-0.040946398
205	0x3c325c2d	0.010886234
206	0xbd1c3ebf	-0.038145777
207	0xbd87b3aa	-0.06626065
208	0xbcba7f02	-0.02276564
209	0xbd8f4091	-0.06994737
210	0xbc9ac3b8	-0.018892154
211	0xbc9c3ef4	-0.019072987
212	0xbd67f305	-0.056628246
213	0x3da1c93a	0.07899709
214	0xbd74b307	-0.059741046
215	0x3d9c2f29	0.076261826
216	0xbd8eec7b	-0.06978699
217	0xbccea9e7	-0.0252275
218	0x3c1f4012	0.009719865
219	0x3d1cc356	0.038272224
220	0x3d837ac0	0.06419897
221	0x3c932971	0.017964097
222	0xbc73bf66	-0.014877176
223	0x3d94cae4	0.07265261
224	0x3d45aa34	0.04825802
225	0xbd047b52	-0.03234417
226	0xbc84b897	-0.0162013
227	0x3d8d687a	0.06904693
228	0x3d2a0ec2	0.04151798
229	0xbc4e56a1	-0.012593896
230	0xbd2d1e4b	-0.042265218
231	0xbd1cea51	-0.0383094
232	0xbcfb7596	-0.030695718
233	0x3d99dc9d	0.07512782
234	0x3d5d2763	0.05399264
235	0xbd6b3738	-0.057425708
236	0x3d0592da	0.03261075
237	0xbbdec55a	-0.0067984285
238	0xbd8e0edd	-0.06936429
239	0xbd49003b	-0.049072485
240	0x3d86a8d7	0.065751724
241	0xbd9daa05	-0.07698444
242	0x3d2f5ed4	0.042815045
243	0xbd63c005	-0.055603046
244	0xbd9bea32	-0.076130286
245	0x3cc2d76c	0.023784362
246	0xbcfcde45	-0.030867705
247	0xbca5c255	-0.020234266
248	0xbb7d9c72	-0.0038697985
249	0x3d81aeea	0.0633219
250	0x3bc1c96b	0.0059139035
251	0x3d814ad8	0.063131034
252	0x3cba894d	0.022770548
253	0x3bb4426c	0.005501082
254	0x3d76b1a4	0.060228005
255	0xbc8b4990	-0.01700285

conv2.bias f4 [16]
0	0x3c9b980c	0.0189934
1	0xbc2f43e6	-0.010697341
2	0xbd8be538	-0.068308294
3	0xbc82e8b7	-0.015980108
4	0x3d41d983	0.047326576
5	0x3d8f9609	0.07011039
6	0xbb718bcb	-0.0036857005
7	0xbcf400fb	-0.029785624
8	0x3c723af4	0.014784563
9	0x3d0912e5	0.033465285
10	0xbd8ae803	-0.06782534
11	0xbc3de7c7	-0.011590905
12	0x3d491abe	0.04909777
13	0x3d60838c	0.054812953
14	0x3d853c0c	0.06505594
15	0x3d99d1cd	0.075107194

conv3.weight f4 [100, 16, 5, 5]
0	0xbb09e502	-0.002104104
1	0x39ab44ca	0.00032666913
2	0x3cd673f2	0.026178334
3	0xbb8dcc80	-0.004327357
4	0x3d35ef05	0.0444174
5	0xbca1f948	-0.019772187
6	0x3d4666ae	0.048437767
7	0xbd47e554	-0.04880269
8	0x3d4227d4	0.047401264
9	0xbcae823b	-0.021302333
10	0x3b8c1c07	0.004275802
11	0x3d10e1fc	0.035371765
12	0xbd1badcd	-0.038007546
13	0xbcd1d8b0	-0.02561602
14	0xbcd1a7d2	-0.025592718
15	0xbcb65373	-0.022256589
16	0x3ce3965e	0.027781662
17	0x3ba69660	0.005083844
18	0xbcc490a7	-0.023994757
19	0x3aefaaee	0.0018285194
20	0x3d3cdbe0	0.046108127
21	0x3c21e326	0.009880817
22	0x3ba625d6	0.0050704284
23	0xbaeae1fa	-0.001792013
24	0x3c8a27d0	0.016864687
25	0xbc45b828	-0.012067832
26	0x3d0f4382	0.03497649
27	0x3d00388c	0.031303927
28	0xbcc62976	-0.024189692
29	0xbd0d67a4	-0.034522668
30	0x3d2272da	0.039660312
31	0xbc1fddb6	-0.00975745
32	0xbc44ea97	-0.012018821
33	0x3d480fd6	0.048843227
34	0xbc35e348	-0.011101551
35	0xbc95a914	-0.0182691
36	0xbd40f70d	-0.047110606
37	0x3c075fec	0.008262616
38	0xbcdef285	-0.027215252
39	0xbca4b0e7	-0.020103885
40	0xbd44c2cc	-0.048037335
41	0xbc131ee0	-0.008979529
42	0xbce54562	-0.027987186
43	0x3aa52afd	0.0012601312
44	0x3d3607e6	0.044441126
45	0x3bc34535	0.005959178
46	0xbcbb5abf	-0.02287042
47	0x3cf3cfdd	0.029762203
48	0xbd1f0a13	-0.038827967
49	0xbd345f8e	-0.04403644
50	0x3c242b8a	0.010020146
51	0xbca1d1e1	-0.019753398
52	0xbc986df3	-0.018607115
53	0x3c40de99	0.011771821
54	0xbba1e548	-0.0049406625
55	0x3ca75fa6	0.02043135
56	0xbcb8f812	-0.022579227
57	0xbd083e1e	-0.033262365
58	0x3d050ae3	0.032481086
59	0xbcf52ba4	-0.029928036
60	0x3d1b14b3	0.037861537
61	0x3bd5f3e2	0.0065293172
62	0xbaffcbc5	-0.0019515684
63	0xbd25e326	-0.04049983
64	0x3d1c616d	0.03817885
65	0x3b8173ab	0.0039505563
66	0x3c523254	0.012829382
67	0xbd00fdbf	-0.03149199
68	0x3d1ebeb4	0.038756087
69	0x3ae99dae	0.0017823481
70	0x3bcc8be4	0.006242262
71	0x3b93f6b7	0.0045154947
72	0xbbc58e41	-0.006028921
73	0x3d3f9e38	0.04678175
74	0x3ca947c1	0.020664098
75	0xbd44d0ef	-0.048050817
76	0x3d254723	0.040351044
77	0xbad77964	-0.0016439375
78	0xbd19c808	-0.03754428
79	0x3bc7cad6	0.006097178
80	0xbd13f069	-0.036117945
81	0x3d439be1	0.04775608
82	0x3c660dbd	0.014041361
83	0xbcf5fb02	-0.030026916
84	0x3c6226c9	0.013803192
85	0xbb954dbd	-0.0045563863
86	0x3b80eea4	0.003934698
87	0x3d0326ff	0.03201961
88	0xbd1254b0	-0.035725296
89	0xbccdfecf	-0.025145916
90	0x3bd75ff0	0.006572716
91	0x3ace3968	0.0015733661
92	0x3d3441de	0.04400813
93	0x3c1e4161	0.009659142
94	0xbbccec18	-0.0062537305
95	0xbd064f7e	-0.032790653
96	0xbcdde8d3	-0.027088558
97	0xbd309116	-0.043107115
98	0xbd381dc3	-0.044950258
99	0xbd412915	-0.04715832
100	0xbd1a1e01	-0.03762627
101	0xbc8a449f	-0.016878424
102	0xbcd52e28	-0.026022986
103	0xbbecd7be	-0.007227867
104	0x3bacce02	0.0052735815
105	0xbc186e15	-0.009303589
106	0xbce1ef8e	-0.027580049
107	0x3bd7948b	0.006578987
108	0x3d2d5aab	0.042322796
109	0xbd010476	-0.031498395
110	0xbc1b445e	-0.009476749
111	0xbc37f4a0	-0.011227757
112	0x3d273730	0.040824115
113	0x3cbd2dbd	0.023093099
114	0xbd1f341c	-0.038868055
115	0x3c989819	0.018627213
116	0x3d020c93	0.031750273
117	0xbb78f76e	-0.0037989276
118	0xbcdc5acb	-0.026898762
119	0xbd3e59eb	-0.04647247
120	0xbc4c6a8f	-0.012476577
121	0x3d0e3292	0.034716196
122	0xbd1fc932	-0.039010234
123	0x3c3b2c19	0.011424088
124	0xbcefed29	-0.029287891
125	0xbd4a724c	-0.04942541
126	0xbd0f3030	-0.034958065
127	0x3d18741d	0.03722011
128	0x3c4fa84d	0.012674403
129	0x3ccd0847	0.025028361
130	0x3b347fc7	0.0027541982
131	0xbc69ccad	-0.01426999
132	0xbcd23c26	-0.025663447
133	0x3bcc1351	0.0062278886
134	0xbd3732bd	-0.044726122
135	0xbbc9a9e9	-0.006154288
136	0x3cc51091	0.024055751
137	0x3d21f6d8	0.03954205
138	0xbb8f16fe	-0.0043667546
139	0xbbb94885	-0.005654397
140	0x3c25830d	0.010102046
141	0xbbecfb89	-0.0072321338
142	0x3c3cbce4	0.011519644
143	0x3cc3e230	0.023911566
144	0xbcf38584	-0.029726751
145	0xbc935235	-0.017983535
146	0xbb589a29	-0.003305087
147	0x3d3834f5	0.04497238
148	0x3d3de5cb	0.046361726
149	0xbcab3bb6	-0.020902496
150	0x3cc36c21	0.02385527
151	0xbd145fed	-0.036224294
152	0xbcbeb756	-0.02328078
153	0x3ca8176a	0.020518977
154	0x3c7b8e0f	0.015353694
155	0x3cec8712	0.028873
156	0xbd49f46f	-0.049305376
157	0x3c884bc5	0.016637692
158	0xbcbe86bb	-0.023257604
159	0x3d14702f	0.0362398
160	0x3c4b680e	0.012414945
161	0xbd35a336	-0.044345103
162	0x3d4d93e5	0.05018987
163	0xbd320fdd	-0.04347216
164	0x3d193077	0.037399735
165	0x3d3892a4	0.045061722
166	0xbcd3c019	-0.025848435
167	0x3a15d6dc	0.00057159155
168	0x3d42d25a	0.047563888
169	0xbd4ce455	-0.050022442
170	0x3c1c7cb9	0.009551221
171	0xbd34c055	-0.044128735
172	0x3d18cfd6	0.037307583
173	0x3c2dcbc1	0.010607661
174	0xbcf7607f	-0.03019738
175	0x3d2d35b4	0.042287543
176	0xbcd5e33e	-0.026109334
177	0xbc6b960e	-0.014379038
178	0x3d15f4eb	0.036610525
179	0x3c81da53	0.015851175
180	0x3c9aaa55	0.018880049
181	0x3bb5d7bd	0.0055493996
182	0x3cb5f712	0.022212539
183	0xbc3ce362	-0.011528822
184	0x3cc18c8d	0.02362659
185	0x3d3c89f9	0.04603002
186	0x3d27a0c3	0.0409248
187	0xbd2da7b3	-0.04239626
188	0x3d110403	0.035404216
189	0x3bf5c8d8	0.007500749
190	0xbcc5dfd6	-0.024154585
191	0x3cbce475	0.023058156
192	0xbc0a38e0	-0.008436412
193	0xbd0bcb7b	-0.0341296
194	0x3d25b7c5	0.04045846
195	0xbcc8c445	-0.024507651
196	0x3d302900	0.04300785
197	0x3d33377e	0.043754093
198	0xbb0ca280	-0.0021459162
199	0xbbe2009b	-0.006897045
200	0x3cc4b6ca	0.024012942
201	0x3c99effb	0.01879119
202	0x3bedcc0f	0.0072569917
203	0x3bd4660b	0.006481891
204	0xbad6ec94	-0.001639741
205	0xbc86ddf1	-0.016463252
206	0xbc8f556d	-0.017496789
207	0x3d383fd5	0.04498275
208	0xbd07db74	-0.03316827
209	0x3bcf3674	0.00632363
210	0x3c18d953	0.009329158
211	0xbd1c1f14	-0.038115576
212	0xbd495919	-0.049157236
213	0x3cd3529e	0.02579623
214	0xbd238a7b	-0.039926987
215	0xbc87332f	-0.016503898
216	0x3c9283d4	0.017885126
217	0x3cd0b325	0.025476048
218	0xbbac8c83	-0.0052657737
219	0xbd33aa14	-0.04386337
220	0xbc6e1284	-0.014530782
221	0xbd2ec39d	-0.04266702
222	0xbd0ae490	-0.03390938
223	0xbb89b6ba	-0.004202691
224	0xbd0b063e	-0.0339415
225	0x3cb5ac2e	0.022176828
226	0x3cf3b483	0.02974916
227	0xbc931daf	-0.01795849
228	0x3cf7c113	0.030243432
229	0x3d1975ff	0.037466045
230	0x3d2b3683	0.041800033
231	0xbd02fc62	-0.031978972
232	0xbcc779df	-0.024350105
233	0x3c8b9b6c	0.017041884
234	0xbc024d69	-0.007953026
235	0x3c014ff7	0.0078926
236	0xbd4a8e16	-0.04945191
237	0x39c75cdd	0.00038025426
238	0xbd28767c	-0.04112862
239	0xbd4edbec	-0.050502703
240	0xbcace2d7	-0.02110426
241	0x3d05591f	0.032555696
242	0xbc827647	-0.01592554
243	0x3cd00963	0.025395101
244	0x3ba456ee	0.0050152456
245	0xbd410561	-0.04712427
246	0xbc97d763	-0.018535322
247	0x3c469066	0.012119388
248	0xbc26dc59	-0.010184371
249	0x3d107057	0.035263386
250	0x3d116bbd	0.035503138
251	0x3caa1656	0.020762604
252	0x3b905142	0.004404218
253	0x3c151b46	0.009100741
254	0xbd360e00	-0.044446945
255	0xbd324e99	-0.043531988

conv3.bias f4 [100]
0	0xbcf0b022	-0.029380862
1	0xbc80138b	-0.015634319
2	0xbd21fbbf	-0.039546724
3	0xbd1fda25	-0.0390264
4	0xbd2e43d2	-0.042545147
5	0x3ce66af0	0.028127164
6	0x3ca55112	0.020180259
7	0xbcb1557b	-0.021647206
8	0x3cedfe3b	0.02905189
9	0xbd4ecd5f	-0.050488826
10	0xbd06f38b	-0.032947104
11	0x3cf3c197	0.029755397
12	0xbca163cf	-0.019700913
13	0xbd4841e9	-0.04889098
14	0xbd3c8a2a	-0.0460302
15	0x3d25a991	0.040444914
16	0x3c71755c	0.014737453
17	0xbcca4abf	-0.024693845
18	0xbcfdc37c	-0.030977003
19	0x3d0ae979	0.033914063
20	0xbd3b9f0d	-0.04580598
21	0x3cf34f7e	0.02970099
22	0xbcf6e1dd	-0.030136997
23	0x3d4d7578	0.050160855
24	0xbb96bfa6	-0.004600483
25	0xbc75fa2e	-0.015013261
26	0xbd3511b7	-0.044206347
27	0x3d333f0d	0.0437613
28	0xbc64419f	-0.013931661
29	0x3c874399	0.016511725
30	0xbb9384fc	-0.004501937
31	0x3d139f21	0.03604043
32	0x3cf6c4eb	0.030123195
33	0xbb236b4c	-0.002493578
34	0x3d2de5ef	0.04245561
35	0xbd23d6e2	-0.03999985
36	0x3d22c10c	0.039734885
37	0x3d137691	0.036001746
38	0x3cd84cfb	0.026403895
39	0x3ca6cc95	0.020361224
40	0x3c7b4807	0.015336997
41	0x3d091261	0.033464793
42	0x3d301617	0.042989817
43	0xbccee170	-0.025253981
44	0xbba4f502	-0.00503409
45	0xbcfa1e8d	-0.030532146
46	0xbcbab67d	-0.022792095
47	0x3a06186e	0.00051153346
48	0x3b1acb11	0.0023619572
49	0xbc24c59e	-0.010056881
50	0xbca432a1	-0.020043673
51	0x3ce657ad	0.028117979
52	0xbd2267de	-0.039649837
53	0xbcc22ca6	-0.02370293
54	0xbcaffa0b	-0.021481534
55	0x3c597269	0.013271906
56	0x3d22e7da	0.039771892
57	0xbb12eb50	-0.002241809
58	0xbd1ca4ee	-0.038243227
59	0xbcf4641c	-0.029832892
60	0x3c26d05a	0.010181511
61	0xbca8d921	-0.020611348
62	0xbd184e75	-0.037184197
63	0x3cc40646	0.023928773
64	0xbc0a39ef	-0.008436664
65	0xbd2969de	-0.04136073
66	0xbd0836c6	-0.03325536
67	0x3d134724	0.035956517
68	0x3c267270	0.01015912
69	0xbb016725	-0.0019745317
70	0x3cceb61d	0.025233323
71	0xbc756708	-0.014978178
72	0xbd08f3b1	-0.033435527
73	0xbcce1af2	-0.025159333
74	0x3ce5b16c	0.028038703
75	0xbca48c8e	-0.020086553
76	0x3cf033ef	0.029321639
77	0x3b92553e	0.004465728
78	0x3b95ab46	0.0045675365
79	0xbd35104a	-0.044204988
80	0x3c95bba9	0.01827796
81	0x3d008c1c	0.03138362
82	0xbc7642c8	-0.01503057
83	0x3bf90782	0.007599772
84	0xbd0986d8	-0.033575863
85	0xbd0ad00c	-0.033889815
86	0x3d1cc4e5	0.03827371
87	0x3c13a2c6	0.009010976
88	0xbd184e85	-0.037184257
89	0xbba195ef	-0.0049312036
90	0xbbe5a3ae	-0.0070080375
91	0x3b9af73b	0.004729179
92	0x3cab29be	0.020893928
93	0x3ca3f2bc	0.020013206
94	0xbcd11ad0	-0.02552548
95	0xbc891dae	-0.016737785
96	0x3d335d81	0.043790344
97	0x3c8581a0	0.016297162
98	0x3d000221	0.03125203
99	0x3c9b104a	0.018928666

fc1.weight f4 [84, 100]
0	0x3d8921dd	0.06695912
1	0xbcd6ea55	-0.026234785
2	0x3dc8d67c	0.09806535
3	0xbcb79577	-0.022410138
4	0xbdcbeeb9	-0.09957642
5	0xbd781258	-0.06056437
6	0x3cc2c300	0.023774624
7	0xbdb12ab8	-0.08650726
8	0x3dc00c99	0.09377403
9	0x3bb723f3	0.0055890023
10	0x3cad9d0b	0.021193048
11	0xbdba8b6e	-0.09108625
12	0x3cb6f9bd	0.022335881
13	0x3dc0f018	0.09420794
14	0xbc15ba6f	-0.0091386875
15	0x3d431eb9	0.04763672
16	0x3b5ac00d	0.0033378631
17	0x3d1a2b9c	0.037639245
18	0x3d72a46e	0.059238844
19	0xbc18d3dd	-0.009327856
20	0x3bb8eeba	0.005643693
21	0xbd4b004a	-0.049560823
22	0xbd493974	-0.049127057
23	0x3d552ae9	0.052042875
24	0xbd8a4482	-0.06751348
25	0xbd537542	-0.051625498
26	0xbce2d727	-0.027690483
27	0xbd531030	-0.05152911
28	0xbcbd1433	-0.02308092
29	0xbd0b19aa	-0.033960022
30	0x3d4f6d4c	0.050641343
31	0x3d25e6bb	0.040503245
32	0x3d5884e2	0.052861102
33	0xbd9c81ef	-0.0764197
34	0x3d91760e	0.07102595
35	0xbdbb1ad0	-0.091359735
36	0x3d395c66	0.045254134
37	0xbd621514	-0.055195883
38	0x3cb870b4	0.022514679
39	0x3d69066c	0.05689089
40	0xbd787c1f	-0.060665246
41	0xbd8c39ce	-0.06846963
42	0x3dc6ef36	0.097135946
43	0xbd94cb70	-0.07265365
44	0x3cb4c009	0.022064226
45	0x3d803a7a	0.062611535
46	0xbdac2719	-0.08405895
47	0xbc600908	-0.013674028
48	0xbd62eab2	-0.055399604
49	0xbdaf4f0a	-0.085599974
50	0x3d92141d	0.071327426
51	0xbd3ea095	-0.04653986
52	0x3db58057	0.088623695
53	0x3da220d5	0.079164185
54	0x3d2698ff	0.040673252
55	0xbcf67be3	-0.03008837
56	0x3cce6efd	0.025199408
57	0xbdb0fa45	-0.08641485
58	0xbc8e3fca	-0.017364401
59	0x3da99efc	0.08282277
60	0x3d9f4cdf	0.07778334
61	0x3cf18790	0.029483587
62	0xbd5a9376	-0.053363286
63	0x3d8cddf6	0.06878273
64	0xbd217b9e	-0.03942453
65	0x3d229b44	0.039698854
66	0x3c2d963a	0.010594899
67	0xbdb2a64d	-0.087231256
68	0xbcfd4b86	-0.030919801
69	0xbd8b7e21	-0.068111666
70	0xbdae6a52	-0.08516373
71	0xbc814ef9	-0.015784727
72	0x3b5f9b78	0.0034119766
73	0xbdc1e67a	-0.09467788
74	0xbd421766	-0.047385596
75	0x3d8a0cbb	0.067407094
76	0xbccbc524	-0.024874277
77	0xbd90a24d	-0.070622064
78	0xbcbeb5b6	-0.023280006
79	0xbd8f29e1	-0.0699041
80	0xbdcc89cd	-0.09987221
81	0x3dc6edff	0.09713363
82	0x3c440868	0.011964895
83	0xbd98da85	-0.07463554
84	0x3d70836e	0.05871909
85	0x3d17fa16	0.037103735
86	0x3d2e65f0	0.042577684
87	0x3d9281ac	0.07153639
88	0x3da43611	0.08018125
89	0xbccad3ea	-0.024759252
90	0xbda5bab1	-0.08092249
91	0xbd0f7129	-0.035020027
92	0x3d44620e	0.047945075
93	0xbc487492	-0.012234824
94	0x3da981d2	0.082767144
95	0xbba5c7d6	-0.0050592227
96	0xbd8fc7c2	-0.07020523
97	0xbd4dd888	-0.05025533
98	0xbdade811	-0.08491529
99	0xbdb3f038	-0.087860525
100	0xbd5b2fa2	-0.053512223
101	0x3d876953	0.06611886
102	0x3dc68038	0.096924245
103	0x3dbb3bc4	0.09142259
104	0x3d89ee89	0.0673495
105	0xbd93626f	-0.07196509
106	0x3d19095b	0.037362438
107	0x3da6d89d	0.081467845
108	0xbc2ce9a2	-0.010553749
109	0xbd473baa	-0.048640884
110	0x3dae9be7	0.0852583
111	0xbc500b39	-0.012697988
112	0x3d8f22bd	0.06989048
113	0x3dafa73b	0.085768186
114	0xbdc2582a	-0.09489472
115	0xbd3d8026	-0.04626479
116	0x3d834c56	0.06411044
117	0xbd48043d	-0.048832167
118	0x3d39c026	0.045349263
119	0x3da2df02	0.079526916
120	0x3d0db045	0.03459193
121	0x3c0ae56c	0.00847755
122	0x3d5f1616	0.054464422
123	0xbdac436d	-0.08411298
124	0x3bced32b	0.0063117943
125	0xbd68d081	-0.05683947
126	0xbd164bb3	-0.036693286
127	0x3c6b1088	0.014347203
128	0xbca9aeb7	-0.020713193
129	0xbda70d5d	-0.08156846
130	0xbd9395b1	-0.07206286
131	0x3db8061d	0.08985541
132	0xbc83a610	-0.016070396
133	0xbda697c9	-0.081344195
134	0xbcfaca63	-0.030614084
135	0xbd1217a1	-0.035667066
136	0xbd0d9401	-0.034564976
137	0x3db56feb	0.08859237
138	0x3c7a32da	0.015270913
139	0x3dccea48	0.10005623
140	0xbd5fea7d	-0.054666985
141	0x3da43646	0.08018164
142	0x3d4da6c5	0.050207872
143	0xbc7cad5c	-0.0154221915
144	0x3da131d8	0.07870835
145	0x3bcad786	0.006190243
146	0xbbf8d132	-0.0075932974
147	0x3d28f22d	0.04124658
148	0xbc43b2b8	-0.011944465
149	0xbb7e51f4	-0.0038806172
150	0xbc7d39a0	-0.015455633
151	0x3c841199	0.016121672
152	0xbd1afb9c	-0.03783761
153	0x3b3f153b	0.0029156941
154	0xbb502ca6	-0.0031764894
155	0xbd4e0cbd	-0.050305117
156	0x3d499c45	0.049221296
157	0x3d561771	0.05226845
158	0x3d5299f1	0.05141634
159	0x3dacc538	0.08436054
160	0x3d07a64e	0.033117585
161	0xbc58b0f7	-0.013225785
162	0xbdbb4464	-0.09143904
163	0x3d82aed0	0.06380999
164	0xbb82ef3d	-0.0039958046
165	0x3d402c0c	0.046917006
166	0xbd99d472	-0.07511224
167	0xbd93544d	-0.071938135
168	0x3d909c95	0.07061116
169	0xbcd42aff	-0.025899408
170	0x3d03860a	0.03211025
171	0x3c570574	0.013123859
172	0xbc2949b5	-0.0103325145
173	0xbc84dbc5	-0.016218076
174	0x3d2eae78	0.042646855
175	0xbd3f5813	-0.046714853
176	0xbd9a3b12	-0.07530798
177	0x3da2f48a	0.079567984
178	0x3da3e0ac	0.08001837
179	0x3dacad83	0.08431532
180	0x3c3179ef	0.010832294
181	0x3b9069ab	0.004407128
182	0x3c15e1b3	0.009148049
183	0xbd8621f6	-0.06549446
184	0xbdac1134	-0.08401719
185	0xbdbe4419	-0.09290332
186	0x3d3efc77	0.046627488
187	0xbd9f2b14	-0.077718884
188	0xbd242708	-0.040076286
189	0xbc8bb411	-0.017053636
190	0xbd87dfa5	-0.06634454
191	0x3d88c606	0.06678395
192	0xbcfccb5c	-0.030858688
193	0x3d2a95b4	0.041646674
194	0x3c8bb51a	0.01705413
195	0xbd7ab83c	-0.061210856
196	0x3d309065	0.043106455
197	0xbd592812	-0.05301673
198	0x3dc5a5b4	0.09650746
199	0x3c407dde	0.011748759
200	0xbc898026	-0.016784739
201	0xbd86c89b	-0.06581231
202	0x3d4f1111	0.050553385
203	0x3dc09b81	0.0940466
204	0xbd9c4dff	-0.07632064
205	0xbcbe4911	-0.0232282
206	0x3d572bb9	0.05253193
207	0x3c1d9b74	0.009619582
208	0x3d7838ef	0.06060117
209	0xbd07a6ac	-0.033117935
210	0xbc7046fb	-0.014665361
211	0xbd4cec39	-0.050029967
212	0xbd264240	-0.040590525
213	0x3d982165	0.074282445
214	0xbc9aaeea	-0.018882234
215	0x3da0e577	0.07856267
216	0x3d756cb9	0.05991814
217	0xbc9f0b31	-0.019414516
218	0x3d4d82a7	0.050173428
219	0xbdbeb6d3	-0.09312215
220	0xbd3aa707	-0.045569446
221	0xbd31ab59	-0.0433763
222	0xbd0400c0	-0.032227278
223	0xbceac362	-0.028657619
224	0xbdad7851	-0.08470214
225	0x3cd9bfc8	0.026580706
226	0xbdb45286	-0.088048026
227	0xbd45043a	-0.048099734
228	0x3d1e9edf	0.03872573
229	0x3ba71bf7	0.005099769
230	0xbd020b57	-0.031749096
231	0x3ca2ec81	0.019888164
232	0x3b5be6f8	0.0033554416
233	0x3d727ffb	0.059204083
234	0x3d128612	0.03577239
235	0x3d446cf8	0.047955483
236	0x3d871498	0.06595725
237	0xbd4bdea9	-0.049772892
238	0x3d46ab94	0.048503473
239	0xbd81487c	-0.063126534
240	0x3c1b68da	0.009485448
241	0xbd1f3c7e	-0.03887605
242	0x3a8c94dd	0.0010725517
243	0x3d1fa940	0.03897977
244	0x3db97124	0.09054783
245	0x3d21dbbc	0.039516196
246	0xbd9a18d7	-0.07524269
247	0x3d2d2649	0.04227284
248	0x3d477765	0.048697848
249	0x3d483336	0.048876964
250	0xbd93628e	-0.07196532
251	0x3d1f1a54	0.038843468
252	0xbd507e05	-0.05090143
253	0xbca7bd31	-0.020475956
254	0xbcd49422	-0.025949541
255	0xbd94628c	-0.07245359

fc1.bias f4 [84]
0	0xbdaee094	-0.08538929
1	0xbdc3bd18	-0.09557551
2	0x3da614f0	0.08109462
3	0x3d9411b7	0.07229941
4	0x3c785d1b	0.015158917
5	0xbd799210	-0.06093031
6	0xbd202052	-0.039093323
7	0xbcd84559	-0.026400255
8	0xbb1acedc	-0.0023621833
9	0x3d2f0cff	0.042737003
10	0x3d421713	0.047385287
11	0x3c1f210b	0.009712468
12	0xbd031efa	-0.032011963
13	0xbd806e3c	-0.062710255
14	0x3b9254c9	0.0044656736
15	0x3c89eece	0.016837504
16	0xbd87ea08	-0.06636435
17	0xbbd01e07	-0.006351236
18	0x3d431510	0.04762751
19	0xbd741996	-0.059594713
20	0x3d0a1396	0.033710085
21	0x3d5ece6f	0.05439609
22	0xbd9938e5	-0.07481555
23	0xbb328e07	-0.00272453
24	0x3d34fb28	0.044184834
25	0x3d414b31	0.04719085
26	0x3c45d8c5	0.012075608
27	0x3d44d0d1	0.048050705
28	0xbcddf242	-0.027093057
29	0x3c89f515	0.016840497
30	0x3d4249b5	0.047433574
31	0x3d8bd4ea	0.068277195
32	0xbc721d8b	-0.014777551
33	0x3d7cc78f	0.06171375
34	0xbb55405f	-0.003253959
35	0xbd1a6463	-0.037693392
36	0xbd2367ea	-0.039894022
37	0xbd0276ff	-0.031851765
38	0x3dc317a4	0.095259935
39	0xbcc305a4	-0.0238064
40	0xbcc6e433	-0.024278736
41	0xbada0f57	-0.0016636652
42	0xbbd3510e	-0.0064488715
43	0x3d8e6886	0.0695353
44	0x3d8ccbaa	0.06874783
45	0xbc9b014d	-0.018921519
46	0xbd741850	-0.0595935
47	0xbcd1213c	-0.025528543
48	0xbdc6eaf9	-0.09712786
49	0x3c38432f	0.011246487
50	0xbc79fa79	-0.015257471
51	0xbda45b93	-0.08025279
52	0x3da79438	0.08182567
53	0x3d0ef479	0.034901116
54	0xbd963cc5	-0.073358096
55	0xbd0bdbe4	-0.03414525
56	0xbd50e07e	-0.050995342
57	0xbd9ffcd1	-0.07811893
58	0xbd2b5c82	-0.04183627
59	0xbcc209f8	-0.023686394
60	0xba8b5c59	-0.001063238
61	0xbd7c96cf	-0.06166726
62	0x3dcf69ae	0.10127579
63	0x3d886e3a	0.06661649
64	0x3d899625	0.06718091
65	0x3cef556f	0.029215543
66	0x3c1b4f8d	0.009479416
67	0x3dbbc9ee	0.091693744
68	0x3c487d4d	0.012236905
69	0x3cb4171d	0.021983678
70	0x3c143257	0.009045205
71	0x3b7fde6f	0.0039042493
72	0x3b93e72d	0.0045136423
73	0x3d19353b	0.03740428
74	0xbd621af7	-0.055201497
75	0x3cf0c4ba	0.029390682
76	0xbdb18825	-0.08668546
77	0x3d7e0104	0.062012687
78	0xbdbdd737	-0.092695646
79	0x3da74c3d	0.08168838
80	0xbc60ef53	-0.013728934
81	0xbd94bcd8	-0.072625816
82	0xbd6bd81f	-0.057579156
83	0x3da504d4	0.080575615

fc2.weight f4 [10, 84]
0	0x3d88fb15	0.06688515
1	0xbb91cb3f	-0.0044492777
2	0x3d80230b	0.06256684
3	0x3d16c197	0.036805715
4	0xbd3b7eb1	-0.04577512
5	0x3c1020a6	0.0087968465
6	0xbce2e5f1	-0.027697535
7	0xbd3dbae1	-0.0463208
8	0xbc884b0f	-0.016637353
9	0x3d805ef7	0.06268113
10	0xbc5dab4e	-0.013529612
11	0xbddb6937	-0.107134275
12	0x3d99673f	0.07490396
13	0xbd24cd8f	-0.0402351
14	0xbb803df2	-0.0039136345
15	0xbc761c3b	-0.015021379
16	0xbc593292	-0.013256686
17	0xbce3260c	-0.027728103
18	0x3ba9a404	0.005177023
19	0x3d9cb1ea	0.07651122
20	0x3d792b6c	0.060832426
21	0x3d218d68	0.039441496
22	0xbd917969	-0.07103235
23	0x3d3df129	0.046372566
24	0xbd6332d1	-0.055468384
25	0xbda1bf52	-0.078978196
26	0xbd80136c	-0.062537044
27	0x3dcb22c6	0.09918742
28	0xbc380227	-0.011230982
29	0xbaa9305a	-0.0012908087
30	0xbd289edb	-0.04116712
31	0xbd5d08b0	-0.053963363
32	0x3d91ac57	0.07112949
33	0xbd0d2a1a	-0.03446398
34	0x3d9439b4	0.072375685
35	0xbcff7c6b	-0.031187257
36	0x3dd50200	0.10400772
37	0x3da5e5a1	0.08100439
38	0xbc6bf049	-0.01440055
39	0x3da3ce2c	0.079983085
40	0x3d99ad9a	0.07503815
41	0x3cf3ec3a	0.029775728
42	0x3b865eb2	0.004100644
43	0x3be1bccd	0.006888962
44	0x3dbef896	0.09324758
45	0x37143936	8.834808e-06
46	0x3c2b5a4f	0.010458543
47	0xbbd41b62	-0.006472991
48	0x3db2c26d	0.0872849
49	0x3cf4b2c2	0.029870395
50	0x3d1e0815	0.038581926
51	0xbd120879	-0.03565261
52	0xbd8b64cf	-0.06806337
53	0xbc9fd2f6	-0.019509774
54	0x3db8744b	0.09006556
55	0x3b05c399	0.0020410775
56	0xbbac301a	-0.0052547576
57	0xbdc58d7a	-0.09646125
58	0x3d3b89ea	0.045785822
59	0x3d1fd376	0.039020024
60	0xbdabf060	-0.08395457
61	0xbd2f673a	-0.042823054
62	0x3d987351	0.0744387
63	0xbc65caab	-0.014025371
64	0xbda804be	-0.082040295
65	0xbaa93070	-0.0012908112
66	0xbd022cd6	-0.03178104
67	0xbdc34401	-0.09534455
68	0xbd9a5b77	-0.07536977
69	0xbd4d2cbf	-0.0500915
70	0x3c087f46	0.008331126
71	0xbdd9d303	-0.106359504
72	0x3dcbc6be	0.099500164
73	0xbdd0aafb	-0.10188862
74	0x3dc34bbf	0.09535932
75	0x3da64151	0.08117927
76	0x3be7e784	0.0070771594
77	0xbc5637f4	-0.013074864
78	0xbd1665c7	-0.036718156
79	0xbdcac400	-0.09900665
80	0xbdb50e20	-0.08840585
81	0x3c3bb961	0.011457772
82	0x3cc6e67d	0.024279827
83	0xbb65c160	-0.0035057887
84	0xbc499f64	-0.012306068
85	0xbc403903	-0.011732343
86	0x3cf3096c	0.029667579
87	0xbc89b410	-0.016809493
88	0xbcfbd84c	-0.030742787
89	0x3d9a9978	0.07548803
90	0x3d958187	0.07300096
91	0xbcbf0bf2	-0.023321126
92	0xbd07b304	-0.033129707
93	0xbbdb24f9	-0.006687757
94	0xbd4cd680	-0.05000925
95	0xbc89411d	-0.016754681
96	0xbd415d6a	-0.047208227
97	0xbca096d0	-0.019603163
98	0x3d9e0901	0.07716561
99	0x3ae2c63c	0.001730151
100	0x3d920e5b	0.07131644
101	0x3dbcceeb	0.09219154
102	0xbd680f56	-0.05665525
103	0xbce58057	-0.028015299
104	0x3c985756	0.018596333
105	0x3d39fac3	0.04540516
106	0x3d9ee3b1	0.077582724
107	0x3d01fc77	0.03173491
108	0xbcd77d7e	-0.026304957
109	0x3d8984bc	0.0671477
110	0xbdb84fb9	-0.08999581
111	0xbcbd8707	-0.023135675
112	0xbdb83dfa	-0.08996196
113	0x3dd6574f	0.104658715
114	0xbda694b6	-0.08133833
115	0x3d9d3abc	0.07677218
116	0x3d0d1bb5	0.03445025
117	0x3c13d968	0.009024002
118	0x3b2227c1	0.0024742933
119	0x3dd32f68	0.103117764
120	0x3d50d67f	0.05098581
121	0xbdbfcacc	-0.09364852
122	0x3d8dadfe	0.06917952
123	0x3dd1dd45	0.10247282
124	0x3d95b34b	0.07309588
125	0xbdb42cf6	-0.08797638
126	0x3bc9e3ff	0.0061612125
127	0xbd6dc585	-0.058049697
128	0x3d323a19	0.043512437
129	0xbda7d36e	-0.08194624
130	0xbdd37ee7	-0.10326939
131	0xbc6000e8	-0.013672091
132	0x3d85920d	0.065219976
133	0xbd620ad2	-0.0551861
134	0xbdd8f462	-0.10593487
135	0x3da8b34a	0.08237322
136	0x3dbbab0d	0.09163485
137	0xbd557630	-0.052114666
138	0xbc877701	-0.016536238
139	0xbda57bde	-0.080802664
140	0x3ced3d37	0.028959854
141	0x3d242b1d	0.04008018
142	0xbdbb4817	-0.091446094
143	0x3d043743	0.032279264
144	0x3d198785	0.037482757
145	0x3db80693	0.08985629
146	0x3c58ca70	0.013231859
147	0xbd506478	-0.050877064
148	0x3d4a531e	0.049395673
149	0x3db6a474	0.08918086
150	0x3c58580e	0.013204588
151	0x3dbab7fc	0.091171235
152	0xbd18f350	-0.037341416
153	0x3d1a1052	0.03761322
154	0xbcac97ce	-0.02106848
155	0xbd9a09be	-0.075213894
156	0x3d84a457	0.06476658
157	0xbd4ef460	-0.050526023
158	0xbc25442e	-0.010087056
159	0x3da929af	0.08259904
160	0xbd78fa5e	-0.060785644
161	0xbd239bbc	-0.03994344
162	0xbd17b685	-0.0370393
163	0xbcd811bc	-0.026375644
164	0x3d36772b	0.04454724
165	0x3cfe26ce	0.031024363
166	0xbd18ef3a	-0.03733752
167	0xbdd19e48	-0.10235268
168	0x3cff8b4b	0.03119435
169	0xbdacdf41	-0.0844102
170	0xbdbc449c	-0.09192774
171	0x3d6974ec	0.05699627
172	0x3dcf1986	0.1011229
173	0xbca182d0	-0.019715697
174	0xbc039a0c	-0.008032333
175	0xbd86c8c0	-0.06581259
176	0xbcb8006f	-0.022461144
177	0x3cc4264f	0.023944048
178	0xbd00871d	-0.031378854
179	0x3d924845	0.071426906
180	0xbdddbc42	-0.10826923
181	0xbae5f3b2	-0.001754394
182	0xbd84231c	-0.06452009
183	0x3db232ec	0.08701119
184	0x3cd5c1b2	0.026093338
185	0xbcadcc88	-0.021215692
186	0xbd2432b2	-0.04008741
187	0x3cb881af	0.022522775
188	0x3cd266b6	0.025683742
189	0x3d33645b	0.04379688
190	0xbd7714eb	-0.060322683
191	0x3c2d048d	0.010560167
192	0x3d8a3687	0.067486815
193	0xbcf66475	-0.030077199
194	0x3dcbfc6b	0.09960254
195	0xbdb04523	-0.08606937
196	0xbde0deae	-0.10979973
197	0x3ddf7d4c	0.1091257
198	0x3da73a01	0.0816536
199	0x3d659f15	0.056059916
200	0x3d815488	0.06314951
201	0x3d051ca4	0.032498017
202	0x3de1aad2	0.110189095
203	0xbdce96f1	-0.100873835
204	0x3da258d9	0.079271026
205	0x3dd77fc9	0.1052242
206	0xbd5d7501	-0.05406666
207	0x3bd398e5	0.0064574354
208	0x3cea935b	0.028634718
209	0xbd8dd515	-0.06925408
210	0x3c81199f	0.015759287
211	0xbba475fc	-0.0050189476
212	0xbdbf1ed9	-0.093320556
213	0xbd64cca2	-0.055859216
214	0xbd9a4b4f	-0.07533895
215	0xbd704ec5	-0.05866887
216	0xb8ccd50c	-9.767161e-05
217	0xbd04d621	-0.03243077
218	0xbcedb4f2	-0.029016946
219	0x3dd2466f	0.102673404
220	0xbdb35bcb	-0.087577425
221	0x3ddf1cb0	0.108941436
222	0xbda96e95	-0.08273045
223	0x3b9b18c0	0.004733175
224	0x3bf0305e	0.0073299846
225	0xbd1c09a7	-0.038095143
226	0xbcdaeff7	-0.026725752
227	0x3dbcceb1	0.09219111
228	0x3d2e5f5b	0.042571407
229	0xbd092fd9	-0.033492897
230	0xbd67c178	-0.05658099
231	0x3dbed6d7	0.09318321
232	0xbb6ca5a9	-0.0036109483
233	0xbdcf3382	-0.10117246
234	0x3d0ce979	0.034402344
235	0xbd34483a	-0.044014193
236	0x3ca9b358	0.0207154
237	0xbdae2a6b	-0.08504184
238	0xbdab350d	-0.08359728
239	0xbdb7f0a3	-0.08981445
240	0xbd73ec5d	-0.059551585
241	0x3d8a0401	0.06739045
242	0x3ddcba9d	0.10777781
243	0x3d696ee9	0.056990538
244	0x3cf79c8b	0.030226013
245	0x3c5be377	0.013420931
246	0x3dd4270b	0.10359009
247	0xbcca1263	-0.02466697
248	0x3d9e0d4e	0.077173814
249	0x3c10d9ab	0.008840959
250	0x3c82c704	0.015964039
251	0xbda8e33a	-0.08246465
252	0x3ddaf7de	0.10691808
253	0x3d20cf52	0.039260216
254	0x3c1d86b3	0.009614634
255	0xbd004868	-0.031319052

fc2.bias f4 [10]
0	0xbd534dc1	-0.051587824
1	0x3d748cc4	0.059704557
2	0xbd6e243a	-0.058140017
3	0x3d008daa	0.0313851
4	0xbd752426	-0.059848927
5	0xbd02cd1b	-0.031933885
6	0xbd017664	-0.031607047
7	0xbcf6c838	-0.030124769
8	0xbd472e44	-0.048628107
9	0x3d14e4c7	0.03635099
