trained_lenet_w_acc_98.pt (torch_old, 248187 bytes, 10 tensors)

conv1.weight f4 [6, 1, 4, 4]
000000 1c 3b ba be 35 35 6f 3d 7c 83 89 be 43 78 67 be
       -0.36373222 0.05840035 -0.26858127 -0.2260447
000010 7d 81 aa 3d 3b 8c 4e 3d 10 c4 c3 3d 6e 1e 8d 3d
       0.08325479 0.050426703 0.0955888 0.068905696
000020 9b da 66 3e e1 5c 21 3e f3 88 5a 3c b0 5e 18 3e
       0.22544329 0.15758087 0.013338315 0.1487987
000030 03 d2 e8 3e e7 14 d6 3d a6 e6 90 3d da 39 fd 3e
       0.45472726 0.104532056 0.07075243 0.494582
000040 95 68 52 3e 26 4d 83 bd ca 62 bd bd 89 3c a2 3d
       0.20547707 -0.06411199 -0.09247358 0.079217024
000050 44 11 9b 3e b6 93 e2 3d 9d 04 fc 3d ec bb e4 3d
       0.3028661 0.1106333 0.123055674 0.11168656
000060 2c 70 fc 3d be 84 b9 3e 33 2d 4b 3e d2 cf d6 3e
       0.123260826 0.36234087 0.19841461 0.4195543
000070 35 94 e1 3c 1f 68 26 be d2 f5 08 3d 8d 40 2b 3d
       0.027536491 -0.16250657 0.033437558 0.041809607
000080 fc b9 90 3d ab 1f e2 bd 5f 38 87 be 53 19 06 bf
       0.07066724 -0.110411964 -0.26410195 -0.5238239
000090 19 e1 7b bd 71 9a 0e 3e f4 07 3f be ca b2 ec be
       -0.061493967 0.13926102 -0.18655378 -0.46230155
0000a0 40 c9 b7 3c f6 02 9f bd e2 fa a7 bc 4e ff dc 3e
       0.02243483 -0.07764237 -0.020505372 0.43163532
0000b0 9a 9b e9 3d 85 2a 49 3e bd 68 b9 3e 6b ac 28 3e
       0.11406632 0.19645126 0.3621272 0.16472022
0000c0 ee 0a 1d be 21 37 63 3e cb f0 7c 3e aa 54 ac 3e
       -0.153362 0.22188999 0.2470123 0.33658344
0000d0 59 69 01 bd a9 f6 34 bd 96 10 95 3d 88 1d a8 3e
       -0.031594608 -0.044180546 0.07278554 0.3283503
0000e0 e1 24 8d be 94 67 fa 3d 93 cd 88 bd 73 4b 5a bd
       -0.275672 0.12226787 -0.06679835 -0.05329461
0000f0 c7 96 96 be f4 31 9b be 96 e9 26 be ca 68 78 be
       -0.2941191 -0.3031155 -0.16300043 -0.24258724
000100 a9 e8 19 be 6c 41 1c bd df 49 25 be fe a7 26 bc
       -0.15030159 -0.03814833 -0.16141461 -0.010171888
000110 ca e7 cc bd 80 ad fb 3d d5 c4 cc 3e 15 d2 8d 3e
       -0.10005148 0.12288952 0.3999392 0.27699342
000120 a5 ff 68 3d 34 b8 3d 3e 5a 79 83 3e b6 15 69 3d
       0.056884427 0.18527299 0.2567852 0.05690547
000130 2c 26 6d bb 9a 35 28 3e d7 36 cb 3e 64 c6 12 be
       -0.0036186082 0.16426697 0.39690277 -0.14333493
000140 8d 4e bc 3e ff 86 5d bc 64 bf fb 3d 4f ba 4f bd
       0.3677868 -0.013520955 0.12292364 -0.050714787
000150 95 1a 52 3d ae b6 14 3e e3 41 ea 3d 9f 7d 10 3e
       0.05129488 0.14522812 0.11438348 0.1411042
000160 f4 58 36 3e 6b d5 ec 3d 7d 82 ab 3e 91 b8 d3 be
       0.1780737 0.11564144 0.33497992 -0.4135175
000170 06 c4 f6 bd 17 36 8f be 55 ed 7d be 3c fc cd be
       -0.12049107 -0.27970955 -0.24797566 -0.40231502

conv1.bias f4 [6]
000000 14 6d f7 bd ae 62 81 be 46 d7 a1 be cc e7 c7 be
       -0.12081352 -0.252706 -0.31609553 -0.39044034
000010 d8 1b 1e bf 44 82 79 3e
       -0.61761236 0.24366099

conv2.weight f4 [16, 6, 5, 5]
000000 f2 e5 13 bd c7 d5 a6 3d 54 db 31 3e 79 65 50 3d
       -0.036107965 0.081462435 0.17368823 0.050878022
000010 18 bb 8c 3d 79 6c f5 bd 9e 7b 05 be 3e 1d 4d be
       0.06871623 -0.1198358 -0.13035437 -0.20030686
000020 25 c8 2e be 4b f2 10 bd df 52 e3 3c 76 f9 e7 3b
       -0.17068537 -0.03538732 0.027749477 0.0070792986
000030 d3 4e 44 be f5 86 13 be 94 fa f5 bd d0 42 96 3d
       -0.19170694 -0.14406951 -0.120106846 0.07336962
000040 0d fe d2 3d a4 c1 81 3d 27 ff 0b 3e 29 0b d3 bd
       0.103023626 0.06335762 0.13671552 -0.10304863
000050 6e 86 e6 bd d7 6c d9 3c 25 ad a0 bd f5 5c 2a bc
       -0.11256109 0.026541157 -0.07845525 -0.010398139
000060 74 bf 91 3c 47 85 9b bd f2 22 da bc 52 e7 8d 3d
       0.017791487 -0.0759378 -0.026627991 0.069288865
000070 f0 f5 37 bd 6f 6c 18 3d d7 b6 e0 bd cd 30 85 bc
       -0.04491228 0.037212785 -0.10972374 -0.016258622
000080 29 99 17 bd b1 4b 1d bd 82 dc 72 bd bb 5c 99 bd
       -0.0370113 -0.038402263 -0.059292324 -0.0748839
000090 15 c2 57 be 80 7c 89 be 21 cb 35 be 3b 81 61 bd
       -0.2107013 -0.26852798 -0.17753269 -0.055054884
0000a0 62 3a b0 3c 30 12 00 bc b6 9d cd bc cc a5 da bd
       0.021512214 -0.007816836 -0.025099616 -0.106761545
0000b0 d3 fb 48 be f3 06 32 3d 83 bc d1 3d 32 42 fe 3c
       -0.19627313 0.04346366 0.10241034 0.031037424
0000c0 01 df d0 bc 4a 62 56 3c 29 c6 10 be 0f 6b 07 3e
       -0.025496962 0.013084957 -0.14138092 0.13224433
0000d0 1b 7d a7 3d 68 6d df 3d 81 2a 47 3e 3c 44 9e 3b
       0.08178159 0.109095395 0.19449808 0.0048299115
0000e0 b1 08 ee bc 2f 4b 4f be 39 c4 ff bd 54 96 e8 bd
       -0.029056879 -0.20243524 -0.124885984 -0.11356798
0000f0 03 56 3d 3e 23 86 93 3d 5a 05 8c 3a 21 2a d4 3b
       0.18489842 0.07203319 0.0010682747 0.0064747487
000100 f4 70 94 3d 6c 3b 81 3d 05 7e 12 3e c1 21 0e 3e
       0.072481066 0.06310162 0.14305885 0.13880064
000110 c4 24 cd 3d cb 91 8f bd 1d e4 4c bb a6 ff 6d bd
       0.10016778 -0.0701023 -0.0031263896 -0.058105133
000120 e8 cd 13 bd 8b 86 57 bc 69 43 a0 bb 11 c7 8f 3d
       -0.03608504 -0.013154636 -0.0048908484 0.07020391
000130 d5 f0 42 bb 63 1a 99 3b 70 bf 74 bd 38 26 18 be
       -0.0029745598 0.004672335 -0.05975288 -0.1485833
000140 bd bc 5f 3d 82 7f da 3d 7b 75 8f 3e bb dd 9a 3e
       0.054623354 0.106688514 0.28019318 0.30247292
000150 f0 89 22 3e e2 d9 15 be b2 05 ad bd 0b a2 68 bd
       0.15872931 -0.14633897 -0.08448352 -0.05679516
000160 28 8f 34 3e 74 97 03 3e f5 f2 21 bc 9f 6f 72 bd
       0.17632735 0.12850744 -0.009884586 -0.05918848
000170 27 4f 8a bd e2 b4 6a bd a3 f8 a6 3d 90 a4 13 bd
       -0.06753378 -0.05730141 0.081528924 -0.03604561
000180 0a 99 98 3d 63 00 70 bd 42 35 db bd 95 ff ce bc
       0.07451065 -0.05859412 -0.107035175 -0.025268355
000190 2f fb 93 3d 5e 2b d4 3d 15 6d 62 3e 2b 6d 52 3e
       0.07225644 0.10359834 0.22111924 0.20549457
0001a0 46 c9 53 3e 51 40 15 3d 26 7f 09 3d ea 51 78 3d
       0.20682248 0.03643829 0.033568524 0.060624994
0001b0 32 dd c8 bc 6d d2 93 3d 1d c1 f0 3d b5 d4 02 be
       -0.024519537 0.0721787 0.117555834 -0.12776454
0001c0 85 58 0f be 8c 1e 37 bd 0e fb 79 3d 70 c1 d8 3d
       -0.13998611 -0.044706866 0.06103044 0.1058377
0001d0 e2 f1 09 bc e3 44 b4 bb 06 57 3d bd c7 e7 cc bc
       -0.008419486 -0.005501376 -0.04622557 -0.025012864
0001e0 44 74 1f 3d c4 da 47 3d 31 37 14 3e 19 3d b2 3c
       0.03892924 0.048792616 0.14474179 0.02175765
0001f0 dd 89 16 bb 36 f3 61 bd 32 4d 7a 3c 6a 3c ae bd
       -0.0022970357 -0.055163585 0.015277194 -0.08507617
000200 d2 93 2e be 05 7f 2f be 6f 4f f4 bd 2c 59 1d 3b
       -0.17048576 -0.17138298 -0.11929213 0.002400945
000210 6b 9c 85 3e 2f af 82 3e 4d 88 ae 3d 07 39 ff bd
       0.260959 0.2552428 0.08522091 -0.12462049
000220 c8 0d 61 bd 06 41 97 bd 82 17 f7 bd 0d 40 06 bd
       -0.054944783 -0.07385449 -0.12065031 -0.032775927
000230 7c 88 7d 3c 4d ae 86 be 30 ad 5e be 68 42 db bd
       0.015474435 -0.26304856 -0.21745753 -0.10706025
000240 d7 ef 97 3c c6 41 83 bd 8f 09 05 bd ba ea 4f 3d
       0.018546982 -0.0640903 -0.03247982 0.050760962
000250 a6 c4 24 3b 72 2a 3a bd 24 e0 03 3e 42 b5 18 3e
       0.0025141626 -0.045450635 0.12878472 0.14912894
000260 04 9c c6 bc 51 19 0d 3d e1 ab ce 3c b3 ba b6 3d
       -0.024244316 0.03444797 0.025228443 0.08922329
000270 cf 75 97 3d 8d af 89 bd d9 d7 88 3c 50 bf 19 3d
       0.07395517 -0.06722937 0.016704487 0.037535965
000280 a4 e0 e7 bd 2c 29 b8 3d 28 98 1e bb 71 33 b7 bd
       -0.11322144 0.08992228 -0.002419958 -0.089453585
000290 e7 ff fd 3c 64 ac dc bc 3a 2b 14 3c 99 57 dc bc
       0.031005813 -0.026937671 0.009043509 -0.026897239
0002a0 05 fb 3a 3d 61 04 e7 bc f3 b5 c2 bc f7 e3 f8 3b
       0.045649547 -0.02820033 -0.0237684 0.007595535
0002b0 01 ed ba 3c 87 40 0c bd 14 8f 0d bc 0a 39 94 3d
       0.02281809 -0.034241226 -0.0086400695 0.07237442
0002c0 37 86 cf 3d 83 ed 0d be 52 19 f6 bd 6c c0 e5 bc
       0.10133021 -0.13860135 -0.12016548 -0.028045855
0002d0 13 8e aa 3d d2 d7 c2 3d 14 98 0c be 1f 29 ba bd
       0.0832788 0.09513821 -0.13729888 -0.090898745
0002e0 af 4a 22 bd 4d 51 56 3c a6 89 dd 3c 5d 39 95 bd
       -0.039622005 0.013080907 0.027043175 -0.07286332
0002f0 5f 72 ce bd 63 3b 51 3b 4e da ce 3c 32 2c 72 3c
       -0.10080408 0.0031926266 0.02525058 0.014781045
000300 f3 bd e9 3c 1b c3 9c bd bd f8 b3 3d 8a 68 9d 3c
       0.028532958 -0.07654401 0.087876774 0.019214887
000310 38 7d 13 3e ac f3 a5 3c 55 c3 8f 3d 37 f4 bf 3c
       0.14403236 0.020257793 0.070196785 0.02343188
000320 ac 71 b4 3d 86 fc c3 3d 27 06 e7 3d 34 f8 6f 3d
       0.08810744 0.095696494 0.1128047 0.058586314
000330 18 20 98 3d 44 da a7 bd b7 f0 16 3e ee a8 bf 3d
       0.074279964 -0.08195928 0.14740263 0.09358393
000340 85 48 cb 3d fb eb d7 bb 9f 06 f8 bd e5 cb 00 be
       0.099259414 -0.0065894104 -0.12110638 -0.1257778
000350 07 39 3f 3c 41 61 11 3d 2a 91 e4 bd 36 5f 82 bd
       0.011671311 0.03549314 -0.111605 -0.06365816
000360 db 9c d9 bd b1 83 73 3d 94 cb 71 bb c2 a6 14 be
       -0.10625621 0.059451763 -0.0036895024 -0.14516738
000370 32 bc 76 bd eb e3 90 3c 83 08 24 3e 9c 3c 9d 3c
       -0.06023807 0.017686805 0.16018872 0.01919394
000380 32 1f ff bd 3e 5c f9 bd b5 30 0a be bc 70 6b 3c
       -0.12457122 -0.12175797 -0.13495143 0.01437014
000390 ca 97 e5 bd fa 50 cb 3c 1c 5a 15 3e 41 1b f0 3b
       -0.11210592 0.024818886 0.14585155 0.0073274677
0003a0 b8 85 cf bd ab b8 52 bd 8e 8d 20 3d 03 00 b8 3b
       -0.10132927 -0.051445644 0.039197497 0.005615236
0003b0 4a ea 01 3d ec aa 96 bd 17 06 8a bd cf 23 83 3d
       0.031717576 -0.073568195 -0.06739443 0.06403314
0003c0 ab f2 f1 bd 28 14 71 3d 79 e0 1c be 69 77 8f 3c
       -0.11813863 0.058857113 -0.15320005 0.017512994
0003d0 87 d3 57 3e 4e 10 d0 3d 19 31 ab 3c 04 d0 ac bd
       0.21076785 0.1015936 0.020897435 -0.08438113
0003e0 8d 71 cf bc f1 c2 1a 3e f6 aa c3 3d bd ff d7 3d
       -0.0253227 0.15113427 0.095540926 0.10546825
0003f0 3d 35 60 bd e6 77 62 be 4c 5f d6 bd f1 ef b3 3c
       -0.054738272 -0.2211605 -0.10467395 0.021964999

conv2.bias f4 [16]
000000 5d e0 94 be d1 c3 3f be 9a 18 46 be d9 74 3e be
       -0.29077426 -0.18727042 -0.19345322 -0.18599261
000010 e8 f4 0a be a7 9f 8e 3d d9 33 a3 bc 21 73 08 be
       -0.13569987 0.06964045 -0.019922184 -0.13325168
000020 a9 c3 cd bd fd 22 85 be 0e 32 33 be 57 0d 1b bd
       -0.10047085 -0.26003256 -0.17499563 -0.03785452
000030 80 75 eb bd b5 ec 28 bd da ee 6e be 33 fc c0 bc
       -0.11497021 -0.041241366 -0.23333302 -0.023557758

conv3.weight f4 [120, 16, 5, 5]
000000 56 0d 1b bd be 54 a8 3b 8b 25 2e bb 9d 75 8c bc
       -0.037854515 0.005137055 -0.002657267 -0.017145926
000010 bf a6 8a bc c0 0b 21 3c d6 99 89 3d d8 d8 93 3d
       -0.016925214 0.009829462 0.06718795 0.07219094
000020 07 32 f9 3d 65 54 07 3d 22 c3 20 3b ed 6b d0 bb
       0.12167745 0.03303947 0.002453037 -0.006360522
000030 dd 04 92 bd 73 23 f1 3c 99 5a 96 3d 19 8b 90 3d
       -0.07129834 0.029435849 0.07341499 0.07057781
000040 dd 37 54 3d 7b 24 d0 bd ad a1 86 bd e1 03 b0 3c
       0.051811088 -0.10163208 -0.06573806 0.021486225
000050 57 c6 0f 3d cb 7d 41 3c 85 f9 21 bd d0 9b d8 bc
       0.03510126 0.011809777 -0.0395446 -0.026441485
000060 b3 1a 47 bd ff 05 ed ba 9a 17 39 bd be de b7 bd
       -0.048609447 -0.0018083452 -0.045188524 -0.089780316
000070 5c d3 26 bd b3 b7 97 3c 33 9f 40 3c 8b 8e 4d bd
       -0.04072891 0.018520212 0.011756706 -0.050184768
000080 f1 86 66 bd f3 b0 23 bc 34 43 c4 3b a0 eb 0f bc
       -0.056281034 -0.009990918 0.0059894565 -0.008784205
000090 54 a7 f7 bc d0 c5 f8 bc 61 0c 39 3b 1d 5f 17 bd
       -0.030231155 -0.030367762 0.0028236138 -0.03695594
0000a0 4e 4e a1 39 f0 05 09 bd 24 fd 0a bd 39 63 c1 3c
       0.00030766655 -0.033452928 -0.03393282 0.023606883
0000b0 fd bd b1 3a 0c dd 89 3c ff 0e 80 3d 0d 1c 7c 3c
       0.0013560649 0.016829036 0.0625286 0.015387547
0000c0 3d 10 2c bb 7d 18 27 3d ea 38 0e 3d 15 5d bc bc
       -0.0026254796 0.04079484 0.034722246 -0.022993604
0000d0 69 df 84 bd 02 cd b0 3b 0b c9 53 3c 3f 2e 97 bb
       -0.064879246 0.0053955326 0.01292635 -0.0046136673
0000e0 af 8d 82 3c 3a c1 af 3b fc 6e 71 bd b8 ac 00 3d
       0.0159367 0.0053636106 -0.058943734 0.031414717
0000f0 17 bd 70 bd 89 fe e9 bc 75 0d 31 3c 58 f7 b0 bd
       -0.05877408 -0.028563755 0.010806431 -0.08640927
000100 67 12 7e 3c cf 8a 0f bb 97 41 8b 3d 03 23 62 bb
       0.015507317 -0.0021902805 0.0679962 -0.0034505732
000110 04 f7 d8 bc ce 01 e1 3c 2d 7d fc bc 36 25 06 bd
       -0.026484974 0.02746668 -0.030821407 -0.03275033
000120 72 9c c6 3d 34 22 0f 3d 58 10 b4 bc cf be f0 bc
       0.09697808 0.034944728 -0.02198045 -0.02938786
000130 49 b3 b7 bd 70 04 08 bc 5f af 7c bd e0 bc cb bc
       -0.08969743 -0.008301839 -0.061690684 -0.024870336
000140 a4 a7 b0 bc 8e 6d 4f bd 5c 9f 1d 3d cd f8 e7 bc
       -0.021564312 -0.05064159 0.038482055 -0.02831688
000150 10 d1 24 bd 86 85 9b 3c 14 db 5d 3d 25 0f 0d 3d
       -0.04023844 0.018984567 0.054164007 0.03443827
000160 73 9d 94 bd e8 83 a8 3c 15 27 b1 3c 46 30 a6 bc
       -0.072565936 0.02057071 0.021625081 -0.02028669
000170 c8 c8 0e 3d 7b 12 eb bc 64 e1 66 bd 8c b6 ee 3c
       0.03485945 -0.028695336 -0.056367293 0.02913978
000180 2c ca a1 bc 0a 0a 05 bd 95 29 8b bc b7 f2 c7 3c
       -0.019749723 -0.032480277 -0.016987601 0.024407728
000190 ef ce c1 3c 97 5b 3f 3d 17 af 7d 3c 9c 28 dc bc
       0.023658244 0.046718206 0.015483639 -0.026874833
0001a0 4f 14 3f bb d5 16 2a bd 2f 7d 88 3b 2c 68 4a bd
       -0.0029156392 -0.04152568 0.0041653137 -0.049415752
0001b0 50 d4 ab bc c7 00 1e bd 12 49 77 3c 5a 15 73 bd
       -0.020975262 -0.03857496 0.015093105 -0.059346534
0001c0 25 a4 be bd f6 4b 4c bd 77 35 4b bb 3c 71 12 3d
       -0.09308652 -0.04987713 -0.003100721 0.03575252
0001d0 89 72 28 3d 37 ad 4a bd f6 57 3c bd 5d 4c 25 bd
       0.041124854 -0.049481597 -0.045982324 -0.04035603
0001e0 32 a8 87 3d 60 94 64 3d c5 28 44 bc 45 3e 3a bd
       0.066238776 0.055805564 -0.011972611 -0.04546954
0001f0 3f a4 de bb 41 c4 d4 3b 83 91 52 3d 0c c7 7d bd
       -0.006794482 0.006493122 0.051408302 -0.061957404
000200 a9 0a 10 3d 42 bf 44 bb 60 99 0f bd a5 b2 87 3c
       0.035166416 -0.0030021225 -0.03505838 0.016564677
000210 f5 54 44 bd 07 58 1e ba 09 68 30 3c 7f e6 bb 3c
       -0.047932584 -0.0006040339 0.010766991 0.022937058
000220 6e 37 1e 3c 0d de 20 bc 34 cf 4a bb e2 7e 30 bb
       0.00965677 -0.009818566 -0.0030946257 -0.0026931097
000230 ce 9a 4d 3c a2 3f e8 3c 0e f9 72 3d 05 dc 35 3c
       0.012549115 0.028350655 0.05931955 0.01109982
000240 ec 31 50 3d ab 2c a8 3d d9 43 0b 3d 26 77 8b bc
       0.05082886 0.08211645 0.03400025 -0.017024588
000250 cf a4 83 bd a3 97 18 bd 32 30 aa bc 40 1c 44 bc
       -0.06427919 -0.037253987 -0.020774934 -0.011969626
000260 e0 d7 7a bd 64 91 c1 bc be 36 1b bd 5f 7f 4b 3c
       -0.06124103 -0.023628898 -0.037894003 0.012420504
000270 57 72 c3 bc 67 52 8e bd 65 ca 51 bd 2f 39 39 bb
       -0.023858232 -0.06949311 -0.05121841 -0.0028262844
000280 1e 3f d8 3c 58 b7 0f 3c 1f 3b d0 3c 63 1f 5f bc
       0.026397284 0.00877174 0.025418816 -0.013618323
000290 23 03 8c 3b 27 bf c4 bc 79 22 51 bd 5a 83 59 bd
       0.004272835 -0.02401693 -0.051058266 -0.053103782
0002a0 83 c0 b4 3c 9c 1f a0 bb 49 a5 12 3d 76 7e 79 3c
       0.022064453 -0.0048865806 0.03580216 0.015227905
0002b0 b9 35 7b 3d 0d dc e2 ba 04 a5 4a bd ae 1f 70 3d
       0.06133053 -0.0017308012 -0.049473777 0.058623962
0002c0 dd 7b 32 bc c1 65 b2 3c 0a a6 01 3d e4 0f e1 3a
       -0.010893789 0.021777036 0.031652488 0.0017170873
0002d0 c9 fd b5 bb f1 34 45 bd 03 4f cf 3b 8c f0 44 3b
       -0.005553935 -0.048146192 0.0063265576 0.0030050604
0002e0 b1 ef f9 bc c7 9b a1 3c 57 16 e2 3c 03 13 25 bd
       -0.030509802 0.0197276 0.027598543 -0.040301334
0002f0 ff 60 ec 3c 05 b4 cb 3c 30 21 ff 3c 04 4c a9 3d
       0.028854845 0.024866113 0.031143755 0.08266452
000300 bb 3f 1c bd 88 b6 55 bd b0 1a 55 3d 40 34 f2 bb
       -0.038146716 -0.05217603 0.052027404 -0.0073914826
000310 e9 43 94 3c 94 75 8a bd d8 18 46 bd b3 cd cc ba
       0.018098788 -0.067607075 -0.048363537 -0.0015625268
000320 02 ed 8d ba d4 e2 c5 3c 51 19 b4 bb 83 7c 74 bd
       -0.001082808 0.024156012 -0.005496182 -0.059689056
000330 96 e9 8d bd 64 30 68 3c a8 d5 14 3d 48 1d 7d bb
       -0.069293186 0.0141716935 0.03633657 -0.003862219
000340 a7 af 76 3d 22 22 30 bd cc 0f 79 3c f7 06 dd 3c
       0.06022611 -0.0430013 0.01520152 0.02698086
000350 de 7f d0 3b 21 d7 41 b9 76 49 0b bd bc d5 df bc
       0.006362899 -0.00018486056 -0.034005605 -0.027323596
000360 68 16 34 bc 9f fb 62 bd 20 95 31 3d 8a 5a 5d bd
       -0.01099167 -0.055415746 0.043355107 -0.054041423
000370 3b be 6b bc 35 a7 eb 3c 94 fe 10 bc 9f d2 40 bd
       -0.014388616 0.028766254 -0.008849759 -0.047075864
000380 58 84 19 bd 10 9d 5e bc 18 bd 70 3d 22 33 89 3d
       -0.03747973 -0.013587251 0.058774084 0.06699206
000390 70 60 88 3d 31 2d 1a 3d 0e 96 d0 3c 28 26 fc 3c
       0.06659019 0.037640754 0.025462177 0.030779913
0003a0 b2 0f 9b 3d 87 5d b4 3d 96 f5 9c 3c ca b7 84 3d
       0.07571353 0.088069014 0.019160073 0.064803675
0003b0 86 73 13 bd f4 a2 1e 3c 22 b4 ba bc 9e f4 e4 bb
       -0.035998844 0.009682406 -0.022790972 -0.0069871685
0003c0 96 7b 04 3d 81 51 ba 3d 2f 7b 4b 3d c2 ac 36 bd
       0.032344423 0.09097577 0.049678024 -0.04459835
0003d0 6f 98 83 bd 4f 3e 82 bd 36 51 ef bc ad 13 9c bc
       -0.06425559 -0.06359541 -0.02921353 -0.01905235
0003e0 98 24 50 bd 85 07 3d bd 60 48 a3 3c 8d 45 e5 3c
       -0.05081615 -0.04614975 0.019931972 0.027987266
0003f0 c7 f7 7a bb af 47 d4 bc 0a 0a 81 bc 82 7a ad bb
       -0.003829466 -0.025913088 -0.015751857 -0.005294145

conv3.bias f4 [120]
000000 aa 8c ad bc 8c 1d 51 bd 9d 7f 64 3c cd ac 44 3c
       -0.021185238 -0.05105357 0.013946441 0.01200409
000010 68 e2 4c bb 3a d2 f2 3c 2c 7a 81 bd f1 fd df 3c
       -0.0031262878 0.02964126 -0.063221306 0.027342768
000020 74 1d 53 3b 10 ba db bb 76 63 2d bc 3c ea 4a 3c
       0.00322136 -0.00670553 -0.010582795 0.012384947
000030 0a 68 ec 3c 00 f3 26 3d cc 69 4d 3d 3f 07 13 3a
       0.028858203 0.040759087 0.050149724 0.0005608685
000040 fc 45 81 3d 8a e6 83 bb 8e 73 85 bc a9 1c 11 bb
       0.063121766 -0.004025285 -0.016290452 -0.0022142327
000050 68 c4 08 bb e3 44 39 bd 91 cf df 3c 52 f0 96 3c
       -0.002086902 -0.04523171 0.027320655 0.01842514
000060 85 71 ec bc 8b ea 4f ba 5d ef 62 bd 88 7a 69 3d
       -0.028862724 -0.0007931373 -0.055404056 0.05700162
000070 82 81 ef bb ab 7e 18 3d 77 a7 e6 3b 43 17 1d bc
       -0.0073091397 0.037230175 0.0070390063 -0.009588066
000080 39 6e 61 bd 7d 8c 12 bd 36 74 8f 3c 5c be a7 bb
       -0.055036757 -0.03577851 0.017511468 -0.005119128
000090 24 36 89 bb ca 5f 45 ba 8f 82 f1 3c f3 69 fe bc
       -0.0041873623 -0.00075292273 0.0294812 -0.03105638
0000a0 e8 e5 49 3d d7 f4 19 3c 74 e8 25 3d f8 8b b8 bc
       0.04929152 0.009396753 0.040504888 -0.02252768
0000b0 c4 4f 26 3d 0f 31 8a bc 0f b8 6a 3c 17 4d 7c bd
       0.040603414 -0.016869096 0.01432611 -0.061596956
0000c0 34 e1 ee 3c 3a e9 4e b9 e9 aa e0 bc 8f 48 cb bc
       0.02916012 -0.00019732575 -0.027425246 -0.024814872
0000d0 b0 9f 0b bd bf c6 76 bd fb 13 4d bc 2f a5 cd bc
       -0.034087837 -0.060248133 -0.012516971 -0.02510318
0000e0 97 75 42 3d ca 3f 0b 3c 1e 07 36 3d 00 51 0b bc
       0.047475424 0.008499095 0.04444038 -0.008503199
0000f0 ce 68 55 ba b0 a5 ad 3b 37 ec e0 bc 1b 8b 44 bc
       -0.00081409223 0.0052992925 -0.027456386 -0.011996056
000100 23 15 14 3c 72 7c 58 bc 6d 80 1d bd c8 68 3b 3c
       0.0090382425 -0.013213264 -0.038452554 0.011438556
000110 94 0b d2 bc b8 bf 33 3c e9 13 0a 3d e1 f6 02 3d
       -0.025640287 0.010971002 0.033710394 0.031973723
000120 88 c9 9a bc 7f e0 60 3d 87 8c bf 3b e0 72 cd bc
       -0.018894926 0.054901596 0.0058456096 -0.02507919
000130 d2 87 7f bb 50 ed 85 3c f5 c9 bf 3c 13 f5 d0 3c
       -0.0038990867 0.016348511 0.02341173 0.025507485
000140 7f e2 94 3c 92 a5 19 bd 13 6b 58 3a 9c 2e bb bc
       0.018174408 -0.037511416 0.00082557014 -0.022849374
000150 9f eb 28 bc 06 c9 67 bb 59 45 b6 bb 62 3d 48 bc
       -0.010310083 -0.0035367622 -0.005562466 -0.012221666
000160 23 4b d0 bc 49 93 14 bd 04 f4 a1 bc 30 cd 0c 3c
       -0.025426453 -0.036273275 -0.019769676 0.008593842
000170 2e 56 a2 bc f5 01 1d 3b 0b 00 69 3c bc 34 04 bc
       -0.019816484 0.0023957465 0.014221202 -0.0080692135
000180 13 9c 8e bc b0 1f 41 3c 5e f4 f0 3a e7 b2 08 3d
       -0.017408406 0.01178734 0.0018383374 0.03337374
000190 5e 21 03 bd 97 94 1b 3d 57 d5 4b 3d 68 a3 42 bd
       -0.032014243 0.037983503 0.049764004 -0.047519118
0001a0 a6 e3 e7 bb a5 94 aa 3c e9 c9 74 bd f1 a1 ec bc
       -0.0070766984 0.020822832 -0.05976287 -0.028885813
0001b0 94 02 f7 bc 79 dc 05 3d ef 24 27 3d 67 08 15 bc
       -0.030152597 0.032680962 0.040806707 -0.009096242
0001c0 b7 23 ee bc 65 dd 6a bc dc ea a1 3c d0 f0 c6 ba
       -0.029069765 -0.014335011 0.01976531 -0.0015177969
0001d0 c8 3b 40 bd 34 a7 0a bd 20 45 80 3c 3f 92 cb bc
       -0.04693201 -0.033850864 0.015657961 -0.024850009

fc1.weight f4 [84, 120]
000000 0d e9 78 bc 9e a5 bc bc 45 84 d4 bb 7f ba 15 be
       -0.015192282 -0.023028191 -0.0064854943 -0.14621924
000010 90 90 c5 bd dc ec b3 bc 54 79 b7 bc 6c c6 e7 bd
       -0.09646714 -0.02196353 -0.022396721 -0.11317143
000020 a0 10 05 3e ed 85 e9 3b 12 8f 83 bd 9d eb 26 be
       0.12994623 0.007126561 -0.06423773 -0.16300817
000030 2b 68 d7 3c 9a c6 d8 bc d7 56 a3 bb b0 4a 85 3d
       0.026294788 -0.026461888 -0.0049847174 0.06508386
000040 3b e9 1c bd 1a 72 ec 3c f7 83 49 3d e1 32 44 bd
       -0.038308363 0.028863002 0.049198117 -0.047900084
000050 68 ef b4 3b ae 44 ee bc 79 cc a3 3d 02 e6 99 3d
       0.0055217035 -0.029085483 0.079979844 0.07514574
000060 f2 67 1a bd 59 cd 5b bc 0a 92 3f 3d 07 f2 3d 3d
       -0.037696786 -0.013415658 0.046770133 0.046373393
000070 17 e6 1e 3d 17 0b a5 3d c6 e0 3b bc 14 f2 fd 3d
       0.03879365 0.08058756 -0.011467164 0.12399688
000080 f2 30 f0 3c f8 ef 1f bd 4b fc c4 bd b6 2c f1 bd
       0.029320214 -0.03904721 -0.096184336 -0.11776106
000090 60 b1 48 3c e0 57 94 bb 7d 95 d0 3d ce 20 1f bd
       0.012249321 -0.004527077 0.101847626 -0.038849644
0000a0 ea b6 de bd 6f 12 74 bd 01 04 12 3d 32 46 28 bc
       -0.10874732 -0.059587892 0.03564835 -0.010270642
0000b0 55 3b 18 b8 c6 9b e2 3c e4 99 84 bc d8 48 64 bd
       -3.629488e-05 0.02766217 -0.016186662 -0.05573353
0000c0 65 db a9 3c 09 57 e6 3d da 34 01 3c c7 e3 93 3d
       0.020734498 0.112470694 0.007886136 0.072211795
0000d0 d2 1f 26 3b 3b 5f b1 bd 57 c8 37 bd 49 52 79 3c
       0.0025348556 -0.08660742 -0.044868793 0.015217372
0000e0 ae f1 03 bd d2 3d 6c bd 29 b6 81 bc ac a3 f6 bd
       -0.032212906 -0.057676144 -0.015833931 -0.12042937
0000f0 3f 72 e4 bb 0b 24 9b bc 62 60 90 3d 50 c3 0c 3c
       -0.006971627 -0.018938085 0.070496336 0.008591488
000100 cb 68 df 3b 9b 1c 14 3c c6 c3 a7 3d 75 3d 0d 3d
       0.006817912 0.009040023 0.08191638 0.034482438
000110 78 32 b4 bd dc 56 a5 bd bc 0f 85 bd ea 11 28 bd
       -0.08798689 -0.08073208 -0.06497142 -0.04103271
000120 fa 47 db 3d 14 ac d2 3c c3 64 0e 3d bf b5 89 3d
       0.10707088 0.025716819 0.034764063 0.067241184
000130 8d a6 6b bc 5a 4e 83 3d 02 cf ce 3c e3 20 d5 bd
       -0.0143829705 0.06411429 0.025245193 -0.10406663
000140 dd 61 49 bd 1a 97 34 bd 25 e6 0b 3d 8f 6a f6 39
       -0.049165595 -0.044089414 0.03415503 0.0004700017
000150 2e cb ba bd e9 02 01 bd 81 99 83 3d 66 11 6f bc
       -0.09120785 -0.031496916 0.06425763 -0.01459155
000160 72 13 f0 bd 70 76 48 bd 12 f2 29 3d e1 c6 2f 3d
       -0.11722459 -0.048941076 0.041490622 0.042914275
000170 c8 7e f6 3d 6c db 1c be fd 80 cd 3a b0 54 01 3c
       0.120359 -0.15318078 0.00156787 0.007893726
000180 d4 73 6b 3d d6 a6 a3 bd c4 31 b7 bd ca 7b 03 bc
       0.05748351 -0.07990806 -0.08945039 -0.008025119
000190 a8 c5 02 3d ed 03 94 3d cb c7 f7 3c e2 93 9b bc
       0.03192678 0.07227311 0.030246636 -0.018991414
0001a0 6c 3d 08 bc b2 6b 4b bd fe 29 ca bd 18 66 84 bc
       -0.008315425 -0.049663253 -0.098712906 -0.016161963
0001b0 01 ff 36 3d ad b3 30 bc fe e0 9a 3d 1c 61 48 3d
       0.044676784 -0.010785026 0.07562445 0.048920736
0001c0 62 f9 68 bb 26 13 8c 3d 48 46 d9 3c 02 3f 26 bd
       -0.0035549034 0.0683959 0.02652277 -0.040587433
0001d0 e1 db 3f 3d 64 4c 58 bd b9 9b be bd 97 df 1d 3d
       0.046840552 -0.052807227 -0.093070455 0.03854331
0001e0 1f 45 2e 3d 5c 3d 18 bc 01 dd 61 bd d7 44 90 bd
       0.042546388 -0.009291973 -0.055142406 -0.0704438
0001f0 91 5b 26 3d 0c 55 0e be cf 91 a8 bc df 2b dc bc
       0.04061467 -0.1389963 -0.02057734 -0.026876388
000200 dd 96 71 bd f2 20 a1 3d 7a e7 aa bd d3 58 a8 bd
       -0.058981765 0.07867612 -0.08344932 -0.08220067
000210 92 4a d3 bd 9e c1 ab bd 54 42 78 bd 4f b5 02 3d
       -0.103169575 -0.08386539 -0.06061013 0.03191119
000220 57 5a 2f 3d a9 f8 30 bc ee 6a 56 bd 9f fb d3 bd
       0.042810764 -0.010801473 -0.05234807 -0.10350727
000230 ae 9e 8a 3d 38 a2 a3 3c 94 7b 03 3c d7 82 b3 3c
       0.06768547 0.019974813 0.008025069 0.021912975
000240 98 19 97 ba 81 2b 95 3d db ad 48 bd 4c 18 9d 3d
       -0.0011528013 0.07283688 -0.048993926 0.0767065
000250 71 55 b9 3d 77 a2 a9 3d 15 9a aa bd c0 51 94 3d
       0.090495 0.08282941 -0.0833017 0.07242155
000260 1f d4 cf bd 39 eb a6 bd 02 d5 42 bb 82 d7 c1 3d
       -0.10147881 -0.08150334 -0.0029729013 0.09464933
000270 b9 6d 7a bc 5b f8 1e 3d 9c 0b 5d bd ca 6a 9b 3d
       -0.015284949 0.03881107 -0.05396615 0.07588728
000280 69 51 92 3d 6e 02 f7 bc ce c9 83 3d 33 22 51 ba
       0.07144434 -0.030152526 0.064349756 -0.00079778134
000290 f7 fc 5e 3d de 13 1b bd 3f d6 fe 3b 17 74 8a bc
       0.054440465 -0.037860744 0.007777005 -0.01690106
0002a0 f5 7d 85 3b e2 37 d9 bd 85 3c 32 bd 1f b7 56 bd
       0.004073853 -0.10606362 -0.043514747 -0.05242073
0002b0 28 b4 1a 3d 2e 5f 50 3b 31 13 3d 3d 3c 08 b6 bc
       0.037769467 0.0031795013 0.04616088 -0.022220723
0002c0 ee e9 ce 3c 07 b1 65 3b 89 e3 c8 3d 2d 41 00 3c
       0.02525803 0.0035048143 0.09809024 0.007828039
0002d0 8d 90 86 3d 9b dd 0b 3d 06 36 0d 3e 1b a9 7b 3d
       0.065705396 0.034146886 0.1379014 0.06144057
0002e0 cc 47 c4 bc 81 f2 f5 bd 81 02 dd 3c 1d 1a d5 bb
       -0.023960017 -0.120091446 0.026978733 -0.006503357
0002f0 56 a0 8b 3c 1c d0 0f bd 17 2f cf bd d8 6a 24 be
       0.017044228 -0.035110578 -0.101164035 -0.16056383
000300 0a 04 6f 3b 34 97 1e bd 16 bc 2c 3c e2 1a b2 bd
       0.0036470913 -0.038718417 0.01054289 -0.08696534
000310 7a 55 9b bd 76 40 89 bd 67 66 9c 3d be f6 50 3c
       -0.07584663 -0.06701748 0.07636719 0.01275414
000320 6b ab 90 3d 83 31 1c bd 27 68 94 bd 27 c9 7b bd
       0.070639454 -0.038133156 -0.07246428 -0.06147113
000330 8b 62 8b bd eb 20 04 be f8 8c 23 3d 74 f3 32 3d
       -0.06805905 -0.12903182 0.03992936 0.043689206
000340 f6 fd c2 bc db 79 f1 3d 1a b7 cd 3b 85 be ea bc
       -0.023802739 0.1179082 0.006277931 -0.0286553
000350 f8 4a 15 3e ee 3f 9d 3d 75 03 2a 3d 1f d4 aa 3c
       0.1457938 0.07678209 0.041507203 0.0208531
000360 68 80 77 ba d8 f8 1d 3d f6 12 0b bd 0a c5 e2 3c
       -0.0009441436 0.038567394 -0.03395363 0.027681846
000370 1d 61 a3 3d 19 64 66 3b 70 71 1e 3a 37 a7 3c 3d
       0.07977507 0.0035154878 0.0006044125 0.046057906
000380 9c a8 55 bc 51 58 94 3d bf 24 04 be d8 b8 f0 bd
       -0.013040688 0.072434075 -0.12904643 -0.11754006
000390 8f 66 fb 3c 2e 58 b2 3c db c4 9f 3c 23 43 71 3d
       0.030688552 0.021770563 0.019503048 0.058901917
0003a0 8f ec aa 3c fb 11 2b 3d 9e c3 02 3d 32 bd 1e bd
       0.020864753 0.041765194 0.031924836 -0.03875465
0003b0 26 13 ce 39 9b fe 5e 3d 8e 02 b5 3b b4 c4 9d bd
       0.00039305649 0.05444203 0.005523986 -0.07703534
0003c0 cb 9d 19 3d 5f 3a 06 bc 49 82 ac 3a 3d 6b b7 bd
       0.037504 -0.008192628 0.0013161387 -0.08956001
0003d0 fe c4 20 bd 89 1f f8 bc a7 12 82 3d 0d 3c bf bd
       -0.039250366 -0.030288475 0.06351214 -0.09337626
0003e0 72 5c 7a bb eb e7 cf 3d e5 70 8f bd 2f 4c 47 3d
       -0.0038202074 0.10151657 -0.07003955 0.04865664
0003f0 ad fb 31 3d e7 c6 49 bd f2 70 29 3c 19 1f 5b bb
       0.043452907 -0.049261954 0.01034187 -0.0033435284

fc1.bias f4 [84]
000000 86 e5 af 3d 11 fd 9b bc 5d bb bb 3d 61 11 3f 3d
       0.085887 -0.01904157 0.09166596 0.046647433
000010 3a 9a 77 3c ba d7 ad 3b 53 55 25 bd 2d aa 10 3d
       0.015112454 0.0053052576 -0.040364575 0.035318542
000020 b2 f5 b5 3d 3b a4 69 bc 77 66 12 3d 34 cc 3f bc
       0.08884753 -0.014260347 0.03574225 -0.011706401
000030 f3 61 24 3d 20 94 32 bd c1 23 02 3d b6 e5 a8 bd
       0.040132474 -0.043598294 0.03177238 -0.08246939
000040 0a 6f b4 3c 0a e0 7b bc d7 82 3f 3d f5 1c bf bc
       0.022025604 -0.015373239 0.046755638 -0.023329237
000050 53 44 8a 3b eb 61 97 bd a5 14 29 3d 33 33 63 3d
       0.0042195707 -0.07391723 0.041279454 0.05546875
000060 88 8a 0a 3d 2e 95 33 bd c0 96 1c bc 3e 2a 9a 3b
       0.03382352 -0.04384344 -0.009557426 0.0047047427
000070 99 eb 5c 3d 99 9b 6c 3d c8 ed 6c 3d b8 61 89 bd
       0.05393562 0.057765577 0.057843953 -0.067080915
000080 ae 9a 48 3d d5 eb f8 bb 18 40 2c bd 44 7e ff 3c
       0.04897564 -0.0075964727 -0.042053312 0.031188138
000090 fe eb 54 3d 64 c7 14 3d d5 aa cf bb 9e c6 65 bd
       0.051982872 0.036322966 -0.0063375034 -0.05609762
0000a0 b0 0f a8 3d 6e 83 71 3d 1c 65 23 3d bd 4c 6f 3c
       0.08206117 0.05896323 0.039891347 0.014605698
0000b0 98 2c 97 3c c7 e7 89 3c 6e 5d 87 3b cc 52 91 bd
       0.018453881 0.016834153 0.0041310107 -0.070958704
0000c0 ef ec 02 3d f7 c5 69 3c 2d bf a4 3d ef 5c 85 3d
       0.03196424 0.01426839 0.080442764 0.06511866
0000d0 0c 20 f8 3d 98 5f 1e bd 1e 56 ca 3d 5b 64 81 bc
       0.121154875 -0.038665384 0.09879707 -0.015794924
0000e0 70 35 54 bd a3 0a b0 3d c1 12 3f bd 50 13 a5 bd
       -0.051808774 0.08595779 -0.046648744 -0.08060324
0000f0 e9 b3 a6 3d 57 71 db bc 00 6d 8a 3d 3d 78 23 3c
       0.08139784 -0.026787443 0.06759071 0.0099773975
000100 55 f1 f8 3c bc 67 30 bc bf 59 07 bd 9c e2 7b 3d
       0.030388514 -0.01076692 -0.033044573 0.06149541
000110 e3 35 57 3c 54 c1 57 3d b8 90 76 bd ca bb ac 3c
       0.013135406 0.052674606 -0.06019661 0.021085639
000120 f7 ad 8f 3d e5 e7 51 bd 01 ce 9e 3d 59 1e 81 3d
       0.07015603 -0.051246542 0.07754136 0.063046165
000130 c4 d3 37 3d 6f e4 3b bc 3e e3 8b bd ed 6a 24 bd
       0.04487969 -0.011468037 -0.068304524 -0.040141035
000140 8f 1b 82 3d 24 c3 a1 3c ae f4 3c bb 9c b8 dd bc
       0.06352913 0.01974637 -0.0028832364 -0.027065568

fc2.weight f4 [10, 84]
000000 78 b0 32 3c de ad 54 be 51 9e df 3c 25 b7 b2 bd
       0.010906331 -0.2076945 0.02729717 -0.08726338
000010 1d e3 fd 3d 46 b0 b5 be 41 4f 9f 3e 3c 26 51 3e
       0.12396834 -0.35486048 0.31115153 0.20424742
000020 28 77 41 be 3d 4f 95 3e 4f 95 91 be c6 60 20 be
       -0.18893111 0.29162017 -0.28434226 -0.15661916
000030 2a 35 70 3e 7c cb 57 3e f8 8c 5e 3e 4f bc 28 3d
       0.2345778 0.21073717 0.21733463 0.04119521
000040 62 de 53 bd 61 49 b4 3e 5b 9e d6 bd e9 69 34 3e
       -0.051725753 0.35212234 -0.10479423 0.17618527
000050 85 53 a6 3e b9 94 8a 3e 26 ee bc 3d c7 6b 80 3e
       0.32485595 0.2706659 0.09225111 0.25082228
000060 74 2d 53 be 8f 21 62 3e a7 8d 36 3d c0 12 ec bd
       -0.20622808 0.22083114 0.044568684 -0.11527014
000070 b7 f9 a1 bc b1 90 79 bd 95 9a cf bd b1 80 9d bd
       -0.019772394 -0.060929004 -0.10136906 -0.076905616
000080 a2 16 58 3e ef 41 8a 3e 90 17 29 bc 41 75 4a 3e
       0.21102384 0.27003428 -0.010320559 0.19771291
000090 e0 5c c8 3e 84 23 d1 be 44 3b 9e 3e 2c ec 6b 3c
       0.39133358 -0.4084741 0.3090459 0.0143995695
0000a0 6b 0c 6e 3d 30 a8 fa 3c f2 56 48 bd 87 26 db bd
       0.05811731 0.030597776 -0.048911043 -0.10700708
0000b0 61 61 94 bd 72 5b 52 3e 15 f6 c1 3e 5d 46 3d be
       -0.07245136 0.20542696 0.37883058 -0.18483873
0000c0 37 f4 0d 3d 52 91 a9 3e b7 09 94 be be ff 91 bd
       0.03465673 0.33118683 -0.28913662 -0.07128857
0000d0 cf b6 d8 be 53 d6 63 3d db 10 7e 3e 27 14 8b bd
       -0.42326972 0.055624317 0.24811117 -0.06790953
0000e0 48 ba 6f 3e e9 fb a3 be ad 88 80 3e 97 05 cd bd
       0.23410904 -0.3202813 0.25104275 -0.10010832
0000f0 56 1a 92 3e a2 35 98 3e e1 fd a5 3e 0a ef 18 be
       0.28535718 0.2972842 0.32420257 -0.14934936
000100 0a 42 92 3e 73 21 62 3d 71 43 ee bd da cb aa 3e
       0.2856601 0.05520768 -0.11633957 0.3335865
000110 ac 74 72 bb bc 53 95 3d 8f 7d ab be c5 95 eb bd
       -0.0036995811 0.07291362 -0.3349423 -0.11503176
000120 63 02 91 be aa 51 4b 3e ce 36 f4 bb 9f 64 56 3e
       -0.28322133 0.19855371 -0.0074528223 0.20936821
000130 4e 8e 1d be ac 3b ba bd f8 8a c8 3e 6e 9b a1 be
       -0.15386316 -0.09093413 0.39168525 -0.31563896
000140 14 37 2f 3e 3b e7 6f 3e c2 a6 8e be 07 aa a0 3e
       0.17110854 0.23428051 -0.278616 0.3137972
000150 72 ba cb 3d 4b 60 83 3e f8 77 96 3e e6 72 40 be
       0.09947671 0.25659403 0.29388404 -0.1879383
000160 5e 11 04 bf af 85 c7 3e e7 93 18 be 16 01 26 3e
       -0.51589 0.3896918 -0.1490017 0.16211352
000170 f2 0e 9b 3e d9 1f 07 3e 42 1d 2e be 71 ba 83 be
       0.3028484 0.13195743 -0.17003348 -0.2572818
000180 1a 95 89 be 4b 90 80 bd 62 d9 97 be ab 78 25 be
       -0.26871568 -0.06277522 -0.29658037 -0.16159312
000190 84 27 95 3e 05 10 d1 bd 40 2d 87 bd 69 d7 ad be
       0.2913171 -0.102081336 -0.06600428 -0.33953407
0001a0 77 70 bf bd 16 d6 7c be 5c cb 0c bc 9f f0 06 be
       -0.09347623 -0.24691042 -0.0085934065 -0.13177727
0001b0 86 23 a5 3d 2a f0 39 be cd 03 c8 3d 77 0c 28 be
       0.08063416 -0.18158022 0.0976635 -0.16411005
0001c0 54 87 2c 3e 13 c5 35 be 2c 50 cd 3e 97 89 a6 3e
       0.16848499 -0.17750959 0.4010023 0.32526848
0001d0 1b b9 80 be f5 72 e3 bd 03 7a 0e be 7e 24 8c be
       -0.25141224 -0.11105911 -0.13913731 -0.2737159
0001e0 67 f2 99 3d 02 3b bd 3e 13 6c 7c be 0f 31 90 3e
       0.07516938 0.36959082 -0.24650602 0.2816243
0001f0 b5 59 85 3e c9 6a ad bd f8 49 12 bd 94 69 ab bd
       0.26045004 -0.08467633 -0.035715073 -0.08369747
000200 55 b3 2a be 46 e8 86 bd e6 fd af 3d 5f 34 64 3e
       -0.16669972 -0.065872714 0.08593349 0.22285603
000210 13 1e f5 be 7a 44 3f bc 4e 54 a7 3e cb 1c a5 3e
       -0.47874507 -0.011674041 0.32681507 0.3224853
000220 1f b7 b1 3d e6 e0 3a 3e bb 5b 16 be 4e 0c b9 3e
       0.08677506 0.18249854 -0.1468343 0.361422
000230 97 94 e3 be 69 40 32 3d 06 9b 3d 3d 17 73 7e be
       -0.44449303 0.043518458 0.04629042 -0.24848591
000240 e4 d3 08 3d 82 d7 4d 3e 72 69 56 3b 0a 18 53 3e
       0.0334052 0.20101741 0.003271666 0.20614639
000250 05 45 be be b4 1a 27 be a7 d6 83 bd 05 f9 bc 3e
       -0.37162033 -0.1631878 -0.06437426 0.36908737
000260 12 6e 7d 3d a8 9d 55 be 91 10 ea 3d c4 51 9b bc
       0.06187255 -0.20860922 0.11428941 -0.018959887
000270 b7 f9 d5 3e ef e7 e7 be ec 7c 0a bf c7 b1 f0 bd
       0.4179208 -0.4529414 -0.54096866 -0.11752658
000280 27 75 9b 3e ae 49 a1 bc 44 ac 7c bd 23 4f 31 3e
       0.30362818 -0.019688454 -0.061687723 0.17315345
000290 b5 a2 ce 3d ee 00 76 3e 2a d9 e9 3e 0a a9 78 be
       0.10089628 0.24023792 0.45673496 -0.24283233
0002a0 e3 a4 1f 3e 1f 78 26 be df a1 88 3d dd 84 79 be
       0.15590243 -0.1625676 0.066714995 -0.2436709
0002b0 da e6 83 bd 88 be b2 be 75 df 62 be b6 32 46 bd
       -0.06440516 -0.3491099 -0.22155555 -0.048388205
0002c0 5e 9b 4d 3e e9 01 0e be cb d7 7a 3d c0 dc f5 bd
       0.20078799 -0.13867916 0.061240952 -0.12004995
0002d0 ee 6e 99 be a1 d0 82 be 20 c2 7e 3e 2c 96 9c 3e
       -0.29967445 -0.25549796 0.2487874 0.30583322
0002e0 8c 27 a3 be 19 1b da bd b1 f9 7b 3e 93 54 32 3e
       -0.3186611 -0.106497 0.24606968 0.17415075
0002f0 b0 83 4f be de bc a7 3d 74 7e 0c 3f ff 8b f9 3e
       -0.20265079 0.081903204 0.5488045 0.4873962
000300 7d c4 2e be 66 84 5b 3e b3 af d1 3e 09 70 4f 3e
       -0.17067142 0.21437225 0.4095436 0.20257582
000310 2d 13 a3 be 08 bc 4d 3e ae a8 a8 bd 8e 70 cb 3e
       -0.31850567 0.2009126 -0.08235298 0.3973431
000320 f0 ef b3 be 20 97 38 be 5e 18 60 be 3a 55 7b be
       -0.35143995 -0.180264 -0.21884295 -0.2454423
000330 fc 78 34 be 01 9d ae be 72 d8 1d 3e ba 43 c7 3d
       -0.17624277 -0.3410416 0.15414599 0.09729715
000340 61 c9 77 3e 18 0c 80 3d a2 64 fd bd eb 74 ce bd
       0.24197914 0.06252307 -0.1237271 -0.10080894
000350 36 3c c2 be 89 2c 55 be d4 7b 4d 3e e7 58 04 bf
       -0.37936562 -0.2081777 0.20066768 -0.51698154
000360 93 e1 1d 3e 1b 74 38 be 83 8b fd bd eb 6b 25 3e
       0.15418081 -0.1801304 -0.123801254 0.16154449
000370 37 12 c3 3e ca 50 ac be 6c 29 ee bc 45 2b 5e 3d
       0.38099834 -0.33655387 -0.029072486 0.054240484
000380 9b 04 2a 3e 11 09 bc 3e 27 78 65 3e 74 73 c5 3c
       0.1660332 0.36725667 0.22409116 0.024102904
000390 b0 86 6d 3d d0 64 46 3e 01 28 cd 3e d3 1a a4 be
       0.057989776 0.19374394 0.40069583 -0.32051715
0003a0 1a c0 46 3e 44 47 66 3e 77 51 e4 bd cf a3 ef 3c
       0.19409218 0.22488123 -0.11148351 0.029252915
0003b0 f0 39 de 3d bf 07 c1 be 80 e0 83 3e 46 1b 18 be
       0.108508945 -0.37701222 0.25757217 -0.14854154
0003c0 49 f7 82 bc 2a 57 a0 be 70 a9 98 be cd 1a 8c 3e
       -0.015987055 -0.313165 -0.2981677 0.27364197
0003d0 50 79 2a 3e 04 b6 88 3e d5 74 03 3f 78 aa df bd
       0.1664784 0.26701367 0.51350147 -0.10921186
0003e0 a5 8a f2 bc 3c f2 58 be 4d a0 80 3e 1a b9 82 3e
       -0.029607126 -0.21186155 0.251223 0.25531846
0003f0 60 78 94 bc f4 61 ba 3b 94 a9 c7 be 01 fb 77 be
       -0.018123806 0.0056879465 -0.38996565 -0.24216844

fc2.bias f4 [10]
000000 18 ca be bd d1 95 f8 ba 2a f0 01 3e f7 6c a6 bd
       -0.0931589 -0.0018965547 0.12689272 -0.08126252
000010 20 72 2d 3d 73 60 1e 3e 6e 65 ab bc 7b 8a 80 3d
       0.042345166 0.1546648 -0.020922389 0.06276413
000020 1a 77 37 bd b3 87 03 3d
       -0.04479132 0.032111835
