models/pretrained/MNIST/Control_lenet_w_acc_97.pt (torch, 249863 bytes, 10 tensors)

net.conv1.weight f4 [6, 1, 5, 5]
00000000: d02a e5be 6b67 8ebe 2341 92be aa67 41be
00000010: 351f 59be 6389 ba3e 38ec 843e 7f5a 853e
00000020: a267 af3e 2e97 ce3e d773 3fbe 9bce 1f3e
00000030: 54b5 a6be 4f1e a5bd 3816 67be bade 133f
00000040: e115 763e ec5c 993c ef92 243d 53b5 14be
00000050: f3af 703d b651 423e 54ed 2dbd 6bb9 47be
00000060: 54d7 81be b8ec 55be 4532 91be 0a04 a9be
00000070: e0e0 b5be 5276 8abe 8dc0 b2be 8c86 c8be
00000080: 65b8 1fbf c1c2 d4be ca6d 80be 9afe a73d
00000090: 3154 8dbe 19dd 90be fa08 4ebe 33a4 8cbe
000000a0: 7307 21be 2b2a d3bd 3063 09be af42 eabd
000000b0: 6c42 11be 03ea db3a 3f4b 25be ea44 003e
000000c0: 358f 11bc dadb db3d 5ec7 e53e 4540 b53e
000000d0: 3403 fc3d 1cdb f63d ee50 b6be a896 c13e
000000e0: f3ad ca3e 715a 2c3e 4fb2 1d3d 3e31 9d3e
000000f0: d660 b5be 1a4c b6be 65f1 a2be ba76 f5bd
00000100: d0bf cbbe 06cb 8ebd 9dd4 dbbd fab4 f53d
00000110: 7660 a23e 8f22 ec3d be5f 60be 9151 48be
00000120: 94ab 8bbd cf4a a93c a219 c93e 2f17 223f
00000130: 6126 a03e 0419 0f3e b7d6 f4be 1366 0fbf
00000140: c336 59be 329e 12be 6e60 083d 1813 543d
00000150: c64a ba3e f54d ab3d 6b4f dcbe 46c5 8abe
00000160: 9030 56bd 2704 c93d 95b4 90be 131c d63e
00000170: bf27 6a3e 6a2b 6dbe 7496 d6be 6358 c5be
00000180: 8b58 e0bd 7a67 3a3e a1ca 863e 8c20 983e
00000190: f786 6dbe 8386 86be 818b 8cbe 33f2 b0be
000001a0: 9867 74be 7a4a e5bd 0c58 683d f3d9 46bc
000001b0: 3652 db3d 0333 8e3e c8cb 72be 66cf a0be
000001c0: c19d a7bd b623 e43d ef99 e93b f940 293e
000001d0: e238 d73d 4186 aabd c89f 073d 20e5 2f3e
000001e0: 6f53 02bf 942d 0dbf dba2 1dbf a2ab 1ebf
000001f0: 5939 f4be dfd2 233d d53e d4bd f654 a03d
00000200: 6c63 453e 18bf bf3e 130e 693e f118 933d
00000210: 4a81 9e3d e6af b23d 48c2 9e3e 96dc 423e
00000220: fe28 b4be 601f 97be 780f 2abe 7a5b 1abe
00000230: da39 0fbe 2896 2dbe 99af 15bf b0ed 63be
00000240: 71e9 13be 64b1 f6be a900 07be 1a6f 083f
00000250: 96cc 953e 2afc f53e
-0.44759226 -0.27813277 -0.2856532 -0.18887201 -0.21203311 0.36432943 0.2596147 0.26045606
0.34258753 0.40349716 -0.18696533 0.15606157 -0.32560217 -0.080624215 -0.2256707 0.5776173
0.24031784 0.018721066 0.04017919 -0.14522295 0.05876155 0.18976483 -0.04246266 -0.19504325
-0.25359595 -0.20891082 -0.28358665 -0.33010894 -0.35523129 -0.27043396 -0.3491253 -0.3916515
-0.6239074 -0.41554835 -0.25083762 0.08202858 -0.27603295 -0.28293684 -0.20120612 -0.27469024
-0.15725498 -0.10310777 -0.13416743 -0.114385 -0.14185494 0.0016778115 -0.16141985 0.12526289
-0.008884241 0.10735293 0.44878668 0.35400596 0.123052984 0.120535105 -0.3560862 0.37810254
0.39585838 0.16831376 0.038500126 0.3070163 -0.35425442 -0.35604936 -0.31824794 -0.11985536
-0.3979478 -0.069723174 -0.10733912 0.11997409 0.3171422 0.11530029 -0.21911523 -0.19562365
-0.06819835 0.020665554 0.3927737 0.63316625 0.3127928 0.13974386 -0.47820064 -0.5601513
-0.21212296 -0.14318159 0.033295088 0.05177602 0.36385173 0.083644785 -0.4302934 -0.27103633
-0.052292407 0.09815245 -0.28262773 0.41818294 0.22866724 -0.23161092 -0.41911662 -0.38543996
-0.10954388 0.18203536 0.2632647 0.2971233 -0.23196016 -0.262745 -0.27450183 -0.34559783
-0.23867643 -0.11195846 0.056724593 -0.012136924 0.1070904 0.27773294 -0.23710549 -0.31408232
-0.08184386 0.11139624 0.007128946 0.16528691 0.105088964 -0.08326388 0.033111364 0.17177248
-0.5090856 -0.5514767 -0.6157662 -0.6198064 -0.47700003 0.039996024 -0.10363547 0.07828705
0.19276208 0.3745048 0.22759275 0.071824916 0.07739504 0.08724956 0.310076 0.1902946
-0.35187525 -0.29516125 -0.16607463 -0.15073958 -0.13986912 -0.16951811 -0.58471066 -0.2225864
-0.1444452 -0.48182213 -0.13183846 0.5329453 0.2925765 0.48043948

net.conv1.bias f4 [6]
00000000: f5fe 96bf 4daa 4cbf 8211 ddbe ef8d e5bf
00000010: 567a 8dbe 04c4 6bbf
-1.1796557 -0.7994736 -0.4317742 -1.793394 -0.27632397 -0.9209597

net.conv2.weight f4 [16, 6, 5, 5]
00000000: 0dcd a1bc d7ae 02bc 2faf 96be 2dfd 24bd
00000010: 8d1b 363e 7ef0 463d fe38 d0bc ec95 05bf
00000020: 64c6 c1be 5e50 bf3d 84b3 f4bd e42c 09be
00000030: a5d9 1a3e ddca c03e 41de d83d 8aff 033e
00000040: 59da 163d d9da e73d fa62 5fbd ba02 58be
00000050: e1a9 24bd d792 1ebe 74e5 843d b06b acbe
00000060: 0caf 283e 9703 0a3e f5b0 243e b43c 833e
00000070: ad42 a6be baee 1ebb 6446 a6be f8a2 f8bc
00000080: 82e4 14bd b6dd 4dbe 38e6 65be 0346 d8bc
00000090: 8975 733e 1116 813d 4045 05be 128f 443e
000000a0: 450d 463e 6f29 f23d ff6a a5be 67a3 e3bd
000000b0: 6d61 263e f833 4a3d 5e3d 20be f846 81bd
000000c0: dc72 b53d c352 ce3c 2ec8 9b3d 0cfd 9abd
000000d0: 17f8 15be 52bb 87bd a62b 3dbc 6acb 53be
000000e0: 3f57 e53c d671 10be fa38 43be 4e09 0cbf
000000f0: 6f9b 88bd 2285 183e ae03 a5bc f524 473e
00000100: c15b 143e 23eb d73d 801e 4bbd ea65 cc3b
00000110: 8165 4e3d 1521 fabc 12c1 69be b01c 63be
00000120: 12d6 bdbd 9011 ad3e fd44 4b3e 104d 2c3e
00000130: 413b 133e aa27 583e 5f27 79bd 399b 31be
00000140: f4b8 223e 7e9e 603e 558a b03e 8c41 073e
00000150: 5e86 333e 8d27 11bd 94fd ab3d 241b ab3d
00000160: 0f33 ccbb efa5 133e a45f adbc 3b39 91bd
00000170: 3346 573b 4d09 cc3d 167f 193e b2e2 debd
00000180: 96af 063e 1c7f 6c3d 1a3f a13e 43fc 453d
00000190: 08c6 153e 6e8a 7fbe f197 70be 2142 f7be
000001a0: f6c5 37be 4ae1 203e 4fbe 943e b906 d3bd
000001b0: 5f03 2ebe 7c01 fb3d b121 853e a5c6 983e
000001c0: 3f5f 983e ac5d bfbc a1a6 23be 9ae2 a1bd
000001d0: 50f1 eebd 11d3 25be 1ff3 90be 6baa e5bd
000001e0: d683 68be 70f8 abbe 9f4b 8abe d21a a2be
000001f0: a650 1b3e 253c edbc 3e49 26be 7b0e fcbd
00000200: 3f45 5abe eede 9e3d 2b5e dc3d ccf5 a83e
00000210: 4c74 003e be09 47be 8d42 dbbe 2765 07bd
00000220: a783 463e b279 263e af76 ebbd fb28 893e
00000230: dab5 013e a397 0b3e 7294 0dbe 02b3 953c
00000240: f67b 28be 64da 27bd 8814 fcbd d4c3 603d
00000250: 3aa6 693c ae5c 80be 0208 b5be ac45 8dbe
00000260: 80da 143e 5dc7 b7bd eabd 163e bf95 adbd
00000270: 7d43 65bc 4b35 153e 0803 34bd 7d85 5a3c
00000280: 77bf f43d d647 be3e d526 d4bd a784 e6be
00000290: c3bb 29be 28d8 a93c f333 2d3d 1d32 bbbe
000002a0: 0808 14be 9951 603e 0226 12be 9128 c6bd
000002b0: a6b5 893e 73df 903d a7cb 01be 10dc e5bb
000002c0: 7d87 f03d 3339 073e d365 3bbd 7e65 00be
000002d0: b3a6 85bc 3cf9 fbbd 9d79 5e3d 9771 25be
000002e0: 1b3e 883a 2ae3 053d 45ff 5dbe 7b21 07bd
000002f0: 64c3 ac3c cbb8 94bc 031a 413d 113b 1bbd
00000300: 5580 e13d 443c 3bbd 3e46 23be e311 a93d
00000310: 8d14 30be 9984 85be f2d1 bcbe 981a 80be
00000320: f368 67bd 4a57 cf3d 8554 95bd 5842 cc3c
00000330: f3e4 b7bd ea85 9fbd 5760 fcbc 6590 56be
00000340: d226 2d3e 2c0a 2b3e 0933 37be ea9a 583e
00000350: 3d76 033e 86cc 87be d6cc fdbd 01f9 5fbe
00000360: c152 02be 0ebf 62bc ef58 53bd 09c7 54be
00000370: e9e4 3a3e 2193 04be b85f 17bd b01c b9ba
00000380: 1103 29bd bfb7 fcbd fc71 6d3d d069 03be
00000390: f346 ab3d af5f 313e 092b 97bd 309f e3bd
000003a0: 7491 20bd 74f7 8abd f214 7a3d cefd 1bbe
000003b0: 80b0 b23d 9f74 093f bd0e 233e 4452 23bd
000003c0: 1cf1 9dbd 00dc 67bd cae4 3f3e 7810 91be
000003d0: 584a b73e 1fdc 17be d601 6abd 29eb 40bc
000003e0: 7efc e0bd f127 fabe b36c 41be 1164 febe
000003f0: 399b 0bbc dd17 843e 3fa3 6f3e 0d42 45be
-0.019751096 -0.007976255 -0.2943053 -0.04028051 0.17783947 0.048569195 -0.025417801 -0.5218189
-0.37846673 0.09341501 -0.119483024 -0.1339603 0.15122087 0.37654772 0.105892666 0.12890449
0.036829326 0.11321039 -0.05453775 -0.2109479 -0.04020107 -0.15485702 0.06489077 -0.3367591
0.16473025 0.13477932 0.16083129 0.2563225 -0.32472745 -0.002425118 -0.3247558 -0.030351147
-0.036350735 -0.20104107 -0.22451103 -0.026400572 0.23775305 0.06303037 -0.13014698 0.19195202
0.19341 0.11824309 -0.32308194 -0.11115151 0.16248102 0.049365968 -0.1564841 -0.06312364
0.08859798 0.025185948 0.076065406 -0.07567796 -0.1464542 -0.066275254 -0.011546051 -0.20683065
0.027995704 -0.14105925 -0.19064704 -0.547017 -0.066702716 0.14894536 -0.020143356 0.19447692
0.14488126 0.10542896 -0.049589634 0.006237735 0.05038977 -0.030533353 -0.22827557 -0.22178912
-0.09269346 0.33802462 0.19850536 0.16826272 0.14378072 0.2110888 -0.060828563 -0.17344369
0.15890867 0.2193546 0.3448054 0.13208598 0.17531726 -0.03543811 0.083979756 0.08354786
-0.0062316726 0.14418767 -0.021163769 -0.07090994 0.0032848238 0.099627115 0.14989886 -0.108830824
0.13152918 0.05773841 0.31493455 0.04833628 0.14626324 -0.2495515 -0.23495461 -0.4829264
-0.1794661 0.15710941 0.29051444 -0.103040166 -0.16993473 0.122561425 0.26002267 0.29839054
0.29760167 -0.023360096 -0.15981533 -0.07904549 -0.116671205 -0.16193797 -0.28310487 -0.11214145
-0.22706541 -0.3358798 -0.2701082 -0.31661087 0.15167484 -0.028959343 -0.16238877 -0.123074494
-0.21315478 0.07757364 0.107601486 0.33000028 0.12544364 -0.1943731 -0.42824212 -0.03305545
0.19386159 0.1625736 -0.114972465 0.26789078 0.12667027 0.13632064 -0.13826159 0.018273834
-0.16453537 -0.040979758 -0.123086035 0.054874256 0.014260823 -0.2507071 -0.35357672 -0.27592218
0.14536476 -0.089735724 0.14720884 -0.084758274 -0.013993141 0.14571111 -0.043948203 0.01333749
0.119505815 0.3716418 -0.10358969 -0.4502308 -0.16575532 0.020732954 0.04228587 -0.3656167
-0.14456189 0.21906127 -0.14272311 -0.09675706 0.268964 0.070738696 -0.12675343 -0.007014759
0.11744592 0.13205414 -0.045751404 -0.12538716 -0.01631484 -0.12303397 0.0543152 -0.16156612
0.0010394485 0.032687344 -0.21679409 -0.032990914 0.021089263 -0.018154522 0.047143947 -0.037898127
0.110108055 -0.04571177 -0.15944764 0.08255365 -0.1719534 -0.26077726 -0.36878926 -0.2502029
-0.05649657 0.10124071 -0.072915114 0.024933979 -0.089792155 -0.07789214 -0.030807657 -0.2095352
0.1690934 0.16703099 -0.17890562 0.21152845 0.12838073 -0.26523226 -0.12392585 -0.21872331
-0.1272688 -0.013839496 -0.051598486 -0.20779051 0.18251385 -0.1294675 -0.03695652 -0.001412293
-0.04126269 -0.12339734 0.057970032 -0.12833333 0.08363142 0.17321657 -0.07381255 -0.11114347
-0.039201215 -0.06785479 0.06105513 -0.15233538 0.08725071 0.53693575 0.15923591 -0.039873376
-0.077120036 -0.056606293 0.1873962 -0.28332877 0.35798907 -0.14830063 -0.057130657 -0.011774817
-0.10985659 -0.48858598 -0.18889122 -0.4968572 -0.008520895 0.25799456 0.23402117 -0.19263478

net.conv2.bias f4 [16]
00000000: e162 8bbe cae2 a2be 1e9b 96be 1571 b3be
00000010: be76 e1be dcf4 3fbe 15e5 dbbe 34d9 8cbe
00000020: 1252 a8be 2391 48be 64eb b2be 2190 e4be
00000030: c517 82be e0be bdbe d705 96be d3f8 5bbe
-0.27223876 -0.3181365 -0.2941522 -0.35047212 -0.44035906 -0.1874575 -0.42948213 -0.27509463
-0.32875115 -0.19586615 -0.34945214 -0.44641212 -0.2540876 -0.3705969 -0.2930133 -0.21481638

net.conv3.weight f4 [120, 16, 5, 5]
00000000: 4d25 c33d 4a2c 7abd 8470 2c3d c763 82bd
00000010: c225 1abd 34f9 2cbd 3236 90bd 9adf bebc
00000020: 657f 7ebd b756 013d 793e c13c 4a5b 7abc
00000030: 857c 03be 1a3d 1ebd ae0d ee3d 77fc 3c3c
00000040: 08e3 58bd 6509 42bc 486b 4e3d 80c5 0e3d
00000050: 6db6 133c a314 3f3c d94e 38bd 2580 25bd
00000060: 6ee9 0cbd b69d 2f3c e1c0 09bd f069 f5bc
00000070: d56d 4dbd b205 28bc 8683 27bd 87a2 593d
00000080: 2995 7fbd 2d76 dbbc 25d2 3b3d 5328 c83c
00000090: 86ab 00bd b718 f1bc db3e d9bd ca8a b0bd
000000a0: 7e49 2dbd 3055 ed3d 31cc 913b b910 673c
000000b0: 16a9 863c 5ab1 1b3d 6d13 f93c 4b55 2dba
000000c0: 3d0a fc3d c29d 4ebb 1c43 65bd c052 053d
000000d0: a3ff c83c 3933 6e3d 9c7d 303d 8ea4 84bc
000000e0: 3f46 39bd d1fa 59bd 958f c2bc 7c81 18bc
000000f0: a133 873d eb55 d9bb 24c9 8abd a7d8 1fbd
00000100: 9622 bf3c e724 7c3d afa7 bc3d af7f c63c
00000110: c414 343d 6adc 82bc feca 5b3d 3446 503b
00000120: 7acc b2bd c693 823d 8eb1 e43b 0b10 d63c
00000130: b9e4 5fbd 49fb a83c dd89 d9bd 2dfd 5abd
00000140: 3138 82bd e0f3 42bc b330 bbbd 8659 41bd
00000150: 6919 01bc 6b55 4bbb 04cb 4a3d 04ac 05bd
00000160: 34ee 913d f63f c93d 64f5 83bd ea57 00bc
00000170: af74 cdbd d522 bcbd 3648 fabc 3829 323d
00000180: 2d86 a1bc 4b79 013d 1563 b53d 96fe da3d
00000190: 9b16 e73b bffd 54bd c9c2 52bd 1dfb 003d
000001a0: e3e0 0d3d 59a1 373c dcac b53b 5d24 b9bc
000001b0: 43a1 ecbd d17c efbd 038c c53c e351 2f3d
000001c0: 51b4 7d3c 850c 063d 67f6 a3bc 4fec ab3c
000001d0: ad54 6e3c 38e1 9dbc 058a 76bc 16d1 c2bc
000001e0: 32d5 a83b b9d4 a6bd 26d9 e9bd 2084 b5bc
000001f0: 76b9 3cbd ef32 c33d 7d22 f13d 007a 1c3d
00000200: 7a0f 183b ca5e 1d3d 799b 573c 906e f8bc
00000210: 32d9 8f3d 447b 46bd 6659 a6bd 56e6 84bd
00000220: 1465 3bbc 3df3 f7bc ed46 30bd 5dd8 e63d
00000230: d3e7 06bc 6db7 a83d f288 863d 6f57 3b3c
00000240: c7bf 6d3d 2925 ff3c 5a3b 4dbd a4fb 5d3d
00000250: 852f 933c 161d 7a3d 4a08 893c a4cc 853d
00000260: af95 083e 1b2d 9e3c 51d9 febd 319f 27bd
00000270: 016e 913d e4ee 5ebd 95b9 93bc 2e25 47bd
00000280: a29c 213d b878 d8bc f1b6 e83d 8789 923c
00000290: a175 a3bc 867d 4cbb e42b c9bd db83 13be
000002a0: cbc5 bcbd 7a5c 673a c2e6 4dbc 524c 813d
000002b0: d654 2c3e 4bf5 1f3d dd02 80bc 9eec 5a3d
000002c0: 1b0d 793d c9d3 bd3d 1234 49bd 5c77 1abd
000002d0: 97b9 a4bd bc5a 38bc 7440 963c 304d 47bd
000002e0: 9279 02bd c79f 63bd 3a7c 52bd 4634 cc3b
000002f0: 2c59 30b7 c785 81bd 985b 8fbb 7fa9 4ebd
00000300: 20d2 63bd dd53 0c3d edbf e13c 89be d7bd
00000310: 6c3b 4ebd 4096 033d 4cf7 3b3c a662 a93c
00000320: 3750 82bd e96f 5b3d 1c5d 8bbc 5f0b 23be
00000330: 64af ddbb 2322 85bc 6339 0cbc a6e0 51bc
00000340: fc83 dbbb 2e6d 11bc cc4f a63d ff06 223d
00000350: 34cd 83bc db54 a33c 9478 cdbd b8c2 8a3b
00000360: 8dad fbbc 04c3 853d 020d 7b3d 385a 6c3d
00000370: 289b e23c 474b 91bd 568d 023c ce09 3fbd
00000380: 1a36 a33c 4a37 013c ccc1 cabc f2fa e8bd
00000390: 6e45 bebd 19af 953d fc38 ec3c e594 cd3c
000003a0: e632 72bd cce3 893c 58e3 313d 4542 cebd
000003b0: c496 afbb f685 993d 4dda 183d 2bb8 89bd
000003c0: 7510 fcbc c931 e7bd a5f2 e5bc 283a 31bd
000003d0: 0a20 9d3c ebeb 5b3d 0c30 123c bd1c 933c
000003e0: d8a2 ea3d 2408 cfbd c268 8d3d 162e 0bbd
000003f0: e3a0 533d 0582 b13d 962d 303d 08ef 63bb
0.09528599 -0.061077394 0.04209949 -0.06366687 -0.037633665 -0.042229846 -0.07041587 -0.02329998
-0.06213321 0.03157684 0.02358936 -0.015280554 -0.12840469 -0.03863249 0.11623703 0.011534802
-0.05295089 -0.01184306 0.05039528 0.03485632 0.009015662 0.011662635 -0.04499707 -0.04040541
-0.034402303 0.010718754 -0.03363121 -0.029957741 -0.050153572 -0.010255264 -0.040896915 0.053133514
-0.06239811 -0.026789749 0.045854706 0.02443329 -0.031413577 -0.02943073 -0.10607692 -0.08620222
-0.042306416 0.11588514 0.0044493903 0.014103108 0.016438048 0.038010933 0.03040477 -0.0006612136
0.1230664 -0.0031527136 -0.055972204 0.03254962 0.02453596 0.05815432 0.04308854 -0.016191747
-0.045233008 -0.053217713 -0.023750106 -0.009308215 0.06601644 -0.0066325567 -0.06776646 -0.039024975
0.023331922 0.06155863 0.092116706 0.024230806 0.043965116 -0.015974242 0.053660385 0.0031780126
-0.08730407 0.06375842 0.006979174 0.026130697 -0.054661486 0.020627635 -0.106219985 -0.053464103
-0.06358374 -0.011898965 -0.09140148 -0.047204517 -0.007879593 -0.0031026255 0.049510017 -0.03263475
0.07125512 0.09826653 -0.06443289 -0.00783346 -0.10032021 -0.09186331 -0.030552011 0.04349634
-0.0197173 0.031609815 0.08856789 0.1069309 0.0070522553 -0.051999804 -0.051455293 0.03148948
0.034638297 0.011207902 0.005544288 -0.022600347 -0.11554196 -0.11693729 0.024114614 0.042802703
0.015484885 0.032726783 -0.020014955 0.020986704 0.0145465555 -0.019272432 -0.015047555 -0.02378134
0.005152368 -0.081460424 -0.11418371 -0.022157729 -0.046075307 0.09531199 0.11774156 0.038202286
0.0023202584 0.038420476 0.013159626 -0.030326158 0.070238486 -0.0484574 -0.0812252 -0.064892456
-0.011437673 -0.030267352 -0.04303639 0.11271737 -0.008233982 0.08238111 0.06569089 0.01143442
0.05804422 0.031145649 -0.05010543 0.05419506 0.017966995 0.061062895 0.016727585 0.06533173
0.1333835 0.019308617 -0.124437936 -0.0409233 0.0710106 -0.054427043 -0.018032828 -0.04861944
0.039456017 -0.02642475 0.11363018 0.017887844 -0.01995355 -0.0031202747 -0.098228246 -0.14405768
-0.092174135 0.0008825731 -0.012567224 0.06313385 0.16829237 0.03905229 -0.015626365 0.053448312
0.060803514 0.092689104 -0.049121924 -0.037711486 -0.08043211 -0.0112521015 0.01834128 -0.048657596
-0.03185422 -0.055572297 -0.051388003 0.0062318174 -1.0511179e-05 -0.06324344 -0.0043749325 -0.050454613
-0.055620313 0.034259666 0.027557338 -0.105343886 -0.050349638 0.03212571 0.011472534 0.020676922
-0.06362956 0.053573523 -0.017012171 -0.15922306 -0.006765293 -0.01625163 -0.008558604 -0.012809908
-0.0066990834 -0.008876128 0.08120689 0.039557453 -0.01608906 0.019937923 -0.10032764 0.004234638
-0.030722404 0.06531337 0.061291702 0.057703227 0.027661875 -0.07094436 0.007968267 -0.04664021
0.019923259 0.007886717 -0.024750613 -0.11375989 -0.092905864 0.07308788 0.028835766 0.025095413
-0.05913057 0.016832255 0.043429703 -0.10071234 -0.005358549 0.07496254 0.037317563 -0.067245804
-0.030769566 -0.11288793 -0.028069803 -0.043268353 0.019180316 0.053691786 0.008922588 0.01795804
0.11456841 -0.101089746 0.069047466 -0.033979498 0.051667105 0.086673774 0.043012224 -0.0034779925

net.conv3.bias f4 [120]
00000000: dd59 833c 3c88 e53d d4af 053d 61c2 5d3d
00000010: 96e8 b63d ac0f 533b c340 32bd cf8e 3cbd
00000020: 1e3d acbd 63f7 ccbc 9ba7 af3d 2713 ac3c
00000030: 3e4d 28bd bf07 d1bd 3f6c 8d3d 4619 b23c
00000040: 71db 463d 7829 3c3c ec6e b23c cc41 33bd
00000050: f0ed b5ba 7008 e13c e2b6 10bd c853 743d
00000060: 8822 4ebc 0360 933b 4682 2cbd 7c6a 7abd
00000070: 0489 ed3b 94a4 713c ad29 313d a3e9 be3c
00000080: 5c25 5f3d 6d95 20bb feaf bbbb e824 f43c
00000090: 2f8a f5bc ca38 9fbc 345b e43c cadc 473c
000000a0: 0ebb 44bd 01ae c73b 69e4 2a3d aa63 9b3c
000000b0: 1411 83bc 9822 b9bd 9136 563b e617 3fba
000000c0: a075 0a3d a9e1 a4bc 538b a13c f774 0dbd
000000d0: 5da2 c63b c076 b23b 8e86 8c3d 7e27 4ebd
000000e0: bba7 1d3d 659c 703d 246a 423d feaf 803c
000000f0: f2a0 a738 b7bf 2c3d 2d32 83bc 9d51 f2bd
00000100: 8c85 413c daa2 cdbc 4cbe 7d3d ff1c 093d
00000110: 6671 293d 7f44 a83d a32f 9d3b a19e 9abd
00000120: be63 14bd 631a c8bc 78e4 833d 30df 9b3c
00000130: 830e 973a 64ed 58bd 3c7e 893c 3451 0bbd
00000140: 5590 7f3c e481 2b3d 18cc 5cbd a560 e0bc
00000150: 7ff4 16bd 109d 003d 9145 903d 2b24 febb
00000160: 80fb 3dbd e7fb 003d f48a 09bd 9856 743d
00000170: 843e 5b3d c2f2 19bd d541 4dbc 7db8 77bd
00000180: 4b9b 03bd f8e8 e73c 641b a03c d1f8 babc
00000190: 7dce 633d ca8d c83c e556 873c 0baa bf3c
000001a0: 9353 df3c d2aa 8f3d b649 04bd fc3b 57bc
000001b0: 18ed 18bd a04e 18bd 0745 02bd d323 59bd
000001c0: 1191 873c 7a82 06bc e9be b0bc 5414 223d
000001d0: 5da8 0cbc 8f2d 89bd 70bd cf3c 1f40 7cbc
0.016034061 0.11207625 0.032638386 0.054140452 0.08931081 0.0032205386 -0.043518793 -0.04603463
-0.08410095 -0.025020307 0.0857689 0.021005226 -0.04108929 -0.102065556 0.06905412 0.021740567
0.04854912 0.011484496 0.021781407 -0.04376392 -0.0013880115 0.027469844 -0.03533066 0.059650213
-0.012581475 0.0044975295 -0.042116426 -0.061136708 0.0072489996 0.014748711 0.043252636 0.023304766
0.054478988 -0.0024503127 -0.005727767 0.029802755 -0.029973118 -0.019436259 0.02787552 0.012198636
-0.04802995 0.006093741 0.041721735 0.018968422 -0.015999354 -0.09039801 0.0032686333 -0.0007289633
0.033803582 -0.020127134 0.019719755 -0.034535374 0.0060618357 0.005446285 0.06861602 -0.05033063
0.03849004 0.0587429 0.047464505 0.01570892 7.993159e-05 0.04217502 -0.016015137 -0.11831973
0.011811625 -0.025102068 0.06194906 0.03347492 0.04136791 0.082161896 0.0047969385 -0.07549787
-0.036227934 -0.024426645 0.06440061 0.019027323 0.001152471 -0.05296077 0.016783826 -0.03401299
0.015598376 0.04187192 -0.053905576 -0.027389834 -0.036854263 0.031399786 0.07044519 -0.0077557764
-0.046382427 0.031490233 -0.03357978 0.059652895 0.053526416 -0.037585028 -0.012527903 -0.060478676
-0.03213052 0.02830933 0.01954431 -0.022823723 0.055616844 0.024481673 0.016520927 0.023396512
0.027261531 0.07015003 -0.03229686 -0.01313686 -0.037335485 -0.037184358 -0.03180411 -0.05301268
0.016548665 -0.008209819 -0.021575408 0.039570168 -0.008585063 -0.06698143 0.025358886 -0.015396147

net.fc1.weight f4 [84, 120]
00000000: c317 cb3d c941 043e f026 973c f33f 61be
00000010: 418d 393d ead1 e1bd 8e78 d23d 3da9 7fbd
00000020: e4a8 ddbd bc12 9d3d 3a8f 9fbb 3766 ac3d
00000030: 08a3 883d 347a a1bc 6527 763c 1b3c bcbb
00000040: 1903 20bd ea34 853d 4fa6 433d e70f 46be
00000050: ab24 a73d e468 3abd 5a2f b13d 8532 f33c
00000060: fd60 0e3e f555 8fbc 94f9 bb3d 6452 18be
00000070: 78ae d1bb db5a 90bd 22a3 883d d230 313d
00000080: b3e4 c73d 1194 8abc b17e cbbc 5d3b 3a3e
00000090: e03d f7bd 01f2 7a3d a2aa d13c 7cbe 11bd
000000a0: a3c6 873d f945 583c cc90 cfbd 177b d53c
000000b0: b761 72bd 773b 013b 0907 11bd 8e9a e63c
000000c0: f0a6 1fbd aed7 5c3a aaca 1f3d 76f6 3cbd
000000d0: edab bf3c cf0c 2d3b 0a41 eabd 31c9 13bd
000000e0: 3d16 24be c61f c2bc 1db7 ebbd d95a 0cbe
000000f0: ef06 95bd 1ae9 3cbd 0e52 593d 2ed7 15bc
00000100: 0292 1d3d 3229 32bd 876e 483d 49e4 7f3d
00000110: b229 cf3c 8f26 a2bb 5aa2 013d ef69 d5bd
00000120: 3372 ff3a e41a c4bc ca1d b13c f4c5 94bd
00000130: b80a af3d d018 d9bc 532d 203e 3213 64bc
00000140: 16b8 1f3d fbf2 13bd 430f 05be 14e6 78bd
00000150: a58e c93d 54d2 eabd 9672 a2bd 5c86 dabd
00000160: f8b9 64bc cb73 bd3d 6cc2 45bd f336 a2bb
00000170: 246a 90bd 9f7d 86bc 362a a23d fcdd 183e
00000180: 6856 db3c 0d20 ad3c 97e8 b33d 2251 54bd
00000190: fa5c 133e fcf2 d7bd 67a8 ce3d 42c6 213e
000001a0: f632 3a3e 3e5c c13d 038b 123c c006 49be
000001b0: d292 893d 5144 d0bd b529 b23d 632d 16bd
000001c0: 88d1 bf3d f143 9bbd 1e31 bc3d c1b1 47bb
000001d0: 9f3f 4bbe 9a8c 273d 9427 4d3d 5b85 8e3c
000001e0: abc5 58bc 68ff e03b fe50 f83c b473 f43c
000001f0: 0b62 833d 9445 c43b 6051 97bd 3333 7b3d
00000200: f2bc d5ba c611 27bd 6e11 6f3d 4628 433d
00000210: c3ad f93d e903 d13c fafd 7a3d 5f00 99bc
00000220: 2ba9 b93d 6f34 fcbd 9f07 6cbd 4068 a23d
00000230: d1f5 95bd a0ae 20bd 68e1 3e3a 2e11 12bd
00000240: 925b 3a3c 6895 903d 1999 5b3d c90f dd3d
00000250: fc77 23bd 920e 723c c10b 4d3b 3849 293d
00000260: 1d31 ab3d 5a46 dcbd e212 3ebe add2 c63d
00000270: fedd babd fb30 0b3d 9493 92bd 3e40 7e3d
00000280: bdf7 c33c d916 34be 5a3a 2f3e c7ad 8e3d
00000290: 69d8 87bd 090d 02bc da97 50bb ab02 353e
000002a0: 76a3 cf3b 3f8f 9b3d 83fc 8f3d 922a 843d
000002b0: b6e8 55bc e777 343d 4727 f83d 6595 acbc
000002c0: 5134 ebbd d2ee 6bbd 0740 403d c67f 98bd
000002d0: 05d9 96bd 05e9 df3d c0e5 70bd 2a2d 563d
000002e0: dcf3 373d 3ab4 0dbc fb54 e43b 4873 79bd
000002f0: 09c3 07be adb0 c83c 7d29 1b3d d18d 003e
00000300: f70d bcbb 1524 9abd 60c1 e0bc 77a8 ff3d
00000310: c588 713c 15b1 74bd a047 2c3d 5c40 c1bb
00000320: 2e20 d63d afa2 ba3d e4aa 35be 096d a4bd
00000330: e075 513d e08c c93c 0f2c 183c 8f44 1cba
00000340: cbb1 e23d 7a63 843d f03c b3bd 7cfb 8d3d
00000350: c600 6f3b 7b05 a13d 039e d3bd a96e eabc
00000360: e5f4 053e 80d7 053e 4151 c83d e70c 7e3d
00000370: f3ee 9cbd 10b0 01bd 256d 85bd b2e7 84ba
00000380: 133a b8bc b499 c8bc f70b 573b 197b 6b3d
00000390: 9fd6 8c3c dcb8 0bbe b367 e8bd b141 8dbc
000003a0: 7aef ad3b e5be 7b3d bfae a9bd 2351 dc3b
000003b0: 16d4 063e a5c7 16bd e557 b7bc bd8d 883b
000003c0: a58b 473e 0a25 73bb 0df6 653d 172b 39be
000003d0: af70 29be aa2d 113e 52f1 e03c 2743 213d
000003e0: 13fd 073e 454e 023e 1d48 b3bd 7104 8d3d
000003f0: bc1a bebc adf6 69ba c412 59bd 566c b8bd
0.099166416 0.1291572 0.018451184 -0.21997051 0.045300726 -0.11026366 0.102769 -0.062417258
-0.10823229 0.07669589 -0.004869369 0.084179334 0.06671721 -0.019711591 0.015024041 -0.00574447
-0.039065454 0.06504233 0.047766026 -0.19342004 0.08161291 -0.045510188 0.0865161 0.029687176
0.13904186 -0.017497042 0.091784626 -0.1487518 -0.006398972 -0.07048579 0.0667174 0.04325945
0.09760418 -0.016916307 -0.024840685 0.18186708 -0.120723486 0.06126595 0.02559406 -0.03558205
0.06629684 0.0132002765 -0.1013504 0.02605967 -0.05917522 0.0019719282 -0.0354071 0.02814987
-0.038977563 0.0008424473 0.039011635 -0.04613348 0.02339741 0.002640534 -0.114381865 -0.036080543
-0.16024108 -0.023696791 -0.115095355 -0.1370653 -0.07276713 -0.04612074 0.05305677 -0.009145541
0.038469322 -0.04349632 0.048933532 0.06247357 0.025288437 -0.004948444 0.03164897 -0.10420596
0.001948899 -0.023938604 0.02162065 -0.07264319 0.08546966 -0.02650109 0.1564229 -0.013920592
0.038993917 -0.036120396 -0.12994103 -0.060766295 0.098416604 -0.11465898 -0.07932012 -0.10670158
-0.013960354 0.092506014 -0.04828112 -0.004950398 -0.07051495 -0.016417323 0.07918207 0.1492843
0.0267746 0.021133447 0.08784597 -0.051835187 0.14390936 -0.105443925 0.10090714 0.15798286
0.18183503 0.09441422 0.008944276 -0.19631481 0.06717457 -0.1016928 0.08699361 -0.036664378
0.09366137 -0.07581318 0.09189056 -0.003047094 -0.19848488 0.040905572 0.050086573 0.017397573
-0.0132307215 0.0068663843 0.030312058 0.029840328 0.064151846 0.0059897397 -0.07388568 0.061328124
-0.001630692 -0.040788434 0.05836623 0.04764583 0.121913455 0.02551456 0.061277367 -0.018676935
0.09065469 -0.123146884 -0.057624456 0.0793004 -0.073222764 -0.039229035 0.0007281513 -0.035660915
0.011374371 0.07059747 0.053612802 0.107940264 -0.039909348 0.014773982 0.0031287523 0.041329592
0.08358977 -0.10755606 -0.1856189 0.09708152 -0.09124373 0.03398226 -0.071570545 0.062072985
0.023921842 -0.1758684 0.17112103 0.06966739 -0.06633074 -0.007937678 -0.0031828792 0.17676799
0.0063366247 0.075956814 0.07030585 0.06453432 -0.013055971 0.04405966 0.121168666 -0.02106733
-0.11484588 -0.057600804 0.04693606 -0.07446246 -0.07365612 0.10933117 -0.058812857 0.052289166
0.044910297 -0.008648926 0.0069681383 -0.060900956 -0.13257994 0.024498308 0.037881363 0.12554099
-0.0057389694 -0.07526413 -0.027435958 0.12483304 0.014742081 -0.05973919 0.042060494 -0.005897565
0.104553565 0.09113061 -0.17740971 -0.08028609 0.051137805 0.024603307 0.009287848 -0.0005961144
0.110690676 0.06464286 -0.08751857 0.069327325 0.0036468967 0.078623734 -0.10332873 -0.02861722
0.13081701 0.13070488 0.09781123 0.062024023 -0.076627634 -0.031662047 -0.06514958 -0.0010139851
-0.02248863 -0.024487354 0.0032813528 0.057490442 0.017192183 -0.13644737 -0.11347904 -0.017243238
0.005308089 0.061461348 -0.08285283 0.0067235394 0.13166842 -0.03681149 -0.022380779 0.004167287
0.19486864 -0.0037100934 0.056142855 -0.18082844 -0.16546892 0.14177576 0.02745882 0.039370682
0.13280134 0.1272517 -0.08753989 0.06885613 -0.023206107 -0.0008925002 -0.052996412 -0.090050384

net.fc1.bias f4 [84]
00000000: 1aa0 e63c cdb5 103d 1e20 22bd ce9f 803d
00000010: fd20 90bc 7323 3dbd f07e 4fbd a102 76bd
00000020: 9086 11bd 5578 95bc a4ef 7e3d 3004 233c
00000030: 4f6c 393d 6188 3e3d ba0d 13bd 77f1 c83c
00000040: a9a0 133d 0fb2 82bc e5a0 98bd 4196 e73c
00000050: b743 403d c173 22bc d947 56bd bfe5 b33d
00000060: 5101 973c 2027 8f3d ebcd dfbc e70d be3d
00000070: acb2 cabd b2eb a9bc d98a a1bc 3f1b 93bd
00000080: 3c16 35bd 0522 8bbd e097 1e3d 739d 02bd
00000090: 43ca b1bb f6b2 913d b279 21bd 4791 60bc
000000a0: d6df a6bc 3c91 913c 5039 6fbd 7476 bebc
000000b0: 1a6e 02bd dfa8 753d f16e 4ebd 05a3 8c3d
000000c0: 423b 08bc 92a3 f3bc cf83 4dbd ebc2 2cbd
000000d0: d468 77bd d1a1 153e e18a 673d 4f49 853c
000000e0: 24f7 87bb 3f98 ec3c ae6c 92bb f0cc c4bd
000000f0: 6e80 223b 1319 d73b 88ac 82bc bc6b aebd
00000100: bc20 0cbd a82b 023d f453 443d eec2 3a3c
00000110: c301 903d a7cd df3d 054c 833d 430e 9fbb
00000120: 815a 6a3c 6a58 ee3c 98f4 163d e382 943d
00000130: be3c a7bc ab07 5c3d bbfd ec3d 65d7 7abc
00000140: ede6 e53c f6df 71bc 5bcf 2dbc 616c bd3d
0.028152514 0.03532963 -0.03958141 0.0628048 -0.017593855 -0.046176385 -0.050658166 -0.0600611
-0.03552872 -0.018245855 0.062240258 0.009949729 0.045269307 0.04651678 -0.035901763 0.024529202
0.03604189 -0.015954046 -0.07452563 0.028269889 0.046939578 -0.009915293 -0.052314613 0.08784055
0.018433245 0.069898844 -0.027319869 0.092799954 -0.0989736 -0.020742271 -0.019719528 -0.07182931
-0.044210657 -0.06793598 0.038719058 -0.031888437 -0.005425723 0.07114212 -0.0394227 -0.013706512
-0.020370405 0.017769448 -0.058404267 -0.023249842 -0.031843282 0.0599755 -0.05039877 0.06867031
-0.008314909 -0.029741082 -0.05017453 -0.042178076 -0.060402706 0.1461251 0.05652893 0.016270308
-0.0041493345 0.02888119 -0.004468522 -0.09609401 0.0024795788 0.0065642684 -0.01595141 -0.085166425
-0.034210905 0.031779915 0.047931626 0.011399014 0.07031586 0.10927897 0.06410984 -0.004853995
0.014303804 0.029094893 0.036854357 0.07251527 -0.020414706 0.05371825 0.11571833 -0.015310143
0.028064216 -0.014762869 -0.010608519 0.09249187

net.fc2.weight f4 [10, 84]
00000000: dc9d c23e f30e 24bc e87d bd3d cb16 173e
00000010: ec29 8e3c c66a 683e e075 dfbe 5e03 8c3e
00000020: 9001 47be 9033 56be d7a4 99be 219f a0bc
00000030: 6f74 783e 47a2 4f3e 18b7 493e 74f7 2bbe
00000040: 6ef7 a7be 2d38 6dbe 7c82 6e3c df11 ca3d
00000050: eb72 d0be bd6f 633e 8c7b b7be 0bbc 153e
00000060: bab1 543e a12c 073e c2bc 0b3f 9768 0bbe
00000070: 683a a1be b3ff 3e3e f1e3 633e 0d88 a7be
00000080: 8c96 4fbe 80b8 1ebe 1050 20bd 013f f23e
00000090: f078 393e 8afb c63d a4ff 2e3e e431 a03d
000000a0: 9de6 963e bff7 a9be 1c0f 1bbe 77e6 7f3e
000000b0: d370 c53e 2b77 44be 5b12 c53d 1cb1 603e
000000c0: a858 a9ba a271 00bf 5cb0 02bd 017e 4d3e
000000d0: 326f 8d3e 6509 e9be 60f3 ca3e 7494 2fbe
000000e0: 0e17 853e 1be4 bbbd b68a b33e cebb 503e
000000f0: 813a 373e ac0f 8f3e 309f 873d 059f 87bd
00000100: 0ef9 253f 082a 713e e47d d2be 82a0 ee3d
00000110: 15b3 673e 7273 2b3e 1d10 b7bb 01eb f2be
00000120: 7ef4 f43d 0605 483e 8f4d 963e 3e7d 70be
00000130: 56cb 3fbe 3ac1 54be f24c aebe 4bb8 a8be
00000140: 2069 73be e923 b2be 471a 493d 3c6d ba3c
00000150: 34db 0d3d e5a0 1dbe cab0 b1be 57dd 063e
00000160: 1236 0c3e aa36 04bf bf77 87bd c29e 81be
00000170: 1397 633c 6c3d 33be f85e 0e3e 117e 92be
00000180: be11 d23d 95a6 b2bd 8f71 183e ffc3 013f
00000190: 0990 933c 4569 113c 23b7 9a3e 797b 813d
000001a0: f809 aa3e 5e83 413d 995f b33e 57b0 05bf
000001b0: c95a ac3e 568c 163e 7638 6dbd e363 33be
000001c0: 2a46 61bd 438b b4be cf7c 8ebe d1dc 1d3d
000001d0: 051d 8dbe 8bec 2dbe 1d7b a23d e316 e13d
000001e0: 0006 76be ac91 833e 00e5 8abd 7d70 5bbe
000001f0: 32e8 33bd 8321 e63e 9305 ed3e 0b99 adbe
00000200: ce73 99be 1d36 e63e 010b 70be 95fc acbe
00000210: 8efb 8b3e 4401 67be 3ad2 963e aeb8 b63e
00000220: 7505 b6be 2f6d 7a3e bd6d c43e 542e e53e
00000230: 02ea 98b9 e8bc db3e b23c 8ebe a649 4fbe
00000240: 71f9 f5be 402c 93be bc41 8dbe 27b6 e7bd
00000250: b2ae 87bd eb4c 253f 65da 123e 8f69 47be
00000260: b5d5 83be fbc7 d43c 0fe7 a8be 1168 7f3e
00000270: 4ea9 983e c87d 39be cb3d 9c3e 7757 fb3e
00000280: 96fe 663e ac3f 3c3d 0329 603e a1c4 0e3e
00000290: 8044 b83e 04c9 983c 4c4b 9cbe 23d8 a53e
000002a0: 49e9 3b3e e4cf 143e 1558 1c3f 6c5c 283e
000002b0: b100 4abe 2cb0 b7bb 687a 67be d962 b4be
000002c0: 2345 1cbe 3655 8ebd 721f f4be cde5 823e
000002d0: 445e 9abd 2d25 7a3e a60d d5be 26ea b83d
000002e0: f807 3a3e 8b2a 8a3e cf98 16bf 8a31 f13e
000002f0: 7112 93be d04a b2be 3d55 83be 8fe6 5a3f
00000300: bb07 213e dc5b a63e 40a9 b3bd c3c7 263f
00000310: dbfb 66be 96f5 563e 1c78 bebd 4b32 83be
00000320: 3af9 84be 37d0 f3be 6920 173e 8451 16be
00000330: 5ec3 c6bd 01bb f3bd 113e 11bf 84f9 563e
00000340: fc23 97be 6967 123e f40a ebbe 0ac9 a13d
00000350: 83d1 07be 183c ff3e 7bed 12bf 52db 223e
00000360: d1f6 663e cb45 7dbe 39ea 52bd 789b 9cbd
00000370: 8ae4 6ebe aeaf e43e 085f 04bd 69e7 253e
00000380: cbe6 02bf 308c 9dbe d355 cdbc ca45 92be
00000390: e867 813d 258d 6b3e 22a9 debe d9b2 283e
000003a0: 5ff6 243e e929 12bf 2082 c6bd 669b aebd
000003b0: cc00 273f 6ae5 013f 0816 b93e 8799 30be
000003c0: 84c2 76be b767 bf3d 6237 603e 3bcb 813e
000003d0: 69a5 a63e c8cf 8bbd 052f 073e bf0a 2fbe
000003e0: e679 c7bd 17d7 5b3d b983 b3be 8d70 493e
000003f0: 7a7f b73d 6540 07bf e575 013f 0cd3 f33d
0.38011062 -0.01001333 0.0925253 0.14754789 0.017353974 0.22696981 -0.4364462 0.2734632
-0.1943419 -0.20918107 -0.30008575 -0.019607129 0.24263166 0.20276748 0.19698751 -0.16793615
-0.3280596 -0.2316596 0.014557477 0.0986669 -0.40712675 0.22210594 -0.35836446 0.14622514
0.20770922 0.13200618 0.54584897 -0.13614117 -0.31489873 0.18652229 0.22254921 -0.32720986
-0.20272273 -0.15500069 -0.039138854 0.47313693 0.1811254 0.09715946 0.17089707 0.07822016
0.2947282 -0.33196828 -0.15142483 0.24990259 0.3856264 -0.19186084 0.09622642 0.21942562
-0.0012920098 -0.5017339 -0.03190647 0.20067598 0.27623898 -0.4551498 0.39638805 -0.17146474
0.25994152 -0.09174367 0.35066766 0.20384142 0.17893411 0.27941644 0.066221595 -0.066221274
0.6483315 0.2355119 -0.41111672 0.11651708 0.22626908 0.16743258 -0.0055866376 -0.4744492
0.11960696 0.19533166 0.29356048 -0.23485276 -0.1872991 -0.20776835 -0.3404308 -0.32953104
-0.23770571 -0.34793022 0.049097326 0.022757165 0.034632877 -0.15393408 -0.34705192 0.13170372
0.13692501 -0.5164591 -0.06614637 -0.25316435 0.013890999 -0.175039 0.13903415 -0.28611806
0.1025729 -0.08723179 0.14887069 0.5068969 0.018013017 0.008875196 0.30217847 0.06322379
0.3321073 0.047244422 0.35033873 -0.522222 0.33663014 0.14701971 -0.057915173 -0.17518573
-0.054998554 -0.35262498 -0.27829596 0.038540665 -0.27561203 -0.16984765 0.07933638 0.109906934
-0.24025726 0.25697076 -0.067819595 -0.2142963 -0.04392261 0.44947442 0.46293315 -0.33905825
-0.29971164 0.4496316 -0.23441698 -0.33786455 0.27340358 -0.22559077 0.29457265 0.35687774
-0.35551038 0.24455713 0.38364974 0.44761908 -0.0002916605 0.42917562 -0.27780682 -0.20242938
-0.4804187 -0.28744698 -0.27589214 -0.1131404 -0.06625117 0.6457049 0.14341123 -0.19473861
-0.25748983 0.025974264 -0.32988784 0.24942042 0.2981667 -0.18114388 0.30515894 0.49090168
0.22558054 0.04595916 0.21890645 0.13942195 0.3598976 0.01865054 -0.30526197 0.32391462
0.1835071 0.14532429 0.610719 0.16441506 -0.19726826 -0.005605718 -0.22605288 -0.35231665
-0.15260749 -0.069498464 -0.4768024 0.2556595 -0.07537511 0.24428244 -0.41611975 0.09029035
0.18167102 0.26985583 -0.5882692 0.47108108 -0.28725007 -0.34822702 -0.2565097 0.85508054
0.15725605 0.32491958 -0.08772516 0.6514856 -0.22557013 0.20992121 -0.09300253 -0.25624308
-0.25971395 -0.47619793 0.14758457 -0.14679533 -0.09705232 -0.119009025 -0.5673533 0.2099362
-0.2951964 0.1429726 -0.45906794 0.07899673 -0.13263516 0.49850535 -0.57393616 0.15903977
0.2255509 -0.24733655 -0.051492903 -0.07646841 -0.23329368 0.44665283 -0.03231719 0.16201557
-0.5113341 -0.30771017 -0.025065338 -0.2856887 0.06318647 0.23003061 -0.43488413 0.16474475
0.16109608 -0.570952 -0.09692788 -0.08525734 0.6523559 0.50740683 0.3614962 -0.17246066
-0.2409764 0.09345954 0.21896127 0.25350365 0.32548073 -0.068267405 0.1320153 -0.17093943
-0.09740047 0.053671923 -0.35061434 0.19671841 0.08959861 -0.52832633 0.5057052 0.11905488

net.fc2.bias f4 [10]
00000000: 7c11 4dbe 375e 6d3d bfb4 9b3e fc0a 09be
00000010: 3d74 2b3d 9c1c 0c3e b0f8 243c 3006 f93d
00000020: 98e2 1dbe b020 0abd
-0.20026201 0.05795118 0.30411336 -0.13383096 0.0418589 0.13682789 0.010069057 0.12159383
-0.1541847 -0.03372258
