models/pretrained/MNIST/distilled_20_lenet_w_acc_94.pt (torch, 250055 bytes, 10 tensors)

module.net.conv1.weight f4 [6, 1, 5, 5]
00000000: a072 2fbe 69d2 443a 1da5 bb3d cc4e 92bd
00000010: dab9 ebbc 2754 f43d 9e8c c43d 5e96 cc3b
00000020: 7efd 463d 4bd6 a23d 0fc6 ae3d 819e 74bd
00000030: d2cc 4bbd aa8e 1bbd 851c 913b 09b3 443d
00000040: e674 983c 8e23 f03d 60a7 943e 76c4 cd3d
00000050: e3ed b1bd 5ff4 863c a796 823d de3e 433e
00000060: fe44 133e 1b11 803c bb6e 9ebd 73f4 9dbd
00000070: e106 fbbd ecfe 08be 0906 2cbc adac 39be
00000080: 746e fabd 2f7e e7bd 4183 43bd 11ad 8cbd
00000090: 64d3 c1bc cea7 223d b30a 06be e9da d2bd
000000a0: 1ab6 05be 3df9 a63d 31f9 b23d 30f4 c93d
000000b0: c55f bbbd 883b b63c dac5 43bd d993 403e
000000c0: 4c72 fb3d 8737 313e 0e90 5d3e ebce 5a3e
000000d0: b753 5a3e 70f8 85bd 9f92 b8bc 2683 323d
000000e0: 6e65 f73d 47f2 5b3d cdf4 b4bd 1796 f33d
000000f0: 528a 7f3d 5b3f d2bd 8d27 10bd 3e7b 8f3d
00000100: 3b20 e2bd d3d6 c5bd f25d 51bd e002 31be
00000110: 7897 23be 1f18 14be 8a60 04be 3024 dfbd
00000120: 977a b9bd ca51 d33c 4756 713d afad 173e
00000130: 5819 9b3c 42cc 6b3d 5cf6 043e daf3 283e
00000140: 7a38 f5bc d472 423e d04d 4b3e d65a 2a3e
00000150: 0250 863d 7658 d7bd 6545 b9bd 04a1 51bd
00000160: 0971 3ebd b55b 983d fe36 a1bd 01b3 59bd
00000170: 99e7 02be a7a5 5c3d 01c4 b83d 039f 06be
00000180: e00c debb 5c80 1bbe 5192 9dbd 92cd 02be
00000190: 28df a3bd 173e 07be 08c1 5a3d 3b1c 27be
000001a0: 9f9e 903d 4c89 c93d 20f6 193e 2bbe c3bd
000001b0: c449 983d 8687 23be 0d97 37bd 8f50 2d3e
000001c0: b62e f43c c1bc f33d 9041 b4bc 75b2 5e3e
000001d0: f729 603e 35b6 c73d bc2a 573d 1db3 38bd
000001e0: 4eaa b53d 1ecb 193e 5c96 f4b9 c43d 393a
000001f0: f0cd c1bd aec4 133e e909 aa3d 5d4c 553c
00000200: 5a1f 353d 1493 393d b53b 623e 4934 793e
00000210: 4f73 b13d 61d9 54ba a017 8e3e b449 033e
00000220: 18ee a93d a8d5 a73d dc20 bf3d a556 043e
00000230: 5d4f 65bc 19d1 03be d376 c03d 2699 1c3d
00000240: f47c 013e 0a43 9abd e59b b1bd 10c3 edbd
00000250: eda5 c33d 15a4 adbd
-0.1713357 0.000750816 0.09162352 -0.071439356 -0.028775144 0.11930113 0.09597133 0.006243511
0.048581593 0.079510294 0.085338704 -0.059721474 -0.04975588 -0.037977852 0.0044284486 0.048022304
0.018610429 0.117255315 0.29033947 0.100472376 -0.086879514 0.016473947 0.06376391 0.1906695
0.14381787 0.015633157 -0.07735964 -0.077126406 -0.122571714 -0.13378495 -0.010499486 -0.18132277
-0.122280985 -0.113033645 -0.047732595 -0.06868947 -0.02366037 0.039710812 -0.13090019 -0.1029566
-0.13057747 0.08153007 0.08738936 0.09861028 -0.09149126 0.022245184 -0.047796108 0.188064
0.1227766 0.17306338 0.21636984 0.21367995 0.21320997 -0.06541526 -0.022530852 0.043582104
0.12079893 0.05369785 -0.088357545 0.11893862 0.062387772 -0.1026599 -0.03519397 0.070059285
-0.11041304 -0.09660115 -0.051114984 -0.17286253 -0.1597575 -0.14462326 -0.12927452 -0.10895574
-0.09056585 0.025795836 0.05892017 0.14812349 0.018932983 0.057567842 0.12984604 0.16499272
-0.029934157 0.18989116 0.19853902 0.16636214 0.06558229 -0.105149195 -0.09046439 -0.051178947
-0.046494517 0.07439367 -0.07871817 -0.053149227 -0.1278366 0.053868916 0.0902176 -0.13146596
-0.006776437 -0.15185684 -0.07693923 -0.12773731 -0.08001548 -0.13207279 0.053406745 -0.16319363
0.070615046 0.098406404 0.15035295 -0.09557756 0.07435945 -0.15969667 -0.044821788 0.16925262
0.02980743 0.11901236 -0.022003919 0.21747763 0.21891008 0.0975155 0.05253099 -0.04509269
0.08870374 0.1501889 -0.00046651333 0.0007066394 -0.094631076 0.14430496 0.083026715 0.013018695
0.044219352 0.04530628 0.22093089 0.24336351 0.086645715 -0.000811955 0.277524 0.12821084
0.08297366 0.081950486 0.09332439 0.12923677 -0.013995972 -0.12872733 0.09397664 0.03823199
0.12645322 -0.07532318 -0.08672313 -0.11609471 0.09553132 -0.08478562

module.net.conv1.bias f4 [6]
00000000: 225c 62be a9b4 843e d338 cb3d 793a 96be
00000010: 1388 8fbd 64c6 c03c
-0.22105458 0.25919083 0.09922948 -0.29341486 -0.07008376 0.0235321

module.net.conv2.weight f4 [16, 6, 5, 5]
00000000: 400e 0b3d 7e0e ba3c a52e e5bc a0db 5abb
00000010: 881e 9b3b 5065 8b3d bbd3 1b3d 6642 2d3d
00000020: 496f 023d c8d3 f93c 293c edbc a51e 8bbd
00000030: bded 503c 0f98 963d a204 263d 7c08 833d
00000040: 229e 3d3d f574 633d 8c43 23bd 415d 92bd
00000050: 0a7c 383d 2f2e 793d 268a 543c 6b0d ad3c
00000060: 0dd3 88bc 2ee1 393d b095 463d a2df 31bd
00000070: a105 e5bc d015 ac3c 5dc4 453b 4a7b 4039
00000080: 7705 7a3c 985a 003c cc99 1a3d f249 94bd
00000090: 202f 90bd 2036 9abd ac4e 973b 89e7 5b3d
000000a0: 2fe9 773a 23a7 493d 6e93 653d 2054 0e3d
000000b0: fac0 273d 1ebd 6abc 7552 8a3d 6574 c93c
000000c0: 42ad fd3c 778b 93ba afce 963b 166c 7d3c
000000d0: b277 e7bb fa6d 8ebc 19c4 d73c 7d2f 9d3d
000000e0: fa58 683c 3fb2 aebd 296d 4cbd a639 663d
000000f0: 3a73 eb3c d28c 243d b789 bf3d 00f9 333b
00000100: 68c5 0ebd 824e 72bd e815 943c 51d0 d2bc
00000110: c10b bbbc 4f2b 25bc 120d 64bc 99ea 86bc
00000120: a361 2cbd b5e0 b83c 13d7 673d 3d1f 65bd
00000130: 37f7 543c 7431 233c 76d7 febb d01f fd3b
00000140: 319b 8d3d fbdf 3b3d ba18 5bbd 1eae 34bc
00000150: 9f3e ac3d cd6f 16bc 2a31 2d3d 96ba 813d
00000160: 855f 8d3d 8626 a53d 117a 81bd 3f3d 80bd
00000170: 7310 13bc 6db6 b13d 9193 a93d 3849 4f3d
00000180: a77c a0bb 14b0 c83c 5f11 363b 70da 413c
00000190: 9a43 3f3d 1489 913d b2ed bc3c 0503 ec3c
000001a0: af7c 8ebb 08cf fa3c c050 643d d76b 3d3d
000001b0: 8ea5 423b ba5f 343d 1610 5dbd 9930 a4bd
000001c0: fdd9 a9bc 3a63 a43b 7cda b3bc a9c6 e3bb
000001d0: c5d0 80bd c64e 90bc e40a 2c3d c537 9e3c
000001e0: 57fe 7cbb a715 943c 0eaf 633b 476d 553d
000001f0: b8b4 933b 71a6 90bd c8d3 c1bd c5a1 77bd
00000200: 6fe0 4a3d 2da0 babc e029 633d 0400 d43c
00000210: ef3a 06bc 5ef6 61bc 7949 7d3d d7fd 17bd
00000220: 051b aa3a c445 043d 35cd 883d 3e09 293c
00000230: b50d 12bd 58a6 55bd a5ca 32bb 12f4 99bd
00000240: efd1 b23c a70f ad3c 4cb5 9fbc 9079 90bd
00000250: 8ca6 c4bd 8182 07bc 956e 2e3d 081f cb3a
00000260: 1e11 5b3d 8750 2f3d ea1c 353d d9cd a4bc
00000270: 10b5 b63c 1ded d03c 1f97 cabc 8a27 17bd
00000280: 22b3 95bd 68dc 97bd 7c47 59bd 60b6 4fbd
00000290: 020f c5bd ab88 973c b2d9 b4bd a636 8ebd
000002a0: 6ce4 40bd 8635 30bd 0d95 05bd 7030 db3c
000002b0: 3c77 9dbb 0a91 1dbd 7244 a0bd cdf4 ad3a
000002c0: 05d7 7cbd cec7 87bc 8686 a7bc cf5e 383b
000002d0: 742b 81bc 74ba d2bc 905b 9b3c 9933 2dbd
000002e0: e227 85bd 2420 48bd c1f8 04bd bf54 f4bc
000002f0: b331 8c3c c3ae 8f3c 202d d23a 9740 0e3d
00000300: 88cf 7dbd b334 b839 bf64 04bd 72ba 243d
00000310: e30c e13c 8e2f 0c3c d1da 8e3d f8e2 993d
00000320: 5b2b 86bd 23eb bcbd a1ab c03b e021 c83c
00000330: 05d6 893d dea0 70bd 1c1c 47bc 2c6b c43c
00000340: 6687 5f3d f48b 113c 0002 74bd ae72 ddbc
00000350: e0e5 ed3b 4bf2 68bb 8c07 ca3c fc98 c0bd
00000360: 0b6d 34bc d30f 31bc d402 95bd 20b8 d1bc
00000370: f2d5 04bd bbec 31bd b26a d63c 913d a3bd
00000380: c67e a3bc 6e3e 013d 4d82 5b3d 5599 a73d
00000390: 72c9 563c 2f53 343c 5930 ee3b bb61 993d
000003a0: 3e39 f8bc 4e79 373d 3ac1 843d 6a7d 2d3d
000003b0: df23 8e3c acfd cfba 33e6 193d 621b 243c
000003c0: c489 5dbd 4104 6abd d3ce f5bc f33b 0f3d
000003d0: 12a9 e6bc 1e6b b0bc 315e 4dbd 7a67 a0bd
000003e0: 1a95 96bd 3687 2bbb 9bc7 43bd a4d1 b4bb
000003f0: f83c 783d 78e5 1a3b e522 f4bc e624 83bd
0.033949137 0.022711989 -0.027976343 -0.0033395067 0.004733864 0.06806433 0.03804372 0.04229965
0.03184441 0.030496493 -0.02895935 -0.06792954 0.012751994 0.073532216 0.040531762 0.06398103
0.046293385 0.05553146 -0.03985934 -0.07146693 0.045040168 0.06083506 0.01297239 0.021124562
-0.0167022 0.045380764 0.048482597 -0.043426163 -0.027956786 0.021006495 0.0030176856 0.00018356476
0.015260092 0.007834099 0.03774433 -0.072406664 -0.070402384 -0.07529855 0.0046175327 0.053687606
0.00094570493 0.04923166 0.056048803 0.034748197 0.04095552 -0.014327316 0.06754009 0.024591634
0.030966405 -0.0011256774 0.0046022753 0.015467664 -0.0070638293 -0.017386425 0.026338624 0.07675073
0.01418137 -0.085300915 -0.04990879 0.05620732 0.028741468 0.04017336 0.09352439 0.0027461648
-0.03485623 -0.059156902 0.018076852 -0.025734099 -0.022832753 -0.010081126 -0.013919132 -0.016469287
-0.0420853 0.022568086 0.056601595 -0.055937994 0.012998394 0.009960521 -0.00777715 0.0077247396
0.06914366 0.0458679 -0.053490378 -0.011027841 0.084103815 -0.009181929 0.042283215 0.063344166
0.069029845 0.080639884 -0.063221104 -0.06261682 -0.00897609 0.08677373 0.08280099 0.050606936
-0.004897672 0.024498023 0.002778135 0.011831865 0.04669533 0.07106224 0.02306256 0.028810034
-0.0043483595 0.030616298 0.05574107 0.046245422 0.002970073 0.044036604 -0.05397042 -0.08017082
-0.020733828 0.0050167115 -0.021954767 -0.0069511724 -0.0628982 -0.017615687 0.042002574 0.019313702
-0.0038603747 0.01807673 0.0034741792 0.052106168 0.0045076273 -0.07062996 -0.09464222 -0.06045701
0.049530443 -0.022781456 0.055459857 0.025878914 -0.008192762 -0.013791649 0.061837647 -0.037107315
0.0012978023 0.032293096 0.06679765 0.010317145 -0.035657603 -0.05216059 -0.002728143 -0.07517256
0.02182862 0.021125628 -0.019495629 -0.07054436 -0.09602079 -0.008270861 0.042585928 0.0015496919
0.05348312 0.042801406 0.044217028 -0.020117687 0.022303134 0.02550369 -0.024730263 -0.03690294
-0.073095575 -0.07415086 -0.05304669 -0.050711036 -0.09622003 0.018497786 -0.088305846 -0.06944017
-0.04709284 -0.043019794 -0.03261285 0.026756495 -0.0048054736 -0.0384684 -0.07825555 0.0013271809
-0.061728496 -0.016574766 -0.020449888 0.0028132682 -0.01576779 -0.025723673 0.018964559 -0.042285535
-0.06501748 -0.048858777 -0.032463793 -0.029825566 0.017113542 0.017539388 0.0016035177 0.034729566
-0.061965495 0.0003513448 -0.03232264 0.04021687 0.027471965 0.00855626 0.0697533 0.07513994
-0.06551238 -0.09224536 0.0058798348 0.024430215 0.06730274 -0.058747165 -0.012152698 0.023976885
0.054572485 0.008883465 -0.05957222 -0.027032223 0.0072600693 -0.0035544808 0.024661802 -0.094041795
-0.011012326 -0.010806995 -0.0727593 -0.025600493 -0.032430597 -0.043438654 0.026173923 -0.07970727
-0.019957911 0.03155368 0.05359106 0.08183543 0.013109552 0.011006161 0.007268947 0.07489344
-0.030300733 0.04479342 0.064821675 0.042355932 0.017351089 -0.0015868447 0.03757305 0.010016294
-0.05408646 -0.057132963 -0.030005848 0.03496928 -0.02815679 -0.021535452 -0.050138656 -0.078322366
-0.073526576 -0.0026173121 -0.04779778 -0.005518155 0.06060502 0.002363531 -0.029801795 -0.06403522

module.net.conv2.bias f4 [16]
00000000: b20d 46bb 07f8 b3bd c81a 49bc 8bb7 11bd
00000010: de74 553c e943 99bd b7d8 89bd a6ba a0bd
00000020: b46a 8cbd 2828 2ebd 7fff 73bd 1ee7 38bd
00000030: 16b6 cdbd 314e 7abd c769 d8bd cd3d 96bd
-0.0030220565 -0.08787542 -0.012274452 -0.03557543 0.013028352 -0.07483656 -0.06730788 -0.078481
-0.068562895 -0.042518765 -0.059569832 -0.045142286 -0.10044496 -0.061109725 -0.105670504 -0.07336006

module.net.conv3.weight f4 [120, 16, 5, 5]
00000000: dff9 e8bc ab5e 15bd 5416 d63b f664 71bc
00000010: a99f ee3c 0014 243d 47eb e23c a365 bc3b
00000020: ee4b f63c bda4 eabc 240e 5bbc 77f0 d13c
00000030: 9962 103d fdcf 07bd 22b6 f5bc f3b2 b4bc
00000040: 1c59 0c3d 6f47 e2bc 5b7c 77bc 2060 e53c
00000050: 170b 4c3c a978 373c de52 133d c819 aebc
00000060: bf80 58b7 aa6e 33bc c3d3 e3bc c1ea eebb
00000070: 873d bbbb f665 473c ac53 063d f76c fabc
00000080: cb63 78bc e3c2 11bc ca2a 9fbb 0a6e cb3b
00000090: a5fd ccbc 976c bf3c c292 cbbc 317e 8a3c
000000a0: f5ab b4bc 4b6f b0bb 9be6 a7bc 009e 9abc
000000b0: 8900 36bc b216 0e3d b659 863c dcbf eebc
000000c0: f50d 983c 2bf7 9f3a 73b7 ad3c 3c10 c23c
000000d0: 8360 e3bc 8d8a c33c 2d27 633c 90c6 8cbc
000000e0: 752e cebc 5615 db3c e1ae f83c c75b 9f3c
000000f0: a529 b0bc 71bc 1cbd 9688 07bc 01f9 f33c
00000100: f661 3cbc 6b24 333c 4162 b6bc 3616 83bb
00000110: 4805 52bc c0a3 febc 01bc e63b b1e9 32bc
00000120: beb1 17bc c6da c9bc 92f3 1cbd 47c6 6e3c
00000130: dfaa 053d 3127 363d 6849 87bc 1d06 d43c
00000140: 31e7 08bc 975d 143c a884 24bb 298a 3e3b
00000150: e806 8a3c 21f5 eebb 2bd4 88bc ff07 babb
00000160: 6f53 e2bc f9f5 cdbc 34f4 2f3c f7b7 1b3d
00000170: f8cc d0bb 7f63 8c3c 81cc 09bd 917c a5bb
00000180: cc99 fc3c be18 bcbc fe4d a53c 4483 963c
00000190: c758 953a 72a1 3fbc 2076 e33c ab45 c8bc
000001a0: 8738 973b ad0e 573d 9f4f fc3c ddf7 f53a
000001b0: e53c b33c 6305 98bb ef35 7abc 1be3 e5bc
000001c0: 3c82 bebc 9910 d43b 938f aebc 8195 ba3a
000001d0: f3d6 1cbd 9cb5 e6bc b0ea 1ebd 7614 b0bc
000001e0: 615d 9c3c 277f dcbb 9e77 b73b 56ae 193d
000001f0: 764e f33c 9a3a 093d e3f7 d9bc 0193 0d3d
00000200: 755d 9e3c c2db c83c 7c44 c13c 6ae5 483c
00000210: 1bc9 a43c e91d 45bc 88a0 933a 3343 08bd
00000220: e7a3 8e3c 3525 183d 59b3 ccbc c397 edbb
00000230: 2485 d23b e520 01bd a941 fa3c 41cb f7bc
00000240: a511 fc3b ca02 e9bc 4556 44bb 001e 303c
00000250: 9547 033d 5a3e bdbc 7df8 d83c a9e0 1fbc
00000260: 7c0f bfbc a043 26bc fc8e 713c c9ad 4b3c
00000270: 1cc6 82bc 7448 8ebc d8e0 d5bc 4b27 0f3c
00000280: 487b 05bd 79e0 eb3c b32d ae3c f3d0 7b3a
00000290: 0fce 043b 2f72 533c ee94 b03c a611 123d
000002a0: 26c2 043d 7a3f 7f3b 9d9f 0f3c af62 c13b
000002b0: bab9 933c 90bd 2bbd 7f72 213d b6e4 293d
000002c0: e600 a73c 7718 493c 6896 78bc 317a 0b3c
000002d0: c3ba 123d bbd1 3e3d b782 0b3d 5abf 393c
000002e0: ac3c 46bc 52f5 f6bb 8850 453d c93d 0e3d
000002f0: 9085 403d e264 973c a98e 093d 5e34 01bc
00000300: 6be1 433d e27d 983c fb5a 5bbc bc72 82bc
00000310: bff5 c83c cf3f c43c adeb aebc 0f82 5f3c
00000320: 831d c2bb a806 733c 4e60 b43a a729 203c
00000330: 7977 023c 0efd e1ba ce70 8fbc d7fd 1bbd
00000340: 08b3 163a 3d7f 553c 7dc6 a039 b297 293c
00000350: dbe5 c83c b18f 35bd 3af9 04bd 679d f43c
00000360: 7cac d2bc 0082 043d eb45 8bba e6e3 1c3c
00000370: f375 cebc d4c8 0d3c 97b3 173c b4ce 8abc
00000380: 7aae 0c3c 39c1 e93a bd23 003c 4eb2 aabc
00000390: 7add a53b 8a36 8ebc 0b4e 6b3b cb83 d4bc
000003a0: 01df a63b 7e29 f83c 0d4f 0cbd 35ea 9b3b
000003b0: 395f 103b e7e6 6eba 6389 bcb9 3466 f5bc
000003c0: 9aa8 08bd 1711 023d 81a1 213d 0999 bfbc
000003d0: 4421 f83c 07d8 6a3c 9bb4 4dbc 5893 413c
000003e0: b024 273d daa4 39bd 9dd3 373d caf6 063d
000003f0: a3c5 26bd 0fcb 0abd ab97 d43c d6cd b9bc
-0.02843946 -0.036467236 0.0065334234 -0.014733544 0.029128866 0.040058136 0.02770008 0.0057494207
0.030065503 -0.028643006 -0.013370071 0.025627358 0.03525028 -0.033157337 -0.029994074 -0.022057986
0.03426467 -0.027621953 -0.015105332 0.027999938 0.012453816 0.011198201 0.0359677 -0.021252528
-1.2904579e-05 -0.010951677 -0.027810937 -0.0072911684 -0.0057141217 0.0121703055 0.03279464 -0.030569537
-0.015160511 -0.008896562 -0.004857396 0.006208186 -0.02502329 0.02336721 -0.024850253 0.016905876
-0.022054652 -0.005384361 -0.020495703 -0.018874168 -0.011108526 0.034689613 0.0164002 -0.02914422
0.018561343 0.0012204399 0.02120564 0.023689382 -0.027755981 0.023869777 0.013864321 -0.017184526
-0.025168637 0.026743572 0.030356826 0.019452943 -0.021504233 -0.03826565 -0.008272311 0.02978182
-0.011497965 0.010933976 -0.022263648 -0.0040004505 -0.012818642 -0.031083941 0.007041455 -0.010919974
-0.009258686 -0.024640452 -0.038318224 0.01457364 0.03263366 0.04447097 -0.016514495 0.025881821
-0.008355902 0.009055517 -0.0025103483 0.002907405 0.016848996 -0.0072924052 -0.016702732 -0.0056772227
-0.027627675 -0.025141703 0.010739375 0.03801724 -0.0063720904 0.017137287 -0.033642296 -0.00505025
0.030835055 -0.022961017 0.020178791 0.01837314 0.0011394256 -0.011696206 0.027766287 -0.024447283
0.004614893 0.05250423 0.030799685 0.0018765886 0.021879623 -0.004639314 -0.015271648 -0.028062394
-0.02325546 0.006471705 -0.021308696 0.001423523 -0.03829093 -0.02816277 -0.038798034 -0.021494132
0.019087495 -0.006729025 0.0055989763 0.037519775 0.029700499 0.033503152 -0.02660746 0.034564022
0.019331673 0.024518851 0.023592226 0.012261728 0.020115426 -0.012031057 0.0011263052 -0.03326721
0.01741214 0.03714486 -0.024987863 -0.0072507574 0.006424563 -0.03152551 0.030548887 -0.030248286
0.007692533 -0.028443713 -0.0029958647 0.01074934 0.032050688 -0.02310102 0.026485676 -0.009758153
-0.023322813 -0.010147959 0.014743563 0.01243157 -0.015963607 -0.017368533 -0.02610819 0.0087373955
-0.032588273 0.02879356 0.021262025 0.0009606026 0.0020264422 0.012905641 0.02155539 0.035661362
0.032411717 0.0038947747 0.008766082 0.0059016566 0.018032897 -0.041928828 0.039415833 0.04147788
0.02038617 0.012273899 -0.015172578 0.008513019 0.03582264 0.046586733 0.034060206 0.011337126
-0.012099426 -0.0075365687 0.048172504 0.03472689 0.047002375 0.018480722 0.033583317 -0.0078860205
0.047822397 0.018614713 -0.013388391 -0.01592385 0.024531243 0.023956208 -0.021352613 0.013641848
-0.005923928 0.01483313 0.0013761611 0.009775556 0.007963055 -0.0017241554 -0.017509844 -0.038083877
0.00057487236 0.013030824 0.00030665463 0.010351108 0.024523666 -0.044326488 -0.032464243 0.029860212
-0.025717013 0.03235054 -0.0010625696 0.00957582 -0.025202727 0.008653838 0.009259126 -0.016944267
0.00858652 0.0017834074 0.007821021 -0.020836975 0.0050618025 -0.01735999 0.0035904672 -0.02594175
0.005092502 0.030293223 -0.034255076 0.0047581443 0.0022029413 -0.00091133866 -0.00035960515 -0.02995596
-0.033363916 0.03175458 0.039460663 -0.023388403 0.0302893 0.0143337315 -0.012555267 0.011814915
0.040806472 -0.04532323 0.044879545 0.0329502 -0.040715825 -0.033885058 0.025951227 -0.022681158

module.net.conv3.bias f4 [120]
00000000: c94e 64bc 2da6 9f3c acfa a0bb 8828 5a3c
00000010: bb29 f5bc 4d27 3dbc dfea d73c f9db 0b3d
00000020: fa7d 93bc 6e9e e23c 8618 353c 2b7e 9a3c
00000030: 24bc d2bc 6697 a7bc 5191 b43c 6dd7 51bb
00000040: d3ad ee3c a66b b1bc c8dd 42bc 36dc dc3c
00000050: de8c d03c 12f5 123d 94ee a5bb 9723 e73c
00000060: 6cc1 ad3c bc69 673c 7ebe 41bc 754a ccbc
00000070: df87 05bd 59ac 833c 7e3d b2bc 8014 e03c
00000080: e0a7 fdbc 48cd 1c3c 68d6 1f3c 5d52 a4bc
00000090: 1c5b 7a3c c800 d73b 401e 173b 9b16 13bc
000000a0: 2cea b23c e795 c8bc b708 183d b156 a93c
000000b0: 75f9 d0bc 7b55 7d3c 4a81 383c 9799 3a3b
000000c0: 5dc6 b23c baed 0d3d c310 c4bc bbc8 80bc
000000d0: 88cd 93bc 10f6 433c f180 f93c 42b5 dbbb
000000e0: e614 183d d55a efbc 9e96 f73c 63f4 ea3c
000000f0: 4e98 c33c 511c 20bd 686e b4bc 9abe 88bc
00000100: 3b62 13bd f465 373c 6087 053d 16fc c63a
00000110: ea46 efbc b40d e839 9817 b2bc 606a 223d
00000120: ab18 173c 8ce8 debb 1129 973c d8cc e6bc
00000130: a828 493b 3fd6 84bc 97ba d1bc c019 18bd
00000140: 4cfc d1bc 7bbd 4a3b 0063 00bd 0b6d 833c
00000150: 1583 b0bc 57da 6ebc 4b78 713c 79d0 cb3c
00000160: 9980 03bd 0b3c 393d dc1a 173c 4383 debc
00000170: 5c50 1b3d d714 6a3c 741c 7cbb 04d3 663c
00000180: 868a 593d 03b1 07bc b0e1 793b 6682 17ba
00000190: 0cb9 ce3c bb0d dbbc 0c8b fabc 2291 053d
000001a0: 5c2c bd3c 2832 313b 66c7 95bc 202b 9f3c
000001b0: a063 a03c d8d6 b93c 4524 3b3c 0ecf 243b
000001c0: 96b5 bcbc 01ec 72bb d576 f83c 6d0c ea3b
000001d0: e5cd 5dbb 894a 49bc 0e6c 75bc e9d5 75bc
-0.0139347995 0.019488418 -0.004912695 0.013315327 -0.029927125 -0.011545015 0.026357112 0.03414533
-0.018004406 0.027663436 0.01105321 0.01885899 -0.025724478 -0.020457935 0.022041949 -0.0032019273
0.02913562 -0.021657776 -0.011893697 0.026960474 0.025457796 0.03587825 -0.005063841 0.028215213
0.021210395 0.01412433 -0.011825202 -0.024937848 -0.03260028 0.016073393 -0.021757837 0.027353525
-0.030963838 0.009570427 0.009755708 -0.020058805 0.015280511 0.0065613724 0.0023058802 -0.0089775575
0.021840177 -0.024485542 0.037117686 0.02067122 -0.025509575 0.015462275 0.011261294 0.0028472894
0.021823103 0.03465054 -0.023933774 -0.015720716 -0.01804234 0.011960521 0.030456992 -0.006704957
0.037129305 -0.029218117 0.030223187 0.028680986 0.023876335 -0.039089505 -0.022025302 -0.016692448
-0.03598235 0.011193741 0.032599807 0.0015181329 -0.02920862 0.00044260698 -0.021739766 0.03965223
0.00922219 -0.006802624 0.0184522 -0.028173849 0.00306944 -0.016215442 -0.025601668 -0.037133932
-0.025633 0.0030935693 -0.031344414 0.016043207 -0.02154688 -0.014578423 0.014738153 0.024879681
-0.032105062 0.045223277 0.009222712 -0.0271622 0.037918434 0.014287195 -0.0038469108 0.014088396
0.053110622 -0.008281949 0.0038128905 -0.0005779624 0.025234722 -0.026739946 -0.03058388 0.032609113
0.023092441 0.0027037952 -0.018283557 0.019429743 0.019578755 0.022685453 0.011422222 0.0025147828
-0.023035806 -0.0037066939 0.030330101 0.0071425945 -0.0033844647 -0.012285837 -0.0149793755 -0.015004613

module.net.fc1.weight f4 [84, 120]
00000000: a4e8 a3bc 3aab 9fbd b006 cdbc fac8 94bc
00000010: 0da0 25bd 6eac 293d 91f6 b3ba b18d 20bc
00000020: 5d87 98bd 4204 bfbc bff0 73ba b603 18bd
00000030: a134 48bd 4d45 a6bc 93bc f73c 4770 5cbd
00000040: 5f0e 37bd c24c 973d 566e 863d aaa7 c03c
00000050: 00b0 a33d 4b4a 443d 352f 883c 2529 80bd
00000060: fb5e a4bd 6b8d b43d a25d 003d 4967 833d
00000070: 49a9 9d3d d4cd 95bd b357 483d 5ff9 e03c
00000080: 8724 7d3d d7b0 913d c9d7 d9bc c442 153d
00000090: 0e69 5a3d a1d8 173d 66d2 2dbd 75b7 3b3d
000000a0: 8a91 6c3d 9ee5 7ebd 512c 0f3d 8f3e 9dbc
000000b0: 9a82 6f3d e610 7cbc 209d 943c 2b5b 313d
000000c0: a596 953c a067 a83d a632 abbd 5ae2 013d
000000d0: 2198 0c3e caa3 b13d 0c1c 863d bdb6 02bd
000000e0: 50a1 55bd 1c30 e93c 7dc0 833d a575 9abd
000000f0: 3280 5dbd 0786 15bd e52c f6bc 5742 383d
00000100: 9053 c53d 3e26 3c3d 8d6f 363d 973d 593c
00000110: 2d3c 8cbc 6d74 ad3c b935 8abd 472f 8bbd
00000120: a697 07bd d1f2 003d bad2 983d 2554 7e3c
00000130: b32b 1bbd 9970 2e3d 2310 a43b 1dbd 6b3d
00000140: 1a9c 733c 6af7 d23c 746e 0a3d e39d 0f3d
00000150: ffc4 103d 5e73 993d 8069 90bc 4b54 b43d
00000160: 2469 abbd b895 85bd 3850 413c 3d3f 243d
00000170: c74f 69bd 517a 06bd 5816 8cbd 6a9c 35bd
00000180: 6e31 42bd 571e 2fbd dc3c 38bd b087 7c3c
00000190: 4893 043d 82f7 7e3d b52d 283d 93dd 18bd
000001a0: 45cd 3a3d 0e10 60bd 5a33 54bd d9ee d23b
000001b0: 3221 9cbc 8615 77bd c6b0 37bd bd8e 923d
000001c0: b39b 2a3c 9ab8 f03c dca9 3d3d e2b0 c0bc
000001d0: c5d5 7b3d d7eb bcbb 73da 92bc b596 b03c
000001e0: a36d 333c 3173 0cbd 5af5 943c 14fc 413d
000001f0: 49ae 913c d89b 3c3b 7ece 02bd 5423 bbbc
00000200: 7880 2bbd d0ed 19bb 918b 6dbd 4c9e c03c
00000210: 4ddc 86bc f6db 8a3d bfda ee3c c8af 323c
00000220: 767b 7ebd 24b8 d0bb db86 d4bc f4b8 8a3d
00000230: 8357 653d 8eab d4bc d008 823d 3dd6 71bc
00000240: a3d1 843c f6ae d9bc 0a24 44bd 8d62 c83c
00000250: 8b39 93bd f7ad 1c3d 4090 0a3d cbc7 dcbb
00000260: b949 62bd 3948 5abd 8e48 eb3c ce59 c53c
00000270: ac92 71bd fcf4 b63c aa3a 163d 4e9c 04bd
00000280: 9691 6f3d cb28 0a3d d16c f0b8 fae2 eb3c
00000290: e26a 36bd 3c3a b53c d451 f6bb fdcf f5bc
000002a0: d5c8 083d fa1f 813d 0f09 7bbd f7b5 9fbd
000002b0: e9b1 a93c c3fa 663d 59bc 9abd 5338 38bd
000002c0: 713f 593d 509a 293d 85c9 d43c 7644 12bd
000002d0: 8f0d 083d 4353 033d 8f2b 4d3d a173 923d
000002e0: 84a9 44bd 2ca8 933d 69d3 4b3d e522 963d
000002f0: 4970 803b 9a55 fdbb 7743 b83c f9ed d13c
00000300: 9422 91bc 23e6 41bc 7aa6 303d eb59 aebb
00000310: 2799 5dbd 5c58 fa3c 760f f43c 97f8 4fbc
00000320: 66f6 3cbc eabd 2fbd 340d 333d 6d92 b93b
00000330: 308e c73c 4b42 76bd 0610 74bd 9947 3d3d
00000340: 192b 88bc 29e8 da3c 2092 a53c 6644 aabc
00000350: 4596 4abc db06 5c3d 05e3 9f3b 3203 9cbc
00000360: f31b 533d d9a8 2a3d efc2 1bbc 811f 193d
00000370: 16a1 28bd 3a75 8fbd deef 423c 2109 873c
00000380: e9a2 93bc 81fa 20bd 96b6 13bd a1b6 c3bc
00000390: 0576 9ebd 470d 2d3c 2f4b 783d 1207 503d
000003a0: 653b ac3c 0556 3f3d b3b3 c2bc a195 57bd
000003b0: ddf9 1b3d 2608 b53b c056 733d da5c 89bd
000003c0: 3051 4fbc 2a17 983d 01ab da3b 6350 ccbc
000003d0: 8873 753d 6c35 003d 52e7 0bbd b00d 833c
000003e0: f776 8abd 66c6 febc 5778 ad3c 8284 6cbc
000003f0: 2561 893c 53b0 24bd 3ba0 cb3c 7194 8c3d
-0.020008393 -0.07796331 -0.025027603 -0.01816224 -0.04043584 0.041424207 -0.0013730099 -0.009799407
-0.074476935 -0.02331746 -0.00093055883 -0.037112914 -0.048878316 -0.020296717 0.030241286 -0.053818014
-0.04469144 0.07387687 0.06564014 0.023517448 0.07992554 0.047922414 0.016624073 -0.06257848
-0.080259286 0.08816036 0.031339295 0.064161845 0.07698304 -0.07314649 0.04891176 0.02746266
0.061802413 0.07113808 -0.026592152 0.036440626 0.053322844 0.037071828 -0.04243698 0.045829255
0.057755984 -0.0622307 0.034954373 -0.01919487 0.05847416 -0.015384888 0.01814133 0.043299835
0.01826031 0.0822289 -0.0835927 0.031710006 0.13729908 0.086738184 0.06548318 -0.031912554
-0.052155793 0.028465323 0.064331986 -0.0754197 -0.054077335 -0.03650477 -0.030050704 0.04498514
0.09635079 0.045934908 0.044539977 0.013259313 -0.017118538 0.02117368 -0.06748528 -0.06796127
-0.033103608 0.031481568 0.07462068 0.015522991 -0.03788347 0.04258785 0.0050068065 0.0575534
0.0148687605 0.025752742 0.033796743 0.035062682 0.03534412 0.07492708 -0.017628431 0.0880514
-0.08369663 -0.06522697 0.011798911 0.04009937 -0.056960847 -0.032831494 -0.06840199 -0.04433862
-0.04741042 -0.042753544 -0.044979915 0.01541321 0.03236702 0.06224776 0.041059215 -0.037320685
0.045605917 -0.05470281 -0.051806785 0.0064371643 -0.019058798 -0.06032326 -0.04484632 0.071561314
0.010413098 0.0293849 0.04630457 -0.023521844 0.061483163 -0.005765419 -0.01792643 0.021556238
0.010951432 -0.034289543 0.018183399 0.04735954 0.017783301 0.0028779414 -0.031935208 -0.022843994
-0.041870564 -0.0023487695 -0.05799443 0.023512982 -0.01646247 0.067802355 0.02915704 0.010906167
-0.06212946 -0.0063696075 -0.02594321 0.06773558 0.05599166 -0.02596071 0.06349337 -0.014760551
0.016213244 -0.026572686 -0.047885932 0.024461055 -0.0718871 0.038251843 0.033828974 -0.0067376844
-0.05524609 -0.053291533 0.02872112 0.024090674 -0.058977768 0.022333615 0.03667704 -0.032375626
0.05848845 0.03373031 -0.000114643604 0.028794754 -0.044535525 0.022122495 -0.007517079 -0.030006403
0.033394653 0.06304927 -0.061287936 -0.07798379 0.020714717 0.05639149 -0.07555456 -0.04497559
0.053039018 0.04140693 0.025974998 -0.03570982 0.033216055 0.032061826 0.05009037 0.07150961
-0.048013225 0.072098106 0.049762163 0.07330874 0.0039196354 -0.0077311518 0.022493107 0.02562617
-0.017716683 -0.011834654 0.043127514 -0.0053207777 -0.054101136 0.030559711 0.029792529 -0.012693546
-0.011533355 -0.042905726 0.043713763 0.0056632073 0.024359792 -0.060121816 -0.059585594 0.04621086
-0.016622113 0.02672203 0.02021128 -0.020784568 -0.012364929 0.053717475 0.0048793578 -0.019044492
0.051540326 0.041664932 -0.009506925 0.03738356 -0.04116925 -0.07004781 0.011898009 0.016483845
-0.018022018 -0.0393014 -0.0360628 -0.023890795 -0.07737354 0.010562248 0.060618576 0.050787993
0.021024415 0.046712894 -0.023767328 -0.05263293 0.038080085 0.005524653 0.059408903 -0.06707163
-0.012653634 0.07426293 0.0066732173 -0.024940675 0.059924632 0.031300947 -0.03415615 0.015997738
-0.06760972 -0.031100463 0.021175547 -0.014435889 0.016769955 -0.04020722 0.024856677 0.068642505

module.net.fc1.bias f4 [84]
00000000: 4245 21bd 9f06 48bc be59 09bc a0bb f2bc
00000010: a9ef 203d 7dd8 9dbc cc5d 923d a16f ee3b
00000020: b7cb a3bc a6fb 67bd 8773 613d d47a 13bd
00000030: 6b51 dc3c cbf2 383b b20c e23c caaa 76bd
00000040: 110f 98bd 9cd3 17bd 863f f03b 52a5 e73c
00000050: 581e 78bd ea05 ffbc 6408 f3bb 85ee 023c
00000060: 250c 763d c16d 65bd 3ac0 3d3d ed8d 47bd
00000070: 5552 4e3d 2e0d b9bd e3a4 65bd 6b55 883d
00000080: 9201 003b 0aa9 a6bc 0f54 51bd 5488 343d
00000090: 6ac1 3c3c 866e 4ebb f38e 55bc ef0c 193d
000000a0: d00c 853d 52dd f4ba fa5b 213d 4d71 f1bc
000000b0: e3f3 163a 1489 05bb 89dc 1bbc 9492 523c
000000c0: 17f1 cdbc d56c 3a3c c1a0 783c 2e59 2c3d
000000d0: d340 803d 8ed8 fc3c c4ae 873d 9a52 9abd
000000e0: 5a32 72bd 0e52 433d 4a96 74bd c9d3 e13c
000000f0: cd48 5ebd c914 bfbc 9ae1 823d 259d 76bb
00000100: 7c1d 603d 9a13 61bd 24ea 2ebd b0c3 63bc
00000110: 3106 cc3c 47b7 e73b 69fa 1abd 6fb4 b4bb
00000120: 0a85 d3bb 5d8d 6c3d da2d c43c 2d8e 223c
00000130: 70cf 4abd 6aab d7bc 5b47 253d 0f29 2bbd
00000140: 6af3 fc3c 1b17 8238 4865 61bd 5dc7 953c
-0.03937269 -0.01220861 -0.008383213 -0.029630482 0.039291058 -0.019268269 0.071467966 0.007276491
-0.0199946 -0.056636475 0.055041816 -0.03600581 0.026894292 0.0028220888 0.027593944 -0.06022147
-0.07424749 -0.03706704 0.0073317913 0.028277073 -0.060575813 -0.03113075 -0.0074167717 0.007991438
0.060070176 -0.056012873 0.0463259 -0.048719335 0.050371487 -0.09035717 -0.05606545 0.06656917
0.0019532186 -0.020344276 -0.051105555 0.044075325 0.011520723 -0.0031498983 -0.01303457 0.03736585
0.064965844 -0.0018681681 0.039394356 -0.029472971 0.0005758388 -0.0020375894 -0.009513029 0.01285233
-0.025139375 0.011378487 0.0151750455 0.042077236 0.06262364 0.03086498 0.06625131 -0.07535286
-0.05913005 0.047685675 -0.05971364 0.027566807 -0.054268647 -0.02332534 0.06390686 -0.0037630287
0.05471562 -0.054950334 -0.042703763 -0.013901636 0.024905296 0.007071409 -0.037836466 -0.0055146734
-0.0064550685 0.057752002 0.023947645 0.009921593 -0.049514234 -0.026326854 0.040351253 -0.041787203
0.030877788 6.203187e-05 -0.05502823 0.01828354

module.net.fc2.weight f4 [10, 84]
00000000: 6606 9c3d 6fb9 863d 621f 723b 92c2 07be
00000010: e06b 62bd f779 e53a 8ab6 debc 6310 6fbd
00000020: 228e 07bc 07fe 8f3c 8813 0fbd 0b73 b7bd
00000030: 73cb abbc c5d6 833d 2aba 9abd 6040 573d
00000040: 9a86 2c3d 667b 993d e0ec f93c fa69 6cbb
00000050: 6bf6 f43c 37e9 b6bd 5be9 9a3d ad79 ebbc
00000060: e685 e23c 9f65 d63c 85c7 87bd 60ed 053a
00000070: 5f19 573c d3e5 e93d 328b 5abd 87ad 97bd
00000080: 3ebc 88bb 8598 18bc 861e dfbd f1d3 9c3d
00000090: 8f16 313d f87b f4bd 29b0 a33d 707b 6cbc
000000a0: d06d 3b3c 99ba 0ebd c3f2 b9bd 815b 203c
000000b0: 7609 d1bc 4c2f 80bc 690a b4ba 57b8 b33d
000000c0: ed1e 653c 302a 95bd 90f4 f6bc 94f2 bcbd
000000d0: 15fc 74bd a98f 15be ecef 86bd 8065 82bd
000000e0: 3e33 ae3d b2e9 02bd 800c 0e3d 3163 c1bd
000000f0: 7d31 4fbd 4bef 0dbd 8762 0cbe 1118 4d3b
00000100: 6fa3 8ebd 0bde d2bd 76fd 023e 79f4 b8bd
00000110: 0ff5 c73d dff8 09bd f028 5d3d 6f5b abbc
00000120: 87fb 2bbd 8ae3 063d 7f81 a23d 84a7 203d
00000130: 74ff a6bd ec92 94bd 66ee 253d e3dd 013d
00000140: ea32 bbbd 9757 bfbd 50ee 763c 6728 a9bd
00000150: c07c 80bd 910f f83c c453 57bc be4a 4b3c
00000160: acdd 603d 1599 ac3b b1fa 993d 8a41 d7bc
00000170: 32b7 a6bc c990 b4bd bf68 6fbd 2eec a43d
00000180: 8021 a93d c96f cd3c a59b cc3d c515 76bd
00000190: 1b63 35bd 3e8e 85bd 0073 d0bd 2f5d 313d
000001a0: a272 fbbd 1a01 abbd 2a28 8abd ab13 053e
000001b0: 7994 313d 1abe 55bd 9504 ab3d f6d9 b8bd
000001c0: fdab 9a3d da42 f9bd af83 a7bd a70d b63d
000001d0: b695 39bc 2141 01bd d40d 6b3d 00a3 88bd
000001e0: 152e fbbd 6e10 50bd 1f40 14bd 2c77 2f3d
000001f0: 7366 c13d 1fc0 273d fd89 1abd 18d1 793c
00000200: 1bbc bebd 69f5 b83d 0fad 113d 420e 86bd
00000210: 1e37 ec3c e7af aebc 9cc8 653c 2d5b a53d
00000220: 55ba e03c 806c f33c cd33 7a3d 36ad 85bd
00000230: 62c4 db3b fe94 013e f893 49bd ffd8 03be
00000240: 8605 d93d cb65 c63d 905a bbbc 6caf 463d
00000250: 49bd a5bd 23ef c9bd b293 8cbc 12fa 513d
00000260: 21e1 1fbd 02bc 863c 1f0d 9fbd db11 a5bd
00000270: d8ea ac3d 9102 ad3d 003a 16bc 8036 2dbd
00000280: 86a6 443c d5db 93bd 334e b9bd a1cc f9bd
00000290: ed48 b23d 6d80 a63d c9a7 0b3e 442d 933d
000002a0: f5c8 a8bd 18d4 aabc 5bee bb3d 296e 923d
000002b0: 40bf cc3c b285 833d 2914 a2bb 7591 eebd
000002c0: a848 3abc 7539 27bd f0b3 113d 27f5 ffbc
000002d0: 64d3 3b3d b946 b83d b173 81bd 7ac1 1c3e
000002e0: 2d75 c1bb 51bc e0bd 06ea 38bd bef1 8b3c
000002f0: 42bf 01bd c112 15bd fac7 c83d 29a5 2c3d
00000300: 6658 be3d 37f0 d0bc 689d 06bd 7b5d a53d
00000310: 7913 f53c 9903 103d ef9f 0bbd 9df1 b7bd
00000320: f54b 923d 3c75 093c a467 34bc fc31 9cbd
00000330: b41d 60bb 2540 14bd efac 3c3c 742f 953d
00000340: ddb5 a13d 0a10 593d 6faa 10bd 7e28 93bd
00000350: 611c 84bd c369 f53c 2860 0c3e 3d1a 2fbd
00000360: 4cc9 8b3d d9b8 c63d b88c 12bb 24a1 d73c
00000370: 3190 2fbd 8298 53bd 3a1e 3ebc b99e b83c
00000380: 07a6 393d f095 943c 3169 d7bc 7ed3 ae3d
00000390: 9808 96bd 8808 73bc f06e db3d 283f 05be
000003a0: 2dd0 93bd 51c4 58bd 4215 cf3d 3ad6 f33d
000003b0: e91e 39bd f933 7abd 1be7 81bd 9158 9a3d
000003c0: 750e ffbb 39f7 95bd 4203 7b3d abb7 cabb
000003d0: dd62 99bb 269c 6d3c e4c6 443c 0832 07bc
000003e0: 97a6 ddbc a7f9 073d ccf9 863b 1ed6 70bc
000003f0: d2e9 243e 5e3c a03b bde7 d9bc 457b 9b3c
0.07618408 0.065783374 0.0036944975 -0.13257816 -0.05527866 0.0017507662 -0.02718665 -0.058365237
-0.008273633 0.017577184 -0.034930736 -0.089574896 -0.020971036 0.064374484 -0.07555039 0.052551627
0.042120554 0.074942395 0.030508459 -0.003607391 0.029902657 -0.08931201 0.0756404 -0.028744543
0.027651738 0.026171504 -0.06629852 0.0005108919 0.0131286075 0.114207886 -0.053355403 -0.074061446
-0.004172831 -0.009313707 -0.10894494 0.07657612 0.043234404 -0.11937708 0.07992584 -0.014433727
0.011439756 -0.034845922 -0.09079506 0.009787441 -0.025517207 -0.015647553 -0.0013736013 0.087753944
0.013984424 -0.07283437 -0.030145913 -0.092259556 -0.059810717 -0.14605583 -0.0658873 -0.06367016
0.085058674 -0.03196115 0.03467989 -0.094427474 -0.050584305 -0.034652036 -0.1370946 0.0031294862
-0.06964766 -0.102962576 0.12792 -0.090310045 0.09763538 -0.033684608 0.05399412 -0.020917622
-0.041987922 0.032931842 0.07934856 0.039222255 -0.081541926 -0.072545856 0.040510558 0.03170575
-0.091405705 -0.09342878 0.015071467 -0.08259659 -0.06273794 0.03028086 -0.01314253 0.012407957
0.054898903 0.0052672722 0.07518519 -0.026276369 -0.020351026 -0.08816678 -0.058449503 0.0805286
0.08258343 0.025077717 0.09990624 -0.060079355 -0.044283967 -0.06521271 -0.101781845 0.043301757
-0.12277724 -0.083498195 -0.06745942 0.12995784 0.043354485 -0.052183248 0.08350483 -0.09025948
0.075523354 -0.12170954 -0.081794135 0.08889323 -0.011327198 -0.031556252 0.057386234 -0.06671715
-0.12264649 -0.05079692 -0.036193963 0.04283826 0.09443369 0.040954705 -0.037729252 0.015247606
-0.09313222 0.09031183 0.035565432 -0.06545688 0.028834876 -0.021324111 0.01402488 0.08074031
0.0274326 0.029714823 0.061084557 -0.06527178 0.0067067603 0.12654492 -0.04921338 -0.12875746
0.10596757 0.09687384 -0.022870332 0.04850714 -0.08092744 -0.09860065 -0.01716027 0.051263876
-0.03903306 0.016447071 -0.077661745 -0.08060046 0.084432304 0.08447755 -0.009169102 -0.042288303
0.012002593 -0.07219664 -0.090481184 -0.12197233 0.08705316 0.08129964 0.13638224 0.07186368
-0.082414545 -0.020853087 0.09176322 0.07149918 0.024993539 0.06421985 -0.004946251 -0.116488375
-0.011369862 -0.04082628 0.035571992 -0.031244827 0.045855895 0.08997864 -0.063208945 0.1530818
-0.005903861 -0.109734185 -0.045145057 0.017083045 -0.03167654 -0.03639484 0.098037675 0.042149696
0.092942044 -0.025505168 -0.032864958 0.080744706 0.029916512 0.03515968 -0.03408807 -0.08981631
0.07143394 0.008389767 -0.011011038 -0.07626721 -0.0034197392 -0.036193985 0.01151584 0.072844416
0.07896016 0.05299381 -0.03531879 -0.07185458 -0.06450725 0.029957658 0.13708556 -0.042749632
0.06825504 0.09703226 -0.0022361707 0.026321955 -0.04286212 -0.051659115 -0.011603886 0.022536622
0.04532435 0.018137902 -0.026295276 0.08536433 -0.07325858 -0.014833577 0.10714519 -0.13012373
-0.07217441 -0.052921597 0.101114765 0.11906095 -0.045195494 -0.06108472 -0.06342908 0.07536424
-0.007783706 -0.073225446 0.061282404 -0.0061864457 -0.004680975 0.014502561 0.01201031 -0.0082516745
-0.027056975 0.03319707 0.0041191336 -0.014699487 0.1610482 0.004890009 -0.02659976 0.018979678

module.net.fc2.bias f4 [10]
00000000: 7fcd 21bd b00f df3d 7907 12bc 6c1e afba
00000010: 4dee ab3b 6d96 ca3b 8a32 09bd f5a1 f63c
00000020: 0d6f 25bd 4fce 3fbd
-0.039502617 0.10891664 -0.008912914 -0.0013360507 0.0052469135 0.006182483 -0.033495463 0.030106524
-0.04038911 -0.04682761
