models/pretrained/MNIST/distilled_50_lenet_w_acc_88.pt (torch, 250055 bytes, 10 tensors)

module.net.conv1.weight f4 [6, 1, 5, 5]
0	0xbdb4f5a4	-0.08835915
1	0xbe2f6146	-0.1712695
2	0xbcba0499	-0.02270727
3	0xbdec0925	-0.11525182
4	0xbdf320c3	-0.11871483
5	0xbbd31193	-0.006441304
6	0xbd1a0cf1	-0.037609998
7	0xbd1bee27	-0.038068917
8	0xbacc7023	-0.0015597384
9	0xbd6a5a1e	-0.05721485
10	0x3bc0a394	0.005878875
11	0xbd1edc8c	-0.03878455
12	0x3de60798	0.11231917
13	0xbdeca9fd	-0.1155586
14	0x3d45c34f	0.048281964
15	0xbdf795ad	-0.12089095
16	0x3dae0e8d	0.08498869
17	0xbc3c00a1	-0.011474759
18	0x3d95d306	0.0731564
19	0x3cf7a730	0.030231088
20	0xbdee10d0	-0.116243005
21	0xbdbe968a	-0.09306057
22	0x3e1ceedb	0.15325491
23	0x3d93ddba	0.07220025
24	0x3dbb5c66	0.09148483
25	0x3d120020	0.03564465
26	0x3d624375	0.055240113
27	0xbdbe7619	-0.09299869
28	0x3e23d0f5	0.1599768
29	0x3e2f37f8	0.17111194
30	0xbc81b1b4	-0.015831806
31	0x3e0dfe55	0.13866551
32	0x3d35220f	0.044221934
33	0x38d9a431	0.000103779494
34	0x3e13a488	0.14418232
35	0xbe0a97dc	-0.13534492
36	0xbd7eeef3	-0.0622396
37	0x3d75ba8c	0.059992358
38	0x3dd0f3db	0.10202762
39	0xbcf1d130	-0.029518694
40	0xbe30da0a	-0.17270675
41	0xbdb4705e	-0.08810495
42	0xbe29dd6a	-0.16588369
43	0xbd0fc927	-0.035103943
44	0x3d7e2a7c	0.062052235
45	0x3deecb26	0.11659841
46	0x3d0c1eaf	0.03420895
47	0xbdd7d167	-0.10537987
48	0xbd41ee7b	-0.047346573
49	0xbdfb51a5	-0.12271432
50	0x3df5dd83	0.12005141
51	0x3e1e769b	0.15474932
52	0x3d38a901	0.04508305
53	0x3df9de6f	0.12200629
54	0xbd911b84	-0.07085326
55	0x3e49ca5b	0.19706099
56	0x3e2c0d2b	0.16801898
57	0x3e2b1613	0.1670764
58	0x3d9fed90	0.07808983
59	0x3e1f9719	0.15584983
60	0xbd863a6a	-0.0655411
61	0x3c95cca7	0.018286062
62	0xbda96dcb	-0.082728945
63	0x3cfc2f1a	0.030784179
64	0xbd65de3e	-0.05612015
65	0x3e266d1e	0.16252562
66	0x3d339468	0.043842703
67	0x3e1bc1ab	0.15210597
68	0x3e189c52	0.14903381
69	0x3dc867cc	0.09785423
70	0x3ddd0e1d	0.107937075
71	0x3da12945	0.078692
72	0xbe111a01	-0.14170076
73	0x3d5ae0a7	0.0534369
74	0xbe17c009	-0.1481935
75	0x3e03f6a2	0.12887052
76	0x3d05d41f	0.032672998
77	0xbcfd3755	-0.030910173
78	0x3e26b1a4	0.16278702
79	0xbcaec5ca	-0.021334548
80	0x3dd45107	0.10367017
81	0x3d42dcd6	0.047573887
82	0x3c91e34b	0.017808577
83	0xbd9b0a6a	-0.07570346
84	0x3e0fca3d	0.14041992
85	0x3e07c307	0.13257991
86	0x3b27b229	0.002558837
87	0xbda07cb9	-0.07836289
88	0x3cea6e44	0.028617032
89	0x3d0651ed	0.032792974
90	0x3d7cf41a	0.06175623
91	0x3e23d5b6	0.15999493
92	0x3ce0657c	0.027392142
93	0x3d8e8712	0.06959356
94	0xbd6351df	-0.055498
95	0x3e1308b9	0.14358796
96	0xbda0244c	-0.07819423
97	0xbc4deb72	-0.012568342
98	0xbb6cc1bb	-0.0036126215
99	0x3e240751	0.16018416
100	0x3e1d4739	0.153592
101	0xbe15f340	-0.14643574
102	0xbca66aa2	-0.020314518
103	0xbe307efe	-0.17235944
104	0x3d95be29	0.07311661
105	0xbd1330d2	-0.03593523
106	0x3df8f113	0.12155356
107	0xbdc5bad8	-0.09654778
108	0xbd3d2b8e	-0.046184115
109	0x3d3981ec	0.04528992
110	0xbcdaf933	-0.026730156
111	0x3c01b6f5	0.0079171555
112	0xbbc13a77	-0.005896862
113	0xbc6c4ed2	-0.014423089
114	0xbdfbcc71	-0.122948535
115	0x3e15798d	0.14597149
116	0xbd340fa5	-0.043960232
117	0xbd66777c	-0.056266293
118	0x3d888031	0.066650756
119	0xbd96e804	-0.07368472
120	0xbd76390c	-0.060112998
121	0x3cbb1583	0.022837406
122	0x3e0a0886	0.13479814
123	0x3d6edd2f	0.058316406
124	0x3c81a27d	0.01582455
125	0x3dbf4852	0.09339966
126	0xbd9de357	-0.07709377
127	0x3d89f1c1	0.06735564
128	0xbde3de5b	-0.11126395
129	0xbe0f12bd	-0.13971992
130	0x3be420d0	0.0069619194
131	0x3d8e246a	0.06940539
132	0x3bb501f8	0.0055239163
133	0x3d121750	0.035666764
134	0x3d94c577	0.07264226
135	0x3e09678c	0.13418406
136	0x3e1b505f	0.15167378
137	0xbc5f9f3d	-0.013648805
138	0x3e26f8c7	0.16305839
139	0x3d84c532	0.064829245
140	0x3e372318	0.17884481
141	0x3d05e36f	0.0326876
142	0x3d74f2a0	0.059801698
143	0xbe0b13f8	-0.13581836
144	0xbdc482de	-0.095952734
145	0x3dcf6072	0.10125817
146	0x3d8e33f1	0.06943501
147	0x3d63cb62	0.055613883
148	0xbdd4169b	-0.10355874
149	0xbe1a03d1	-0.15040518

module.net.conv1.bias f4 [6]
0	0xbde4c6d8	-0.11170739
1	0xbd36269a	-0.044470407
2	0xbdc7a6e7	-0.09748631
3	0x3d9cca7b	0.076558076
4	0x3da599b6	0.08085959
5	0x3c1c0ae3	0.00952408

module.net.conv2.weight f4 [16, 6, 5, 5]
0	0x3db53b69	0.08849222
1	0x3bad09c4	0.005280705
2	0xbd98b14a	-0.0745569
3	0xba9f0789	-0.0012132983
4	0xbc0036a9	-0.007825532
5	0x3d3d229c	0.046175584
6	0xbd7f15ab	-0.062276524
7	0xbd7d9e3f	-0.061918493
8	0xbc77cea7	-0.015124953
9	0x3bf4afbd	0.0074672387
10	0xbd817926	-0.06321935
11	0xbbed15f1	-0.0072352816
12	0xbd4ebcf2	-0.05047316
13	0x3ce62ac3	0.028096562
14	0x3cca276b	0.024677
15	0x3d1602f3	0.036623906
16	0x3bb6a988	0.005574409
17	0xbc1a57cf	-0.009420349
18	0x3d9559aa	0.07292493
19	0x3c00013e	0.007812796
20	0x3d16da5d	0.03682934
21	0x3bbbfc20	0.0057368428
22	0xbc4b0892	-0.01239218
23	0x3d83d85a	0.0643775
24	0x3ba66237	0.005077626
25	0x3caf4fbe	0.021400329
26	0x3b98b5d5	0.004660348
27	0x3d1334cd	0.035939027
28	0xbc37cee3	-0.011218759
29	0xbd36a40d	-0.044590045
30	0xbd5011f2	-0.050798364
31	0xbcacffe1	-0.021118106
32	0x3c3ed64a	0.01164777
33	0x3d6c813e	0.057740442
34	0xbc2795cb	-0.0102285845
35	0xbcadc4f8	-0.021212086
36	0xbbb35374	-0.005472595
37	0xbcd012b8	-0.02539955
38	0x3cd08f9b	0.025459101
39	0x3d85cfe9	0.06533796
40	0x3d88850e	0.06666003
41	0xbccd473d	-0.025058383
42	0xbda14d31	-0.07876051
43	0x3d997f6d	0.07495008
44	0x3db79c0d	0.08965311
45	0xbd38eecc	-0.04514961
46	0xbd6446c1	-0.05573154
47	0xbc98a593	-0.01863364
48	0x3ca98354	0.020692505
49	0x3c829501	0.015940191
50	0xbc910294	-0.017701425
51	0xbc5df3c0	-0.013546884
52	0xbd81fe3f	-0.06347322
53	0xbb909977	-0.0044128257
54	0xbce8e5e3	-0.028429931
55	0xbca183c1	-0.019716145
56	0xbc1a4cf9	-0.009417766
57	0x3ba05080	0.004892409
58	0xbd42a6ae	-0.04752224
59	0xbd60cc71	-0.05488247
60	0xbbec8111	-0.0072175344
61	0x3cd5f2a0	0.02611667
62	0xbc575c75	-0.013144602
63	0xbd9ab609	-0.07554252
64	0xbcbeea25	-0.023305008
65	0x3c02e8f3	0.00799011
66	0x3c30344e	0.010754658
67	0xbb93e988	-0.004513923
68	0xbd0a96d7	-0.03383526
69	0x3b3c8cf5	0.002877054
70	0xbc96a38f	-0.018388538
71	0xbcc0b246	-0.023522507
72	0xbcaad819	-0.020854997
73	0xbcaca6a3	-0.021075552
74	0x3d341488	0.043964893
75	0x3d938172	0.07202424
76	0x3d422585	0.047399063
77	0x3d014e4f	0.03156882
78	0xbd2a6045	-0.041595716
79	0xbce55131	-0.027992817
80	0x3d34a280	0.044100285
81	0xbd0f609a	-0.035004236
82	0x3d36f2a0	0.04466498
83	0xbc9a7f2c	-0.018859468
84	0x3c70ec2b	0.014704744
85	0xbd07346d	-0.03300898
86	0xbd5b491a	-0.053536512
87	0xbbae9826	-0.005328196
88	0xbd289a56	-0.04116281
89	0x3d4669f5	0.048440892
90	0x3d72fe63	0.059324633
91	0x3cb23d3b	0.021757713
92	0x3d84d338	0.06485599
93	0xbb647d4b	-0.003486472
94	0xbc06c076	-0.008224597
95	0xbd23ecac	-0.04002063
96	0x3cf7c681	0.030246021
97	0xbc3a53dc	-0.011372533
98	0xbd129aa1	-0.035791997
99	0xbc8df230	-0.017327398
100	0x3bbcf7ad	0.00576683
101	0x3c118e21	0.008883984
102	0xbced058c	-0.028933309
103	0xbc3fbad1	-0.011702255
104	0x3d4ef9db	0.05053125
105	0x3d5c90da	0.05384908
106	0x3cab62df	0.020921169
107	0xbd64f5a0	-0.05589831
108	0xbce59ed0	-0.02802983
109	0xbd630fff	-0.055435177
110	0xbcfa8add	-0.030583793
111	0x3cd42b19	0.025899457
112	0xbbb77d74	-0.005599672
113	0xbcd00a3d	-0.025395507
114	0xbcb27d83	-0.021788364
115	0xbd5ed5f8	-0.054403275
116	0xbca2933b	-0.019845596
117	0xbab083de	-0.0013467034
118	0xbd43ec3c	-0.047832713
119	0xbc8aa973	-0.016926503
120	0x3cc2d25e	0.023781952
121	0x3c324aa2	0.010882052
122	0x3d2f0334	0.042727664
123	0x3d39a1de	0.045320384
124	0x3d276823	0.040870797
125	0x3c927884	0.017879732
126	0xbd3b6a43	-0.045755636
127	0x3bcaaf08	0.006185416
128	0xbd3bfe97	-0.045897093
129	0xbd4bb168	-0.049729735
130	0x3d5e3e16	0.05425843
131	0x3d304700	0.04303646
132	0x3c1fe465	0.009759043
133	0xbd4e2764	-0.050330535
134	0xbdb07e7d	-0.08617876
135	0x3c29ca07	0.0103631085
136	0x3d095e6c	0.033537313
137	0x3d11b8f9	0.035576794
138	0xbcb1c03c	-0.02169811
139	0xbd26bc19	-0.040706728
140	0x3d156f86	0.03648331
141	0xbca4934b	-0.020089766
142	0xbd02ae5e	-0.03190457
143	0xbdd38dcf	-0.10329782
144	0xbdc5f15e	-0.09665178
145	0x3a8b7f9c	0.0010642889
146	0x3c10b5a7	0.008832372
147	0xbc951329	-0.018197613
148	0xbd431297	-0.04762515
149	0xbd6b5cf7	-0.057461705
150	0x3d28afa5	0.041183133
151	0xbd88c5b0	-0.06678331
152	0xbcac566a	-0.0210373
153	0x3d419cbc	0.047268614
154	0xbd65f05a	-0.05613742
155	0x3d42018d	0.04736476
156	0xbbf22b48	-0.0073904134
157	0xbd121c99	-0.035671804
158	0x3ce3e883	0.027820831
159	0x3c653568	0.013989784
160	0xbd09d9cb	-0.03365497
161	0xbd7ac7ff	-0.061225887
162	0xbb587e1d	-0.0033034154
163	0xbcf84ba2	-0.030309502
164	0xbd3c3b52	-0.04595501
165	0x3cc13b5d	0.023587877
166	0x3c91de9d	0.017806346
167	0xbd132ca6	-0.035931252
168	0xbd47532a	-0.048663296
169	0x3cc62c0c	0.024190925
170	0xbcfeec65	-0.031118581
171	0x3d5b1877	0.05349013
172	0x3c012c9a	0.007884169
173	0x3d619653	0.055075
174	0x3d5c9614	0.053854063
175	0x3c5d5a35	0.013510277
176	0x3ca2b415	0.01986126
177	0xbb70758b	-0.0036691155
178	0xbd1dc469	-0.03851739
179	0x3d45d617	0.048299875
180	0xbb0cbfda	-0.0021476657
181	0x3cf0296f	0.029316632
182	0xbcdd4707	-0.027011408
183	0xbd41b310	-0.047289908
184	0xbc9cbf1c	-0.019134097
185	0x3c254fc4	0.010089818
186	0x3cd28910	0.025700122
187	0x3d84916c	0.064730495
188	0xbc475e75	-0.012168516
189	0xbc50ab3e	-0.01273614
190	0x3c0ef15c	0.008724537
191	0x3d3928a7	0.045204785
192	0x3c246d65	0.010035847
193	0x3d20aa7b	0.039225083
194	0xbb6dec71	-0.003630426
195	0xbd3df308	-0.04637435
196	0xbbbe3dbb	-0.0058056987
197	0x3c93034b	0.017945906
198	0xbc5b8a4a	-0.01339967
199	0xbd1713ec	-0.036884233
200	0x3b2c8fe8	0.0026330892
201	0xbcea7a28	-0.028622702
202	0xbace0685	-0.0015718496
203	0x3d5a2c53	0.053264927
204	0x3c48c530	0.012254044
205	0x3ca85ab4	0.020551063
206	0xbc782ab4	-0.0151469
207	0x3d8e8d1b	0.069605075
208	0x3c5ab379	0.013348454
209	0xbd4646df	-0.04840743
210	0xbcb062f0	-0.021531552
211	0xbc54c26e	-0.012985809
212	0xbd123449	-0.035694394
213	0xbc94efd1	-0.01818076
214	0x398b94f4	0.00026623125
215	0x3ca2f493	0.019892013
216	0xbcf83156	-0.030296963
217	0xbd45f7ee	-0.048332147
218	0x3c1102e7	0.00885079
219	0x3cfa65ec	0.030566178
220	0x3cd79708	0.026317134
221	0x3be04514	0.0068441723
222	0x3be43d71	0.006965332
223	0xbd2db1a4	-0.04240574
224	0xbd652813	-0.05594642
225	0xbcf8f285	-0.03038908
226	0x3d72274f	0.05911952
227	0x3d701d6b	0.058621805
228	0x3b88fa3d	0.0041802214
229	0xbd24b491	-0.040211264
230	0x3cff2bea	0.03114887
231	0xbd28a9c2	-0.04117752
232	0x3c1552f2	0.009114014
233	0x3d811765	0.0630329
234	0x37b4aa8a	2.1537086e-05
235	0x3cab08a9	0.020878153
236	0x3bff915e	0.0077993115
237	0xbcc39a69	-0.02387734
238	0x3b84eabb	0.0040563024
239	0x3c4eba15	0.012617608
240	0x3cd2b39b	0.025720408
241	0xbd3639be	-0.04448866
242	0xbcf7f771	-0.030269356
243	0xbd5aa9bb	-0.053384524
244	0xbd1be674	-0.038061574
245	0xbba65cdb	-0.005076987
246	0xbd719118	-0.058976263
247	0xbd76fd7f	-0.060300346
248	0xbcf2ec0e	-0.029653575
249	0xbc6b555c	-0.014363613
250	0x3be2ab9d	0.0069174306
251	0xbc797306	-0.015225178
252	0xbb9150b0	-0.0044346675
253	0x3d7e9ce2	0.062161334
254	0xbca1b2bf	-0.019738553
255	0xbbe2cfda	-0.0069217505

module.net.conv2.bias f4 [16]
0	0x3c915eb1	0.017745348
1	0x3b49889e	0.0030751596
2	0xbd89142e	-0.06693302
3	0xbd043f21	-0.032286767
4	0xbd38b2e4	-0.04509248
5	0x3d089407	0.033344295
6	0x3d1fab24	0.03898157
7	0xbbfab818	-0.00765134
8	0xbce2208d	-0.027603412
9	0xbd8f45cc	-0.069957346
10	0xbd2f4a88	-0.042795688
11	0xbd7cc255	-0.061708767
12	0xbc88eb3a	-0.016713727
13	0xbd7c5965	-0.06160869
14	0xbd19a983	-0.037515175
15	0xbcbd48c9	-0.023105996

module.net.conv3.weight f4 [120, 16, 5, 5]
0	0xbd06063a	-0.032720782
1	0x3ca4218c	0.020035528
2	0x3c05d4cf	0.008168413
3	0x3cda8958	0.026676819
4	0x3cad6c40	0.021169782
5	0x3be31b70	0.006930761
6	0xbd0445a7	-0.03229299
7	0xbbb37c11	-0.0054774364
8	0xbce3ff23	-0.02783162
9	0x3c5b3de6	0.013381457
10	0xbb3a5854	-0.0028433995
11	0x3c6091c6	0.01370663
12	0x3c791974	0.015203822
13	0xbd11b1e0	-0.035570025
14	0xbcf6d779	-0.030132042
15	0x3c99f598	0.018793866
16	0xbb7e1e9a	-0.0038775564
17	0x3c9a9c7c	0.018873446
18	0xbd107ed1	-0.03527719
19	0xbcd82ba3	-0.026387995
20	0x3c5f8f9c	0.013645079
21	0xb92b6536	-0.00016345535
22	0x3ba80201	0.005127192
23	0xbc2756b4	-0.010213543
24	0xbcf0edf2	-0.029410336
25	0x3cf1a656	0.02949826
26	0xbc5debef	-0.0135450205
27	0xbd0442f5	-0.032290418
28	0xbbcd4071	-0.0062637855
29	0xbce9eb38	-0.028554544
30	0xbccb23df	-0.024797378
31	0x3cb9dc0f	0.02268794
32	0x3c51b5d1	0.012799696
33	0x3c080bc6	0.008303588
34	0x3ca7fbc4	0.020505793
35	0xbc44ac64	-0.012003992
36	0x3a755679	0.0009358894
37	0xbc491364	-0.0122726895
38	0x3c2a9384	0.010411147
39	0x3d09b6d1	0.033621613
40	0x3c8e372b	0.01736029
41	0x3cc2d1d5	0.023781696
42	0x3d00be2d	0.031431366
43	0xbb83a518	-0.0040174834
44	0xbc7d7476	-0.015469661
45	0x3d1bcc46	0.038036607
46	0x3c5864ed	0.013207656
47	0xba225400	-0.00061923265
48	0xbc6eef7f	-0.0145834675
49	0x3c88e2e2	0.016709749
50	0xbc193498	-0.009350918
51	0xbcd57822	-0.02605826
52	0x3c4b70e4	0.012417052
53	0x3cc66c90	0.024221689
54	0xbce6a061	-0.028152646
55	0xbd08c78e	-0.033393435
56	0x3a1c0820	0.00059521385
57	0x3991a0a0	0.0002777623
58	0xbd090087	-0.03344777
59	0xbc827fcc	-0.015930079
60	0x3c868f91	0.01642588
61	0xbca1e0ed	-0.019760573
62	0xbc9faacc	-0.019490622
63	0x3caf86eb	0.021426639
64	0x3c4d9538	0.012547784
65	0x3cac7093	0.021049773
66	0xbd1f86ae	-0.0389468
67	0xbc503b1e	-0.012709407
68	0x3cb6699d	0.022267157
69	0xbcc95c79	-0.024580227
70	0x3c752376	0.014962068
71	0xbd11921c	-0.03553973
72	0xbc06f6af	-0.008237525
73	0x3ccce22d	0.025010193
74	0x3d0b3601	0.03398705
75	0x3d081b35	0.03322907
76	0xbcd79f4c	-0.026321076
77	0x3c3fe7fa	0.011713022
78	0xbcde2d97	-0.027121348
79	0x3d1546e5	0.036444563
80	0x3c871b1e	0.016492423
81	0x3a87cb0e	0.0010360198
82	0x3bd05654	0.0063579474
83	0xbd148878	-0.03626296
84	0x3cb9e093	0.022690093
85	0xbcf8ac0a	-0.030355472
86	0x3b7931a0	0.0038023964
87	0xbad4e208	-0.0016241679
88	0xbd09ae50	-0.033613503
89	0xbc80be9a	-0.015715886
90	0xbc98acda	-0.01863711
91	0x3b00a902	0.0019631987
92	0x3c97f6a7	0.01855023
93	0xbc96b131	-0.018395038
94	0xbce423ef	-0.027849166
95	0xbcdbae58	-0.026816532
96	0x3cae888b	0.021305343
97	0x3c9d496a	0.019200046
98	0xbc597d0c	-0.013274442
99	0x3c27772e	0.010221286
100	0xbbcedabb	-0.006312696
101	0x3cac5dae	0.021040764
102	0x3ce2dba3	0.027692622
103	0x3c001d97	0.007819555
104	0x3cdeedae	0.027212944
105	0x3a260272	0.0006332762
106	0xbce88649	-0.028384345
107	0xbc7b4cc9	-0.015338131
108	0x3c9cf737	0.01916085
109	0x3d15dd20	0.036587834
110	0x3b431948	0.0029769707
111	0x3cbb722c	0.02288159
112	0x3c9b6759	0.018970178
113	0x3bd9e82d	0.006649992
114	0xbc97d3a9	-0.018533545
115	0x3cd3c818	0.025852248
116	0x3c34e894	0.011041779
117	0x3bf4aa68	0.007466603
118	0x3bec2f4b	0.007207786
119	0xbc0018a3	-0.007818374
120	0xbccc03e4	-0.024904199
121	0xbacd624f	-0.0015669557
122	0x3d0d437b	0.034488183
123	0xbcc79ac7	-0.024365796
124	0xbcb76e5f	-0.022391496
125	0xbd00ee44	-0.031477228
126	0x3cae6dac	0.02129253
127	0x3ceaacb6	0.028646808
128	0x3cf6d37c	0.03013014
129	0xbc89ceed	-0.016822303
130	0xba8f0f54	-0.0010914602
131	0x3cfe6d22	0.031057898
132	0x3cf31372	0.029672358
133	0x3d0830e7	0.033249762
134	0x3cd14a90	0.02554825
135	0x3bebb7fa	0.0071935626
136	0xbd0b792e	-0.034051113
137	0x3c708cd2	0.014682012
138	0x3ca1a0cd	0.019729996
139	0xbcf90b44	-0.03040088
140	0xbd0f0771	-0.034919206
141	0xbaadf66c	-0.0013272292
142	0xbb8e399f	-0.004340365
143	0x3c76329e	0.0150267165
144	0xbbedae93	-0.007253477
145	0x3d04f069	0.032455835
146	0xbc965c53	-0.01835457
147	0x3cc866ed	0.024463141
148	0xbcfde251	-0.030991705
149	0xbcca33a7	-0.024682833
150	0xbc20f469	-0.009823897
151	0x3c8c2dcb	0.01711168
152	0x3c8d6a7e	0.017262693
153	0x3ced7d6f	0.028990475
154	0x3d076693	0.033056807
155	0xbbd3a7bf	-0.006459206
156	0xbc0b7a78	-0.008513086
157	0x3b23dcd6	0.0025003455
158	0xbb734836	-0.0037121898
159	0x3b895975	0.0041915723
160	0xbcfdffe8	-0.031005815
161	0xbcd064fa	-0.025438774
162	0xbca5fc70	-0.020261973
163	0xbc69635e	-0.014244882
164	0x3cc97676	0.02459262
165	0xbbcd2ee3	-0.006261693
166	0x3cea2877	0.028583748
167	0x3ca370d2	0.019951258
168	0xbca898a5	-0.0205806
169	0xbd118c0c	-0.03553395
170	0xbc7e1054	-0.015506823
171	0xbbd66775	-0.0065430948
172	0xbd12b35d	-0.035815585
173	0x3c90c4c6	0.017671954
174	0xbbec73f0	-0.0072159693
175	0x3cdd4fcb	0.027015587
176	0xbc3c0177	-0.011474959
177	0x3c09407d	0.008377192
178	0x3c76b69e	0.015058188
179	0x3ac32829	0.0014889288
180	0xbca40c60	-0.020025432
181	0x3acbecf8	0.0015558293
182	0x38eb689d	0.00011225159
183	0xbc515b9e	-0.012778191
184	0xbcbea3d1	-0.023271473
185	0xbc1d20aa	-0.009590307
186	0x3cb7b440	0.022424817
187	0x3d1e0ec5	0.038588304
188	0xbd1d0826	-0.03833785
189	0x3c57d0e6	0.013172364
190	0x3d10fcac	0.035397217
191	0xbcb516d5	-0.022105614
192	0x3b987cc5	0.0046535456
193	0x3d20f285	0.039293785
194	0xbbef1276	-0.007295902
195	0xbb995c86	-0.004680219
196	0xbc3f1260	-0.011662096
197	0x3b51d8d2	0.0032020104
198	0x3bcfed57	0.006345432
199	0x3c926e0d	0.017874742
200	0xbbf89c7b	-0.0075870133
201	0x3d0e291b	0.03470717
202	0x3b15e957	0.0022874677
203	0xbc9956dd	-0.018718177
204	0xbcb990ea	-0.022652108
205	0x3c7d4778	0.015458934
206	0xbc7e766c	-0.015531164
207	0xbcf73a13	-0.03017906
208	0x3c8f783f	0.017513392
209	0x3cbef5ae	0.023310509
210	0xbcf86be1	-0.030324878
211	0xbc675f91	-0.014121906
212	0x3cdd16e2	0.02698845
213	0x3cd8e74c	0.026477478
214	0xbc4b0947	-0.012392349
215	0x3c278217	0.010223887
216	0xbc2b2e1e	-0.010448007
217	0xbd347b00	-0.044062614
218	0xbd154810	-0.036445677
219	0xbcc9f671	-0.024653645
220	0xbc437ba5	-0.011931335
221	0xbbb4eaa1	-0.005521134
222	0xbbaa2349	-0.0051921946
223	0x3d027b0f	0.03185564
224	0x3c81def1	0.015853377
225	0xbd2640a8	-0.040589005
226	0xbd24c29b	-0.040224653
227	0x3cb07514	0.021540202
228	0xbc1129ae	-0.008860035
229	0xb87843b7	-5.9190872e-05
230	0x3d0c7722	0.0342933
231	0x3c6c62c0	0.014427841
232	0xbd1864af	-0.037205394
233	0xbb9ae027	-0.004726428
234	0x3cd26978	0.025685057
235	0x3c508a08	0.012728222
236	0x3cdcd5c7	0.026957406
237	0x3c959abc	0.01826226
238	0x3c9bb79d	0.019008452
239	0x3c98a091	0.018631252
240	0xbc4e9ca1	-0.012610585
241	0x3c69c146	0.014267271
242	0x3a1a7e67	0.0005893469
243	0x3ccf0994	0.025273122
244	0x3c90bfd2	0.017669592
245	0xbcb6a1b1	-0.022293897
246	0xbca25d29	-0.019819813
247	0xbcea159f	-0.028574763
248	0xbd2932ad	-0.041308094
249	0xbca38365	-0.019960115
250	0xbcfb7cc1	-0.030699136
251	0x3c54acb9	0.012980633
252	0xbcb3a252	-0.021927986
253	0xbc5bd434	-0.013417292
254	0xbbd906e6	-0.006623137
255	0x3c89e39a	0.016832162

module.net.conv3.bias f4 [120]
0	0x3be14aa4	0.006875353
1	0x3cbf3d13	0.023344552
2	0x3c94b885	0.018154392
3	0x3c6aa7cb	0.0143222315
4	0xbcc1f2ea	-0.0236754
5	0xbbecaca0	-0.007222727
6	0xbcb6b2a9	-0.022301989
7	0xbcb5bdbe	-0.022185203
8	0xbcc63ff6	-0.02420042
9	0x3bc758ec	0.0060835984
10	0xbcc8fdd7	-0.024535103
11	0x3ba723f5	0.005100722
12	0x3b3dad72	0.0028942493
13	0xbcd70289	-0.026246326
14	0xbce94a63	-0.028477853
15	0x3ca16524	0.019701548
16	0x3d0b774c	0.034049317
17	0x3d14c78d	0.03632312
18	0xbc4071e5	-0.011745905
19	0xbc8940bb	-0.016754499
20	0x3c895c4f	0.016767649
21	0xbbe992f6	-0.007128115
22	0xbcea53e6	-0.028604459
23	0x3cb5919b	0.022164157
24	0xbc0a125c	-0.008427229
25	0x3cf9c4bf	0.030489324
26	0xbd171861	-0.036888484
27	0xbc294f57	-0.0103338575
28	0x3c2184f2	0.009858357
29	0x3d19dbbf	0.03756308
30	0xbd1abb63	-0.037776362
31	0x3cfadedc	0.030623846
32	0x3c5bf5b2	0.013425278
33	0x3c8dc46f	0.01730558
34	0x3b9aa40d	0.0047192634
35	0xbc2d60ec	-0.01058219
36	0x3d176b55	0.036967594
37	0x3c468fab	0.012119214
38	0xbcc5ee17	-0.024161382
39	0xb7f34cac	-2.900356e-05
40	0x3cce7190	0.025200635
41	0xbbd13bf5	-0.0063853213
42	0x3d28e796	0.041236483
43	0xbd08797a	-0.033318974
44	0xbc44b8a4	-0.012006912
45	0xbc958baa	-0.018255074
46	0x3ccfba12	0.02535728
47	0xbcc8070c	-0.024417423
48	0x3d0c670b	0.034277957
49	0x3c4fcfb8	0.012683801
50	0x3c83c49a	0.016084958
51	0x3b9b4b0a	0.00473917
52	0x3b039cca	0.0020082467
53	0xbd03b84d	-0.032158185
54	0xbc8dd02f	-0.017311184
55	0xbd130f28	-0.035903126
56	0x3cd4d78c	0.025981687
57	0xbc700494	-0.014649529
58	0x3cde3bb8	0.027128085
59	0xbcc73125	-0.024315426
60	0x3bd02a0f	0.00635267
61	0x3cd025a6	0.025408577
62	0x3ce159fc	0.027508728
63	0xbc3556bd	-0.011068043
64	0x3cc5c5b4	0.024142124
65	0xba27439b	-0.00063806184
66	0xbbcf018b	-0.0063173226
67	0xbcb4210d	-0.021988416
68	0xbc4d2c94	-0.012522835
69	0x3c80b89d	0.01571303
70	0xbd2d1bb7	-0.04226276
71	0x3c84652c	0.016161524
72	0x3c55f865	0.01305971
73	0x3c87a473	0.016557908
74	0xbcdb9eae	-0.026809063
75	0xba1bacdc	-0.0005938539
76	0x3d169d19	0.036770914
77	0x3cac669c	0.021045022
78	0x3afb9c6b	0.0019196396
79	0xbc89f2b3	-0.01683936
80	0x3d01a860	0.031654716
81	0x3c539e75	0.012916197
82	0xbbc38ca3	-0.005967693
83	0x3cfe8256	0.031068008
84	0xbd2520b1	-0.04031438
85	0xbcaff894	-0.021480836
86	0xbca34423	-0.019929951
87	0xbcf3a524	-0.029741831
88	0xbcb14e87	-0.02164389
89	0xbc9ca964	-0.01912374
90	0x3bdf66b9	0.0068176654
91	0x3c9452e5	0.018105933
92	0x3bc7bb6b	0.00609534
93	0xbcd50e19	-0.026007699
94	0xbcbe62b2	-0.023240421
95	0x3d09b878	0.03362319
96	0xbb237e94	-0.0024947273
97	0x3cae7014	0.021293677
98	0x3bb25a59	0.005442899
99	0x3c0f00d9	0.008728229
100	0x3ce93c6f	0.0284712
101	0xbbc53f52	-0.0060195113
102	0x3cae64c6	0.021288287
103	0x3d17e7f9	0.03708646
104	0x3cba9ef0	0.022780865
105	0xbc6ba031	-0.014381454
106	0xbbdf911c	-0.0068227183
107	0x3cf2bf23	0.029632157
108	0x3cc806d4	0.024417318
109	0x3c3a9f2e	0.01139049
110	0xbc757a56	-0.01498278
111	0x3d1827be	0.037147276
112	0x3c96c38c	0.01840379
113	0xbc89f057	-0.016838236
114	0xbc99f480	-0.018793344
115	0x3d159e8f	0.036528166
116	0x3cb8d2ea	0.02256151
117	0xbb49f53a	-0.0030816332
118	0x3cd77634	0.02630148
119	0xbb0eb697	-0.0021776312

module.net.fc1.weight f4 [84, 120]
0	0x3bd6745b	0.0065446324
1	0xbd8e045e	-0.06934427
2	0x3c8d4d68	0.017248824
3	0xbc3f87b7	-0.011690072
4	0x3cf4fb7f	0.029905079
5	0x3d21676e	0.03940528
6	0x3bf77e51	0.0075529
7	0x3d3e76b5	0.046499927
8	0x3c877272	0.016534064
9	0xbd294bf0	-0.041332185
10	0x3d0195ff	0.031637188
11	0xbb9034d9	-0.004400831
12	0x3c25bc1e	0.010115651
13	0x3d274220	0.040834546
14	0x3caca3b6	0.021074157
15	0x3cc2b9f0	0.023770303
16	0x3d1b799d	0.037957776
17	0x3caa83f7	0.020814879
18	0xbd319ad6	-0.043360554
19	0xbd56a2e1	-0.052401427
20	0xbd5c139a	-0.05372963
21	0xbd2ac327	-0.041690018
22	0xbb246662	-0.002508544
23	0xbbcc3112	-0.0062314356
24	0x3d3ffef2	0.046873994
25	0xbd4cda33	-0.05001278
26	0x3d927d1c	0.07152769
27	0x3cda8458	0.026674435
28	0xbd0a11ee	-0.033708505
29	0x3c8c3d83	0.017119175
30	0xbd12d70a	-0.03584961
31	0x3c91dab0	0.017804474
32	0xbc8b48fd	-0.017002577
33	0x3cf687d1	0.03009406
34	0x3d20bfaa	0.039245285
35	0xbae6f9ad	-0.0017622017
36	0xbd67b228	-0.056566387
37	0xbc67e2ab	-0.014153163
38	0x3d96d5dd	0.0736501
39	0xbbd4d069	-0.006494571
40	0xbd44f536	-0.048085414
41	0xbc74d294	-0.014942784
42	0xbcaf2b5f	-0.021382986
43	0x3c8ff58d	0.017573142
44	0xbcd8ac6c	-0.026449405
45	0x3cc29a85	0.023755321
46	0xbd731081	-0.05934191
47	0xbd82be14	-0.06383911
48	0x3d2ca8c3	0.04215313
49	0xbd05d08f	-0.0326696
50	0xbce4e607	-0.027941717
51	0xbbe9ea43	-0.007138522
52	0xbd9256f9	-0.07145495
53	0x3d08c73c	0.03339313
54	0x3d1991c8	0.037492543
55	0x3d67b15c	0.056565627
56	0xbd0c167a	-0.034201123
57	0xbcbafcd3	-0.022825634
58	0xbd9d92e3	-0.07694032
59	0x3d01d80b	0.031700175
60	0xbd7d6c51	-0.061870877
61	0xbd116df5	-0.035505254
62	0x3c800011	0.015625032
63	0xbd0868a1	-0.033302907
64	0x3d48ad5d	0.048993457
65	0xbd4d33b1	-0.050098125
66	0x3d25f457	0.040516224
67	0xbcca4be9	-0.0246944
68	0xbd80f6c4	-0.06297067
69	0xbd3ea96e	-0.0465483
70	0xbc9dfd12	-0.019285712
71	0xbd7c2d56	-0.061566673
72	0x3cdf03cc	0.02722349
73	0xbd484919	-0.048897836
74	0xbd76c3d7	-0.06024536
75	0x3c5525c1	0.0130094895
76	0x3bf116a7	0.0073574367
77	0xbc07ef0f	-0.008296742
78	0x3c0dc007	0.00865174
79	0xbd869c03	-0.065727256
80	0xbd8f73a7	-0.07004481
81	0xbd5e8c36	-0.054332934
82	0x3c9c143c	0.019052617
83	0x3cc96fb2	0.024589393
84	0xbc16c6bc	-0.009202655
85	0x3c924763	0.017856305
86	0xbd366071	-0.044525567
87	0x3bead5fc	0.007166622
88	0x3d6bc9b0	0.05756539
89	0xbc2d6520	-0.010583192
90	0xbd13e34a	-0.03610543
91	0xbd275d2f	-0.04086035
92	0x3c8662b2	0.016404483
93	0x3d8b9a79	0.06816573
94	0x3d288596	0.041143022
95	0xbd5f1b7a	-0.054469563
96	0xbd6782b6	-0.05652114
97	0x3b8045f8	0.003914591
98	0x3ba7378b	0.005103057
99	0xbd81b9de	-0.063342795
100	0xbcb27afc	-0.02178716
101	0x3d49b4c0	0.049244642
102	0x3c88bbb7	0.016691072
103	0xbd160046	-0.036621355
104	0xbd73f364	-0.059558287
105	0xbd858033	-0.06518593
106	0x3c941877	0.018078072
107	0xbc7d915c	-0.015476551
108	0x3c1bbf86	0.009506112
109	0xbd192c4f	-0.03739577
110	0x3b3927c3	0.002825246
111	0xbc7dd3b8	-0.015492372
112	0x3d6ce20f	0.057832774
113	0xbd5345d9	-0.051580284
114	0x3d16216f	0.03665298
115	0x3b8e4200	0.004341364
116	0x3d8737e4	0.06602457
117	0x3d55c48f	0.052189406
118	0xbd8c6ad3	-0.068563126
119	0xbd94b42e	-0.07260929
120	0xbaed67c5	-0.0018112591
121	0x3d903b9e	0.07042621
122	0x3d95d24c	0.073155016
123	0x3d3d7279	0.046251748
124	0xbd33707f	-0.043808457
125	0x3d2d13ef	0.04225534
126	0x3c3455cd	0.011006785
127	0x3d6d41d1	0.057924096
128	0x3d6ec252	0.058290787
129	0x3d422fcf	0.047408875
130	0xbd80bdad	-0.06286178
131	0xbd2d56f6	-0.04231926
132	0xbd3424b5	-0.04398032
133	0xbcf2ff17	-0.029662652
134	0xbd4862ae	-0.048922233
135	0xbd786b1d	-0.060649026
136	0x3d4f752b	0.05064885
137	0xbcd4e385	-0.025987396
138	0xbd3d212d	-0.046174217
139	0xbc98d610	-0.01865676
140	0xbb468c5e	-0.0030296068
141	0xbd26b054	-0.040695503
142	0xbd8d1714	-0.068891674
143	0x3d90281d	0.07038901
144	0x3c5c5f1e	0.013450412
145	0xbd1752bf	-0.036944147
146	0xbd7d4ce8	-0.06184092
147	0x3bfbe621	0.0076873456
148	0x3c419b2e	0.011816783
149	0xbca9c8ce	-0.020725634
150	0x3d8a8ee1	0.06765533
151	0x3d0f00eb	0.034912985
152	0xbd4017f0	-0.04689783
153	0xbd8815e8	-0.06644803
154	0xbc13f92c	-0.009031575
155	0xbc99c98f	-0.018772868
156	0xbcfd8210	-0.030945808
157	0x3d7609b4	0.060067847
158	0x3d39d089	0.04536489
159	0xbd76fefe	-0.060301773
160	0x3c9747cc	0.018466853
161	0xbc9fd3a2	-0.019510094
162	0xbd5d06c5	-0.053961534
163	0xbd845634	-0.064617544
164	0x3d6e2e4e	0.05814963
165	0xbd4a8c0b	-0.04944996
166	0xbc387973	-0.0112594245
167	0x3d24bdb5	0.04021998
168	0xbcbae8cf	-0.02281609
169	0xbd902861	-0.07038952
170	0xbc49e523	-0.012322697
171	0xbd09ce8d	-0.033644248
172	0x3d5b0b01	0.05347729
173	0x3c1e279b	0.009652997
174	0xbd87cb8f	-0.066306226
175	0x3cf42718	0.029803798
176	0x3c9b9179	0.018990265
177	0x3d827b54	0.06371179
178	0xbc162577	-0.009164206
179	0xbc78c1e1	-0.015182943
180	0xbc99226e	-0.018693175
181	0xbd08ed37	-0.03342935
182	0xbd8b1b4f	-0.06792318
183	0x3d7939f1	0.060846273
184	0xbcabb4bc	-0.020960204
185	0xbcde6296	-0.027146619
186	0xbd4d5bab	-0.05013625
187	0xbd3eb99c	-0.04656373
188	0xbc8af116	-0.016960662
189	0xbb0a0939	-0.0021062626
190	0xbcf20a70	-0.029545993
191	0xbb57a300	-0.0032903552
192	0x3d84cea8	0.06484729
193	0x3cd22f93	0.02565745
194	0xbc66a9ae	-0.014078541
195	0x3d426108	0.047455817
196	0xbc93d29a	-0.018044759
197	0xbd83c42d	-0.06433902
198	0x3d5fb2f7	0.054614034
199	0x3d25a57d	0.040441025
200	0xbd42f862	-0.047600158
201	0xbbc8d03f	-0.0061283405
202	0x3d710243	0.058840048
203	0x3cd15bba	0.025556434
204	0x3c75b46d	0.01499663
205	0x3d6e866c	0.058233663
206	0xbd9a4685	-0.07532982
207	0xbd867d3a	-0.06566854
208	0xbd9d8f43	-0.07693341
209	0xbd305c25	-0.043056626
210	0xbd5322be	-0.051546805
211	0xbd7e4788	-0.062079936
212	0x3cb52d74	0.0221164
213	0xbd7fcfb4	-0.06245394
214	0xbcabdd21	-0.020979466
215	0xbd8463cf	-0.064643495
216	0xbd77b179	-0.060471985
217	0x3d428eac	0.047499344
218	0xbc2f431f	-0.010697155
219	0xbd9c0e11	-0.076198705
220	0xbd84b54d	-0.06479893
221	0x3c88f4da	0.016718317
222	0xbac55245	-0.0015054425
223	0x3d2191b5	0.039445598
224	0xbce9cc2d	-0.028539741
225	0x3d381a01	0.044946674
226	0xbc1014fe	-0.008794067
227	0xbd3b9e12	-0.045805044
228	0xbd992658	-0.074780166
229	0xbd082c2a	-0.033245243
230	0x3ce5dfdd	0.028060848
231	0x3cbbc00a	0.02291872
232	0x3b20f03c	0.0024557253
233	0x3d21904d	0.039444257
234	0x3d3997b4	0.04531069
235	0x3d1b73bb	0.037952166
236	0x3d878f55	0.06619135
237	0x3c3413d3	0.010991055
238	0x3d4460af	0.047943767
239	0x3bc63410	0.006048687
240	0xbd88306d	-0.066498615
241	0x3cc0c936	0.023533445
242	0x3c9eabdb	0.019369056
243	0xbd831b5e	-0.06401704
244	0x3d9b767a	0.07590957
245	0xbb706eea	-0.0036687204
246	0xbb13452c	-0.002247165
247	0x3d38ebe3	0.045146834
248	0x3ce20698	0.027591035
249	0xb81ff5db	-3.8137525e-05
250	0x3c67fa43	0.014158788
251	0x3c8d185b	0.017223528
252	0x3d69a0c4	0.057038084
253	0x3d8f8fd5	0.07009856
254	0xbc4d4d01	-0.012530566
255	0xbd6cad4c	-0.057782456

module.net.fc1.bias f4 [84]
0	0x3d83d3ce	0.06436883
1	0x3d29c5c5	0.041448373
2	0x3c9f0b58	0.019414589
3	0x3d8644c6	0.06556086
4	0xbcd97638	-0.026545629
5	0x3ce69e3f	0.02815163
6	0xbb2ae6e8	-0.0026077572
7	0xbcea15f0	-0.028574914
8	0x3cc4073d	0.023929233
9	0x3c9cd6fc	0.019145481
10	0xbd5a9210	-0.053361952
11	0xbc6c23e9	-0.0144128585
12	0x3d14494e	0.03620272
13	0xbd2e1775	-0.04250284
14	0xbd86b826	-0.06578092
15	0x3bd3da21	0.006465212
16	0xbd86392e	-0.06553875
17	0xbd0110af	-0.03151005
18	0x3cef245c	0.029192142
19	0x3d3cb944	0.04607512
20	0xbd6c8045	-0.057739515
21	0xbd8470a1	-0.06466795
22	0xbd54c700	-0.051947594
23	0xbd66a6ad	-0.0563113
24	0x3d35c5f4	0.044378236
25	0xbd434b1a	-0.047679044
26	0xbd89854a	-0.06714876
27	0xbcc08abc	-0.023503654
28	0xbc8dd589	-0.017313736
29	0xbd547ac6	-0.0518749
30	0xbcbb886a	-0.022892196
31	0xbad29f29	-0.0016069162
32	0xbbd12037	-0.006382014
33	0xbc99b611	-0.018763574
34	0xbc07f2a4	-0.008297596
35	0x3ccf9ea4	0.0253442
36	0x3d051437	0.03248998
37	0x3c5c1c74	0.013434518
38	0x3d1212c9	0.035662446
39	0xbcc0caec	-0.02353426
40	0x3b902585	0.004399004
41	0x3c40c91c	0.011766698
42	0xbd8367fe	-0.06416319
43	0x3cf171f0	0.029473275
44	0x3d25a5d2	0.04044134
45	0xb9542e5f	-0.0002023517
46	0xbd2e5e52	-0.04257042
47	0x3c49ca59	0.01231631
48	0x3d2b3c97	0.04180583
49	0x3c252766	0.010080194
50	0xbd303b29	-0.04302517
51	0x3d3fc953	0.046822857
52	0xbd2c6177	-0.042085137
53	0xbcc9521a	-0.024575282
54	0xbd7b5a51	-0.06136543
55	0x3d406d5b	0.04697929
56	0x3cde4851	0.027134093
57	0x3cfefc57	0.031126184
58	0x3cd72654	0.026263393
59	0xbd5e058d	-0.054204512
60	0x3d6e1efc	0.058135018
61	0x3d11fbf4	0.03564067
62	0xbaed8a39	-0.0018122859
63	0x3d0c80f2	0.03430266
64	0xbcaebec1	-0.021331193
65	0xbc8c483b	-0.017124286
66	0xbc87952c	-0.016550623
67	0x3aef7611	0.001826944
68	0x3bf95216	0.0076086624
69	0xbc994367	-0.018708898
70	0x3d271db6	0.04079982
71	0xbd521193	-0.05128629
72	0x3c2bccf4	0.010485876
73	0x3bb2b9cd	0.005454278
74	0x3c4cf510	0.012509599
75	0x3d31cbd7	0.043407287
76	0xba22ce34	-0.0006210536
77	0x3d0841c6	0.03326585
78	0xbc6b8fae	-0.014377518
79	0xbba5cd6d	-0.005059889
80	0x3d8e4d53	0.06948342
81	0xbd5d5565	-0.054036517
82	0x3ced6ef9	0.02898358
83	0xbd7e8d95	-0.062146742

module.net.fc2.weight f4 [10, 84]
0	0x3d596f44	0.053084627
1	0xbd77b7d8	-0.06047806
2	0x3d36409b	0.044495206
3	0x3d36f8ec	0.044670984
4	0x3daff621	0.08591867
5	0xbdafad5b	-0.08577987
6	0x3d801249	0.062534876
7	0xbc30bba5	-0.010786925
8	0xbd2a3b6d	-0.04156058
9	0xbd111b8b	-0.035426658
10	0x3cd52a31	0.026021095
11	0xbd617431	-0.05504245
12	0xbc7e6135	-0.015526106
13	0xbd06982c	-0.032859966
14	0x3da7e717	0.08198374
15	0xbd5f5962	-0.0545286
16	0xbcd596bd	-0.026072854
17	0x3cfd4b4b	0.030919692
18	0x3d6ada73	0.057337236
19	0x3cfe5a6f	0.031048981
20	0x3dafecd2	0.08590092
21	0xbd807673	-0.062725924
22	0xbd191127	-0.037369873
23	0xbd226ec8	-0.03965643
24	0xbd6364f7	-0.05551621
25	0xbd51b626	-0.0511991
26	0x3c50381e	0.012708692
27	0xb941153d	-0.00018413826
28	0xbd42ead1	-0.04758722
29	0xbdcb1ae8	-0.09917241
30	0xbd5fa3a3	-0.054599416
31	0x3d06ff14	0.032958105
32	0xbd69eab6	-0.057108603
33	0xbda4da11	-0.08049405
34	0x3cff4c6d	0.031164372
35	0x3d9db630	0.07700765
36	0x3dacf7f4	0.08445731
37	0x3c7eb61a	0.015546346
38	0xbdba3741	-0.0909257
39	0xbc0737b2	-0.008253025
40	0xbd45995e	-0.048241965
41	0x3d6795c9	0.05653933
42	0x3db2e813	0.08735671
43	0x3c70d4f4	0.0146992095
44	0x3cbbfba7	0.022947146
45	0x3d39f539	0.04539988
46	0x3c71e34e	0.014763666
47	0x3d99136f	0.0747441
48	0x3ba896b0	0.0051449165
49	0x3d89cb57	0.06728237
50	0xbc9cdf0d	-0.019149328
51	0xbd9b0daa	-0.075709656
52	0xbcc61279	-0.02417873
53	0xbce4b2e5	-0.027917335
54	0x3d9b7e41	0.075924404
55	0xbc923e3c	-0.017851941
56	0x3cc32fa1	0.023826422
57	0xbcdaa0eb	-0.02668806
58	0xbc62eb4b	-0.0138500435
59	0xbd465b84	-0.04842712
60	0x3cbcba23	0.023037976
61	0x3d3f9b9a	0.046779253
62	0xbd34c4e4	-0.044133082
63	0x3d961827	0.073288254
64	0x3d2e75dc	0.04259287
65	0x3da58beb	0.08083328
66	0x3d121da3	0.035672795
67	0xbcd250b1	-0.025673242
68	0xbd242378	-0.040072888
69	0x3dc70e91	0.09719575
70	0x3d475f90	0.04867512
71	0x3d2d0dd0	0.0422495
72	0x3cd82b9c	0.026387982
73	0x3d531ecd	0.051543046
74	0xbd932e50	-0.07186568
75	0xbd825a99	-0.063649364
76	0xbd26ac03	-0.040691387
77	0xbd901c25	-0.07036618
78	0x3dacbdac	0.084346145
79	0xbcfa395c	-0.03054493
80	0x3db78e05	0.08962635
81	0xbd6b3bd0	-0.05743009
82	0x3cfd1e2b	0.030898174
83	0x3d976978	0.073931634
84	0xbdcefb18	-0.10106486
85	0x3cf1b3ef	0.029504744
86	0xbd9df128	-0.077120125
87	0x3d6157a9	0.05501524
88	0x3d88a2d4	0.06671682
89	0xbc9e7adc	-0.019345693
90	0x3c993c88	0.018705621
91	0x3d29b21c	0.041429624
92	0x3d500dbc	0.050794348
93	0x3ce46388	0.027879491
94	0xbcbabed7	-0.022796078
95	0x3bb95cc0	0.0056568086
96	0xbc2e5fec	-0.010642987
97	0x3dcf01dd	0.10107777
98	0xbd8e8b59	-0.06960172
99	0xbd905634	-0.07047692
100	0xb91088e8	-0.00013783912
101	0xbd8ec04b	-0.06970271
102	0x3c7e7b57	0.015532336
103	0x3ddc5d13	0.1075994
104	0xbd948b96	-0.072531864
105	0x3d98bb5c	0.07457611
106	0xbd62bc2f	-0.055355247
107	0xbd9e6429	-0.07733948
108	0x3de61d62	0.11236073
109	0x3d224435	0.03961583
110	0xbb22c62d	-0.002483736
111	0xbbd7a6d0	-0.006581165
112	0x3d9d0508	0.07666975
113	0x3dda5cde	0.10662244
114	0x3ca92325	0.020646641
115	0x3d3cedd5	0.04612525
116	0xbc023865	-0.007948016
117	0x3d619321	0.055071954
118	0xbcbe9ae2	-0.023267213
119	0x3cfbd4ca	0.030741114
120	0xbc9321cb	-0.01796045
121	0xbceab84d	-0.028652335
122	0x3dad56ac	0.08463797
123	0x3c29ae61	0.010356517
124	0x3d3a5075	0.045486886
125	0x3d45b3d9	0.04826722
126	0xbd2def31	-0.04246444
127	0x3d87cbee	0.066306934
128	0x3d84f81e	0.06492637
129	0x3d112387	0.035434272
130	0x3c8516db	0.01624625
131	0xbd754753	-0.059882473
132	0x3d8c3c61	0.06847454
133	0xbdc6aa4f	-0.097004525
134	0x3d8e8a04	0.06959918
135	0xbd4eb24a	-0.050463
136	0xbd1a998d	-0.037744094
137	0xbc536e71	-0.012904749
138	0xbc48590f	-0.0122282645
139	0x3d88d424	0.066810876
140	0x3c435f85	0.011924629
141	0xbcc9c470	-0.024629802
142	0x3d9507b1	0.07276858
143	0xbd8f6b22	-0.07002856
144	0xbb714d69	-0.0036819822
145	0x3d3bc3e7	0.045841124
146	0xbc3dfa71	-0.011595354
147	0x3c3c8619	0.011506581
148	0x3d1ee7f6	0.038795434
149	0xbd96d779	-0.07365317
150	0xbd9a53f5	-0.07535545
151	0xbd5e67ba	-0.05429814
152	0x3ce2735f	0.027642904
153	0xbdaa27e4	-0.0830839
154	0x3cd3b430	0.025842756
155	0x3d2526c8	0.040320188
156	0x3d8d440c	0.068977445
157	0x3d8e9c10	0.0696336
158	0xbc1e644a	-0.009667465
159	0x3d9a6d66	0.07540397
160	0x3d12ae18	0.03581056
161	0x3d83c56c	0.064341396
162	0x3c9bdccd	0.019026184
163	0x3dd74161	0.10510517
164	0x3be2d514	0.0069223735
165	0xbc025ebd	-0.007957158
166	0x3a3b7871	0.0007151431
167	0xbde7aa2c	-0.113117546
168	0xbda70d68	-0.08156854
169	0xbd2089f4	-0.039194062
170	0xbd076073	-0.033050966
171	0x3d7cb68e	0.061697535
172	0xbd98f208	-0.07468039
173	0x3d8233cd	0.063575365
174	0x3d2b3e47	0.04180744
175	0xbdac55be	-0.084147915
176	0x3d5a8be4	0.053356066
177	0xbd34fefc	-0.044188485
178	0x3c1f36fc	0.009717699
179	0xbd53679e	-0.05161249
180	0x3d86f7ca	0.06590231
181	0xbd479b99	-0.048732374
182	0xbd8cc80c	-0.068740934
183	0x3d4e8155	0.05041631
184	0x3d950d68	0.07277948
185	0x3d06c755	0.03290494
186	0xbcb47192	-0.02202681
187	0xbd533df0	-0.05157274
188	0xbda2f940	-0.07957697
189	0x3cc616f1	0.024180861
190	0x3d47c9cd	0.048776437
191	0x3d8ef7a7	0.0698083
192	0x3d5b9823	0.053611886
193	0xbd4b5c14	-0.04964836
194	0x3a6d5206	0.0009053055
195	0x3d463640	0.04839158
196	0x3da28a79	0.07936568
197	0xbd7e3a69	-0.062067423
198	0x3d9ef74a	0.077620104
199	0x3dd1eeb0	0.10250604
200	0x3da1c33f	0.07898568
201	0xbda4ec44	-0.080528766
202	0xbdb2d1e0	-0.08731437
203	0x3db982ae	0.09058128
204	0xbced79f9	-0.028988825
205	0xbd9b91fe	-0.07596205
206	0xbd34b036	-0.04411336
207	0xbd622909	-0.055214915
208	0xbcb8c1f8	-0.022553429
209	0x3d833dcb	0.064082704
210	0xbd5d099d	-0.053964246
211	0xbc127cad	-0.008940858
212	0xbd740423	-0.059574258
213	0xbd271dc4	-0.04079987
214	0x3d087d61	0.033322696
215	0x3d19a69f	0.037512418
216	0x3c9423ad	0.018083418
217	0xbb3b509f	-0.002858199
218	0x3d85698b	0.06514271
219	0x3cfd6621	0.030932488
220	0x39edf95f	0.00045389959
221	0xbcdded6a	-0.027090747
222	0x3c0d1d61	0.0086129615
223	0xbda0263e	-0.07819794
224	0xbd4d9beb	-0.050197523
225	0x3d49be6c	0.049253866
226	0x3ce36383	0.027757412
227	0x38d01645	9.922361e-05
228	0x3d3934d1	0.045216385
229	0xbc44dd3f	-0.01201564
230	0xbd6bdf93	-0.057586264
231	0xbd9d081c	-0.07667562
232	0xbd09dae3	-0.033656012
233	0xbd92dd1c	-0.071710795
234	0x3da95d4d	0.08269749
235	0x3cfca824	0.030841894
236	0x3c83c564	0.016085334
237	0xbd903d48	-0.070429385
238	0xbc6dd443	-0.014515939
239	0x3d8bcaf8	0.068258226
240	0x3d9e8db5	0.07741872
241	0xbd3f4e14	-0.04670532
242	0xbc8942b5	-0.016755441
243	0x3b1ef899	0.0024257062
244	0xbda15e03	-0.078792594
245	0xbce98fee	-0.028511014
246	0x3d8441bf	0.064578526
247	0x3d3d86a0	0.046270967
248	0xbbbf90b8	-0.0058461092
249	0xbd98401c	-0.07434103
250	0x3d9e057a	0.07715888
251	0xbc271d5a	-0.010199869
252	0x3aee43d8	0.0018178178
253	0xbdaba121	-0.08380342
254	0xbc63bc68	-0.0138999
255	0xbd681f7a	-0.056670643

module.net.fc2.bias f4 [10]
0	0x3aba422c	0.0014210395
1	0x3c478615	0.012177964
2	0x3d23187e	0.03981828
3	0x3d1183ba	0.035526015
4	0xbb98c035	-0.0046615847
5	0x3cfbb2ab	0.030724844
6	0xbbfefebc	-0.0077818315
7	0x3caabaab	0.020840963
8	0x3cca9d1a	0.024733115
9	0x3c7b4ca5	0.015338098
