models/pretrained/MNIST/distilled_30_lenet_w_acc_92.pt (torch, 250055 bytes, 10 tensors)

module.net.conv1.weight f4 [6, 1, 5, 5]
00000000: 92b0 b3bd b871 003c 8aa1 db3d 71f9 ed3d
00000010: 5052 3ebe 9699 f4bd 7036 383e 0a58 e63d
00000020: 7437 013e c762 02be 4e8f ae3d 3396 78bd
00000030: 7b68 843d f6d8 b23d 4fe2 253e c668 683d
00000040: 758c a83d 32f2 593e dd0b dd3d 05d0 b93c
00000050: c965 22bd a1da 0fbd 7f21 b73c af97 c93d
00000060: 8582 47bd 9fbb 32bd f053 a8bc 5c41 8fbd
00000070: d8aa 853d 7cee d7bd 826f f0bb aede 16be
00000080: db52 c0bb 0f14 a4ba 6c19 2bbd 6bb4 d3bd
00000090: b7c9 cdbd 47f5 50bd 467e a6bc fbbd cf3d
000000a0: 4271 2ebe 90a7 403c 3494 e7bd 286a a63d
000000b0: b6ee 9ebc 346d cfbd 9708 bbbc e5dc b93d
000000c0: a61a 8c3d 9fda 66bc 71f0 ad3d a865 57bd
000000d0: 3ca1 72bc 2740 433d 58b2 e0bd edff 5bbe
000000e0: 9dbb babd 6745 28be b76a dabd 9ddb aabd
000000f0: 9ac0 f6bd 9903 11be 96ca f4bd a4a1 29be
00000100: 9b73 3abe a24c ce3b 058b 643d 3f04 c63c
00000110: 898b 88bd c5e5 a2bd c447 a6bc 88a0 f239
00000120: a80c 80bd 4bff 4c3d 99d0 143e 8658 a1bd
00000130: 1e27 23be 79d9 c1bd 7568 64bd 55c2 edbd
00000140: ff3e 22be c769 a9bc 35b4 3bbe 6ddb 81bc
00000150: f2e6 62bd b025 3bbe a419 05be 592c b5bd
00000160: f83b 0cbe 3d7e 633d 2a5d 99bd dd07 06be
00000170: b983 7cbd d17d 943c 83a3 a93d 1595 e0bd
00000180: 88b7 23be b793 573c 6adb 54bd c918 823d
00000190: 40f4 e93d c136 863d 2af8 0a3e 5afd 61bc
000001a0: 6cf9 f43c 2bf5 7e3b e412 1f3c b4f3 df3d
000001b0: 30a0 0d3e d8c0 f0bd cbee 373e 5825 263e
000001c0: 6409 ecbd 305e 7c3d 2342 edbd 7606 cdbd
000001d0: cd29 1b3e 7535 883d ebda 03be ff4a 3dbe
000001e0: c977 3cbd dd13 283d af73 62bd cdda 07be
000001f0: c07d 9bbd 3b4a 9c3c 5631 3c3e c37d 453e
00000200: 8a6d 3bbc 905a 8d3c 8543 f9bc 557d 2a3c
00000210: e381 6dbd c948 d93d 1386 423e 7f82 a53d
00000220: 739f 8cbd 6aeb 3e3d 7ce8 16bc e27e c3bd
00000230: 8f5c 43be cfcc 11be 3dcc e9bd 3fa2 1abe
00000240: c36a 18bd e34b 1bbe 516a debd b411 4ebe
00000250: 829d 55bd 6ce2 fcbd
-0.087739125 0.007839613 0.107241705 0.11619843 -0.18586087 -0.11943357 0.17989516 0.11247261
0.1261881 -0.12732993 0.08523427 -0.060690116 0.064652406 0.08732788 0.16199611 0.056740545
0.08229915 0.21283796 0.10793278 0.0226822 -0.03964785 -0.03512061 0.02235484 0.098433845
-0.048708457 -0.04363596 -0.020547837 -0.06994888 0.065267265 -0.10543534 -0.0073375115 -0.14733383
-0.005869252 -0.0012518185 -0.04177229 -0.10337146 -0.1004824 -0.051015165 -0.020323884 0.10143658
-0.17035392 0.0117587 -0.113075644 0.081257164 -0.019400936 -0.10128251 -0.022831244 0.090753354
0.0684102 -0.014090209 0.08493126 -0.05258718 -0.014808949 0.047668602 -0.10971516 -0.21484347
-0.09117816 -0.16432725 -0.106648855 -0.08342669 -0.120484546 -0.14161529 -0.11952703 -0.16565567
-0.18208162 0.0062957564 0.05579664 0.024171947 -0.06667239 -0.07953981 -0.020297892 0.00046277442
-0.06252414 0.050048154 0.14532699 -0.07878213 -0.15932891 -0.09465308 -0.05576368 -0.116093315
-0.15844344 -0.020680321 -0.18330462 -0.0158517 -0.055396028 -0.18276095 -0.12998062 -0.08846349
-0.13694751 0.055540312 -0.07488473 -0.13088937 -0.061649058 0.0181264 0.082831405 -0.10965935
-0.1598798 0.013157777 -0.051967062 0.06352384 0.1142354 0.06553412 0.1357123 -0.013793314
0.02990409 0.0038903456 0.009709094 0.109351546 0.13830638 -0.11755532 0.17962186 0.16225183
-0.115252286 0.06161326 -0.1158488 -0.10010998 0.15152664 0.06650821 -0.1287648 -0.1848564
-0.046012674 0.041034568 -0.055286106 -0.1326706 -0.07592344 0.019078365 0.18378195 0.19286256
-0.01143969 0.017255098 -0.030427704 0.010405858 -0.057985198 0.10609586 0.18996458 0.08081531
-0.0686635 0.046611227 -0.009210702 -0.09545685 -0.19078277 -0.14238285 -0.114159085 -0.15100954
-0.03721119 -0.15165667 -0.10860122 -0.2012394 -0.052152164 -0.12347874

module.net.conv1.bias f4 [6]
00000000: 9b6b 1c3c 86c5 3a3e 5d2c 85bd 8bd5 c6bd
00000010: d798 cbbd 5e54 8f3d
0.0095471395 0.18239412 -0.06502602 -0.09708699 -0.09941261 0.06998514

module.net.conv2.weight f4 [16, 6, 5, 5]
00000000: 601f 9f3d aede 663a 5df5 8a3d 7fed 15bc
00000010: 8d0f ba3c ef0c 3dbd 185d 0a3d f352 9b3d
00000020: e221 5b3c fb9a 8cbc 4cdf 5f3d ec5f 11bd
00000030: 5ac7 123d 7304 ebbb 15fc a03c e887 a3ba
00000040: 450d 113d 855c 3f3d bb93 823b 3f0e 19bd
00000050: 4e4b 203d b4f7 073d 3e33 673d 9b4e 9dbb
00000060: bccf 16bd 5156 3a3d 37a3 01bc 2071 1bbd
00000070: cc1c 1a3d e060 41bd 2265 62bc 1afb b6bc
00000080: 938a 593d 40da 01bd c13c 9b3d afb2 04bd
00000090: 031d 383d 8ab3 4abd c707 f3bb 7816 81bc
000000a0: 8c2d d8bc 8cdf e2bc d4a0 80bd 950d f6bc
000000b0: 7044 2fbb 8241 ca3a 0299 acbb 9c85 033d
000000c0: a6fe b3bc f66d 74bd 616a 933c 78ec e0b9
000000d0: 23aa b7bc 1022 27bd 0732 50bd 02bd b33c
000000e0: a737 d0bc 20e9 afbd 180c efbb 09ca 84bc
000000f0: f3b7 2d3c f966 24bd 9dbe 4dbc 633c 62bc
00000100: 7991 34bd 384a 0bbd 552a aabd fbc3 5abc
00000110: a481 47bb 03f6 43bd 4442 19bd 3994 8bbd
00000120: 100a a5bd 14ef 40bd 0925 39bc be3d 2c3d
00000130: c7c3 e53c b605 03bd 420d 3f3c 6131 79bd
00000140: 21c3 15bc c558 4abd bcf3 87bd 9d75 b9bd
00000150: f365 83bd b7b5 5b3d e2ce 0a3d a06e 71bd
00000160: 2132 b0bd 4abf c43b 8e78 28bd f780 cbbc
00000170: 0abb dabc da20 b1bd 674d abbc 280d cabb
00000180: 28af c23c f353 2ebd 19ff 87bd fc28 7b3c
00000190: bad6 173d 07f6 ecbc c0e3 893d 454c c93c
000001a0: 228d e13c 5fcc 1cbc 9292 93bc 5de3 2f3d
000001b0: ccf6 69bc e528 9e3d eea3 903a e255 263c
000001c0: fbdc 0e3d 255e 783d c9e8 fdba cd0f 3a3b
000001d0: 06be 2cbd 49b0 843d ee52 c3bb 3c26 6f3d
000001e0: 75f2 49bd ba24 1c3d 70e3 16b9 bfff 843d
000001f0: b777 ca3c 6c67 8c3b 0704 24bd 8fcd bbbc
00000200: cab1 9c3a 915b 12bd efe0 98bc acba 9f3d
00000210: 8275 51bd 44d3 a3bd a617 573d a529 3a3d
00000220: 95bd 443d 133b bbbc f47e 8ebc 58f1 9bbc
00000230: a481 1b3c e8c6 0cbd 4521 363c 9e76 81bd
00000240: c141 493b cb13 843d f078 80bd 6442 5cbd
00000250: 6633 37bd c7b2 53bd 5657 163c 3243 443d
00000260: ba11 063d 0f32 b6bc a39b 833d 71b1 74bd
00000270: 1123 4a3c 8f7d fe3b 3bd7 3d3d 5d44 97bd
00000280: d746 523c ad6a 64bc d472 893c 3d6f 5dbd
00000290: 4802 94bd 172e 2c3b 6a0d 6d3c e1af eabc
000002a0: 7a1d a83c 5ccc 81bd 63db 23bd 1e84 72bc
000002b0: 7f71 efbb 3192 e93c 815b c03c 8e57 33bc
000002c0: 37f3 40bd 7c36 b83c 948b 92ba 2b64 a53c
000002d0: a5b7 d93c 401c 90bc 33d6 fe3c f5d6 16bd
000002e0: 5c69 48bd ddd7 b1bd 27ed 2b3c fc8c 05bd
000002f0: 52bf fe3c deac 47bd 5eb2 59bd 5cc7 a73c
00000300: 26d6 f3bc 1ff1 3e3d 953b c03c e584 343c
00000310: ed2c 453c db75 18bd 04f6 363b 159a 803d
00000320: c558 083d 9073 a1bc 936a d63c e523 f7bb
00000330: efad e53c 373c 1ebd 222e d13c 0c42 6fbd
00000340: 6514 2d3c 968e 433d f736 223d 7d35 72bd
00000350: 4c22 61bd 86c0 483d 1c36 1f3d 9d72 39bd
00000360: d9dc f3bc ca60 6c3b f055 2ebd cf3a ca3c
00000370: 9ef5 c7bb 8e16 b63a 9efc f8bc 25d7 713d
00000380: a518 3bbc f7f8 473c d375 5f3d 56aa 60bd
00000390: 3b40 02bc 6d4c 123d b161 8abb 011c 133d
000003a0: d324 b93b 7f26 91bc 208e 643b f468 9cbd
000003b0: 00f9 b7bd d599 93bd b703 debc e5b7 773d
000003c0: 7c07 d3bd 7bef 9dbd 233a 7fbd b350 4a3c
000003d0: 0379 003d 98a1 74bd 10d0 5f3d e931 083c
000003e0: 8766 1d3c 944b da3c 990c 78bd d713 05bd
000003f0: 214c 0ebb cd49 1bbc d4ac 373d 76d7 44bc
0.07769656 0.00088069856 0.067850806 -0.009150862 0.022712493 -0.046154913 0.033780187 0.07584181
0.0133747775 -0.017163744 0.054656312 -0.03549187 0.035834648 -0.0071721612 0.019651452 -0.0012476416
0.035413045 0.046719093 0.003984896 -0.0373671 0.039134316 0.033195212 0.056445353 -0.0048006303
-0.036819205 0.045492474 -0.007912449 -0.03794968 0.03762512 -0.047211528 -0.013818057 -0.022336531
0.05311067 -0.03170228 0.07579947 -0.03239697 0.044949543 -0.049487628 -0.0074166986 -0.015757784
-0.026388906 -0.027694486 -0.062806755 -0.030035773 -0.0026743673 0.00154309 -0.0052672634 0.03210984
-0.021972012 -0.05967518 0.017995061 -0.00042900792 -0.022419995 -0.04080397 -0.05082896 0.021940712
-0.025417162 -0.08589387 -0.007295143 -0.01620962 0.010602939 -0.040137265 -0.012557653 -0.013808343
-0.044084046 -0.034006327 -0.083088554 -0.013352389 -0.0030442262 -0.047842037 -0.03741671 -0.068153806
-0.0805856 -0.047103003 -0.011300334 0.04205107 0.028047455 -0.03198787 0.011660876 -0.060838107
-0.009140761 -0.049401063 -0.066382855 -0.09055636 -0.0641593 0.053640094 0.033888705 -0.05894339
-0.08603311 0.0060042487 -0.041130595 -0.024841769 -0.026700515 -0.08648844 -0.020910932 -0.006166119
0.023765162 -0.04256053 -0.06640453 0.015329596 0.037070014 -0.028925909 0.06732893 0.024572501
0.027533118 -0.00957021 -0.018014226 0.04294144 -0.014280032 0.07722644 0.0011035183 0.010152312
0.034878712 0.06063666 -0.0019371744 0.0028390766 -0.042173408 0.06478936 -0.0059608137 0.058386073
-0.04930349 0.038120963 -0.00014389842 0.06494092 0.024715288 0.00428479 -0.040042903 -0.022925166
0.0011954841 -0.035731856 -0.018661944 0.07799277 -0.051137455 -0.0799928 0.052512787 0.04544987
0.048032362 -0.022855317 -0.01739452 -0.01903598 0.009491358 -0.03436938 0.0111163305 -0.063214526
0.0030709358 0.06449088 -0.06273067 -0.053774253 -0.04472675 -0.051684167 0.009176096 0.047915645
0.03273175 -0.022240667 0.0642617 -0.059739534 0.012337462 0.0077664326 0.046347838 -0.07386086
0.012834272 -0.013941449 0.016778387 -0.054061163 -0.072269976 0.002627259 0.01446853 -0.028648319
0.020521868 -0.063378066 -0.040004145 -0.014802007 -0.007307231 0.028512092 0.023481132 -0.010946168
-0.047106948 0.022486918 -0.0011180514 0.020189365 0.026576826 -0.017591596 0.031107998 -0.036826093
-0.048928604 -0.08683751 0.010493553 -0.032605156 0.031097088 -0.048748843 -0.05314862 0.020480804
-0.0297652 0.04661667 0.02346591 0.011018013 0.012034637 -0.03722177 0.0027917633 0.06279389
0.033287782 -0.019708425 0.026173865 -0.0075421208 0.02803704 -0.038631644 0.025534693 -0.058412597
0.0105639445 0.047743402 0.0396032 -0.05913304 -0.05496435 0.04901173 0.038869962 -0.04527532
-0.029768394 0.0036068433 -0.042562425 0.024686245 -0.006102278 0.001389222 -0.030393895 0.05904307
-0.01141945 0.012205354 0.054555725 -0.054849945 -0.007949884 0.035717417 -0.0042230715 0.03591538
0.0056501417 -0.017718552 0.0034874752 -0.07637206 -0.0898304 -0.072070755 -0.02710138 0.06047811
-0.10304162 -0.07711693 -0.062311303 0.012348342 0.031365406 -0.05972442 0.054641783 0.008312681
0.009606964 0.026647367 -0.06055889 -0.032489624 -0.0021712857 -0.009478045 0.044842556 -0.0120142605

module.net.conv2.bias f4 [16]
00000000: 4fd1 833c b076 01bd 1eae 67bc 6426 9c3c
00000010: 0937 67bc 64d4 39bd 7803 f1bc 1904 88bd
00000020: 1f02 e53c 67b2 d7bd bd17 fbbc 7813 a2bd
00000030: f65a cdbc 30c8 a63c 1b44 9b3b f5c6 503c
0.016091017 -0.03160733 -0.014140634 0.019061275 -0.0141122425 -0.045368567 -0.0294206 -0.066414066
0.027955113 -0.105320744 -0.030650968 -0.079138696 -0.025067788 0.020359129 0.0047383434 0.012742748

module.net.conv3.weight f4 [120, 16, 5, 5]
00000000: 7beb dd3a e6ca dbbc c287 e33c 3e7d 75bb
00000010: 4614 b7bc b7d3 683c cded 9fbc 2e32 5c3c
00000020: 6916 b7bb cc65 a4bb 0f82 34bb 2416 b73c
00000030: 96c3 5abc 26ef 2a3d 8ffa a93c d1d9 35bc
00000040: 0b5c 933c 5529 fe3c a7d3 ac3a 9523 1f3d
00000050: 25ea a03b 35bc 043b 8135 7d3c 5edb 073b
00000060: cd31 e63c 7a1f 70bb c702 7e3c 5e8d 133d
00000070: 05ba e1bc 7ab2 b23c ef06 9fbc 3f82 d03c
00000080: d2ba a4bc f55d dfbc eac3 a7bc a4a6 4d3c
00000090: 7f22 293d e98a d83c d2cd a8bc 89d2 8abc
000000a0: 50d8 b5bc 5e1a 0c3d 8a83 0fbc 82c3 6ebc
000000b0: 3f7c c13b f4c0 d8bb 3892 b43c 8840 10bd
000000c0: 0e0a b8bc c978 1e3c f882 58bc 251d 05bc
000000d0: e57c e83c ab78 4a3c 25b3 e0bc f11c ddbc
000000e0: de11 6b3b ab35 e13c 0b8c 50bc 551a b2bc
000000f0: 0a35 06bd 3de2 bf3c 41ee 1e3d 45b8 13bb
00000100: c965 233c 5d96 d73c d59d 9e3c 5980 11bd
00000110: cc43 5ebc 5a6d a53b 7303 1dbc e920 813b
00000120: 9e8f b3bc af14 423c d8ff 55bc 6ebd 0b3d
00000130: 2696 c93c 7919 813c a682 cdbc 50a3 eabc
00000140: 7071 46bc 5760 bcbc c4d7 2ebb 13d3 08bd
00000150: 77cd 1bbb 86c6 9bbc c951 cf3b 298c e1bb
00000160: f8e4 973b afa1 e7bc 34ef c63b 5833 90bc
00000170: 56f7 1e3c 825c 5e3c 4fca af3c a99b 7eba
00000180: f711 d63b 1a74 b53c 55d2 613c ad59 1dbd
00000190: 0195 35bc 6dee df3c 4a87 13bd 1643 fa3c
000001a0: 7e6d 8bbc 4887 c43c 24e1 c2bc ecde 0c3d
000001b0: 6f9e 07bd 0838 d93c a8a7 cebc 958d 803c
000001c0: bf39 7c3b b740 803c 6a8c 6cbc 0a99 75bc
000001d0: 6c6e a6bc 1981 223d dacb 4cbc 678d 11bd
000001e0: e080 14bb 213f 3bbc f520 9d3c 3c3c 363b
000001f0: 9e01 a1bc 58a6 973c 9171 a43c a3c0 4dbd
00000200: b8f0 253b c3fe 4c3a 566d d63c e0e6 babc
00000210: b3c8 d83b a525 6cbb ba84 2cbc 1417 a2bc
00000220: 0a12 1abd 7552 813c 3e59 c1bc 96f1 88bc
00000230: 4054 a5bc e6cf 4a3b c31c 98bc 1f55 ac3c
00000240: 912b 7fbc dd86 02bd 4089 b73c eec0 ad3c
00000250: 3355 d3bb 2aa8 043d bbcb 3dbd 3a94 50bb
00000260: 83b4 d03b b20a 0fbd cad6 133d 14dc 23bd
00000270: f038 4d3c 11c8 0a3d 9c04 3b3b a082 16bd
00000280: 2850 113c ea49 8ebc d62b f9bc d37d d83c
00000290: 8b31 f3bc 6a12 6ebc 8b9c b83c 031b f83c
000002a0: 726b 5dbc cec9 8f3a c764 113c eb14 9cba
000002b0: ffc8 f8bb 2032 ecba 39f4 54bc b8e5 323c
000002c0: c757 59bc 9d19 89bc eda8 923c 689e 433c
000002d0: dd30 553a e3c0 be3c 5a20 003d 2071 153d
000002e0: 767e 743b 3002 8cbc ce5a 1c3d a45b f9bc
000002f0: b21c fc3b baf5 023d d35e 89bc 971b 2f3d
00000300: 2aef 133d dded a7bc 5630 c73c 5f26 783c
00000310: 8f3b 1fbc 98c0 1d3d 481b ba3c e8ae a53c
00000320: 93fc a63c 3e04 92ba 2ce2 17ba 5118 793c
00000330: 1ade 703b 2238 04bd 0f80 6ebb f705 6b3c
00000340: b913 e23c 48b2 50bc 0a6a d9b8 7214 f73c
00000350: 9d5e 023d b2ed 703c 2830 013d 22b5 fabc
00000360: 8237 51bc 2680 483c 78ac ce3b c224 2b3d
00000370: 19e4 c1bc 3e48 bd3c c0b8 aebc adc1 033d
00000380: 182e f33c 3cd7 5d3c 9e2d 6fbb 7ffa f1bc
00000390: d9f0 bdbc b079 0d3c c788 2bbc e761 243c
000003a0: 01e4 45bd 6559 53bc e82a 44bc b005 45ba
000003b0: 39b2 3abd 364d 2f3b 28ea 3bbd d25f 3b3c
000003c0: a04c 633c 35b8 66bc 9f99 eabc d1d7 39bd
000003d0: 9c9a a5bc 2a02 83bc cb77 78ba d101 0f3c
000003e0: e758 f0bc 983d 62bc 99f7 89bb 3ff2 003d
000003f0: 3524 5a3c eed2 97bb b8bf de3c 2520 c7bc
0.001693114 -0.026830148 0.027774695 -0.0037458683 -0.022348534 0.014210633 -0.019522572 0.013439698
-0.0055873883 -0.005017018 -0.0027543341 0.022349425 -0.013352295 0.041731976 0.020749358 -0.011099295
0.017988225 0.031025568 0.0013185636 0.038852293 0.0049107247 0.0020253782 0.015454651 0.0020730118
0.028099919 -0.0036639855 0.015503592 0.03602349 -0.027554521 0.02181362 -0.019412486 0.025452731
-0.020108614 -0.027266482 -0.020479161 0.012551937 0.041292664 0.026433425 -0.020605955 -0.016946094
-0.022197872 0.034204833 -0.008759389 -0.01457298 0.005904704 -0.0066147987 0.022042379 -0.03521779
-0.022465732 0.009672352 -0.013214819 -0.008124624 0.028379867 0.012357871 -0.027429173 -0.02699134
0.0035868804 0.027491411 -0.012728701 -0.021741072 -0.032765426 0.023423309 0.038801435 -0.0022540253
0.009972998 0.026316816 0.01936237 -0.035522792 -0.013565969 0.005048436 -0.009583342 0.003940691
-0.021919068 0.011845752 -0.013061486 0.0341162 0.02460773 0.015759217 -0.025086712 -0.028642327
-0.012112007 -0.022995157 -0.00266789 -0.03340442 -0.002377359 -0.019015562 0.006326888 -0.0068831635
0.0046354495 -0.028275339 0.0060709957 -0.017602608 0.009702524 0.01357186 0.021458773 -0.0009712526
0.0065329033 0.022150088 0.013783057 -0.0384156 -0.011082889 0.02733537 -0.036017694 0.030549567
-0.017019983 0.023990288 -0.023788996 0.034392282 -0.03311008 0.026515976 -0.02522643 0.015692512
0.0038486568 0.015655858 -0.014437774 -0.014990101 -0.020316325 0.0396739 -0.012499774 -0.035535242
-0.0022659823 -0.011428625 0.019180754 0.0027806899 -0.019654091 0.018511936 0.020073684 -0.05023254
0.0025320482 0.0007819945 0.026175182 -0.022815168 0.006615722 -0.003603318 -0.010529691 -0.019786395
-0.03761486 0.015786389 -0.023602124 -0.01671676 -0.020181775 0.003094667 -0.018568402 0.021036683
-0.015574352 -0.031866897 0.022404313 0.02121016 -0.0064493655 0.032386936 -0.04633687 -0.0031826631
0.006369175 -0.03492231 0.03609351 -0.040004805 0.012525782 0.033882204 0.0028536683 -0.036745667
0.008869208 -0.01736923 -0.03041641 0.026427185 -0.02968671 -0.014530757 0.022535583 0.030286318
-0.0135143865 0.0010970177 0.008874125 -0.001190809 -0.00759232 -0.001802031 -0.01299768 0.010919027
-0.013265557 -0.016735846 0.017902816 0.011939622 0.00081325864 0.023285335 0.031280853 0.036484838
0.0037306822 -0.017090887 0.038172536 -0.030439205 0.0076938504 0.031972624 -0.016768849 0.04275092
0.036116756 -0.020499164 0.02431504 0.015145867 -0.00971879 0.03851375 0.022718087 0.020225003
0.020384109 -0.001114018 -0.0005793895 0.015203551 0.0036753477 -0.032280095 -0.0036392247 0.014344684
0.027597295 -0.012737818 -0.00010367118 0.030161116 0.03182851 0.0147051085 0.031540066 -0.030603949
-0.012769582 0.012237584 0.006307181 0.0417831 -0.023668336 0.023105737 -0.02132833 0.032167125
0.029685065 0.013540085 -0.0036495696 -0.029538391 -0.023186134 0.00863497 -0.010469622 0.010033107
-0.048313145 -0.012899731 -0.01197312 -0.0007515801 -0.045580123 0.0026748902 -0.045877606 0.01143642
0.013873249 -0.014082004 -0.028637705 -0.045371834 -0.020215325 -0.015992243 -0.00094783 0.00872846
-0.029339267 -0.01380863 -0.004210424 0.031481024 0.0133142965 -0.004633299 0.027191028 -0.02430732

module.net.conv3.bias f4 [120]
00000000: 5a6f afbb ff1c d63c feec 57bb 74f4 8bbb
00000010: 507f 50bc 7f13 c73c af4f 76bc 0ca8 0cbc
00000020: 02ec 18bd dc02 14bd 67fc fb3c 59d0 323c
00000030: c392 88bc 5443 e4bb 8886 cbbc dd9b d2bc
00000040: 2390 acbc eca6 ecbc 805d 24bc 700b afbb
00000050: b728 65bc 6cce ab3c 39f0 223b d5d5 a03c
00000060: 46ea 113d ab4b 79bc 2858 443c 98a5 223d
00000070: d142 8a3a 6b1e 27bc 440d 103a 0f43 e3bc
00000080: 4835 e03b abdc d3ba 0fc6 08bc 87dc 23bc
00000090: f3df 7f3c 2b77 74bc b91e 1abc 2fbd f33c
000000a0: 1936 f43c 158d 563c f7ce a03b 4784 f7bc
000000b0: b508 b33c 5353 033d 2fae 11bd 85be 9abc
000000c0: 4204 3bbc c1dc 45bc 97c7 9ebc e432 00bd
000000d0: c1ad a73c 40a6 17bd f6cd 13bd 52ba 963c
000000e0: 9be0 b43c 8534 48bb 8419 41bc 3e2f 26bb
000000f0: a852 b1bc 5dda e23b aa67 0c3d b55d 9ebc
00000100: 20d8 8f3b a601 f4bc b456 063d 414c 663c
00000110: 07b7 313c c487 bebc d128 fdbb ca50 4abb
00000120: 51d7 493c 6288 3d3c 1d6c 4ebc 37ec 273d
00000130: b11b a1bc 91a9 06bd d90f 8c3c 3b53 98bc
00000140: 4252 52bc 1a90 3dbc b823 1cbd 445e a53c
00000150: 07fd 03bd 5fbc 3f3c dad9 e13a bea6 59bb
00000160: a94f 99bb ad95 d3ba e1a3 f5bc 112e f6bc
00000170: 4c15 9fbc 8426 133c 7a4d bc3c 15d8 c0ba
00000180: 388a 203d 22a0 abbc d454 1dbd 7acb 373b
00000190: 7adc 213d dcd8 ca3c 42a9 7c3c eb21 8dbb
000001a0: 8fa0 193c 3d24 0c3d abf7 f2bc bc98 efbb
000001b0: 68d5 87bc 34ab f53c d834 0d3c be75 d03c
000001c0: 4e1a f73c deda cdbb ab70 5e3b 3bcd 79bc
000001d0: c66d 163d 062b a8bc 73d0 f6bc c349 e33a
-0.0053538503 0.026136873 -0.0032947655 -0.0042710844 -0.012725666 0.024301289 -0.0150336465 -0.008584987
-0.03733445 -0.03613554 0.030760003 0.010913932 -0.016671544 -0.006966034 -0.024844423 -0.025709087
-0.021064823 -0.028888188 -0.010032058 -0.0053419396 -0.013986758 0.020972453 0.0024862422 0.019633213
0.03562381 -0.015215795 0.011983909 0.039708704 0.0010548477 -0.010200123 0.0005495141 -0.027741937
0.006842289 -0.0016163787 -0.008348002 -0.010001308 0.0156173585 -0.01492099 -0.009406739 0.029753296
0.029810952 0.01309516 0.0049074846 -0.030214442 0.021854738 0.032061886 -0.035566505 -0.018889675
-0.011414589 -0.012076558 -0.019382281 -0.031298533 0.020468595 -0.037023783 -0.03608509 0.018399391
0.022079756 -0.0030548882 -0.011785869 -0.0025357748 -0.021645859 0.0069230036 0.03427855 -0.019331792
0.004389778 -0.029785942 0.03279753 0.014056266 0.01084686 -0.023258097 -0.007725813 -0.0030870908
0.012319402 0.011568161 -0.012599018 0.040996756 -0.019666525 -0.032876555 0.0170974 -0.018594375
-0.012836995 -0.011570001 -0.03812 0.02018655 -0.032223728 0.011702626 0.0017231063 -0.0033210958
-0.0046786857 -0.0016142629 -0.02998537 -0.030051263 -0.019419335 0.008981351 0.022986162 -0.0014712835
0.039194316 -0.02095038 -0.038410977 0.0028044865 0.039516903 0.02476161 0.015421214 -0.004307022
0.009376659 0.034214247 -0.029659113 -0.0073119085 -0.016581252 0.029988863 0.008618556 0.025446769
0.03016391 -0.0062821945 0.0033941667 -0.015246685 0.03672578 -0.020528328 -0.030128693 0.0017340708

module.net.fc1.weight f4 [84, 120]
00000000: fe76 b83b 43d6 6bbd 3532 96bc c381 013b
00000010: 9e08 35bd e588 063d c80b 1e3c c956 2e3c
00000020: 6079 4dbd 74fd 843d d58c d13c 9bad 74bc
00000030: 8015 563d df52 52bd c23f 84bd 61aa 0f3d
00000040: 9eba 03bd 3045 1fbd f706 1f3d 3dec 09bc
00000050: 1e0b 19bd a7d1 213b cbcd 1f3b 3ed5 1a3d
00000060: 5c35 a1bc 2586 ee3b 8f61 11bd c77e eb3c
00000070: f9ff ac39 2a4c c13b bcd2 f0bb ce45 923d
00000080: 15f1 53bd 3663 353d ec61 68bb 81ee 6a3d
00000090: 2328 2e3d da86 b23a fbcd 053c be90 c6ba
000000a0: 36a6 b33c 4c27 da3c 2594 7dbd af5c 983d
000000b0: 2c0f 73bd 6a3b 97bc b148 6dbd 3bd3 d63c
000000c0: 4bf4 1a3d b055 21bd 1d89 223c 5769 2a3c
000000d0: 7a47 2fbb 7f37 fd3c 2942 333d c348 28bd
000000e0: fc0e 66bd 0836 6bbd aa8c 8b3d ef9d ac3b
000000f0: d077 a93d 1914 213d accb f03b c2fe 02bd
00000100: 1687 9e3c 82fc 59bc 136d 7cbd 983f f43c
00000110: bd08 9cbd bf07 a4bc dea3 dc3c 7df1 733d
00000120: f70c 853d b78a 773c 21bf 4f3c 1d49 333d
00000130: 4f84 53bd 2762 8a3d 879c 5e3d ca66 4d3d
00000140: cd24 13bc 1f26 1a3d c61c 73bd 4ab2 d83c
00000150: 54a6 e0bc 9eae fc3c 6d24 a53b 1d75 a93c
00000160: 9915 30bc dfee 98bc 7814 8f3d 9c41 75bd
00000170: 749b 15bb 0bda 94bc 87dd 59bd 2172 753c
00000180: 2bee c03c d022 10bd 0a45 5d3d fbac 32bd
00000190: 2049 9a3c 22d8 61bd ceb3 04bd ecf3 18bd
000001a0: 03ed 8abd 8e0e 61bb da42 81bd e559 d53b
000001b0: 6f08 ec3c 0b74 023d 096e 1bbd 8f96 2f3d
000001c0: 6347 413b a84f 84bb 41dc 253d 9df1 d1bc
000001d0: b4ed 5c3c 7ef3 b53b 5f2a af3c 2116 353d
000001e0: 7d03 6dbd c7bf 773d 8f91 ca3c e4ff e83b
000001f0: 231e 3c3d c171 ab3c 76a7 a2bb dbc1 523c
00000200: d129 843d bde9 fcbc 7ce7 6c3d f618 85bd
00000210: 12a6 a33d dc21 503b b464 8cbd a7a2 c4bc
00000220: 55b2 513d b94d 8c3d 379b 553c b41f 3bbc
00000230: c97e 90bc 4f72 83bd 353c 8cbb b63a e3bc
00000240: 34d1 3dbd 78b8 9b3d 69c2 543d 767b 6e3d
00000250: 6540 28bd 5ecf d13c 68c3 afbb 477c 78bd
00000260: becf 3d3d bd66 8cbb 30a0 11bd 2faa 483d
00000270: c1e1 76bd 6a04 bbbc 61b1 603d c66a 39bb
00000280: d83e aa3c aa6b 4bbd bb6d 7c3d 3ec4 303c
00000290: 43da 40bd e496 12bd 7ae1 6ebd eba4 2ebc
000002a0: b756 1a3d 6f89 8dbc f4a5 a53c d0af 06bd
000002b0: 7406 7bbc 9e23 5bbd 408c 58bc 72eb 2ebd
000002c0: 499a 1e3d 07bb 67bd af00 6d3d b1c2 913b
000002d0: 2f98 cdbc a599 3ebd a5c4 88bb a3bd 933c
000002e0: c980 7a3d b708 4d3d b035 42ba 5d5e 943c
000002f0: f964 8d3d 0ada 363d 006f 143d 37f5 843d
00000300: cb33 84bd 9a48 c83c 486a cebb fca3 963b
00000310: 63bc 30bd def1 6f3a b075 81bd 41c3 69bd
00000320: 4f2b 58bd 7ce9 13bd bd66 15bd 0b82 c23c
00000330: f4e0 95bd 7367 78bd 9909 24bd 017d 7cbd
00000340: 10a5 623c a97b dc3c 037e 56bd 4e4a fa3c
00000350: f531 d9bc 8513 763c 0eba 3bbd 595f f13c
00000360: b237 943d dc48 c53c df71 61bc 0a8d 90bd
00000370: cec7 f33a 10f5 5cbd cb0f 153d 64c9 6c3d
00000380: 3514 013d 1c9e 253d 88d9 7b3c b12d 11bd
00000390: 117f 4e3d ce57 1f3d 98b4 3e3d 30d2 9f3c
000003a0: 1f22 de3c 08ab 133d 100b 5ebd 1cc8 2a3d
000003b0: 253c e5bc d374 c1bc 6010 5cbc 55e8 4a3d
000003c0: e76c 8aba b225 69bd 970a 75bd d7e2 263d
000003d0: 4830 52bd ceec a03d c42a 3abd 9b5c 61bd
000003e0: 5708 3c3d 14a5 f73c e8fe 8cbd f63b b6bb
000003f0: 09b2 1dbc e0d5 393d 7ba4 4f3d 3a90 d43c
0.0056294193 -0.057577383 -0.018334487 0.0019761182 -0.04419767 0.032845397 0.009646364 0.010640808
-0.05016458 0.06493655 0.02557985 -0.014933969 0.052266598 -0.051348563 -0.06457473 0.035074595
-0.032160394 -0.03888434 0.038825 -0.00841814 -0.037364118 0.0024691613 0.0024384137 0.03780102
-0.019678764 0.007279175 -0.03549343 0.028746976 0.0003299711 0.005898972 -0.0073493402 0.071422204
-0.051743586 0.044284068 -0.0035458757 0.05735636 0.042518746 0.0013620511 0.008166785 -0.0015149338
0.021929841 0.026630066 -0.06190886 0.07439553 -0.05934064 -0.018460948 -0.057930652 0.02622377
0.037830632 -0.03938836 0.009920386 0.010401092 -0.0026745484 0.030910252 0.043764267 -0.041085016
-0.056166634 -0.057424575 0.06813939 0.0052678506 0.082748055 0.039325807 0.0073484983 -0.031981237
0.019351523 -0.013304831 -0.06162746 0.02981548 -0.07618854 -0.020023225 0.026933607 0.059556473
0.064966135 0.015108756 0.012679846 0.043770898 -0.05163985 0.06757002 0.054348495 0.050146855
-0.008980942 0.03763401 -0.059353612 0.026452202 -0.027423061 0.030844983 0.0050397427 0.020685727
-0.010747337 -0.01866859 0.06986326 -0.059877023 -0.0022828253 -0.018170377 -0.05318978 0.014980824
0.023551067 -0.03518945 0.05402092 -0.043622 0.018833697 -0.05513776 -0.032398038 -0.037341997
-0.06783488 -0.003434095 -0.06311579 0.0065109604 0.028812615 0.03184895 -0.037946735 0.042868193
0.0029492013 -0.004037816 0.040493254 -0.025627906 0.013484407 0.005552708 0.021382509 0.044210557
-0.057864655 0.060485628 0.02472761 0.0071105827 0.045927178 0.020928266 -0.0049638106 0.012863602
0.06453288 -0.030873174 0.05783795 -0.064989015 0.0799066 0.0031758463 -0.06855145 -0.02400334
0.05119546 0.06850762 0.013037494 -0.011421133 -0.01763858 -0.06418287 -0.004279638 -0.027737956
-0.04634209 0.07603544 0.051943216 0.05822321 -0.041077036 0.025611576 -0.0053638704 -0.060665395
0.046340697 -0.0042847083 -0.035553157 0.048990425 -0.06027389 -0.022829253 0.05485666 -0.0028292402
0.02078192 -0.049663223 0.061628085 0.010788975 -0.04708315 -0.03578843 -0.0583205 -0.010659437
0.037680354 -0.017277448 0.020220734 -0.03288251 -0.015321363 -0.053500764 -0.013217032 -0.042705007
0.038721357 -0.056574848 0.05786198 0.004448258 -0.02509698 -0.046533246 -0.0041738325 0.018034762
0.061157975 0.05005714 -0.0007408513 0.018111402 0.06904025 0.044641532 0.03623867 0.064920835
-0.06455191 0.024448682 -0.006299291 0.004597185 -0.04314841 0.00091531675 -0.06321275 -0.057070974
-0.052775677 -0.03611134 -0.036474932 0.02374365 -0.07318297 -0.060645532 -0.040048216 -0.06164265
0.013833299 0.026914435 -0.052366268 0.03055301 -0.02651308 0.015019302 -0.045831732 0.02946441
0.072371855 0.024082594 -0.013760059 -0.07058151 0.0018598975 -0.053944647 0.036392014 0.05780925
0.03151341 0.040433988 0.015371688 -0.035443965 0.05041415 0.038902096 0.046558946 0.019509405
0.02711588 0.03605178 -0.05420977 0.041694745 -0.02798278 -0.023615276 -0.0134316385 0.049537975
-0.001056102 -0.056920715 -0.059824552 0.040743675 -0.051315576 0.07857667 -0.04545094 -0.055019956
0.04590639 0.030230083 -0.06884557 -0.005561347 -0.009624966 0.045369983 0.05069397 0.025947679

module.net.fc1.bias f4 [84]
00000000: 8726 40bd 1f89 883d 13e8 853c 8e35 efbc
00000010: 46c5 dabc 1a36 76bc c018 7e3d 4989 ddbc
00000020: e607 f73a 2228 aebc 7c81 3ebd 1a66 6d3c
00000030: 092f 093c a435 8bbc 1494 943a 8abf 14bc
00000040: 1a07 d5bb 7f13 383d 259f 81bd 14e4 873c
00000050: 3c17 613d 01db 763d 339b 643d a02d 643d
00000060: f332 8c3b df53 513d ef19 0bbd 200c 41bd
00000070: a2fb 9c3c c8c2 833c c6bc 253c 85ff 51bd
00000080: 604b 67bd 67a6 14bd 68a2 6bbc a43d 64bd
00000090: 13b3 3fbd 0bd0 50bc d82b 3dbd f677 47bd
000000a0: ca6d 81bd b9c8 ac3d 06fe 48bd a6ec 31bd
000000b0: fee0 0b3d f929 843c 87d2 963b 4e19 5cbd
000000c0: 42df 683d 516e 253d 0571 f83c 0370 213d
000000d0: 6cef 293c ba2a 463d 7e87 a3bc e73d 2cbd
000000e0: a6ff 87bc bb9c 4a3d 6abd 243d 19ec 2abd
000000f0: 2b8f 603d 3080 58bc 8a2f 3abd 5e40 abbc
00000100: 07d1 a03c f7cf 093d 0604 903d b7c7 67bd
00000110: 9be5 adbc c59e 10bc 0c16 6dbc 5e20 69bd
00000120: b6f5 983c 3192 86bc a093 3f3d af24 7fbd
00000130: aff9 dbbc c9e4 1d3d 1dcd b53b 630d 73bc
00000140: 5011 f53c f51b f1bc 053a 11bc 6f91 363d
-0.046911743 0.06666779 0.016346013 -0.029200342 -0.026705395 -0.015027547 0.062035322 -0.027043002
0.0018846958 -0.021259371 -0.046510205 0.014489675 0.00837303 -0.016993351 0.0011335635 -0.00907887
-0.0065010907 0.044940468 -0.063291825 0.016588248 0.0549538 0.060267452 0.055812072 0.055707574
0.0042785346 0.051105376 -0.03396028 -0.047130704 0.019162957 0.01608409 0.010115808 -0.051269073
-0.056468368 -0.036291506 -0.014381982 -0.055722848 -0.046801638 -0.012744914 -0.04618439 -0.048698388
-0.06319769 0.08436722 -0.04907038 -0.043438576 0.034150116 0.016133295 0.0046027335 -0.05373507
0.05685354 0.04038841 0.03032733 0.039413463 0.010372024 0.04838059 -0.019962069 -0.042051222
-0.016601395 0.049465876 0.0402197 -0.041729067 0.054824036 -0.013214156 -0.045455493 -0.020904716
0.019630922 0.033645596 0.070320174 -0.056586947 -0.021227648 -0.008826916 -0.014470588 -0.056915633
0.018671852 -0.016427131 0.046771646 -0.062290844 -0.026852457 0.038548265 0.005548133 -0.014834735
0.029915482 -0.029432276 -0.008863931 0.04457229

module.net.fc2.weight f4 [10, 84]
00000000: 991b 9bbc 94d1 73bc c214 e13d 99a9 8a3d
00000010: 3659 043d 504d e03d 2958 fdbd d646 e43c
00000020: cfd2 d0bc 2b6c a1bd f51f 59bc e7ae c6bb
00000030: 29cd 343d 9069 0ebd 0ab6 b3bc e70f b5bd
00000040: 6d41 aebd 5b82 dabb cb9f 243d 0ba7 ffbd
00000050: 7487 2fbc a241 053d bf63 573d 4c34 093d
00000060: 4466 6c3c d9dc 0bbe 106d 6abd 847c e83c
00000070: 7821 22bd 92a8 f03b 839e 863b 075b a03d
00000080: 6293 3fbd 70ad 0b3b 27d4 7c3c c38c 57bd
00000090: 7384 4a38 093a 76bd 3d41 84bd 9320 9bbd
000000a0: 771f cb3d 03c1 53bd e0ed 93bd 7c5e dd3c
000000b0: 6f0c bcbd 2c8c 95bd ac23 8abd d8e4 3c3d
000000c0: 8281 9ebd 78cb ffbd ffd6 aabc a7d8 bb3c
000000d0: a3e8 8c3d 3865 11bc b86d 88bd 956d c8bd
000000e0: b52f 123c 57e7 a6bd 5fe8 17bc aeea 823c
000000f0: 9fbe 86bc 53fa 68bd e183 013c 3d70 38bd
00000100: 34db 363d 7c52 833c ec51 c13b e26e a33c
00000110: d044 9ebc d497 363d 0542 b9bd 48b3 e0bc
00000120: 3e7a 873b 5dea 903d dd77 d9bd 12f1 8bbd
00000130: 47a2 133c f271 163d bb83 be3d 7684 003e
00000140: bc71 89bc 9170 c83d 14c1 f03c b1fd 893d
00000150: a123 27bc 7aa5 6ebd a641 0bbc 0052 163d
00000160: acde 00bc 08c1 c5bd 3721 463c 0957 51bd
00000170: 0ccb 7dbd a191 f23d 27ef 173d abfa 09bd
00000180: 3443 833d 7a8e dc3d 699c 4abd faa5 5fbd
00000190: ccba dbbd e182 da3b 88fe 12bd 0823 c93d
000001a0: 8daa 8bbd 718b 11bd 8e21 33bd 629b 38bb
000001b0: 46d8 cc3d fc1a 8d3c 025d 9b3d 5853 d4bc
000001c0: ab28 52bc 274a 1dbd 4085 073d 3510 53bc
000001d0: bed0 ba3d cd15 ab3b 87c8 1a3a 84dd 033d
000001e0: ac7d 9b3d f82e 8b3d b8cc 253c e44d ecbd
000001f0: bd7c 0abe fb37 4f3d 4df2 41bd f0c0 233c
00000200: e870 a13d c799 ae3d 59ea 5cbd 0b34 813d
00000210: 0d80 2cba 4746 913d a773 823d 0c7b 503d
00000220: 986f d0bd 101e 8c3c 3f03 b43d 9bbb 313d
00000230: cda9 81bd b024 cb3d 2881 853d 4fa6 8bbd
00000240: 2bdd a63d 9980 07be dfab cdbd d374 1bbd
00000250: 38b3 bcbd 5333 aabb 3cf0 14bd cc2a bebd
00000260: 5f6f 413d 2360 b8bd ad7b 4e3b 6105 133c
00000270: d5bb 82bc 65d8 893d 8c0f ac3d c829 8f3d
00000280: 9a8d 18bd 71c2 1d3d a214 ccbd 02cd 15ba
00000290: f1df aabd 1f9f 25bd 3f50 9d3d 342a 9c3c
000002a0: fb74 ccbd 15f9 8cbc 555e 323a a3db e63d
000002b0: c390 f2bc 43a0 4cbd 1331 b9bc 5ea0 84bd
000002c0: 037b 203d b896 bcbd 45f6 9e3d 6cd4 5e3c
000002d0: 6010 f9bc 86c6 0bbd 7a60 5b3d 67ee b4bd
000002e0: ff94 3c3d 034a 38ba 5c97 64bc aa6d c73d
000002f0: 5041 7abd cb1c 53bd b66c cc3c d6b1 423d
00000300: 9604 2abd 6b19 133b 82fb 483d 1139 b73d
00000310: 6168 b23c 06bd 8abd 661a 81bd 2065 d4bd
00000320: 15bf 1ebd c651 e33b 7efc 15bd 0c30 a7bd
00000330: 64bc 9c3d b1e6 283c 39f2 b7bd 0572 09ba
00000340: 21d0 413d deae 483d 340d 72bd 6424 65bc
00000350: b043 eebc 062f aabc 62b9 8dbd a9ae 46bd
00000360: b6aa b0bc ae21 24bc 7079 90bd b500 9dbd
00000370: 765b 64bd 7ba2 9dbb 876a 043d 7bbe 993d
00000380: 678f ccbd 9965 753d 6acc afbd d862 1fbc
00000390: d1c4 bf3d 4e4d 183d 8fb9 21bd 6588 b7bc
000003a0: 3236 923d 96b0 5e3c 475e 683d 2a3d a5bb
000003b0: 86ad 813d fbdf 743d 0a4c 1bbd cd53 b43d
000003c0: 550e a43d 4a28 b73c f2ee 8b3d 8d03 ae3d
000003d0: a934 4abd b292 963d 356a 193c 3854 403d
000003e0: 65ed aa3d 45c6 c83b 2a8e 0dbd cf2c 6a3d
000003f0: 44eb d4bc fc8f 2d3d 8f8b c9bc 63a6 fabc
-0.018934058 -0.01488151 0.10990287 0.067706294 0.03231164 0.10952246 -0.12370331 0.027865808
-0.025491146 -0.078819595 -0.013252248 -0.0060633305 0.04414097 -0.03476864 -0.021937389 -0.08840924
-0.08508573 -0.0066683716 0.040191453 -0.12483033 -0.010713447 0.032533295 0.05258536 0.03349714
0.014428679 -0.13658465 -0.057232916 0.028379686 -0.0395827 0.007344314 0.0041082515 0.07829862
-0.046771415 0.0021313094 0.01543144 -0.052624475 4.8283906e-05 -0.06011394 -0.06457756 -0.075745724
0.09918111 -0.051697742 -0.072231054 0.027022593 -0.09182059 -0.07302126 -0.06745085 0.04611668
-0.077395454 -0.124899805 -0.020854471 0.022930456 0.068803094 -0.00887423 -0.06661552 -0.09786526
0.008922507 -0.08149593 -0.00927171 0.015981045 -0.016448317 -0.056879353 0.007904978 -0.045028914
0.044642642 0.016030543 0.0058996584 0.019950334 -0.019319922 0.04457839 -0.09045795 -0.027429238
0.0041344455 0.07075951 -0.10618565 -0.0683309 0.009010858 0.03672976 0.09302469 0.1255053
-0.016777866 0.09787095 0.029388942 0.06737841 -0.010201366 -0.05826328 -0.0084995385 0.036699295
-0.007865589 -0.096559584 0.01209288 -0.051108394 -0.06196122 0.11844183 0.037093308 -0.03368632
0.06409302 0.10769363 -0.04946557 -0.054601647 -0.10728988 0.006668434 -0.03588727 0.09821135
-0.06819639 -0.035533372 -0.043733172 -0.0028168787 0.100021884 0.017224781 0.07586099 -0.025918648
-0.012827079 -0.038400795 0.03308606 -0.012882282 0.09121846 0.0052211047 0.00059045147 0.032193676
0.075923294 0.06796068 0.01011961 -0.11538294 -0.13524146 0.050590497 -0.047350217 0.00999473
0.07882863 0.085254245 -0.05393443 0.063087545 -0.00065803604 0.070934825 0.06369715 0.050898597
-0.10177535 0.017104179 0.08789682 0.043391805 -0.06331215 0.09919107 0.06518775 -0.0681883
0.08147653 -0.1323265 -0.100425474 -0.03795321 -0.09213871 -0.0051941066 -0.036361918 -0.092855066
0.047225352 -0.090027116 0.0031506822 0.00897345 -0.015958706 0.06730727 0.08401403 0.06990391
-0.037244417 0.038515512 -0.09964873 -0.00057144475 -0.08343495 -0.040434953 0.07681321 0.019063093
-0.0998325 -0.017208615 0.00068042177 0.11272361 -0.029610043 -0.049957525 -0.022606408 -0.064759
0.039179813 -0.09208435 0.07761816 0.01360045 -0.030403316 -0.034124874 0.053558804 -0.08834534
0.04604053 -0.00070300716 -0.0139521025 0.09737714 -0.061097443 -0.05154113 0.024954181 0.04753288
-0.04150828 0.002244557 0.04906798 0.089464314 0.021778287 -0.067743346 -0.06303863 -0.103708506
-0.03875645 0.0069372384 -0.03661775 -0.08163461 0.0765312 0.010308907 -0.08981747 -0.00052431255
0.047317628 0.04899489 -0.059094623 -0.013985727 -0.02908501 -0.020774376 -0.069201246 -0.048506413
-0.021565776 -0.0100177955 -0.07054412 -0.076661505 -0.055751286 -0.004810629 0.032328155 0.075070344
-0.09988289 0.059911344 -0.08583911 -0.009728156 0.093637116 0.0371831 -0.039483603 -0.022403905
0.07139243 0.013591906 0.056730535 -0.0050426917 0.06331925 0.059783917 -0.037914313 0.08805046
0.08010546 0.022358079 0.068326846 0.08496771 -0.049366627 0.07352199 0.009363701 0.046955317
0.08346061 0.006127151 -0.034559406 0.05717164 -0.02599109 0.042373642 -0.02460268 -0.030596917

module.net.fc2.bias f4 [10]
00000000: 4fba a9bc adb5 023d 236d 83bc f11d 03bc
00000010: 7656 12bc 78d4 90bb 8667 6b3c 1cfe 833d
00000020: 75e2 0bbc 41b7 69bd
-0.020718722 0.03191154 -0.016043251 -0.008002744 -0.008931747 -0.0044198595 0.014367944 0.06444952
-0.008537878 -0.05705953
