models/pretrained/MNIST/LSR_0.002_lenet_w_acc_9.pt (torch, 250055 bytes, 10 tensors)

module.net.conv1.weight f4 [6, 1, 5, 5]
00000000: 62b3 153f afa5 c63e 46bf 363e 0d85 5a3e
00000010: 0f77 683f 7d71 8a3f 083e 1c3f 1695 6b3e
00000020: 155d a13e a65d 683f 29d7 4b3f 4c84 c93e
00000030: 830d b13e db1c b23e fef4 813f 0b72 b83e
00000040: d9d8 973e cd27 1bbd 3b35 f73d 984e 4b3f
00000050: 0cee 843c 3911 a73d 52ab 4abd 9a98 343e
00000060: 02bc 083f 2da9 1d3d 5400 55bc a2e5 32bd
00000070: 3452 233e 7c0c d13e 3370 c4be aa6d 98be
00000080: 8e1f e6be afd8 29be 05fc b13e b348 0cbe
00000090: 1ff9 3abf 723b 0cbf ebb6 bbbd ee5d c83e
000000a0: 2766 79bc cc54 a5be 8762 35be 9554 543e
000000b0: eea8 103f 39fc e73e b587 a93d 7d4d c43d
000000c0: 3374 e03e 4bac 693f 2d28 da3e 7d30 b83d
000000d0: 648d 26bf 1615 b9be ad78 a1bc 0376 cc3e
000000e0: f485 81be 2af8 7cbf 50f0 64bf cd2b 6bbd
000000f0: 5dd4 de3e 5d9d cb3c db63 3dbf d23a 43bf
00000100: 0b9f 75ba 28b3 7b3e 50e2 c4bc 1d8c 95be
00000110: f22a 44be 52b2 623c 74d7 623e 53f5 4d3e
00000120: 8d03 1c3e cda6 8b3e 2593 c03e 7aaf b5bf
00000130: 539f 9dbf 264d 8cbf 1b39 8fbf 6fcc 8dbf
00000140: 4b75 a8bf 3b43 86bf 5ff2 5ebf 0eb9 6abf
00000150: 67c4 80bf 400d adbf 9c3d 8bbf c8f4 3fbf
00000160: 8da3 56bf 1b86 73bf ab3c ccbf 2532 9bbf
00000170: 417e 67bf 39b2 96bf d043 a4bf d68d b7bf
00000180: 8763 4fbf b333 11bf 14d9 3abf 84a1 9dbf
00000190: 7dd8 423f 8fd8 1d3f 413f 853e 0679 d2be
000001a0: d96a cabe 36bf 983e e0e4 2f3f a5af d23e
000001b0: f8a5 a43d 9a6d b1be c8f4 0a3f 4855 073f
000001c0: f3c4 563c e037 fb3e a66e 993d b5bb 183f
000001d0: 2827 c73e e49b 813e a134 f83d 2a9a 16be
000001e0: 4937 963e 52ff a43e cb2c c63d a518 e2be
000001f0: 2eaf 8abe 3171 babe 8911 02bf 51ca d23d
00000200: 0835 08be 4701 e5be b604 64be a07b bcbe
00000210: b5aa 8fbe bffc 92be a312 d0be 3064 08bf
00000220: ac83 03bf 0762 acbe 75e7 d2bd 4268 f0be
00000230: fe2d 76be b574 05bf cf0b f7be 858a cdbe
00000240: de19 54bf 9520 78be dc87 b6be ad25 0fbf
00000250: 64ad 21bf e938 6dbf
0.5847684 0.38798282 0.17846403 0.21339817 0.9080667 1.0815884 0.6103215 0.2300609
0.31516328 0.90767896 0.79625183 0.39358747 0.3458062 0.3478764 1.0152891 0.36024508
0.2965763 -0.037879754 0.120707 0.794168 0.01622679 0.08157582 -0.04947979 0.17636338
0.5341188 0.038491417 -0.0130005665 -0.043676026 0.15949327 0.40829837 -0.3836685 -0.29771167
-0.4494595 -0.16586564 0.34762588 -0.13699608 -0.7303638 -0.54778206 -0.09165748 0.39134163
-0.015222109 -0.32291257 -0.17713366 0.2073539 0.56507766 0.45309618 0.08277837 0.09585092
0.43838653 0.91278523 0.42608777 0.089936234 -0.65059495 -0.361489 -0.019710863 0.39933786
-0.2529751 -0.9881617 -0.8942919 -0.05741482 0.43521395 0.02485531 -0.7398049 -0.7626163
-0.00093697075 0.24580061 -0.024033695 -0.2920846 -0.19157007 0.01383646 0.22152501 0.20113115
0.1523573 0.27275696 0.37612262 -1.4194176 -1.2314247 -1.0961044 -1.1189302 -1.1078013
-1.3160795 -1.0489267 -0.8708858 -0.9168862 -1.0059937 -1.3519669 -1.0878177 -0.7498288
-0.8384331 -0.95126504 -1.5956014 -1.2124678 -0.90427023 -1.1773139 -1.2833195 -1.434016
-0.8101124 -0.5671951 -0.72987485 -1.2314916 0.76111585 0.6165857 0.2602482 -0.4110796
-0.39534643 0.29833382 0.6870861 0.4114963 0.080394685 -0.34653932 0.54279757 0.52864504
0.01310848 0.49066067 0.07491808 0.5966142 0.3889706 0.25314248 0.12119413 -0.14707246
0.29339054 0.32226044 0.09676512 -0.44159427 -0.27086776 -0.36414483 -0.50808007 0.10292495
-0.1330148 -0.44727537 -0.22267422 -0.36813068 -0.28059927 -0.28708455 -0.4063922 -0.53277874
-0.5137279 -0.3366854 -0.10298053 -0.46954542 -0.24040982 -0.52131206 -0.48251197 -0.40144745
-0.8285197 -0.24231179 -0.35650527 -0.55916864 -0.631552 -0.92664963

module.net.conv1.bias f4 [6]
00000000: 15b1 a0bd bec4 4e3f 8556 e63f 0110 d6bf
00000010: f7c4 afbf acf3 533f
-0.07846276 0.80768955 1.7995154 -1.6723634 -1.3731984 0.8279369

module.net.conv2.weight f4 [16, 6, 5, 5]
00000000: ce01 83be 97d7 66be be1e 42be 300d 23be
00000010: 5847 92bd 59a9 4fbe b05e b2be f1d2 8bbe
00000020: 729d c7be 6383 77be 0fbd acbe 073f 95be
00000030: be3e 8abe aed3 cfbe 23a8 97be ec8a a8be
00000040: 2a2e 8dbe b6ee b4be 8c22 05bf 7653 b0be
00000050: 0048 41be b1ec 79be 6b85 0ebe 8362 2abe
00000060: 41fc a8be 88ad 733e 8919 663e 7d21 863e
00000070: adc3 953e 9d08 523c a449 673e d939 9d3e
00000080: c716 e93e 79d0 c13e 29cd c63e 4a0c a13e
00000090: 793f a73e 34ca 093f cc73 003f d9a1 db3e
000000a0: 7f20 cd3e 8692 b93e 8aad 0a3f 9f20 ec3e
000000b0: 9f90 793e db77 a83e 27a6 823e d4c1 023f
000000c0: e071 db3e 4d1e b93e 9fd4 633e 3fa7 1a3e
000000d0: 5b32 553e b38c 5c3e 17c5 8cbd 018d 4b3e
000000e0: 692d 543e 4b67 a63e 6d5c 053e 484a 193e
000000f0: 55d3 5f3d e16e e73d 44b6 913e d04d 7c3e
00000100: 0611 af3d f090 843e 2fa0 aa3e 48d6 123f
00000110: 4fc6 c93e 090a 883e a2e8 153e bda2 543e
00000120: a202 e43e 561c ac3e b0b7 8e3e d552 28bd
00000130: 2aee cebc 98dc 0d3e 3c51 2d3e 2697 b23d
00000140: 3847 9abd 1584 00bd fa13 403d ab81 533e
00000150: 76f2 2a3e bc9f 003e 4433 453e b869 133f
00000160: bbae 443f 6255 003f 8697 26be 7bd4 d1bd
00000170: 660f 0a3e 728f b83e 7b86 a13e bc68 9fbe
00000180: b06a 83be 0427 853d 2843 5e3e 0401 093e
00000190: 1261 8e3c d8f6 59be f7a5 97bd 1171 ecbd
000001a0: 1869 40bb c400 4fbd c29d 83be b09d 8ebe
000001b0: 4fdf 08be 2e9d 31be 571f 34be a7b0 0abe
000001c0: 0e51 58be 2bfd 94be 16e9 c3be 9b1d 6bbe
000001d0: 9b63 40bd 0baf d5bd 092a 1fbe 5e72 83be
000001e0: fa4b 11bc fe94 f0bd 9475 00be 7835 5bbe
000001f0: 1a83 9abe 665b 85bd 03fb 68bc 2475 6c3b
00000200: 4156 163e 2e26 0f3e e733 40be ea6c 53bd
00000210: 2132 0b3e 87b5 ab3e b5f6 8f3e 4578 a0bd
00000220: b90e 693d b582 843e 35be d53e 9d72 d33e
00000230: fe9c c2be dd6a 3abe 855d 73be aea4 6cbb
00000240: 39f4 e63d 07a1 5dbe 6977 21be c056 13be
00000250: 278e 2dbd f79d 35be 7d2f cebe 8bee b8be
00000260: 3c15 0abf bb17 e4be eb1d e5be 1b3c 10bf
00000270: 2b9e 1bbf a182 18bf c53b babe 5171 a8be
00000280: b7aa aebe 0d34 41bf 709c 33bf 94a3 c2be
00000290: 968e 29bd 61e0 e8be cd8e 13bf 4d52 0abf
000002a0: 6df4 d1be ca15 42be 74d4 15bf b606 e9be
000002b0: ab8f 88be e405 38be e82c 0cbd 5509 40be
000002c0: 09cb 2abe 18e1 ae3c 9b2a 9bbc 6ba3 fabb
000002d0: 3f15 303d c72e 253e 274b f73b cf88 cf3d
000002e0: 1310 36bd ff96 62bc bc79 453e 9fee a33d
000002f0: 3b9e 243e 5ecc 94bd fa77 433e 06e2 2f3e
00000300: 311d 4bbd 4388 9ebc 0890 4dbe 4592 4d3e
00000310: dcb9 52bb 0ac8 7fbe 8c65 b7be dee0 09bf
00000320: 3cd9 55be cbb7 33be 51a9 3abe 7072 48be
00000330: 3a1a b4bd 58fa 2ebd a3b9 6abe 7fa5 33be
00000340: 5544 22be a8eb 47be 1eee 0c3e 913e 2fbd
00000350: 9cdd f1bd 8f3a e4bd 980c a3be b7d1 263e
00000360: 8c44 8d3c 3244 6ebb eebf 07be 6366 02bf
00000370: 2e3c cdbd 7745 d8be 9e8f c9be b866 adbe
00000380: bd0e 10bf f481 f33e d07b 9b3e d7b6 3e3e
00000390: 7e4f 3f3e 56e8 a4bb bb7b e93e fcff f03e
000003a0: b5c8 8c3e a8bc 973e ef3d 10bc aa7d 9a3e
000003b0: 77fe 873e 5952 513e 9476 1f3e 2fe4 aa3d
000003c0: 1ecb d03e 3398 bc3c 4b01 10be 857f 14be
000003d0: 33c3 39be 0026 473e 3d34 933d c2a5 9a3d
000003e0: e831 023b 8bd0 8dbe e3b3 dcbe 6aa0 d1be
000003f0: fd4e b9be 4eec efbe 0808 8ebe f8af bfbe
-0.25587314 -0.22543178 -0.1895704 -0.15923 -0.07142514 -0.20279445 -0.34837866 -0.27309373
-0.3898731 -0.24171214 -0.3373799 -0.2914965 -0.27000993 -0.40591186 -0.29620466 -0.3291849
-0.27574283 -0.35338372 -0.5200584 -0.34438676 -0.18875122 -0.24406697 -0.13918082 -0.16639142
-0.33004954 0.23796666 0.22470678 0.26197425 0.2925085 0.012819436 0.22586685 0.30708197
0.4552519 0.37854365 0.388284 0.31454688 0.32665613 0.5382416 0.5017669 0.42896917
0.40063855 0.362446 0.5417105 0.46118638 0.24371575 0.32903942 0.2551739 0.5107701
0.42860317 0.3615593 0.22249077 0.15102862 0.2081999 0.21538047 -0.068735294 0.19878007
0.20720448 0.3250068 0.13023539 0.14969742 0.0546449 0.11300445 0.2845937 0.24639058
0.08548169 0.2589183 0.33325335 0.5735822 0.3940911 0.26570156 0.14639524 0.20765205
0.4453326 0.3361537 0.27874517 -0.04109462 -0.02526005 0.13853681 0.1692552 0.087202355
-0.07533115 -0.031375963 0.04689405 0.20654933 0.16694054 0.12560934 0.19257838 0.5758319
0.7682912 0.50130284 -0.16268739 -0.102456056 0.13482437 0.3604694 0.31547913 -0.31134593
-0.25667334 0.06501582 0.21705306 0.13379294 0.017380271 -0.2128557 -0.07404702 -0.11545003
-0.0029359516 -0.05053784 -0.25706297 -0.2785468 -0.13366435 -0.17345116 -0.1759008 -0.1354395
-0.2112467 -0.29099402 -0.38263768 -0.22960512 -0.04696999 -0.104337774 -0.15543379 -0.25673193
-0.008868212 -0.11747168 -0.12544852 -0.21407115 -0.30178148 -0.065115735 -0.014220002 0.0036080563
0.14681341 0.13979408 -0.18769799 -0.05161754 0.13593341 0.33536932 0.2811791 -0.078354396
0.056898806 0.25880972 0.4174668 0.4129838 -0.380104 -0.18204828 -0.23766144 -0.00361089
0.112770505 -0.21643458 -0.15768208 -0.14388561 -0.042371895 -0.1773604 -0.40270606 -0.36119494
-0.5393865 -0.44549355 -0.44749388 -0.56341714 -0.6078822 -0.59574324 -0.36373726 -0.32898954
-0.3411462 -0.7547005 -0.7016058 -0.38015425 -0.041395746 -0.45483688 -0.5763977 -0.5403183
-0.41006795 -0.18953624 -0.585273 -0.45512933 -0.2667211 -0.17970997 -0.034222513 -0.1875356
-0.16679014 0.021347567 -0.018941214 -0.0076488755 0.04298901 0.16131125 0.0075468007 0.10133516
-0.044448923 -0.013829946 0.19284719 0.08004498 0.16075985 -0.072655424 0.19088736 0.17176065
-0.049588386 -0.019352084 -0.20074475 0.20075329 -0.0032154238 -0.24978653 -0.35819662 -0.53858745
-0.2088365 -0.1755058 -0.18228652 -0.19574904 -0.08794065 -0.042719215 -0.22922377 -0.175436
-0.15846379 -0.1952349 0.1376271 -0.042784277 -0.11809847 -0.11143982 -0.31845546 0.16290937
0.0172446 -0.0036356566 -0.13256809 -0.5093748 -0.10021244 -0.42240497 -0.39367384 -0.3386743
-0.5627249 0.47560084 0.303679 0.18624435 0.18682668 -0.0050325794 0.4560221 0.470703
0.27496877 0.2963612 -0.008803829 0.30174 0.2656133 0.2044157 0.15572578 0.08344304
0.40779966 0.023021793 -0.14062993 -0.1450177 -0.18140869 0.1944809 0.07187698 0.07551147
0.0019866172 -0.27698168 -0.43105993 -0.409427 -0.36193076 -0.46859974 -0.27740502 -0.3743894

module.net.conv2.bias f4 [16]
00000000: 0ebf 803d 5a82 84bf f4d7 d9be 722b 56bf
00000010: b9e3 7ebe 3dde 47bf aad2 11c0 5441 0bbc
00000020: ae08 97be deb5 afbd c2c6 d1be ed01 c6bf
00000030: 31c8 9bbf 269f 48bf b624 9dbf eab7 93bf
0.06286441 -1.035228 -0.42547572 -0.8366004 -0.24891557 -0.78073484 -2.278483 -0.008499462
-0.2949881 -0.0857961 -0.40971953 -1.5469338 -1.2170469 -0.7836784 -1.2276828 -1.1540501

module.net.conv3.weight f4 [120, 16, 5, 5]
00000000: eea6 603d 0a4a 87bc a387 79bd 4c41 2abc
00000010: 9658 8e3d f4e6 a43d 3d6c 243d 57a1 3dbe
00000020: cba7 913b 3086 b63d 7a7b b73c 026c 393d
00000030: e2a8 dbbd 0a09 4a3d c7f8 993d dd2a 163e
00000040: e037 aabb bd27 3bbd f261 a039 f19b a33d
00000050: 99eb d63d 17a9 673d f036 8f3b 013b bc3d
00000060: d825 d23d 9693 f3bc 6550 22bd a439 d0b8
00000070: 6632 103d fa4f 59bd bbd4 343c 0718 6ebd
00000080: 32b0 14bd 869a f7bc fb99 dabd 4f31 edba
00000090: 3b05 40bd fd0d 723d 3450 09be e4d5 05be
000000a0: 36f9 17bc 02b9 7bbd cceb a23d 5322 eabc
000000b0: 3aa4 0dbe 2adf 2a3d 35da 48bc dcd7 a6bd
000000c0: 9a4e 05be 351a 28be a9bf 8e3d 1eb7 033e
000000d0: ed4c d63d 13e7 b13d 9cd9 833d ce7e 79bd
000000e0: 083d d2bb 631b 443d eeda a33d 2417 143e
000000f0: 1494 90bd 6657 333d 875e 53bd 5966 9ebc
00000100: 9cee d03d 0156 5bbb 2bd6 e53d d871 213d
00000110: 78f4 483d 412f 613d c6d6 06bd 80a3 e63c
00000120: 0fd2 d43d a9e9 e7bb 1fb5 0f3c a600 3ebd
00000130: 8657 36be 213e 0dbe 9894 9cbd 7457 4ebe
00000140: 3b32 99bd 651f 683c 9604 1a3d 83fe cbbc
00000150: 4ebf e0bd 1276 85bd e29f 48bd e17d 0f3e
00000160: cd01 a2bd 860b b5bd f533 a0bd fa98 6abd
00000170: 0c81 603d c6ea debd e08d 93bd 9246 6fbd
00000180: f0ae debc ca60 253c 4dd6 8dbd cb62 d8bd
00000190: 6b84 e43d 8bf6 de3d c153 b93d 0df8 b03d
000001a0: fe26 0e3e 4368 ed3d 1e8b 583c 848c cdbd
000001b0: 9ba4 1e3d aace ed3d 869d 22bc 61b2 48be
000001c0: 419d a5bd f343 dabd c3f1 65bd a619 883c
000001d0: 1780 10be ed29 dd3c 1cda cabd a66f 15bd
000001e0: afab 1a3d 220f c53d b859 213e 2ed8 263d
000001f0: 7319 f6bc 4efd 87bd b390 22bc e83a 333d
00000200: 7fdf 44bd dfe3 6c3c 7e5f 0abe 6d4b 123d
00000210: 8a64 d73d 7a52 9a3d 5bc8 453d 9f4b 1e3d
00000220: d420 653d 4c40 bc3d 780c b7bc 43a0 1d3e
00000230: ac0f ffbb 512a b13d f778 7abc 20a6 2fbd
00000240: 1991 ef3d 1e4c 113d f5e1 173d 874f 103e
00000250: 5e08 353d d4b3 b63d b053 a6bd 8a17 6cbb
00000260: cbf4 9dbd 7d3e 25be 6170 16be 3ffa 1fbe
00000270: 3b72 563d d8c4 313d c76c 1cbe 0c82 f4bd
00000280: 20d0 96bd d1b7 6ebd 8489 933d 09e5 0fbc
00000290: 2a4d 55be 4fce cabc f829 83bc bc28 81bd
000002a0: 6a6c 13be 31e3 2fbe c695 03be c566 bfba
000002b0: 0f26 46bd eb21 92bd 01a5 dbbd 7b8f 023d
000002c0: d41a 0e3e e715 123e d4c1 863d d16d 973c
000002d0: 9fa9 f63d 95d6 193e 49af 123e 8417 3b3e
000002e0: c32e 833d 72a2 023e 3807 f13d fb63 dd3b
000002f0: 317f 2f3e 2cb2 9f3c b8b5 763d ee8b fe3d
00000300: ea4c db3c b350 183e 75b3 5b3c 546d af3d
00000310: 4ec9 ab3d 3f48 a13d 9f14 413e f325 8e3d
00000320: 77cf 183d 7e2b ad3d f108 083e 15ad b93d
00000330: d134 873d 64ba e3bc 4a05 55bc a601 d0bc
00000340: f344 1a3b 7a2a e23d b17b 1cbe 6330 42be
00000350: bbd5 d5bc 91a5 76bd 9aaa 6d3c e094 25be
00000360: a29e 81bd ee23 8d3c 64c2 abbd e699 a4bd
00000370: b48c 9dbc a4fe bcbd f75b 8a3d 2c06 8f3c
00000380: bebd bcbc 00a6 033e 5d02 fd3d 3036 163d
00000390: 14de c23d db28 c03d 1a4c ed3b 9f83 8bbd
000003a0: 7b6b dd3b a88c bbbd 697c a23c 2bd7 363d
000003b0: 0692 36be f6ba 1bbd 0a58 b8bd 463c 1cbd
000003c0: 9101 c33d e494 1dbd 1a3a 3a3c 03ae 0a3e
000003d0: 69a6 8dbd feb7 c43c d5cc 38bb f610 0dbd
000003e0: 2b50 183c 5ad0 c43c e8bf e83c b95b a33d
000003f0: 4bc1 243d 15c5 f23d 90ca ea3d 2b72 8e3d
0.054846697 -0.016514797 -0.06092037 -0.010391545 0.0695049 0.08051863 0.040142287 -0.18518578
0.0044450513 0.08912313 0.022397745 0.04526902 -0.10725571 0.049325027 0.07518154 0.14664789
-0.005194649 -0.045692194 0.00030590553 0.07988728 0.104941554 0.05655774 0.0043705627 0.091909416
0.10261124 -0.02973346 -0.03962745 -9.928949e-05 0.035204314 -0.053054787 0.011037047 -0.058128383
-0.036300845 -0.03022505 -0.10673901 -0.001809636 -0.04687999 0.05909537 -0.13409501 -0.13069874
-0.009275725 -0.061455734 0.07955131 -0.02858082 -0.13832179 0.041716732 -0.012259056 -0.08146641
-0.13018265 -0.16416247 0.0697015 0.12862822 0.10463891 0.08686652 0.0643799 -0.060911946
-0.006415967 0.04787768 0.08000742 0.14461952 -0.07059494 0.04378452 -0.05160382 -0.019335913
0.10201761 -0.003346801 0.1122249 0.03941521 0.04906127 0.054976705 -0.032919668 0.028154135
0.10391628 -0.007077415 0.00877121 -0.046387337 -0.17806825 -0.13793232 -0.076455295 -0.20150548
-0.07480284 0.014167641 0.03760203 -0.024901634 -0.109739885 -0.06516661 -0.0489806 0.14012863
-0.079105 -0.088400885 -0.0782241 -0.057274796 0.05481057 -0.10884623 -0.07204795 -0.05841691
-0.027183026 0.010093877 -0.0692564 -0.10565718 0.11158069 0.10886868 0.09049178 0.08641062
0.13882062 0.11592152 0.013216762 -0.10036567 0.0387312 0.11611684 -0.009925252 -0.19599296
-0.080866344 -0.106574915 -0.056138765 0.016613793 -0.14111362 0.02699753 -0.09904882 -0.03648343
0.037761386 0.09622027 0.15756881 0.04073351 -0.030041432 -0.06640111 -0.009922194 0.04375735
-0.048064705 0.014458626 -0.1351299 0.035716463 0.10517223 0.075352624 0.048286777 0.038646337
0.05593951 0.09191951 -0.022344813 0.15393166 -0.0077838507 0.08650649 -0.015287629 -0.04288304
0.11697597 0.03547298 0.037080724 0.14092837 0.044197433 0.08921018 -0.08121431 -0.0036024773
-0.07712706 -0.16137119 -0.14691307 -0.15622805 0.052355032 0.043400615 -0.1527587 -0.11938867
-0.073639154 -0.05828077 0.072039634 -0.008782634 -0.20830217 -0.024756579 -0.016011223 -0.063065976
-0.14396825 -0.1717651 -0.12850103 -0.0014602771 -0.04837614 -0.071353756 -0.10724831 0.031875115
0.13877422 0.14266168 0.065799385 0.018484982 0.120440714 0.15023263 0.14324678 0.18270689
0.064054035 0.1275728 0.11768955 0.0067563034 0.17138363 0.019494139 0.060231894 0.12429033
0.026770074 0.14874534 0.013409485 0.085657746 0.08388005 0.07875108 0.18855523 0.06940832
0.03730723 0.08455561 0.13284661 0.09066216 0.06601871 -0.027798839 -0.013001749 -0.025391411
0.0023539632 0.11043258 -0.1528156 -0.1896377 -0.026102891 -0.06021649 0.014506007 -0.16170073
-0.06329085 0.017229047 -0.083866864 -0.08037166 -0.019232132 -0.09228256 0.06755822 0.017458998
-0.023039695 0.12856293 0.123539664 0.03667277 0.09515014 0.093827926 0.007241738 -0.06812214
0.0067571974 -0.091576874 0.019834714 0.044638794 -0.17829141 -0.038020097 -0.09001167 -0.03814342
0.09521783 -0.03847207 0.011366392 0.13542943 -0.06916506 0.024013516 -0.0028198261 -0.034440003
0.009296457 0.024025131 0.02841182 0.07976479 0.0402234 0.11853997 0.11464417 0.069553696

module.net.conv3.bias f4 [120]
00000000: 70d2 163d b472 b93e 3f33 36be 025b 80bd
00000010: e41b d2bd 43bf ddbd a918 35bc ae76 a03d
00000020: 743c 4bbc db4c 293e d2c7 9dbb d020 cbbe
00000030: 23c8 b7bd 6aa5 713e b50a 543e e836 223e
00000040: b64d b4bd d928 5ebe 364f 253d 8a7d acbd
00000050: ac6d 37bf c18d 08be 4367 a73d 948c ab3e
00000060: 4386 08be 233a 38bd 6e08 0a3e af1b 943e
00000070: e325 6a3d 528a fe3d 55c5 133e 521a 85bd
00000080: 7876 1e3e 5253 adbe 3bbd 1dbe 1cc7 c9bd
00000090: b0cc 6dbd 5e2e 1a3e 5e1a d93c 5238 63be
000000a0: f7b0 153d 476c 023d cad0 12be 10d8 84be
000000b0: 92b7 ecbd 45e5 363e b2d2 7b3d 8589 353d
000000c0: 00f2 953c 1b80 26be 64fb d4bd 773b 403e
000000d0: 8559 123e f6ed 93bd eecb 71be f718 143f
000000e0: 290a 573e a019 303e 5615 673d 60ff 3f3e
000000f0: dba0 753d 7fa2 fa3d 37b3 833e 6a85 48be
00000100: 016c 28bd b864 c5be 7a82 5c3d 0aee 03be
00000110: 07fd 0cbe 4ffb f5bd a7d3 8dbd 2c36 db3d
00000120: f139 13be fb83 7cbe f296 3f3d faf6 33be
00000130: 44f8 01bc 4a99 75be 5601 93bb 25f6 0d3e
00000140: 869e 5d3d 494c 5dbe fc51 2ebd 6f1f 9ebd
00000150: a0cf d83d c398 ad3d f0bf 243e e8f8 9a3e
00000160: dcf7 50be a450 8a3d e0b2 9abd 1544 93be
00000170: 9819 46be 2563 153e f719 f8bd b9f5 59be
00000180: bcd5 61bd 5667 2f3d 368c 743d d559 9e3c
00000190: e95e 2ebe 6618 9dbd da1a 5c3e c0ff 913d
000001a0: 7cb5 f5be 8e35 0fbe 1baa 273e ef1c 673d
000001b0: 72ae 69bc 260c 18be 90f2 763e 3c8f f2bd
000001c0: 51c5 60be b604 993e 6e6f be3d bb25 573e
000001d0: 8d4a 0f3e c9a8 623e 0881 a83c 7915 64bd
0.036821783 0.36220324 -0.17792986 -0.06267358 -0.10259226 -0.10827496 -0.011053243 0.07835136
-0.01240455 0.16533224 -0.00481508 -0.3967347 -0.0897372 0.23598257 0.2070721 0.15841258
-0.08803885 -0.2169527 0.040358745 -0.08422382 -0.7165172 -0.13335325 0.081739925 0.3350569
-0.13332467 -0.04497732 0.13479778 0.2892737 0.057165038 0.12428726 0.14430745 -0.06499161
0.1547488 -0.3385263 -0.15404217 -0.0985243 -0.058056533 0.1505675 0.02650183 -0.22189453
0.03654572 0.031841543 -0.14337459 -0.25946093 -0.11558451 0.17860897 0.06148023 0.044320602
0.018303871 -0.16259806 -0.103995115 0.18772684 0.14291961 -0.07223122 -0.23612949 0.57850593
0.2099997 0.17197275 0.056416832 0.18749762 0.059967857 0.12238025 0.25722668 -0.19582143
-0.041118626 -0.38553405 0.05383537 -0.12883773 -0.13768397 -0.12010824 -0.06925135 0.10703692
-0.14377572 -0.24659722 0.046774812 -0.17574683 -0.007932726 -0.23984256 -0.0044862432 0.13863428
0.054106258 -0.21611132 -0.042558655 -0.07720839 0.10586476 0.084764026 0.16088843 0.30268025
-0.20407051 0.06753662 -0.07553649 -0.2876288 -0.193457 0.14588602 -0.121143274 -0.21285142
-0.055135474 0.04282316 0.059704028 0.019329945 -0.17028393 -0.07670669 0.21494618 0.071288586
-0.47990024 -0.13985273 0.16373484 0.056424078 -0.014262782 -0.14848384 0.24115968 -0.11843726
-0.2195027 0.29886407 0.09298597 0.21010487 0.13993283 0.22134699 0.02056934 -0.05568454

module.net.fc1.weight f4 [84, 120]
00000000: d8a4 a93d d9ad 8abe 14a0 f2bd 6a2d 193e
00000010: 08c7 ae3e 3c3f 64be 5536 8dbd 225b a1bd
00000020: 048d f63d 0d4d 9dbe d34f 69be ff74 cd3e
00000030: dc2a 9abe 66c9 83be c349 32bc 81ab e7be
00000040: a396 b33e 9a46 d6bc e392 303e 0364 82be
00000050: d6c5 e33e db28 72ba a754 02be a93c f4be
00000060: 83bf e33e 9cb7 4cbd bf4f 1dbc e397 dabe
00000070: 67af d4be b466 cabe b1df f6bd 14ed c33e
00000080: 7638 e13d 5dd6 b13e 29ef a93e 10b6 ab3e
00000090: 0842 a93d 9213 d0be 34a7 4dbe 7efe 063f
000000a0: f03a 38be 57fb 183d 5240 23be 8452 f43e
000000b0: ca19 9b3e f3a5 86be a1c0 38be 340c 06bf
000000c0: c3a1 eb3d 9b7f d43e 79e0 fd3e 70a7 3b3e
000000d0: 6fc2 8cbe 528d af3e 5345 383e 9013 f9bd
000000e0: 1290 00bf f8e6 55bc c4a7 c23d 5b32 c1bd
000000f0: c38a 923e f0c7 bbbe 8141 80be a91d 90bd
00000100: 0521 ca3e 77ea 9a3e 4dea 833e 4726 d33e
00000110: 315a d23e df84 343e 9782 653e 5141 573d
00000120: e3df bbbd 38a7 213e 818e 253e 56d4 19be
00000130: 086a f4bd 76c1 603e 0ffd 9c3d 1c6d b33d
00000140: 4f35 cebe c0e9 e13e 80d3 313e 15bf b1bd
00000150: 5906 ed3c 9f01 e9be 49f1 56bd 5196 b3be
00000160: f7e6 073f 8967 ac3e 928b 50be 39ed 4c3e
00000170: 9480 bf3e ee03 e2bc 4653 b33e 7f86 033f
00000180: 727e a03c 6d25 793e 7bf9 283e 3a9c f03d
00000190: 8551 303e 38b1 21bd 49bc 57bd 3fce ab3e
000001a0: a4a0 003f 7fba 983e 836d 73be 1884 b6be
000001b0: b753 b3bd c46c 71be abda 82be fcd3 883e
000001c0: 0e1e 21be 6c06 cabe d064 f5bd 1f89 9c3e
000001d0: 7a3c 9abd 7f48 ccbe e9c5 a33e 3d7e 46be
000001e0: e540 13be 970e b5be fdbb ccbc 9a34 913d
000001f0: 2e41 5b3e 188a 86bd 9e94 d43d a4d6 903e
00000200: 524b 1b3e 4e41 a3be 1c8d 0c3e f02e 1d3e
00000210: 4c23 44be d7aa a5be e6c1 9fbe 9043 76be
00000220: a825 f1bd 1e9a f93d 2e3d cbbd d4c7 fe3d
00000230: a825 723e 6326 c13d 1c1c 01be 8ebe 5fbe
00000240: 8cb4 383e ce2d 103e 255c 88bd 84b5 d8be
00000250: e47f 29be 4059 78be 13b3 83be 5f73 9f3e
00000260: 719b 11be ed45 763d e9c9 443e 4de6 133e
00000270: eb10 cfbc 49c3 0fbe 5b57 9d3c ef41 e63e
00000280: 4fc6 233e 21b5 bcbd a028 e6bc ebe0 d73e
00000290: a5d0 22bd 0cab 9b3c 4b0d acbe 082f d2be
000002a0: 8bc1 02be 7761 443e 624b a03e 1f15 63be
000002b0: 3cf0 b3bd 62c4 db3d 9791 443e 2cc2 15bd
000002c0: b86d 0dbf a37d 603d be93 2d3e 68be 9cbd
000002d0: 81bb 023f 2092 cfbd 624a 66be 0cc2 62be
000002e0: 7cd1 a43e da38 223e 30c4 0d3e 02c3 ff3e
000002f0: ec23 b53e ed7b 0e3e c2fc e03e bf12 4bbd
00000300: b182 ab3d d851 793d ae24 a7bd 9777 093e
00000310: 3561 23be 2026 6b3d 1034 ad3b 26b4 00be
00000320: 831a 45bd a4ef 803e 5ced e6bc e772 eb3c
00000330: 1bb8 6ebe 5bef 2dbe da5d 963c 142b 4abe
00000340: 71b4 cb3d c2ad 5fbc f866 ed3b 3559 783e
00000350: 7c11 933e 0dac 8f3b e00d c73e 495a e43d
00000360: d518 7c3e 6da0 dcba 879f 9a3d b0e6 6bbd
00000370: 33d0 bf3e 7e22 44bd ae93 033d 9c2b 9a3e
00000380: 7882 ef3d 4e3a 973e 735e 9ebe 2989 e7be
00000390: ede1 e23d 5d34 7e3d c0fa 96be 82aa bd3e
000003a0: c8c7 ab3d 8a26 8abe b2e7 3e3e 6a56 1a3e
000003b0: 004c 08be 96d6 96be 118d 523e d662 f33c
000003c0: 642d 9f3e 3289 1e3d 8a69 59be a79e b7be
000003d0: 8db0 063d 4aaa 69be 2df1 38bc 7430 8e3e
000003e0: 664a 55be 83e8 f8bc 9896 96be 2c7d 9fbc
000003f0: 6fb1 963d 1037 373e 7999 053e 468b 7a3d
0.082833946 -0.2708576 -0.11846939 0.1495873 0.34136224 -0.22289747 -0.06895129 -0.0787871
0.12038615 -0.30722848 -0.22784357 0.40128323 -0.30110824 -0.25739592 -0.010881844 -0.45248035
0.35075864 -0.026156712 0.17243533 -0.25466928 0.44486874 -0.00092376553 -0.12727605 -0.4770253
0.4448205 -0.04997979 -0.0096015325 -0.42694005 -0.4154007 -0.3953148 -0.120543845 0.38266814
0.10997097 0.3473386 0.33190277 0.3353734 0.082645476 -0.4063993 -0.20083314 0.52732074
-0.17991233 0.03734907 -0.15942505 0.47719204 0.30293113 -0.26298484 -0.18042232 -0.5236237
0.11505463 0.41503605 0.49585322 0.18325591 -0.2749209 0.34287506 0.17995195 -0.121619344
-0.50219834 -0.0130555555 0.09504655 -0.09433433 0.28621492 -0.36675978 -0.25049976 -0.07036907
0.39478317 0.30257007 0.25764695 0.4124014 0.41084436 0.17628811 0.22413097 0.052552525
-0.091735624 0.15786445 0.16167642 -0.15022406 -0.11934286 0.219488 0.076654546 0.08761045
-0.40275046 0.4412365 0.17365837 -0.08679024 0.02893369 -0.4550905 -0.0524762 -0.3507562
0.530868 0.3367274 -0.20365742 0.20012368 0.37402785 -0.027589764 0.3502447 0.513771
0.019591544 0.24330683 0.16501419 0.11748548 0.17218597 -0.03947565 -0.052669797 0.3355579
0.5024512 0.29829785 -0.23772244 -0.35647655 -0.08756202 -0.23576647 -0.25557455 0.2672423
-0.15734121 -0.39458025 -0.11982119 0.30573365 -0.07531066 -0.3989906 0.3198693 -0.19384094
-0.14380224 -0.35362694 -0.024991984 0.07090111 0.21411583 -0.06569308 0.10379909 0.28288758
0.15165451 -0.3188576 0.13725704 0.15349936 -0.1915409 -0.32356903 -0.3120262 -0.2404921
-0.117747605 0.12187599 -0.099237785 0.12440458 0.23647177 0.0943115 -0.12608379 -0.21850035
0.18037623 0.14079973 -0.066582 -0.42325985 -0.16552693 -0.24252796 -0.2572256 0.3114271
-0.14219452 0.06012528 0.19217648 0.14443322 -0.025276622 -0.14039339 0.019206693 0.44972178
0.15993617 -0.09214235 -0.028095543 0.42163786 -0.03974976 0.01900246 -0.33603892 -0.41051507
-0.12769143 0.19177805 0.31307513 -0.22176026 -0.087860554 0.107308164 0.19196163 -0.03656213
-0.5524554 0.054807317 0.1695089 -0.076535046 0.5106736 -0.10135293 -0.22489312 -0.22144336
0.32191074 0.15842 0.13844371 0.49953467 0.3537897 0.13914461 0.4394284 -0.049578425
0.08374537 0.060869068 -0.08161293 0.13424526 -0.1595505 0.057409406 0.0052857473 -0.12568721
-0.048120987 0.2518283 -0.028189354 0.028741313 -0.23312418 -0.16985838 0.018355299 -0.19742996
0.09946526 -0.013652267 0.007244941 0.2425278 0.28724277 0.0043845237 0.38877773 0.11150033
0.24618848 -0.0016832479 0.07549959 -0.057593048 0.3746353 -0.047884457 0.03212326 0.30111396
0.11694807 0.2953667 -0.30931434 -0.45221832 0.11078248 0.062061656 -0.29488182 0.3704415
0.083877146 -0.26982528 0.18643072 0.15072027 -0.13310242 -0.2946059 0.20561625 0.029710215
0.31089318 0.03870506 -0.21231666 -0.3586323 0.032883216 -0.22818866 -0.01128797 0.27771342
-0.20829162 -0.030384308 -0.2941177 -0.019468866 0.073580615 0.17892098 0.13046826 0.061167978

module.net.fc1.bias f4 [84]
00000000: f329 dbbe 1766 a0be 1031 36bd a925 033e
00000010: 2f52 cd3e e051 d73e 7e2e b03d 547a 453e
00000020: cb2e 48be 9095 ad3c efe0 403f 07f2 033f
00000030: 3ad9 4f3e c9b2 80bd be9d df3c 3876 233f
00000040: 720a 02bf b193 20bf f1ea 15bf 2867 433f
00000050: a74e b43e 7df4 803e 3159 5dbf c68b 57be
00000060: 3c2c 613e a725 53bf 0cec c1be 578d 033e
00000070: 3f25 36bf b976 e03e 0787 193f 8a20 bdbe
00000080: 9ba2 abbf 2b1d ccbe 60cc a7be e95c 143d
00000090: bdaa b1be 7de8 59bf 937d d4bd db7d ed3e
000000a0: 54be 423d c556 043f 5038 d8be 7244 d8bd
000000b0: 3085 19bf 3127 3ebd 22ec 883e f7b1 48bf
000000c0: 8f74 5f3e d3b3 793e 300c 823f 0f0f 993e
000000d0: e40d 883e 7d16 f53c b2ea 83bf 9969 963f
000000e0: 211f efbe 9e40 423f ae99 c9be 69f3 ce3e
000000f0: a9db 51be 150a 673f 016a d13e b812 273f
00000100: a08e 113e d5cc 773f ee69 2d3e df5e c63f
00000110: 3132 8cbf 921c b13d 7fde d73e 337c 34bd
00000120: 1dc9 213d 26e3 2d3e 62b6 6abd 28e1 f83f
00000130: 9599 ba3e 8738 91be abd4 513f fd7d 45bd
00000140: d15b 3c3e 8c3d c83e 0a40 363f 98a7 2a3e
-0.42805442 -0.31327888 -0.044480383 0.12807335 0.40101764 0.42054653 0.08602618 0.19284946
-0.195491 0.021189481 0.7534322 0.5154118 0.20297709 -0.062841006 0.027296897 0.6385226
-0.5079719 -0.6272536 -0.5856162 0.7632928 0.35216257 0.2518653 -0.8646422 -0.21049413
0.2198953 -0.8247933 -0.37875402 0.12846886 -0.71150583 0.43840578 0.5997166 -0.36938888
-1.3408998 -0.39866003 -0.32773113 0.03622142 -0.34700575 -0.85120374 -0.10375514 0.46385083
0.047544792 0.516949 -0.42230463 -0.1055993 -0.59968853 -0.046424095 0.26742655 -0.7839655
0.21821807 0.24385004 1.0159969 0.298943 0.26573098 0.02991795 -1.0305998 1.1750976
-0.46703437 0.7587985 -0.3937506 0.40420082 -0.2049395 0.9024976 0.40901187 0.6526294
0.14214563 0.96796924 0.1693494 1.5497702 -1.0952817 0.086480275 0.4216194 -0.044063758
0.039498437 0.16981182 -0.05730284 1.9443712 0.364453 -0.2836344 0.8196513 -0.048215855
0.183944 0.39109457 0.71191466 0.16665494

module.net.fc2.weight f4 [10, 84]
00000000: 7092 ba3e c64d aabd f667 1abf e975 babf
00000010: 97b1 35be 8277 2cbd 470d ff3d 8511 f63e
00000020: 160e 063d 63f0 42bf 3626 f23f deae 0bbf
00000030: 5bdd b0bf c53d cabf 380f 0240 65a0 ed3f
00000040: 50c0 863e 9a6e 1c3f 9753 ae3e 6e03 98be
00000050: b17b 07bf 5cc1 75bf 5d89 473e 6e47 303f
00000060: 17dc 9e3f 96a7 fb3e a79d cc3d 1697 bdbe
00000070: aa92 dd3e a5aa 6bbe 4736 ddbe 5064 263e
00000080: b42f 51bf bdfe 78bf 2418 b83f a818 2dbf
00000090: cf2c 943e e32a 2e3e 2f38 413e 74c2 9bbe
000000a0: e4dd 5e3f 46af 94be a9d3 1c3f be42 f3be
000000b0: 8560 723e b7ae 6f3f 0046 1d3f a1da 1e3d
000000c0: f8df 0a40 c398 ee3f 96c4 0840 4fd5 bb3e
000000d0: 9517 88bf c9ee 363c 66c1 f6bf 25f9 15bd
000000e0: bc4d 153e 3dbe 08bf 8d86 6b3e d4e2 56bf
000000f0: db79 933f 627a 02bf 4fc5 88be 01b8 d7bc
00000100: 2911 67bf cb13 453f a274 4bbd 28de 82be
00000110: 1e86 543e 6274 afbf b6c9 acbf 8f4f d13f
00000120: 386e 333e 4fa6 9cbe 4f56 9c3f 3bd3 a3bf
00000130: 3c69 1abf edfa e0bf 8cb4 903f 6962 11bf
00000140: 2da0 42bf 5a36 09bf 3490 1340 53c8 48be
00000150: 5cc8 a6bd f33a e6bd 2717 99bf 94fa 463f
00000160: 5c9a b63e a5a2 a1bf 4a92 f0bf a4d9 06bf
00000170: 1a62 a43f 4713 58be b2e1 6bbb 13b1 3dbf
00000180: 0596 6fbf 9623 0cbd e33a f8be ab8d 56be
00000190: 836a f6bd 4f93 1abf 3214 1ebe a960 0e3f
000001a0: 568a b93e 9bab b0bd d029 2dbc 5234 c2be
000001b0: f50a 5fbf b200 55be 4460 9c3e cd6c 2dbf
000001c0: cfc3 a3be 7ca0 f03d adb1 603e 9d23 8c3f
000001d0: 4c1e 1ebf c912 84bf bc7f 353e a697 0f3e
000001e0: 560a 07bd 24ae bdbe af48 1e3f b754 b9be
000001f0: f804 0b3f 3985 ab3e 93b3 563f 49e9 a4bf
00000200: 7c25 85bd fc46 ef3e eae0 86be 4dd7 5bbe
00000210: fc20 d6be 8cac 1d3e 9482 ccbe dc05 ad3e
00000220: 1e69 86be 3ff7 2a3f 79a3 d03e b728 f6bc
00000230: 4ab2 80be 5ba1 6abe 8dac c23e db03 753b
00000240: 508b 66bd 15aa 28bd 87fd 5cc0 f7c9 813d
00000250: 3ebb 7d3f 9e52 1e3e 3aa1 8ebe ed30 69bc
00000260: a43e bfbe ff46 c93f c779 7bbf ecaf a0be
00000270: c58c 933f c5ea a8bf 2e4b 0fbe 7252 80bf
00000280: 922a 023f 45d3 87be 8854 72be f579 ed3e
00000290: 7dbd 173f eae4 fa3d 1077 19bf 251c cbbe
000002a0: a1c6 e23f 818b fe3f 1747 09c0 4789 31c0
000002b0: b69a 4dbf 408f a1be a24e 36c0 281a 5440
000002c0: 7cc1 af3e f96e 85bd c75b 0ebc d46e 51bf
000002d0: a027 8c3f 19bf 3840 287c e9bf 1454 83bf
000002e0: af71 e43f a213 0540 381e cf3f bb82 d5bf
000002f0: dfb3 b7bf 746c 1fbf 2533 ff3f 1091 dd3f
00000300: cc46 1ac0 7599 0440 a846 e23f 89a2 253d
00000310: 98ff 863f c346 68bd 5e1f f3bf 9685 3b3e
00000320: 1462 b4bf e2c8 c1bf 6e1d 0740 9494 01bf
00000330: 4d8c c73f acb0 833f 4cac a83f c4fa d8bf
00000340: 800f 6a3e db13 0dc0 d32d ad3f 926c 9fbd
00000350: 1e1e 1740 255c 353e 298e 55c0 94ee 1540
00000360: 70c2 28c0 c91e 16c0 f3f7 81bf f6e9 8c3e
00000370: a625 c2be b234 6f3d 2245 113f e073 c6bf
00000380: 7d9e d03f 54e3 05c0 400f a23e e8b9 05c0
00000390: 1736 bd3f c35a efbf 0761 f23f 0323 01c0
000003a0: ba05 21c0 d389 8bbf ed38 72bf 172f 82bf
000003b0: 6abe 13bd 2cc4 963e d92a 2ac0 03f2 8ebd
000003c0: 7024 2c3e 684b e83f 4517 183f 173f 52be
000003d0: e722 dabf 4025 a23e 1fd1 d2bf 109e ccbf
000003e0: 92cc a5bf 0542 02c0 afeb 6bbf 4f73 94bf
000003f0: da22 19c0 e8ba 0bc0 877e 493e 2f4b 0040
0.36439848 -0.08315615 -0.6031488 -1.4567233 -0.17743526 -0.04210616 0.12453704 0.4806024
0.032728277 -0.7614805 1.8917911 -0.545637 -1.3817552 -1.58001 2.0321789 1.8564574
0.26318598 0.61106265 0.3404815 -0.29690117 -0.52923113 -0.9599817 0.19485994 0.68858993
1.2410916 0.49151295 0.09991007 -0.37029332 0.43275958 -0.23014314 -0.43205473 0.16249204
-0.81713414 -0.972637 1.4382367 -0.6761575 0.28940436 0.17008547 0.18869089 -0.30421793
0.8705733 -0.29039973 0.6126047 -0.47511858 0.23669632 0.9362597 0.61434937 0.03878272
2.16992 1.8640369 2.1369987 0.3668618 -1.0632197 0.011165329 -1.927777 -0.036614556
0.14580435 -0.5341528 0.23000546 -0.8393986 1.1521562 -0.5096799 -0.26713035 -0.026332857
-0.9026056 0.76983327 -0.049671777 -0.25560117 0.20754287 -1.3707392 -1.3499057 1.6352404
0.17522514 -0.30595633 1.2213839 -1.2798837 -0.60316825 -1.7576576 1.1305099 -0.56790787
-0.7602566 -0.5359856 2.3056765 -0.19607668 -0.08143684 -0.112417124 -1.196019 0.777261
0.35664642 -1.262776 -1.8794644 -0.52675843 1.2842438 -0.21101104 -0.003599268 -0.7409832
-0.93588287 -0.034213625 -0.48482427 -0.2095248 -0.12032034 -0.60381025 -0.15437391 0.5561624
0.36238354 -0.08626481 -0.010569051 -0.37930542 -0.87126094 -0.20801046 0.30542195 -0.6774414
-0.31985328 0.1174936 0.21942778 1.0948368 -0.6176498 -1.0318233 0.17724508 0.14022693
-0.03296884 -0.3704692 0.61829656 -0.36197445 0.54304457 0.33500078 0.8386776 -1.2883693
-0.0650129 0.46733844 -0.2634347 -0.2146885 -0.4182204 0.15397853 -0.39943373 0.33793533
-0.26252073 0.6678352 0.4074972 -0.030048711 -0.25136024 -0.22913115 0.3802227 0.0037386331
-0.056285203 -0.041177828 -3.452974 0.0633735 0.99113834 0.15461203 -0.2785738 -0.014232856
-0.37352479 1.5724791 -0.9823269 -0.31384218 1.1527334 -1.3196646 -0.13993523 -1.002516
0.5084621 -0.26528373 -0.23665059 0.46382108 0.5927351 0.12250693 -0.599473 -0.3966991
1.7716867 1.9886323 -2.144964 -2.7740037 -0.80314195 -0.31554604 -2.8485494 3.3140965
0.34327304 -0.06515307 -0.008688874 -0.81809735 1.0949593 2.8866637 -1.8241014 -1.0260034
1.7847193 2.0793233 1.6181097 -1.6680521 -1.4351767 -0.6227486 1.9937483 1.7309895
-2.410571 2.0718663 1.7677813 0.04043821 1.0546751 -0.05670811 -1.8993948 0.18312678
-1.4092431 -1.513943 2.1111712 -0.5061734 1.5589691 1.0288291 1.3177581 -1.6951528
0.22857475 -2.204337 1.352961 -0.0778438 2.3612132 0.17710932 -3.3368018 2.3426867
-2.6368675 -2.345629 -1.0153793 0.27522248 -0.37919348 0.058399864 0.56746113 -1.5504112
1.6298367 -2.092 0.3165226 -2.0894718 1.4782132 -1.8699573 1.893586 -2.017762
-2.5159745 -1.0901436 -0.9461811 -1.0170621 -0.036070265 0.29446542 -2.6588652 -0.06979754
0.16810775 1.8148012 0.59410506 -0.2053188 -1.7041901 0.31669044 -1.6470069 -1.5985737
-1.2953055 -2.0352795 -0.921565 -1.1597689 -2.3927522 -2.1832829 0.19677173 2.0045888

module.net.fc2.bias f4 [10]
00000000: ecf9 1fbf cef2 9f3e 0253 7abf 4a57 09c0
00000010: 32f5 263f c6bf 903f 2ce2 233f b118 423e
00000020: e406 1b3e 2829 043f
-0.62490726 0.31239933 -0.9778291 -2.1459527 0.6521789 1.1308525 0.64016986 0.18954732
0.15139347 0.516253
