models/pretrained/MNIST/optimal_UA_for_lenet_w_acc_98_Optimal_U_MNIST_stellar-fog-9.pt (torch, 250119 bytes, 10 tensors)

module.net.conv1.weight f4 [6, 1, 5, 5]
000000 e1 4a 97 bb d2 fe 6f be d5 c4 2b bd 8b 89 e6 bd
       -0.0046170806 -0.2343705 -0.04193576 -0.11256703
000010 04 99 56 be de d2 d0 3b ce 98 c5 bd 56 04 1c 3d
       -0.20956808 0.0063727936 -0.09648286 0.038090073
000020 79 e7 da 3d b8 f7 bf 3e 55 39 90 bb 92 94 e6 3d
       0.10688681 0.37493682 -0.0044013658 0.11258806
000030 0c 67 2f 3e 41 63 c9 3e 67 3c fb 3e 1a 73 14 be
       0.17129153 0.39333537 0.4906952 -0.14497033
000040 1e 67 02 3e 95 a0 8d 3e 32 15 c7 bc 0d 9e 78 3c
       0.12734649 0.27661577 -0.024302099 0.015174401
000050 41 52 a6 3e 66 1a ab 3e 40 26 8a 3e d8 93 a9 3d
       0.3248463 0.33418578 0.26982307 0.08280152
000060 64 bd 9d be b1 50 f7 3d 53 f9 91 bd 4d 14 bc bd
       -0.30808556 0.120759375 -0.07127633 -0.091835596
000070 b7 99 31 3d 74 26 db bd aa cc 53 3e c3 12 65 bd
       0.043359485 -0.10700694 0.20683542 -0.055926096
000080 72 32 13 be 00 3d 62 be 93 76 e2 3d 2e 3c b1 3c
       -0.14374712 -0.22093582 0.110577725 0.021635141
000090 5b cd 90 be 4e 60 ce be e7 fd 3a be 51 9e 33 3e
       -0.28281674 -0.4030785 -0.18260919 0.17540862
0000a0 93 fd ce 3b f4 2d 12 be 78 bb 5d be 5e b0 55 3e
       0.0063168495 -0.14275342 -0.21653545 0.2086806
0000b0 df e7 b7 3e 1f 3b 24 bc e8 dd de bc b0 6b 95 bb
       0.3591909 -0.010023861 -0.027205423 -0.0045599565
0000c0 db e5 09 3d c2 df 75 3d ea ae 20 3e 57 af 24 bd
       0.033666473 0.060027845 0.15691724 -0.04020628
0000d0 4e c5 2d be e3 29 87 be 1a 66 51 3c 2e 1d 36 3c
       -0.16969797 -0.26399145 0.012780691 0.011115355
0000e0 1b f7 b2 3d ce da 85 be 6a 17 85 be fe 6d 44 3d
       0.08738538 -0.26143497 -0.25994426 0.04795646
0000f0 69 07 02 3e 24 8d 89 bd 9c 74 76 be 65 a9 94 be
       0.12698139 -0.067163736 -0.2406792 -0.29035488
000100 2b 1a a5 3d c7 d7 0c 3e a3 91 98 bd fb 04 5c be
       0.08061632 0.13754188 -0.07449653 -0.21486275
000110 29 a5 3f be c0 6a 5d 3d 5c 77 ba 3d c4 9c b9 3d
       -0.18715347 0.054056883 0.09104797 0.09063104
000120 c6 9a 83 be ce 34 13 be 01 25 ab 3c ce 93 cf be
       -0.2570402 -0.14375612 0.020891668 -0.40542454
000130 6d d3 43 bd 29 64 c3 3c dc ef ef 3d bf 8e 75 3e
       -0.047809053 0.023851471 0.117156714 0.23980235
000140 e6 1b 0e be 7f b9 cc be 66 18 b4 be 8b a9 c9 be
       -0.1387783 -0.39985272 -0.35174865 -0.39387164
000150 c8 9a 8f be a7 bb 0b 3e 6b d1 e3 3d 6c 16 a7 bd
       -0.28047776 0.13645802 0.11123928 -0.081585735
000160 e3 49 f0 bd fb fa a5 be 83 99 12 bd 1d e5 54 3d
       -0.11732843 -0.32418045 -0.03579093 0.051976312
000170 16 1c 27 3e 00 3f ee 3d cc 2a 2b bd 9f c0 01 3e
       0.16319308 0.1163311 -0.04178886 0.12671135
000180 8c 1e 94 bc 08 b3 6f 3c bd 5a a4 bb e6 6f a2 bb
       -0.018080972 0.014630087 -0.0050156997 -0.004957187
000190 f0 0f 90 3e 40 58 2a 3e 4f 83 42 3e 52 40 30 3e
       0.2813716 0.16635227 0.18995403 0.17212036
0001a0 cd e4 de 3d ea cb 8a 3d 7f cb dd bc 15 e7 a9 bd
       0.10883484 0.06777175 -0.027074574 -0.082960285
0001b0 69 06 bb bd 4d 38 fc bd 6c 13 ef bc e4 6c 09 be
       -0.09132082 -0.12315426 -0.029184066 -0.13420445
0001c0 c9 66 7d be 89 11 a4 be a8 ba 9a be 66 1e 7f be
       -0.2474624 -0.32044628 -0.30220532 -0.2491394
0001d0 29 ff af be 9e ee c4 be c4 35 03 be 7e b6 86 3d
       -0.3437436 -0.384633 -0.12813479 0.06577776
0001e0 06 f4 45 3c 58 c6 52 bd 2c 36 8a 3e a2 d0 2d 3e
       0.0120821055 -0.051458687 0.26994455 0.16974118
0001f0 2a 25 16 3e 29 27 8f be d1 b1 e0 be bc af 03 be
       0.14662614 -0.27959564 -0.43885663 -0.12860006
000200 fc ce 38 3e ba 10 4b 3d 18 f4 6c be e5 ee 8a be
       0.18047708 0.0495765 -0.2313999 -0.27135387
000210 a4 67 00 be 8a 81 9f be 46 98 d1 bd 52 f7 1c 3e
       -0.12539536 -0.31153518 -0.10234122 0.1532872
000220 02 61 b8 3e c3 6c 83 3d dc bc 8f be bb 45 af bd
       0.3601151 0.06417229 -0.28073776 -0.08558222
000230 24 40 bf 3e 3e bc a1 3e b8 c6 a6 bd ff e1 71 3b
       0.37353623 0.3158893 -0.08143371 0.0036908386
000240 45 ae 24 be fa 41 52 bd d4 d4 14 bc f4 ad 36 3e
       -0.16082104 -0.05133245 -0.009083945 0.17839795
000250 95 e2 b4 3e d1 12 a3 3c
       0.35329118 0.019906433

module.net.conv1.bias f4 [6]
000000 60 af 67 bc 69 3d bf be 30 61 07 be 74 17 e9 be
       -0.014140934 -0.3735154 -0.13220668 -0.45525706
000010 6c 78 11 bf 5d 51 55 3d
       -0.56824374 0.052079547

module.net.conv2.weight f4 [16, 6, 5, 5]
000000 62 e6 80 be 4e 62 e9 bc bb 89 8c 3d 30 52 97 bd
       -0.25175768 -0.028489258 0.068622075 -0.07388723
000010 94 d8 7f be 72 af ad 3c 54 d4 59 3c 26 ee 32 3e
       -0.24984962 0.021201823 0.013295252 0.17473659
000020 fe ac d6 3c b0 da f6 bc ef 39 7d bd e3 88 25 be
       0.026205536 -0.030133575 -0.061822828 -0.161655
000030 09 c2 43 3d 86 b5 9f 3d 54 41 e7 3c 01 5a 33 be
       0.04779247 0.07798295 0.028229393 -0.17514803
000040 94 2b 05 bd 32 3b 80 3d 6e ce 0f 3e d0 1a ec 3d
       -0.032512262 0.062612906 0.1404359 0.115285516
000050 05 eb 89 be 75 e2 8d be 6d c3 3d be 5e 5f b4 bd
       -0.26937118 -0.27711836 -0.1853158 -0.08807252
000060 b1 a4 82 be f7 fd 89 3d 3c 6a b2 bd 93 c9 f0 bd
       -0.25516275 0.06737893 -0.08711669 -0.11757197
000070 79 f7 4b be ad 81 fd 3b 63 08 b4 bd 33 a5 b1 be
       -0.19918622 0.007736406 -0.08790662 -0.3469635
000080 60 80 b0 be c1 c4 50 be df 68 9a bd ba 48 b9 3d
       -0.34472942 -0.20387556 -0.07539534 0.090470746
000090 13 72 db 3d 01 42 66 bd 83 8c d4 bd 7c d9 e3 bd
       0.10715117 -0.05621529 -0.10378363 -0.11125466
0000a0 1a 3d 91 3e 01 08 4c 3e 05 9e d4 bd 6d fb 60 be
       0.2836693 0.19924928 -0.10381702 -0.21970911
0000b0 92 6d 0b be 31 b7 a1 3d 1b ad 3c 3e 3d 4e 15 3e
       -0.13616017 0.07896269 0.1842541 0.14580627
0000c0 cd b7 0e be 36 b6 26 3c 13 e1 37 be 04 5d 4c be
       -0.13937302 0.010175278 -0.17956953 -0.19957358
0000d0 31 91 5a be b3 f5 b6 3c 64 78 76 3e 6e 7a 5e 3d
       -0.21344449 0.022333955 0.24069363 0.054315977
0000e0 77 67 6e be 72 51 73 be be 84 42 be 06 51 36 3e
       -0.23281656 -0.23761538 -0.1899595 0.17804345
0000f0 c5 48 b2 3e d4 70 07 bb 3b 33 d8 bd 8c 47 57 be
       0.34821144 -0.0020666616 -0.105566464 -0.21023387
000100 9c c3 2a 3b 53 ae 4a 3e 97 27 d5 bc 43 28 14 be
       0.0026056534 0.19793062 -0.026019854 -0.14468484
000110 59 ba 35 bd a6 cc 7b 3d 4b 97 e6 bb ee 75 aa 3a
       -0.044367168 0.061474465 -0.0070370785 0.0013005116
000120 86 f2 e6 3c 90 f7 66 be 86 4f 83 bb 36 43 f9 3c
       0.028191816 -0.22555375 -0.0040072827 0.030427556
000130 c8 9e b4 3d d0 9d 20 3e e2 25 8e 3e 6a 9f cf 3e
       0.088193476 0.156852 0.27763277 0.4055131
000140 25 4e 40 bd 34 f1 99 bd 55 3d b7 bd a9 d2 e2 3d
       -0.046949524 -0.07516709 -0.08947245 0.110753365
000150 1a 61 8f 3d ef 73 40 3e 7d e9 b6 bb 83 40 9e bd
       0.070009425 0.18794225 -0.005582033 -0.077271484
000160 46 42 04 3b c9 20 96 3d 45 c1 92 3e 30 ba 9a 3b
       0.0020181104 0.07330472 0.28663078 0.0047219023
000170 bc 67 c8 bd 16 a5 a4 bd 9b 37 24 3c 08 22 63 3d
       -0.09785411 -0.080393 0.010023023 0.055452377
000180 e6 c7 a3 3e 9c 5f 9f 3d 76 2f 94 bc 60 07 87 3c
       0.31988448 0.07781908 -0.018089037 0.016483009
000190 d0 30 a2 3d 67 9f 6e 3d ec d1 03 be 56 68 41 be
       0.079194665 0.058257487 -0.12873048 -0.18887457
0001a0 12 df 69 be 77 f1 1c 3e 1e db 84 bd 76 e8 b5 be
       -0.22839001 0.15326487 -0.06487106 -0.35528916
0001b0 3d f3 3a be 66 a1 d8 bd 72 92 3d be 14 41 68 3c
       -0.1825685 -0.10577659 -0.18512896 0.014175672
0001c0 4f 25 10 be de 5f 38 be 52 0d 3e be a9 94 99 3d
       -0.14076732 -0.1800532 -0.18559769 0.07499058
0001d0 1a 79 78 3d 91 74 00 be 88 fd 48 be cf ea 8a bb
       0.060662366 -0.12544467 -0.19627964 -0.004239417
0001e0 1a 50 80 3e 3f 9d 11 3e ae 56 bd 3d ee 69 d5 bd
       0.25061113 0.14220141 0.092450485 -0.10420595
0001f0 0f 3b 66 3d 3c 60 53 be 2f d0 00 3d 47 55 1a be
       0.056208666 -0.20642179 0.03144854 -0.15071593
000200 30 69 9e 3d cb 57 dd bc 39 47 8e be d5 5c 85 be
       0.07734907 -0.027019402 -0.27788714 -0.26047388
000210 10 9d c5 bd 3d 57 04 3e 21 8d f8 3b 96 1f a6 3d
       -0.09649098 0.12923904 0.0075851833 0.08111493
000220 ff 14 57 be 08 dc 48 be 4e 1b 9b bd 9f c7 db 3c
       -0.21004103 -0.19615185 -0.07573567 0.026828585
000230 82 8a 60 3e f5 fd 88 bd dc 2a 6e be aa 66 1f be
       0.21927837 -0.066890635 -0.23258537 -0.15566507
000240 c4 fb 08 be ec 68 73 be 04 7e 3a 3e 3b ea 84 bd
       -0.13377291 -0.23770493 0.18212134 -0.064899884
000250 c6 cd 1a be fe ea 56 be c4 db f7 bd a0 cc 3d bd
       -0.15117559 -0.2098808 -0.12102464 -0.046337724
000260 f0 a8 a0 bd 0c 84 3c be 9c 76 9e be 85 5e 9b bb
       -0.07844722 -0.18409747 -0.30949867 -0.004741492
000270 cf 65 fd 3c 07 1d ae bd da 52 00 be 62 d5 1c be
       0.030932335 -0.0850163 -0.12531605 -0.15315774
000280 01 8c 5e be 5d d5 16 be 20 e0 85 bd 24 d5 9c 3d
       -0.21733095 -0.14729829 -0.06536889 0.07657841
000290 bc 8f 03 bd ba b7 06 3e 73 ba ac 3d 20 d6 68 3e
       -0.032119498 0.13156024 0.08434 0.22737932
0002a0 d3 a0 56 3d 04 23 b4 bd 80 72 4a 3e 41 7c 52 3e
       0.052399468 -0.08795741 0.19770241 0.20555212
0002b0 ac 8b 2f 3e 6c 74 94 3d f7 12 ae 3c 13 16 1e bd
       0.17143124 0.07248768 0.021249278 -0.03859527
0002c0 86 23 b2 3d 21 58 7d bd 05 10 2a bd 2f 4d 02 3d
       0.08698182 -0.061851624 -0.041519184 0.03181189
0002d0 15 f5 62 be f2 83 0f be db 7a 20 bd ac c9 de 3d
       -0.22163804 -0.14015177 -0.039179664 0.108783096
0002e0 44 3b 89 3e 0a 3c 01 3d 81 1f e2 3d 90 cd f8 3d
       0.2680303 0.0315514 0.11041165 0.12148583
0002f0 a3 74 ca 3c 6b 0d 84 be 28 3b 25 3c ec e1 6f bd
       0.02471382 -0.25791487 0.010084905 -0.058565065
000300 0f d2 d2 bd dc 35 9f be e3 48 79 be 20 05 2c bd
       -0.10293972 -0.3109578 -0.2434421 -0.041997075
000310 ad 68 73 bd 8e 42 81 bd f7 0e 2b bb 42 ea 62 be
       -0.059426 -0.063115224 -0.002610145 -0.22159675
000320 e0 fd 71 3e 05 06 cb 3d 28 f7 d4 3d 97 5b eb 3d
       0.23632002 0.099132575 0.10398704 0.11492079
000330 0b 14 56 3d d8 ff c5 bc 32 6f fb bb 16 0a 8f bc
       0.05226521 -0.024169847 -0.0076731676 -0.017460864
000340 eb 27 f9 bd 00 8d 14 3d c8 7e c3 bd 8c db 0a 3c
       -0.12165817 0.03626728 -0.09545666 0.008475196
000350 c0 a9 a5 3d 53 2e 89 bc 08 f9 c5 bd 93 9e 52 be
       0.08089018 -0.016745722 -0.096666396 -0.20568304
000360 63 c1 ac bb 07 01 d3 3c 4d 5d a6 bd 84 3c d0 bd
       -0.005272077 0.025757326 -0.081232645 -0.101677924
000370 5b 44 19 be 20 fe fc bd 83 d9 da bd dd eb d0 bd
       -0.14967482 -0.12353158 -0.10686018 -0.10201237
000380 a1 c4 db bd 5e d7 c9 3d e5 c3 e0 bd c7 d8 37 3d
       -0.10730863 0.09855531 -0.10974864 0.04488447
000390 50 87 ab bd 25 04 c2 bd 7e 11 8d 3e 0a fd 77 3e
       -0.08375418 -0.09473447 0.27552408 0.2421762
0003a0 65 71 64 3e 4b c0 84 3e c2 45 0c 3e ac 0f 1e 3f
       0.22308882 0.25927958 0.13698485 0.61742663
0003b0 56 c0 81 3e be 63 8b 3d 81 d1 3a 3e bc f3 2a bd
       0.25342053 0.06806134 0.18243982 -0.04173635
0003c0 1f ef 43 3e c1 ac 23 be e8 cb 5d bd 83 60 4f 3e
       0.19134186 -0.15983869 -0.05414954 0.2025166
0003d0 46 5b 1a 3e 1f ef e1 bd da 33 3f be 6e d2 61 bd
       0.1507388 -0.11031937 -0.18672124 -0.055132322
0003e0 6c 1d 2c 3e 81 f1 97 3e 08 09 05 3d 6a a1 d9 3c
       0.16808099 0.2967644 0.032479316 0.026566226
0003f0 dd ec 0d 3d 99 5b da bb 0d 83 ad 3e 2b 9c f9 3d
       0.03464972 -0.0066637513 0.33889046 0.1218799

module.net.conv2.bias f4 [16]
000000 29 e6 80 be e0 eb de bd ff 3d 64 be e8 29 01 be
       -0.25175598 -0.10884833 -0.22289275 -0.12613642
000010 c8 24 2a bd 11 c8 51 be 02 ca 6a be 49 c0 81 be
       -0.041538984 -0.20486476 -0.22928622 -0.25342014
000020 ef 2b ad be e7 93 51 be c2 6b 6c be 74 e9 f0 bd
       -0.3382258 -0.20466577 -0.23087981 -0.11763278
000030 3b 28 62 bd d4 35 26 be be f5 66 be 85 c7 73 be
       -0.055214148 -0.16231471 -0.2255468 -0.2380658

module.net.conv3.weight f4 [120, 16, 5, 5]
000000 45 3e 4c bc 9f 00 2a 3e 8d c6 03 3e 07 4d 80 3d
       -0.012466018 0.166018 0.1286871 0.06264692
000010 b4 98 96 3c 86 df 2b 3d 07 88 93 bd 0e 4a 23 3d
       0.018383361 0.041961215 -0.072036795 0.039865546
000020 10 c4 c5 3d 39 38 62 3d df f6 a6 bd 82 d5 6d bc
       0.096565366 0.0552294 -0.08152556 -0.014516236
000030 9b 71 37 3d 2d 60 5c be 76 28 f1 3d 95 22 8e bd
       0.044786077 -0.21521063 0.117752954 -0.0694019
000040 bf e8 2f bd db 06 3f 3d 67 e7 11 be f0 26 67 3d
       -0.042946573 0.046637397 -0.14248429 0.056433618
000050 ce d6 0c bd 3c b2 b7 bd 34 6a 20 3d 6a 7b 0e 3d
       -0.03438454 -0.089695424 0.039163783 0.034785666
000060 90 bf 27 3e d7 a9 58 bb 3d 3d eb bc b7 20 78 bd
       0.16381669 -0.0033060217 -0.028715724 -0.060578074
000070 48 b9 96 3b 37 6a 81 bc 2b e5 e7 bc c3 1d 38 bd
       0.004599724 -0.015797717 -0.028307518 -0.044950258
000080 6e 95 c0 bc 78 b0 38 bd b1 3c b0 bd 2f 74 59 3e
       -0.023508754 -0.04509017 -0.08605326 0.21235727
000090 9d 1a 47 3e a9 8c 27 3e 47 aa 30 3e 66 c0 10 bd
       0.19443746 0.16362251 0.17252456 -0.035339735
0000a0 79 6a 1b 3d e5 ba b0 3c 0d 5c 51 3d 5e d5 3b 3d
       0.037943337 0.021573493 0.051113177 0.04585778
0000b0 8d 5a b7 3d ef 69 7c bc 37 2e fe bc 4e fd 3f bd
       0.08952818 -0.015406116 -0.031027896 -0.04687243
0000c0 b8 62 8e bd ff 44 0f 3d c7 38 23 3b 85 79 cb 3d
       -0.06952423 0.03497791 0.0024905668 0.099352874
0000d0 fc 46 08 3e 6c f1 f3 3d 7f f9 90 3d e5 0f 0e bb
       0.13308328 0.11911282 0.070788376 -0.0021676954
0000e0 fe 82 83 bc d8 a6 d5 bc 8f ff 40 3d e2 32 26 be
       -0.016053673 -0.026080534 0.04711872 -0.16230348
0000f0 88 27 ec 3d 2b 53 06 bd 56 20 96 bd 25 61 5c bd
       0.115309775 -0.03279416 -0.07330386 -0.05380358
000100 06 c4 dc bd 89 c4 04 3c ba c3 9c bd f4 ba e6 3d
       -0.10779576 0.008103498 -0.076545194 0.11266127
000110 a0 2d bf 3b fc 54 32 bd b5 fd 53 bd 99 15 e0 bd
       0.0058342963 -0.04353808 -0.051755626 -0.109416194
000120 62 de 01 bd fe ff c7 3d 8c e8 72 bc ed 01 1b 3d
       -0.03170622 0.097656235 -0.014825951 0.037843633
000130 24 ce 90 bd e6 f8 54 bd 0e ac d5 3c d7 b2 18 3d
       -0.07070568 -0.05199518 0.026083019 0.03727993
000140 a2 18 8c 3e 87 98 85 3d fa 49 ae 3d 22 0e 64 bc
       0.27362543 0.06523233 0.08510204 -0.013919385
000150 f6 44 e9 bd 1e a7 1d 3c f0 8d 17 be 5f 82 86 bd
       -0.113901064 0.009622363 -0.14800239 -0.06567835
000160 cd 71 cd 3c 38 d0 37 3d fc e1 f5 bd 1f 03 33 be
       0.025078679 0.044876307 -0.12005994 -0.1748166
000170 31 9b e7 bd a6 af 78 3e bf 73 57 bd 0f 75 0c 3d
       -0.11308897 0.24285755 -0.05260062 0.034291323
000180 91 70 86 3d 2b b3 30 3e 4f 40 9c 3d 7a e2 d1 bd
       0.06564439 0.17255847 0.076294534 -0.10248275
000190 99 0f a5 bd 00 30 ad 3b 5e e1 b8 bd c1 3d f8 3c
       -0.08059616 0.005285263 -0.090273604 0.030302884
0001a0 b7 99 70 3d 20 85 f3 3d 51 c4 a1 3e 19 89 24 3e
       0.058740344 0.11890626 0.3159509 0.16067924
0001b0 b8 f2 4d 3d 2f 6a c4 3d 2d 9d 62 3e 94 0d bd 3c
       0.050280303 0.095905654 0.2213027 0.023077764
0001c0 61 c4 d6 bd 47 c4 9a 3d 56 7d 4b 3b 28 8b 5c bb
       -0.10486675 0.07556968 0.0031050048 -0.003365228
0001d0 31 bf cd ba 93 fb ef bd 92 d8 81 bd c8 3e 26 3e
       -0.0015697238 -0.11717906 -0.06340136 0.16234887
0001e0 73 d8 93 bd c9 c9 1f bd dc 9a 49 ba ba 0a af 3c
       -0.07219019 -0.039010797 -0.00076906173 0.02136742
0001f0 44 1e c1 3d 21 c7 62 bc f3 f0 94 bd 37 8d d8 bd
       0.09429601 -0.013841421 -0.0727252 -0.105738096
000200 49 3d b1 bd d8 b3 48 bd e1 c7 43 be d3 29 be bc
       -0.08654267 -0.048999637 -0.19119217 -0.023213303
000210 94 b9 d1 3c 45 94 3f bd 32 2f 0a 3e 87 38 6c bd
       0.025601186 -0.04677226 0.13494566 -0.057671096
000220 36 e9 1b 3d 7f 8a bd bd c5 5a 1e bc e0 f1 b1 bd
       0.038064204 -0.09254932 -0.009665196 -0.08688712
000230 d0 80 bc 3d 3f 11 34 3d a2 47 0c 3e a8 08 bb bd
       0.092042565 0.04396176 0.13699201 -0.091325104
000240 3f ce c6 bd 96 5f 08 3e e2 6b e9 3d e2 13 01 3e
       -0.09707307 0.13317713 0.1139753 0.12605241
000250 a8 d7 55 bd 3e 62 68 3d ae 60 90 bd 44 b0 1f 3e
       -0.05220762 0.056734316 -0.0704969 0.15594584
000260 d5 2a 6d 3d f6 6e 29 3c 14 00 04 bd ac 2c a4 3d
       0.057902176 0.010341397 -0.032226637 0.08016333
000270 2d b6 1d 3e e1 df 78 3d bd f7 3a 3d b0 ca ed 3c
       0.15401526 0.060760383 0.045646418 0.029027313
000280 64 d9 99 ba 42 96 96 3d c1 41 62 bd e9 f3 30 be
       -0.0011737761 0.07352878 -0.05523849 -0.17280544
000290 26 4d 12 3e d5 9a 80 bd 1a b2 ca 3d 73 12 ad 3b
       0.14287242 -0.06279532 0.098972514 0.0052817403
0002a0 74 fe 0b be 5e 94 b9 3c 8b 33 07 bd e3 83 5b bd
       -0.13671285 0.022653755 -0.03300814 -0.053592574
0002b0 a0 b7 4b bc 34 20 06 bd 27 04 4a bd b9 6c aa bd
       -0.012433916 -0.032745555 -0.049320366 -0.083215185
0002c0 8e ce 83 bd d2 3c 6e bd 21 8a 90 bd 23 1a 8b bd
       -0.064358816 -0.05816347 -0.07057596 -0.067920946
0002d0 0d f5 a0 3d 76 9d 45 bd ba 7b 51 3d 7d 01 37 be
       0.0785924 -0.04824587 0.051143385 -0.17871661
0002e0 89 48 60 bd 87 e2 93 3e 13 5d 70 bc 49 d2 41 bd
       -0.054756675 0.28883764 -0.014670628 -0.047319684
0002f0 1c 41 3a bc c0 78 6b 3d f4 de 44 bd c3 36 2a 3c
       -0.011368062 0.057488203 -0.048064187 0.010389033
000300 f9 cc bb bd 8f c1 c1 3c 25 31 1e 3e 81 2f 24 be
       -0.09169955 0.023651866 0.15448435 -0.16033746
000310 92 2e cf bd ab 3f 92 3b 95 12 b1 bd df 0a bd 3b
       -0.101163045 0.004463156 -0.08646122 0.005769118
000320 8b 1a ce bd 37 23 a1 3d 8a b1 1a bd 28 39 4e be
       -0.100636564 0.07868045 -0.03776697 -0.20138991
000330 cb b2 6e bc ff 98 76 bd c5 e3 24 bd 7f 5d 12 be
       -0.014568995 -0.060204502 -0.04025628 -0.14293478
000340 4c 84 31 be c7 53 23 3c 23 ab 23 be a8 40 61 3e
       -0.17335624 0.009968705 -0.15983252 0.2199732
000350 44 a6 19 3d 3c 26 ff 3d f4 ef 13 bc 89 41 95 3c
       0.03751208 0.124584645 -0.009029377 0.018219726
000360 d1 43 02 3e 12 df b4 bc ad 8c d4 bd f1 2f 02 3e
       0.12721182 -0.022079024 -0.10378394 0.127136
000370 57 12 b7 bc c0 d5 31 3e 43 eb a7 bd e8 3e 70 be
       -0.022347612 0.17366695 -0.081991695 -0.23461497
000380 65 1e c2 bd 15 d3 2f 3c be 6e 1e bd 1f a6 46 b9
       -0.094784535 0.010731478 -0.03867983 -0.00018944636
000390 1f fc 29 3d 33 1e 06 3d af 43 0c 3e c7 ce 22 3d
       0.041500207 0.032743644 0.13697694 0.03974798
0003a0 be 18 0b 3e ec 6a 3e bd b4 53 8d 3c d4 6d d6 3e
       0.13583657 -0.046488687 0.017251827 0.41880667
0003b0 f0 f3 e6 3d 48 3d 48 be 60 b4 03 be fc 46 fc 3c
       0.11276996 -0.19554627 -0.12861776 0.030795567
0003c0 79 88 df 3d e5 2a c9 bd 37 64 ae 3b 98 53 19 3e
       0.10914702 -0.098226346 0.005322005 0.14973295
0003d0 66 0d 2b 3e 4d 66 e3 bd af ea 14 3c f8 02 6f bb
       0.1670433 -0.11103497 0.009089156 -0.0036470275
0003e0 47 7b 44 3d ba af 9e 3b 5b 87 eb bc e2 d6 0c bd
       0.04796913 0.0048427256 -0.028751066 -0.034384616
0003f0 ba 81 5d 3d 21 f0 85 3d 42 1a 8d bd 5a 60 ac bc
       0.054078795 0.065399416 -0.06889774 -0.021042038

module.net.conv3.bias f4 [120]
000000 59 80 0a 3d 92 38 f1 bc 56 e1 99 bd 82 79 00 bd
       0.033813808 -0.02944592 -0.075136825 -0.03136588
000010 4e 4f 81 3d c0 b6 82 3d 5d cd cd 3d ef ba d7 bc
       0.06313954 0.06382513 0.100489356 -0.026334254
000020 45 6e 74 be cf 58 02 bd 55 6b bd 3d 3d 42 16 3c
       -0.2387019 -0.031822976 0.092489876 0.009171066
000030 f3 47 fd bc f1 fd 5a 3d c1 d4 e5 bc 36 66 63 3d
       -0.030918097 0.053464834 -0.02805555 0.055517398
000040 3f 6a 34 3b db 01 65 3c 6a d9 40 3d 3a d7 05 be
       0.0027529148 0.013977493 0.047082342 -0.13070384
000050 f0 a9 44 bc f4 f9 a3 3d bc da 28 3d 64 86 bb 3c
       -0.012003407 0.08006659 0.041224226 0.02289123
000060 2d 14 c8 3d b5 50 82 bd 69 0b 79 bd 03 fa 66 3c
       0.09769473 -0.0636305 -0.060801897 0.014097693
000070 fa 8d 80 3c 94 25 ec bd b5 03 8c 3c 65 95 da bc
       0.0156927 -0.11530605 0.017091611 -0.026682565
000080 23 64 87 3d b8 23 b4 3c df 7c e1 bd 14 59 05 be
       0.066108964 0.021989688 -0.110101454 -0.13022262
000090 a3 c4 c7 3b 51 85 20 3e 0c f5 27 3d 65 d7 9a bc
       0.006096439 0.15675856 0.04100518 -0.018901536
0000a0 ee ba 94 ba 5e e9 8d 3b 58 17 06 3e 3e dc a7 3d
       -0.0011347213 0.004330798 0.13094842 0.08196305
0000b0 aa b1 81 3c ea b5 af 3c a8 a1 84 3d 3c da f1 bd
       0.015831787 0.021449048 0.06476146 -0.11809203
0000c0 cb a9 94 3c 7d 98 94 bc 2f 03 94 bd 17 5d ad 3a
       0.01814737 -0.018139118 -0.0722717 0.0013226595
0000d0 8d 15 65 bd d4 e2 ac 3c 55 77 94 3d d4 95 83 3d
       -0.055928756 0.021104254 0.07249323 0.06425062
0000e0 56 23 12 3d f8 d4 c1 3c 60 e9 76 3d 10 66 2a bd
       0.03567823 0.023661122 0.060281157 -0.04160124
0000f0 54 d2 31 3d a3 81 24 3d f4 fa d1 3d 1b 00 b2 bc
       0.043413475 0.040162694 0.10252944 -0.021728566
000100 95 6d 0b bd 8b 52 bc 3d ef 9d cb bd 00 45 03 3d
       -0.034040052 0.09195431 -0.09942233 0.032048225
000110 e0 7a e9 3d 9c ce 9c 3d e5 ec 0d bd 31 7e b6 3d
       0.1140039 0.07656595 -0.03464975 0.08910788
000120 01 ff b8 ba eb e7 1a 3e b4 23 de bd 88 b4 db bb
       -0.0014114083 0.15127532 -0.108466536 -0.0067048706
000130 0e b6 f5 3d 5a 97 c9 bd e4 83 96 3c 2f f9 3f bd
       0.11997615 -0.09843321 0.018373437 -0.0468685
000140 2e 05 3f bd e0 5e 0e bd 98 03 e8 3c 53 b8 81 3d
       -0.0466358 -0.03475845 0.028322026 0.06333985
000150 d2 ae 44 ba cf d1 bd 3d 2b 2d c1 bc d5 7c 0b be
       -0.0007502857 0.092685334 -0.023581108 -0.13621838
000160 f9 67 6b 3d 99 30 c2 bd 93 4f b3 3d f7 6f f9 3d
       0.057472203 -0.094819255 0.08755412 0.12179559
000170 0f 3d e4 bb 32 dd a7 3c 2a 44 04 be 2e 6a e0 bc
       -0.0069652866 0.020491216 -0.12916628 -0.02739438
000180 71 a5 4e 3d bc 99 cf b8 19 3e 86 bb c7 db 1d bd
       0.050450746 -9.8991644e-05 -0.004096758 -0.038539674
000190 f3 7f 1f 3c 28 b3 c3 3d 61 ec 85 bd 74 12 18 bd
       0.009735095 0.09555656 -0.06539226 -0.037126973
0001a0 d3 dc 84 39 1e 3d 53 bd 85 ab 82 bc 10 23 75 bc
       0.0002534153 -0.051571958 -0.015950928 -0.014961973
0001b0 28 53 a1 bc 5c 08 12 be fa 13 1a bc 52 e0 c1 bd
       -0.019692972 -0.14261001 -0.009404177 -0.09466614
0001c0 e3 b0 8b 3d 8f b4 b0 bc 2a e3 4a bd 18 44 35 bd
       0.06820848 -0.021570472 -0.049533047 -0.044254392
0001d0 dd c6 dc bd f9 d7 01 bd 56 9b e9 bc 08 78 57 3c
       -0.10780118 -0.03170011 -0.028516453 0.013151176

module.net.fc1.weight f4 [84, 120]
000000 22 77 44 bd 2a d7 b8 3c 63 f6 a3 3c e9 11 da bd
       -0.047965176 0.022563536 0.020014947 -0.10647947
000010 3f 38 86 bd f1 57 16 bd 8c 34 eb bb 63 8e d0 bd
       -0.06553697 -0.03670496 -0.007177895 -0.10183408
000020 c7 07 d2 bc 05 90 64 bc b3 8e 06 be d5 1f e0 3d
       -0.025638474 -0.013950353 -0.13140373 0.109435715
000030 c3 21 f4 bd 49 c5 79 bc 1f d4 9f bc 96 2e 8a 3d
       -0.11920502 -0.01524479 -0.019510327 0.06747167
000040 e6 c5 01 be db d8 cd bd b2 5a 4f be 3e 55 8d 3b
       -0.12673149 -0.100511275 -0.20249441 0.00431314
000050 03 61 7c 3d 1b 4e 32 3c 87 0f 2b be 6b 9c b4 bd
       0.061615955 0.01088288 -0.16705142 -0.08818897
000060 47 0c 39 3e 56 9b 25 be 9e b3 56 3d f5 ef 8d 3d
       0.1807109 -0.16172537 0.05241739 0.06930534
000070 7a 10 ca 3d c7 61 55 bd 8b 49 e9 bd 7f 41 f6 3c
       0.09866424 -0.0520952 -0.1139098 0.030060528
000080 d6 d1 19 3d ac 23 a2 3c 14 f4 44 be 88 39 23 be
       0.03755363 0.0197924 -0.19233733 -0.15939915
000090 b9 54 28 be 9c 82 68 3d ef 34 fe bd 0e 64 52 bc
       -0.16438569 0.056765184 -0.1241244 -0.012841238
0000a0 17 d5 0a bb 80 29 08 be 7d 98 fc bd b0 ce d4 3d
       -0.002118414 -0.13297081 -0.12333772 0.10390985
0000b0 bb 71 28 be 5b 04 9a 3d a0 ce 39 be 5d 0f a6 39
       -0.16449635 0.07520362 -0.18145227 0.00031673434
0000c0 38 9f d5 3d 40 18 75 3d c7 e2 7d bc 56 db d9 3d
       0.10430759 0.05983758 -0.015495962 0.10637538
0000d0 c2 3a 9e 3d 98 25 10 bd cf d8 8c bd af 3d 16 be
       0.07726051 -0.035192102 -0.068772905 -0.14671968
0000e0 1f 9d 21 3d 92 16 68 3d 71 c0 6e bd 45 af d7 3b
       0.039456483 0.05666215 -0.058288995 0.006582173
0000f0 20 eb c4 bd c4 2b 75 bd 34 41 20 3d 82 00 3e 3c
       -0.09615159 -0.05985619 0.039124683 0.011596801
000100 7e 07 0d 3e 44 f2 a7 3d d7 ab 87 3d 2a 7f 16 3e
       0.1377239 0.082005054 0.06624573 0.14696947
000110 b6 fa d4 bc 6c d9 b0 bd c9 85 01 3d 03 09 0c be
       -0.025998455 -0.0863522 0.031621728 -0.13675313
000120 c6 ea b8 bc e2 a0 e8 3c bc 60 3f bd 2d 15 0b 3d
       -0.022572886 0.028397027 -0.046723112 0.03395574
000130 a5 02 17 be 0e 15 ef bd 13 75 b4 b9 ee 81 67 bd
       -0.14747103 -0.11673938 -0.00034419502 -0.056520395
000140 35 23 99 3d 3a 71 a0 bd 98 6d 66 3d 92 a1 1b bc
       0.07477418 -0.07834096 0.05625686 -0.009498971
000150 dd a3 d0 bd 92 95 8a 3d 31 7e 42 3d 35 bc e0 3d
       -0.101875044 0.067668095 0.047483627 0.10973398
000160 d7 75 31 3d 21 b7 f6 3d 30 f7 7a 3d d4 b1 cb bd
       0.04332527 0.12046648 0.061270893 -0.099460274
000170 16 7e 69 bd ac c9 d3 bd 59 7c d9 3d 23 9f 92 bd
       -0.05700501 -0.103412 0.106194206 -0.07159259
000180 fe 5e 9d bd 4b 26 30 3e 22 f3 3a be d9 66 ed 3d
       -0.07684134 0.17202108 -0.1825681 0.11591882
000190 70 6a c9 bd dd e1 1a be f9 48 30 bd 43 d9 b5 3d
       -0.098347545 -0.15125223 -0.043038342 0.0887933
0001a0 6c 05 a9 3d e8 74 08 3e 3e 82 9d bd 82 47 e4 bd
       0.08252987 0.13325846 -0.07690857 -0.111464515
0001b0 c3 31 0d 3e f0 ae 47 3d c2 f8 73 3d 35 5e ee 3d
       0.13788514 0.048750818 0.059563406 0.11639062
0001c0 f0 7b 01 3e 09 59 9b 3c 43 fc 50 be 4e b7 d7 bc
       0.12644935 0.018963354 -0.2040873 -0.026332524
0001d0 9b 73 66 bc 31 23 33 3d 24 29 35 3e e0 be c0 bd
       -0.014065648 0.043734733 0.17691475 -0.094114065
0001e0 05 32 9b bc 5d d0 a1 bd 49 cd f1 bc dc 60 ef bd
       -0.01894475 -0.0790107 -0.029516833 -0.11688396
0001f0 b6 2c a1 3c f1 c2 87 3d 72 7c 37 be 35 39 9d 3d
       0.01967464 0.06628979 -0.17918566 0.07676927
000200 d2 c5 7a bd 8f 28 65 bd 19 f1 1c 3d 5c 5c c8 bd
       -0.061223812 -0.055946883 0.038315866 -0.09783241
000210 9e 93 aa bd 75 12 17 3e c3 2a 0f be 33 fb 68 bd
       -0.08328937 0.14753135 -0.13981156 -0.056880187
000220 96 11 aa 3d df 32 82 3d a4 c5 b9 3c 3d 6e b7 bc
       0.083041355 0.06357359 0.02267725 -0.022391433
000230 6c c9 6c bb 7f a6 e6 bd 29 fe 0e be 9b b4 18 3e
       -0.00361308 -0.11262225 -0.13964142 0.14912646
000240 ce af d8 3c fd 17 0f bb 5e 75 fa 3c 69 19 20 3e
       0.026451018 -0.0021834366 0.030573543 0.15634693
000250 31 c4 52 3d 04 95 a9 bb 34 97 09 3d b1 02 bf bd
       0.051456634 -0.0051752347 0.033591464 -0.09326685
000260 bb cd 08 3e 49 77 08 be c1 f9 56 3d ed 8c 35 bd
       0.1335973 -0.13326754 0.052484278 -0.04432385
000270 cd 22 16 3d c8 bc 33 bd 1c 7e dc 3d e4 58 25 3e
       0.036654282 -0.043881208 0.10766241 0.1614719
000280 c8 ad c4 bd d0 ef 22 be 3e ff d5 bc 77 c1 3c 3d
       -0.09603459 -0.15911794 -0.026122686 0.04608294
000290 96 ac 80 3b 26 3d b7 3d e9 93 3e 3c f9 09 ba bd
       0.003926824 0.0894721 0.011631944 -0.090839334
0002a0 56 b2 6e 3d 18 3b f7 3d 2c 2f 27 bd a7 a5 ce bd
       0.058275543 0.12071818 -0.04081647 -0.100901894
0002b0 31 2b 07 3c 15 14 1e bd 2f 3f 1d bd 89 d7 76 3d
       0.008250044 -0.03859337 -0.038390335 0.060264144
0002c0 f5 47 a1 bd 7a 8a 26 bc ae c7 b7 3d e4 50 1a 3e
       -0.07875053 -0.010164851 0.08973633 0.1506992
0002d0 ea a4 32 3d 39 9b 39 3d f6 cd 12 be 37 67 04 be
       0.043614306 0.045314047 -0.1433638 -0.12929998
0002e0 4e a0 fd bc 51 1b 05 3d 0d b9 04 be 26 d3 b4 3d
       -0.030960228 0.032496754 -0.12961216 0.08829336
0002f0 d3 69 aa bd 74 c3 e0 bc a9 b4 94 3a 17 21 9e 3d
       -0.083209656 -0.02743695 0.0011345345 0.07721155
000300 fa 9f 21 bd 1b 47 7b bc d4 26 01 3e b7 aa dd bd
       -0.039459206 -0.015336777 0.12612468 -0.10823577
000310 2e aa f4 bd 02 23 3e 3c 94 9b c3 ba 5e 5c 77 bb
       -0.11946522 0.011605026 -0.0014923685 -0.0037744264
000320 16 bd 37 3d f8 87 c7 3d bd 85 99 3d 89 37 51 3e
       0.04485806 0.09742731 0.07496212 0.20431341
000330 8e 39 dd 3a 81 52 4e 3d 8e 16 22 be e0 82 13 bd
       0.0016878115 0.05037165 -0.15828916 -0.036013484
000340 d4 66 12 be 2d dc df bb 9f 2b a7 3d a2 cf 92 3d
       -0.14297038 -0.006831667 0.08162617 0.07168509
000350 18 bb 05 be 63 d2 6c 3d cc 29 be 3c 99 d2 c6 bc
       -0.13059652 0.057817828 0.02321329 -0.024270343
000360 6c 11 13 be 82 56 5b 3c 9a e0 5f bc 11 80 92 bd
       -0.14362115 0.013387324 -0.013664389 -0.07153333
000370 cb e0 cd 3c 00 17 20 bd 56 95 4e 3e 10 41 da bd
       0.025131604 -0.039084435 0.20174155 -0.10656941
000380 ac bb b2 bd 9e f7 0d 3e b8 1c b9 bd 58 15 c5 bd
       -0.08727202 0.1386399 -0.09038681 -0.096232116
000390 58 f9 2d 3d b4 e4 07 3e 24 39 72 3d 0b 05 e6 3d
       0.04247412 0.13270837 0.059136525 0.112314306
0003a0 bf ba c2 bd 1e e2 af bc 4f 71 aa bb ba 51 5c 3d
       -0.09508275 -0.021470126 -0.0052014957 0.053788878
0003b0 19 4b d8 3c 33 5a 8e bd 6d a7 69 3d dd 1e c9 bd
       0.026402997 -0.06950798 0.057044435 -0.0982034
0003c0 cd d2 c5 bd 8f d7 0d 3e bb b5 91 bd 9e 44 66 3e
       -0.09659348 0.1385176 -0.071147405 0.22487113
0003d0 9c db 46 bb 34 7e 0e 3e 15 32 8e 3d 23 d8 1d be
       -0.00303433 0.1391533 0.06943146 -0.15414481
0003e0 8e 4b 4a bd 32 50 46 bd 81 97 bc b8 dd f2 53 3d
       -0.04938846 -0.048416324 -8.9927584e-05 0.051745284
0003f0 28 53 5a bc f0 5d c2 bd 03 c0 c2 3d dd 00 25 3e
       -0.01332549 -0.094905734 0.095092796 0.1611361

module.net.fc1.bias f4 [84]
000000 a4 c6 83 bd 90 fc 9a 3b 61 5c 15 3e fe 3c 51 bd
       -0.06434372 0.004729815 0.14586021 -0.051083557
000010 55 2a 43 bd 7a ae 90 bc 2f 5f 0a 3e 9e b9 9d 3d
       -0.047647793 -0.017661322 0.13512872 0.07701419
000020 ac 07 59 bd 92 c1 0d bd 2f 5e 54 bc 9b 30 15 3d
       -0.052985832 -0.03460843 -0.012961908 0.036423307
000030 0e 42 41 bd f9 ff d8 3d 92 c5 b8 ba 88 06 a9 3d
       -0.047182135 0.10595698 -0.0014096966 0.08253199
000040 41 27 dc bc 6f c8 db 39 dd e7 f4 bc 73 be 71 3d
       -0.026874186 0.0004192027 -0.029895717 0.059019517
000050 d2 d1 25 bc 23 28 7e 3d 71 8c 82 3d 19 7d 23 3d
       -0.010120826 0.062049996 0.06374443 0.039914224
000060 a8 2a 75 bd 98 35 78 3d 47 9d 06 3d ca ca 5a 3c
       -0.059855133 0.060597986 0.032864835 0.013354013
000070 a8 73 13 3e 66 fe 1a 3d 38 85 77 bc 8d 58 81 bc
       0.14399588 0.03784027 -0.015107445 -0.015789295
000080 88 f9 33 3b db 6a e7 3a b0 e6 21 bb 02 4d 40 bc
       0.0027461965 0.0017655747 -0.002470415 -0.01173711
000090 59 05 27 3c e1 77 a2 bd da 12 8e bd 28 95 2b bb
       0.010194146 -0.07933021 -0.069371894 -0.0026181433
0000a0 77 c6 11 bd 42 9b 61 3c fe ed ef 3d 9f 7f b2 bb
       -0.03558966 0.0137699265 0.11715315 -0.0054473425
0000b0 c3 dd 4f bd ab 9c 84 3d 29 b2 a5 3c 03 dc 2a bd
       -0.050748598 0.064751945 0.020226555 -0.041713726
0000c0 ed 4a 3f 3a 2d fa 05 be c3 57 98 3c 4b 6c 12 bd
       0.00072972366 -0.13083716 0.018596536 -0.035747807
0000d0 42 2e bf bd c6 d1 b4 bd 4b 52 10 3d a9 08 32 bd
       -0.09334995 -0.088290736 0.03523473 -0.04346529
0000e0 f4 5d bd 3d 81 40 57 bd 56 73 24 bd 41 fd 1e bd
       0.09246436 -0.05255175 -0.040149055 -0.03881574
0000f0 46 77 55 3d 4a ed 12 3c 40 2f 79 bc 02 93 50 bd
       0.0521157 0.008967707 -0.015209019 -0.050921448
000100 6a a2 b2 3c 6f ea b4 bc d9 b0 a2 3d 1c 6d ca 3c
       0.02180596 -0.022084443 0.07943887 0.02471023
000110 88 89 6d bc e3 1a 1e bd dd 7c 08 be ac 7b a7 bd
       -0.014498122 -0.03859986 -0.13328882 -0.081778854
000120 20 5c e8 3d 64 ad b0 3b f7 c6 65 bd 05 1b 41 3d
       0.113456964 0.0053917635 -0.05609795 0.04714491
000130 1d a2 af bd 71 fa 82 3d 87 da 02 3d a9 59 6c bd
       -0.085758425 0.06395424 0.031946685 -0.057702694
000140 5c 03 9d bc e3 6d 22 3e 12 10 1f 3c ce da fc 39
       -0.019166641 0.15862231 0.009708421 0.00048228208

module.net.fc2.weight f4 [10, 84]
000000 56 ab 72 3e 0b 28 70 3e 7d df 6b 3e de d8 86 3e
       0.23698172 0.23452775 0.23034473 0.26337332
000010 ca 26 fa 3d 69 1c 8b 3e 6e 4d 6a 3e f2 22 6f 3e
       0.1221443 0.27170113 0.228811 0.23353174
000020 c3 32 6a be d5 a6 73 be 20 ec bb 3e d7 4d 4b 3e
       -0.22870927 -0.2379411 0.36703587 0.19853912
000030 01 fe 5a be 8a a6 a0 be 42 9c 0a 3e 27 55 07 be
       -0.21385957 -0.3137706 0.1353617 -0.13216077
000040 c6 ee 9f bc 3b fd 47 3e 2a b6 32 be ef 45 1f 3d
       -0.019523036 0.19530194 -0.17452303 0.038885053
000050 7d 38 84 bd f0 b9 d8 3c 48 39 c0 3d a2 98 17 3e
       -0.06456087 0.02645585 0.093859255 0.14804319
000060 d6 4d 7a be 90 88 04 3e 19 04 5e 3e 55 11 db bd
       -0.24443755 0.1294272 0.2168125 -0.10696665
000070 1c 62 cc bd 6a bf 27 3e 54 4d 39 3e 98 c1 56 3e
       -0.099796504 0.16381612 0.18095905 0.20972288
000080 67 83 57 be 42 5b 8a be 05 bb 2a be 1d 9a 86 be
       -0.2104622 -0.2702275 -0.16672905 -0.26289454
000090 37 9a 6c 3e d4 40 38 3e 87 88 d1 be 4a 20 72 3e
       0.23105703 0.1799348 -0.40924475 0.2364513
0000a0 22 fb 69 be 61 92 48 3e 42 44 6b 3e fd ee 96 3e
       -0.22849706 0.19587089 0.22975257 0.2947921
0000b0 00 fb 7d 3e 10 54 56 be bf 8f f1 3d ef e2 2e be
       0.2480278 -0.20930505 0.117949955 -0.17078756
0000c0 0f dc 29 be e4 b1 8c 3e 29 65 2b be 9e eb 6a 3e
       -0.16587852 0.2747947 -0.16737808 0.22941443
0000d0 28 71 2c 3e 4d 05 55 3e d2 9f 15 3e aa 70 56 be
       0.1684004 0.20802803 0.14611748 -0.20941415
0000e0 89 4f 06 3e 98 de 79 3e 7c 2c 5c be ae 04 61 3e
       0.13116278 0.24401319 -0.21501344 0.21974441
0000f0 87 62 84 3e 3f d4 3a 3e 3e 3b 08 3e 71 c5 0c be
       0.2585642 0.18245028 0.13303849 -0.13747193
000100 41 25 3c 3e fe 7b 40 3e 68 ca ad bd 05 55 25 be
       0.18373586 0.187973 -0.084858716 -0.16145714
000110 da 8d 19 3e eb c4 aa be 38 e9 94 3d f2 28 02 3e
       0.14995518 -0.3335336 0.072710454 0.12710932
000120 bb de 35 be 93 57 12 3e f4 9a a3 3e d8 4a 25 be
       -0.17760746 0.1429122 0.31954157 -0.16141832
000130 79 a4 49 3e 77 3e 80 be 22 96 17 be 88 5d 4b be
       0.19691648 -0.25047657 -0.14803365 -0.19859898
000140 3f f2 49 3e e6 14 c4 3d 66 2d 48 3e c3 76 a2 bd
       0.19721316 0.095742986 0.19548568 -0.07932808
000150 9a 79 09 be 4c f2 ee bd f7 0c ac 3e 6d d3 fd bd
       -0.13425294 -0.11667308 0.3360364 -0.12393842
000160 25 67 45 be 8d 0e 4b 3e 8e 16 01 3e 5d 4a de 3e
       -0.19277628 0.1982977 0.1260626 0.4341611
000170 dc ff 57 bb 02 0a 9e bd c8 b9 8a 3e e1 61 89 be
       -0.00329589 -0.077167526 0.27094865 -0.26832488
000180 33 ae 80 be 05 cb 04 3e f6 71 d2 bd b1 45 42 3e
       -0.25132903 0.12968071 -0.102756426 0.18971898
000190 62 04 88 be 40 1c da bd ec 8e 57 3e 79 b7 0e be
       -0.26565844 -0.106499195 0.21050614 -0.13937177
0001a0 32 31 23 3e d5 6a 65 3e f0 38 17 3e 06 da 39 3e
       0.15936735 0.22404034 0.14767814 0.18149576
0001b0 e5 66 39 be 1f 77 90 3e 9d 11 38 be 9e c9 58 3e
       -0.18105657 0.28215882 -0.17975469 0.21170661
0001c0 48 79 91 3e 71 42 49 be c1 1a 8b be 71 19 42 be
       0.28412843 -0.19654252 -0.2716885 -0.18955018
0001d0 b7 7d 3d be 95 2d 4e 3e db e5 51 3e e6 e7 fa 3d
       -0.18504988 0.20134576 0.20497839 0.12251262
0001e0 5c 3a ca 3e 87 bb 35 be cc f0 21 be f8 c9 eb bd
       0.3949765 -0.17747317 -0.15814513 -0.11513132
0001f0 77 63 21 3e a5 f7 85 be 41 33 8a 3e d3 9c b8 3d
       0.15760599 -0.261655 0.2699223 0.09014287
000200 0b dc 67 be 52 02 e1 3c ff dc 71 be cb b2 52 3e
       -0.22642533 0.027466927 -0.2361946 0.20576017
000210 10 3c 4d 3e 70 36 24 be aa 09 ee 3d c1 1d ab 3d
       0.20042443 -0.16036391 0.11622937 0.083552845
000220 b4 18 83 be 61 b2 80 be 69 dc 36 be 97 8f 9b be
       -0.25604784 -0.25136092 -0.17857517 -0.30382988
000230 1b 60 53 3e 31 2e 13 be 85 8c 11 3e dd 63 59 be
       0.2064213 -0.1437309 0.1421376 -0.21229501
000240 c6 f4 26 be 0d 3f 5a be 9e 69 51 be c6 14 4c 3e
       -0.16304311 -0.21313114 -0.20450446 0.199298
000250 59 b6 7f 3e 09 15 3d be 31 38 4b 3e 95 ae 67 3e
       0.24971904 -0.18465056 0.19845654 0.22625192
000260 9b 74 82 be c4 fb 82 be d7 e4 51 be d7 82 32 be
       -0.25479588 -0.25582707 -0.20497452 -0.17432724
000270 ba 1d 77 3e 63 a3 74 be d9 83 f9 bd ff 22 25 3e
       0.24132434 -0.23890452 -0.12183351 0.16126631
000280 2d d4 7a be 74 cc 3f 3e 91 6f 42 3e 1e 7e 82 be
       -0.24495001 0.18730336 0.18987872 -0.25486845
000290 90 62 6a 3d 40 ad 91 3e e6 00 b0 be ca 68 59 be
       0.057222903 0.28452492 -0.34375685 -0.2123138
0002a0 be 6d 8c be a0 e3 08 bd c1 46 99 be d9 92 71 3e
       -0.27427477 -0.033420205 -0.29936793 0.23591174
0002b0 e8 bd da bd e4 b6 91 be 7f 6b 25 3d 96 3f 38 be
       -0.10680753 -0.28459847 0.04038572 -0.17993006
0002c0 c4 ba 82 3e 6f 1c 8b be 78 b0 61 be 96 da 23 3e
       0.25533116 -0.2717013 -0.22039974 0.16001353
0002d0 cc 3a 0c bd cb 16 66 be 45 f8 8b be 7c 28 3f be
       -0.03423576 -0.22469632 -0.27337852 -0.18667787
0002e0 0f 02 9c 3e c6 7f 89 3e c8 3e 84 3e 84 e7 42 3e
       0.3047032 0.26855296 0.25829148 0.19033629
0002f0 80 9f 3d be 86 e1 16 3e 4b fa 09 3e d7 fb 1d 3e
       -0.18517876 0.14734468 0.13474385 0.154281
000300 e0 14 8c 3e 1a 7a b5 3d 59 5c 5b 3e 52 ad 44 3d
       0.27359676 0.0886118 0.21421947 0.048016854
000310 50 eb 20 3e 36 41 f5 bd 82 c8 3e be 46 49 70 be
       0.15714765 -0.119753286 -0.18631175 -0.23465452
000320 43 c3 4a bd 05 1f 93 3e ed 5d 7e 3e 22 d2 14 be
       -0.049502622 0.28734604 0.24840517 -0.14533284
000330 46 26 30 be b1 ca b1 3e dc c5 c0 3e 3f d7 bb be
       -0.172021 0.34724954 0.37650955 -0.36687657
000340 e6 8c a0 bd 30 a6 9b 3e 91 de 4a 3e ed b7 87 3e
       -0.07839374 0.30400229 0.19811465 0.26507512
000350 5c 72 17 3e a3 07 4e 3e 85 9b ff 3d 12 09 3d bd
       0.14789718 0.201201 0.12480835 -0.04615123
000360 9d 2f 77 be ef bc 95 3e e5 c2 75 be a7 1e 97 3e
       -0.24139257 0.29245707 -0.24000128 0.29515573
000370 fe 26 8e be 24 95 53 3e 90 9a 8c 3e 6d 44 8f 3e
       -0.27764124 0.20662361 0.27461672 0.27981892
000380 f1 c1 26 3e 8e 2e d0 3d 9c c7 cd 3d ed 47 90 bd
       0.1628492 0.101651296 0.10047838 -0.07044969
000390 1c 5c 72 3e de 08 14 3b c4 a1 42 be 94 7e b3 be
       0.2366795 0.0022588293 -0.19007021 -0.3505751
0003a0 8d 87 d7 be 72 20 36 be d1 41 2e 3e 48 da eb 3d
       -0.42095605 -0.17785814 0.17017294 0.11516243
0003b0 f0 68 91 3e ed e8 94 be 06 84 09 be d5 60 2c 3e
       0.28400373 -0.29083958 -0.13429269 0.16833813
0003c0 8c 9d 20 be 5b 2b 60 3d 7e e4 30 be ca fc 41 3e
       -0.156851 0.054728847 -0.17274663 0.18944088
0003d0 6c 37 71 bd ea 59 9e 3e 6a b9 1c be e2 64 a1 be
       -0.058890745 0.30927974 -0.15305105 -0.3152228
0003e0 22 63 17 3e 4d 3f 82 bc 8f ec 0b 3e cc df 9b 3e
       0.1478391 -0.015899325 0.13664459 0.3044418
0003f0 42 15 15 3e 11 e3 56 3d 7b 4f 46 be 7b 01 69 3e
       0.1455889 0.05246264 -0.19366257 0.22754471

module.net.fc2.bias f4 [10]
000000 dc b3 8c bb c2 2b 05 3e df 9f 59 3b ce 3b 77 bd
       -0.004293902 0.13004974 0.0033206863 -0.06035977
000010 9d 2d f5 3c 58 51 4a 3d a2 35 78 bd 7d 50 4e 3d
       0.029928977 0.04939398 -0.060598023 0.05036973
000020 2f a6 fa bd 8a 88 15 bd
       -0.12238728 -0.036507167
