models/pretrained/MNIST/PGD_15_lenet_w_acc_97.pt (torch, 250055 bytes, 10 tensors)

module.net.conv1.weight f4 [6, 1, 5, 5]
0	0x3cfa436e	0.030549731
1	0x3d2eb240	0.04265046
2	0x3d46871d	0.048468698
3	0x3cc9d19c	0.024636082
4	0x3c45f890	0.012083188
5	0x3d956d0a	0.07296188
6	0x3dd812ac	0.105504364
7	0x3daeb3af	0.08530366
8	0x3db916ab	0.09037527
9	0x3dc6e864	0.09712294
10	0xbee5af45	-0.44860283
11	0xbeb06f88	-0.34460092
12	0xbe9bc302	-0.30422217
13	0xbe070dd9	-0.13188876
14	0x3d0c94ba	0.034321524
15	0xbfe5c70c	-1.7951369
16	0xbf5879e2	-0.8456098
17	0xbf6b86c5	-0.92002517
18	0xbf5e80a7	-0.8691506
19	0xbf7b9b82	-0.9828416
20	0xbeb80141	-0.35938457
21	0xbea5a6c5	-0.32353798
22	0xbf0e830f	-0.5566873
23	0xbf349a01	-0.7054749
24	0xbf4fa494	-0.811105
25	0x3bcf992b	0.0063353977
26	0xbd07ab8a	-0.033122577
27	0xbdcf5aa4	-0.1012471
28	0xbd4ccb1b	-0.049998384
29	0x3c72c714	0.014817972
30	0x3cf3c7c4	0.029758342
31	0xbe12398f	-0.1427977
32	0xbf564f24	-0.8371451
33	0xbf187e0a	-0.5956732
34	0xb929e32e	-0.00016201727
35	0x3db0fd43	0.08642056
36	0xbc29e5b2	-0.010369705
37	0xbe3efa68	-0.1865021
38	0xbe19e10e	-0.15027258
39	0x3d9c6750	0.07636893
40	0x3d971bf6	0.0737838
41	0x3d40a63f	0.047033545
42	0x3e0455a3	0.12923293
43	0x3e0bc607	0.1364976
44	0x3e26462d	0.16237707
45	0x3c32ef32	0.010921286
46	0x3dd0daa3	0.10197952
47	0x3f3cccf3	0.7375023
48	0x3f5a654d	0.8531082
49	0x3d86f63a	0.06589933
50	0x3d455ac0	0.04818225
51	0x3cffbaf0	0.031217068
52	0x3c33d84c	0.010976862
53	0xbb21a6b1	-0.0024666006
54	0xbbf53799	-0.0074834344
55	0x3dd80ade	0.10548948
56	0x3c3fd2c2	0.011707963
57	0xbd860b06	-0.06545071
58	0xbe201675	-0.15633567
59	0xbd624de4	-0.055250064
60	0x3e49bcec	0.19700974
61	0x3d49ede8	0.04929915
62	0xbe15ab4e	-0.14616129
63	0xbec3addc	-0.38218582
64	0xbe023fa3	-0.12719588
65	0x3ea991fa	0.33119184
66	0x3e68b076	0.22723565
67	0xbc272b72	-0.010203229
68	0xbdc7f982	-0.09764387
69	0xbdae913f	-0.08523797
70	0x3e17987e	0.14804265
71	0x3e777c91	0.24168612
72	0x3e020d34	0.12700349
73	0x3d512679	0.05106208
74	0x3bd959f4	0.0066330377
75	0x3e0bfcf6	0.13670716
76	0x3d7d517e	0.061845295
77	0x3d0521e1	0.032503013
78	0x3dfc710a	0.12326248
79	0xbc3e85c8	-0.011628576
80	0x3ffa7ee6	1.9569976
81	0x3e84d769	0.25945595
82	0x3de47e2e	0.11156879
83	0x400bff28	2.1874485
84	0xbd513c46	-0.05108287
85	0x3d07c50f	0.033146914
86	0x3c9efa9e	0.019406613
87	0x3d3d7312	0.046252318
88	0x3df9d1fe	0.12198256
89	0xbcd1d9cc	-0.025616549
90	0xbc98c9a0	-0.01865083
91	0xbb8eaaca	-0.0043538557
92	0x3bf3d00b	0.007440572
93	0xb89a7ba1	-7.36632e-05
94	0xbc853da3	-0.016264742
95	0xbc97194f	-0.018444685
96	0xbc629810	-0.0138302
97	0xbc0b690e	-0.008508934
98	0xbbfeaa84	-0.007771792
99	0xbc095fcb	-0.008384655
100	0xbd3092d4	-0.043108776
101	0x3c85a422	0.016313616
102	0x3cf3b66c	0.029750071
103	0x3d9e03da	0.077155784
104	0x3d23b47a	0.039967038
105	0x3cda405b	0.026642015
106	0x3ceb547a	0.028726805
107	0xbd6ab28d	-0.057299186
108	0x3eff2e45	0.49839988
109	0x3fd8d940	1.69413
110	0x3ff1e880	1.8899078
111	0x3ee468d2	0.44611222
112	0x3cff8504	0.031191356
113	0x3e37d686	0.17952928
114	0x3ea0b653	0.31389102
115	0x3dfbbf7a	0.12292381
116	0x3dcb3a27	0.09923201
117	0xbb20a330	-0.002451133
118	0xbd2b9cf1	-0.041897718
119	0x3bcd25c0	0.0062606037
120	0xbc0ff87b	-0.00878727
121	0x3c9122ca	0.017716784
122	0x3c5eeafd	0.01360583
123	0xbb87cef2	-0.004144543
124	0xbc9882f7	-0.018617136
125	0xbf83c04e	-1.0293062
126	0xbffc2497	-1.9698666
127	0xbecd9fbd	-0.40160933
128	0x3d16fccc	0.03686218
129	0x3d038c35	0.032116134
130	0xbf8cd2fe	-1.100189
131	0xbfd26215	-1.6436182
132	0xbf05ce7b	-0.5226819
133	0x3daefad6	0.08543937
134	0x3dcb7501	0.09934426
135	0xbfa07c19	-1.2537872
136	0xbfca54b5	-1.58071
137	0xbf0109e7	-0.50405735
138	0x3dd35420	0.1031878
139	0x3da8e8f7	0.082475595
140	0xbf96341c	-1.1734653
141	0xbfdcd6b8	-1.7253027
142	0xbea11d96	-0.31467885
143	0x3d9f5a5c	0.077809066
144	0x3d49af76	0.0492396
145	0xbf8a72b5	-1.0816256
146	0xbfd8187c	-1.6882472
147	0xbdaac0fc	-0.0833759
148	0x3d7c3633	0.061575126
149	0x3c6b6f48	0.014369793

module.net.conv1.bias f4 [6]
0	0x400a9fba	2.165999
1	0xc032036e	-2.7814593
2	0xbfff2dfb	-1.9935907
3	0xbfd34d5c	-1.6507983
4	0xbfb6351a	-1.4234955
5	0x402e4a35	2.7232792

module.net.conv2.weight f4 [16, 6, 5, 5]
0	0x3c1ac721	0.00944689
1	0xbcf8deb3	-0.030379629
2	0x3d8fa8e0	0.07014632
3	0x3dcd1c3c	0.10015151
4	0x3d19c609	0.037542377
5	0xbce23303	-0.027612215
6	0xbe43af35	-0.19109805
7	0xbe1d441c	-0.15358013
8	0x3d919ba3	0.071097635
9	0x3d976d70	0.073939204
10	0x3c1fdd3c	0.009757336
11	0x3c1b492b	0.009477894
12	0xbdb80775	-0.08985797
13	0xbdf50120	-0.11963105
14	0x3dd297c4	0.10282853
15	0x3c7c7ee0	0.015411109
16	0x3c6483bc	0.013947424
17	0xbb5ba682	-0.0033515994
18	0xbc1ade42	-0.009452404
19	0xbbe8cab5	-0.0071042427
20	0xbd6403ff	-0.055667873
21	0x3d373c3b	0.044735175
22	0x3c60e587	0.013726599
23	0xba255eb7	-0.0006308364
24	0x3d854bce	0.06508599
25	0xbdec8ffc	-0.115509
26	0x3c159e82	0.0091320295
27	0x3da14721	0.07874895
28	0xbd955b23	-0.072927736
29	0xbd40422f	-0.046938118
30	0xbd92761e	-0.07151435
31	0xbd0bb2bd	-0.034106005
32	0x3dfd7063	0.12374952
33	0xbdf856ae	-0.12125908
34	0xbe01994e	-0.12656137
35	0xbda307be	-0.07960461
36	0xbd8e3f8a	-0.06945713
37	0x3edb406c	0.42822587
38	0x3e450ad7	0.19242416
39	0x3c473cb0	0.012160465
40	0xbde453f1	-0.11148823
41	0xbe04632b	-0.12928455
42	0xbd5e8ffb	-0.05433653
43	0x3d5cff6a	0.05395452
44	0x3d87479d	0.06605456
45	0x3dd38982	0.10328962
46	0x3c9a03ea	0.018800694
47	0xbdcb17b7	-0.099166326
48	0xbda60113	-0.08105674
49	0xbdd626a6	-0.1045659
50	0x3b6121a3	0.0034352324
51	0x3e0a84dc	0.13527244
52	0x3d8748fe	0.06605719
53	0xbd9555ae	-0.07291733
54	0xbb37a976	-0.002802459
55	0x3e420e54	0.18950778
56	0x3e3979f0	0.18112922
57	0x3e829698	0.2550552
58	0xbd22f0e2	-0.039780505
59	0xbd9b9616	-0.07596986
60	0xbe1bd358	-0.1521734
61	0x3d9516d4	0.07279745
62	0x3ec7293f	0.38898656
63	0x3d62981c	0.055320844
64	0x3daf1c98	0.08550376
65	0xbd3a58f8	-0.045495003
66	0xbd19ba6d	-0.037531305
67	0xbc46bb49	-0.012129613
68	0xbc52b4c7	-0.0128604835
69	0x3e078c70	0.13237166
70	0x3e0bcdac	0.13652676
71	0xbd7e72d4	-0.062121227
72	0xbe08b93a	-0.13351908
73	0xbcd16bbc	-0.025564067
74	0xbd93ec98	-0.07222861
75	0x3dc582ed	0.09644113
76	0xbd30fe98	-0.04321155
77	0xbe2eb001	-0.17059328
78	0xbdecfdee	-0.11571871
79	0xbe2b4a99	-0.16727675
80	0x3d207b56	0.039180122
81	0x3e41e25e	0.18934008
82	0xbd5c0fe8	-0.053726107
83	0xbe627938	-0.22116554
84	0xbe8b6653	-0.27226505
85	0x3ddaa63a	0.106762365
86	0x3e4990d1	0.1968415
87	0x3d2834b7	0.041065898
88	0xbe2e9660	-0.17049551
89	0xbe6af021	-0.22943164
90	0x3e17c6e8	0.1482197
91	0x3e5c08e2	0.21487764
92	0x3e1b0aae	0.15140793
93	0x3da8408e	0.08215438
94	0x3ccd90fa	0.025093544
95	0xbc9cac75	-0.019125203
96	0xbe217528	-0.15767348
97	0xbe132a66	-0.14371642
98	0x3c49dcc1	0.012320698
99	0xbca12c8a	-0.019674558
100	0xbc9dc3f0	-0.01925847
101	0x3cc15250	0.02359882
102	0xbbcbab89	-0.006215517
103	0xbdb60890	-0.08888352
104	0xbe03ee07	-0.12883769
105	0x3d818966	0.06325035
106	0x3e0a24d7	0.13490616
107	0x3dfcc1ba	0.12341638
108	0xbde60cb5	-0.112328924
109	0xbe859bc4	-0.26095402
110	0x3da559d4	0.08073774
111	0x3dc514a8	0.096230805
112	0x3d90950b	0.07059678
113	0xbd733bcf	-0.05938321
114	0xbd2d4c87	-0.04230931
115	0x3d3832b3	0.044970226
116	0x3e28f819	0.16500892
117	0x3d9baf49	0.07601792
118	0x3db41fc1	0.08795119
119	0xbcb2305c	-0.021751575
120	0x3b128a8b	0.002236041
121	0xbd061130	-0.032731235
122	0xbda402bd	-0.08008335
123	0xbdde48eb	-0.10853752
124	0xbe16bea6	-0.14721164
125	0xbe12929b	-0.14313738
126	0xbc3dfddb	-0.011596168
127	0xbbf83c01	-0.0075755124
128	0x3e3fa18c	0.18713969
129	0x3da7456d	0.08167539
130	0x3c3549b7	0.011064938
131	0x3c9b1a7c	0.018933527
132	0xbdd1f364	-0.10251501
133	0x3e4e1a4e	0.20127222
134	0x3d492dc6	0.04911592
135	0xbe277383	-0.16352658
136	0xbd7eec53	-0.062237095
137	0xbe782b94	-0.24235374
138	0xbe00dd23	-0.12584357
139	0xbd2a916b	-0.041642588
140	0xbd53078c	-0.05152087
141	0xbd1cafd7	-0.03825363
142	0xbdc5d5dd	-0.09659932
143	0xbe75c819	-0.24002112
144	0xbd99da9e	-0.07512401
145	0x3c581981	0.013189674
146	0x3d4bafb8	0.049728125
147	0x3d69c7aa	0.05707518
148	0xbd075cb3	-0.03304739
149	0xbbc78021	-0.006088272
150	0xbd9de706	-0.0771008
151	0xbe6e1a76	-0.23252282
152	0xbe0f217a	-0.13977614
153	0xbd3501a4	-0.044191018
154	0xbd8d118d	-0.06888113
155	0xbe1301c6	-0.14356145
156	0xbe045a40	-0.12925053
157	0x3e0a61e6	0.13513908
158	0x3e77bd3b	0.2419328
159	0x3dbb0b1e	0.0913298
160	0x3ac6f3b8	0.0015178835
161	0x3dd329cd	0.10310707
162	0x3d8916b2	0.06693782
163	0xbd3c2785	-0.045936126
164	0xbe030f1e	-0.12798735
165	0x3d791057	0.0608066
166	0x3db518ff	0.08842658
167	0x3d868338	0.06567997
168	0x3d9c0e20	0.07619882
169	0xbd0dd703	-0.03462888
170	0x3ddc7226	0.107639596
171	0x3d46673c	0.048438296
172	0x3df5f82d	0.120102264
173	0x3e2d48e7	0.16922341
174	0x3e3c4ce6	0.1838871
175	0x3e461792	0.19344929
176	0x3e4c3842	0.19943336
177	0x3e019f0f	0.12658332
178	0x3d92c9cd	0.07167397
179	0xbcacc4bb	-0.021089902
180	0x3d15665f	0.03647458
181	0xbdf522d1	-0.11969531
182	0xbe5d2247	-0.21595107
183	0xbe470f95	-0.19439538
184	0xbe0cdbb8	-0.13755691
185	0xbdcc0216	-0.09961335
186	0xbd87df2d	-0.06634364
187	0x3e3bd05a	0.18341199
188	0x3e8a4e2e	0.2701277
189	0x3d996081	0.0748911
190	0xbc3358c7	-0.010946459
191	0x3e4013fc	0.18757623
192	0x3e8ca569	0.27469948
193	0x3e4ff1ed	0.20307131
194	0x3d900f48	0.07034165
195	0x3d01886a	0.031624235
196	0x3dd0cb29	0.10195
197	0x3d5f4a05	0.05451395
198	0xbd40bae4	-0.047053233
199	0x3d4fa751	0.050696675
200	0x3d94e9cd	0.072711565
201	0xbddab4e5	-0.10679034
202	0xbdc2e8a8	-0.09517032
203	0xbdd00922	-0.10157992
204	0xbdaba2a8	-0.083806336
205	0xbde7809e	-0.11303829
206	0xbdcb0ccb	-0.099145494
207	0xbd55f577	-0.052236047
208	0xbe2fc449	-0.1716472
209	0xbe33de21	-0.17565204
210	0x3d198818	0.037483305
211	0x3e54d931	0.20785977
212	0x3e3673df	0.17817639
213	0xbceade25	-0.02867038
214	0xbe1ec5a5	-0.15505083
215	0x3e262f91	0.16229083
216	0x3e149661	0.1451049
217	0x3d69d4f1	0.057087842
218	0xbe33ca18	-0.17557561
219	0xbe20226a	-0.15638128
220	0xbc000df7	-0.0078158295
221	0xbe07c7b7	-0.13259779
222	0xbdcf3001	-0.10116578
223	0xbe0a3de9	-0.1350018
224	0xbe678901	-0.22610857
225	0xbdce94f5	-0.10087005
226	0xbc988622	-0.018618647
227	0x3d548328	0.051882893
228	0x3d8acdd6	0.06777541
229	0x3e00e19e	0.12586066
230	0x3d534c7c	0.051586613
231	0x3e92b830	0.2865615
232	0x3e8445dc	0.25834548
233	0x3e774e3a	0.24150935
234	0x3e9a60d0	0.30151987
235	0xbdc5001a	-0.0961916
236	0x3d771ebf	0.060332056
237	0xbe270fd7	-0.16314636
238	0xbe39e0a2	-0.18152097
239	0xbe2f38bb	-0.17111485
240	0x3d32b59b	0.043630224
241	0xbd9fc304	-0.07800868
242	0xbe87f7d2	-0.2655626
243	0xbe57654c	-0.21034735
244	0xbd4870db	-0.048935752
245	0xbc2e43fb	-0.010636325
246	0x3d193f75	0.037414033
247	0x3df64083	0.120240234
248	0x3e42d997	0.19028316
249	0x3e1d8d7c	0.15386003
250	0xbd9b5f49	-0.075865336
251	0xbc523859	-0.012830817
252	0xbd4434e0	-0.047901988
253	0x3d51f886	0.0512624
254	0x3e4bc7f2	0.19900492
255	0xbdb41980	-0.08793926

module.net.conv2.bias f4 [16]
0	0xbf063510	-0.52424717
1	0xbf3ca469	-0.7368837
2	0xbee66efc	-0.4500655
3	0xbf3f2ee3	-0.7468092
4	0xbf498f73	-0.7873451
5	0xbf3f481e	-0.7471942
6	0xbf375035	-0.7160676
7	0x3d9d6e4f	0.07687055
8	0xbec16870	-0.37774992
9	0xbf3c7654	-0.73618054
10	0xbef86b69	-0.48519447
11	0xbf304917	-0.68861526
12	0xbe59792a	-0.21237627
13	0xbe36b50b	-0.178425
14	0xbea5d033	-0.32385406
15	0xbf0e13f1	-0.5549918

module.net.conv3.weight f4 [120, 16, 5, 5]
0	0xbb3d8ff9	-0.0028924926
1	0x3d6aa931	0.05729026
2	0x3d29e09d	0.041473974
3	0xbc9a0133	-0.0187994
4	0xbd072a79	-0.03299949
5	0x3d9169f0	0.07100284
6	0x3e0683db	0.13136236
7	0x3d4d529a	0.050127603
8	0x3cead5f9	0.028666483
9	0x3cb79376	0.022409182
10	0x3da4ddcc	0.08050117
11	0x3dc48f03	0.0959759
12	0x3cd3fc3a	0.025877107
13	0xbd74960b	-0.059713405
14	0x3cd4afe1	0.025962772
15	0xbd9d388d	-0.07676802
16	0xbdb13cce	-0.08654176
17	0xbdc1aec1	-0.0945716
18	0xbd8b8c88	-0.068139136
19	0xbdc2e587	-0.09516435
20	0xbda2c864	-0.07948378
21	0x3cf86742	0.030322675
22	0xbdb79ec9	-0.08965833
23	0xbdcf3f43	-0.10119488
24	0xbdfdb93a	-0.12388845
25	0x3c4ec025	0.012619053
26	0x3cb88f3d	0.022529239
27	0x3bb6737d	0.0055679665
28	0xbc3de0a1	-0.0115892
29	0x3d8539d9	0.06505174
30	0xbd284c32	-0.04108829
31	0xbd9fe22a	-0.07806809
32	0x3d5f6912	0.054543562
33	0x3cb83b40	0.02248919
34	0x3da53a8b	0.08067807
35	0xbd0d76aa	-0.034536995
36	0xbb8bd33f	-0.004267126
37	0x3caf6ef1	0.021415206
38	0x3bdf2162	0.0068093995
39	0x3d435079	0.047684167
40	0xbc454b19	-0.01204183
41	0xbdd4913f	-0.10379266
42	0xbe14d44d	-0.14534111
43	0xbd9d2c6d	-0.07674489
44	0xbc15d6d6	-0.009145459
45	0x3d0b8c83	0.03406955
46	0x3d6dd48c	0.05806403
47	0x3d884251	0.06653274
48	0x3d1014c9	0.035176072
49	0xbd2d2a09	-0.042276416
50	0x3dcfd45b	0.101479255
51	0x3d4a5be2	0.049404033
52	0x3d90d3c9	0.07071645
53	0xbbc6f894	-0.0060721133
54	0x3dbd1dc4	0.09234193
55	0x3e00b5ca	0.12569347
56	0x3d2a5535	0.041585166
57	0x3db0ab8d	0.08626471
58	0x3c682b4b	0.014170478
59	0xbc760a9c	-0.015017178
60	0xbd156d42	-0.03648115
61	0x3c215936	0.00984793
62	0xbc2badf2	-0.0104784835
63	0xbd4fd04a	-0.05073575
64	0xbc547a97	-0.012968681
65	0x3da47f09	0.080320425
66	0x3d34312a	0.0439922
67	0xbc401db5	-0.011725833
68	0xbd585781	-0.052817825
69	0x3c49efae	0.0123252105
70	0x3c0d63f9	0.008629792
71	0x3d447e4c	0.04797201
72	0xbd5b3b0b	-0.053523105
73	0x3db6317a	0.08896156
74	0xbd0e0835	-0.034675796
75	0x3d8e501c	0.069488734
76	0x3d16584b	0.036705296
77	0x3d705c00	0.058681488
78	0x3d565faf	0.052337345
79	0x3d0cab1b	0.034342866
80	0xbd098e7d	-0.033583153
81	0xbc46c674	-0.012132276
82	0xbd925b24	-0.0714629
83	0x3d95a512	0.07306875
84	0x3dd4eb5b	0.10396453
85	0xbd88ffa9	-0.06689388
86	0x381442ab	3.534804e-05
87	0x3d577dcf	0.052610215
88	0x3dd43864	0.10362318
89	0xbc0c6b2a	-0.008570472
90	0xbc21b795	-0.0098704295
91	0xbd8e15b8	-0.06937736
92	0xbe1f380d	-0.15548725
93	0xbe50f9e1	-0.20407821
94	0xbe23405e	-0.15942523
95	0x3c780c78	0.0151396915
96	0x3d93a10b	0.07208451
97	0x3d6b5b50	0.05746013
98	0x3d03e992	0.032205172
99	0x3d3b5a38	0.045740336
100	0x3dbf5318	0.09342021
101	0x3d2ef174	0.042710736
102	0x3c7f6215	0.015587349
103	0xbd811fe1	-0.063049085
104	0xbcb7bd39	-0.022429096
105	0xbc4f1687	-0.012639648
106	0x3d87faca	0.06639631
107	0x3da70c4c	0.08156642
108	0xbdce6189	-0.10077197
109	0xbc6c1f9d	-0.014411834
110	0x3d688c5b	0.05677448
111	0xbd56637d	-0.052340973
112	0xbdbd958f	-0.09257042
113	0xbcd79876	-0.026317816
114	0xbacc8c79	-0.0015605829
115	0x3db395ba	0.087687925
116	0x3e2c76b4	0.16842157
117	0x3ddee197	0.108828716
118	0x3d970d02	0.07375528
119	0x3d12cbba	0.03583882
120	0x3d29fa7f	0.041498657
121	0xbe2e0d87	-0.16997348
122	0xbdfbe4af	-0.12299477
123	0xbdb3772a	-0.08762963
124	0xbc1725e1	-0.00922534
125	0x3d32c39c	0.04364358
126	0xbbd75c17	-0.0065722573
127	0x3d8f337d	0.069922425
128	0x3dae0300	0.08496666
129	0x3d6eb538	0.058278292
130	0xbbcf153d	-0.0063196705
131	0x3dce133a	0.10062261
132	0x3d67e1db	0.056611877
133	0x3d361611	0.044454638
134	0x3cb025d5	0.021502415
135	0x3c02bda5	0.007979785
136	0xbc88b309	-0.016686933
137	0xbcf6f515	-0.030146161
138	0x3d0c8496	0.03430613
139	0x3daca4b0	0.08429849
140	0x3d236a7c	0.039896473
141	0x3db85a0a	0.090015486
142	0x3e3d40b5	0.18481715
143	0x3e2fb443	0.17158608
144	0x3dfb1e95	0.122616924
145	0xbd954be6	-0.07289867
146	0xbdcf7901	-0.101305015
147	0xbddc66ad	-0.10761771
148	0xbdbf333f	-0.09335946
149	0xbd9de863	-0.0771034
150	0x3cc5c633	0.02414236
151	0xbd968fce	-0.07351647
152	0xbd4f8657	-0.050665226
153	0xbcc85d8b	-0.024458667
154	0xbc4a1609	-0.012334355
155	0x3c45c601	0.012071134
156	0xbdb76960	-0.089556456
157	0xbc4aad2d	-0.01237039
158	0x3c85db54	0.016339935
159	0xbbeee1fb	-0.0072901226
160	0x3d27a2c5	0.040926713
161	0x3dbd829f	0.092534296
162	0xbd9115e1	-0.07084251
163	0xbbd74a5e	-0.0065701446
164	0x3d014f05	0.0315695
165	0x3cbaeab2	0.02281699
166	0x3d5e67f9	0.054298375
167	0x3dc36646	0.095409915
168	0x3d4283b4	0.047488883
169	0x3dc6865c	0.09693596
170	0xbd0f1ec7	-0.03494146
171	0xbdc99422	-0.09842707
172	0xbdafbcef	-0.08580958
173	0x370f8af5	8.555818e-06
174	0xbd83e940	-0.06440973
175	0x3c297199	0.010342025
176	0xbcb59cb3	-0.022169447
177	0x3cf24d6f	0.029577939
178	0xbcb91777	-0.022594197
179	0x3b06b3e0	0.0020553991
180	0x3aff92e6	0.0019498735
181	0xbd1479a8	-0.036248833
182	0x3d5222c0	0.05130267
183	0xbcafd6a5	-0.021464655
184	0xbd97c219	-0.07410068
185	0x3d1974e5	0.037464995
186	0x3d521535	0.051289756
187	0x3d91bc68	0.07116014
188	0x3d3e2860	0.046425223
189	0xbca06899	-0.019581126
190	0x3daf5052	0.08560242
191	0x3d8ffaa4	0.07030228
192	0x3df2a42c	0.118477196
193	0x3ddabc92	0.10680498
194	0x3d562a32	0.052286334
195	0xbc94021a	-0.018067408
196	0x3cc44dfb	0.023962965
197	0xbcaa49a1	-0.020787062
198	0xbb9c8a0d	-0.004777199
199	0x3be49c01	0.006976605
200	0xbd55ae44	-0.052168146
201	0xbd469845	-0.04848506
202	0x3d8d8e24	0.06911877
203	0x3d662ad0	0.056193173
204	0x3d04d023	0.032425057
205	0xbd890b46	-0.06691603
206	0x3cc04018	0.023468062
207	0x3c8119ba	0.015759338
208	0x3d9fd7b4	0.07804814
209	0xbce65c16	-0.028120082
210	0x3c89fcc4	0.01684416
211	0xbbb96750	-0.0056580678
212	0x3c568c89	0.01309503
213	0x3d60a906	0.054848693
214	0xbd100063	-0.03515662
215	0x3d01e983	0.031716835
216	0x3d963393	0.07334056
217	0x3e152539	0.1456498
218	0x3da396e6	0.07987766
219	0x3c93c632	0.018038843
220	0xbcfe73a8	-0.031061009
221	0x3c53f3b0	0.012936518
222	0x3d23ac20	0.039959073
223	0x3d225a43	0.03963686
224	0x3c97902d	0.018501366
225	0x3bd62d71	0.0065361788
226	0x3cc8cc36	0.024511438
227	0x3d9b5d07	0.07586103
228	0x3dba0d75	0.09084598
229	0x3c792f04	0.015208963
230	0xbcd65496	-0.02616338
231	0xbbd2637b	-0.0064205504
232	0xbd2a2d13	-0.041546892
233	0xbd0c2dce	-0.03422337
234	0xba99af8c	-0.0011725291
235	0xbd0062a3	-0.031344067
236	0x3d8f2b6b	0.06990703
237	0x3db9b60d	0.090679266
238	0x3d238ed7	0.039931145
239	0x3d333b0d	0.043757487
240	0xbd89a82e	-0.06721531
241	0xbdf67363	-0.12033727
242	0xbe32f022	-0.17474416
243	0xbd83fa39	-0.064442106
244	0xbdf953ff	-0.12174224
245	0xbd9f2ffd	-0.07772825
246	0xbd179d6b	-0.03701536
247	0xbcf6a3b8	-0.030107364
248	0xbdb23590	-0.087016225
249	0xbcc26f3e	-0.023734685
250	0x3c7c6c18	0.015406631
251	0x3c7ee7bb	0.015558179
252	0xbd42f5c5	-0.047597665
253	0x3da419f3	0.08012762
254	0x3da592fe	0.08084677
255	0x3d056711	0.032568995

module.net.conv3.bias f4 [120]
0	0x3d0c6c6a	0.03428308
1	0xba2dbc24	-0.00066274614
2	0xbd0fe9a3	-0.035134923
3	0x3c68cac1	0.014208497
4	0x3ddac940	0.10682917
5	0xbc25643b	-0.010094698
6	0x3cab896c	0.020939551
7	0x3bed00f5	0.00723278
8	0x3dbe8087	0.093018584
9	0xbd026899	-0.031838033
10	0xbb9f88c4	-0.0048685987
11	0x3db38f3f	0.087675564
12	0x3d91c63e	0.0711789
13	0x3d03a408	0.032138854
14	0xbd238856	-0.039924942
15	0xbd86a8a3	-0.06575134
16	0x3d0b44ef	0.034001287
17	0xbd3e7588	-0.046498805
18	0x3db9ea0d	0.09077845
19	0x3bfd767f	0.007735073
20	0xbddce28b	-0.10785397
21	0x3d0c9f49	0.034331594
22	0xbb96f757	-0.004607122
23	0x3e07c1b9	0.13257493
24	0xbc048fbb	-0.008090909
25	0x3d166444	0.036716715
26	0xbdb53278	-0.08847517
27	0xbd047043	-0.032333624
28	0x3b19d79a	0.0023474456
29	0x3d8bc01a	0.0682375
30	0x3d54b540	0.051930666
31	0x3d4df430	0.050281703
32	0xbcce83fb	-0.025209418
33	0xbdf34e63	-0.118801855
34	0x3ca37593	0.019953525
35	0x3c19b592	0.009381669
36	0xbd6d35dc	-0.057912692
37	0xbcd91861	-0.026500883
38	0x3e14f2f4	0.14545804
39	0xbd161d05	-0.03664877
40	0x3cda4b47	0.026647223
41	0xbd95194a	-0.07280214
42	0x3c7a8520	0.015290529
43	0x3d0b7f19	0.034056757
44	0xbbcb477e	-0.006203591
45	0xbdd3222b	-0.103092514
46	0x3c635432	0.013875054
47	0xbb1acba6	-0.002361992
48	0x3d9d720e	0.0768777
49	0xbda58a17	-0.08082979
50	0xbd71c17a	-0.059022404
51	0x3d24f35e	0.040271156
52	0x3e4726a5	0.19448335
53	0x3b143bd9	0.002261868
54	0xbd4ee905	-0.050515193
55	0x3cfa7107	0.030571474
56	0x3d698a07	0.0570164
57	0x3cf0aa56	0.029378098
58	0xbc84707d	-0.01616692
59	0xbd8f53e5	-0.069984235
60	0xbd593a2b	-0.05303399
61	0x3d3d1a55	0.04616769
62	0x3d7de372	0.061984487
63	0x3e17cd85	0.14824493
64	0x3b7983ef	0.0038073023
65	0xbcea2689	-0.028582828
66	0xbd8ea275	-0.0696458
67	0x3d5f5fd1	0.054534737
68	0x3d08bae7	0.03338137
69	0x3da368f5	0.07979003
70	0x3d4cd76a	0.050010122
71	0x3d88c520	0.066782236
72	0xbbf091d0	-0.007341601
73	0xbdfb4b92	-0.12270273
74	0x3d9a62e4	0.07538393
75	0xbc34970d	-0.011022341
76	0x3b214e4b	0.0024613317
77	0xbdbd694a	-0.09248598
78	0xbd613958	-0.054986328
79	0xbc8a4bee	-0.01688191
80	0xbd4df6ae	-0.05028408
81	0x3e010068	0.12597811
82	0x3b49bb63	0.0030781857
83	0xbc5b1ea5	-0.013374005
84	0xbd036224	-0.032076016
85	0xbcc8762b	-0.02447041
86	0xbdcabb5b	-0.098990165
87	0x3d26be1a	0.04070864
88	0x3d82f43c	0.0639424
89	0xbd391ce7	-0.04519358
90	0x3c26dfd1	0.010185198
91	0xbd8a83ac	-0.06763396
92	0x3dac4280	0.08411121
93	0x3d6d0db0	0.05787438
94	0xbd03e93d	-0.032204855
95	0xbc6d97f0	-0.014501557
96	0x3dd5055f	0.10401415
97	0xbdb5c19c	-0.08874819
98	0xbc306d33	-0.010768223
99	0x3cc1416d	0.023590768
100	0xbbd9a91d	-0.0066424743
101	0xbcf814c6	-0.030283343
102	0x3defda81	0.11711598
103	0xbc8e854e	-0.017397549
104	0x3d259cce	0.040432744
105	0x3cd4c28a	0.02597167
106	0xbdbeb729	-0.09312279
107	0xbdaa6686	-0.08320336
108	0x3d08f800	0.033439636
109	0xbd1b7967	-0.037957575
110	0x3e31d839	0.17367639
111	0xbcf0e000	-0.029403687
112	0x3defc2c2	0.11707069
113	0xbd6f7e1f	-0.058469888
114	0xbd782f3b	-0.060591917
115	0x3dae4fa3	0.08511283
116	0xbc6c0b5b	-0.014407004
117	0x3da9b5fb	0.08286663
118	0x3bbe22b8	0.0058024786
119	0xbd162348	-0.03665474

module.net.fc1.weight f4 [84, 120]
0	0xbc0088ce	-0.007845117
1	0xbddeeade	-0.10884641
2	0x3e23de70	0.16002822
3	0x3d73e852	0.05954773
4	0x3bd2b9fd	0.006430863
5	0xbe17e5f3	-0.14833812
6	0xbdeca0dd	-0.1155412
7	0xbe4fc8bb	-0.20291416
8	0x3da322c3	0.07965615
9	0x3c9e4d06	0.019323837
10	0x3c94eb22	0.018178526
11	0x3e374046	0.17895612
12	0x3d411e65	0.047148127
13	0x3e5a6dff	0.21331023
14	0xbe206c1e	-0.15666243
15	0x3e04a52a	0.1295363
16	0xbd26b71d	-0.040701974
17	0xbd8fc9fd	-0.07020948
18	0x3dbeb50b	0.09311875
19	0xbe1f2e3d	-0.15544982
20	0x3dca0da2	0.098658815
21	0xbe367138	-0.17816627
22	0x3dbc31c8	0.091891825
23	0x3d3707c9	0.04468516
24	0x3d98b9b0	0.07457292
25	0x3c3e63f5	0.011620511
26	0x3dc89bc1	0.09795333
27	0xbd87f665	-0.06638793
28	0xbd894e91	-0.067044385
29	0x3e1ecea5	0.15508516
30	0x3c05b844	0.008161608
31	0xbe4df949	-0.20114626
32	0xbdab4533	-0.08362808
33	0xba82f320	-0.000999067
34	0x3e0ae7fb	0.13565056
35	0xbdf6a1ee	-0.120426044
36	0x3e79984d	0.24374504
37	0x3cbd88ac	0.02313646
38	0x3dd1efd2	0.1025082
39	0xbd7e8ce9	-0.0621461
40	0x3dd52fb4	0.10409489
41	0xbe42499a	-0.1897339
42	0xbe0e46c6	-0.13894185
43	0xbe2959a8	-0.16538107
44	0x3df8b7eb	0.121444546
45	0xbdfa5152	-0.12222542
46	0xbdf2c4e4	-0.1185396
47	0xbc9dd913	-0.019268548
48	0xbe7563bb	-0.23963825
49	0x3d93e280	0.07220936
50	0x3d0ada70	0.033899724
51	0xbddb742d	-0.10715518
52	0x3d9b8bbb	0.07595011
53	0xbd8533ea	-0.065040424
54	0x3df65da8	0.12029582
55	0x3db55312	0.08853735
56	0xbdfc97e9	-0.12333662
57	0x3d46a02a	0.048492588
58	0x3e09d61a	0.1346058
59	0xbe42d2a4	-0.19025666
60	0x3c0ac2f3	0.008469331
61	0x3d95101b	0.072784625
62	0xbdb15b76	-0.08660023
63	0x3eb285f3	0.3486782
64	0xbd154f15	-0.03645237
65	0x3df5a5c0	0.11994505
66	0x3d96aa84	0.07356742
67	0xbd8b1419	-0.06790943
68	0x3cd93a1a	0.026516963
69	0xbe1db7ac	-0.15402097
70	0x3dd2d6f6	0.10294907
71	0x3dda79d1	0.10667766
72	0xbe1089fb	-0.14115135
73	0xbcd1a43b	-0.025591007
74	0xbb8ae207	-0.0042383703
75	0x3e3532e3	0.17695193
76	0x3e073797	0.132048
77	0xbb47b655	-0.0030473669
78	0x3de24274	0.11047831
79	0xbe0c3bcb	-0.13694684
80	0xbe02fcd7	-0.12791763
81	0xbd61c723	-0.055121552
82	0xbe27138c	-0.1631605
83	0xbc128581	-0.008942963
84	0xbdee3699	-0.116315074
85	0xbdc967c2	-0.09834243
86	0xbc9b4ede	-0.018958505
87	0xbdf300a9	-0.1186536
88	0x3a1c9dd1	0.0005974444
89	0xbd58be63	-0.052915942
90	0xbdbc294a	-0.09187563
91	0xbc133fca	-0.0089873765
92	0xbda4b195	-0.080416836
93	0xbdc5e7c6	-0.09663348
94	0xbc19cfdb	-0.0093879355
95	0xbd63a502	-0.055577286
96	0x3e274920	0.16336489
97	0xbd884f94	-0.06655803
98	0xbdea82d2	-0.11450733
99	0x3e09c5f1	0.13454415
100	0xbe13366c	-0.14376229
101	0xbaa1b7c3	-0.001233809
102	0xbe5133ab	-0.20429866
103	0xbcae2bce	-0.021261122
104	0xbd086104	-0.033295646
105	0xbd96cbd8	-0.07363099
106	0x3db68161	0.08911396
107	0xbd8200fc	-0.06347844
108	0xbe153a77	-0.14573084
109	0xbd951304	-0.072790176
110	0xbca83cc8	-0.020536795
111	0xbc8195e8	-0.015818551
112	0x3d1e8cec	0.038708612
113	0x3dd67038	0.10470623
114	0xbe49f285	-0.1972142
115	0x3e33ce0e	0.17559072
116	0xbcb82fce	-0.022483733
117	0xbdd609ac	-0.104510635
118	0x3bfdf2aa	0.007749875
119	0x3d21cc97	0.039501753
120	0xbd5757e5	-0.052574057
121	0xbdb1560d	-0.08658991
122	0xbd2236c3	-0.039603006
123	0x3d8a89c4	0.06764558
124	0xbd3dfc75	-0.04638334
125	0x3de76204	0.11297992
126	0xbe7b169d	-0.24520345
127	0xbda8ffc0	-0.082519054
128	0xbc12c544	-0.008958165
129	0xbb2cbef2	-0.002635893
130	0x3d2d8014	0.042358473
131	0x3d9df6e6	0.07713108
132	0x3ade40f7	0.0016956617
133	0x3d50c087	0.05096486
134	0xbe9c087f	-0.30475232
135	0x3dbfdb0e	0.09367953
136	0x3dca2596	0.0987045
137	0xbced2e13	-0.028952634
138	0x3cf190aa	0.029487927
139	0x3dadab6f	0.08479964
140	0x3d88fe00	0.06689072
141	0xbd68cce8	-0.05683604
142	0x3db2cb91	0.087302335
143	0xbab2aa4e	-0.0013631077
144	0xbd194a0b	-0.03742413
145	0x3d45faac	0.048334762
146	0x3e1631e0	0.14667463
147	0x3e445697	0.19173656
148	0x3e19d885	0.15024002
149	0x3d69af8f	0.05705219
150	0x3d4aeeed	0.049544264
151	0xbdd725f7	-0.10505288
152	0xbe05c68d	-0.13064022
153	0xbe06d376	-0.13166603
154	0x3dc9bf1f	0.098509066
155	0x3e31f2db	0.17377798
156	0xbb50f05f	-0.0031881554
157	0x3e2cb8d3	0.1686738
158	0xb98c8640	-0.00026802905
159	0xbe3b89fc	-0.18314356
160	0x3c472bea	0.012156466
161	0xbcfb3c34	-0.030668356
162	0xbd6a5426	-0.057209156
163	0x3c381dd8	0.011237584
164	0xbd8a4529	-0.067514725
165	0xbe2a9df6	-0.1666182
166	0x3e4583aa	0.19288507
167	0x3c9bdef3	0.019027209
168	0xbe3de268	-0.18543398
169	0xbb61f89d	-0.003448046
170	0xbddb3ed9	-0.107053466
171	0xbc31237b	-0.010811682
172	0x3c4cf57b	0.012509699
173	0xbd9e9036	-0.0774235
174	0x3db75231	0.08951224
175	0xbe0a6fcd	-0.13519211
176	0xbd816557	-0.06318157
177	0xba785115	-0.00094725314
178	0xbd86ecb9	-0.0658812
179	0xbe0a4fff	-0.13507079
180	0xbe381bde	-0.1797938
181	0x3dc55472	0.09635247
182	0xbd26b09d	-0.040695775
183	0x3dab2c0a	0.08358009
184	0xbd47ad2d	-0.048749138
185	0x3d8649f8	0.06557077
186	0x3cfde75a	0.030994106
187	0x3d8d974a	0.06913622
188	0xbb3c92b5	-0.0028773968
189	0x3da920f6	0.0825824
190	0x3e64b07c	0.22332948
191	0x3dc252b3	0.0948843
192	0xbdbef0b5	-0.09323255
193	0xbdb6f512	-0.08933462
194	0xbd5a8461	-0.053348903
195	0x3dc2ed75	0.095179476
196	0xbdd8df0f	-0.1058942
197	0x3d0d17c6	0.0344465
198	0x3d5b980b	0.053611796
199	0xbcf410f5	-0.029793242
200	0xbddb4344	-0.10706189
201	0xbc890441	-0.016725661
202	0xbd9b5f85	-0.07586578
203	0x3c818d82	0.015814546
204	0xbd4b26c1	-0.049597505
205	0xbe312632	-0.17299727
206	0xbdd2f592	-0.10300745
207	0x3caf402c	0.021392904
208	0xbd17d219	-0.0370656
209	0xbd2fff6a	-0.04296819
210	0x3e2cba3e	0.16867921
211	0x3c8706b9	0.016482698
212	0x3c28deaf	0.010306998
213	0x3d6a5536	0.05721017
214	0x3d22fee5	0.039793868
215	0xbd42d415	-0.04756554
216	0x3ce1e01c	0.027572684
217	0xbe078bc9	-0.13236918
218	0x3d9b8023	0.075927995
219	0x3e1f9209	0.15583052
220	0xbd53a923	-0.051674973
221	0x3cee84c8	0.02911605
222	0xbddd7223	-0.108127855
223	0x3e38cc96	0.18046793
224	0x3e268481	0.16261484
225	0x3daa0f03	0.083036445
226	0xbd7a5c0a	-0.06112293
227	0x3c6dc512	0.014512317
228	0xbcdd5747	-0.027019156
229	0xbb9e5eb0	-0.004833065
230	0xbd55e644	-0.05222155
231	0x3cd44889	0.025913494
232	0x3c48ca09	0.0122552
233	0xbda52f88	-0.080657065
234	0x3d2cc68b	0.042181533
235	0x3d0705c9	0.0329645
236	0xbdaa8091	-0.08325303
237	0x3d8a6a95	0.0675861
238	0x3aadb6af	0.0013253296
239	0x3cb6bb05	0.022305975
240	0xbe1f1cb9	-0.155383
241	0xbdec82d0	-0.11548388
242	0x3d4fa824	0.05069746
243	0xbd5bae6e	-0.053633146
244	0x3d1ce91b	0.038308244
245	0xbe1eeb99	-0.15519561
246	0xbdcba8ef	-0.09944331
247	0x3dffbed2	0.12487568
248	0x3c9507bf	0.01819217
249	0x3e0298f7	0.12753664
250	0x3d96acca	0.07357176
251	0xbd21a071	-0.03945965
252	0x3dec6993	0.11543574
253	0x3da30af3	0.07961073
254	0x3e32a10c	0.17444247
255	0x3d9b713f	0.07589959

module.net.fc1.bias f4 [84]
0	0x3e1da87e	0.15396306
1	0x3d2fb41f	0.042896386
2	0x3d1a03ef	0.037601408
3	0x3d9e5a65	0.07732085
4	0x3bc11c91	0.005893298
5	0xbcd60113	-0.02612356
6	0xbd95e557	-0.07319134
7	0xbda92964	-0.08259848
8	0xbdc5fd7c	-0.09667489
9	0xbd565f94	-0.052337244
10	0x3c8e5e20	0.017378867
11	0x3cf64f00	0.030066967
12	0xbaace480	-0.0013190657
13	0xbd516196	-0.051118456
14	0xbdea4110	-0.11438191
15	0x3c32ea1e	0.010920076
16	0x3beca96b	0.0072223446
17	0xbc92721e	-0.017876681
18	0x3dd47520	0.10373902
19	0x3e10fe8d	0.14159603
20	0x3debd561	0.11515308
21	0xbc34d604	-0.011037353
22	0xbd295021	-0.041336183
23	0xbdbfd7f3	-0.09367361
24	0xbd534adf	-0.051585075
25	0x3d0cdda8	0.034391075
26	0x3def152c	0.1167396
27	0xbdc8c1ee	-0.09802614
28	0x3d9bc484	0.07605842
29	0x3e1cc753	0.15310411
30	0x3cd864b8	0.026415214
31	0xbe32779a	-0.17428437
32	0xbb61164e	-0.003434557
33	0x3d953143	0.072847866
34	0xbdfd3142	-0.12362911
35	0xbd88ea25	-0.066852845
36	0x3c971024	0.018440314
37	0xbcb599d2	-0.022168074
38	0xbc631b80	-0.013861537
39	0xbd1caeee	-0.038252763
40	0x3c29d2e1	0.010365219
41	0xbd140147	-0.03613403
42	0xbd8f20cc	-0.069886774
43	0xbde37acc	-0.11107406
44	0xbdf787c4	-0.12086442
45	0x3c23fcf4	0.010009039
46	0xbdbc9845	-0.092087306
47	0x3e3d6fc6	0.1849967
48	0x3e439fba	0.191039
49	0x3ddd0f73	0.10793962
50	0x3bfc4245	0.0076983296
51	0xbd9808e8	-0.07423574
52	0x3c42ebe2	0.011897059
53	0xbe63bf7d	-0.22241016
54	0x3d91f73b	0.071272336
55	0xbd19133f	-0.03737187
56	0x3d4152a2	0.047197945
57	0xbd879cbf	-0.06621694
58	0x3dadbacd	0.08482895
59	0xbd90714e	-0.07052861
60	0x3dc3c685	0.09559349
61	0x3db0bc5d	0.086296774
62	0x3cb407e4	0.021976419
63	0xbd847953	-0.06468453
64	0x3d43fcca	0.0478485
65	0xbdf543fa	-0.11975856
66	0x3bb2dbef	0.005458347
67	0xbccd706d	-0.025078023
68	0x3da0f8d7	0.078599624
69	0xbbd7ce31	-0.006585859
70	0x3de9717c	0.113985986
71	0xbd9e57a7	-0.07731562
72	0x3d222002	0.039581306
73	0x3cab42c5	0.020905862
74	0xbc134c6f	-0.008990391
75	0x3d378bb5	0.04481097
76	0x3db27534	0.08713761
77	0x3e13c042	0.1442881
78	0x3d0a18ec	0.033715174
79	0xbd897fb1	-0.06713808
80	0x3d561de5	0.052274603
81	0x3df4cd05	0.11953167
82	0x3e01b28a	0.12665763
83	0x3e13bea4	0.14428192

module.net.fc2.weight f4 [10, 84]
0	0x3ea05f9d	0.31322947
1	0x3dbfbbef	0.09362017
2	0x3f086526	0.5327934
3	0xbe923348	-0.2855475
4	0x3dd3b524	0.10337284
5	0x3d24b8f9	0.040215466
6	0x3dfc005f	0.12304758
7	0x3c0328c5	0.008005326
8	0xbdd35d50	-0.10320532
9	0xbd21983e	-0.03945183
10	0xbe9380e4	-0.28809273
11	0x3dd6fe6f	0.10497748
12	0x3ea214f2	0.31656605
13	0xbe2c14b0	-0.16804767
14	0x3e7fe7bf	0.24990748
15	0x3dc0d80e	0.09416209
16	0xbe7043c1	-0.23463346
17	0x3e7bdd57	0.24596153
18	0xbdf334b4	-0.11875287
19	0xbd09166e	-0.033468656
20	0xbe1ac47b	-0.15114014
21	0x3e44457d	0.19167133
22	0xbd9f5212	-0.077793255
23	0x3e941ce6	0.28928298
24	0x3e9677a2	0.29388148
25	0x3e35f8b3	0.17770652
26	0xbdcae324	-0.09906605
27	0xbd69c29f	-0.05707037
28	0xbec4f9db	-0.38471875
29	0x3e46a918	0.19400442
30	0xbdde9fee	-0.10870348
31	0xbe02c419	-0.12770118
32	0x3e31eff3	0.1737669
33	0x3de2f6c0	0.1108222
34	0xbd1c5ac4	-0.0381725
35	0x3c11a818	0.008890174
36	0xbe12c83a	-0.14334193
37	0xbe8a3538	-0.26993728
38	0xbb5dde2c	-0.0033854349
39	0xbebf58ba	-0.3737238
40	0xbe38bf4d	-0.18041725
41	0x3e0c667f	0.13710974
42	0x3f1470a5	0.5798438
43	0xbdc384cd	-0.09546814
44	0xbcab2e8c	-0.020896219
45	0x3e866cc0	0.26254845
46	0x3eb0b992	0.3451658
47	0x3d029e99	0.03188953
48	0x3e22985a	0.1587843
49	0x3deba0ad	0.11505256
50	0x3e055c34	0.13023454
51	0x3ed37577	0.41300556
52	0xbe310f8f	-0.17291091
53	0x3dab689c	0.08369562
54	0x3e132615	0.14369996
55	0x3e99b95f	0.3002424
56	0xbf486e5f	-0.7829341
57	0x3e9de4ce	0.30838627
58	0xba0bd112	-0.0005333583
59	0xbe423e88	-0.18969166
60	0x3d07028a	0.032961406
61	0xbeb12e06	-0.34605426
62	0xbe18ef1d	-0.14934964
63	0xbc866d7d	-0.01640963
64	0xbddde84c	-0.10835323
65	0x3e44e57a	0.19228163
66	0x3e57c950	0.21072888
67	0x3f12a4b3	0.5728256
68	0xbe7f312a	-0.24921098
69	0x3df2808d	0.11840925
70	0x3ca718a4	0.020397492
71	0xbdd87191	-0.10568536
72	0x3ddbf4dc	0.107400626
73	0x3e818e5f	0.25303933
74	0xbdc91824	-0.098190576
75	0xbeb0c214	-0.3452307
76	0x3e5d49b9	0.21610154
77	0xbea6ece3	-0.32602605
78	0xbea4101a	-0.32043535
79	0xbcdcdec9	-0.026961701
80	0x3e012337	0.1261109
81	0x3e2190fe	0.15777966
82	0x3e826028	0.25463986
83	0x3dd5434f	0.10413229
84	0x3ddfbaff	0.109243385
85	0xbdb83990	-0.08995354
86	0xbd0aa62e	-0.033849888
87	0xbe734773	-0.23757724
88	0xbe71af50	-0.23602033
89	0x3e09cf38	0.13457954
90	0xbe1cecbe	-0.15324685
91	0xbdbb79af	-0.09154069
92	0x3e8db06c	0.27673662
93	0x3ea01775	0.31267896
94	0x3ebd2387	0.36941168
95	0x3e4d5449	0.20051683
96	0x3e114b8f	0.1418898
97	0x3e71bb36	0.23606572
98	0xbe7d74e2	-0.24751619
99	0xbe072094	-0.13196021
100	0x3de9110e	0.11380206
101	0xbc55baea	-0.013045052
102	0x3e495d2a	0.19664446
103	0xbe11c830	-0.14236522
104	0x3d499893	0.04921777
105	0xbe7a5513	-0.24446516
106	0x3e9e7e2f	0.30955645
107	0x3e79a1fd	0.243782
108	0xbea9e466	-0.33182067
109	0x3e706cab	0.23478954
110	0x3eb37edb	0.3505772
111	0x3e6a736b	0.22895591
112	0x3ec7f3ef	0.39053294
113	0xbe4c29ee	-0.1993787
114	0xbed3d889	-0.4137614
115	0x3e2be1c3	0.1678534
116	0xbd68ed23	-0.056866776
117	0xbd7131a7	-0.058885243
118	0xbd153c9c	-0.036434755
119	0x3e3f8e8a	0.18706718
120	0xbf4372a3	-0.76346797
121	0x3ec4dd2d	0.38449994
122	0xbddf550d	-0.10904894
123	0x3e90c56e	0.28275627
124	0x3cda18b3	0.026623106
125	0x3e0e6211	0.13904597
126	0xbecc6e6e	-0.39928
127	0x3e598901	0.21243669
128	0x3e91fe87	0.285145
129	0x3dc77609	0.0973931
130	0xbe8c45f5	-0.27397123
131	0x3df79dd3	0.120906495
132	0x3ea50722	0.32232004
133	0xbeb3d310	-0.35121965
134	0x3dcfaba6	0.10140161
135	0x3eb8e21b	0.36110005
136	0xbea70f24	-0.3262874
137	0xbd47a546	-0.0487416
138	0xbdc7803d	-0.097412564
139	0xbe6f5170	-0.2337091
140	0x3e8afcce	0.27146
141	0xbf072777	-0.52794594
142	0x3ea91bfb	0.3302916
143	0xbe8da941	-0.27668193
144	0xbd050332	-0.03247375
145	0x3d8fdb37	0.07024234
146	0x3e81a852	0.2532373
147	0xbdaaf991	-0.08348382
148	0x3ef51065	0.4786407
149	0xbeac714c	-0.3368019
150	0xbdffe9fd	-0.124958016
151	0xbea1e3ca	-0.31619102
152	0xbd2c88ef	-0.042122778
153	0x3e49a088	0.19690144
154	0xbd44ebda	-0.048076488
155	0xbd8f38ae	-0.06993233
156	0xbed77613	-0.4208227
157	0x3e73d914	0.23813277
158	0x3ec03bdf	0.37545678
159	0xbe3b2507	-0.18275844
160	0x3e46f135	0.1942795
161	0x3de50e18	0.11184329
162	0x3e4a6641	0.1976557
163	0x3e4310c7	0.19049369
164	0xbe5bb4c1	-0.21455671
165	0xbe3cd568	-0.18440783
166	0x3ea36ff3	0.31921348
167	0x3ee409de	0.44538778
168	0x3ee18bbd	0.44051924
169	0x3d240121	0.04004014
170	0x3da1a4ba	0.07892747
171	0x3dc7b884	0.097519904
172	0xbe79f954	-0.24411517
173	0xbdc1f5a7	-0.094706826
174	0xbd735aa3	-0.05941261
175	0xbeb438b5	-0.35199514
176	0xbe65e71f	-0.22451447
177	0xbe08085c	-0.13284439
178	0x3e894cec	0.268165
179	0xbeb036f9	-0.3441694
180	0x3e149928	0.1451155
181	0x3c87319f	0.016503153
182	0x3d101fab	0.03518645
183	0xbd949937	-0.07255786
184	0xbe123c7b	-0.14280884
185	0xbe6d8fb9	-0.23199357
186	0x3e750e0a	0.23931137
187	0x3e8bebee	0.27328438
188	0x3d835ef2	0.06414594
189	0xbe57c1d5	-0.21070035
190	0x3e3f9527	0.18709241
191	0xbe7f640d	-0.2494051
192	0xbed6083c	-0.41803157
193	0x3e915627	0.28386042
194	0x3e0183dd	0.12647958
195	0x3dd98441	0.106209286
196	0x3e23df66	0.16003188
197	0x3d8bd7f3	0.068282984
198	0xbe284d02	-0.16435626
199	0x3e9e8f03	0.30968484
200	0xbcda0293	-0.026612556
201	0x3ef7e79a	0.48418885
202	0xbea440dd	-0.32080737
203	0x3d57d0a7	0.05268922
204	0xbc85fb42	-0.01635516
205	0xbe61c6dd	-0.22048517
206	0x3d067520	0.032826543
207	0xbe82acb0	-0.25522375
208	0xbccc3ffc	-0.024932854
209	0xbef0f962	-0.47065264
210	0xbc8d77d7	-0.017269058
211	0xbea0fb50	-0.31441736
212	0x3e07b978	0.13254344
213	0xbe43a4d8	-0.19105852
214	0x3e08df7a	0.133665
215	0xbea1e83f	-0.31622502
216	0x3e1afb38	0.15134895
217	0x3ea2ead5	0.31819788
218	0xbdbd3f5a	-0.09240599
219	0xbe832e55	-0.25621286
220	0x3ee6065b	0.44926724
221	0xbf03369d	-0.5125521
222	0x3d526352	0.05136425
223	0xbdb1e959	-0.08687086
224	0x3da44d32	0.08022536
225	0x3e562946	0.20914182
226	0x3ee0c414	0.43899596
227	0x3d2a7d35	0.041623313
228	0x3c83447c	0.016023867
229	0x3cd7cb2d	0.026341999
230	0x3e9353dd	0.2877492
231	0x3db605f1	0.08887852
232	0x3e13af4c	0.14422339
233	0xbdd0064c	-0.10157451
234	0xbe8b9bf8	-0.27267432
235	0xbcd89abf	-0.026440976
236	0x3d64f4d2	0.05589754
237	0x3e9b7f23	0.30370435
238	0xbe382048	-0.17981064
239	0xbe9d8935	-0.30768743
240	0xbe82da4e	-0.25557178
241	0xbe9b3ae3	-0.30318365
242	0xbdd5849c	-0.10425684
243	0x3e03aff4	0.1286009
244	0x3e2dc95b	0.16971342
245	0x3d298876	0.041389905
246	0x3eec2021	0.46118262
247	0xbdd23e1f	-0.10265755
248	0x3c1abe0f	0.009444728
249	0xbd307192	-0.04307706
250	0xbdfcaa30	-0.12337148
251	0x3eb1842a	0.34671146
252	0xbe192168	-0.1495415
253	0xbe68e1be	-0.22742364
254	0x3e3f463d	0.18679138
255	0x3e789162	0.24274209

module.net.fc2.bias f4 [10]
0	0xbec374c1	-0.38175014
1	0xbcbeb318	-0.023278758
2	0x3eb6c0d4	0.3569399
3	0x3e36af79	0.17840375
4	0xbe78c2f0	-0.24293113
5	0x3e70fe58	0.23534524
6	0xbe325334	-0.17414552
7	0x3e530e8c	0.20611018
8	0x3c209cf8	0.009803049
9	0xbdb34c47	-0.08754783
