models/pretrained/MNIST/weak_U_lenet_w_acc_98.pt (torch, 249863 bytes, 10 tensors)

net.conv1.weight f4 [6, 1, 5, 5]
-0.05372228 -0.107666396 0.012127535 0.060411237 0.38854557 -0.16758351 -0.073340856 0.31318384
0.14889467 0.22836207 -0.11755234 0.36209735 0.025382945 -0.10969854 -0.19112349 0.48997876
0.29755694 -0.10781123 -0.45167986 -0.6189914 0.55543846 -0.012124613 -0.37735903 -0.41154674
-0.35458055 0.30138454 -0.08941505 -0.6831239 -0.48120844 0.29751542 -0.017928978 -0.6594859
-0.35617015 -0.034542747 0.20173423 -0.3664521 -0.55274826 -0.14300296 -0.032947533 0.067692496
-0.579055 -0.2897376 0.064838395 0.13593933 0.04491272 -0.031695962 0.07048976 0.19497864
0.07120179 0.07629348 0.5625458 0.3779005 -0.026152065 -0.010812704 -0.41897833 0.49501446
0.13349637 0.13733615 0.5059926 0.23533669 -0.04776824 -0.42073548 -0.2052748 0.4011906
0.41433617 -0.22259909 -0.2544434 0.012107475 0.07039877 0.38971302 -0.20562436 0.027250638
0.07668524 -0.037250046 -0.22730508 0.17057072 0.4008801 0.40289578 0.06453498 -0.03716597
-0.28341553 -0.18604986 -0.636969 -0.5250544 -0.43070087 -0.7825858 -1.013489 -0.29900154
0.026007535 0.1311462 -0.2595184 0.25403845 0.37359026 0.056488734 -0.22938442 0.7386261
0.46743193 -0.03877543 -0.13462381 0.22875084 0.16377558 0.23703298 0.36496204 0.20858142
0.41676584 -0.21303628 -0.22347152 -0.1416687 -0.07551833 -0.17355011 -0.2053015 -0.27495477
-0.45235148 -0.5615416 -0.22341895 -0.25481135 -0.21077856 -0.26214468 -0.1917915 -0.1742555
0.21862032 -0.27858582 -0.11127175 -0.11612832 0.18356298 -0.096036516 0.5322453 0.50619537
0.2742615 0.043274585 0.33607954 0.21128924 -0.26540273 -0.15969653 -0.26571494 0.13857631
-0.61049926 -0.49223807 -0.35070044 -0.08345028 -0.4029021 -0.59862375 -0.3562251 -0.031404518
0.03196622 -0.13641617 0.37280518 0.541936 0.22599879 0.054312974
00000000: e50b 5cbd 3380 dcbd 92b2 463c c671 773d
00000010: 72ef c63e 039b 2bbe bb33 96bd a259 a03e
00000020: d877 183e bfd7 693e 48bf f0bd d364 b93e
00000030: e5ef cf3c a1a9 e0bd e0b5 43be 7fde fa3e
00000040: 6259 983e 22cc dcbd 9542 e7be 3876 1ebf
00000050: 3731 0e3f 50a6 46bc 3435 c1be 41b6 d2be
00000060: 958b b5be 134f 9a3e 3d1f b7bd 35e1 2ebf
00000070: f460 f6be f153 983e cbdf 92bc 11d4 28bf
00000080: ef5b b6be b27c 0dbd 6b93 4e3e 9c9f bbbe
00000090: e980 0dbf 5e6f 12be fef3 06bd 5da2 8a3d
000000a0: f33c 14bf 7d58 94be fec9 843d ae33 0b3e
000000b0: 66f6 373d a0d3 01bd ef5c 903d 7ba8 473e
000000c0: 3ed2 913d c23f 9c3d 0003 103f 2d7c c13e
000000d0: db3c d6bc c527 31bc 5484 d6be 8972 fd3e
000000e0: 46b3 083e d9a1 0c3e bb88 013f 1afc 703e
000000f0: a1a8 43bd a46a d7be 8f33 52be db68 cd3e
00000100: df23 d43e 04f1 63be 6846 82be 6e5e 463c
00000110: 3b2d 903d 7788 c73e 318f 52be bb3c df3c
00000120: 270d 9d3d 8193 18bd aac2 68be 17aa 2e3e
00000130: 2840 cd3e 5b48 ce3e ea2a 843d 583b 18bd
00000140: d71b 91be db83 3ebe 6610 23bf f769 06bf
00000150: d384 dcbe 8b57 48bf 02ba 81bf bb16 99be
00000160: c10d d53c 304b 063e 99df 84be 5411 823e
00000170: 3947 bf3e bb60 673d c0e3 6abe 9a16 3d3f
00000180: 3d53 ef3e fcd2 1ebd d3da 09be a93d 6a3e
00000190: c9b4 273e c6b8 723e 4edc ba3e 5e96 553e
000001a0: 5562 d53e 2f26 5abe b8d5 64be 9a11 11be
000001b0: 5ba9 9abd 1fb7 31be 8e3a 52be dfc6 8cbe
000001c0: 9d9a e7be 31c1 0fbf f0c7 64be a276 82be
000001d0: 56d6 57be d437 86be fe64 44be 0970 32be
000001e0: 01de 5f3e cda2 8ebe 71e2 e3bd afd4 edbd
000001f0: eff7 3b3e cbae c4bd 3a41 083f 0596 013f
00000200: 016c 8c3e b140 313d 9e12 ac3e 355c 583e
00000210: dee2 87be 7d87 23be ca0b 88be f3e6 0d3e
00000220: ae49 1cbf a106 fcbe 028f b3be fbe7 aabd
00000230: 2f49 cebe 683f 19bf 2363 b6be 06a2 00bd
00000240: 03ef 023d aeb0 0bbe 52e0 be3e 51bc 0a3f
00000250: 3a6c 673e 4877 5e3d

net.conv1.bias f4 [6]
0.061858464 -0.4684179 0.22355846 -0.7360967 -0.18066436 -0.59137523
00000000: 4d5f 7d3d 79d4 efbe 82ec 643e d570 3cbf
00000010: 1400 39be 5e64 17bf

net.conv2.weight f4 [16, 6, 5, 5]
-0.030164814 -0.09081775 0.020142775 0.053618502 0.30345505 0.21970733 -0.20234548 -0.21716236
0.10492839 0.11226336 0.060792696 -0.40745646 -0.05908309 -0.07093923 0.016284747 -0.22005475
-0.36089212 -0.03657853 -0.02092537 -0.15680124 -0.36411223 -0.15392034 0.027196337 -0.08854431
-0.09711726 0.09789715 0.16647643 0.017983072 -0.13082416 -0.13172556 -0.064457685 -0.14121956
0.009241481 -0.21429102 -0.079911895 -0.037777647 0.22307464 -0.10467408 -0.21504785 -0.1318871
-0.07811467 0.07382358 -0.06844164 -0.1658891 0.011381491 0.2372882 0.06638538 -0.08312634
0.044821803 -0.015533557 -0.18121424 -0.17645913 -0.025930159 -0.008184019 -0.026057338 -0.16884859
-0.25059792 0.08222163 -0.03269418 -0.14939675 -0.23889056 -0.15576792 0.111422054 0.0020274585
-0.073002905 -0.1371794 -0.17399393 0.038137812 0.036061727 -0.105339356 -0.177588 -0.19946373
0.07481035 0.090563454 -0.11806817 0.12499186 0.14503033 0.14709745 -0.048951223 -0.06871261
0.17106944 0.023453996 -0.23768812 -0.1376071 0.21295828 0.21421894 0.26100984 -0.1582561
-0.22781022 -0.043014467 0.12624143 -0.08322881 -0.16689374 -0.16395564 0.06788327 0.1812055
-0.026903238 -0.14064522 0.030737901 0.21571116 0.09108822 -0.015665967 -0.112636395 -0.18932447
0.046779998 0.12158718 -0.01866937 -0.21572186 -0.27906147 -0.13528328 0.21816306 0.08386955
-0.283958 -0.3140537 0.03719494 0.23500542 -0.15570576 -0.12376031 -0.21669832 -0.12829286
-0.03640682 -0.35633337 -0.22558339 -0.02344303 -0.07730243 -0.039845824 -0.062448338 -0.058328375
-0.13821077 0.109586276 0.10690903 0.0588771 -0.08357088 -0.039666723 0.0059834584 0.102115236
0.068471335 -0.28025705 -0.11320844 0.15839545 0.048743967 -0.0045190253 -0.11386119 -0.07579448
0.019085636 0.19582537 -0.079598404 -0.050450835 0.19865543 0.012195743 0.1508311 0.08962971
-0.086361974 -0.0048135296 0.012103652 0.0320781 -0.29905277 -0.07624483 -0.015167525 0.022484386
-0.4046653 -0.12843618 0.07377609 -0.22719666 -0.35753813 0.20097868 0.15183128 -0.0020024886
-0.14806928 -0.07127076 0.18714158 -0.25311595 0.034227613 0.00060164597 0.0058739204 0.011897719
0.023459772 0.17201935 -0.099983566 0.16055925 0.14185862 0.22329669 0.016558709 -0.0353428
-0.054630943 0.28944755 0.20952636 -0.11870268 -0.13957705 -0.1222047 -0.25016052 -0.2913503
-0.17050387 -0.203011 -0.16933613 -0.1972912 -0.017498838 -0.07854092 -0.010294194 -0.08056713
-0.0029157149 -0.2258029 -0.28050357 -0.328826 -0.22187638 -0.11370566 -0.005841585 -0.07024888
-0.018736593 -0.0911688 -0.10896977 -0.011969171 0.14116462 0.029158004 -0.020407751 0.014135618
-0.14564 0.12096995 -0.016603993 0.22336213 0.12911996 0.076136805 0.19084252 -0.01203753
0.16424459 -0.20022221 -0.042968288 0.1469991 0.08327699 0.08995579 -0.1548358 0.19496779
0.29803383 0.12087921 -0.17613119 0.30320823 0.36418694 -0.025980962 0.08033378 -0.05219677
-0.04275041 -0.1831259 0.23120658 0.06981467 0.041303243 -0.10287442 0.25823867 0.22676072
0.103735656 -0.039245445 -0.04338664 0.097314015 0.03621648 -0.029444775 0.08396241 0.029837891
00000000: 331c f7bc a8fe b9bd 7602 a53c 139f 5b3d
00000010: 765e 9b3e f5fa 603e a733 4fbe cf5f 5ebe
00000020: b2e4 d63d 55ea e53d c301 793d 229e d0be
00000030: 1c01 72bd 9648 91bd 9767 853c 0856 61be
00000040: dac6 b8be 5ed3 15bd ae6b abbc 8190 20be
00000050: eb6c babe 4b9d 1dbe daca de3c b856 b5bd
00000060: 6ae5 c6bd 4d7e c83d cc78 2a3e 3c51 933c
00000070: c5f6 05be 11e3 06be 6402 84bd dc9b 10be
00000080: 9569 173c 1b6f 5bbe d9a8 a3bd bcbc 1abd
00000090: ae6d 643e 5d5f d6bd 8135 5cbe 690d 07be
000000a0: 96fa 9fbd d130 973d 212b 8cbd d5de 29be
000000b0: 6f79 3a3c aefb 723e 0ff5 873d 243e aabd
000000c0: 1197 373d 7680 7ebc 3a90 39be b4b1 34be
000000d0: 7c6b d4bc 4316 06bc 3376 d5bc a5e6 2cbe
000000e0: 5f4e 80be d063 a83d 55ea 05bd 76fb 18be
000000f0: ba9f 74be a081 1fbe 3f31 e43d 1cdf 043b
00000100: 8c82 95bd c278 0cbe 772b 32be 6536 1c3d
00000110: 76b5 133d 29bc d7bd a1d9 35be 3840 4cbe
00000120: 2b36 993d 5579 b93d bacd f1bd bbfb ff3d
00000130: d582 143e b7a0 163e 1481 48bd 32b9 8cbd
00000140: d42c 2f3e 9822 c03c 8464 73be e0e8 0cbe
00000150: bc11 5a3e 365c 5b3e 15a3 853e e30d 22be
00000160: 1547 69be f02f 30bd 6f45 013e de73 aabd
00000170: 31e6 2abe fde3 27be 6206 8b3d ef8d 393e
00000180: 2e64 dcbc 4d05 10be 0dce fb3c 63e3 5c3e
00000190: 768c ba3d ea55 80bc e9ad e6bd 46de 41be
000001a0: 629c 3f3d b302 f93d 82f0 98bc 31e6 5cbe
000001b0: 25e1 8ebe b387 0abe 2366 5f3e ccc3 ab3d
000001c0: f162 91be a6cb a0be b959 183d 43a5 703e
000001d0: 5571 1fbe 0c76 fdbd 2ae6 5dbe 345f 03be
000001e0: 511f 15bd 5471 b6be 55ff 66be 990b c0bc
000001f0: bd50 9ebd 6035 23bd d4c9 7fbd bce9 6ebd
00000200: 2087 0dbe c56e e03d 1ff3 da3d 1d29 713d
00000210: 3627 abbd 9379 22bd e310 c43b cb21 d13d
00000220: b33a 8c3d da7d 8fbe d4d9 e7bd 6b32 223e
00000230: c1a7 473d 5514 94bb 0e30 e9bd 233a 9bbd
00000240: 7b59 9c3c 7286 483e 7d04 a3bd 89a5 4ebd
00000250: 546c 4b3e a7d0 473c 7873 1a3e c88f b73d
00000260: 8cde b0bd d0ba 9dbb 654e 463c 5364 033d
00000270: 721d 99be 4026 9cbd 3681 78bc 2d31 b83c
00000280: 4a30 cfbe c684 03be eb17 973d 3ea6 68be
00000290: 3d0f b7be 5bcd 4d3e a979 1b3e 2f3c 03bb
000002a0: 799f 17be 67f6 91bd 0ba2 3f3e 6a98 81be
000002b0: 4132 0c3d c7b7 1d3a 047a c03b a7ee 423c
000002c0: b52e c03c d725 303e 2fc4 ccbd a569 243e
000002d0: 6343 113e e3a7 643e 21a6 873c 9dc3 10bd
000002e0: b2c4 5fbd 7832 943e 148e 563e 641a f3bd
000002f0: 49ed 0ebe 7546 fabd 0a15 80be de2b 95be
00000300: 9198 2ebe 1ee2 4fbe 7366 2dbe b406 4abe
00000310: b959 8fbc 10da a0bd fba8 28bc 6100 a5bd
00000320: 9415 3fbb e038 67be 2a9e 8fbe e25b a8be
00000330: 9033 63be 83de e8bd c46a bfbb a5de 8fbd
00000340: 7c7d 99bc b5b6 babd 8b2b dfbd 581a 44bc
00000350: 758d 103e c4dc ee3c 282e a7bc 1499 673c
00000360: a722 15be 18bf f73d 1905 88bc 0bb9 643e
00000370: 0638 043e 9ded 9b3d 396c 433e 0f39 45bc
00000380: bc2f 283e 0d07 4dbe 84ff 2fbd ef86 163e
00000390: 208d aa3d be3a b83d 478d 1ebe a3a5 473e
000003a0: e497 983e 858f f73d bc5b 34be 1c3e 9b3e
000003b0: b676 ba3e 07d6 d4bc 0986 a43d 48cc 55bd
000003c0: 0e1b 2fbd 5b85 3bbe 6bc1 6c3e fefa 8e3d
000003d0: 972d 293d d3af d2bd dc37 843e f633 683e
000003e0: 5c73 d43d d5bf 20bd 30b6 31bd 924c c73d
000003f0: bb57 143d 2b36 f1bc 7cf4 ab3d 986e f43c

net.conv2.bias f4 [16]
-0.3872594 -0.13301939 -0.08474138 -0.3975871 -0.15863755 -0.225036 -0.2717266 -0.19016124
-0.106790245 -0.23377667 -0.20804022 -0.5936772 -0.3093505 -0.08854558 -0.5751439 -0.18208289
00000000: dd46 c6be 3c36 08be e38c adbd 8990 cbbe
00000010: e271 22be d66f 66be c01f 8bbe a1b9 42be
00000020: d8b4 dabd 2763 6fbe 7f08 55be 3bfb 17bf
00000030: 3063 9ebe 6357 b5bd a13c 13bf f073 3abe

net.conv3.weight f4 [120, 16, 5, 5]
-0.006679884 0.045547437 -0.065363206 0.020879045 -0.020346489 0.019502558 -0.0155242365 -0.06845216
0.046573993 0.041819245 0.067192644 0.029797498 -0.0033052904 0.012747407 0.09275825 0.04797753
0.012202016 -0.097281724 -0.02797304 0.09978183 0.0591223 -0.04494308 -0.15455966 -0.083930165
0.0056835534 0.01087399 -0.02731313 -0.079750605 -0.09866468 -0.04847848 0.005605541 -0.040626843
-0.054269083 -0.0065946784 -0.026848415 -0.012817653 -0.03519825 0.0152471 0.06507847 0.09418314
0.01790548 -0.022916883 0.10494375 0.116146415 0.01971455 -0.043161057 -0.008924435 0.018950671
0.031510264 -0.029900499 -0.029700998 -0.022229316 -0.048508458 -0.030181589 -0.051546857 -0.046471946
-0.030877374 -0.017052673 -0.045655053 0.10180912 0.09464831 -0.06117171 0.02212194 0.012934333
0.06798667 0.040641215 0.080443054 -0.056981407 0.040901873 0.027485423 -0.020639526 0.08300493
-0.014447596 0.0094067445 -0.008003305 -0.034678437 -0.044029284 -0.052541785 -0.029759271 -0.023442628
0.05658238 0.0031418873 -0.074526325 -0.082363285 -0.073621325 -0.041888017 -0.040641293 -0.041359067
-0.08350755 0.12990734 0.025762394 -0.0044066254 0.002270726 0.051158484 0.14185117 0.019061256
-0.13633151 -0.12972964 -0.068481065 0.023619704 0.06591491 0.035921585 -0.013041321 0.015480393
-0.07167051 -0.045425065 -0.019792287 -0.0072198743 -0.069968574 -0.054558117 -0.055794735 0.037294805
-0.011329829 0.021166982 -0.02785394 -0.12486916 -0.049474 -0.016071592 0.0026873178 0.0058600144
0.03829584 -0.04122618 -0.038918436 0.096443124 0.10857879 0.014277615 0.047064718 0.006526024
0.012206626 -0.0381493 -0.0725301 0.06532709 0.028917925 0.0043651233 -0.044682965 -0.11589367
-0.08279515 -0.043157436 -0.056180313 -0.07863809 -0.073894516 0.00588406 0.04000178 -0.04972866
-0.04361558 -0.049463794 -0.0282899 0.049307235 0.016117861 -0.034378167 -0.014379553 0.008784122
-0.01896215 0.011409558 0.046882372 0.06429843 -0.0053807423 0.033072446 -0.053685166 -0.06389628
-0.01812582 -0.16897419 -0.050122634 -0.10109824 -0.036663186 0.0014555656 -0.0092782285 -0.04348523
0.034354646 0.038514405 -0.004350926 -0.03369048 0.080428906 0.062051456 0.09665015 -0.026431195
-0.07230452 -0.0681499 -0.049417637 0.015008351 0.03765722 0.049891632 -0.08016916 -0.048496433
0.014196881 0.019709356 -0.033041827 -0.06777065 -0.055201653 -0.0018749395 -0.0031604378 -0.052241042
0.0018416337 0.07292519 -0.004377844 0.025194077 -0.0014003805 0.04269008 -0.036366437 0.047176395
-0.047987465 -0.078574136 -0.07167685 -0.024150828 -0.052978523 0.050454438 -0.04148377 -0.054027803
-0.081754334 -0.03042117 -0.030391714 0.04243989 0.006157332 -0.09709023 -0.09039465 0.02724134
-0.020947276 0.11185365 0.02627667 0.08300557 -0.026097346 -0.019872686 -0.04724055 -0.11586384
-0.016342668 0.012033254 -0.052053712 0.03836946 0.0045487504 -0.0019162772 -0.01969619 0.0024590716
-0.072346896 -0.024701746 0.06587972 0.076677516 0.040664874 0.01694607 0.056102395 -0.04978154
-0.004628432 -0.04853786 -0.07838181 -0.019410266 -0.08221079 0.03629731 -0.013974504 0.008568863
-0.009585907 -0.012021252 0.035076138 -0.06986534 -0.06366973 -0.07738141 -0.072266035 -0.009567359
00000000: eee2 dabb f38f 3a3d 25dd 85bd 880a ab3c
00000010: aead a6bc d4c3 9f3c 5e59 7ebc a530 8cbd
00000020: 5fc4 3e3d a84a 2b3d 4c9c 893d e219 f43c
00000030: 929d 58bb 80da 503c 0af8 bd3d 1684 443d
00000040: f7ea 473c a43b c7bd b727 e5bc 6b5a cc3d
00000050: 3a2a 723d 3c16 38bd e344 1ebe 94e3 abbd
00000060: 1a3d ba3b d228 323c c9bf dfbc 4954 a3bd
00000070: b510 cabd 5f91 46bd b0ae b73b 5568 26bd
00000080: 4249 5ebd 2c18 d8bb 35f1 dbbc 2201 52bc
00000090: 0a2c 10bd f9ce 793c dc47 853d 17e3 c03d
000000a0: 83ae 923c 30bc bbbc c0ec d63d 2cde ed3d
000000b0: 6880 a13c a6c9 30bd cb37 12bc 703e 9b3c
000000c0: e810 013d e4f1 f4bc 824f f3bc 411a b6bc
000000d0: ceb0 46bd 613f f7bc cc22 53bd 5e59 3ebd
000000e0: 8cf2 fcbc 0cb2 8bbc cb00 3bbd 4d81 d03d
000000f0: f9d6 c13d 308f 7abd 1239 b53c 86ea 533c
00000100: 983c 8b3d 6777 263d 54bf a43d 5665 69bd
00000110: b988 273d 1c29 e13c 3914 a9bc 7dfe a93d
00000120: 9cb5 6cbc bf1e 1a3c 4b20 03bc fa0a 0ebd
00000130: 0d58 34bd 0e36 57bd b7c9 f3bc c10a c0bc
00000140: edc2 673d 1fe8 4d3b 42a1 98bd 15ae a8bd
00000150: c7c6 96bd c592 2bbd 7c77 26bd 2068 29bd
00000160: 0206 abbd 6e06 053e a80b d33c 7465 90bb
00000170: 76d0 143b 8f8b 513d 6f41 113e 5a26 9c3c
00000180: 7d9a 0bbe d9d7 04be cd3f 8cbd 1c7e c13c
00000190: 65fe 863d 8322 133d 44ab 55bc 79a1 7d3c
000001a0: fdc7 92bd a20f 3abd 6f23 a2bc b294 ecbb
000001b0: af4b 8fbd 5578 5fbd 0589 64bd 70c2 183d
000001c0: bfa0 39bc 6166 ad3c f22d e4bc 67bb ffbd
000001d0: 40a5 4abd 92a8 83bc b61d 303b 5d05 c03b
000001e0: 19dc 1c3d c8dc 28bd f068 1fbd f983 c53d
000001f0: 8f5e de3d a8ec 693c efc6 403d 42d8 d53b
00000200: 4dfe 473c 7142 1cbd a98a 94bd 36ca 853d
00000210: 49e5 ec3c 4f09 8f3b 7c05 37bd a959 edbd
00000220: 8190 a9bd dac5 30bd 541d 66bd 020d a1bd
00000230: 0256 97bd 13cf c03b e8d8 233d 48b0 4bbd
00000240: 40a6 32bd 8c9a 4abd 38c0 e7bc 62f6 493d
00000250: 9b09 843c 1fd0 0cbd 3798 6bbc 47eb 0f3c
00000260: 8356 9bbc 28ef 3a3c bb07 403d e5ae 833d
00000270: f050 b0bb f976 073d fae4 5bbd 0edc 82bd
00000280: 9a7c 94bc 9207 2dbe 644d 4dbd 980c cfbd
00000290: 232c 16bd adc8 be3a b603 18bc 921d 32bd
000002a0: 75b7 0c3d 48c1 1d3d 3692 8ebb 07ff 09bd
000002b0: e9b7 a43d ab29 7e3d 84f0 c53d 3c86 d8bc
000002c0: 6414 94bd 2d92 8bbd 266a 4abd 96e5 753c
000002d0: 753e 1a3d 2b5b 4c3d bb2f a4bd 32a4 46bd
000002e0: 099a 683c 8475 a13c de56 07bd 57cb 8abd
000002f0: 211b 62bd 88c0 f5ba 591f 4fbb b4fa 55bd
00000300: f962 f13a cd59 953d 0474 8fbb cf63 ce3c
00000310: f98c b7ba cbdb 2e3d f9f4 14bd 093c 413d
00000320: 818e 44bd 7aeb a0bd 50cb 92bd f5d7 c5bc
00000330: 0200 59bd 50a9 4e3d e3ea 29bd 424c 5dbd
00000340: d16e a7bd d135 f9bc 0bf8 f8bc 73d5 2d3d
00000350: 72c3 c93b 3ed7 c6bd d520 b9bd 3b29 df3c
00000360: 9f99 abbc 8713 e53d 2c42 d73c d3fe a93d
00000370: 1aca d5bc 0bcc a2bc 4f7f 41bd 054a edbd
00000380: 0fe1 85bc 2027 453c 4636 55bd 4b29 1d3d
00000390: af0d 953b 982b fbba e759 a1bc 6028 213b
000003a0: 9c2a 94bd 515b cabc f2eb 863d 1a09 9d3d
000003b0: 3690 263d 7cd2 8a3c a0cb 653d bae7 4bbd
000003c0: 1aaa 97bb a3cf 46bd a486 a0bd 4702 9fbc
000003d0: 215e a8bd 7dac 143d 51f5 64bc 6b64 0c3c
000003e0: 350e 1dbc c9f4 44bc ffab 0f3d 8f15 8fbd
000003f0: 4765 82bd 257a 9ebd 3700 94bd 6ac0 1cbc

net.conv3.bias f4 [120]
-0.082300745 0.019401481 0.029098434 -0.010677317 0.014102341 -0.013110025 -0.014276492 0.017188964
-0.019144587 -0.025348833 0.08834136 -0.05297887 0.0029351583 0.026276529 -0.020063818 0.030537874
0.025499769 -0.04662055 0.01099588 -0.035144757 0.022314863 0.007493482 0.039725374 -0.035204124
0.037179444 0.0198883 -0.0033762339 -0.029145561 0.041342217 0.019140597 0.019481959 -0.03306773
0.046468258 -0.032271843 -0.007535536 0.014418564 -0.008484195 -0.013193928 0.0364487 0.04053863
0.011032197 0.02046289 0.015753439 0.03747119 0.039930753 -0.052405275 -0.010597528 -0.022688469
-0.031268887 0.011635191 0.05919909 -0.022372836 0.026436066 0.013239679 0.02150755 -0.0042824456
0.0052106953 0.056048285 0.010932603 0.028301599 0.009341894 0.016449425 0.014369371 -0.051245738
-0.0031386993 -0.020999942 0.024953278 4.1918043e-05 0.015683044 -0.011636285 0.024548009 -0.01454297
0.047799848 0.0043217028 0.036743138 0.002681735 0.016028095 0.06133169 0.06249269 -0.0053855157
0.012590886 0.001728917 -0.04441881 0.006822621 -0.015340116 -0.0701926 0.021446383 0.015397077
0.01578193 0.041946694 -0.017517658 0.036305226 0.028307484 -0.03594317 0.04181533 0.0647315
0.0050299456 0.029244184 0.042007085 0.07684815 0.036782466 0.024212016 0.037922986 0.010001426
-0.0388055 -0.012450115 -0.0246716 -0.053626608 -0.013479291 0.002598951 -0.00027272484 0.02068377
-0.010289347 0.014821932 0.05235555 0.062798426 0.0065004374 0.016920302 0.020789891 -0.0201579
00000000: 4b8d a8bd dbef 9e3c d75f ee3c eaef 2ebc
00000010: 810d 673c 6ecb 56bc f3e7 69bc dfcf 8c3c
00000020: 1cd5 9cbc 5ba8 cfbc 51ec b43d 5f00 59bd
00000030: c95b 403b e041 d73c e05c a4bc 902a fa3c
00000040: e4e4 d03c 31f5 3ebd 1028 343c f3f3 0fbd
00000050: a9cd b63c e28b f53b 13b7 223d 3332 10bd
00000060: 7949 183d caec a23c ce43 5dbb acc2 eebc
00000070: 7556 293d becc 9c3c a198 9f3c 0772 07bd
00000080: 8055 3e3d 7b2f 04bd a8ec f6bb d73b 6c3c
00000090: 4b01 0bbc 582b 58bc 3b4b 153d d60b 263d
000000a0: 63c0 343c caa1 a73c 5b0d 813c 647b 193d
000000b0: 6e8e 233d eaa6 56bd 41a1 2dbc 2bdd b9bc
000000c0: ce13 00bd 87a1 3e3c bf7a 723d 3d47 b7bc
000000d0: 7390 d83c 3deb 583c 9a30 b03c c253 8cbb
000000e0: 7bbe aa3b e392 653d a91e 333c c1d8 e73c
000000f0: be0e 193c f2c0 863c 836d 6b3c 0de7 51bd
00000100: a3b2 4dbb 1208 acbc d16a cc3c 28d1 2f38
00000110: ba79 803c 1ea6 3ebc e818 c93c a345 6ebc
00000120: c6c9 433d 129d 8d3b f97f 163d 0cc0 2f3b
00000130: 5a4d 833c f036 7b3d 56f8 7f3d fb78 b0bb
00000140: 014a 4e3c d49c e23a 80f0 35bd 4b90 df3b
00000150: 1c55 7bbc 23c1 8fbd 53b0 af3c 0644 7c3c
00000160: 1b49 813c 4cd0 2b3d 3181 8fbc cab4 143d
00000170: 19e5 e73c 2539 13bd 8d46 2b3d f391 843d
00000180: 3ed2 a43b 8091 ef3c 9f0f 2c3d 9062 9d3d
00000190: 36a9 163d 4758 c63c 2255 1b3d 05dd 233c
000001a0: 84f2 1ebd 91fb 4bbc 181c cabc 93a7 5bbd
000001b0: 3fd8 5cbc 2a53 2a3b 82fc 8eb9 0271 a93c
000001c0: a694 28bc b0d7 723c c672 563d 769c 803d
000001d0: 9f01 d53b 729c 8a3c 904f aa3c 2e22 a5bc

net.fc1.weight f4 [84, 120]
0.15961397 -0.07666854 -0.036209505 -0.017834658 -0.008807426 -0.01275586 0.10319675 -0.042328034
-0.04334867 0.033218928 0.1093777 -0.030437589 0.00068909547 0.07528665 0.037781954 -0.05385604
-0.09873213 0.088903986 -0.076477736 0.020160118 0.0469828 -0.12980136 -0.050870672 -0.05711519
0.10589937 -0.028346984 -0.036292274 -0.0759576 0.0015748494 -0.06976797 0.0053297654 0.011226939
0.043371215 0.0014097848 0.026407104 0.1312604 -0.14540742 0.032111373 -0.1309078 -0.18327376
-0.10548247 -0.07669233 -0.12856963 -0.04365041 -0.067469895 0.06744568 0.008087533 0.040961415
-0.047725804 0.052726768 -0.034853328 0.005555855 0.0037626214 -0.06014236 -0.05935912 0.036150705
-0.06195408 -0.021381294 0.11305637 -0.051049773 -0.050682664 -0.05505831 0.08088017 0.07450971
-0.03259772 0.07262918 0.039111987 0.011390707 -0.017221991 -0.0002225826 -0.034521546 -0.08214976
-0.03467517 0.04451314 -0.028958846 -0.09842918 -0.063709885 0.015557731 0.061685007 -0.05791126
0.1001322 0.03450345 -0.14342263 -0.048323333 0.15628293 -0.058499966 -0.010562034 -0.020716272
0.08179911 -0.017395275 0.011345448 -0.06488379 -0.10070009 -0.098601 0.016078342 0.041094497
0.11250072 -0.03572805 0.11027665 0.04460147 0.09723828 -0.047312308 0.15501636 0.102905236
-0.04871588 -0.22678512 -0.04768476 -0.011965767 0.003129332 -0.04164676 0.110537164 -0.08804734
0.081713594 -0.039185535 -0.048765197 -0.078944825 -0.064112306 0.035414137 0.07044356 0.039577115
0.012971731 0.191792 0.12088544 0.016789282 0.22710031 0.015522024 -0.08107628 0.10787943
-0.09297141 0.021831922 -0.08160177 0.055699788 0.049887743 -0.07631356 0.0072528403 0.030202722
0.07722318 -0.15140373 -0.06515561 0.029891178 -0.14511599 -0.1274513 -0.008433463 0.07906429
0.00038143116 0.060899936 0.009691667 0.005811342 0.013510889 -0.01590858 0.0817688 0.06800181
0.01791932 -0.03162559 -0.10166889 0.05149764 -0.039898254 -0.0028829619 -0.038802985 -0.05261315
0.04902256 -0.059863716 0.035564218 0.090813994 0.04461591 -0.024750795 -0.11036277 0.06372758
-0.07876413 0.036105487 0.058176704 0.08956659 -0.14808784 -3.7357735e-05 0.00851455 -0.080921315
-0.013536476 -0.061097648 -0.0698895 -0.010268769 0.07610987 -0.008733368 -0.06659659 0.06316093
-0.016617607 -0.09308852 -0.04338457 0.10230961 -0.019226547 0.01047834 0.030728843 0.0369574
0.05854202 -0.052906107 -0.08595448 -0.029817518 0.03551997 0.011276333 0.005618985 0.020936988
0.13630998 0.11223242 -0.048096843 0.062431283 -0.1084388 0.04621676 0.08432851 0.12465268
0.05084558 -0.059282504 -0.10271426 -0.08687952 -0.05099285 0.065406375 -0.06448261 -0.09465377
0.04946714 0.10342824 -0.003315722 -0.0077784616 -0.13138536 0.028326727 -0.12779671 -0.04502357
-0.09027942 0.0126804 -0.096363045 0.055798147 0.053706236 -0.10465026 -0.0037017642 -0.0027260326
-0.015267814 0.012597943 -0.016673796 -0.10170089 0.03799288 -0.0039300635 -0.029912842 -0.039919183
0.117563546 -0.07257705 0.06289172 0.09847004 -0.16849929 0.15143408 -0.006318513 -0.099278934
0.008881127 -0.0019265815 0.048841044 0.083421506 -0.12070791 0.12432283 0.010972396 -0.04360347
00000000: d871 233e 6504 9dbd 6b50 14bd fd19 92bc
00000010: 064d 10bc f4fd 50bc d158 d33d 2960 2dbd
00000020: 608e 31bd 9210 083d 6a01 e03d 4058 f9bc
00000030: 6aa4 343a e32f 9a3d 40c1 1a3d 2798 5cbd
00000040: 1234 cabd 4b13 b63d 5ca0 9cbd d526 a53c
00000050: 0971 403d a6ea 04be c45d 50bd 9ef1 69bd
00000060: c5e1 d83d ef37 e8bc 35a7 14bd a88f 9bbd
00000070: 2d6b ce3a 82e2 8ebd 50a5 ae3b 32f1 373c
00000080: 04a6 313d 87c8 b83a b653 d83c 2069 063e
00000090: afe5 14be 3787 033d b20c 06be 1eac 3bbe
000000a0: 3107 d8bd de10 9dbd c2a7 03be c6ca 32bd
000000b0: a82d 8abd f620 8a3d 9281 043c 28c7 273d
000000c0: 227c 43bd 06f8 573d 5dc2 0ebd e40d b63b
000000d0: 5096 763b d657 76bd 8c22 73bd c312 143d
000000e0: 90c3 7dbd d327 afbc 198a e73d 9119 51bd
000000f0: a098 4fbd d384 61bd 81a4 a53d 8c98 983d
00000100: 3085 05bd 9cbe 943d e433 203d 17a0 3a3c
00000110: 2215 8dbc 1065 69b9 7766 0dbd 223e a8bd
00000120: 8d07 0ebd 6953 363d 1a3b edbc 3d95 c9bd
00000130: 547a 82bd dae5 7e3c 6ba9 7c3d 5b34 6dbd
00000140: 1c12 cd3d 7d53 0d3d 62dd 12be b0ee 45bd
00000150: a208 203e a99d 6fbd 620c 2dbc 2cb5 a9bc
00000160: 4b86 a73d 8980 8ebc 42e2 393c cbe1 84bd
00000170: d93b cebd 52ef c9bd bab6 833c b452 283d
00000180: c766 e63d 9357 12bd b9d8 e13d 08b0 363d
00000190: dd24 c73d 8dca 41bd 9cbc 1e3e fbbf d23d
000001a0: 4d8a 47bd 5c3a 68be 1851 43bd 100c 44bc
000001b0: 7b15 4d3b cb95 2abd 4f61 e23d 2a52 b4bd
000001c0: 7559 a73d 0381 20bd 04be 47bd d3ad a1bd
000001d0: 504d 83bd 6a0e 113d b744 903d 9d1b 223d
000001e0: 6287 543c 1f65 443e c992 f73d ad89 893c
000001f0: fc8c 683e 1650 7e3c 520b a6bd e4ef dc3d
00000200: cb67 bebd dcd8 b23c d41e a7bd 7625 643d
00000210: 1757 4c3d 494a 9cbd 3ca9 ed3b b36b f73c
00000220: 3027 9e3d 9409 1bbe 4e70 85bd 58de f43c
00000230: 4999 14be 9882 02be 822c 0abc 75ec a13d
00000240: d3fa c739 3672 793d ccc9 1e3c 126d be3b
00000250: c75c 5d3c b652 82bc 6776 a73d 8844 8b3d
00000260: 8acb 923c d689 01bd c737 d0bd 30ef 523d
00000270: 5a6c 23bd 13f0 3cbb e1ef 1ebd e380 57bd
00000280: e1cb 483d a833 75bd c9ab 113d b0fc b93d
00000290: 2cbf 363d 2ec2 cabc e005 e2bd 9b83 823d
000002a0: 174f a1bd 59e3 133d b24a 6e3d b06e b73d
000002b0: 57a4 17be 90b0 1cb8 9c80 0b3c 13ba a5bd
000002c0: 18c8 5dbc 8741 7abd 3a22 8fbd 573e 28bc
000002d0: 7edf 9b3d 6616 0fbc cb63 88bd 855a 813d
000002e0: a621 88bc 32a5 bebd 05b4 31bd b387 d13d
000002f0: fe80 9dbc 58ad 2b3c 0ebb fb3c a560 173d
00000300: c2c9 6f3d 13b4 58bd e708 b0bd de43 f4bc
00000310: 637d 113d 5ec0 383c 761f b83b 0c84 ab3c
00000320: d894 0b3e 1cda e53d 3201 45bd f2b7 7f3d
00000330: 2915 debd c94d 3d3d 6db4 ac3d e749 ff3d
00000340: 7443 503d 36d2 72bd db5b d2bd e4ed b1bd
00000350: e1dd 50bd c7f3 853d 750f 84bd d6d9 c1bd
00000360: 0e9e 4a3d 2fd2 d33d 964c 59bb 77e2 febb
00000370: e289 06be 740d e83c 24dd 02be a36a 38bd
00000380: 6be4 b8bd 74c1 4f3c fd59 c5bd 998c 643d
00000390: 12fb 5b3d e052 d6bd 4c99 72bb 3da7 32bb
000003a0: da25 7abc 9a67 4e3c 7c97 88bc 8e48 d0bd
000003b0: 6c9e 1b3d c3c7 80bb c70b f5bc 4c82 23bd
000003c0: 28c5 f03d 47a3 94bd 60cd 803d a9aa c93d
000003d0: 148b 2cbe 8911 1b3e 870b cfbb c152 cbbd
000003e0: 2682 113c 5985 fcba 8c0d 483d e5d8 aa3d
000003f0: b535 f7bd f89c fe3d 90c5 333c 8d99 32bd

net.fc1.bias f4 [84]
0.032263007 -0.031846955 -0.01695069 0.08087772 0.028060379 -0.013722939 0.011225005 -0.052691974
-0.009486134 0.058246795 -0.0026571904 0.013788139 0.020540155 -0.015527847 -0.019289924 -0.008188633
0.053748157 -0.054859977 -0.08633878 0.047268584 0.024857748 -0.014666981 -0.019974211 0.0016993192
0.06839601 0.056298867 0.0531519 0.015874054 -0.08472932 -0.057539463 -0.04400351 -0.018529046
-0.04173512 -0.050927453 0.029100602 -0.04356973 -0.0049538445 0.017839255 -0.05460522 0.030298425
-0.013507299 0.024538154 0.0016105233 0.015810942 -0.062864944 -0.001275519 -0.015067463 0.0073614717
-0.01805891 -0.021637121 0.022030748 0.019579526 -0.035249118 0.06826255 -0.010314164 -0.00026943418
0.04727909 0.0048780064 -0.034945514 -0.046745006 -0.05441558 -0.022070866 -0.038739294 0.013872442
-0.0051186807 0.07825675 -0.016493091 0.015285646 0.02225179 0.017520957 0.031153988 0.017369153
0.01902093 0.011213955 0.015716895 0.029186234 -0.03699984 0.050828673 0.0704605 0.023343574
0.012559229 -0.053109773 -0.05406796 0.05572659
00000000: 3726 043d f471 02bd 2cdc 8abc 38a3 a53d
00000010: e1de e53c 2ed6 60bc 15e9 373c 8ad3 57bd
00000020: bb6b 1bbc 3194 6e3d 4224 2ebb a6e7 613c
00000030: d443 a83c 8368 7ebc e705 9ebc 9e29 06bc
00000040: 0727 5c3d dbb4 60bd 63d2 b0bd b49c 413d
00000050: 7aa2 cb3c c74d 70bc f5a0 a3bc b1bb de3a
00000060: 3513 8c3d a499 663d cfb5 593d 4e0a 823c
00000070: 9186 adbd 80ae 6bbd 063d 34bd 3aca 97bc
00000080: 72f2 2abd 4e99 50bd 6364 ee3c 2c76 32bd
00000090: dc53 a2bb a123 923c b9a9 5fbd 6734 f83c
000000a0: b84d 5dbc 3d04 c93c 3218 d33a f385 813c
000000b0: 56bf 80bd 512f a7ba 85dd 76bc 8038 f13b
000000c0: 47f0 93bc 5540 b1bc d479 b43c 3e65 a03c
000000d0: 6161 10bd 3ccd 8b3d bdfc 28bc d842 8db9
000000e0: b8a7 413d afd7 9f3b 0723 0fbd b177 3fbd
000000f0: dfe2 5ebd f6cd b4bc 18ad 1ebd 3d49 633c
00000100: 9bba a7bb 1345 a03d 851c 87bc a570 7a3c
00000110: 6349 b63c 1c88 8f3c a636 ff3c c149 8e3c
00000120: c8d1 9b3c bcba 373c b8c0 803c f817 ef3c
00000130: 258d 17bd ba31 503d 984d 903d 063b bf3c
00000140: 39c5 4d3c a289 59bd 5d76 5dbd 9141 643d

net.fc2.weight f4 [10, 84]
0.36457825 0.108847864 0.25320053 0.35124284 -0.029380785 0.1703556 -0.45152283 0.08835734
-0.18086953 -0.20711897 -0.35274515 0.016917355 0.16809393 0.20575367 0.17803013 -0.2838032
-0.389927 -0.36856696 -0.1372223 0.23236677 -0.21066034 0.27987957 -0.2790131 0.069121756
0.18990551 0.24921563 0.14606628 -0.16114771 -0.41218406 0.33892196 -0.063834645 -0.13250838
-0.26155436 -0.24094133 -0.049645457 0.4349451 0.15253398 -0.05747161 0.06285193 -0.42550787
0.2713977 -0.3014593 -0.16534454 0.18138328 0.40461314 -0.11717693 0.06945095 0.16097389
0.14349572 -0.30024153 -0.04546103 0.11319091 0.25927776 -0.29750505 0.25444472 -0.21848314
0.24151783 -0.17245167 0.27976677 0.25630972 0.42524195 0.34274286 0.3099074 -0.17016107
0.3422296 0.2119113 -0.31044713 0.048658226 0.1673086 -0.02949545 -0.05729378 -0.35314798
0.19908121 0.3113136 0.14586103 -0.1832806 -0.25964394 -0.033787858 0.068300635 -0.24289794
-0.27351078 -0.17799044 0.025898665 0.12060445 0.2580937 -0.21228921 -0.2653572 0.16795208
0.2276925 -0.20748705 -0.075060464 -0.27396595 0.20995128 0.28559095 -0.11696938 -0.13334355
0.17938532 -0.114624605 -0.14649858 0.22678871 -0.026184512 0.039179284 0.27398428 0.17598572
0.43771666 0.023605218 0.4687075 -0.15933296 0.39982843 0.1467996 0.11400617 -0.25591168
-0.1611099 -0.17475429 -0.10687362 0.022825236 -0.26772004 -0.16058803 0.33057562 0.1959972
-0.020456951 0.313622 -0.41555503 -0.17765959 -0.042157035 0.29082397 0.2834518 0.019284608
-0.2038655 0.60964274 -0.26209643 -0.33864 0.34772745 0.10303654 0.3647165 0.32740432
-0.17776352 -0.045037724 -0.07923218 0.49043489 -0.0307132 0.32978833 -0.12736289 0.094045006
-0.38071552 -0.3418285 -0.2872385 0.060259484 0.030716604 0.21565878 0.07697495 -0.055216335
-0.40538448 -0.17461815 -0.2810223 0.20844615 0.16153707 0.17682013 0.26904926 0.4754836
0.016100978 0.057888396 -0.18420511 0.293033 0.084609956 -0.23021929 -0.2866929 0.3300195
0.15273449 -0.35177997 0.4055275 0.25211486 0.042976566 0.26815304 0.28019795 -0.39675796
-0.3363433 0.1429538 0.012528474 0.013087583 -0.09803773 0.03164439 -0.34253234 -0.072933845
-0.0054289848 -0.003418929 -0.30488458 0.35000548 -0.20097207 -0.43071133 -0.19250032 0.48569214
0.09787014 -0.10330399 -0.24003729 0.47958264 -0.42655006 0.3134295 -0.32545638 -0.30191883
-0.10063939 -0.3936929 -0.14041151 -0.15942125 -0.2823369 -0.20327742 -0.03241551 0.37979725
-0.47251865 0.10191894 -0.3072194 0.07786191 0.4379881 0.44098946 -0.5028581 0.28830272
-0.14861147 -0.47674814 0.12883274 0.028539585 0.09476513 0.08001717 -0.35578462 0.36312512
-0.47471628 -0.35299253 -0.045513052 -0.2957493 0.38269806 0.11939743 -0.34521708 -0.11697077
-0.048159186 -0.34238794 -0.21053 -0.36633846 0.04385874 0.37845975 0.16937122 -0.6841423
-0.017455293 0.2090673 0.008857859 -0.1525249 0.024770292 0.1725993 0.25358564 0.09847626
-0.16399513 -0.13234656 -0.36574987 0.057231378 -0.15525474 -0.34544662 0.21507612 -0.39749405
00000000: 00aa ba3e a1eb de3d 80a3 813e 1ad6 b33e
00000010: f9af f0bc b371 2e3e 002e e7be b1f4 b43d
00000020: dd35 39be ff16 54be 039b b4be 4496 8a3c
00000030: d120 2c3e 17b1 523e 884d 363e a74e 91be
00000040: 83a4 c7be cfb4 bcbe 0184 0cbe 8ef1 6d3e
00000050: 58b7 57be 604c 8f3e ceda 8ebe b58f 8d3d
00000060: 9776 423e 6232 7f3e 6692 153e e803 25be
00000070: ca09 d3be 2e87 ad3e bdbb 82bd 47b0 07be
00000080: 74ea 85be 53b9 76be 0959 4bbd 20b1 de3e
00000090: de31 1c3e 5a67 6bbd 83b8 803d 2bdc d9be
000000a0: a4f4 8a3e e058 9abe 1450 29be 8abc 393e
000000b0: 7429 cf3e 75fa efbd 4d3c 8e3d 57d6 243e
000000c0: 8bf0 123e 42b9 99be 5835 3abd a3d0 e73d
000000d0: 0ec0 843e 9552 98be 9446 823e 0bba 5fbe
000000e0: 7350 773e 2c97 30be 973d 8f3e 073b 833e
000000f0: 50b9 d93e fe7b af3e 2fac 9e3e b43e 2ebe
00000100: b838 af3e 47ff 583e edf2 9ebe d94d 473d
00000110: f252 2b3e 71a0 f1bc e2ac 6abd d0cf b4be
00000120: f2db 4b3e 7f64 9f3e 985c 153e e9ad 3bbe
00000130: 0df0 84be 2365 0abd 34e1 8b3d 3dba 78be
00000140: 9b09 8cbe 2043 36be 7029 d43c 77ff f63d
00000150: dc24 843e 5862 59be e6dc 87be a1fb 2b3e
00000160: 3928 693e 7c77 54be 4db9 99bd 4445 8cbe
00000170: 78fd 563e fa38 923e a48d efbd 368b 08be
00000180: c9b0 373e 4ec0 eabd b903 16be 4d3b 683e
00000190: e780 d6bc 757a 203d ab47 8c3e 9a35 343e
000001a0: 661c e03e bb5f c13c 6efa ef3e 2e28 23be
000001b0: 50b6 cc3e a252 163e 117c e93d db06 83be
000001c0: fef9 24be caf2 32be 8ee0 dabd fdfb ba3c
000001d0: 9a12 89be 3071 24be 3541 a93e 7db3 483e
000001e0: 5695 a7bc 1093 a03e a1c3 d4be 65ec 35be
000001f0: dbac 2cbd e1e6 943e 9820 913e c1fa 9d3c
00000200: 1ec2 50be 8c11 1c3f 8131 86be 3962 adbe
00000210: 5509 b23e d204 d33d 1fbc ba3e 8aa1 a73e
00000220: a407 36be 7a79 38bd 7b44 a2bd 481a fb3e
00000230: 409a fbbc 04da a83e 6b6b 02be ab9a c03d
00000240: 25ed c2be 2504 afbe ed10 93be a6d2 763d
00000250: 63a1 fb3c a8d5 5c3e 0ba5 9d3d 862a 62bd
00000260: 8e8e cfbe 1acf 32be 28e2 8fbe e872 553e
00000270: f969 253e 5610 353e d3c0 893e 9672 f33e
00000280: 33e6 833c 621c 6d3d 44a0 3cbe 6c08 963e
00000290: fc47 ad3d 9bbe 6bbe 69c9 92be 51f8 a83e
000002a0: 6e66 1c3e 811c b4be 4da1 cf3e 3315 813e
000002b0: 3208 303d 5b4b 893e 1b76 8f3e dc23 cbbe
000002c0: 3035 acbe 7b62 123e 3b44 4d3c 4d6d 563c
000002d0: 01c8 c8bd 8c9d 013d 6660 afbe 575e 95bd
000002e0: a0e5 b1bb 1c10 60bb d519 9cbe eb33 b33e
000002f0: 9fcb 4dbe 3286 dcbe ce1e 45be a4ac f83e
00000300: 2470 c83d 0b91 d3bd 56cc 75be db8b f53e
00000310: c564 dabe d579 a03e 38a2 a6be 1b95 9abe
00000320: 061c cebd 1e92 c9be 09c8 0fbe 533f 23be
00000330: 768e 90be f527 50be 20c6 04bd c974 c23e
00000340: f7ed f1be e1ba d03d dc4b 9dbe 1176 9f3d
00000350: fa3f e03e 5fc9 e13e 4fbb 00bf 6a9c 933e
00000360: 9b2d 18be 5518 f4be bbec 033e d9cb e93c
00000370: 3814 c23d 0be0 a33d 6729 b6be 89eb b93e
00000380: 030e f3be 70bb b4be e56b 3abd 746c 97be
00000390: 00f1 c33e a486 f43d 4bc0 b0be 5f8e efbd
000003a0: 9142 45bd 794d afbe 2d95 57be b790 bbbe
000003b0: 39a5 333d 7ac5 c13e a66f 2d3e f323 2fbf
000003c0: 67fe 8ebc bd15 563e 8e20 113c 7d2f 1cbe
000003d0: 11eb ca3c dfbd 303e fad5 813e ecad c93d
000003e0: 57ee 27be db85 07be 9143 bbbe 736b 6a3d
000003f0: 19fb 1ebe 61de b0be ea3c 5c3e 5784 cbbe

net.fc2.bias f4 [10]
-0.07429324 0.06412361 0.17780213 -0.04951224 -0.00019299192 0.1336349 -0.07840939 0.063121475
-0.0015690067 -0.08429173
00000000: 0e27 98bd 3d53 833d c311 363e 59cd 4abd
00000010: e05d 4ab9 96d7 083e 1a95 a0bd d545 813d
00000020: 21a7 cdba 24a1 acbd
