models/pretrained/MNIST_multiple_U_R_check/Rnet2_w_acc_94.pt (torch, 250189 bytes, 10 tensors)

conv1.weight f4 [6, 1, 5, 5]
000000 7b 3f 82 3c 1f 5a db bc 02 ab a9 bd 5f cd 34 3d
       0.01589941 -0.026776372 -0.0828457 0.04414117
000010 99 f8 8a bd 04 d8 a6 3e b2 68 3b 3e 0b b1 41 3e
       -0.067856975 0.32586682 0.18301657 0.18915193
000020 a5 14 e1 3d c1 54 04 3e 8b fc 75 3c 6a eb c0 b9
       0.10990266 0.12922956 0.015013824 -0.0003679649
000030 34 c9 9c 3d 24 f0 a1 bc 93 35 6a bd 91 f7 00 be
       0.07655564 -0.019767828 -0.05718 -0.12594439
000040 2a c4 be 3c 07 bb 4e 3c cc 7d 02 3e ce 8f 42 3e
       0.023286898 0.012617833 0.127433 0.1900017
000050 ba d6 4a be ff 65 5c be 52 df 45 be d5 b1 83 be
       -0.19808474 -0.21523283 -0.19323471 -0.25721613
000060 f4 cf 5c be 52 fb fb 3c b4 1f 54 3d 17 85 85 bc
       -0.21563703 0.030759487 0.051788047 -0.016298814
000070 3e aa 99 be b0 63 a4 3d 6d c2 8e 3d 60 bf 9e 3e
       -0.30012697 0.080268264 0.069706775 0.31005383
000080 11 99 4b 3e c9 90 b2 be 74 fa 80 be 77 a4 fc bd
       0.19882609 -0.34876087 -0.2519108 -0.12336057
000090 c2 bf 16 3e 8e 16 e2 bb a9 26 0e 3e 44 64 ec bd
       0.14721587 -0.0068996614 0.13881935 -0.11542562
0000a0 a6 d4 de 3d c9 49 47 be 2a 3f 9d 3d f1 22 28 b9
       0.10880403 -0.1946174 0.07678063 -0.00016034745
0000b0 2c 24 d0 bc da 75 d2 3c 01 a2 56 be 70 38 14 3c
       -0.025407873 0.025690962 -0.20960237 0.009046659
0000c0 6e 02 a2 3d 9a 78 ee 3d 08 3f c8 be f0 a0 89 be
       0.0791062 0.11644097 -0.3911059 -0.26880598
0000d0 c2 d4 c8 3a 3f 2c 81 bd 2a 3d 04 3e 66 00 31 3e
       0.0015322196 -0.063072674 0.12913957 0.17285308
0000e0 a5 9b ef 3c d8 20 d8 bd 36 dd f8 3c dc 80 97 3d
       0.029249022 -0.105531394 0.03037892 0.07397625
0000f0 ac 3f af bd 13 33 7e 3e b4 4c 3a 3e aa 55 85 3e
       -0.08557066 0.24824171 0.18193322 0.2604192
000100 17 e9 3f 3d 5e 84 8c 3d d7 ba ee ba eb 59 c2 bd
       0.04685315 0.068611845 -0.0018213642 -0.09489807
000110 6c 6e 6d be e7 7c a8 be 07 46 3e 3e 6d e9 4f bc
       -0.23186654 -0.32907793 0.18581401 -0.01268993
000120 bb b7 c8 3c f8 e3 be bb 94 95 2d 3d fe 31 8e 3e
       0.024501672 -0.005825516 0.042378977 0.27772516
000130 1e 24 30 3e a5 a9 48 3e b7 bf cd 3d 7d 75 3b 3d
       0.17201278 0.19595964 0.10046332 0.045766342
000140 43 75 a3 bd 69 bb 65 bd c8 84 47 bd 60 2f 0d bd
       -0.0798135 -0.05608693 -0.048710614 -0.03446901
000150 0d e2 10 bd cc 09 00 be 30 9e e3 bd b7 a8 6e 38
       -0.03537183 -0.12503737 -0.11114156 5.690075e-05
000160 bf cd 2e bb 53 2a 72 3e ac f3 35 3d 03 10 43 bd
       -0.0026672927 0.23648958 0.044421837 -0.04762269
000170 95 92 89 bd a6 be 93 3d cf 19 4d 3d bf 8f 5d be
       -0.067174114 0.07214098 0.05007344 -0.21636866
000180 fa df 3b bd a7 ab 33 be 1c 65 09 be 13 74 70 be
       -0.045867898 -0.17545949 -0.13417476 -0.23481779
000190 48 7e 10 3e b9 8a d2 bd 7b 45 11 bd f0 ec 45 3d
       0.14110672 -0.102803655 -0.035466652 0.048321664
0001a0 eb 79 1f be c2 a2 1f be e6 1b 36 3e de 6c 94 bd
       -0.15573852 -0.15589431 0.1778408 -0.07247327
0001b0 a9 e6 02 3e db 54 42 3d b1 bd 8e 3d ad f3 41 3e
       0.12783302 0.047444206 0.069697745 0.18940611
0001c0 30 77 3a 3e 07 51 b2 bd be 07 1a 3d 79 b2 18 3e
       0.18209529 -0.08706861 0.03760504 0.14911832
0001d0 e4 ea 1a 3e 66 94 65 3b 2f 54 4a be cf 85 19 be
       0.15128666 0.003503108 -0.19758676 -0.1499245
0001e0 a0 6c 5c be 97 2b 69 bc dc a9 25 3e 20 34 7a bd
       -0.21525812 -0.014231584 0.16178077 -0.061084867
0001f0 79 e5 4c 3e db 22 4e be 24 6e 91 be 53 f6 a0 bd
       0.20009412 -0.20130484 -0.28404343 -0.078594826
000200 f5 03 35 3e 3c e7 65 3e d0 c0 0c be 60 47 79 3c
       0.1767729 0.2245149 -0.13745427 0.015214771
000210 64 ab d3 3d 10 b4 e6 3d d3 3e 01 3e da d0 bc 3e
       0.103354245 0.11264813 0.12621622 0.3687809
000220 9b 26 57 3e 54 78 eb 3a ec d2 5d be 67 6a 9e be
       0.2101082 0.0017964938 -0.21662492 -0.30940554
000230 f1 36 0f be ea 65 8a bd f8 3b ef bd 15 c6 df 3d
       -0.13985802 -0.0675772 -0.1168136 0.10926453
000240 9b ed 8a 3d d0 2f 02 3c 2c 23 65 3d 8d b3 a9 3c
       0.06783601 0.00794597 0.055941746 0.0207155
000250 00 a0 8a 3d 0d cb 37 bc
       0.06768799 -0.011217845

conv1.bias f4 [6]
000000 05 c8 d1 be 3f 76 46 be c0 2a 9e be 75 6c a9 be
       -0.40972915 -0.19381045 -0.3089199 -0.3309056
000010 8d c7 6a be 21 a8 96 bd
       -0.22927685 -0.07356287

conv2.weight f4 [16, 6, 5, 5]
000000 43 e0 90 3d d3 6b c1 3d 86 bd 14 3e dc be b0 39
       0.070740245 0.09444394 0.14525422 0.00033711537
000010 8f 6f 1b bd aa 1d 75 3d 5e cb 2c bd 30 4a 84 bd
       -0.037948187 0.059842743 -0.042186134 -0.06459463
000020 c5 41 07 be 93 4c 1b b9 ef 94 5e be e7 43 14 be
       -0.13208683 -0.00014810478 -0.21736501 -0.14479028
000030 a9 ad 2a be 45 6f 28 be 17 7a 04 be ea b4 2f 3d
       -0.16667809 -0.16448696 -0.12937199 0.042897142
000040 a9 8a 2a 3c c2 9c 2d bc c9 09 87 3d dc cf 1c 3e
       0.010409036 -0.010596456 0.06593663 0.15313667
000050 0e 93 02 3e 76 df e2 3d ca 70 5a 3d 8a bf fb 3d
       0.1275141 0.11077778 0.05333022 0.122923926
000060 c2 9a 38 3d f0 60 1c bb 01 28 02 bd 45 17 55 bc
       0.045069464 -0.002386149 -0.031776432 -0.013006036
000070 8e eb b6 bd 25 b7 c7 3d b4 fe e3 bd ab 80 ad bd
       -0.08931647 0.09751729 -0.11132565 -0.08471807
000080 9d f8 1f bc ef b5 9b bd 1c 81 4d 3d a5 58 a1 bd
       -0.009763864 -0.076030605 0.050171956 -0.07878236
000090 0e 57 3a bd ef 51 fa bb 7e 0b 4f 3d 62 02 00 bd
       -0.045493178 -0.007639162 0.05054807 -0.031252272
0000a0 87 12 02 bc 85 74 43 3d cf 86 d9 3d cc 5b 40 3c
       -0.007938988 0.047718544 0.10621416 0.011740636
0000b0 91 6a 08 3e 25 af 9f bd 42 15 20 3d 20 2d 56 bc
       0.13321902 -0.07797078 0.039082773 -0.013072282
0000c0 0e fb b7 3d 4e 79 7e 3d 79 44 34 bc 73 fc a6 bb
       0.08983432 0.062127404 -0.011002653 -0.0050960123
0000d0 72 19 8a 3d 31 e2 f4 3d d3 42 61 bb b9 fd 40 3d
       0.067431346 0.11957205 -0.0034372106 0.04711697
0000e0 d7 04 bd bd 08 08 18 3d 2f 96 15 3e 67 06 c1 3d
       -0.09229439 0.037117034 0.14608072 0.09425049
0000f0 6f 2d 81 3d e8 e4 03 be 95 32 a6 bd 3c 14 d6 3d
       0.06307494 -0.1288029 -0.081151165 0.10453078
000100 bc 56 0e be 54 76 e8 3c f0 43 a3 bd 13 d8 17 3d
       -0.13900274 0.028376736 -0.079719424 0.0370713
000110 6c 69 fd 3d 7c 4b 99 bd 31 a9 40 3c 20 c5 8f bc
       0.12373623 -0.074851006 0.011759088 -0.017550051
000120 9e ed b0 3c 90 35 d7 3c 93 22 15 bd f6 f3 30 bd
       0.02159768 0.026270658 -0.036409926 -0.04320141
000130 a9 85 68 3d a1 5e 47 bd e5 be b2 bd 3f 1d f4 bc
       0.056768093 -0.04867423 -0.087278165 -0.029799102
000140 c0 95 7b bb cd 54 ac 3d cf f6 99 3d 8f 43 e3 bd
       -0.0038388819 0.08414612 0.07517778 -0.1109687
000150 49 ab 24 be ea a1 30 bd b2 6a 78 bd e8 85 1b bd
       -0.16080965 -0.043123163 -0.060648628 -0.0379695
000160 3c 12 89 bd 30 73 c4 bc 1b 08 2f be 64 2a 2d be
       -0.06692931 -0.023980707 -0.17092936 -0.16910702
000170 09 3a d0 bd ce e3 79 3d ef d6 c0 3d 32 25 b7 3d
       -0.10167319 0.061008267 0.09415995 0.08942641
000180 ce 73 a6 3d 9a 79 d9 3d 00 63 92 3d 46 0e 3c 3c
       0.08127557 0.10618897 0.07147789 0.011478012
000190 6a cd db b8 68 0c 68 3c 02 31 d8 bd 81 d0 45 bd
       -0.00010480995 0.014163114 -0.105562225 -0.048294548
0001a0 10 6b e2 3d 40 86 d1 3c 8e 12 9e bd cb d2 60 3b
       0.11055577 0.02557671 -0.07718383 0.003430533
0001b0 8d 59 54 bd 9a b6 46 bd 76 01 38 3d f4 e8 df bd
       -0.051843215 -0.048513986 0.04492327 -0.10933104
0001c0 67 04 f9 bc e9 ef 08 be e3 f7 3d 3d 2b d5 1a 3d
       -0.030397607 -0.13372768 0.04637898 0.03780095
0001d0 32 e4 97 bc e4 71 fe 39 77 4f 55 bd 44 8b 8b b9
       -0.01854143 0.0004853151 -0.052077737 -0.00026615907
0001e0 ef c9 89 bd 6f 5d 54 bc 63 01 ac bd 5d 59 05 bd
       -0.06727969 -0.012961729 -0.08398702 -0.032555927
0001f0 04 83 db 3b 44 5c e4 3b 86 9f eb 3c c0 b6 07 3d
       0.006698968 0.0069690067 0.02876259 0.03313327
000200 d8 60 be 3c e2 9b cf bc d0 7a bf bd f2 7c b5 bb
       0.023239538 -0.025342885 -0.093495965 -0.0055385763
000210 1b 1c b2 bd 6d b9 40 3d e0 7b 5c 3d ca 07 49 bd
       -0.08696767 0.047051836 0.053829074 -0.049079694
000220 bb 6a 4d bc e0 80 8a bb f9 29 40 3d 14 df 1b bc
       -0.012537654 -0.004226789 0.04691503 -0.009513635
000230 7d 59 4a bd 45 1f 43 bd 08 62 61 bd 8e ae dd 3c
       -0.04940175 -0.047637243 -0.05502513 0.027060773
000240 6c 8a 87 bc ff 07 00 bc 78 38 3a bd d1 1a 74 bd
       -0.016545497 -0.007814406 -0.04546401 -0.059595887
000250 f5 45 14 3d e2 de ca bd 7a 9d d8 bd bb 47 04 3e
       0.03619953 -0.09905793 -0.10576911 0.12917988
000260 d0 8d fb 3d cd 67 ce 3d 4f f0 2b bd 47 d8 98 bd
       0.12282908 0.10078392 -0.041977223 -0.07463127
000270 7e 71 3c be 2a 65 be bd 45 84 d0 3c bb 37 b3 bd
       -0.18402669 -0.09296639 0.025453696 -0.08750864
000280 e6 6b c2 bc cb da 4e 3b 58 0a 75 3d 21 b8 ca 3d
       -0.02373309 0.0031563516 0.059824318 0.09898401
000290 84 d4 17 3d 74 ee ec bd 8b 16 bc bd d8 ec 85 bd
       0.037067905 -0.11568919 -0.09183987 -0.06539315
0002a0 04 c8 5c bd 25 d7 0d 3c 02 1c 35 bd 8f 60 97 3c
       -0.053901687 0.0086572515 -0.044216163 0.01847866
0002b0 eb 47 25 bd 0b c3 73 bd 24 d9 80 bc c2 0a 9c 3c
       -0.04035179 -0.05951218 -0.01572854 0.019048098
0002c0 73 c5 90 3d 6a 95 44 bd 21 0d eb bc cc 86 e3 bc
       0.070689104 -0.047994055 -0.028692784 -0.027774237
0002d0 25 07 84 bd 7e 2c d2 bd 15 70 18 bd 71 95 7b bb
       -0.06446675 -0.102623925 -0.037216265 -0.0038388635
0002e0 e3 4b 80 bd c9 71 04 be 75 24 c5 bd 4a 34 ee 3c
       -0.06264474 -0.1293403 -0.09626094 0.029077668
0002f0 9c 3f 71 bd b6 10 5b bd 27 e5 47 bd 25 c9 03 bc
       -0.058898553 -0.053482734 -0.04880252 -0.008043562
000300 24 0b b8 bd 00 46 ba bd 24 05 fa 39 a9 64 24 bd
       -0.089865 -0.09095383 0.00047687546 -0.04013506
000310 23 37 3c bd 99 b0 1a bd 81 70 3f 3d 64 8a 10 3d
       -0.04595102 -0.037766073 0.04673815 0.03528823
000320 ba c4 bb 3d 24 e1 90 3d cf 57 98 3d 21 85 e1 3b
       0.09168382 0.07074192 0.07438623 0.0068823253
000330 99 10 27 bd af 88 17 be cc e6 21 3d b1 20 12 bd
       -0.040787313 -0.14798234 0.039526746 -0.03567571
000340 05 70 ae bd de e6 a3 bd 3e ea 14 be fd aa 29 bd
       -0.0851746 -0.08003019 -0.14542481 -0.041422833
000350 fa 31 f4 ba 3c a9 50 be 2f b9 82 be aa 75 74 3d
       -0.0018630617 -0.20377058 -0.2553191 0.059682526
000360 16 64 0e 3d 83 e3 50 bd 5d 1e 97 bd 3c 69 2b bd
       0.03476342 -0.050998222 -0.07378838 -0.041848406
000370 5c 75 35 bd c8 9f 96 3d d1 27 34 bc ca 73 25 bb
       -0.044301376 0.073546946 -0.010995821 -0.0025246018
000380 20 fb 07 3c 40 85 63 bc d7 98 ee 3d b4 54 d9 bb
       0.008299619 -0.01388675 0.11650246 -0.006632412
000390 fc 73 d9 bd 72 10 8d 3d a9 79 87 3d 96 b6 5c 3d
       -0.106178254 0.06887902 0.06615002 0.053885065
0003a0 b8 ac 38 bc 32 4d 08 bd 90 a3 2a 3c 60 96 b7 3d
       -0.011271648 -0.033276744 0.010414973 0.08964229
0003b0 c9 6f 8b 3a 8e 6c 64 bc c1 d5 01 3e e8 a2 b8 3d
       0.0010638173 -0.013941897 0.12679197 0.09015447
0003c0 5d fe c1 3d 0f 5b 72 3d 61 31 82 3d e8 09 51 bc
       0.09472344 0.05916887 0.063570745 -0.0127587095
0003d0 f6 d0 e8 ba e4 fc 6d bc 3c 7f 0b 3d 9a 36 8a bd
       -0.001776247 -0.014525626 0.034056887 -0.06748696
0003e0 6b 8b 35 bd 7b 66 67 bd 55 ed e6 bc 82 8f 5e bd
       -0.044322412 -0.056494217 -0.02818934 -0.05433608
0003f0 07 a2 86 b8 c4 34 73 bd c2 e9 91 bd 02 c9 e9 3c
       -6.419798e-05 -0.059376493 -0.07124664 0.02853823

conv2.bias f4 [16]
000000 a3 66 06 be 87 ca 12 be 24 db b7 bd af 48 13 bd
       -0.1312509 -0.1433507 -0.08977345 -0.03595799
000010 02 c8 6f 38 06 70 89 bd 7b b3 06 be f8 6d 19 be
       5.7168312e-05 -0.0671082 -0.13154404 -0.14983356
000020 3f a2 e2 bd 55 c0 52 be af 08 fa bd d1 bd cb bd
       -0.11066102 -0.20581181 -0.122086875 -0.09948314
000030 a4 94 02 3c da 2f ce bc 9e 00 20 bc 64 e4 2c bd
       0.007970009 -0.025169302 -0.009765772 -0.042209998

conv3.weight f4 [120, 16, 5, 5]
000000 2d 60 42 bd 7b 37 99 bc f6 2b 95 3b c5 52 22 bd
       -0.047455 -0.018703213 0.0045523597 -0.039629716
000010 10 f1 b7 bc d9 e6 25 3d 0d 5a b4 bc 64 d6 4f 3d
       -0.022453815 0.040503357 -0.022015596 0.05074157
000020 d6 4b 1f 3b 5f 1f 65 bc 4a 8a 0b 3d 59 f5 54 bd
       0.0024306676 -0.01398453 0.03406743 -0.051991794
000030 15 33 ce 3c b1 f5 20 bd 43 b3 66 3c 31 78 d3 3b
       0.025170842 -0.03929681 0.014080825 0.006453537
000040 a5 00 08 3d 4b 36 99 bb fe b0 85 bd 02 15 45 bb
       0.03320374 -0.0046756617 -0.06527899 -0.0030072336
000050 95 7d aa 3c 91 48 cd bc de 8f 2e bd 9f 33 aa 3b
       0.020811835 -0.025059016 -0.04261767 0.005194142
000060 c2 5d 9c bb 3e dc b4 bc 42 d9 a9 3b 58 33 2e 3b
       -0.004771919 -0.022077676 0.00518337 0.0026580896
000070 82 7d 52 bb 2b ed a1 b9 63 fa 32 bc 1c e6 89 3c
       -0.0032118266 -0.00030885017 -0.010923955 0.016833358
000080 e9 9b 11 3d 31 db af ba 1d 2d 2d 3c 54 5b ca 3c
       0.035549078 -0.0013416765 0.010569838 0.024701752
000090 f1 b4 17 3c b1 79 59 bd 9f 50 32 3c a0 d9 4a 3d
       0.009259448 -0.05309457 0.010883479 0.04952395
0000a0 b3 43 e5 bc a1 ee 12 3d 7b 02 3d bd 59 f7 a6 bc
       -0.027986383 0.035872106 -0.046144944 -0.020381616
0000b0 1b 10 ec 3c 1b 6d 36 bd a9 88 9a bc 04 0e 9f bc
       0.028816273 -0.044537645 -0.018863993 -0.019415863
0000c0 9e 35 e6 bc 03 4e a8 bc 4a 76 71 3c c3 6b 2b bd
       -0.028101739 -0.020545011 0.014737675 -0.041850816
0000d0 ab 28 47 3a 85 e6 5b 3d d9 0d 03 3d fb 38 22 bd
       0.00075973076 0.053686637 0.031995628 -0.039605122
0000e0 fd e1 33 3c 48 81 87 bc e5 51 83 3d bc 04 5a 3d
       0.010979173 -0.016541138 0.064121045 0.05322717
0000f0 ee 1a 98 bc 2c 66 ca bc 72 70 b3 bc ff 74 d4 bc
       -0.018567529 -0.024706922 -0.021904204 -0.025934694
000100 fb ae 17 bd 19 a0 34 3b 72 ac 4f 3c 5a 5b 5b bc
       -0.03703211 0.0027561246 0.0126753915 -0.013388479
000110 ce c2 25 bd 2b 0b 4b bd 99 96 6e bd ac f8 88 bd
       -0.040468983 -0.049571197 -0.05824909 -0.066880554
000120 5c f2 e1 3c dc 54 50 bd a0 83 7e 3c 7f 02 4e 3c
       0.027581386 -0.05086218 0.0155343115 0.012573837
000130 66 a0 54 bd 3f 35 b5 bc f2 e9 7e ba 28 94 1f bd
       -0.05191078 -0.022120116 -0.00097241916 -0.038959652
000140 70 8a 52 bc 27 5b 74 bd 11 4f b8 b9 9c 24 98 bc
       -0.012850389 -0.059657242 -0.00035154124 -0.018572144
000150 7e c1 15 bd 33 92 52 bd 64 58 e3 3c 0a a2 2f 3d
       -0.03656148 -0.051408958 0.027752109 0.042879142
000160 5d 1d 43 3d 73 41 51 3b 4b 0b 9f 3c 40 5f ba 3c
       0.047635425 0.003192988 0.019414565 0.022750497
000170 bf 43 2f 3d 7b 47 8f 3c a3 46 00 bc f5 32 2f 3d
       0.042789217 0.01749014 -0.007829341 0.042773206
000180 e9 b5 45 3c b6 f8 f3 bc 7e 2e 2e 3d 82 2e 3f 3d
       0.012067297 -0.02978168 0.042524807 0.046675213
000190 4b 06 ec bc 49 ba 49 bd 7c 9d 82 37 38 b4 23 bd
       -0.028811594 -0.04924992 1.5570542e-05 -0.039966792
0001a0 53 51 7f 3d 40 03 ca bc f4 79 21 bd 25 04 1a 3d
       0.062333416 -0.024659753 -0.039422944 0.03760161
0001b0 fe da f5 3c 92 f7 d0 3c cc 51 c7 3c 26 e7 5e bd
       0.03001165 0.025508676 0.024330996 -0.05441966
0001c0 98 8a cc 3c 0e f3 2f bc ae c9 4c 3d 23 f5 36 bd
       0.02496843 -0.010739101 0.049997024 -0.044667374
0001d0 f3 a1 92 3c a6 7e de bc 78 0d 24 3c 99 86 10 bd
       0.017899489 -0.02716 0.010012977 -0.035284612
0001e0 32 af ac bb d5 7b 18 bd 1d 4a 51 3d b6 50 f3 3c
       -0.0052699083 -0.03722747 0.05109607 0.029701572
0001f0 c5 64 20 3d 39 39 0d 3d 8e 3e 57 bc 80 47 b3 3c
       0.0391586 0.0344784 -0.013137473 0.02188468
000200 03 8b a6 3a dd 25 21 bd 55 df b8 3c a2 13 47 bd
       0.0012706224 -0.03934275 0.02256743 -0.048602708
000210 cc f8 08 3c 65 d4 3c 3d 90 e8 3a bc cf a2 10 3a
       0.008360099 0.046100993 -0.011407986 0.00055174244
000220 31 a7 46 3d 7f 78 47 3d 61 07 25 3d 2c 6e 13 bd
       0.04849929 0.0486989 0.04029024 -0.03599374
000230 1c fd 56 3c 26 e2 19 bd e5 70 38 3c 94 95 44 bd
       0.013121869 -0.037569188 0.011257385 -0.04799421
000240 af 91 5c 3b 1c eb 25 3d c9 fb ba bc 0c 28 6b 3c
       0.003365617 0.04050742 -0.022825139 0.01435281
000250 00 14 30 bd f3 3c 04 3d 5e 67 28 3c 40 48 42 3d
       -0.042987823 0.03228469 0.010278551 0.047432184
000260 c6 cc dd bc 17 9e 5b 3c bf 41 2c 3d 4c de 4c bc
       -0.027075183 0.013404391 0.042054888 -0.012504172
000270 ca 39 a0 bb 2d fe f6 bb c9 03 12 3d d1 9c 22 3c
       -0.0048897015 -0.0075376243 0.03564814 0.009925083
000280 55 a9 65 3c 0c ff 41 3d a0 f1 fa bc c7 c1 70 bd
       0.014017423 0.047362372 -0.030632794 -0.05877855
000290 28 30 c0 bc f2 4d 2d 3d 37 32 56 bd 0a 33 cc bc
       -0.023460463 0.042310663 -0.052293982 -0.024926681
0002a0 5e 2a e7 bb 3b f1 a3 3c d0 11 3a 3d ed 11 9f 3c
       -0.007054611 0.020012489 0.045427144 0.019417727
0002b0 3c 47 6c bd a1 46 1e bd c6 3c 98 bb 62 b2 85 ba
       -0.057685122 -0.038641576 -0.0046459166 -0.0010200257
0002c0 77 02 36 3c 42 8e dc 3c 36 24 93 3c e1 5c f7 bc
       0.011108986 0.026923303 0.017961603 -0.030195655
0002d0 52 e8 a4 bc a4 97 57 3b 74 10 a9 ba 30 43 59 3b
       -0.02013031 0.0032896781 -0.001289858 0.003315162
0002e0 73 7e 6f bc 6c f2 a7 3b 81 d2 8e 3c d5 b7 0b bd
       -0.01461755 0.0051253345 0.01743436 -0.034110863
0002f0 88 79 f8 3c 1d 19 41 bd d5 14 78 38 16 99 3e bd
       0.030331388 -0.04714309 5.914721e-05 -0.046532713
000300 83 92 2f 3d f1 4d 09 bd e9 ab 11 bd bb 99 cb 3c
       0.042864334 -0.033521596 -0.035564337 0.024853578
000310 19 0d 84 3b 3f 9d a3 3c e5 34 2a 3b 63 b1 53 bd
       0.0040298817 0.019972442 0.002597147 -0.05168284
000320 b4 e8 21 bd e9 06 ad 3b 9b 89 63 bd cf a1 19 3d
       -0.039528564 0.005280365 -0.055551153 0.03750783
000330 c3 65 9e ba 5b 7e 89 b6 b2 2e 09 bc a0 53 b0 bc
       -0.0012084771 -4.097628e-06 -0.008372949 -0.02152425
000340 94 97 8b bc b0 52 72 bb b2 7c 36 bc 92 5d 87 3c
       -0.017040052 -0.0036975555 -0.011138128 0.01652411
000350 0a 05 4b 3d 72 d9 e2 bb da a9 80 bd b3 00 bf bc
       0.049565352 -0.006922894 -0.062823966 -0.023315763
000360 25 43 31 3d 9b 08 a6 bb 40 e7 30 bc a8 e4 47 bd
       0.043276925 -0.005066944 -0.010797322 -0.048802048
000370 2c de 2d bd 6f b8 6c 3d 1a a6 2b bd 79 e4 62 bd
       -0.042448208 0.057793077 -0.041906454 -0.05539367
000380 e3 0b 2c 3c fd 07 8b 3a 8a 96 19 bd 4e f6 44 bd
       0.010500881 0.0010607239 -0.03749708 -0.048086457
000390 f7 53 41 3c a8 03 9a 3c 37 ec 13 bd be 97 70 bd
       0.011799804 0.018800572 -0.036113944 -0.058738463
0003a0 1a 42 16 3d a2 ab 2e 3b b3 e9 07 3d 0e 38 02 3c
       0.036684133 0.0026652594 0.033181857 0.007947935
0003b0 5e 90 bb 3c d0 36 c5 bc 22 aa 55 3b d7 21 0f bd
       0.022895988 -0.024073988 0.0032602628 -0.03494438
0003c0 15 9e 98 bd f0 51 4a bd 43 cb fe 3b 3d c0 fe bc
       -0.07452027 -0.049394548 0.0077756955 -0.031097526
0003d0 87 af f6 3c b4 42 aa 3c e1 8b 41 bb 5d 84 d2 3c
       0.030112995 0.02078376 -0.0029532837 0.025697881
0003e0 73 15 1d 3d 64 90 75 bc c4 11 67 3c 44 7c d5 3c
       0.038350534 -0.014988039 0.014103357 0.026060231
0003f0 0e a5 5e 3d e0 bb a3 bc 1b 60 96 3d 7f 8f 23 bc
       0.054356627 -0.019987047 0.073425494 -0.009982943

conv3.bias f4 [120]
000000 35 8e 86 3c 6c da 32 3d 94 15 d8 3a 51 d2 ac 3c
       0.016425231 0.043665335 0.0016485923 0.02109638
000010 61 12 2b 3d 63 59 25 bd 5d 7b 0e 3d f2 32 ab 3b
       0.041765574 -0.04036845 0.034785617 0.005224579
000020 ec 53 14 bd 06 6b 70 3c c4 80 dd 3c 13 d9 e3 bc
       -0.036212847 0.014673954 0.02703894 -0.02781347
000030 01 fe 32 bd 66 fb 3f bd db 98 03 bd fe c2 25 bd
       -0.04369927 -0.04687061 -0.032128196 -0.040469162
000040 5f 89 d4 3c 1e f0 79 bc 2d 3e 0c bd 92 63 25 bd
       0.02594441 -0.015255002 -0.034238983 -0.04037816
000050 72 60 cb bc 18 46 4f 3d 0c 50 2b 3d d4 48 3a 3a
       -0.024826262 0.050603956 0.041824386 0.0007106189
000060 c3 fc dd 3c 96 f7 2a bd d1 0e 41 bc ac 1e 10 3d
       0.027098065 -0.041740023 -0.011783318 0.0351855
000070 e2 cc b7 bc dc ed 80 3c 29 51 93 bc 99 52 f0 3c
       -0.022436563 0.01573842 -0.017983036 0.02933626
000080 3d 08 37 bd bb 26 4b 3c 3d f4 d3 bc 31 ab 09 bd
       -0.04468559 0.012399371 -0.025873298 -0.033610526
000090 3e 47 3e 3d a1 e8 5c bc db 92 33 ba 1d e4 fe bb
       0.04645466 -0.013483197 -0.0006850191 -0.007778658
0000a0 02 e4 22 bd 72 40 01 3d a7 38 10 bd 9e f1 14 bc
       -0.039768226 0.0315556 -0.035210278 -0.009090809
0000b0 b7 58 32 bd a8 1e 43 3b 38 74 25 3a a8 c0 99 3c
       -0.043541636 0.0029772911 0.00063115684 0.018768623
0000c0 a9 95 aa 3c c9 7b 06 bd f8 43 cb 3c 71 41 3f bc
       0.020823317 -0.032832894 0.024812683 -0.011673317
0000d0 c5 85 60 3d 63 1c b9 bc 97 ed d6 bb 6d c7 54 bb
       0.054815073 -0.022596544 -0.0065590846 -0.00324675
0000e0 f4 55 39 3d 6f 6d 87 bc 7a 08 e2 bc 13 85 13 3c
       0.045247987 -0.016531674 -0.027591933 0.009003895
0000f0 8e f8 18 3d 1e 4e 10 bd 52 c8 5d bc c7 c5 4a bc
       0.037346415 -0.03523075 -0.01353653 -0.012376255
000100 7b d7 31 3d e2 ad 3d 3b 20 e9 36 bd 40 36 32 3d
       0.04341839 0.0028942754 -0.04465592 0.043508768
000110 76 f7 94 bc d6 f4 52 bd 65 81 50 3d 1a f2 30 bc
       -0.018184405 -0.051503025 0.05090465 -0.010799909
000120 62 4a df 3c c1 55 4d 3c c4 5d f2 3c 85 6f 81 bc
       0.027257148 0.012532652 0.029585727 -0.015800247
000130 4d 01 73 bc 80 25 15 bd 57 5b f9 bc 5d b2 d3 bc
       -0.014831853 -0.036412716 -0.030439062 -0.025841886
000140 5c e0 0f 3d e8 01 2d bd 90 9c 00 3b 0b 7c 89 3b
       0.035126075 -0.042238146 0.0019624569 0.0041956953
000150 97 04 54 3d 03 71 d3 bb e1 d6 64 bc a1 86 df 3b
       0.05176219 -0.006452681 -0.013967247 0.006821469
000160 02 c9 44 3c f5 b2 88 3c ef 7c 31 3d 78 0e ab bc
       0.012010815 0.016686896 0.043332037 -0.020880923
000170 04 b7 51 3b 01 12 3a bc 69 db 36 bd 7b f2 7e bc
       0.0031999955 -0.0113568315 -0.04464284 -0.015560742
000180 ad 3e 2a 3c ef 43 93 3c c2 2f 10 3c 78 c5 28 bd
       0.01039092 0.01797673 0.008800449 -0.041203946
000190 e3 b8 28 bb af de bb 3c 78 de aa 3c 70 61 1e bd
       -0.0025744967 0.022933332 0.020858034 -0.038667142
0001a0 87 a9 41 3c 34 9a c2 bb fc 77 a0 3a 33 cd bd 3c
       0.011820204 -0.0059387926 0.0012242789 0.023169136
0001b0 66 d8 9e bc fd be 92 3b 92 ec a7 3c 84 a0 44 bc
       -0.019390296 0.004478334 0.020498548 -0.0120011605
0001c0 f3 55 4c 3d 73 6e d0 bb 74 80 a6 3b 68 82 17 bd
       0.049886655 -0.006360823 0.005081231 -0.0369896
0001d0 61 94 97 3c 3e 4e 7c bc 9a 76 2a 3d c4 e9 c2 3c
       0.01850337 -0.015399514 0.041617014 0.023793109

fc1.weight f4 [84, 120]
000000 b7 9d 41 bd 8d df 99 bd e0 45 ce 3b 39 c1 02 3a
       -0.04726955 -0.07513342 0.006294951 0.0004987899
000010 78 d0 9a bd 15 a5 c4 3d 49 b2 6f bd d8 fc 5b bd
       -0.075592935 0.096017994 -0.058519635 -0.053707927
000020 da 32 57 bd e9 0e 28 3d f8 d8 58 3d 40 c2 cf bd
       -0.05253873 0.041029844 0.052941293 -0.10144472
000030 8c da 8b 3c 6c 7f b0 bd 2d 0d 0b bd 8e a9 bf bc
       0.017071985 -0.08618054 -0.033948112 -0.02339628
000040 f6 59 00 3e ae 25 a6 bd 63 ea c9 bd f3 83 2a 3d
       0.12534317 -0.081126556 -0.09859159 0.041629743
000050 ad ba f0 bd 91 be 01 3d 96 3f 32 3d 51 8a f0 bc
       -0.117543556 0.03167588 0.04351767 -0.02936283
000060 42 33 fe ba d2 30 8e bd 59 37 b9 bd a1 4a 20 3d
       -0.0019393938 -0.069429055 -0.0904376 0.03913367
000070 16 ec 03 be 22 73 12 3d 77 44 6a bd 2d 44 19 3e
       -0.12883028 0.03575433 -0.0571942 0.14967413
000080 07 52 77 bd db 40 c5 3c 58 b7 a6 bd 6b 9c 22 3d
       -0.06038096 0.024078777 -0.08140439 0.039699953
000090 7c 1c 98 3c b2 aa 5f bd e4 c2 8d bd f7 7f 3f bd
       0.01856827 -0.054606147 -0.06921938 -0.046752896
0000a0 83 4e 61 bd 3b 1e 44 bd 9d ca 2f b9 1c 71 3a 3d
       -0.055006515 -0.047880393 -0.0001676478 0.045518026
0000b0 4b db 40 bd aa 5a 12 bd 2f a8 92 3d 43 a7 1e bd
       -0.047084134 -0.035730995 0.07160985 -0.038733732
0000c0 42 ad d4 3c 46 d3 0a bd f9 ab af 3d c6 f6 36 bd
       0.025961522 -0.033892892 0.08577723 -0.044668935
0000d0 4f af e9 bd 80 09 97 3d aa 46 80 3c f5 4d e9 ba
       -0.114103906 0.07374859 0.015658695 -0.0017799722
0000e0 b3 7c 15 be ca 4b fc bd a5 ea 45 3d 1f 02 70 bd
       -0.1459835 -0.12319143 0.048319478 -0.058595773
0000f0 b7 be cc bd 4f 8e 1e 3d 1b cf a9 bd 05 87 b6 3d
       -0.099973135 0.038709935 -0.08291455 0.08912472
000100 11 9b 34 bd 77 74 de 3c 4a ed c2 3c 7d e4 c7 3d
       -0.044093195 0.027155144 0.023794789 0.097603776
000110 35 e2 53 3d 93 7a 47 bc 69 cd b6 3d 80 03 25 3c
       0.0517294 -0.01217522 0.08925898 0.010071635
000120 b3 79 b7 3c 10 04 30 3d 9e 53 96 bd 97 41 ba bd
       0.022396898 0.042972624 -0.073401675 -0.090945415
000130 50 4f 9f 3c ed 39 e2 bd ff 13 17 bd df 66 88 bd
       0.019446999 -0.11046205 -0.036884304 -0.06660246
000140 2d c7 7f 3d ad 89 32 bd e7 8a f0 3d 2f a5 60 bc
       0.06244581 -0.04358833 0.117452435 -0.013711258
000150 f0 ab e0 3c d6 4b 27 bc 8d ea 8e bd 5c b0 90 bd
       0.027425736 -0.010210952 -0.06978331 -0.07064888
000160 58 87 c4 3d 63 b3 05 bc 2d a2 d1 3b df e0 4a bd
       0.09596127 -0.008160445 0.0063975067 -0.04953086
000170 28 a5 aa 3d ba b6 09 be 01 46 91 bd 7c 36 81 bd
       0.08332282 -0.13448611 -0.0709343 -0.0630922
000180 eb fe 9c bc cc 18 67 3d 5c 16 56 3d 62 74 ff bc
       -0.019164523 0.056420133 0.052267417 -0.031183425
000190 81 86 40 3d 45 e5 bb 3d 2f 36 e1 bd 80 3f de 3c
       0.047003273 0.09174589 -0.10996663 0.027129889
0001a0 a5 a4 b0 3d 71 94 bf 3c f9 2e 48 3d 4d 15 e7 3d
       0.086251535 0.023386212 0.04887292 0.1128336
0001b0 cf ba 50 3d 91 d4 92 bd 6c 3f 34 bd 9e d6 18 3d
       0.050959405 -0.0716945 -0.044005796 0.03731405
0001c0 47 36 1a be ff 5c 27 bd c2 18 06 bc ff ad b2 bb
       -0.15059768 -0.040860172 -0.008184614 -0.005452871
0001d0 50 ce 21 bc 18 c3 34 3d c0 af 8a 3d 51 c9 f2 bd
       -0.009875849 0.04413137 0.06771803 -0.11854804
0001e0 65 11 1e 3d ea cd 2f 3b db 75 c9 3a 49 77 8d bc
       0.038590807 0.0026825615 0.0015370207 -0.017268794
0001f0 1d 80 df bb f4 37 63 3c 9c 23 d4 bb 35 c1 aa bd
       -0.006820692 0.013868321 -0.0064739715 -0.083376326
000200 36 f3 8d 3d 92 86 cb bd 7c da 87 bd 6f 17 83 3d
       0.069311544 -0.099377766 -0.066334695 0.06400954
000210 1a b9 3f bc 55 e7 1c bd 28 60 8e bb 8f c8 84 bd
       -0.0117018465 -0.038306553 -0.004344959 -0.06483566
000220 84 b5 14 3d 1a b6 f6 bc 4c 8c ef bc 89 7c cc 3d
       0.03630592 -0.03011613 -0.029241703 0.09984691
000230 63 ac 06 3d 41 68 01 3d 67 54 52 bd a2 0c 6c 3b
       0.032879245 0.031593565 -0.051350024 0.0036018272
000240 ed 94 3a bc 54 39 aa 3d 82 a2 7b 3c 7f 09 8a 3b
       -0.011388046 0.08311716 0.015358569 0.004212558
000250 bd 64 58 3d 9a 2e c4 3d d5 d0 be bd 18 3b 95 bd
       0.052830447 0.09579201 -0.09317175 -0.07286662
000260 2c ef c6 bd bf 33 3f 3d d9 99 1b 3d 34 5e 6a 3d
       -0.09713587 0.04668021 0.037988517 0.057218745
000270 e3 fe 81 bd b8 fb 53 bd 8b 8b 16 bd 8a f5 be 3d
       -0.06347444 -0.05175373 -0.036754172 0.093241766
000280 24 e4 bc 3d a0 ff f5 3d 8a 50 1b bd a8 7b c1 bd
       0.09223202 0.12011647 -0.037918605 -0.09447414
000290 15 c9 a1 bd 94 2b b1 bc cc a2 05 3d f5 a7 52 bd
       -0.078996815 -0.021627225 0.03262596 -0.051429708
0002a0 c8 8c d8 3d 2f c2 a5 bc 83 d8 bc 3d e4 09 82 3d
       0.10573727 -0.020234196 0.09220984 0.06349543
0002b0 62 c3 bc bd ab 52 05 bd 11 7a 2b bd b5 f0 a4 bc
       -0.09216954 -0.03254954 -0.04186446 -0.02013431
0002c0 cc 0e 44 3d fd de ab 3d d4 ed 2b bd 87 44 c6 3d
       0.047865674 0.08392141 -0.041974857 0.09681039
0002d0 44 3e cb 3b 22 8e 82 3c 42 e2 f0 bd 20 8c 9d bd
       0.006202491 0.015936915 -0.11761905 -0.07692742
0002e0 28 9d 1b 3d 86 70 8b 3d 27 8d 01 bd 0c d9 34 bd
       0.037991673 0.068085715 -0.031628754 -0.044152305
0002f0 12 88 6b 3d a9 62 cb bd 04 ac b6 3d 19 1c bf 3d
       0.057502814 -0.09930927 0.08919528 0.09331531
000300 16 84 66 3d cb 69 9c bd 27 ee e0 bb 65 65 b2 bd
       0.05627831 -0.07637366 -0.0068643275 -0.08710746
000310 fc 17 29 3d a9 64 df 3d 45 12 e4 bc 50 ae 26 bd
       0.04128264 0.10907871 -0.027840743 -0.04069358
000320 8e 3f 69 3d 9d 14 20 bd 47 b3 82 bd 5c a8 ba bd
       0.056945376 -0.03908216 -0.06381851 -0.09114143
000330 d7 12 cf bc 3a 94 68 3d ee 54 3c 3d 99 75 f8 3c
       -0.025277538 0.056781985 0.045979433 0.030329512
000340 c9 bd 30 3d 34 f3 a4 bd 42 f7 e9 3d 16 73 47 bd
       0.043149743 -0.080542 0.11424114 -0.04869374
000350 fc 60 b7 bd 15 d2 7a 3d 93 a6 2a bc 27 12 9d bc
       -0.08954045 0.061235506 -0.010415691 -0.019173695
000360 a6 be d5 bd 39 0c 0c 3d f4 2d c4 bd b5 51 74 bd
       -0.10436754 0.034191344 -0.09579077 -0.059648234
000370 cc 03 9c 3d 93 52 4a 3d 17 f2 fb bd 3f 60 b4 bc
       0.07617912 0.049395155 -0.12302034 -0.02201855
000380 f6 f6 4f bd f4 15 dd bd b6 85 d9 bd 60 41 05 3e
       -0.05077263 -0.10795203 -0.106212065 0.1301322
000390 2d 8e 4d 3a 7b 4f 85 3d 8a aa 62 3d 77 2f 86 3d
       0.0007841315 0.065093 0.05533842 0.06552022
0003a0 d7 31 c4 bd 97 c8 c3 3c e7 82 8c bd dc 29 70 3d
       -0.09579819 0.02389936 -0.06860905 0.05863367
0003b0 84 b9 b0 3d da 87 43 3d 86 5d a3 bc 8d 22 52 bc
       0.08629134 0.04773698 -0.019942056 -0.01282562
0003c0 0e 03 b5 3c d6 d3 7e bc 35 d2 4e bd 60 b8 c6 bc
       0.022096183 -0.015553435 -0.050493438 -0.024257839
0003d0 c6 68 05 be 6c fa e9 ba 4c c7 b1 bd af cb b8 bb
       -0.13028249 -0.0017851121 -0.08680591 -0.0056395154
0003e0 c9 0e d0 bd 95 1b a6 3d da 0a c8 3b 91 23 7f 3d
       -0.1015907 0.081107296 0.006104809 0.06228978
0003f0 68 e6 50 bc 6b c1 89 ba 40 4e b6 3d 5c 5c ab 3d
       -0.012750246 -0.0010509914 0.08901644 0.083672255

fc1.bias f4 [84]
000000 8a 74 19 bc a6 69 9d bd dc ba 1b 3b 77 35 30 3d
       -0.009366164 -0.076861665 0.00237625 0.043019738
000010 3c ad e5 3c 5c d6 8a 3c 0c 38 a6 3d a0 15 66 3d
       0.028036706 0.016947918 0.08116159 0.056172967
000020 4b 9d aa bc c9 74 8a 3d 7e 37 9c bd 1b 45 77 3d
       -0.020826956 0.06760556 -0.07627772 0.06036864
000030 30 88 4e 3d b6 6b 2c bd 0c 67 96 bb 05 bd 9c bc
       0.050422847 -0.04209491 -0.004589921 -0.0191331
000040 f6 37 69 bd a6 c2 99 bd c6 2b ca bd b1 64 29 bd
       -0.056938134 -0.07507829 -0.0987163 -0.041355792
000050 63 54 a3 3c 69 2f 27 3d 58 61 8c bb 41 e6 64 bd
       0.0199377 0.0408167 -0.004284065 -0.05588365
000060 3c 69 34 3d cc 1e 19 3c fa f4 09 3c 5f 18 e1 3c
       0.04404567 0.009345721 0.008420223 0.027477441
000070 92 60 59 bc f7 80 58 3d c9 94 25 3d 62 b2 7d 3c
       -0.013267653 0.052857365 0.040425096 0.015484424
000080 5c cf 7f bc 3e f9 ec bc bc bf 22 bd a7 b6 d2 bc
       -0.015613403 -0.028927442 -0.039733633 -0.025721861
000090 4b 02 af bd a7 d5 a4 bd 12 ff 9e bb ae 24 91 bd
       -0.08545359 -0.080485635 -0.004852184 -0.07087074
0000a0 d9 b9 27 ba 0d 5b 94 bd 76 88 48 3d bd a4 57 bc
       -0.0006398238 -0.07243929 0.048958264 -0.013161835
0000b0 82 5e b9 bc de 9e 43 3b 76 b0 d2 3c 16 55 79 bd
       -0.022628073 0.002984933 0.025718909 -0.06087216
0000c0 31 9a 91 bd 2c ce a3 3b ba cb d9 3c 08 02 0a 3d
       -0.07109488 0.004998943 0.026586402 0.033693343
0000d0 43 90 00 3d 86 51 66 bd 46 ad 90 bd dd 52 0a bc
       0.03138758 -0.05623009 -0.07064299 -0.008442608
0000e0 d3 a8 36 bd 26 ab 2c bd 31 15 01 3c 5d 64 eb bc
       -0.044594597 -0.042155407 0.007878588 -0.02873438
0000f0 80 a7 40 bc b0 d7 d4 3d ba eb 34 3d 06 aa 22 bd
       -0.011758685 0.103927016 0.04417012 -0.03971293
000100 29 19 42 3d 01 3c 88 bd db 9e 1c 3d b4 0f 9d 3b
       0.047387276 -0.0665207 0.038237434 0.0047931317
000110 c7 90 81 3d 39 ac 4a 3d 18 ae 9f bd 24 67 83 3d
       0.06326442 0.04948065 -0.077968776 0.06416157
000120 7b 21 9f 3d 44 c2 44 3d e5 a6 11 3d 35 6b 1c bd
       0.07770058 0.04803683 0.035559554 -0.038188178
000130 b1 73 ab 3c f0 fa 8d 3c ad a0 d8 3b d6 26 22 3d
       0.02092919 0.01733157 0.006610951 0.039587818
000140 ae 42 88 bd a3 61 60 bc bc f2 ea bc 53 04 ce bc
       -0.06653343 -0.013695153 -0.028680198 -0.025148546

fc2.weight f4 [10, 84]
000000 b2 d9 0e be c7 2f 51 be a5 f3 38 3e e3 f2 c1 3d
       -0.13950232 -0.20428382 0.18061693 0.09470155
000010 98 d7 15 3e 65 6f f4 3c 20 a0 34 3e a8 5c f8 bd
       0.14633024 0.029838273 0.17639208 -0.12127048
000020 07 16 c4 be c1 99 21 3e 90 ab f1 ba 24 b8 6b bd
       -0.38298056 0.15781309 -0.001843797 -0.057548657
000030 f5 15 c8 3d ca 7b 01 bd 4e af 06 3e e0 e4 55 3e
       0.09769813 -0.031612195 0.13152811 0.2088809
000040 87 8c b5 be 21 19 43 3d 03 5c 98 bd 31 7f 70 3e
       -0.35458776 0.047631387 -0.07439425 0.2348602
000050 09 47 5e be 00 e7 9e be 74 f5 15 3d 83 bf 46 3e
       -0.21706785 -0.31035614 0.036611035 0.19408993
000060 ad 90 ad 3d 7a 14 95 be d6 70 68 be 55 71 60 bd
       0.0847486 -0.29117185 -0.22699293 -0.05479558
000070 c5 4f 93 3e 06 3f 1f be 84 b5 9b 3c 70 ca 3f 3e
       0.28771797 -0.15551385 0.019007452 0.18729568
000080 45 98 6f be 2a 90 b6 3c fb 24 28 3e e3 f5 30 3e
       -0.2339793 0.02228554 0.16420357 0.17281298
000090 57 69 61 be f2 0c 60 be bc 3e 51 bc b8 3d f0 bc
       -0.2201284 -0.21879938 -0.012771305 -0.029326305
0000a0 ae 6f ea bd e3 c6 a3 3e 6b 61 90 be a2 2f 60 be
       -0.114470825 0.31987676 -0.28199324 -0.2189317
0000b0 fa b0 9a 3d ae e3 83 be 01 bf 34 3e c9 fb 92 3e
       0.07553287 -0.25759643 0.17650987 0.28707722
0000c0 7b 33 f2 3c 38 4a ad 3d 7e 94 9b be fc 1f 52 3e
       0.029565563 0.08461422 -0.30386728 0.20520014
0000d0 8d 74 94 be 7f ba 26 be 96 14 a6 bc 94 15 8f be
       -0.2899517 -0.1628208 -0.020273488 -0.2794615
0000e0 58 9a 9a 3e 0b 70 32 3e 82 66 b1 3d ce 6d f3 3d
       0.3019588 0.17425554 0.0866213 0.11886178
0000f0 29 4f c2 3e e9 14 8c 3d f2 cb 10 bc 4f ba 91 3e
       0.3795102 0.06839926 -0.008837687 0.28462455
000100 6b d6 25 be 11 11 3f bc 89 10 5d 3d b9 18 5e 3d
       -0.16195075 -0.011661784 0.053970847 0.054222796
000110 ba 27 4f 3e ed 9e dc bd 9e 7b 1e be a1 ba 1a 3e
       0.20229998 -0.107725 -0.15476844 0.15110256
000120 04 5c 7b 3e 22 19 81 be 3c 36 86 be 79 2b 03 bd
       0.2454682 -0.25214487 -0.26213253 -0.03202388
000130 94 1f 06 3e c5 fa a7 3d 9b c2 77 be 66 76 69 be
       0.13097984 0.08202127 -0.2419533 -0.22799072
000140 26 6e b9 bd e9 95 07 3e 35 a3 42 be ff 07 8a 3e
       -0.09054212 0.1324078 -0.19007571 0.26959226
000150 18 13 db bd a1 b3 b9 3d 8f f0 e6 bd 10 a1 40 be
       -0.10697001 0.090674646 -0.11276352 -0.1881144
000160 d4 75 ef 3c 46 1c f6 3d 87 fd 63 3c 4b b5 8c 3e
       0.02923099 0.120171115 0.013915426 0.27482066
000170 94 e3 46 3e 99 e7 71 3e 94 f3 70 be a3 27 a9 3e
       0.19422752 0.23623504 -0.23530418 0.33038053
000180 ea a0 51 3e b8 3a 80 be 41 c0 d6 3e 23 ed 96 be
       0.2047154 -0.250448 0.41943553 -0.29477796
000190 36 6a 13 be 0f 4f 5c 3e dd ea a4 3e 40 4e a4 bd
       -0.14395985 0.21514533 0.32210436 -0.080227375
0001a0 74 be 2c be 35 5c bf 3d e7 0f 0a bc b0 22 50 bd
       -0.16869527 0.09343759 -0.008426643 -0.05081433
0001b0 6e f0 8e 3e d1 35 2a bc 97 13 8b 3e c6 fb b2 bd
       0.27917808 -0.010388807 0.27163383 -0.08739428
0001c0 bd 65 08 3e d6 5c 13 3e 31 93 6e be 98 ff 34 3e
       0.1332006 0.14390883 -0.23298337 0.17675626
0001d0 4e 71 5a 3e 2c c9 a6 be 27 f6 94 bd 44 d9 06 3e
       0.21332285 -0.32575357 -0.07273512 0.13168818
0001e0 7d 45 4e 3e ea 36 29 3e b0 31 08 3e fb 05 a5 bd
       0.20143695 0.16524854 0.13300204 -0.08057781
0001f0 bd 08 f8 3d e6 3d 4f be aa 16 b3 3d 78 7c 2c bd
       0.12111042 -0.20238456 0.08744557 -0.04211089
000200 c2 bc dd bd 49 b3 74 3e d3 f7 ee bd 14 86 bd 3e
       -0.10827018 0.23896517 -0.116683625 0.37016356
000210 ee fd 7e 3e cb 46 bb 3d e9 3b c1 3d 9a 75 69 be
       0.24901554 0.09144362 0.09435255 -0.22798768
000220 d5 33 13 3e c7 1f b5 3c 6d 8a 95 be b2 14 b3 3d
       0.14375241 0.02210988 -0.29207173 0.08744182
000230 28 0f ed 3c b0 05 80 be 1a f4 87 be 4e 63 54 3e
       0.028937891 -0.2500434 -0.26553422 0.20741007
000240 8c 28 e9 bd 19 51 69 3e 17 ce 6d be d1 a1 72 be
       -0.11384687 0.22784843 -0.23223148 -0.2369454
000250 fa 28 76 3e 82 2d 5b 3e 0d 19 89 3e 9e e5 d2 3d
       0.24039069 0.21404079 0.26776925 0.10297702
000260 10 a3 ad 3e 19 c1 31 3e aa 7c eb 3c 1c c7 b7 bb
       0.3391347 0.17358817 0.028745968 -0.0056084525
000270 7c bb 8e ba ab 0b e3 3d b2 3c ad bd 2f 19 05 3e
       -0.0010889615 0.1108621 -0.08458842 0.12997888
000280 7f 31 bd be 7b 10 52 be 6c ae d6 3d 65 f5 5e 3e
       -0.36951825 -0.205141 0.10482487 0.21773298
000290 25 7e 8b 3b 9a 9c 0c 3e 18 cf 84 be d6 6b 8e be
       0.004256981 0.13731614 -0.2593925 -0.27816647
0002a0 08 49 1a be f5 72 89 be 86 e2 dd 3e 66 13 72 be
       -0.15066922 -0.26845518 0.43336886 -0.23640212
0002b0 63 eb a5 3e 19 da 68 3e 75 f3 95 3e 15 0e 89 3e
       0.32406148 0.22739448 0.29287305 0.26768556
0002c0 21 92 8c bd c8 4c a1 3c 06 52 2e 3e fd 29 04 be
       -0.068638094 0.019689932 0.17023477 -0.12906642
0002d0 16 82 36 bd 23 69 a7 3e 8b fc 1f be 9c 04 dc 3d
       -0.044557653 0.326974 -0.15623681 0.10743067
0002e0 74 c9 71 3e b0 ee d7 bd 72 86 61 be 06 67 ba bd
       0.23612005 -0.10543573 -0.22023943 -0.091016814
0002f0 4e 53 48 be e3 b3 06 3d 58 92 87 3e ac 5b 24 3d
       -0.19563028 0.032886397 0.2647884 0.040126488
000300 ab 1b c8 3d d1 15 40 3e fa 33 91 3e 2f 72 8b 3e
       0.09770902 0.18758322 0.28359967 0.27235553
000310 d8 1f 2c 3e 33 41 8a 3e 6f d0 36 be 97 e4 16 be
       0.16809022 0.27002868 -0.17852949 -0.14735638
000320 59 49 26 bd 07 fa aa bd 22 1c 35 be 39 5b 0f be
       -0.040597294 -0.0834847 -0.17686513 -0.13999642
000330 bf b3 7b bc 89 64 2f bd 86 62 72 be 4f 5b 80 3e
       -0.015362679 -0.042820487 -0.23670396 0.25069663
000340 f3 66 01 be a0 a8 65 3e cc 56 97 3e a4 84 02 3e
       -0.12636928 0.22427607 0.29558408 0.12745911
000350 be c6 60 be 1e 2b 3e bd 6d 88 fc 3c 1f d4 f5 3c
       -0.21950814 -0.04642784 0.030826772 0.030008374
000360 6a 12 bb 3d 36 e4 0f bd f0 b0 96 3d 9a 11 9a 3e
       0.091343716 -0.03512975 0.07357967 0.30091554
000370 c4 be 00 3e 3f 53 c9 3d 8a a0 06 be d6 f2 1f 3e
       0.12572771 0.09830331 -0.13147178 0.15619978
000380 e2 95 9d 3c 80 b5 22 3e fc 7f f1 bd 92 5c 7f bd
       0.019236509 0.1588955 -0.11791989 -0.06234414
000390 0d 4b a3 3e b9 3b db 3d 06 49 5e be 65 ed 93 be
       0.31893197 0.107047506 -0.21707544 -0.28892055
0003a0 e6 3d ee bd 49 fe ef bd c6 25 23 be f0 14 91 be
       -0.116329 -0.11718423 -0.15932378 -0.28336287
0003b0 7d b0 a0 3e ba fb 11 be 9b 4c 5c 3e 33 c0 55 3e
       0.3138465 -0.14256182 0.21513598 0.208741
0003c0 25 08 62 3c 11 1f 3e 3d 1f af 8a 3d 92 6d 68 3e
       0.013795887 0.046416346 0.06771683 0.22698048
0003d0 15 0d e3 bd de bc 00 bd 22 46 64 3c f0 a7 ee bd
       -0.110864796 -0.031430118 0.013932737 -0.11653125
0003e0 38 4b 8b be 66 3d c3 bd d9 a6 ed 3d 11 d2 4e be
       -0.27205825 -0.09533195 0.11604089 -0.20197321
0003f0 87 19 76 3e d3 23 bd bc f2 c5 d4 bd 4a d7 80 be
       0.24033175 -0.023088371 -0.103893176 -0.25164253

fc2.bias f4 [10]
000000 06 21 85 bd a4 c8 7a bd b2 60 9c 3d 8d 93 d0 bd
       -0.06500439 -0.061226502 0.07635631 -0.10184393
000010 c5 b1 c6 3c 08 8f 19 3d 74 53 8b 3c 65 ab cf 3c
       0.024254689 0.03748992 0.017007567 0.025350282
000020 79 59 40 bd 02 00 d0 3d
       -0.046960328 0.101562515
