models/pretrained/MNIST_multiple_U_R_check/Unet2_w_acc_95.pt (torch, 250189 bytes, 10 tensors)

conv1.weight f4 [6, 1, 5, 5]
0.15116511 -0.058197446 -0.06932335 0.07319705 -0.044424463 0.27785787 0.10097248 0.28546286
0.20278895 0.16202582 0.18390173 0.1134894 0.1778875 0.054326434 0.0054771136 -0.013441764
0.02566294 0.0068449955 0.17256562 0.17430614 -0.20589344 -0.18966597 -0.06841803 -0.13251509
-0.23370619 0.1897141 0.2736305 0.25788626 -0.102698 0.14976771 0.14200911 0.27044386
0.22925681 -0.06749733 -0.13840215 0.06784162 0.23702607 -0.055350505 0.04868651 -0.13639858
0.25231993 -0.021705884 0.19939004 0.063177936 -0.10356259 0.05994987 -0.10427092 0.05648271
0.027324468 0.15741329 -0.115654156 -0.08220455 0.023733515 -0.029552275 0.42557552 0.3680077
0.16863161 -0.008347939 0.1796273 0.12888107 -0.07920598 0.17648028 0.1333326 0.13523635
-0.087726995 -0.0912965 -0.12878947 -0.05135909 -0.12881912 -0.17811598 0.17368117 0.12303864
0.21248055 0.06787965 0.071102396 0.0031063354 0.07022448 0.10123146 -0.22125623 0.0455003
-0.20786554 -0.27535793 -0.13191074 -0.07138602 0.15602204 -0.10138649 -0.15371698 0.10737619
-0.1836443 -0.0812383 -0.20961104 -0.3515799 -0.07184606 -0.015909832 -0.16918117 -0.16563326
0.06853222 0.02499442 -0.18566683 -0.26191953 0.26577744 0.0726898 0.2536505 0.20693813
-0.12957181 -0.08028651 0.21617188 0.080841765 0.31553102 0.19966389 0.11270706 0.16209781
0.21911743 -0.090234146 0.033948474 0.25286415 0.17788398 0.20492771 -0.098747194 -0.22054239
0.0077848844 0.04820354 0.13584247 -0.13202485 0.101572 -0.052403826 -0.13089034 -0.014556376
0.15240477 0.4162308 -0.018916214 0.1565735 0.26914266 0.18759345 0.093154766 0.253172
0.108475335 -0.021013416 -0.1899582 -0.17634389 -0.12995358 0.035222508 -0.019317579 0.18065946
0.1720528 0.14459965 0.2253409 0.13853432 0.17276798 0.2532223
00000000: 07cb 1a3e 7260 6ebd 67f9 8dbd 56e8 953d
00000010: 6df6 35bd 6343 8e3e a9ca ce3d 3028 923e
00000020: e8a7 4f3e 19ea 253e bc50 3c3e 216d e83d
00000030: 2428 363e 6585 5e3d 5c79 b33b d83a 5cbc
00000040: 163b d23c fc4b e03b 0bb5 303e 4f7d 323e
00000050: bbd5 52be cc37 42be c11e 8cbd 09b2 07be
00000060: ad50 6fbe 6a44 423e 4c19 8c3e ab09 843e
00000070: 5453 d2bd b55c 193e d66a 113e 9e77 8a3e
00000080: 4cc2 6a3e 0a3c 8abd 4bb9 0dbe 8cf0 8a3d
00000090: f6b6 723e 36b7 62bd 826b 473d 12ac 0bbe
000000a0: 1430 813e 8ad0 b1bc e72c 4c3e 6f63 813d
000000b0: a018 d4bd ff8d 753d fe8b d5bd 6a5a 673d
000000c0: 90d7 df3c f330 213e 16dc ecbd dc5a a8bd
000000d0: ca6c c23c 9d17 f2bc 09e5 d93e 816b bc3e
000000e0: c4ad 2c3e cbc5 08bc 38f0 373e 66f9 033e
000000f0: bf36 a2bd 3fb7 343e 5788 083e 667b 0a3e
00000100: 36aa b3bd a9f9 babd 63e1 03be e95d 52bd
00000110: 29e9 03be 0964 36be 7ad9 313e affb fb3d
00000120: 8094 593e 7c04 8b3d 229e 913d a993 4b3b
00000130: dad1 8f3d 7152 cf3d fe90 62be 865e 3a3d
00000140: b4da 54be b7fb 8cbe 9c13 07be d532 92bd
00000150: 3ec4 1f3e b8a3 cfbd fc67 1dbe 0ce8 db3d
00000160: 400d 3cbe 4460 a6bd 47a4 56be 4802 b4be
00000170: 0724 93bd 5655 82bc d43d 2dbe c49b 29be
00000180: 9f5a 8c3d 19c1 cc3c 721f 3ebe 511a 86be
00000190: fb13 883e 64de 943d 7ade 813e 97e7 533e
000001a0: 79ae 04be 416d a4bd 295c 5d3e 5e90 a53d
000001b0: 488d a13e b174 4c3e f6d2 e63d f8fc 253e
000001c0: 5260 603e aecc b8bd 8e0d 0b3d 6977 813e
000001d0: 3827 363e 92d8 513e f83b cabd ddd5 61be
000001e0: 5818 ff3b 1371 453d 4a1a 0b3e 8631 07be
000001f0: fb04 d03d 65a5 56bd 1e08 06be de7d 6ebc
00000200: ff0f 1c3e 341c d53e 2df6 9abc ce54 203e
00000210: 11cd 893e 7f18 403e edc7 be3d c39f 813e
00000220: 5128 de3d 5424 acbc 6784 42be 7e93 34be
00000230: 8d12 05be 7a45 103d e63f 9ebc cbfe 383e
00000240: 9c2e 303e ee11 143e c4bf 663e f1db 0d3e
00000250: 17ea 303e 5aa6 813e

conv1.bias f4 [6]
-0.42291912 0.29034215 -0.29953113 -0.12949981 -0.1796087 -0.32880113
00000000: db88 d8be baa7 943e 255c 99be 999b 04be
00000010: 58eb 37be 9f58 a8be

conv2.weight f4 [16, 6, 5, 5]
-0.11126683 -0.16012481 -0.12108375 -0.13596009 -0.098417066 0.08719754 0.063445695 0.097144075
0.023457319 0.062997766 -0.024115136 -0.15132038 -0.20581637 -0.059894618 0.024203124 0.0639163
0.06278204 0.09541722 0.11081906 0.049308725 0.075319976 0.043214668 -0.019568685 0.09290742
0.017661668 -0.06256739 -0.10393048 -0.10545141 -0.06380227 0.09909472 -0.0654198 -0.1323576
-0.09247369 -0.094186306 -0.0007754823 -0.01981016 0.004886513 0.036368605 0.10995054 0.030362474
0.0031819828 0.03083591 0.055219002 -0.05737613 0.019984981 -0.07417466 0.035932165 -0.061629012
0.008484879 -0.0480873 -0.050854888 -0.03293083 0.015723765 0.0735524 0.06569094 0.027859459
-0.035649404 0.13988042 0.14545648 0.0440495 0.047695275 -0.017582303 -0.017905876 0.079868
-0.04999313 0.06630445 -0.090204716 -0.09979234 -0.025063438 -0.1150049 0.0058031026 0.10540683
0.08780152 0.113385595 0.0026319663 -0.11709679 0.07452568 -0.020832047 -0.019453792 -0.019932548
-0.12264513 0.033572618 0.057875395 -0.09338356 -0.14134413 -0.068354934 -0.022362316 -0.04232543
-0.07766211 -0.03493193 -0.14970385 -0.15150611 -0.10526462 0.017227018 0.028419835 -0.07648886
-0.034755252 0.07085276 0.05345689 -0.029722689 0.07902499 0.04351907 -0.03866152 0.028329981
0.10092318 0.14983638 -0.040721145 0.06513746 0.026306527 -0.030448887 0.040416844 0.0058815675
0.18202251 0.106471024 0.1255423 0.072463065 0.06760474 0.07531 -0.010230755 -0.024202883
-0.027083611 0.018266153 -0.06487415 0.042359073 0.028744612 0.024031173 0.07077401 0.032682635
-0.013725681 -0.054106563 -0.10922899 0.053728677 0.004474819 0.017398734 -0.041780528 -0.00037949436
0.12352884 0.09963193 0.025982937 -0.06094944 -0.039168928 -0.026813215 -0.05813416 -0.0609931
-0.04332016 -0.060405686 0.011003037 -0.100162685 -0.07431787 -0.057238437 -0.10208206 0.03634927
-0.021494724 0.082687944 0.01446211 -0.110370725 -0.16626425 -0.03756383 0.06992032 -0.022138646
-0.0031899875 0.14401615 0.12724414 0.058987822 -0.046650697 0.07316154 0.09163963 0.10295361
0.14878008 0.03687443 -0.0806355 0.0016307852 -0.048321456 0.030939836 0.04000064 0.014441905
0.023681715 -0.08887953 -0.006218355 0.01894439 -0.041932885 -0.06257679 -0.008506875 -0.02233969
-0.0070331465 -0.112876534 -0.03728114 0.11838682 -0.06040973 -0.072741374 -0.058064558 -0.042109594
-0.06858565 -0.051364686 0.014506358 0.0021258532 -0.1283462 -0.15672064 -0.06800238 0.0011398189
-0.0006932471 -0.02626773 0.019456571 -0.023969918 -0.1037513 -0.15591094 0.05718594 0.085475646
0.16202459 0.05797036 -0.11786828 -0.05931017 -0.08995488 -0.15081364 -0.20612115 0.03381835
0.037635446 0.018449027 0.058223147 -0.02706482 -0.021731902 0.11555785 0.103058174 0.07888912
0.029014658 -0.07932512 0.04104634 -0.07646525 -0.15630905 -0.02187494 0.021185204 0.05289018
-0.02934563 -0.04519807 -0.004195495 0.0042736097 -0.061813504 -0.08660025 0.048888493 0.030769398
0.015114214 0.02016179 0.04280057 -0.06607572 -0.16430373 0.13079664 0.10758528 -0.0012564057
-0.027853992 -0.15722243 -0.046288177 -0.0876664 0.0046620485 -0.011140534 0.021176172 0.059976134
00000000: dddf e3bd c2f7 23be c2fa f7bd 1f39 0bbe
00000010: e38e c9bd a094 b23d d1ef 813d 79f3 c63d
00000020: 9029 c03c f904 813d 1b8d c5bc bbf3 1abe
00000030: 87c1 52be 0f54 75bd a145 c63c 8de6 823d
00000040: df93 803d 1a6a c33d 1af5 e23d f2f7 493d
00000050: 5c41 9a3d dd01 313d 824e a0bc 3f46 be3d
00000060: 34af 903c 5523 80bd 81d9 d4bd e9f6 d7bd
00000070: c4aa 82bd 2cf2 ca3d d1fa 85bd c088 07be
00000080: d962 bdbd c0e4 c0bd bc49 4bba eb48 a2bc
00000090: 0b1f a03b 3ff7 143d c02d e13d b9ba f83c
000000a0: d088 503b 979b fc3c 522d 623d 3c03 6bbd
000000b0: 8bb7 a33c e2e8 97bd 9b2d 133d b46e 7cbd
000000c0: 2904 0b3c 30f7 44bd 374d 50bd 7ae2 06bd
000000d0: 20cf 803c a4a2 963d f988 863d 8539 e43c
000000e0: 1c05 12bd d03c 0f3e 8bf2 143e 406d 343d
000000f0: 1f5c 433d c308 90bc 58af 92bc d591 a33d
00000100: 99c5 4cbd a1ca 873d 40bd b8bd ed5f ccbd
00000110: d751 cdbc b087 ebbd f427 be3b 89df d73d
00000120: 49d1 b33d b536 e83d 117d 2c3b 71d0 efbd
00000130: eba0 983d f8a7 aabc 8f5d 9fbc 9549 a3bc
00000140: 5f2d fbbd 7183 093d c00e 6d3d e13f bfbd
00000150: 84bc 10be acfd 8bbd 2d31 b7bc 6e5d 2dbd
00000160: 500d 9fbd c914 0fbd f74b 19be 6b24 1bbe
00000170: fa94 d7bd ad1f 8d3c b7d0 e83c 31a6 9cbd
00000180: 865b 0ebd 401b 913d 9df5 5a3d ff7c f3bc
00000190: dbd7 a13d 0d41 323d 8b5b 1ebd 4714 e83c
000001a0: d0b0 ce3d b56e 193e 37cb 26bd ca66 853d
000001b0: c980 d73c f26f f9bc 228c 253d 2aba c03b
000001c0: 1c64 3a3e 7b0d da3d 298e 003e 8467 943d
000001d0: 5b74 8a3d 213c 9a3d e69e 27bc 2045 c6bc
000001e0: 73de ddbc e6a2 953c bddc 84bd b580 2d3d
000001f0: d279 eb3c 06dd c43c f7f1 903d 3ade 053d
00000200: aee1 60bc d89e 5dbd 73b3 dfbd 9a12 5c3d
00000210: 81a1 923b ca87 8e3c 0f22 2bbd dff6 c6b9
00000220: b0fc fc3d d30b cc3d 2bda d43c 1fa6 79bd
00000230: 996f 20bd 63a7 dbbc 161e 6ebd e7d3 79bd
00000240: 7b70 31bd f46b 77bd 1546 343c 1822 cdbd
00000250: f833 98bd da72 6abd 6610 d1bd f9e2 143d
00000260: b415 b0bc 4c58 a93d 7cf2 6c3c 0c0a e2bd
00000270: 2d41 2abe 88dc 19bd 6232 8f3d 1b5c b5bc
00000280: 1c0f 51bb f878 133e 4a4c 023e 379d 713d
00000290: cd14 3fbd b8d5 953d 8fad bb3d 58d9 d23d
000002a0: ce59 183e a409 173d 3a24 a5bd 12c0 d53a
000002b0: b8ec 45bd 8a75 fd3c b6d7 233d bd9d 6c3c
000002c0: 2800 c23c 7906 b6bd 58c3 cbbb 4431 9b3c
000002d0: d1c1 2bbd 4328 80bd 6b60 0bbc ba01 b7bc
000002e0: 4f76 e6bb d02b e7bd 1cb4 18bd ca74 f23d
000002f0: 3170 77bd 6ef9 94bd 1ad5 6dbd 1c7b 2cbd
00000300: a276 8cbd c763 52bd 13ac 6d3c e651 0b3b
00000310: 306d 03be 607b 20be d544 8bbd fa65 953a
00000320: 06bb 35ba 6c2f d7bc 6363 9f3c 905c c4bc
00000330: 907b d4bd 1ea7 1fbe ce3b 6a3d db0d af3d
00000340: c6e9 253e 5472 6d3d ed64 f1bd 39ef 72bd
00000350: 443a b8bd e46e 1abe 6c11 53be 1c85 0a3d
00000360: a027 1a3d 6a22 973c 657b 6e3d 0bb7 ddbc
00000370: 1a07 b2bc 98a9 ec3d 2a10 d33d 9e90 a13d
00000380: 26b0 ed3c 3575 a2bd 3520 283d d099 9cbd
00000390: 7b0f 20be 1333 b3bc 988c ad3c 60a3 583d
000003a0: 3f66 f0bc 9d21 39bd 5d7a 89bb a309 8c3b
000003b0: 2830 7dbd 795b b1bd 4d3f 483d 1b10 fc3c
000003c0: 9ca1 773c 572a a53c a74f 2f3d b552 87bd
000003d0: 3d3f 28be 8eef 053e ac55 dc3d fbad a4ba
000003e0: 0e2e e4bc ebfe 20be ac98 3dbd 718a b3bd
000003f0: 19c4 983b c986 36bc a779 ad3c 89a9 753d

conv2.bias f4 [16]
-0.09126411 -0.14900266 -0.022633888 -0.00076673576 -0.037555907 -0.06338891 -0.014244619 -0.102543384
-0.10444834 -0.12066594 -0.1496951 -0.099567294 -0.067582734 -0.08344573 0.033694584 -0.003928124
00000000: ade8 babd 2794 18be b46a b9bc c4fe 48ba
00000010: 39d4 19bd 0bd2 81bd 4362 69bc 4402 d2bd
00000020: 03e9 d5bd b41f f7bd ac49 19be f0e9 cbbd
00000030: d168 8abd 98e5 aabd 5503 0a3d 7eb7 80bb

conv3.weight f4 [120, 16, 5, 5]
-0.040307954 0.011834463 0.034560222 -0.047811907 7.486854e-05 0.018427776 -0.037612986 0.04413506
-0.032490764 -0.013968326 0.04004345 -0.035075452 0.030760264 -0.04911998 0.028123863 0.012047927
0.04192961 0.028076597 -0.060619038 0.018776044 0.041966103 0.0048907045 -0.029299226 0.010457609
-0.0086310515 0.020741466 0.040035 0.016919991 0.011110024 -0.0015387357 0.0035453194 -0.01747293
0.0017357407 0.002563174 0.0051468266 0.03287371 0.0016840312 -0.039005823 0.023181705 0.033864357
-0.011974613 -0.014939383 -0.06933926 -0.0065265456 0.03239511 -0.03026931 -0.03424443 -0.003292778
-0.005469905 -0.015687067 0.04592898 0.034392186 0.0052937353 0.06330115 0.033768937 -0.031112602
0.0080972025 -0.06226735 0.052494653 0.043434493 -0.0024285482 -0.0040235333 -0.017863194 -0.04987863
-0.037861176 0.018039916 0.0010391807 -0.025994327 -0.017363193 -0.02200604 -0.022199247 -0.018103417
0.020018278 -0.056994107 0.039789934 0.036264367 -0.03229165 0.0064468672 -0.012009317 -0.033798642
0.005364089 -0.027611457 0.034102123 -0.013986163 -0.015806062 -0.051430684 0.04797711 0.050569013
0.031463467 0.013100063 0.023029631 0.029473895 0.04412049 0.011009949 -0.0022163196 0.033664864
0.0238457 -0.024113767 0.059492614 0.03468729 -0.027215045 -0.051548176 0.010132976 -0.04378516
0.034967545 -0.014824159 -0.003120767 0.0128930425 0.035056666 0.0057500163 0.035620816 -0.046064403
0.0033985763 -0.008853978 0.024028419 -0.010977245 0.0416663 0.014931437 0.022309337 -0.0023357864
0.029272677 -0.04465108 0.008259123 0.050392717 0.03441457 0.032758214 0.0029259857 0.0036591415
0.021421507 -0.04255057 0.021133913 -0.042523313 0.040320054 0.041362673 -0.0051574963 0.0004423789
0.038957287 0.028057354 0.05163567 -0.040605165 0.015041063 -0.03459236 -0.00769126 -0.0420613
0.011532451 0.040743146 -0.03881262 -0.005459364 -0.028792927 0.038646404 -0.015818598 0.030595312
-0.04130547 -0.0022432886 0.034515634 0.009581227 -0.049738318 -0.04264063 0.02959516 0.025894362
0.01790369 0.042424966 0.0061180214 -0.010115377 0.011551538 0.057308186 -0.03671332 -0.03549147
0.017338926 0.019898398 0.033720385 0.005367408 -0.051637653 -0.008408604 0.05883342 0.02333599
0.037105888 0.0543697 0.054220367 -0.027435316 -0.04013925 -0.007829708 0.02114399 -0.004888699
-0.013542434 -0.0057722623 0.019995833 -0.0356048 0.008361628 -0.068270594 -0.03062854 -0.06817363
0.04826471 -0.066145256 -0.032592054 0.023715392 0.027968965 0.051514488 -0.010057352 -0.061237935
-0.024760421 0.026890436 -0.020469237 0.076605245 0.015874285 0.007658072 0.009408829 0.0022406555
-0.016902678 0.025471263 -0.032585416 -0.01607521 0.038459063 -0.0044898805 -0.061812058 -0.05487284
0.01214936 0.014536615 0.004596615 -0.038579997 -0.05833499 0.052653547 -0.057853173 -0.022002634
0.002199582 0.031948943 -0.021484127 -0.044047073 0.010002282 -0.013676828 -0.018729573 -0.0540713
0.047072694 0.012620536 0.0042501795 0.025160871 0.0540697 -0.009187286 0.01036929 -0.033479743
-0.05862976 -0.03103468 0.011530124 -0.046016786 0.0076529137 0.014393436 -0.02550455 0.006450211
0.05094734 -0.03390855 0.011655496 0.02064793 0.05614479 -0.036426343 0.03767334 0.0015235363
00000000: f419 25bd 56e5 413c 058f 0d3d 6bd6 43bd
00000010: be02 9d38 d9f5 963c 1310 1abd f7c6 343d
00000020: 0915 05bd 68db 64bc 9a04 243d 47ab 0fbd
00000030: f3fc fb3c 0832 49bd 0464 e63c ab64 453c
00000040: 62be 2b3d e400 e63c ab4b 78bd 38d0 993c
00000050: a6e4 2b3d 3442 a03b ee04 f0bc 6456 2b3c
00000060: 4169 0dbc 02ea a93c bdfb 233d cb9b 8a3c
00000070: d106 363c 67af c9ba 9758 683b 6423 8fbc
00000080: cb81 e33a edfa 273b b6a6 a83b 95a6 063d
00000090: b6ba dc3a 92c4 1fbd 8fe7 bd3c 5ab5 0a3d
000000a0: 2b31 44bc 50c4 74bc be01 8ebd a2dc d5bb
000000b0: bcb0 043d 58f7 f7bc e343 0cbd a6cb 57bb
000000c0: e43c b3bb 2a82 80bc 0720 3c3d d2de 0c3d
000000d0: 1277 ad3b 09a4 813d 4c51 0a3d dbdf febc
000000e0: 21aa 043c 0c0c 7fbd a204 573d 5ee8 313d
000000f0: 4728 1fbb d8d7 83bb d555 92bc 894d 4cbd
00000100: 5214 1bbd 72c8 933c 1e35 883a 0ef2 d4bc
00000110: 413d 8ebc 0346 b4bc 32db b5bc 9e4d 94bc
00000120: 5ffd a33c a772 69bd c5fa 223d f289 143d
00000130: 4044 04bd 3e40 d33b bac2 44bc 7270 0abd
00000140: 3dc5 af3b 6c31 e2bc abae 0b3d 3826 65bc
00000150: b77b 81bc fba8 52bd a583 443d 7421 4f3d
00000160: d6df 003d a6a1 563c a3a8 bc3c 3d73 f13c
00000170: b0b7 343d 1363 343c ac3f 11bb 2be4 093d
00000180: 0f58 c33c 3c8a c5bc 87ae 733d 4314 0e3d
00000190: 16f2 debc 2e24 53bd c804 263c 1158 33bd
000001a0: 213a 0f3d 08e1 72bc c885 4cbb 573d 533c
000001b0: 9497 0f3d a26a bc3b 22e7 113d 07ae 3cbd
000001c0: a6ba 5e3b 4610 11bc 3fd7 c43c e7d9 33bc
000001d0: 48aa 2a3d fca2 743c 12c2 b63c fe13 19bb
000001e0: 41cd ef3c 0de4 36bd 4651 073c 9868 4e3d
000001f0: 4bf6 0c3d 7a2d 063d e5c1 3f3b 35ce 6f3b
00000200: 287c af3c 8249 2ebd 0721 ad3c ed2c 2ebd
00000210: a426 253d e86b 293d 3700 a9bb 17ef e739
00000220: ad91 1f3d 89d8 e53c ed7f 533d 9a51 26bd
00000230: ca6e 763c b8b0 0dbd f706 fcbb 7848 2cbd
00000240: 9bf2 3c3c 49e2 263d fbf9 1ebd 77e4 b2bb
00000250: 25df ebbc b14b 1e3d 0196 81bc 05a3 fa3c
00000260: ed2f 29bd 2304 13bb 4460 0d3d 94fa 1c3c
00000270: 68ba 4bbd f1a7 2ebd 8d71 f23c 6a20 d43c
00000280: c2aa 923c cdc5 2d3d af79 c83b f7ba 25bc
00000290: a942 3d3c fdbb 6a3d b560 16bd 815f 11bd
000002a0: 5d0a 8e3c f701 a33c 631e 0a3d 15e1 af3b
000002b0: 0182 53bd 3ec4 09bc 50fb 703d 1e2b bf3c
000002c0: 58fc 173d c3b2 5e3d 2d16 5e3d 07c0 e0bc
000002d0: 0e69 24bd 2d48 00bc 2936 ad3c 6131 a0bb
000002e0: 16e1 5dbc 3f25 bdbb 4dce a33c 57d6 11bd
000002f0: 36ff 083c 74d1 8bbd b4e8 fabc 9e9e 8bbd
00000300: 37b1 453d 2a77 87bd 3f7f 05bd c846 c23c
00000310: 2c1f e53c db00 533d 97c7 24bc a1d4 7abd
00000320: 5ed6 cabc 5549 dc3c 1aaf a7bc 36e3 9c3d
00000330: ca0a 823c 90f0 fa3b 7d27 1a3c f6d7 123b
00000340: 7c77 8abc 1ca9 d03c 4978 05bd 29b0 83bc
00000350: 4087 1d3d d91f 93bb a42e 7dbd 58c2 60bd
00000360: 1c0e 473c fc2a 6e3c 349f 963b 0f06 1ebd
00000370: acf0 6ebd 3fab 573d 73f7 6cbd de3e b4bc
00000380: dd26 103b e5dc 023d 7bff afbc b46a 34bd
00000390: 9de0 233c c614 60bc c36e 99bc de79 5dbd
000003a0: 4ccf 403d 5dc6 4e3c 1745 8b3b 2c1e ce3c
000003b0: 3178 5d3d 4586 16bc f4e3 293c 0e22 09bd
000003c0: c225 70bd 713c febc d8e8 3c3c 197c 3cbd
000003d0: 4bc5 fa3b 72d2 6b3c ebee d0bc 4b5c d33b
000003e0: 28ae 503d b1e3 0abd b2f6 3e3c d925 a93c
000003f0: 14f8 653d ca33 15bd 5c4f 1a3d 65b1 c73a

conv3.bias f4 [120]
0.021635404 0.027574608 -0.00166341 0.026958928 0.04103202 -0.015025067 0.0041507552 -0.016831016
-0.03956124 -0.016497508 0.014447207 -0.02690718 -0.030567816 -0.062995434 -0.026815139 -0.027482295
0.04463868 -0.033557303 -0.02248489 -0.03184604 -0.012883192 0.06340828 0.019074813 0.017179796
0.042235274 -0.023701096 -0.037408166 0.038584 -0.018066972 0.010651574 -0.022908993 0.019174462
-0.07007326 -0.0051872907 -0.033404 -0.041265704 0.03191278 -0.03621056 0.0130764935 -0.017334266
-0.05620471 0.030968996 -0.028200401 -0.014728992 -0.056728754 -0.011460352 0.019263713 0.0025657485
0.0335062 -0.036234457 0.035760183 -0.023209441 0.018391205 -0.026759515 0.0017285 0.006566713
0.04644309 -0.009703715 -0.04287362 0.009837455 0.02897574 -0.03090333 -0.025728263 0.01433178
0.04177252 0.016733224 -0.037869867 0.040657323 -0.029882919 -0.06511739 0.051316593 -0.0017496551
0.033938188 0.022943685 0.020771954 -0.0368129 0.005655415 -0.037798055 -0.029632341 -0.028094448
0.008706471 -0.035696086 0.0016194086 -0.0014134282 0.06098294 -0.023100527 -0.0142908655 0.029311946
0.012507149 0.018188374 0.039143667 -0.029019633 0.015620969 -0.017544884 -0.048195396 -0.017713433
0.0060370206 0.0023402758 0.0012021571 -0.045576587 -0.016565986 0.02680487 0.020588527 -0.031218227
0.008929443 0.013197688 0.033190526 0.033586532 -0.03842198 0.0071310014 0.03730734 0.018543553
0.035352774 -0.005476992 -0.007211722 -0.02169501 0.024213277 -0.009086752 0.069382474 0.043807313
00000000: bb3c b13c 25e4 e13c c706 daba f8d8 dc3c
00000010: 3111 283d b32b 76bc 0f03 883b 33e1 89bc
00000020: f70a 22bd c825 87bc fab3 6c3c 726c dcbc
00000030: 5b69 fabc c003 81bd 6cab dbbc 8d22 e1bc
00000040: 0cd7 363d 6273 09bd 3b32 b8bc fe70 02bd
00000050: 0614 53bc 33dc 813d c842 9c3c a5bc 8c3c
00000060: e5fe 2c3d cd28 c2bc 4e39 19bd 420a 1e3d
00000070: 3001 94bc f083 2e3c a4ab bbbc c313 9d3c
00000080: 9282 8fbd 26fa a9bb a2d2 08bd 3a06 29bd
00000090: fab6 023d 8651 14bd ca3e 563c 9700 8ebc
000000a0: e936 66bd b1b2 fd3c 8704 e7bc df51 71bc
000000b0: 695c 68bd 33c4 3bbc efce 9d3c 1e26 283b
000000c0: cc3d 093d 956a 14bd 4579 123d ba21 bebc
000000d0: 27a9 963c c536 dbbc d68e e23a 952d d73b
000000e0: 1c3b 3e3d 55fc 1ebc 409c 2fbd 472d 213c
000000f0: 885e ed3c fb28 fdbc 14c4 d2bc d8cf 6a3c
00000100: a919 2b3d 1d14 893c 6f1d 1bbd 4b88 263d
00000110: 06cd f4bc 445c 85bd 5931 523d af54 e5ba
00000120: c502 0b3d 65f4 bb3c f229 aa3c 20c9 16bd
00000130: 0f51 b93b 22d2 1abd 86bf f2bc 5426 e6bc
00000140: 96a5 0e3c 0f36 12bd 5642 d43a c842 b9ba
00000150: 3fc9 793d 513d bdbc 3c24 6abc 9b1f f03c
00000160: c9ea 4c3c c9ff 943c 1c55 203d 95ba edbc
00000170: 18ef 7f3c 4aba 8fbc 8968 45bd c31b 91bc
00000180: 33d2 c53b 505f 193b b391 9d3a 84ae 3abd
00000190: 64b5 87bc e395 db3c 45a9 a83c 5ebd ffbc
000001a0: cc4c 123c 1e3b 583c caf2 073d 0892 093d
000001b0: 5e60 1dbd 2dab e93b 95cf 183d a6e8 973c
000001c0: 12ce 103d 5778 b3bb 4f50 ecbb bcb9 b1bc
000001d0: ec5a c63c 9ae0 14bc 6618 8e3d 4c6f 333d

fc1.weight f4 [84, 120]
0.008132602 -0.09184821 0.024498768 -0.035111517 -0.102955684 0.062482662 -0.06911409 -0.09330895
-0.07772848 0.038250875 0.04614722 -0.10188035 0.055275336 -0.08289522 0.02321663 -0.030359587
0.11845298 -0.09672357 -0.028257966 0.02474907 -0.10738775 0.0911407 0.041316003 -0.051140368
0.032009188 -0.05207063 -0.0051804404 0.07691149 -0.09688649 0.0039847824 -0.04841207 0.087237895
-0.026024122 -0.017196842 -0.054197226 0.009413023 -0.03208578 -0.050308615 -0.028952017 -0.03567984
-0.10640426 -0.056563262 0.01269298 -0.010446001 -0.025071517 -0.028633803 0.052883897 -0.003170373
0.059331626 -0.09063387 0.099937744 -0.03426992 -0.09250651 0.03349627 -0.012916678 0.049584597
-0.091563895 -0.037349433 0.06503203 -0.03271474 -0.079392396 0.051669016 -0.06836209 0.06952093
-0.01177132 0.075460605 0.0086471485 0.10358561 0.01429654 -0.050632652 0.07816543 -0.11315376
0.036708985 0.029334169 -0.06864551 -0.09456533 -0.036684215 -0.08961123 -0.07692915 -0.043020856
0.12760437 -0.040473353 0.11717033 -0.0068414225 0.030506413 -0.01000265 -0.064059824 -0.036299184
0.10410953 0.02895288 0.037867155 -0.029864097 0.07142457 -0.100980766 -0.078844994 -0.06449853
-0.017777812 0.09700017 0.04570596 -0.049365938 -0.01971461 0.1027553 -0.07524113 0.043599203
0.03207747 0.073755436 0.09944283 0.084902436 0.08966382 -0.068080254 -0.05156584 0.018624015
-0.08899857 -0.060939685 -0.022970546 -0.049204066 0.016212557 0.0460785 0.06507788 -0.12716292
0.084023036 0.012267401 0.010160852 -0.047517296 0.009159889 0.020581875 0.042984776 -0.1396371
0.031131666 -0.09501093 -0.06897707 0.024025323 -0.004204666 -0.0037856668 -0.020146413 -0.052683186
0.043292124 -0.022634419 -0.02288267 0.09545632 0.067202814 0.037251774 -0.08879187 0.025877602
-0.000597738 0.08826033 -0.0032004614 0.00078666373 0.076346956 0.019217478 -0.10331243 -0.11462213
-0.078454554 -0.006517779 0.07051362 0.06848447 -0.06913892 -0.05739709 -0.09193528 0.09261057
0.11955758 0.071292736 -0.045629982 -0.06757301 -0.038517527 -0.028334124 0.01322143 -0.037891455
0.092758015 -0.05321816 0.10203079 0.009430089 -0.07306007 -0.03330857 -0.058655668 0.0011061169
0.01321766 0.064299375 -0.005427816 0.0850516 0.011652395 0.036601692 -0.062142495 -0.096243896
0.07928117 0.060039718 -0.066889785 -0.083150014 0.009678981 -0.12205372 0.07067171 0.045824993
0.060216814 -0.11396415 0.0014417901 -0.07198701 0.031116016 0.12229858 -0.010760586 -0.044256456
0.06080846 -0.040535953 -0.048187766 -0.06725473 0.020027427 0.06430497 0.026377928 0.015953535
0.08247851 -0.08908357 0.09077247 -0.038288683 -0.093848966 0.07570263 -0.012069071 -0.0036015715
-0.10591991 0.020915173 -0.084147364 -0.029701602 0.09213628 0.05350397 -0.09064216 -0.0015662836
-0.024553992 -0.13008198 -0.13709103 0.11815631 0.020184757 0.059025872 0.032279998 0.07475331
-0.02938452 0.026186753 -0.041278973 0.013668264 0.058421586 0.046434507 -0.01928105 -0.05129768
0.00012798345 0.02613911 -0.105429575 0.01090052 -0.08037732 -0.01885201 -0.07871277 -0.01678989
-0.09634671 0.06506967 0.038066525 0.04118026 -0.04326658 0.015985744 0.13765235 0.10940036
00000000: 9b3e 053c ea1a bcbd a4b1 c83c 18d1 0fbd
00000010: 6eda d2bd d2ed 7f3d b08b 8dbd c318 bfbd
00000020: 1c30 9fbd f3ac 1c3d de04 3d3d a5a6 d0bd
00000030: 6468 623d f8c4 a9bd cd30 be3c abb4 f8bc
00000040: 7a97 f23d 0217 c6bd 407d e7bc 90be ca3c
00000050: 1cee dbbd faa7 ba3d f83a 293d 9078 51bd
00000060: 111c 033d 0348 55bd afc0 a9bb c583 9d3d
00000070: 6d6c c6bd c792 823b bc4b 46bd c8a9 b23d
00000080: 8a30 d5bc 64e0 8cbc e9fd 5dbd 1439 1a3c
00000090: 616c 03bd 6810 4ebd c82c edbc 0625 12bd
000000a0: 7aea d9bd e1ae 67bd 37f6 4f3c b425 2bbc
000000b0: c862 cdbc 7091 eabc c99c 583d 08c6 4fbb
000000c0: b805 733d 409e b9bd 29ac cc3d 9e5e 0cbd
000000d0: 0e74 bdbd 6333 093d 79a0 53bc 3819 4b3d
000000e0: da85 bbbd b8fb 18bd 832f 853d e4ff 05bd
000000f0: 7b98 a2bd e4a2 533d 6c01 8cbd fd60 8e3d
00000100: 7fdc 40bc 178b 9a3d c5ac 0d3c b124 d43d
00000110: 093c 6a3c 2f64 4fbd 3215 a03d 29bd e7bd
00000120: 295c 163d 364e f03c 0496 8cbd 78ab c1bd
00000130: 3042 16bd 1886 b7bd 088d 9dbd a336 30bd
00000140: b8aa 023e 63c7 25bd fff6 ef3d 032e e0bb
00000150: 96e8 f93c 28e2 23bc cc31 83bd 74ae 14bd
00000160: 6137 d53d 972e ed3c 971a 1b3d 8da5 f4bc
00000170: 0c47 923d 01cf cebd 7c79 a1bd ce17 84bd
00000180: c6a2 91bc 06a8 c63d 2c36 3b3d f033 4abd
00000190: 8980 a1bc 5f71 d23d 0618 9abd 1495 323d
000001a0: aa63 033d 170d 973d afa8 cb3d 54e1 ad3d
000001b0: aaa1 b73d a96d 8bbd b436 53bd 6491 983c
000001c0: e244 b6bd e49b 79bd ba2c bcbc 348a 49bd
000001d0: 32d0 843c cfbc 3c3d 8d47 853d ff36 02be
000001e0: 4514 ac3d 36fd 483c b479 263c 7fa1 42bd
000001f0: 5c13 163c 529b a83c ce10 303d 07fd 0ebe
00000200: d607 ff3c 1795 c2bd da43 8dbd c1d0 c43c
00000210: 4bc7 89bb f318 78bb 170a a5bc 53ca 57bd
00000220: 1553 313d d16b b9bc 7074 bbbc 9a7e c33d
00000230: a1a1 893d 5195 183d 83d8 b5bd 44fd d33c
00000240: 85b1 1cba d5c1 b43d d5be 51bb 1c38 4e3a
00000250: cb5b 9c3d f96d 9d3c 7895 d3bd 02bf eabd
00000260: c8ac a0bd 1893 d5bb 7269 903d 9641 8c3d
00000270: b598 8dbd 3619 6bbd 9048 bcbd 9caa bd3d
00000280: 9bda f43d ed01 923d 81e6 3abd b863 8abd
00000290: 8ec4 1dbd f71c e8bc b29e 583c 1234 1bbd
000002a0: eaf7 bd3d 49fb 59bd 85f5 d03d a980 1a3c
000002b0: 85a0 95bd 916e 08bd ed40 70bd 20fb 903a
000002c0: e28e 583c 64af 833d d2db b1bb 892f ae3d
000002d0: b0e9 3e3c a8eb 153d 2189 7ebd 851b c5bd
000002e0: 2b5e a23d 35ec 753d 83fd 88bd 8e4a aabd
000002f0: 9794 1e3c 4df7 f9bd 54bc 903d fdb2 3b3d
00000300: e8a5 763d 0966 e9bd 73fa bc3a ed6d 93bd
00000310: 04e7 fe3c ae77 fa3d 2b4d 30bc 4246 35bd
00000320: 4b12 793d 0709 26bd 8960 45bd d9bc 89bd
00000330: 8f10 a43c 53b2 833d 8616 d83c fdb0 823c
00000340: 7eea a83d 7271 b6bd ebe6 b93d 98d4 1cbd
00000350: e333 c0bd fb09 9b3d 5abd 45bc 5808 6cbb
00000360: 8aec d8bd 4c56 ab3c 7455 acbd c650 f3bc
00000370: f2b1 bc3d fb26 5b3d 99a2 b9bd c24b cdba
00000380: 7425 c9bc 3634 05be 9761 0cbe effb f13d
00000390: 815a a53c 1dc5 713d 0838 043d 4318 993d
000003a0: ceb7 f0bc 9a85 d63c 2414 29bd dbf0 5f3c
000003b0: 794b 6f3d 1c32 3e3d 4bf3 9dbc 841d 52bd
000003c0: 4c33 0639 b021 d63c 76eb d7bd 1898 323c
000003d0: dd9c a4bd 886f 9abc 2934 a1bd f48a 89bc
000003e0: 6d51 c5bd 3f43 853d a5eb 1b3d a2ac 283d
000003f0: 4c38 31bd 89f4 823c bdf4 0c3e 4c0d e03d

fc1.bias f4 [84]
-0.0013058379 -0.08609219 0.030129906 0.058219988 0.036935825 0.06747633 0.076012455 0.06809578
-0.028842427 0.013701905 -0.047473647 0.039369088 0.06238064 -0.057540927 -0.03647884 -0.0367047
-0.049242195 -0.068589546 -0.08088281 -0.021522839 0.022524554 0.047437504 0.004034453 -0.0531803
0.0506364 -0.022843821 0.007649277 0.02391157 -0.0032024872 0.07193263 0.03380189 -0.01979855
0.009032917 -0.020302411 -0.047215037 -0.011026632 -0.07311034 -0.10984224 -0.0039644153 -0.07151694
0.008198675 -0.08562574 0.02767614 0.009326132 -0.030136807 0.010434718 0.0030260691 -0.047151804
-0.09101479 0.032999657 0.057482548 0.051440906 0.035219803 -0.09467176 -0.07833626 -0.012933154
-0.02350097 -0.029056735 0.00030312763 -0.07815078 -0.011414821 0.09817152 0.06649744 -0.043452695
0.06092366 -0.075003654 0.045701362 0.019346885 0.052400433 0.045271628 -0.06737713 0.121315874
0.07146295 0.06403339 0.093417294 -0.031574424 -0.008978844 -0.025167862 0.054392096 0.021633971
-0.061166935 -0.027690887 -0.013992261 -0.006920702
00000000: a628 abba 1a51 b0bd fed2 f63c 1578 6e3d
00000010: 054a 173d 0831 8a3d 6bac 9b3d cd75 8b3d
00000020: f446 ecbc f47d 603c ba73 42bd 7b41 213d
00000030: d882 7f3d 09b0 6bbd d66a 15bd ab57 16bd
00000040: 2fb2 49bd ad78 8cbd e3a5 a5bd aa50 b0bc
00000050: 6a85 b83c d44d 423d 7233 843b 96d3 59bd
00000060: 1d68 4f3d f722 bbbc c9a6 fa3b 32e2 c33c
00000070: d2e0 51bb 6a51 933d da73 0a3d 9230 a2bc
00000080: cdfe 133c 3e51 a6bc 8e64 41bd 0ca9 34bc
00000090: e0ba 95bd f8f4 e0bd ede7 81bb 7977 92bd
000000a0: bc53 063c 8c5c afbd 13b9 e23c a2cc 183c
000000b0: 77e1 f6bc 61f6 2a3c 0451 463b 4022 41bd
000000c0: f665 babd a62a 073d d272 6b3d b3b3 523d
000000d0: a442 103d 45e3 c1bd c36e a0bd 94e5 53bc
000000e0: 1b85 c0bc 6408 eebc 1aed 9e39 840d a0bd
000000f0: 3b05 3bbc 260e c93d cf2f 883d 74fb 31bd
00000100: 168b 793d 849b 99bd 5a31 3b3d 5c7d 9e3c
00000110: d6a1 563d be6e 393d 05fd 89bd 7574 f83d
00000120: 2b5b 923d f023 833d 9151 bf3d 2f54 01bd
00000130: 001c 13bc d52c cebc 3fca 5e3d ba39 b13c
00000140: 2e8a 7abd 00d8 e2bc cc3f 65bc 0ec7 e2bb

fc2.weight f4 [10, 84]
-0.25275308 -0.26475474 0.24619049 -0.039118256 0.10194985 0.040002335 0.21358617 0.0956385
-0.2526881 0.033856686 -0.11186874 -0.09763819 0.15399429 -0.11066048 0.027128482 0.22270167
-0.12944819 -0.05283711 -0.19862421 0.21466538 -0.25881746 -0.26322922 -0.19149218 0.24457483
-0.055525504 -0.3083428 -0.11640815 0.019233726 0.18128847 -0.11031645 0.008203325 0.15552004
-0.23081678 0.030932276 0.18362822 0.031607963 -0.149382 -0.11096618 -0.056842662 -0.039762944
-0.17452042 0.19186561 -0.15987341 -0.101091646 0.052241907 -0.24146603 0.23525274 0.15630262
0.29065886 0.11008044 -0.24595861 0.27552086 -0.22731835 -0.07666117 -0.10097342 -0.21918848
0.079466105 0.2025408 0.16299659 0.03205729 0.28513542 0.22268784 -0.034537308 0.25814438
-0.1724669 -0.08947037 0.08617674 0.16772388 0.16968164 -0.13177755 -0.12733887 0.11435259
0.23845558 -0.24929352 -0.3814039 0.12424441 0.17391504 0.101762585 -0.23894653 -0.17971243
-0.15814114 0.18027079 -0.28858748 0.10455978 -0.18073516 0.2077175 -0.18566298 -0.16192524
-0.09793537 -0.009777311 -0.02530147 0.19524898 0.27028844 0.12487845 -0.2691314 0.22570059
0.1765413 -0.31934342 0.32544386 -0.3300818 -0.18281744 0.28431216 0.24282186 -0.12633392
-0.051479008 0.15242742 0.13888143 -0.020189233 0.22538027 -0.08834063 0.20367809 -0.13464297
0.044909827 0.16125605 -0.18869987 0.100255296 0.23380877 -0.25986767 -0.07934051 0.14515589
0.1802774 0.13534096 0.18144545 -0.20092128 0.14744967 -0.27309716 0.1182812 -0.020764966
-0.11158971 0.115988836 -0.21171278 0.3186641 0.028262641 0.088064015 0.13321453 -0.2527254
-0.03645524 0.11298689 -0.26692483 0.052893218 0.15187407 -0.255097 -0.26664314 0.037232876
-0.23314694 0.15523162 -0.16142564 -0.19379188 0.2788262 0.22166012 0.29736927 0.046471458
0.2539294 0.2156026 -0.013230369 -0.06977171 -0.110162385 0.12542541 0.059882414 -0.060606178
-0.31047398 -0.23981458 0.12449618 0.23225433 0.1563159 -0.06808528 0.028413793 -0.33727944
0.05527126 -0.20733126 0.35722664 -0.28544328 0.19073963 0.2001742 0.15325011 0.22018525
-0.0020376057 0.04108896 0.26910993 0.10619093 -0.15360959 0.16161077 -0.051175036 -0.04450577
0.2040494 0.053806644 -0.15368272 -0.14508912 -0.2245506 0.22029145 0.26586613 0.15568663
0.050401133 -0.00020904928 0.1851638 0.36237058 0.21783479 0.23962376 -0.0553302 -0.05241663
-0.13908382 -0.115580894 -0.1567624 -0.20801254 -0.062399495 -0.20657504 -0.23332867 0.24784842
-0.13164723 0.058866378 0.2870534 0.064266995 -0.22733574 0.00786917 -0.11383109 0.0913083
0.10410784 -0.08372155 0.23421355 0.31549758 0.053222403 0.26455718 -0.28624815 0.020943783
0.10199578 0.00580917 -0.14007948 -0.18382715 0.19560279 -0.00833883 -0.23893994 -0.32212257
-0.11797673 0.06822765 -0.2789119 -0.1900016 0.32245138 -0.07847006 0.17374572 0.24089563
0.12914722 -0.0737237 0.18047228 0.060014177 -0.05162556 -0.2924969 0.067800716 -0.10816996
-0.27280787 -0.13106589 0.19865449 -0.35046571 0.23447108 0.054784212 0.05462561 -0.09150774
00000000: da68 81be ef8d 87be 5c19 7c3e 773a 20bd
00000010: 15cb d03d 7dd9 233d 55b6 5a3e 1ede c33d
00000020: 5660 81be 4fad 0a3d 701b e5bd 88f6 c7bd
00000030: aeb0 1d3e f6a1 e2bd 8d3c de3c e80b 643e
00000040: 118e 04be ba6b 58bd 2564 4bbe 3ed1 5b3e
00000050: b983 84be fbc5 86be 8716 44be d371 7a3e
00000060: b66e 63bd 1cdf 9dbe 6567 eebd 0c90 9d3c
00000070: afa3 393e 97ed e1bd 3d67 063c a540 1f3e
00000080: 3c5b 6cbe af65 fd3c 0909 3c3e 5a77 013d
00000090: 98f7 18be 3d42 e3bd dad3 68bd 78de 22bd
000000a0: 7bb5 32be 6b78 443e dbb5 23be 2309 cfbd
000000b0: 9cfb 553d df42 77be 18e6 703e cb0d 203e
000000c0: 3dd1 943e db71 e13d 93dc 7bbe 1211 8d3e
000000d0: 24c6 68be 8800 9dbd 27cb cebd f272 60be
000000e0: 20bf a23d db66 4f3e 94e8 263e 814e 033d
000000f0: 45fd 913e 4808 643e fe76 0dbd 802b 843e
00000100: 2a9b 30be 3e3c b7bd 6e7d b03d cfbf 2b3e
00000110: 06c1 2d3e b2f0 06be 1f65 02be b131 ea3d
00000120: b32d 743e cd46 7fbe 5f47 c3be da73 fe3d
00000130: c916 323e e768 d03d 66ae 74be 8906 38be
00000140: c0ef 21be e898 383e bdc1 93be 7023 d63d
00000150: a312 39be e5b3 543e 701e 3ebe bbcf 25be
00000160: 5792 c8bd 0431 20bc 0745 cfbc 59ef 473e
00000170: 3f63 8a3e 46c0 ff3d 97cb 89be 0e1e 673e
00000180: 3ec7 343e fb80 a3be 94a0 a63e 7b00 a9be
00000190: 7f34 3bbe 5d91 913e 4ba6 783e ae5d 01be
000001a0: a7db 52bd ef15 1c3e ef36 0e3e e463 a5bc
000001b0: 16ca 663e efeb b4bd fd90 503e d9df 09be
000001c0: 5ef3 373d 4e20 253e 8a3a 41be a652 cd3d
000001d0: 916b 6f3e 600d 85be 477d a2bd bfa3 143e
000001e0: a49a 383e d296 0a3e d6cc 393e 4fbe 4dbe
000001f0: 0cfd 163e 64d3 8bbe 6a3d f23d 4a1b aabc
00000200: 2589 e4bd 8e8b ed3d 3ccb 58be f127 a33e
00000210: 0e87 e73c e85a b43d 6469 083e 3965 81be
00000220: 1752 15bd ac65 e73d 5faa 88be 8fa6 583d
00000230: e084 1b3e 139c 82be 7385 88be 8081 183d
00000240: 12be 6ebe 0af5 1e3e c34c 25be 6171 46be
00000250: 4fc2 8e3e dffa 623e c940 983e db58 3e3d
00000260: 0903 823e eec6 5c3e 31c4 58bc 78e4 8ebd
00000270: d19c e1bd 856f 003e 4347 753d 2f3e 78bd
00000280: 72f6 9ebe f491 75be daf7 fe3d 14d4 6d3e
00000290: 4611 203e 4c70 8bbd 0bc4 e83c e4af acbe
000002a0: 1e64 623d a54e 54be 69e6 b63e 9f25 92be
000002b0: 4051 433e 77fa 4c3e 99ed 1c3e 3e78 613e
000002c0: 5a89 05bb e64c 283d c7c8 893e a17a d93d
000002d0: d54b 1dbe 4b7d 253e ea9c 51bd af4b 36bd
000002e0: 53f2 503e 5b64 5c3d 015f 1dbe 3e92 14be
000002f0: 98f0 65be 1594 613e 9b1f 883e 516c 1f3e
00000300: 6b71 4e3d 3d34 5bb9 949b 3d3e a388 b93e
00000310: 1510 5f3e ee5f 753e eba1 62bd d2b2 56bd
00000320: fd6b 0ebe adb5 ecbd 5386 20be 3d01 55be
00000330: 9d96 7fbd 6888 53be b6ed 6ebe facb 7d3e
00000340: 88ce 06be df1d 713d aaf8 923e 6a9e 833d
00000350: b3ca 68be b1ed 003c 4620 e9bd d9ff ba3d
00000360: 7e36 d53d 3476 abbd add5 6f3e e688 a13e
00000370: bcff 593d 0a74 873e 1e8f 92be 4c92 ab3c
00000380: 2ae3 d03d da5a be3b ff70 0fbe 2f3d 3cbe
00000390: 194c 483e 979f 08bc acac 74be 40ed a4be
000003a0: c99d f1bd f0ba 8b3d 8acd 8ebe c88f 42be
000003b0: 5918 a53e e9b4 a0bd 66ea 313e 58ad 763e
000003c0: 2b3f 043e 74fc 96bd bacd 383e 6dd1 753d
000003d0: 5375 53bd 27c2 95be 1adb 8a3d 3688 ddbd
000003e0: 79ad 8bbe 2336 06be 156c 4b3e 3e70 b3be
000003f0: 3019 703e 6965 603d 1bbf 5f3d 6968 bbbd

fc2.bias f4 [10]
-0.09450135 -0.08269611 0.13823728 -0.028627213 -0.068488516 0.12621187 -0.038095064 0.04341635
-0.03141512 0.042944897
00000000: ec89 c1bd 945c a9bd 138e 0d3e 9e83 eabc
00000010: b543 8cbd af3d 013e 9209 1cbd 58d5 313d
00000020: 24ad 00bd fde6 2f3d
