models/pretrained/MNIST2/Rnet1_w_acc_94.pt (torch, 250189 bytes, 10 tensors)

conv1.weight f4 [6, 1, 5, 5]
0	0x3c818545	0.015810618
1	0xbcde1ba3	-0.027112788
2	0xbda96d0b	-0.082727514
3	0x3d353810	0.04424292
4	0xbd8a15bd	-0.067424275
5	0x3ea71a3a	0.32637197
6	0x3e3b1ee5	0.18273504
7	0x3e41f758	0.1894201
8	0x3de07743	0.10960247
9	0x3e04470f	0.12917732
10	0x3c76c898	0.015062474
11	0xba3885fd	-0.0007039009
12	0x3d9baa78	0.07600874
13	0xbca142d1	-0.01968518
14	0xbd67c987	-0.056588676
15	0xbe00f892	-0.12594822
16	0x3cc0a548	0.023516312
17	0x3c51032c	0.012757104
18	0x3e02a48b	0.1275808
19	0x3e41ad50	0.1891377
20	0xbe4a8ec1	-0.19781019
21	0xbe5cad8e	-0.21550581
22	0xbe4578a9	-0.1928431
23	0xbe83d8bb	-0.2575129
24	0xbe5c4c0d	-0.21513386
25	0x3cfc9972	0.030834887
26	0x3d51095f	0.051034328
27	0xbc8ba493	-0.017046249
28	0xbe9982ad	-0.2998251
29	0x3da558de	0.08073591
30	0x3d8db0bf	0.06918477
31	0x3e9e8ced	0.30966893
32	0x3e4bdee9	0.19909252
33	0xbeb2af55	-0.34899393
34	0xbe81348c	-0.25235403
35	0xbdfd45a7	-0.12366801
36	0x3e172563	0.14760356
37	0xbbbc0994	-0.0057384465
38	0x3e0eaeef	0.1393392
39	0xbdecccbb	-0.11562487
40	0x3de07cb3	0.109612845
41	0xbe4655a9	-0.19368614
42	0x3d9db502	0.0770054
43	0xb9c0af36	-0.00036751636
44	0xbcce3983	-0.025173908
45	0x3ccf9605	0.02534009
46	0xbe570bd3	-0.21000604
47	0x3c10df50	0.008842304
48	0x3da1755b	0.07883712
49	0x3ded4b51	0.11586631
50	0xbec8007e	-0.39062876
51	0xbe89b0df	-0.26892754
52	0x3ac27040	0.0014834478
53	0xbd807bed	-0.06273637
54	0x3e043844	0.12912089
55	0x3e30325b	0.17206709
56	0x3ce9032e	0.028443899
57	0xbdd8b555	-0.10581461
58	0x3cf544e1	0.02994007
59	0x3d99221a	0.074772075
60	0xbdad89c0	-0.08473539
61	0x3e7f22a9	0.24915566
62	0x3e3b2a9e	0.18277976
63	0x3e8528b4	0.26007617
64	0x3d3fdabe	0.04683947
65	0x3d8bc0df	0.068238966
66	0xbb2eb213	-0.0026656433
67	0xbdc3e952	-0.09565987
68	0xbe6db1bb	-0.2321233
69	0xbea83e86	-0.32860202
70	0x3e3eaedd	0.18621393
71	0xbc56071e	-0.01306322
72	0x3ccebb09	0.02523567
73	0xbbacf346	-0.005278024
74	0x3d2b2ae0	0.041788936
75	0x3e8e440a	0.27786285
76	0x3e302c8a	0.1720449
77	0x3e48a4a9	0.19594063
78	0x3dce949b	0.10086938
79	0x3d3b1a01	0.045679096
80	0xbda3c7b2	-0.07997073
81	0xbd65d102	-0.05610753
82	0xbd47994a	-0.048730172
83	0xbd0c793a	-0.0342953
84	0xbd131219	-0.03590593
85	0xbe00676f	-0.12539457
86	0xbde2ccd7	-0.11074226
87	0x391bd39f	0.00014860787
88	0xbb2e3d9c	-0.0026587015
89	0x3e718053	0.23584108
90	0x3d32b4a8	0.04362932
91	0xbd42ce42	-0.047559984
92	0xbd8ab39d	-0.0677254
93	0x3d96026a	0.07324679
94	0x3d4e1156	0.0503095
95	0xbe5cc60b	-0.21559922
96	0xbd3c0ff5	-0.045913655
97	0xbe33ae8b	-0.17547052
98	0xbe097390	-0.1342299
99	0xbe70ea13	-0.23526792
100	0x3e1063ef	0.14100622
101	0xbdd28b9e	-0.10280536
102	0xbd126ba2	-0.035747178
103	0x3d46cf1d	0.048537362
104	0xbe1fa244	-0.15589243
105	0xbe1f8ddb	-0.15581457
106	0x3e3634ca	0.17793575
107	0xbd957ef4	-0.07299605
108	0x3e0200a8	0.12695563
109	0x3d3e4a02	0.046457298
110	0x3d8eadff	0.06966781
111	0x3e423d00	0.18968582
112	0x3e3aabdf	0.18229626
113	0xbdb19ab7	-0.08672088
114	0x3d19c6fd	0.037543286
115	0x3e18df35	0.14928897
116	0x3e1b34b1	0.15156819
117	0x3b58bae3	0.0033070378
118	0xbe4a9b6b	-0.1978585
119	0xbe19a7d3	-0.15005426
120	0xbe5c7513	-0.21529035
121	0xbc68b36a	-0.014202932
122	0x3e2522a8	0.16126502
123	0xbd7b36e0	-0.06133163
124	0x3e4d74a5	0.20064028
125	0xbe4e700a	-0.20159927
126	0xbe919a5b	-0.28438076
127	0xbda220a4	-0.07916382
128	0x3e3521b7	0.17688642
129	0x3e658877	0.22415338
130	0xbe0ccb56	-0.13749442
131	0x3c80c265	0.015717695
132	0x3dd4dd54	0.103937775
133	0x3de8331e	0.11337875
134	0x3e013126	0.12616405
135	0x3ebcd355	0.36879984
136	0x3e5756e0	0.21029234
137	0x3af221cf	0.001847321
138	0xbe5d371d	-0.21603055
139	0xbe9e1d4b	-0.30881724
140	0xbe0f6e0c	-0.14006823
141	0xbd8b26d4	-0.06794515
142	0xbdefabbb	-0.11702677
143	0x3de16d63	0.11007192
144	0x3d8b683e	0.06806992
145	0x3bff5d0a	0.0077930735
146	0x3d641efd	0.055693615
147	0x3ca27db4	0.01983533
148	0x3d8a202b	0.06744417
149	0xbc3f4153	-0.011673289

conv1.bias f4 [6]
0	0xbed1db28	-0.40987515
1	0xbe4658a5	-0.19369753
2	0xbe9e1d95	-0.30881944
3	0xbea95ec5	-0.33080116
4	0xbe6aeb02	-0.22941211
5	0xbd95a81e	-0.073074564

conv2.weight f4 [16, 6, 5, 5]
0	0x3d915c70	0.07097709
1	0x3dc0d35b	0.09415313
2	0x3e14bce3	0.1452518
3	0xb8287ab0	-4.0168583e-05
4	0xbd1acbb4	-0.037791923
5	0x3d761afa	0.06008432
6	0xbd2d6e48	-0.0423415
7	0xbd845897	-0.0646221
8	0xbe07160c	-0.13192004
9	0xb92028e7	-0.00015274026
10	0xbe5e84f1	-0.217304
11	0xbe1456f9	-0.14486302
12	0xbe2aa795	-0.1666549
13	0xbe287709	-0.16451658
14	0xbe04911b	-0.12945978
15	0x3d2e7a0e	0.04259687
16	0x3c290c3e	0.01031786
17	0xbc29a001	-0.010353089
18	0x3d875739	0.06608433
19	0x3e1cb235	0.15302356
20	0x3e02ce74	0.12774068
21	0x3de21584	0.1103926
22	0x3d59b22a	0.053148426
23	0x3dfc18f3	0.12309446
24	0x3d38d5ac	0.04512565
25	0xbb26667f	-0.0025390682
26	0xbd01d7c3	-0.031699907
27	0xbc57ed1d	-0.013179091
28	0xbdb74bc2	-0.089499965
29	0x3dc78798	0.09742659
30	0xbde41027	-0.11135893
31	0xbdad3113	-0.08456626
32	0xbc23b434	-0.009991694
33	0xbd9b59e3	-0.07585504
34	0x3d4d5bce	0.05013638
35	0xbda16f09	-0.078825064
36	0xbd39de1e	-0.045377843
37	0xbbfe5b5a	-0.007762355
38	0x3d4fa595	0.05069502
39	0xbd00ab7b	-0.031413537
40	0xbc02d88b	-0.007986198
41	0x3d42b38a	0.047534503
42	0x3dd93c85	0.10607246
43	0x3c441bca	0.011969516
44	0x3e088859	0.13333263
45	0xbd9fc2fc	-0.07800862
46	0x3d211f81	0.039336685
47	0xbc54d1c6	-0.012989467
48	0x3db80c4a	0.08986719
49	0x3d7f68b1	0.0623557
50	0xbc375cbe	-0.011191545
51	0xbbb285e1	-0.0054480885
52	0x3d8a6586	0.06757645
53	0x3df5da34	0.120045096
54	0xbb67304b	-0.0035276588
55	0x3d425d7c	0.047452435
56	0xbdbd230e	-0.09235202
57	0x3d18e850	0.037330925
58	0x3e154cfb	0.14580147
59	0x3dc0cb1a	0.094137385
60	0x3d81eb50	0.063437104
61	0xbe03f8b1	-0.12887837
62	0xbda60825	-0.08107022
63	0x3dd59c29	0.10430176
64	0xbe0de6e1	-0.13857605
65	0x3cea87fd	0.028629297
66	0xbda34810	-0.07972729
67	0x3d16e6c8	0.036841184
68	0x3dfd849a	0.12378807
69	0xbd996200	-0.07489395
70	0x3c3f6d8d	0.011683834
71	0xbc8ddf26	-0.01731832
72	0x3caf989b	0.021435073
73	0x3cd53b66	0.0260293
74	0xbd16fb1f	-0.03686058
75	0xbd3130f7	-0.043259587
76	0x3d684c8f	0.056713637
77	0xbd4781c5	-0.048707742
78	0xbdb32fcb	-0.0874935
79	0xbcf54a8f	-0.029942779
80	0xbb6a0def	-0.0035713871
81	0x3dabeb2f	0.08394467
82	0x3d9a6a6e	0.07539831
83	0xbde43a0d	-0.11143885
84	0xbe24b877	-0.16085993
85	0xbd3020a8	-0.042999893
86	0xbd784b10	-0.06061846
87	0xbd1b8129	-0.037964974
88	0xbd893250	-0.066990495
89	0xbcc7f650	-0.024409443
90	0xbe2eec73	-0.17082386
91	0xbe2d4272	-0.16919878
92	0xbdcf43aa	-0.10120328
93	0x3d79e90a	0.06101326
94	0x3dc180ae	0.09448372
95	0x3db6b0b1	0.0892042
96	0x3da5f5b9	0.081035085
97	0x3dd9d3b7	0.106360845
98	0x3d91fb73	0.07128038
99	0x3c38d356	0.011280855
100	0xb94fa1d4	-0.00019801344
101	0x3c65dc17	0.014029524
102	0xbdd7db94	-0.10539928
103	0xbd4643e9	-0.048404608
104	0x3de24e87	0.11050134
105	0x3cd201b2	0.025635574
106	0xbd9e680d	-0.0773469
107	0x3b6a4451	0.0035746286
108	0xbd547af1	-0.05187506
109	0xbd46e7a4	-0.048560753
110	0x3d37dcc9	0.04488829
111	0xbde03162	-0.10946919
112	0xbcf7840c	-0.030214332
113	0xbe08d01a	-0.13360634
114	0x3d3dda5a	0.046350814
115	0x3d1aaab2	0.037760444
116	0xbc9869de	-0.018605169
117	0x3a358868	0.0006924928
118	0xbd549c5a	-0.05190692
119	0xb9ac8936	-0.00032908627
120	0xbd89d316	-0.067297146
121	0xbc53ad8b	-0.012919794
122	0xbdaba17a	-0.083804086
123	0xbd05e3ef	-0.032688078
124	0x3bdaa760	0.0066727847
125	0x3beae85b	0.007168812
126	0x3cebbd34	0.028776743
127	0x3d087c2a	0.033321537
128	0x3cbdc8f0	0.023167104
129	0xbccd16f8	-0.025035366
130	0xbdbfae49	-0.09359414
131	0xbbb2093e	-0.0054332307
132	0xbdb2579a	-0.08708115
133	0x3d40a9fb	0.047037106
134	0x3d5d176d	0.05397742
135	0xbd490b3c	-0.04908298
136	0xbc4b4aab	-0.012407939
137	0xbb87a840	-0.00413993
138	0x3d3f3032	0.046676822
139	0xbc182d71	-0.009288178
140	0xbd49e112	-0.04928691
141	0xbd447cbc	-0.04797052
142	0xbd617754	-0.05504544
143	0x3cdde0b3	0.027084684
144	0xbc884f6e	-0.016639438
145	0xbbf4d54c	-0.007471716
146	0xbd3ab8cd	-0.045586396
147	0xbd74f6a3	-0.059805524
148	0x3d15347c	0.036427006
149	0xbdca09df	-0.09865164
150	0xbdd8d823	-0.105881
151	0x3e040e3f	0.1289606
152	0x3dfb85fa	0.122814134
153	0x3dcdaa4b	0.100422464
154	0xbd2c0c9c	-0.042004213
155	0xbd9952e8	-0.07486516
156	0xbe3c798f	-0.18405746
157	0xbdbe5cdd	-0.09295056
158	0x3cd14f93	0.02555064
159	0xbdb34b17	-0.087545566
160	0xbcc096b6	-0.023509365
161	0x3b690b3e	0.003555968
162	0x3d75bd79	0.05999515
163	0x3dcb1661	0.09916378
164	0x3d192002	0.03738404
165	0xbded6028	-0.11590606
166	0xbdbc3c29	-0.09191162
167	0xbd858457	-0.065193824
168	0xbd5d5895	-0.054039557
169	0x3c0ec874	0.008714784
170	0xbd35696e	-0.04429
171	0x3c96d8ba	0.01841389
172	0xbd254afa	-0.040354706
173	0xbd73598c	-0.05941157
174	0xbc821478	-0.0158789
175	0x3c9b451b	0.01895385
176	0x3d909259	0.070591636
177	0xbd457a5a	-0.048212387
178	0xbcea59db	-0.0286073
179	0xbce23630	-0.02761373
180	0xbd83db74	-0.06438342
181	0xbdd246fe	-0.10267447
182	0xbd19ecc9	-0.03757933
183	0xbb79ad40	-0.003809765
184	0xbd802a4e	-0.06258069
185	0xbe049a3e	-0.12949464
186	0xbdc504fd	-0.09620092
187	0x3cee5d26	0.029097151
188	0xbd722fce	-0.05912762
189	0xbd5c1e5c	-0.05373989
190	0xbd46eeff	-0.04856777
191	0xbc06a80d	-0.008218777
192	0xbdb81d90	-0.089900136
193	0xbdba49c5	-0.09096102
194	0x397af948	0.00023934722
195	0xbd22c12e	-0.03973501
196	0xbd3c50fa	-0.045975663
197	0xbd1c126e	-0.038103513
198	0x3d3fc8ca	0.046822347
199	0x3d0ffffd	0.03515624
200	0x3dbb210b	0.09137162
201	0x3d903c07	0.07042699
202	0x3d97e7f9	0.07417292
203	0x3be976a6	0.0071247397
204	0xbd270ec3	-0.040785562
205	0xbe171577	-0.14754282
206	0x3d2305e7	0.03980055
207	0xbd13f857	-0.036125507
208	0xbdafd301	-0.08585168
209	0xbda4a7ba	-0.08039804
210	0xbe14d319	-0.14533652
211	0xbd2a7d9c	-0.041623697
212	0xbaf01801	-0.0018317701
213	0xbe500830	-0.20315623
214	0xbe82a3c2	-0.25515562
215	0x3d73c3cf	0.05951291
216	0x3d0e120e	0.034685187
217	0xbd52183c	-0.051292643
218	0xbd96be9a	-0.07360573
219	0xbd2bf58e	-0.041982226
220	0xbd34d392	-0.04414708
221	0x3d96a0d0	0.07354891
222	0xbc2d8a73	-0.010592091
223	0xbb238a32	-0.0024954197
224	0x3c0a5995	0.00844421
225	0xbc639d6e	-0.013892515
226	0x3dee48d7	0.11634987
227	0xbbd73bb0	-0.0065683946
228	0xbdda5f8b	-0.106627546
229	0x3d8cc5ad	0.06873641
230	0x3d87748d	0.06614027
231	0x3d5cbd5a	0.053891517
232	0xbc33c24b	-0.010971616
233	0xbd063313	-0.032763552
234	0x3c291121	0.010319025
235	0x3db7b49d	0.08969996
236	0x3aaae347	0.0013037705
237	0xbc6a8076	-0.014312854
238	0x3e0163a3	0.12635665
239	0x3db8a6cd	0.0901619
240	0x3dc1724d	0.09445629
241	0x3d72afa4	0.059249535
242	0x3d827c37	0.06371348
243	0xbc50516e	-0.012714727
244	0xbac04360	-0.0014668517
245	0xbc710a2c	-0.014711898
246	0x3d0ab1df	0.033861037
247	0xbd8a54fc	-0.06754491
248	0xbd360efc	-0.044447884
249	0xbd668144	-0.05627562
250	0xbce869ae	-0.028370705
251	0xbd5e1b39	-0.05422518
252	0xb84ea398	-4.9266586e-05
253	0xbd728b72	-0.059215017
254	0xbd919787	-0.0710898
255	0x3ce95734	0.028483965

conv2.bias f4 [16]
0	0xbe068b4c	-0.13139075
1	0xbe12cc6a	-0.1433579
2	0xbdb7d56e	-0.08976255
3	0xbd133b05	-0.035944957
4	0x39378420	0.0001750146
5	0xbd8966c1	-0.06709052
6	0xbe06aa3a	-0.13150874
7	0xbe1983d8	-0.149917
8	0xbde2c7f3	-0.110732935
9	0xbe52dba8	-0.20591605
10	0xbdfa3b54	-0.12218347
11	0xbdcbb5b6	-0.09946768
12	0x3c02c519	0.007981562
13	0xbcce5708	-0.025187984
14	0xbc2125e8	-0.009835698
15	0xbd2cf93e	-0.042229883

conv3.weight f4 [120, 16, 5, 5]
0	0xbd42491e	-0.04743301
1	0xbc9935b6	-0.01870237
2	0x3b94e161	0.004543469
3	0xbd22414a	-0.039613046
4	0xbcb7f000	-0.022453308
5	0x3d25e812	0.040504523
6	0xbcb475eb	-0.022028884
7	0x3d4fc329	0.05072323
8	0x3b20183a	0.0024428503
9	0xbc652b3f	-0.013987361
10	0x3d0ba5c4	0.034093633
11	0xbd54d7a4	-0.051963463
12	0x3cce783b	0.025203815
13	0xbd20f1e1	-0.039293174
14	0x3c668b71	0.014071331
15	0x3bd409c3	0.0064708903
16	0x3d07f6af	0.03319424
17	0xbb98f55f	-0.0046679224
18	0xbd85b770	-0.065291286
19	0xbb458bb6	-0.0030143089
20	0x3caab734	0.020839311
21	0xbccd4412	-0.025056873
22	0xbd2e6d02	-0.042584427
23	0x3baa5df8	0.00519919
24	0xbb9c3826	-0.0047674356
25	0xbcb50957	-0.02209918
26	0x3ba8ecfe	0.005155205
27	0x3b2d5310	0.0026447214
28	0xbb52d41a	-0.003216988
29	0xb99e850b	-0.00030235233
30	0xbc32d9be	-0.010916172
31	0x3c8a1939	0.01685773
32	0x3d1181bd	0.03552412
33	0xbab11d0e	-0.0013512687
34	0x3c2ce666	0.010552978
35	0x3cca4660	0.02469176
36	0x3c17a684	0.009256009
37	0xbd597eb3	-0.053099345
38	0x3c32f7ed	0.010923368
39	0x3d4ac056	0.049499832
40	0xbce54185	-0.027985344
41	0x3d12c4f0	0.035832345
42	0xbd3d420b	-0.04620556
43	0xbca70779	-0.020389305
44	0x3cec1610	0.028819114
45	0xbd366aad	-0.044535328
46	0xbc9ad8a5	-0.018902132
47	0xbc9f6041	-0.019455077
48	0xbce5f1ff	-0.028069494
49	0xbca81460	-0.020517528
50	0x3c71a673	0.014749157
51	0xbd2b8fda	-0.041885234
52	0x3a44789b	0.0007494778
53	0x3d5be2d4	0.053683117
54	0x3d03215b	0.032014232
55	0xbd224389	-0.039615188
56	0x3c33fc35	0.010985424
57	0xbc87acfd	-0.01656198
58	0x3d8350e3	0.06411912
59	0x3d5a27c0	0.053260565
60	0xbc984d0c	-0.018591426
61	0xbcca46d2	-0.024691973
62	0xbcb3452e	-0.021883573
63	0xbcd46da1	-0.025931181
64	0xbd17b290	-0.037035525
65	0x3b328e81	0.0027245583
66	0x3c4fac87	0.012675411
67	0xbc5b67e4	-0.013391469
68	0xbd25de05	-0.040494937
69	0xbd4aeb2b	-0.04954068
70	0xbd6e785b	-0.05822025
71	0xbd88de33	-0.06683006
72	0x3ce28d9a	0.027655412
73	0xbd504564	-0.050847426
74	0x3c7e9d9c	0.015540507
75	0x3c4e2706	0.012582546
76	0xbd549216	-0.05189713
77	0xbcb521f2	-0.022110913
78	0xba7b021c	-0.00095752045
79	0xbd1fbc36	-0.03899785
80	0xbc5304e6	-0.012879586
81	0xbd749ee1	-0.05972183
82	0xb9c3855a	-0.00037292653
83	0xbc9830c2	-0.018577937
84	0xbd1599bc	-0.036523566
85	0xbd52839f	-0.051395055
86	0x3ce35a67	0.027753068
87	0x3d2f969d	0.042868245
88	0x3d433b58	0.047664016
89	0x3b5254a2	0.0032093902
90	0x3c9f900a	0.019477863
91	0x3cba1cbc	0.02271878
92	0x3d2f0777	0.04273173
93	0x3c8f5bbb	0.017499795
94	0xbbffef49	-0.0078105074
95	0x3d2f4c11	0.042797152
96	0x3c457c70	0.012053594
97	0xbcf3ffb4	-0.029785015
98	0x3d2e3e7e	0.042540066
99	0x3d3f245c	0.046665534
100	0xbcec22c4	-0.028825171
101	0xbd49b0a2	-0.049240716
102	0x37841678	1.5746089e-05
103	0xbd23e1b7	-0.04001018
104	0x3d7f3c03	0.06231309
105	0xbcca2849	-0.024677413
106	0xbd216ef3	-0.03941245
107	0x3d19f9ba	0.037591673
108	0x3cf62764	0.03004808
109	0x3cd14738	0.025546655
110	0x3cc6e346	0.024278294
111	0xbd5efdb6	-0.054441176
112	0x3ccc8b54	0.02496878
113	0xbc2fdb5f	-0.0107334545
114	0x3d4cc7d2	0.04999525
115	0xbd36fe11	-0.04467589
116	0x3c932917	0.01796393
117	0xbcdeabbe	-0.027181502
118	0x3c24f3fd	0.010067937
119	0xbd106bbb	-0.03525899
120	0xbbac68de	-0.0052615246
121	0xbd1886a2	-0.03723777
122	0x3d51494a	0.051095285
123	0x3cf38be3	0.02972979
124	0x3d206635	0.039159972
125	0x3d0d343a	0.034473635
126	0xbc572b35	-0.01313286
127	0x3cb33800	0.021877289
128	0x3aa95be4	0.0012921062
129	0xbd211592	-0.03932721
130	0x3cb8eb64	0.02257318
131	0xbd4726b4	-0.048620895
132	0x3c0930a7	0.008373416
133	0x3d3cd5c1	0.04610229
134	0xbc3afef5	-0.011413326
135	0x3a10e3be	0.00055271003
136	0x3d46a20a	0.048494376
137	0x3d4766da	0.04868207
138	0x3d252124	0.04031481
139	0xbd136760	-0.035987258
140	0x3c56ba9a	0.013106013
141	0xbd19f52c	-0.03758733
142	0x3c388af0	0.011263594
143	0xbd44917e	-0.047990315
144	0x3b5c67c0	0.0033631176
145	0x3d25f152	0.040513344
146	0xbcbafbb8	-0.022825107
147	0x3c6b21af	0.0143512925
148	0xbd30238a	-0.043002643
149	0x3d044964	0.032296553
150	0x3c28f9ef	0.010313495
151	0x3d4239c0	0.047418356
152	0xbcddb241	-0.027062537
153	0x3c5ba64b	0.013406347
154	0x3d2c40ff	0.042054173
155	0xbc4c50a1	-0.012470395
156	0xbba048d2	-0.0048914934
157	0xbbf69561	-0.0075251316
158	0x3d1217bf	0.035667177
159	0x3c22c3bc	0.009934362
160	0x3c665360	0.014057964
161	0x3d423868	0.047417074
162	0xbcfab140	-0.030602098
163	0xbd70c9a0	-0.058786035
164	0xbcc060a1	-0.023483576
165	0x3d2d4b03	0.042307865
166	0xbd564307	-0.052310016
167	0xbccc3a17	-0.024930043
168	0xbbe6d7be	-0.0070447614
169	0x3ca40bb0	0.020025104
170	0x3d3a37ac	0.04546325
171	0x3c9f35bd	0.019434804
172	0xbd6c5d4e	-0.05770617
173	0xbd1e5028	-0.03865066
174	0xbb97d876	-0.0046339585
175	0xba835e76	-0.0010022658
176	0x3c36380a	0.011121759
177	0x3cdcbe4c	0.02694621
178	0x3c931c55	0.017957846
179	0xbcf72674	-0.030169703
180	0xbca4a934	-0.020100214
181	0x3b56ef02	0.0032796268
182	0xbaa8bffb	-0.0012874597
183	0x3b5b512e	0.0033465135
184	0xbc6eec89	-0.014582762
185	0x3ba86a54	0.0051396284
186	0x3c8ee619	0.017443703
187	0xbd0b6c0d	-0.034038592
188	0x3cf88fd4	0.03034202
189	0xbd41125b	-0.047136646
190	0x384e92cb	4.925094e-05
191	0xbd3e9c5a	-0.046535827
192	0x3d2fa4b1	0.04288167
193	0xbd09298f	-0.0334869
194	0xbd1181bf	-0.035524126
195	0x3ccbc3f3	0.02487371
196	0x3b841549	0.0040308577
197	0x3ca3aa98	0.019978806
198	0x3b295668	0.0025838856
199	0xbd53c3a7	-0.05170026
200	0xbd21d0a9	-0.039505634
201	0x3bade7fd	0.005307196
202	0xbd63704b	-0.055527013
203	0x3d19c298	0.037539095
204	0xbaa0c591	-0.0012265911
205	0x37a4993c	1.9621679e-05
206	0xbc08d3e3	-0.008351299
207	0xbcb09419	-0.021554993
208	0xbc8bb8bc	-0.017055862
209	0xbb739ae3	-0.0037171177
210	0xbc35ea8d	-0.011103285
211	0x3c877b14	0.01653818
212	0x3d4b044f	0.049564656
213	0xbbe2d3de	-0.006922229
214	0xbd80a931	-0.06282271
215	0xbcbee231	-0.023301216
216	0x3d31448a	0.043278255
217	0xbba5816c	-0.0050508287
218	0xbc30aa9a	-0.010782862
219	0xbd47ed53	-0.048810314
220	0xbd2dcd68	-0.04243222
221	0x3d6cc3b2	0.057803817
222	0xbd2b9177	-0.041886773
223	0xbd62cdfd	-0.055372227
224	0x3c2c0868	0.010500051
225	0x3a882108	0.0010385821
226	0xbd19aa4e	-0.03751593
227	0xbd44edb5	-0.048078258
228	0x3c41cf28	0.011829175
229	0x3c9a5c70	0.018842906
230	0xbd13dbc8	-0.03609827
231	0xbd707fd3	-0.058715653
232	0x3d165b16	0.03670796
233	0x3b2c881e	0.002632625
234	0x3d07ece0	0.033184886
235	0x3c02c2d3	0.00798102
236	0x3cbbbdd0	0.022917658
237	0xbcc5060f	-0.02405074
238	0x3b574e30	0.0032853
239	0xbd0f0532	-0.034917064
240	0xbd989bd3	-0.07451596
241	0xbd4a379b	-0.049369436
242	0x3bfe0124	0.007751601
243	0xbcfee3d5	-0.031114498
244	0x3cf69d6d	0.030104363
245	0x3caa254b	0.020769736
246	0xbb436208	-0.002981307
247	0x3cd2e20e	0.025742557
248	0x3d1d2d49	0.038373265
249	0xbc757281	-0.014980913
250	0x3c672efd	0.014110324
251	0x3cd5bdee	0.026091542
252	0x3d5ea1a5	0.054353375
253	0xbca3a9ab	-0.019978365
254	0x3d966352	0.073431626
255	0xbc2323c6	-0.0099572595

conv3.bias f4 [120]
0	0x3c86aa99	0.01643877
1	0x3d32e4ad	0.043675113
2	0x3ad5cb13	0.0016311131
3	0x3cacfa1a	0.021115351
4	0x3d2b217f	0.04177999
5	0xbd25613d	-0.040375937
6	0x3d0e73cd	0.034778405
7	0x3bab4498	0.005226683
8	0xbd144a7c	-0.036203846
9	0x3c7065c8	0.014672704
10	0x3cdd98b3	0.027050352
11	0xbce3b723	-0.027797287
12	0xbd32e521	-0.043675546
13	0xbd40094b	-0.046883862
14	0xbd0388e5	-0.032112975
15	0xbd25b7bc	-0.040458426
16	0x3cd48fd7	0.025947494
17	0xbc7a25f6	-0.01526784
18	0xbd0c5832	-0.034263797
19	0xbd25609c	-0.040375337
20	0xbccb4baf	-0.024816362
21	0x3d4f5d44	0.050626054
22	0x3d2b415d	0.041810382
23	0x3a402244	0.0007329325
24	0x3cddfabf	0.027097104
25	0xbd2ae13d	-0.04171871
26	0xbc413fd5	-0.011795004
27	0x3d1022e3	0.03518952
28	0xbcb7a049	-0.022415297
29	0x3c80c80a	0.015720386
30	0xbc933c30	-0.017973036
31	0x3cf046d1	0.029330643
32	0xbd3708e5	-0.044686217
33	0x3c4b1a7a	0.012396449
34	0xbcd40c9c	-0.025884919
35	0xbd09b4c3	-0.033619653
36	0x3d3e5039	0.046463225
37	0xbc5d0e6e	-0.01349221
38	0xba34328a	-0.0006873986
39	0xbbfeb2c6	-0.0077727763
40	0xbd22e3e6	-0.039768122
41	0x3d0141cf	0.0315569
42	0xbd103183	-0.035203468
43	0xbc14c381	-0.009079815
44	0xbd325736	-0.043540202
45	0x3b43268c	0.0029777614
46	0x3a274bd7	0.00063818455
47	0x3c99ae4e	0.018759873
48	0x3caa8a8c	0.020818017
49	0xbd0674d5	-0.032826263
50	0x3ccb3ecb	0.024810215
51	0xbc3f5e54	-0.011680204
52	0x3d607b98	0.05480537
53	0xbcb93d0b	-0.022612115
54	0xbbd64caa	-0.006539901
55	0xbb545e60	-0.0032404885
56	0x3d396611	0.045263354
57	0xbc875d6e	-0.016524043
58	0xbce2146e	-0.027597632
59	0x3c1383cc	0.009003591
60	0x3d18f573	0.037343454
61	0xbd1044aa	-0.035221733
62	0xbc5d9adb	-0.01352569
63	0xbc4adfce	-0.012382461
64	0x3d31cb2b	0.043406647
65	0x3b3dadbc	0.0028942665
66	0xbd36eb65	-0.044658083
67	0x3d323215	0.043504793
68	0xbc9519de	-0.018200811
69	0xbd52e871	-0.051491205
70	0x3d507dde	0.050901286
71	0xbc30dcf4	-0.010794867
72	0x3cdf260a	0.027239818
73	0x3c4da206	0.012550836
74	0x3cf26b3d	0.02959215
75	0xbc819493	-0.015817916
76	0xbc72d488	-0.014821179
77	0xbd1526a1	-0.036413793
78	0xbcf96248	-0.030442372
79	0xbcd3a521	-0.025835576
80	0x3d0fdefd	0.035124768
81	0xbd2ce895	-0.042213995
82	0x3b01c8d7	0.0019803548
83	0x3b89af13	0.0042017787
84	0x3d5408f1	0.05176634
85	0xbbd2d595	-0.0064341524
86	0xbc645138	-0.01393538
87	0x3be00ed1	0.0068377038
88	0x3c44b6be	0.01200646
89	0x3c889ee7	0.016677333
90	0x3d31728a	0.043322124
91	0xbcaadfb4	-0.020858623
92	0x3b51f1cd	0.0032034994
93	0xbc3a7687	-0.011380798
94	0xbd36d5da	-0.04463754
95	0xbc7ec7ff	-0.0155506125
96	0x3c2a3e7f	0.010390877
97	0x3c932e29	0.017966347
98	0x3c107f0b	0.008819352
99	0xbd28cde6	-0.041211985
100	0xbb293ea6	-0.0025824695
101	0x3cbbdbb4	0.022931911
102	0x3caaf0b0	0.020866722
103	0xbd1e5e80	-0.03866434
104	0x3c41ab85	0.011820679
105	0xbbc254b5	-0.005930508
106	0x3aa3cdbb	0.0012497226
107	0x3cbdaaf4	0.023152806
108	0xbc9ebfcd	-0.019378567
109	0x3b92c46d	0.004478982
110	0x3ca7f4ce	0.020502474
111	0xbc445f26	-0.011985576
112	0x3d4c5375	0.04988428
113	0xbbd06468	-0.0063596256
114	0x3ba68b08	0.005082492
115	0xbd176ece	-0.036970906
116	0x3c9786ea	0.01849695
117	0xbc7bc16e	-0.015365941
118	0x3d2a7152	0.041611977
119	0x3cc30cb4	0.023809768

fc1.weight f4 [84, 120]
0	0xbd418cfe	-0.0472536
1	0xbd99e139	-0.07513661
2	0x3bce15e0	0.006289229
3	0x3a0345a5	0.0005007631
4	0xbd9accb7	-0.075585775
5	0x3dc4a03a	0.09600873
6	0xbd6fc098	-0.05853328
7	0xbd5bed51	-0.05369312
8	0xbd575339	-0.0525696
9	0x3d2810bf	0.041031595
10	0x3d58c405	0.052921314
11	0xbdcfbd27	-0.101435
12	0x3c8bf766	0.017085742
13	0xbdb078d2	-0.08616795
14	0xbd0b04b7	-0.033940043
15	0xbcbfa23b	-0.023392787
16	0x3e0054d5	0.12532361
17	0xbda626bb	-0.08112856
18	0xbdc9ed92	-0.09859766
19	0x3d2a8009	0.04162601
20	0xbdf0b0a2	-0.1175244
21	0x3d01bf48	0.03167656
22	0x3d3224ac	0.043492004
23	0xbcf07eeb	-0.029357394
24	0xbb0095a0	-0.0019620433
25	0xbd8e3a29	-0.06944687
26	0xbdb9391d	-0.090440966
27	0x3d205fc2	0.03915382
28	0xbe03e536	-0.12880406
29	0x3d12594b	0.035729688
30	0xbd6a4cc6	-0.057202123
31	0x3e1941db	0.14966528
32	0xbd773b39	-0.060359214
33	0x3cc506d5	0.02405111
34	0xbda6b5fe	-0.08140181
35	0x3d229047	0.039688375
36	0x3c981a1b	0.018567136
37	0xbd5fa3fc	-0.054599747
38	0xbd8dd5c5	-0.06925539
39	0xbd3f7e0b	-0.046751063
40	0xbd614e07	-0.055006053
41	0xbd442c5c	-0.047893867
42	0xb91e5e04	-0.00015103078
43	0x3d3a9a2b	0.045557182
44	0xbd40cd02	-0.04707051
45	0xbd1272a5	-0.035753865
46	0x3d92ac8b	0.07161816
47	0xbd1e9490	-0.0387159
48	0x3cd47c42	0.025938157
49	0xbd0ace07	-0.03388789
50	0x3dafa524	0.0857642
51	0xbd371b57	-0.044703808
52	0xbde9b016	-0.11410539
53	0x3d970ee2	0.073758855
54	0x3c800f17	0.015632195
55	0xbae6339d	-0.0017562989
56	0xbe157db7	-0.14598738
57	0xbdfc6403	-0.12323763
58	0x3d45cd72	0.04829163
59	0xbd700e94	-0.058607653
60	0xbdccc0de	-0.09997724
61	0x3d1e8674	0.038702443
62	0xbda9cde6	-0.08291225
63	0x3db6833d	0.089117505
64	0xbd349f10	-0.044097006
65	0x3cde5ab3	0.027142858
66	0x3cc2c557	0.02377574
67	0x3dc7ed1b	0.09762021
68	0x3d53e224	0.051729336
69	0xbc471e4e	-0.012153221
70	0x3db6c39c	0.08924028
71	0x3c24bd16	0.010054847
72	0x3cb78dfd	0.022406572
73	0x3d2ffc58	0.042965263
74	0xbd9654b1	-0.07340372
75	0xbdba35eb	-0.09092315
76	0x3c9f59d6	0.019452017
77	0xbde233e1	-0.11045051
78	0xbd170c7f	-0.03687715
79	0xbd8864af	-0.06659829
80	0x3d7fc56f	0.062444147
81	0xbd327b37	-0.043574538
82	0x3df08fb7	0.117461614
83	0xbc604822	-0.013689073
84	0x3ce0d1c2	0.02744377
85	0xbc273383	-0.010205152
86	0xbd8ee886	-0.06977944
87	0xbd90a81b	-0.070633136
88	0x3dc48a1d	0.095966555
89	0xbc05a09a	-0.008155966
90	0x3bd0943c	0.006365327
91	0xbd4ad0b0	-0.049515426
92	0x3daaa24f	0.08331739
93	0xbe09b719	-0.13448752
94	0xbd91485f	-0.07093882
95	0xbd812d6f	-0.06307494
96	0xbc9d04b3	-0.01916728
97	0x3d672599	0.05643234
98	0x3d560f7c	0.05226086
99	0xbcff69e8	-0.03117843
100	0x3d406772	0.046973653
101	0x3dbbe7e5	0.0917509
102	0xbde12625	-0.109936036
103	0x3cde364c	0.0271255
104	0x3db0b493	0.08628192
105	0x3cbf8148	0.023377076
106	0x3d4833f2	0.048877664
107	0x3de719cc	0.11284217
108	0x3d50d678	0.050985783
109	0xbd92dc89	-0.0717097
110	0xbd346acd	-0.044047166
111	0x3d18e26f	0.03732532
112	0xbe1a3939	-0.15060891
113	0xbd27526e	-0.040850095
114	0xbc05ad93	-0.008159059
115	0xbbb2ef1c	-0.005460633
116	0xbc221f16	-0.009895107
117	0x3d34b82a	0.044120945
118	0x3d8aa953	0.06770577
119	0xbdf2d1ef	-0.11856448
120	0x3d1e02c5	0.03857686
121	0x3b2fe69a	0.002684033
122	0x3ac8aff2	0.0015311225
123	0xbc8d8234	-0.017274
124	0xbbe0122e	-0.0068381047
125	0x3c632882	0.013864638
126	0xbbd4902f	-0.0064869146
127	0xbdaac024	-0.08337429
128	0x3d8debcb	0.069297396
129	0xbdcb8365	-0.09937171
130	0xbd87d56b	-0.06632503
131	0x3d83155a	0.06400557
132	0xbc3fdda5	-0.011710559
133	0xbd1cea94	-0.03830965
134	0xbb8f0aa3	-0.0043652817
135	0xbd84bbc7	-0.06481128
136	0x3d14af95	0.03630026
137	0xbcf67f83	-0.0300901
138	0xbcefa269	-0.029252248
139	0x3dcc8218	0.09985751
140	0x3d06a9eb	0.03287689
141	0x3d014385	0.031558532
142	0xbd525ca9	-0.0513579
143	0x3b6c211a	0.0036030472
144	0xbc3a9d3c	-0.011390027
145	0x3daa31f6	0.083103105
146	0x3c7bd125	0.015369688
147	0x3b8a7c72	0.004226261
148	0x3d585382	0.052814014
149	0x3dc434a7	0.09580355
150	0xbdbec99e	-0.09315799
151	0xbd9537a7	-0.072860055
152	0xbdc6ed05	-0.09713177
153	0x3d3f3480	0.046680927
154	0x3d1b95a8	0.03798452
155	0x3d6a5bff	0.05721664
156	0xbd8203e6	-0.063484
157	0xbd540db8	-0.051770896
158	0xbd169a7c	-0.03676842
159	0x3dbeec7b	0.09322449
160	0x3dbce585	0.09223465
161	0x3df5efad	0.12008605
162	0xbd1b4140	-0.037904024
163	0xbdc17957	-0.09446972
164	0xbda1c86e	-0.07899557
165	0xbcb134b1	-0.02163157
166	0x3d05a4ed	0.03262799
167	0xbd528ba3	-0.0514027
168	0x3dd882d9	0.10571832
169	0xbca59326	-0.020211767
170	0x3dbcd489	0.09220225
171	0x3d8209c1	0.06349517
172	0xbdbcd0ed	-0.09219537
173	0xbd055b42	-0.032557733
174	0xbd2b7ac7	-0.041865136
175	0xbca4e6e3	-0.020129627
176	0x3d43fc63	0.047848117
177	0x3dabdc57	0.08391636
178	0xbd2bffed	-0.041992117
179	0x3dc64512	0.09681143
180	0x3bcb7397	0.0062088477
181	0x3c82a9eb	0.015950164
182	0xbdf0d50a	-0.11759384
183	0xbd9d87a1	-0.07691885
184	0x3d1bab1b	0.038004976
185	0x3d8b7346	0.06809096
186	0xbd01812a	-0.03161732
187	0xbd34e84c	-0.044166848
188	0x3d6b9148	0.057511598
189	0xbdcb6580	-0.09931469
190	0x3db6a4b5	0.08918134
191	0x3dbf0f51	0.09329093
192	0x3d667a8e	0.05626922
193	0xbd9c6c70	-0.0763787
194	0xbbe0fa61	-0.006865785
195	0xbdb2663d	-0.08710907
196	0x3d291f9f	0.04128992
197	0x3ddf5ba3	0.1090615
198	0xbce40931	-0.027836414
199	0xbd269e62	-0.04067839
200	0x3d695e49	0.056974683
201	0xbd2015e4	-0.039083377
202	0xbd82b996	-0.06383054
203	0xbdbaa7a9	-0.0911401
204	0xbccec6e6	-0.025241327
205	0x3d68966a	0.05678407
206	0x3d3c6953	0.045998883
207	0x3cf88d94	0.030340947
208	0x3d30bfba	0.043151595
209	0xbda4eb42	-0.08052684
210	0x3de9fafa	0.11424823
211	0xbd478101	-0.048707012
212	0xbdb76411	-0.08954633
213	0x3d7ac980	0.06122732
214	0xbc2a71a7	-0.010403073
215	0xbc9d0b24	-0.019170351
216	0xbdd5b851	-0.10435546
217	0x3d0c0344	0.0341828
218	0xbdc42ffb	-0.09579464
219	0xbd744a3a	-0.0596411
220	0x3d9c0d7a	0.07619758
221	0x3d4a491a	0.04938612
222	0xbdfbf7c5	-0.12303118
223	0xbcb43d7f	-0.02200198
224	0xbd4ff939	-0.050774787
225	0xbddd2596	-0.107981846
226	0xbdd98843	-0.10621693
227	0x3e05412d	0.13013144
228	0x3a4bf44e	0.00077802397
229	0x3d8558a1	0.06511045
230	0x3d62a5ae	0.055333786
231	0x3d863282	0.06552602
232	0xbdc42f61	-0.09579349
233	0x3cc3e08e	0.023910787
234	0xbd8c7535	-0.06858293
235	0x3d704e28	0.058668286
236	0x3db0b8f0	0.08629024
237	0x3d437bd9	0.047725532
238	0xbca361ea	-0.01994415
239	0xbc51ef3a	-0.012813384
240	0x3cb518fb	0.022106638
241	0xbc7e8122	-0.015533717
242	0xbd4ecbc8	-0.05048731
243	0xbcc6cb99	-0.024267005
244	0xbe0563de	-0.13026378
245	0xbae7a32c	-0.001767253
246	0xbdb1d073	-0.08682337
247	0xbbb8c2f2	-0.0056384737
248	0xbdd00fd3	-0.10159268
249	0x3da60d3a	0.081079915
250	0x3bc759f5	0.0060837218
251	0x3d7f0faf	0.062270816
252	0xbc50edec	-0.0127520375
253	0xba8848f5	-0.001039772
254	0x3db6595e	0.08903764
255	0x3dab4bad	0.083640434

fc1.bias f4 [84]
0	0xbc19c208	-0.00938464
1	0xbd9d6fa0	-0.076873064
2	0x3b1cfc7f	0.002395421
3	0x3d303d85	0.04302742
4	0x3ce598ca	0.028026957
5	0x3c8af942	0.016964559
6	0x3da63611	0.08115781
7	0x3d660e49	0.056165967
8	0xbcaab3f9	-0.02083777
9	0x3d8a728d	0.0676013
10	0xbd9c348e	-0.076272115
11	0x3d774880	0.060371876
12	0x3d4ea297	0.050448027
13	0xbd2c82aa	-0.0421168
14	0xbb96043f	-0.004578143
15	0xbc9c7c87	-0.019102348
16	0xbd693263	-0.05693282
17	0xbd99be9e	-0.075070605
18	0xbdca2c35	-0.09871713
19	0xbd2964c5	-0.041355867
20	0x3ca342da	0.019929338
21	0x3d2720bb	0.0408027
22	0xbb8cbb24	-0.00429477
23	0xbd64e7a8	-0.055884987
24	0x3d346c4c	0.044048592
25	0x3c18e486	0.009331828
26	0x3c098064	0.008392427
27	0x3ce11f53	0.027480757
28	0xbc5956c8	-0.013265319
29	0x3d5897eb	0.052879255
30	0x3d259890	0.040428698
31	0x3c7d7e55	0.015472014
32	0xbc7ff124	-0.015621457
33	0xbcecfb0f	-0.028928308
34	0xbd22ae95	-0.039717276
35	0xbcd2b5c8	-0.025721446
36	0xbdaf04c4	-0.08545831
37	0xbda4d5c3	-0.08048584
38	0xbb9f2f9b	-0.00485797
39	0xbd912560	-0.07087207
40	0xba2513e5	-0.0006297215
41	0xbd946308	-0.07245451
42	0x3d48760e	0.04894071
43	0xbc57b94e	-0.013166739
44	0xbcb95fbf	-0.022628663
45	0x3b42da8d	0.0029732317
46	0x3cd2a496	0.025713246
47	0xbd7952c9	-0.060869966
48	0xbd919303	-0.071081184
49	0x3ba3fc41	0.0050044362
50	0x3cd9b323	0.026574677
51	0x3d0a0700	0.033698082
52	0x3d008af6	0.031382523
53	0xbd665797	-0.056235876
54	0xbd90aed5	-0.070645966
55	0xbc0a6402	-0.008446695
56	0xbd36a876	-0.04459425
57	0xbd2cb0d9	-0.042160843
58	0x3c00e0f8	0.007866137
59	0xbceb65bf	-0.02873504
60	0xbc40a2e4	-0.011757586
61	0x3dd4da7c	0.10393235
62	0x3d34ed2c	0.044171497
63	0xbd22b320	-0.03972161
64	0x3d422642	0.047399767
65	0xbd8839de	-0.06651662
66	0x3d1c9a26	0.038232945
67	0x3b9d3078	0.0047970377
68	0x3d819c1a	0.06328602
69	0x3d4aa0de	0.04946982
70	0xbd9fb333	-0.077978514
71	0x3d836faa	0.064177826
72	0x3d9f222e	0.07770191
73	0x3d44c14c	0.048035905
74	0x3d11a761	0.035560016
75	0xbd1c6f36	-0.038191997
76	0x3cab62bf	0.02092111
77	0x3c8e0ab3	0.017339086
78	0x3bd88cde	0.0066085896
79	0x3d220851	0.039558712
80	0xbd8847a0	-0.066542864
81	0xbc602eed	-0.013683063
82	0xbceaf12e	-0.028679457
83	0xbccdf9bd	-0.025143499

fc2.weight f4 [10, 84]
0	0xbe0eda31	-0.13950421
1	0xbe512e80	-0.20427895
2	0x3e38f529	0.18062271
3	0x3dc1fa60	0.09471583
4	0x3e15d3cd	0.14631577
5	0x3cf4eb9b	0.029897502
6	0x3e34a414	0.17640716
7	0xbdf85512	-0.12125601
8	0xbec4193a	-0.38300496
9	0x3e21960b	0.15779893
10	0xbaf35a07	-0.0018566259
11	0xbd6bf58a	-0.05760721
12	0x3dc8313f	0.09775018
13	0xbd01726a	-0.031603254
14	0x3e06aadf	0.1315112
15	0x3e55e97a	0.20889845
16	0xbeb58d49	-0.35459355
17	0x3d430044	0.047607675
18	0xbd985f9a	-0.074401096
19	0x3e707ff6	0.23486313
20	0xbe5e4bd8	-0.2170862
21	0xbe9ee9df	-0.31037804
22	0x3d15eb88	0.036601573
23	0x3e46bb96	0.19407496
24	0x3dad9d4b	0.08477267
25	0xbe951925	-0.29120746
26	0xbe6865fe	-0.22695157
27	0xbd606bcd	-0.054790307
28	0x3e93529f	0.28773972
29	0xbe1f31f1	-0.15546395
30	0x3c9b733f	0.018975852
31	0x3e3fd5fd	0.18733974
32	0xbe6f9836	-0.23397908
33	0x3cb68ea2	0.02228481
34	0x3e282757	0.16421257
35	0x3e30f965	0.17282636
36	0xbe616e29	-0.22014679
37	0xbe600e65	-0.21880491
38	0xbc511d43	-0.012763324
39	0xbcf0264a	-0.029315133
40	0xbdea6679	-0.11445326
41	0x3ea3c472	0.31985813
42	0xbe9060f9	-0.28198984
43	0xbe60325e	-0.21894214
44	0x3d9abfa6	0.07556085
45	0xbe83e31e	-0.25759214
46	0x3e34c539	0.1765336
47	0x3e92fefd	0.28710166
48	0x3cf22959	0.029560732
49	0x3dad5935	0.084642805
50	0xbe9b9602	-0.30387884
51	0x3e522408	0.20521557
52	0xbe9471eb	-0.28993163
53	0xbe26bc75	-0.16282828
54	0xbca5fb13	-0.020261323
55	0xbe8f178f	-0.2794766
56	0x3e9a98ad	0.30194607
57	0x3e326bf1	0.17423989
58	0x3db1594c	0.0865961
59	0x3df36c06	0.11885838
60	0x3ec2503b	0.37951836
61	0x3d8c25f1	0.06843174
62	0xbc109e40	-0.008826792
63	0x3e91b979	0.28461817
64	0xbe25d818	-0.16195714
65	0xbc3f2d1b	-0.011668469
66	0x3d5d149a	0.053974725
67	0x3d5e1891	0.054222647
68	0x3e4f2cc0	0.20231915
69	0xbddcaf50	-0.10775626
70	0xbe1e7f78	-0.15478313
71	0x3e1abb83	0.15110593
72	0x3e7b63d1	0.24549796
73	0xbe811a5d	-0.25215426
74	0xbe863aa1	-0.26216605
75	0xbd033498	-0.03203258
76	0x3e061806	0.13095102
77	0x3da7f65c	0.08201286
78	0xbe77c4e7	-0.24196206
79	0xbe6973cf	-0.22798084
80	0xbdb9676a	-0.09052928
81	0x3e078ef3	0.13238125
82	0xbe42a8c8	-0.19009697
83	0x3e8a0777	0.2695882
84	0xbddb0f80	-0.10696316
85	0x3db9a59e	0.09064792
86	0xbde6f6d4	-0.112775475
87	0xbe40a430	-0.18812633
88	0x3cef4dc0	0.029211879
89	0x3df6070c	0.12013063
90	0x3c6390f3	0.013889539
91	0x3e8cb728	0.27483487
92	0x3e46dab2	0.19419363
93	0x3e71ed73	0.23625736
94	0xbe70f749	-0.23531832
95	0x3ea92906	0.3303911
96	0x3e51a13a	0.2047166
97	0xbe803b8c	-0.2504543
98	0x3ed6c0db	0.41944012
99	0xbe96eb40	-0.29476357
100	0xbe136e19	-0.14397468
101	0x3e5c52f9	0.21516027
102	0x3ea4e8b0	0.32208776
103	0xbda4404f	-0.080200784
104	0xbe2cc166	-0.1687065
105	0x3dbf5922	0.093431726
106	0xbc0914ce	-0.008366777
107	0xbd502680	-0.050817966
108	0x3e8eefc4	0.27917302
109	0xbc2ac346	-0.010422533
110	0x3e8b1332	0.27163082
111	0xbdb2ff1d	-0.08740065
112	0x3e086a2d	0.13321753
113	0x3e1359e2	0.14389756
114	0xbe6e98f9	-0.23300542
115	0x3e350594	0.17677909
116	0x3e5a6c8d	0.21330471
117	0xbea6c6b4	-0.32573473
118	0xbd94f077	-0.072724275
119	0x3e06dc6d	0.13170023
120	0x3e4e48b6	0.20144925
121	0x3e29322a	0.16523042
122	0x3e082fc6	0.13299474
123	0xbda4faeb	-0.08055671
124	0x3df80e9e	0.12112163
125	0xbe4f3be2	-0.20237687
126	0x3db307c5	0.08741716
127	0xbd2c88d5	-0.04212268
128	0xbdddb878	-0.108262
129	0x3e74abc1	0.23893644
130	0xbdef09d2	-0.11671795
131	0x3ebd882b	0.3701795
132	0x3e7ef81d	0.24899335
133	0x3dbb3b0d	0.091421224
134	0x3dc13599	0.09434051
135	0xbe69767f	-0.22799109
136	0x3e132d43	0.14372735
137	0x3cb4a475	0.022051075
138	0xbe958de7	-0.29209825
139	0x3db31616	0.08744447
140	0x3ced49ff	0.028965948
141	0xbe800351	-0.2500253
142	0xbe87f442	-0.2655354
143	0x3e5465a2	0.20741895
144	0xbde91926	-0.1138175
145	0x3e694f8c	0.22784251
146	0xbe6dc897	-0.2322105
147	0xbe729cd4	-0.23692638
148	0x3e76243f	0.24037264
149	0x3e5b2d08	0.21403897
150	0x3e89186a	0.2677644
151	0x3dd2e144	0.10296872
152	0x3eada69e	0.3391618
153	0x3e31be39	0.1735772
154	0x3ceb8aea	0.028752763
155	0xbbba39cb	-0.005683159
156	0xba898a72	-0.001049353
157	0x3de30b54	0.11086145
158	0xbdad430e	-0.08460055
159	0x3e05167e	0.12996861
160	0xbebd3256	-0.36952466
161	0xbe520ad7	-0.20511948
162	0x3dd6abc0	0.104819775
163	0x3e5ef526	0.21773204
164	0x3b8cd0a2	0.004297332
165	0x3e0c97ef	0.13729833
166	0xbe84d255	-0.2594172
167	0xbe8e6a67	-0.27815554
168	0xbe1a4bb5	-0.15067942
169	0xbe896faf	-0.2684302
170	0x3edde24b	0.4333671
171	0xbe721a2b	-0.23642795
172	0x3ea5ec1b	0.32406697
173	0x3e68d612	0.22737911
174	0x3e95f20f	0.2928624
175	0x3e890928	0.26764798
176	0xbd8c6563	-0.068552755
177	0x3ca0dc73	0.019636368
178	0x3e2e553e	0.17024705
179	0xbe041a6f	-0.12900709
180	0xbd367daf	-0.044553455
181	0x3ea768eb	0.32697234
182	0xbe1ffb8a	-0.15623298
183	0x3ddbf3d3	0.10739865
184	0x3e71c7c0	0.23611355
185	0xbdd7e124	-0.10540989
186	0xbe617e42	-0.2202082
187	0xbdba7b6a	-0.091055706
188	0xbe4854e7	-0.19563638
189	0x3d06ec60	0.03294027
190	0x3e878ea2	0.26476008
191	0x3d245a78	0.04012534
192	0x3dc7fc22	0.097648874
193	0x3e401f1f	0.18761872
194	0x3e912fe3	0.28356847
195	0x3e8b7390	0.27236605
196	0x3e2c126b	0.16803901
197	0x3e8a419f	0.2700319
198	0xbe36cdc1	-0.17851926
199	0xbe16ee75	-0.14739402
200	0xbd26212f	-0.04055899
201	0xbdaaf07c	-0.0834665
202	0xbe352011	-0.17688014
203	0xbe0f5a50	-0.13999295
204	0xbc7b6dcc	-0.015346002
205	0xbd2f26f0	-0.042761743
206	0xbe7260cb	-0.23669736
207	0x3e8058c3	0.2506772
208	0xbe017755	-0.12643178
209	0x3e65a5b4	0.22426492
210	0x3e975de8	0.29563832
211	0x3e028851	0.12747313
212	0xbe60d06e	-0.2195451
213	0xbd3dfe1e	-0.046384923
214	0x3cfc46b3	0.03079543
215	0x3cf5d71a	0.030009795
216	0x3dbb397a	0.09141822
217	0xbd0feea4	-0.035139695
218	0x3d96bd27	0.07360297
219	0x3e9a13dd	0.3009328
220	0x3e00bcd2	0.12572029
221	0x3dc963f9	0.098335214
222	0xbe06a1f0	-0.13147712
223	0x3e1ffb9f	0.1562333
224	0x3c9dbe2c	0.01925572
225	0x3e22b223	0.15888266
226	0xbdf18e2c	-0.11794695
227	0xbd7f3690	-0.062307894
228	0x3ea34a13	0.31892452
229	0x3ddb36c6	0.107038066
230	0xbe5e4b25	-0.21708353
231	0xbe93ef43	-0.2889348
232	0xbdee100a	-0.11624153
233	0xbdeffaf0	-0.117177844
234	0xbe2327a7	-0.15933095
235	0xbe910e7d	-0.28331366
236	0x3ea0a9c8	0.31379533
237	0xbe11f264	-0.14252621
238	0x3e5c549f	0.21516655
239	0x3e55c674	0.20876485
240	0x3c61862f	0.013764902
241	0x3d3e4aec	0.04645817
242	0x3d8aa5d2	0.06769909
243	0x3e686e38	0.22698295
244	0xbde30349	-0.11084611
245	0xbd00bb8c	-0.03142886
246	0x3c64a0e0	0.013954371
247	0xbdeea394	-0.11652294
248	0xbe8b503c	-0.2720965
249	0xbdc32a1d	-0.09529517
250	0x3deda79d	0.11604235
251	0xbe4edf36	-0.20202336
252	0x3e761975	0.24033149
253	0xbcbd5a25	-0.023114273
254	0xbdd4ac0c	-0.10384378
255	0xbe80d659	-0.25163534

fc2.bias f4 [10]
0	0xbd851031	-0.06497229
1	0xbd7ada0f	-0.061243113
2	0x3d9c61cc	0.07635841
3	0xbdd0a170	-0.10187042
4	0x3cc66bea	0.02422138
5	0x3d19927d	0.037493218
6	0x3c8b34ef	0.016993014
7	0x3ccfb22a	0.02535351
8	0xbd404045	-0.046936292
9	0x3dd00dc6	0.10158877
