models/mnist_unilenet_w_acc_95.pt (torch_old, 209599 bytes, 10 tensors)

conv1.weight f4 [6, 1, 5, 5]
000000 aa 70 15 bd e7 66 f6 bd de f5 d9 be 66 a8 bc be
       -0.036484398 -0.12031346 -0.42570394 -0.36847228
000010 f1 54 8b be 91 cc 37 3e ae 85 cf 3d f9 6a 08 3e
       -0.27213243 0.1794913 0.10132919 0.13322057
000020 ae 8e 4f be 8b 98 f1 bd de be b0 bc af d6 97 3e
       -0.20269272 -0.117966734 -0.021575388 0.29655978
000030 30 95 ac 3e 8f 06 80 3e 16 f8 a1 3d bf 20 d3 bd
       0.3370757 0.25005004 0.07908647 -0.1030898
000040 83 af bd 3d f4 8e 03 3f 15 ca cc 3e 7c 31 45 3e
       0.09261992 0.51390004 0.39997926 0.19257158
000050 dd bd 30 be 3e 1d 5a be f8 54 f1 be 53 ff a8 be
       -0.17259927 -0.21300218 -0.4713514 -0.33007297
000060 08 dc bf 3b 36 d8 20 3c 48 99 a3 3d c6 37 83 be
       0.005855087 0.009817174 0.079882205 -0.2562849
000070 0a 3a d9 be 96 69 aa 3e 02 c3 48 3e 19 fd 1e 3f
       -0.42427093 0.3328368 0.1960564 0.62104946
000080 6b 13 c9 3e 79 ef c1 3d c1 79 1f be c1 eb 09 be
       0.39272627 0.09469504 -0.15573789 -0.13468839
000090 43 a1 a1 3d 47 61 ce bb 86 22 e0 3d 27 a8 b9 bd
       0.07892086 -0.0062982175 0.10944085 -0.09065276
0000a0 d9 3b b3 3e 3d df e9 3d de 53 a3 be aa f3 09 be
       0.35006598 0.114195324 -0.31899923 -0.13471857
0000b0 48 19 9e be ea cc 2b 3e 7c d4 d3 3d 3d fe 4b be
       -0.30878663 0.16777387 0.103432626 -0.19921203
0000c0 b0 d8 83 be 37 a8 ea bd 32 cf 4d bf 89 8d d3 be
       -0.25751257 -0.11457866 -0.8039428 -0.4131892
0000d0 aa 0f 7c bd 07 38 95 bc f7 e7 60 3d 1f fb 8b bc
       -0.061538376 -0.018215192 0.05490872 -0.017087517
0000e0 f8 34 8e 3e a0 43 c2 3d af e0 9f bb ee b6 37 3f
       0.27774787 0.09485555 -0.0048790793 0.71763504
0000f0 c5 ef 04 3d 84 48 d8 3e 1e f8 4f 3e 75 0f cd 3e
       0.032455225 0.42242825 0.20309493 0.40050855
000100 f7 ec 39 3e 50 fa 99 bd 20 ed b2 3e 34 6a 0d 3e
       0.18156801 -0.075184464 0.34946537 0.13810045
000110 f4 52 b3 be 05 f0 29 3d 3d 06 e6 3e f9 11 46 3e
       -0.35024226 0.041488666 0.44926634 0.19342794
000120 b5 8b a1 3e 87 c6 6c 3d 8e f6 28 be 53 4d f8 3d
       0.315519 0.057806518 -0.16500303 0.121241234
000130 ae 11 5c 3e 12 a5 21 3e f3 9e c1 be 83 e0 a5 3d
       0.2149112 0.15785626 -0.3781658 0.08099463
000140 e7 a0 61 be ca 6f 2e bf c4 26 74 bc a6 f6 89 3e
       -0.22034036 -0.68139327 -0.014901821 0.2694599
000150 e6 16 94 3e e8 b8 4d be 45 de a0 be 45 b9 d7 3d
       0.2892372 -0.20090067 -0.31419578 0.10533384
000160 8c 6d a0 3e c6 4d 60 3e e5 27 ae be b6 af b9 3d
       0.31333578 0.21904668 -0.34014812 0.09066717
000170 a4 f5 f7 3b 39 3c a9 3e 98 35 c3 bd 33 ed 9c bd
       0.0075671244 0.3305376 -0.095317066 -0.0766243
000180 bc 87 3d 3d 1d 78 14 bb d2 3b f6 3c d6 66 43 be
       0.046272025 -0.00226546 0.030057821 -0.19082198
000190 f2 17 9d bc de 6f 19 bb c6 39 91 3d cc 6d 10 3e
       -0.019176457 -0.0023412625 0.070910975 0.14104384
0001a0 86 0b 90 3d 8d e4 e7 3e 60 d5 0e be 4f 6c 17 be
       0.07033448 0.45291558 -0.13948584 -0.1478741
0001b0 bb aa 8e 3e ea 67 fa 3d 29 8e cf 3e e1 c2 79 3e
       0.27864632 0.12226851 0.40538147 0.24390747
0001c0 59 f7 91 3e 8d b3 f0 3e 9a fc 55 3e 87 74 0a 3f
       0.28509024 0.47011986 0.20897141 0.54084057
0001d0 78 59 09 bd 87 ff 53 3e c2 33 86 3e 8c a3 4c bd
       -0.03353259 0.20702945 0.26211363 -0.049960658
0001e0 df e9 47 bb e2 99 af be 35 a2 0d be ae 6d d5 be
       -0.0030504388 -0.3429709 -0.13831408 -0.4168524
0001f0 67 68 f0 3c f6 85 56 bd 25 ff a7 be 07 15 34 bd
       0.029346658 -0.05237385 -0.32811847 -0.043965366
000200 5e 3e a2 3e d0 f3 8c 3e cc e1 3c be c1 16 90 be
       0.31688207 0.27529764 -0.1844551 -0.2814236
000210 bb fe ae 3e 23 f2 ea 3d 8d 75 0c 3f f0 08 90 3e
       0.3417872 0.11471965 0.5486687 0.2813182
000220 6c 37 8b 3d cc 30 c8 bd 1b 4c 92 3e f6 0b 2b 3e
       0.0679768 -0.09774932 0.2857369 0.16703781
000230 7f 15 b6 be ae b3 d0 bd 63 34 ca bc 9e 20 03 3d
       -0.35563275 -0.10190521 -0.024683183 0.032013528
000240 58 04 06 be af cb 88 be 4c ce a4 3e 42 1b 47 3e
       -0.13087595 -0.26717898 0.32188642 0.19443992
000250 af ba 10 3f d6 f1 88 3e
       0.56534857 0.26747006

conv1.bias f4 [6]
000000 fd 09 b1 bf 1a 01 01 3f 3d 35 5b be 5e b2 19 bf
       -1.3831173 0.50392306 -0.21407028 -0.6003779
000010 31 28 48 bf 68 d5 6f bd
       -0.7818633 -0.05855313

conv2.weight f4 [16, 6, 5, 5]
000000 32 be 7d 3c 63 3d 9d bd 56 00 c4 be 2c 5d ba 3d
       0.015487241 -0.07677724 -0.38281506 0.090998024
000010 c6 53 8f 3d 2a 79 4e 3b f8 71 2d bc 0a 87 14 3b
       0.069984004 0.0031505325 -0.010586254 0.0022663497
000020 a5 6a 23 3e 44 6f 36 be 45 48 83 3e 07 8e 90 3e
       0.1595865 -0.17815882 0.25641075 0.28233358
000030 a8 7e 0c be 9b a6 7e be 52 91 0e bd fb 69 38 3e
       -0.1372019 -0.24868242 -0.034806557 0.18009178
000040 0e 24 02 be 82 23 de 3e dc 37 f9 3d 51 3f 11 3e
       -0.12709066 0.43386465 0.121688575 0.1418431
000050 79 ff 50 3d 88 14 a9 3d 85 c8 df 3d fd 0b 0e 3d
       0.051024888 0.08255869 0.10926918 0.0346794
000060 c4 96 96 bd 3f 46 da be 22 c3 3f bc 7b d6 b6 3d
       -0.07352975 -0.4263172 -0.011704238 0.08927628
000070 80 12 b7 be 87 8f 11 3d 45 47 e9 be e9 fb 75 be
       -0.35756302 0.03553727 -0.45562187 -0.24021877
000080 ef 8f 28 be 7f 6a e8 3c ab 3b 1f bc 2e 90 dc 3d
       -0.16461156 0.028371094 -0.009718816 0.107696876
000090 44 04 e2 3b e9 7b 18 3d fd f4 d0 3d 21 93 9a 3d
       0.006897481 0.037227545 0.10202978 0.07547594
0000a0 b6 9b 7a 3e c2 bb cf 3d e2 a4 47 be 15 fd 78 bd
       0.24473462 0.10143234 -0.19496492 -0.060788233
0000b0 a5 74 28 3d c3 ee a6 be b5 06 2f bd 11 0f 4a 3e
       0.041126866 -0.32604036 -0.042731006 0.1973231
0000c0 50 fb 1b be 06 9f 47 3e b7 77 6d be b7 d6 8b be
       -0.15232587 0.19494256 -0.23190199 -0.27312252
0000d0 81 e7 69 be 74 4b b4 3e a7 ec f6 3e 16 45 c5 3b
       -0.22842218 0.35213816 0.48227426 0.0060201986
0000e0 c4 a4 2e bd dd 19 5d 3e 30 6c 7f 3e b1 7d 10 3c
       -0.0426376 0.21591897 0.24943614 0.00881903
0000f0 2d fd 9a 3e e1 88 0c 3d 55 f0 7b be 62 43 b5 be
       0.30271283 0.034310225 -0.24603398 -0.35402972
000100 d4 57 fb be 4f b4 0e bd bb 7c dc 3d fd 7a 46 be
       -0.49090445 -0.034839924 0.10765978 -0.19382854
000110 b2 83 47 be 9a 46 36 3c ab 92 db be 25 90 be 3d
       -0.19483832 0.011125231 -0.42885336 0.09304837
000120 34 6b e7 3c 84 79 ca 3e 70 ba 73 3e 52 f1 a2 bd
       0.02824936 0.39545834 0.23801589 -0.079561844
000130 1e 78 14 3e 3f 3f b7 be 83 88 f9 3d 68 d2 e2 3d
       0.14498946 -0.3579044 0.12184241 0.11075288
000140 8b 6d 4a be 69 42 8d 3d 6b 7f d0 3d fd d7 bf 3d
       -0.1976835 0.06897432 0.10180553 0.09367368
000150 09 a7 ec 3c 47 b5 32 be fd 18 29 bd a5 bc 11 be
       0.028888242 -0.17451964 -0.041283596 -0.14232118
000160 d0 64 7a be 26 76 fc 3b 0a a4 af be 7f 1a e3 bd
       -0.2445252 0.007704514 -0.3430484 -0.11089038
000170 e7 75 81 3c de 49 01 3e 45 c9 82 3e 01 c8 8e 3e
       0.01580329 0.12625834 0.2554418 0.27886966
000180 2a 07 dd bc 5d bc b6 3d 79 fb b9 3d 5f 69 bc 3c
       -0.026980955 0.08922646 0.09081168 0.022999464
000190 97 b3 8b bd 8d 32 23 3e 7b 68 93 bb eb 6f b8 bd
       -0.068213634 0.15937252 -0.004498539 -0.09005722
0001a0 0b 6d 27 3e 6b cd 23 3e 74 42 81 3c b7 96 52 3e
       0.1635019 0.1599633 0.015778758 0.20565306
0001b0 43 84 4b 3f df d1 c6 3d 37 72 c1 3e 0d 6a e0 3d
       0.7949869 0.097079985 0.37782452 0.109577276
0001c0 d1 3c 6a 3e 0a 48 1e be 2c af 89 bd 5f 0e 9a be
       0.22874762 -0.15457168 -0.067228645 -0.3008909
0001d0 e6 fc 9c 3d e1 7f 2e bd 2c 8d 9a be 9e 96 39 be
       0.07665424 -0.042602424 -0.3018583 -0.18123862
0001e0 51 3d 44 3c ad c4 d1 bd d5 00 3c 3d a5 11 d4 bc
       0.01197751 -0.10242591 0.04589923 -0.02588732
0001f0 5d 5b 07 3c 68 f9 12 bb 88 94 0d 3e 68 e2 89 bd
       0.008261529 -0.002242649 0.13826191 -0.06732637
000200 72 8f 32 3d 0a 4e 87 3d 95 c8 e4 3d f5 09 b1 3e
       0.04359383 0.06606682 0.111710705 0.3457791
000210 f9 3d 82 bd 62 4b 86 be 0e 47 85 be 00 f5 6f 3e
       -0.063594766 -0.26229388 -0.26030773 0.23433304
000220 29 5c 27 3d 00 90 fc 3d df 5e a6 be 86 a6 f1 bd
       0.040859375 0.12332153 -0.32494256 -0.1179934
000230 a5 ae 31 be 24 2b 9c be e5 39 31 bd 2f 60 87 bd
       -0.17351778 -0.30501664 -0.043268103 -0.066101424
000240 a0 68 84 3e 07 5f 49 be a2 f7 22 3d 68 ce bb be
       0.25861073 -0.19665156 0.039786942 -0.36680913
000250 4d 72 c8 3e ad 19 01 3e 73 17 26 3e ae ca 89 3e
       0.39149705 0.12607451 0.16219883 0.26912445
000260 b5 d8 b5 3e 8b dd eb 3e 54 b9 97 3e bc 39 a7 3d
       0.35516897 0.4606746 0.29633582 0.08165309
000270 4c 95 a7 bb 35 cd e2 bc cd dd 0e 3e 0c 18 59 be
       -0.005114233 -0.027685741 0.13951798 -0.2120058
000280 ed 01 a1 3d c7 8f 08 3e 3f 39 13 3f 3d 5d 6d 3d
       0.078616954 0.13336097 0.57509226 0.057950247
000290 d2 92 4a bd 11 3a ae be 2f ed 51 3e 35 be 41 3e
       -0.049456425 -0.34028676 0.20500635 0.18920214
0002a0 f3 57 26 3e 33 92 c1 bd ab 19 9a bd ef d4 0d 3a
       0.16244487 -0.094517134 -0.07524427 0.0005410453
0002b0 eb ea 7b 3d 31 e8 13 3e 8a cc 27 bd 6e 51 a4 3d
       0.061503332 0.14444043 -0.040966548 0.08023344
0002c0 16 00 8d 3e 94 e0 51 bb 9b 11 e3 3d b1 db 40 bd
       0.27539128 -0.0032024728 0.11087342 -0.047084514
0002d0 59 2c 9f 3d 32 26 86 3e 89 7d e9 3e dc 5c 21 be
       0.077721305 0.26201016 0.45603588 -0.1575808
0002e0 0a b7 84 bd aa 8c 6b be e9 d7 e2 3d 23 1d 50 3b
       -0.064802244 -0.23002878 0.11076338 0.0031755648
0002f0 37 c7 86 be 29 0c 4c 3e a6 b9 8a 3d 29 a3 dc bd
       -0.26323864 0.19926514 0.06773691 -0.10773308
000300 ef f7 9e be fb 51 45 3d dd 5f 16 3f 21 64 cb 3d
       -0.31048533 0.048173886 0.58740026 0.099312074
000310 21 67 ab 3e cb 86 12 3e e7 62 30 3d 37 3f 6c 3d
       0.3347712 0.14309232 0.04306307 0.057677474
000320 5a 88 35 3e 3a ee 68 bb 79 72 6a 3e dd 5b 3b bd
       0.17727795 -0.0035542385 0.2289523 -0.045741905
000330 29 6b 60 3b 6d a7 21 3d e7 19 89 be 10 a2 46 3e
       0.003424356 0.03946631 -0.26777574 0.1939776
000340 a2 ac 3c be 96 f9 10 3e 59 e5 15 3e ba 9e 8f 3d
       -0.18425229 0.1415771 0.1463827 0.070126966
000350 89 ae 0f be 7b 31 63 bd d2 cf 24 3e 9b 90 f6 3d
       -0.14031424 -0.05546711 0.16094902 0.120393
000360 99 7e b1 3e 71 69 2c 3e ad 75 0d 3c 3a 43 c1 bd
       0.346669 0.16837098 0.008634013 -0.094366506
000370 6c a6 50 be 5a 2e c6 bd a1 52 7f 3e a5 5f 93 3c
       -0.20375985 -0.096768096 0.24933864 0.017989943
000380 80 9e 0f 3e 27 2b 8a bd 68 95 8a be ac df 85 be
       0.14025307 -0.06746512 -0.27067113 -0.2614721
000390 48 3b 61 3e 92 b7 8b 3d c5 bf 71 3e aa 09 b6 3d
       0.2199527 0.06822123 0.2360831 0.08888562
0003a0 2e 70 2f be 09 4a 17 bf 47 a5 db 3c 64 03 10 be
       -0.17132637 -0.59097344 0.026812209 -0.14063793
0003b0 8a 3f d4 bb ef 51 48 be b8 44 bb b9 78 e5 8c 3e
       -0.006477301 -0.19562505 -0.0003571862 0.2751882
0003c0 fb 5e 89 3d be cd d9 bd f0 6f f1 bd 72 42 e3 3d
       0.06707569 -0.10634945 -0.117889285 0.11096658
0003d0 ce 58 e1 3d 06 49 1c 3e 14 bd 28 3e 4b e3 67 3e
       0.11003266 0.15262231 0.16478378 0.22645299
0003e0 c4 14 9d 3d b5 79 b5 3d 79 ad 11 bd fc 3b bb bb
       0.07669976 0.088611044 -0.035565827 -0.005713938
0003f0 98 39 b8 3c c5 f0 46 3e d4 13 c8 3e c4 78 e2 bc
       0.0224884 0.19427784 0.39077628 -0.027645476

conv2.bias f4 [16]
000000 b9 4c 8a be 69 43 83 3e 51 01 a7 bd dc 90 0e bd
       -0.2701166 0.25637367 -0.08154548 -0.034806117
000010 0b 25 e5 be b5 fa 0b 3e 9c 85 7d 3d 88 91 cc be
       -0.44754824 0.13669856 0.061894998 -0.39954782
000020 3c 7f c1 be b0 1d 7b 3c 30 ce a3 be 69 11 2b bf
       -0.37792385 0.015326902 -0.31993246 -0.6682344
000030 0b ca 20 bb 34 45 e4 be fc 08 1a be a7 e0 06 be
       -0.002453449 -0.44584048 -0.1504249 -0.13171636

conv3.weight f4 [100, 16, 5, 5]
000000 a0 9b 8b bc b6 b4 e6 3b cd c5 c4 bc 88 74 ad 3c
       -0.017041981 0.0070405854 -0.0240201 0.02117373
000010 ad 4b 90 3d f5 54 92 bc 9f df ad bb 4f 65 22 3b
       0.07045684 -0.017862776 -0.0053061987 0.0024779623
000020 09 57 04 3d 61 78 1c bd 3a 39 d3 bb b9 27 af bc
       0.032309566 -0.03820074 -0.006446031 -0.021381246
000030 5b 32 fc bb 6b 2f f1 3b 44 f4 de bc cf 19 5c 3b
       -0.0076964325 0.007360389 -0.027216084 0.003358472
000040 8a 52 24 bc e0 33 5d 3c 8c 54 8c bb 32 75 06 bd
       -0.0100294445 0.0135011375 -0.0042825397 -0.03282661
000050 ed 08 91 bc 44 54 27 3b 99 4b 4f 3c 5f a9 cf 3c
       -0.017704451 0.0025532404 0.012652301 0.025349317
000060 5b 32 14 bc 5b cd 13 bc c2 b8 29 bc 84 4e fc bb
       -0.009045209 -0.0090211285 -0.010358991 -0.0076997895
000070 03 dd fe bd 99 11 38 bd 89 d7 13 3d 3e ed 35 bd
       -0.124444984 -0.044938657 0.036094222 -0.044415705
000080 65 f3 86 bd 78 eb 0d 3b 4a 39 57 3b 60 aa 78 bd
       -0.065893926 0.0021655243 0.0032840543 -0.060709357
000090 93 a5 cc bc 99 cf b7 bd 2e 90 09 3d b8 ad 5a bc
       -0.024981296 -0.08975143 0.033584766 -0.013347082
0000a0 57 80 a3 3c 12 5f cb 3b 38 9f 39 be 43 d6 14 bd
       0.019958658 0.0062064016 -0.18127143 -0.03633715
0000b0 1a d0 28 bc ed 89 a7 3c e4 a0 75 3c 1b ce a4 3c
       -0.0103035215 0.02045151 0.014991973 0.02011781
0000c0 79 c5 75 bb 8f e8 40 bc 27 da b2 bd f2 24 14 bd
       -0.0037501736 -0.011774196 -0.087330155 -0.036168046
0000d0 0b 1d bf 3c 1d 8b 00 3d d1 2e 68 3c 51 6c 57 be
       0.023329278 0.03138267 0.014171318 -0.21037413
0000e0 90 88 c3 bc ea ba 03 3d f0 fd d2 3c a7 77 6d bc
       -0.023868829 0.032160677 0.025755852 -0.014493859
0000f0 8d 19 37 bd 3d d0 ae 3b 3a 4d 8b 3c 87 fa e7 bc
       -0.0447021 0.0053348825 0.017004598 -0.028317703
000100 57 fc 60 bc 1f ca d0 3c 9e 77 ad 3b 8c e0 92 3c
       -0.0137320375 0.025487004 0.0052938005 0.017929338
000110 08 43 45 3c 91 7e ba bc d7 7a 51 bd da af 29 3b
       0.012039907 -0.02276543 -0.05114254 0.002589217
000120 d5 48 85 3c 21 97 1a bd 18 8f a4 bb 31 92 66 bd
       0.01627008 -0.037741784 -0.005021941 -0.056291763
000130 7d 1f cd bc 18 32 4a bd 80 6c 4c 3c 93 02 59 bd
       -0.025039429 -0.04936418 0.01247704 -0.05298097
000140 18 f0 23 bd cf ea b0 b8 37 40 f5 bc 3d af a1 3c
       -0.040023893 -8.4360705e-05 -0.029937847 0.01973688
000150 6a 30 4b bd 0f 35 a1 bb 13 69 1a 3c 82 af 77 3d
       -0.049606718 -0.004919655 0.009424466 0.06047011
000160 6b 0e b5 bc 3d e1 f7 3c 8d ea 22 bc 90 00 5c bc
       -0.022101602 0.03025877 -0.009943617 -0.0134278685
000170 73 a6 93 3d 13 80 f8 bc 0a 7c f2 3c f6 57 a1 3a
       0.07209482 -0.030334508 0.029600162 0.001230954
000180 28 80 37 bc ff 1c 1b 3d 09 97 13 3d 28 3a 23 3c
       -0.011199988 0.03786945 0.03603271 0.009962596
000190 46 23 c0 bd 6b 6d 18 3d 0f 98 00 3d 83 57 94 bd
       -0.09381728 0.037213724 0.031395014 -0.07243254
0001a0 13 cd 11 bd 8e 95 2f 3d 3e 7d e8 3c 3a 7f c8 3c
       -0.035595965 0.042867236 0.028380033 0.024474729
0001b0 83 d5 b0 bc e7 7a c3 3c e9 34 87 bc b8 ac 8e 3c
       -0.021586185 0.023862315 -0.016504722 0.017416343
0001c0 9d fb c4 3c 23 10 bb bd 29 4d 54 bc f2 6b 72 3b
       0.02404576 -0.09133937 -0.01295785 0.003699061
0001d0 46 4d ec 3c 70 9f 46 3b 92 05 b9 bd 8d 9b 11 bd
       0.02884544 0.0030307434 -0.090342656 -0.035548735
0001e0 b6 8e 26 bc 19 09 20 bc 8c 6e 1a bd f5 0b 8d bd
       -0.010165861 -0.009767794 -0.037703082 -0.06887046
0001f0 70 9c 12 bd 4f 1c e6 bc ff a6 b8 bc 24 21 fc bb
       -0.03579372 -0.02808967 -0.022540567 -0.0076943804
000200 16 6a 4d bc b5 f6 83 3d 27 d7 0e 3c 6e 05 22 bc
       -0.0125375 0.0644354 0.0087182885 -0.00988899
000210 b9 9c d8 3e 0f 09 5b 3e 02 91 c5 3d 74 e8 99 3c
       0.4230707 0.21390174 0.09646799 0.0187876
000220 4c 6b 00 bd fb cd 24 bd 12 b8 86 bc f1 31 61 3b
       -0.031352326 -0.0402355 -0.016445193 0.0034362043
000230 cc 4c d9 bc 06 96 ce bd 7f 52 92 bd 7d 13 71 bd
       -0.026525877 -0.100872084 -0.07144641 -0.058856476
000240 c1 b8 b7 bc 7a a9 21 3d 11 f9 d3 bd 19 fa 5f bd
       -0.022426965 0.039468266 -0.1035024 -0.05468187
000250 17 4e 41 bd c3 a5 ff 3b 09 cb 27 be be 23 c3 bd
       -0.047193613 0.0078017428 -0.16386046 -0.09528302
000260 26 55 89 3b 8b 53 e0 bc 0d d4 3c bd 29 03 4c bd
       0.0041910587 -0.027383586 -0.046100665 -0.0498077
000270 5f 74 61 3a 1d 93 8c bc 70 df 3e 3d aa f1 30 3d
       0.00086004095 -0.017159993 0.046599805 0.04319922
000280 4f 88 55 bc 5a f3 cb 3c da 38 e5 3b 52 2b f9 3b
       -0.013032987 0.024896313 0.0069953026 0.007604041
000290 74 c7 a6 bc 33 ff bd 3c ab 96 6a bd 5c 25 ff ba
       -0.020358779 0.023192978 -0.057272594 -0.001946609
0002a0 58 fe cb 3b 51 ea 48 3d 5a 2b c7 3a eb 9b 86 3c
       0.0062253885 0.049051587 0.0015195415 0.01643177
0002b0 4e 42 2a 3d 7d f5 6f 3c 34 c0 9e ba c7 96 3c bd
       0.04156714 0.014645931 -0.0012111724 -0.04604223
0002c0 6e 96 fd bb d1 44 27 3c 28 02 f3 3b 10 ba 81 bc
       -0.00773888 0.010209278 0.0074160285 -0.015835792
0002d0 6a 30 f1 3c cf 74 ac bd aa f6 4c bd 3f a5 a5 3c
       0.029442031 -0.08420717 -0.050039925 0.020220397
0002e0 37 ad c3 bb 0b b9 32 3d d1 c0 39 bc 5c a3 c3 3d
       -0.0059715766 0.043633502 -0.011337475 0.09552643
0002f0 d7 3b 2b 3d a2 7e 62 3d b7 1b b0 bc 14 87 19 bd
       0.041805115 0.055296548 -0.02149759 -0.037482336
000300 85 cf f5 bc 43 3f 1c 3c 7f f2 eb 3a 64 79 3c 3d
       -0.03000618 0.009536567 0.0018001347 0.046014205
000310 5e 44 19 3d 4f 26 3f bd b0 78 fb bc d0 b9 48 bb
       0.037418716 -0.046667393 -0.030697197 -0.003062833
000320 2f f7 f1 3d db 19 93 3a ca 19 b7 bb 12 b5 66 bc
       0.11814725 0.0011222915 -0.005587791 -0.014081256
000330 67 0f eb bc 8b 68 a6 bd b9 55 93 bd 85 69 43 bd
       -0.028693868 -0.08125409 -0.07194085 -0.047708053
000340 49 75 84 bd 0e 74 79 bd 07 05 23 bd cb 3c e2 3c
       -0.06467683 -0.060901694 -0.039799716 0.027616879
000350 58 cb 05 bd ab 6d ce 3c aa 33 08 3b 46 f4 0c 3d
       -0.032664627 0.025198778 0.0020782747 0.034412645
000360 78 62 c8 3c 18 7e a4 b9 84 f9 a3 bc e5 b6 45 bc
       0.024461016 -0.00031374465 -0.02001644 -0.012067531
000370 3d dd 80 ba b5 26 45 3d 27 cb 87 3d 39 80 c8 3c
       -0.0009831559 0.048132617 0.06630545 0.024475204
000380 62 72 c6 3b f9 f1 5e 3c 2e 43 8f bc 82 d3 f3 bb
       0.006056116 0.013607495 -0.017488088 -0.007440985
000390 ce 18 20 3d d6 9e 3f 3d 7e ae 76 3c 55 ab 96 bb
       0.039086156 0.046782337 0.015056251 -0.004598061
0003a0 ba 28 98 bc 77 b9 00 3b e9 93 39 3d c1 49 7f ba
       -0.018574107 0.0019641796 0.045307074 -0.0009738468
0003b0 e1 ec bb 3c 44 e8 7e bb 03 33 2e bd 35 92 fd 39
       0.022940101 -0.0038895765 -0.042529117 0.00048364853
0003c0 cd fa 73 bc 1d 98 50 3c 81 ed 48 bc af 14 87 bc
       -0.014891339 0.012731579 -0.012263657 -0.016489355
0003d0 68 f0 36 bd d5 c1 05 bc 1f ae 92 bc fe dd 97 3c
       -0.044662863 -0.008163889 -0.017905293 0.018538471
0003e0 36 8a f5 3a dd c5 1a 3d 86 37 b9 bc 38 a2 9f bd
       0.0018733207 0.037786353 -0.022609483 -0.07794613
0003f0 1c 90 77 bc e2 5d a8 3c 31 61 b8 bc fc 14 a4 bd
       -0.015110042 0.02055258 -0.022507282 -0.08011815

conv3.bias f4 [100]
000000 1c 03 45 be 98 55 9b 3c dc 03 12 3c c0 8c e7 3a
       -0.19239467 0.018961713 0.008912053 0.0017665848
000010 0f e3 d8 3c 6b 30 4c 3c 0d 4c bc 3c 7a a5 95 3b
       0.026475457 0.012462716 0.022985483 0.0045668455
000020 7c a1 18 3d 75 67 8a 3b 4a ab 0e bc 29 f8 61 be
       0.03726338 0.004223759 -0.008707831 -0.22067322
000030 7c 5c dc 3c cc 49 a1 bc 47 f4 8d bc 1e b0 94 3c
       0.026899569 -0.01968851 -0.017328395 0.018150385
000040 fd 73 e1 bc e5 65 53 3c 8f 8c 08 bc e9 6e e4 bb
       -0.027521128 0.0129027115 -0.008334293 -0.0069712293
000050 98 f9 ed bc de 58 b9 3c 33 d9 52 3c fb d8 05 3b
       -0.02904968 0.022625383 0.012869167 0.002042352
000060 12 0e 8e 3c 3a eb a4 3c 28 a9 b7 bc f2 38 86 3b
       0.017340694 0.020131696 -0.022419527 0.004096144
000070 e9 85 08 bd 64 d4 bc bc 1d 69 bf 3c f2 27 84 3b
       -0.03333083 -0.023050494 0.023365552 0.004033082
000080 0c 68 bd 3c 9e 9d cf 3d 86 67 b0 bc 3c 69 1c bc
       0.023120902 0.10137485 -0.021533739 -0.009546574
000090 ec f0 85 3c 85 3b b0 bc 20 15 b9 bc 17 c9 33 3c
       0.016350232 -0.021512756 -0.022593081 0.0109732365
0000a0 b8 ad 0e 3b f1 41 ea bc 06 5c dd b9 3a 17 e6 3c
       0.0021771025 -0.028595896 -0.00042220968 0.028087247
0000b0 a4 d4 a1 bd 5f ca 44 3b ce af 02 3d b4 4f 13 3c
       -0.07901886 0.003002785 0.03190594 0.008991171
0000c0 61 49 95 bc ec 8d e9 bc 41 7f 63 3b a4 c7 d1 3b
       -0.018223466 -0.028510056 0.00347133 0.006401973
0000d0 3a 24 e0 3c 76 e3 62 bc 8a 5c 6a 3b 07 b1 8a 3d
       0.027361024 -0.013848176 0.0035760724 0.067720465
0000e0 6b 09 0e bc 9a b3 de bb d2 e0 d0 bc 7e b6 2e bb
       -0.008669238 -0.0067963125 -0.025497828 -0.0026659067
0000f0 76 b1 94 3c a3 5f 1f bd 21 99 83 3b 1e d5 9e bc
       0.018151026 -0.038909566 0.004016057 -0.019388732
000100 95 73 ce 3c 16 06 04 3d 20 64 15 be fb 47 5d 3c
       0.025201598 0.032232367 -0.14588976 0.013505931
000110 c5 b4 c7 3b f3 bc 04 bd 94 be 08 bc cf 81 81 3c
       0.0060945475 -0.03240676 -0.008346219 0.015808968
000120 9a 0b be 3c fa 6c 22 3c 08 b1 60 3b 9d 27 65 3c
       0.023198891 0.009913677 0.0034285206 0.013986495
000130 0d a1 1a bc db 8c 36 be 2b 4b 2c 39 8d 8a a7 bc
       -0.009437812 -0.1782717 0.000164312 -0.020451808
000140 c3 6c b7 ba 29 a4 e6 3c ea d2 19 bd 9a 55 9e 3c
       -0.0013994206 0.02815445 -0.03755466 0.019327927
000150 de 54 91 3c e2 ac d4 ba 27 c7 22 bc 06 2d de 3b
       0.017740663 -0.001622584 -0.009935177 0.0067802696
000160 f2 15 c4 3d e7 6b 1b 3c 23 94 bf 3c 20 78 05 bc
       0.09574498 0.009486175 0.023386067 -0.008146316
000170 ec 6d bc bc 6c 90 8d 3c ae e4 f2 bb ae 69 90 3c
       -0.023001634 0.01728078 -0.0074125146 0.017628517
000180 33 e8 16 bc 83 63 fc 3c 83 36 4c bc ce 4e 05 3d
       -0.009210634 0.03080917 -0.0124641685 0.032545857

fc1.weight f4 [84, 100]
000000 e3 6e 98 3d 9a b6 66 3d fd 50 2c 3e 2f 30 69 bd
       0.07443025 0.056326486 0.1682777 -0.056930717
000010 46 d9 29 be 29 81 98 3d 44 0a fc 3b d9 d7 a1 bd
       -0.1658679 0.0744651 0.0076916534 -0.07902498
000020 8e 5b a2 bd e5 5e 81 3d 0b 2d a6 3a 3e d1 8b 3e
       -0.07927619 0.06316928 0.0012678219 0.27308077
000030 7f 58 1d 3d 08 67 64 3d 56 65 8c bc 3b af e3 bb
       0.038414475 0.05576232 -0.017138164 -0.0069483793
000040 c3 67 09 3e e4 ee b4 3c 56 41 ab bc 78 39 da bd
       0.13418488 0.022086568 -0.020905178 -0.106554925
000050 25 41 2f 3e 4e 2d 26 3c 50 fe 9a 3e 9e 2a fa bc
       0.17114694 0.010142637 0.3027215 -0.0305379
000060 e8 52 91 3b c5 3a 85 3d 8b 78 b1 3d bd 34 9b bd
       0.004434932 0.0650535 0.0866557 -0.075784184
000070 7f e8 71 3d ce f5 0f be 86 95 01 3d c0 90 b5 3d
       0.059059616 -0.14058611 0.031636737 0.088654995
000080 26 c4 4f bd d3 20 95 3e 44 17 54 3d fc 7a 1d 3e
       -0.05072417 0.29126605 0.05178 0.15378946
000090 c0 2e 18 3e 4c 44 e6 3d d8 54 98 bd c0 cb 2a bc
       0.14861584 0.11243495 -0.07438058 -0.010424554
0000a0 e8 6b 1e be 01 14 8c ba d3 d0 ad 3d 30 37 7d 3c
       -0.1547085 -0.0010687114 0.08487096 0.015455052
0000b0 bf 09 dc 3d 95 44 b1 3c b3 20 05 3e 93 49 8a bc
       0.107440464 0.021639148 0.13000755 -0.016880786
0000c0 68 9c 58 bd fb 85 c5 3d 02 59 9a 3b 7c 72 d1 3b
       -0.052883536 0.09644695 0.0047103176 0.0063918214
0000d0 ed f3 92 3d e9 df 30 3e 98 ac 54 3d 5d f3 67 3a
       0.071754314 0.17272915 0.05192241 0.00088482146
0000e0 35 f9 ea 3c d9 92 09 3e 21 96 96 3c 3e 87 b5 3c
       0.028683284 0.13434924 0.018382134 0.022159215
0000f0 a9 65 3d 3c 78 6e cd 3d 3b cb 85 3d 75 d6 de 3d
       0.011559882 0.10030836 0.06532904 0.10880748
000100 16 e9 18 3e 08 ae 65 3d c4 40 ed 3d 3e ad 2c bd
       0.14932665 0.056074172 0.11584619 -0.042157404
000110 51 7e b6 3d 7e 60 5e 3c b1 1d 86 bd 12 43 8e 3d
       0.08910812 0.01357281 -0.06548632 0.069463864
000120 be 68 61 3c 56 fb bf 3d 98 b5 d3 bc 88 53 22 3e
       0.013757883 0.093741104 -0.025843427 0.15852177
000130 4b 0b 6c bd a5 85 51 3d e2 1e 81 bd 82 95 f2 3d
       -0.057627957 0.051152844 -0.063047186 0.118449226
000140 7a 30 d8 bd 46 3e a0 3d f5 b6 fe 3d 10 25 c5 bd
       -0.10556121 0.07824378 0.1243724 -0.0962621
000150 9d 2e a9 bd d1 08 4a bd 83 20 99 3d 7a 8c 96 bd
       -0.08260844 -0.049324814 0.07476904 -0.073510125
000160 88 77 7c 3d 88 af f0 3d 5d 59 18 3d 57 8f 22 bd
       0.06163743 0.1175223 0.0371946 -0.03968748
000170 0c 45 ed bd ea 87 f3 3a dc b0 ee 3d 43 63 99 3d
       -0.11585435 0.0018579934 0.11654827 0.07489636
000180 4d e4 ab bd ea 69 7c 3d 54 16 69 3d 31 a2 ac 3e
       -0.08393154 0.061624445 0.05690606 0.33717492
000190 84 48 94 be 2e de 7b 3d f6 d4 cd 3c 6d c4 2d 3e
       -0.28961575 0.061491184 0.025125962 0.16969462
0001a0 16 0d b8 bd 08 ee 91 3b 67 06 78 3d 7c bd 6b bd
       -0.08986871 0.0044534244 0.06055298 -0.057553753
0001b0 bd f6 fc bc 0f 95 9c bc 06 c6 c7 3c 6f 88 84 be
       -0.030879373 -0.019114045 0.024386417 -0.2588534
0001c0 ae ec fb 3d ec 9a b1 3b 9d 3c b2 3d 43 eb 1e bd
       0.123010024 0.0054200795 0.08702967 -0.03879858
0001d0 5a d9 72 3d 63 25 06 3d 73 f9 9e 3d 28 a2 36 3d
       0.059289314 0.0327505 0.077624224 0.044588238
0001e0 93 bc 67 3d 2f b8 0f 3d e6 56 a9 be ce 43 63 3d
       0.056576323 0.03508776 -0.3307411 0.055484585
0001f0 54 b3 51 bd 60 01 39 3c 34 65 89 bc dd a5 34 bd
       -0.05119641 0.011291832 -0.01677189 -0.044103492
000200 39 d5 ca bd 19 86 98 bc 96 0a 31 3e e0 ef b6 3b
       -0.0990395 -0.01861863 0.17289194 0.0055827945
000210 51 ae 03 3d 63 95 a2 be 46 71 e7 3d e5 0b 93 bc
       0.032148663 -0.31754598 0.11300902 -0.017950008
000220 8a d9 2e bd 6b 21 9d bd 5d b1 0a bd 84 1e c3 bb
       -0.04268793 -0.076723896 -0.033860553 -0.0059545655
000230 44 ad 08 be 4e 04 68 3d 58 d1 a3 bd 47 4e c2 3d
       -0.13347346 0.05664473 -0.079989135 0.094875865
000240 11 be 96 be 7b 75 a5 bc e5 b1 76 3d 77 04 ce bc
       -0.29441884 -0.02019762 0.060228247 -0.025148613
000250 1e 6c b8 3c b7 9a 9e 3d 5f 60 8e 3d e8 e5 31 bb
       0.022512492 0.07744353 0.06951975 -0.0027145091
000260 90 85 06 bb 63 73 cf 3c 22 ec 23 bd 35 7b bd be
       -0.0020526387 0.025323575 -0.040020116 -0.37008062
000270 d1 00 d3 bd 01 44 a2 bb ce 5b b7 3c ea 2e 10 bd
       -0.1030289 -0.0049519544 0.022382643 -0.03520099
000280 5d c6 01 3d bb 21 7c 3d 74 b6 83 3d 75 a8 d9 bb
       0.031683315 0.061555605 0.064312845 -0.006642396
000290 01 ed 3b 3d 4a 87 eb bd 3b e4 79 be 1e fc 0c 3d
       0.04588032 -0.11500414 -0.2440347 0.034420125
0002a0 e3 21 91 3d 3e 18 f2 b9 35 0f 5e bd 17 dc 49 3d
       0.070865415 -0.000461759 -0.05421372 0.04928216
0002b0 f5 4e 69 bd 65 02 bf bd 90 6b ca 3c f9 03 a0 3c
       -0.056960065 -0.093266286 0.024709493 0.019533144
0002c0 b7 74 73 bc 9f 60 d0 be 82 54 08 3c bc 8e 3a bd
       -0.01485937 -0.40698716 0.0083209295 -0.04554628
0002d0 75 7a 54 bd 2f 6f cd 3d 90 6f 85 bd 64 19 03 bd
       -0.051874597 0.10030972 -0.065154195 -0.032006636
0002e0 a4 25 ee ba e5 2f ce bc e9 9f 89 3d 34 ec 50 3d
       -0.0018169177 -0.025169322 0.067199536 0.05100651
0002f0 63 c1 89 be 74 89 8a bd 41 50 fa 3b 68 f7 a0 bc
       -0.26905355 -0.06764498 0.0076389615 -0.019649222
000300 07 2d 2a bc be a9 06 bc 5b b8 65 3d cc ee 87 bc
       -0.010386712 -0.008219181 0.05608402 -0.01659336
000310 99 75 7f bc 13 27 12 bc dc 7f d4 bd b0 7b 04 be
       -0.015592002 -0.008920449 -0.1037595 -0.12937808
000320 fc 77 94 be 75 78 0b 3d 5f 13 e3 bd 04 18 a1 bd
       -0.2899779 0.034050424 -0.11087679 -0.07865909
000330 b1 57 e2 3d 2d 5c ba bd d0 c0 2e 3d 03 33 f0 bd
       0.11051882 -0.090996124 0.04266435 -0.1172848
000340 16 f7 83 bd 6d ab e7 bd 1e eb 1d bb b7 3b 41 be
       -0.06443612 -0.11311994 -0.002409644 -0.18870436
000350 d8 e1 01 bd 69 e1 3a 3d 61 2f 97 3d f8 9a 98 bd
       -0.031709522 0.045625124 0.07382084 -0.07451433
000360 48 84 bd bd 3d 4c 12 3d 2e a5 1b bc a7 2f d4 ba
       -0.09253746 0.035717238 -0.009499831 -0.0016188518
000370 7e a2 0e be 7d 62 02 3d ad b9 e0 bd 72 9c 0c be
       -0.13929173 0.031832207 -0.10972915 -0.13731554
000380 38 78 14 3b 30 b4 92 bc 60 79 38 3d cd 4b 72 bd
       0.0022654664 -0.017908186 0.045037627 -0.05915432
000390 43 10 c1 3d eb e0 e1 bc 7a 07 ac bc 40 91 9c 3d
       0.0942693 -0.02757307 -0.020999659 0.07644892
0003a0 09 c0 14 be e7 07 8f 3d c2 bc 70 3d eb b7 0d be
       -0.1452638 0.06983929 0.058773763 -0.1383969
0003b0 c9 63 d5 bb 05 b5 f4 bd c9 35 e4 bd 16 e3 e4 bd
       -0.0065121395 -0.11948589 -0.11143071 -0.11176126
0003c0 89 ee 45 3d 61 37 52 3d 7f 60 e7 3b 66 57 af 3d
       0.048323188 0.051322345 0.007061064 0.08561592
0003d0 61 a2 50 be 9c 82 16 bd 7d 80 9f 3d e2 64 fb bd
       -0.20374443 -0.036745653 0.07788179 -0.12275101
0003e0 9b 85 3f bd c6 fb 1e bb 1e b8 d2 bd d8 e8 de bd
       -0.046758275 -0.0024258955 -0.10289024 -0.10884255
0003f0 96 01 b4 bd 45 71 ee bd 43 3a cd 3c 95 39 90 be
       -0.08789365 -0.11642698 0.025052195 -0.28168932

fc1.bias f4 [84]
000000 ee 16 a1 bd ff d0 c7 3f 79 f7 90 be 24 8c 48 40
       -0.078657016 1.5610656 -0.28313807 3.1335535
000010 a5 dd 3a bf de 82 41 bf cf 5c a2 3f d8 88 9d 3d
       -0.7299445 -0.7559031 1.2684573 0.076921165
000020 23 42 4a bd bb a0 af 3f 8d 25 2a c0 3f 46 86 be
       -0.04937948 1.3720926 -2.658542 -0.2622547
000030 ac a5 c1 3f 6d 25 36 3f d1 e0 83 3f 0a d4 5a bf
       1.5128684 0.7115086 1.0302984 -0.85479796
000040 4f 31 8d be c6 28 b7 bf 54 f5 82 3e 9f 32 3a 3f
       -0.27576682 -1.4309318 0.25577796 0.7273349
000050 94 38 4a bf 6e 95 15 bd 25 6c 64 3f 81 18 c0 bf
       -0.7899258 -0.03651946 0.89227515 -1.5007478
000060 47 07 9d 3f be 88 e3 be 59 78 33 bf 45 85 03 bf
       1.2267846 -0.44440264 -0.7010551 -0.5137523
000070 90 16 b1 3f 84 91 ab 3e de 10 52 bd 70 ad db bf
       1.383501 0.33509457 -0.051285617 -1.7162304
000080 99 b6 43 bf 81 5f 0d be 58 5d 3f bf 0a 5e 7f bf
       -0.76450497 -0.13805963 -0.74751806 -0.9975287
000090 ef a1 a1 3f 18 13 21 40 b5 cb d1 3d e2 57 93 3f
       1.2627543 2.5167904 0.10243932 1.1511195
0000a0 85 e6 04 be 4d 4c b1 3f d9 55 71 3f d1 11 ca be
       -0.12978561 1.385141 0.9427162 -0.39466718
0000b0 99 7f d9 bd 9f 0e d8 3d 24 bd 9b bf f2 fd c7 bf
       -0.106200404 0.10549664 -1.2167096 -1.5624373
0000c0 72 4f 71 bf e7 b5 9d bf e1 b8 de 3d 36 56 1a be
       -0.9426185 -1.2321137 0.108751066 -0.1507195
0000d0 89 08 41 3f 42 ba d4 bf cc a5 30 3e ae 56 84 3f
       0.7540365 -1.6619341 0.17250746 1.0338953
0000e0 72 5a 17 3e c6 60 da bd da 64 c2 3e 31 3e 04 3f
       0.14780596 -0.10662989 0.3796757 0.51657397
0000f0 c8 46 fd be c0 da 32 bd fd b8 11 3f c6 b9 4c bf
       -0.49468064 -0.043665648 0.56922895 -0.7997097
000100 85 db 24 40 c8 0f 11 3f 5a f9 40 bf cd 04 e6 3f
       2.5758984 0.56664705 -0.7538048 1.7970215
000110 a0 33 f3 be c9 44 57 3f 51 a6 75 bf 08 fb 95 bf
       -0.47500324 0.8408933 -0.95956904 -1.1717234
000120 1f dd be bc 14 a1 28 3e fe d3 82 3f 1a 4a 1a 3d
       -0.023298798 0.16467696 1.0220945 0.037668325
000130 ec f5 71 3e 10 de 28 3e fa a7 f6 3f 8f e1 19 3e
       0.23628968 0.1649096 1.9270012 0.1502745
000140 b1 40 19 bf c4 87 7b bf 2b 78 14 3f 91 e5 03 bf
       -0.59864336 -0.98254037 0.5799586 -0.51522166

fc2.weight f4 [10, 84]
000000 7d 0e 61 3f db 50 e9 bf d1 da b3 be df a9 fe be
       0.8791273 -1.82278 -0.3512788 -0.49738976
000010 cf 92 ae 3f d0 46 93 3f 7e 9d 8d bf 75 62 1c 3f
       1.3638552 1.1505985 -1.1063688 0.61087734
000020 ad c0 89 bf cd 77 4b bd e8 6e 63 3f 65 02 c4 be
       -1.0761925 -0.049674798 0.88841105 -0.38283077
000030 b9 ca 50 be d1 06 2c bc 27 21 5c bf 12 94 3d 3e
       -0.20389833 -0.010499672 -0.85988086 0.18513516
000040 4e 12 9d 3f 8a 3d 2f 3f 23 8e c0 be ca 19 55 bd
       1.2271211 0.68453276 -0.37608442 -0.052026547
000050 aa e9 a3 3e af dc 94 3f 31 11 0b 3c 14 34 03 3f
       0.3201421 1.1629847 0.0084879855 0.5125134
000060 59 10 c6 bf 71 b5 75 3f 13 3c b8 3f a8 ce 84 3f
       -1.5473739 0.9597998 1.4393333 1.0375566
000070 30 61 db bd 07 a4 a1 bc 77 94 79 bf 2f c1 9a 3f
       -0.107118964 -0.019731535 -0.97492164 1.2090205
000080 d1 31 a8 3f 1b 77 49 bf 10 82 52 bb a4 a9 62 3f
       1.3140203 -0.78697366 -0.003212098 0.885401
000090 5d e6 a6 be 82 47 95 be 03 2e df bd a4 2e 94 be
       -0.32597628 -0.2915612 -0.10897448 -0.28941834
0000a0 a7 cb 2b 3d 19 49 80 bf 3b 63 c8 be 7e 38 11 3f
       0.041942265 -1.0022308 -0.39138207 0.56726825
0000b0 ad fa 8e 3f 06 7a 72 3f 34 cd 2a 3e 4c 7f ba 3f
       1.117025 0.94717443 0.16679841 1.4570098
0000c0 22 28 58 3d e5 eb 56 3e 71 41 63 3f f8 a0 33 bf
       0.05277265 0.20988424 0.8877173 -0.70167494
0000d0 cd 09 08 bf 57 42 ae 3e 45 3e 39 3f 21 30 bb bf
       -0.53139955 0.34034988 0.7236064 -1.4624063
0000e0 c7 60 9b bf 09 50 92 3d 6f 5c 5c 3e d8 11 07 38
       -1.2138909 0.07144172 0.21519636 3.2203126e-05
0000f0 ec 4b aa 3f 7f a1 86 bf 1f 09 a3 bd d4 92 01 3d
       1.330442 -1.0518035 -0.07960724 0.031634167
000100 f9 ea 8e be 52 28 a1 bf ef 5b 88 3f 81 b2 ab bf
       -0.27913645 -1.259043 1.0653056 -1.341385
000110 be 2f 19 be 3b 2c 0f bd 12 2b 1d 3e c9 93 0e 3e
       -0.14959618 -0.03495429 0.15348461 0.13923563
000120 8c 7c 4c 3e b4 97 97 bf 9a 25 e7 be 27 2d 74 3f
       0.19969386 -1.1843171 -0.45145875 0.95381397
000130 d6 89 93 bf bd e0 93 bf 91 27 7f bf 18 69 8a bf
       -1.1526439 -1.155296 -0.9966975 -1.0813322
000140 5b 7c fa 3d a8 e4 89 3d 11 9f f3 be 2f 17 27 be
       0.1223075 0.06733066 -0.47582296 -0.16317438
000150 27 53 38 bf 89 84 86 3e e9 2e 6e 3f f2 e2 b9 3d
       -0.7200188 0.2627299 0.9304033 0.090764895
000160 c8 b9 eb be bc d4 fb be 05 c6 95 3e 1f 95 f8 be
       -0.46040177 -0.4918574 0.2925264 -0.4855127
000170 8d dc 3f 3f 2d 70 e1 be c8 00 ce bd 63 93 46 3f
       0.7494591 -0.44030896 -0.10058743 0.77568644
000180 fe 3f 32 3e f8 56 a2 be ae eb b1 3e 73 6d 8d be
       0.17407224 -0.31706977 0.34750122 -0.27622566
000190 6b 54 0c bf 93 c8 9d be cd ec 06 3f 31 48 87 bf
       -0.5481631 -0.30817088 0.5270508 -1.0568906
0001a0 e8 ee bc be 22 c8 2c bf 87 21 96 bf 58 0a 3b be
       -0.3690102 -0.6749288 -1.1728982 -0.18265665
0001b0 0f f3 9c 3e 89 df f5 be 1d 4c 02 bf 01 c4 08 bf
       0.3065419 -0.48022106 -0.5089739 -0.5342408
0001c0 dc 17 33 be 78 ca 81 3e 2f 6c 3d 3f be 47 6b be
       -0.1748957 0.25349784 0.739932 -0.22976586
0001d0 a1 ea c9 be 50 2f 21 3f ed bf 8d 3f 18 94 bf be
       -0.3943682 0.6296282 1.1074196 -0.37417674
0001e0 f2 c1 92 3e a5 ed 88 3d e1 9e aa bd ef a2 b1 bf
       0.28663594 0.06685952 -0.08331085 -1.3877848
0001f0 dd 37 d3 be e9 e0 c5 3e 80 be 9a 3e 4e 5f 05 bf
       -0.41253558 0.38648155 0.30223465 -0.5209855
000200 c3 c6 39 bf 5c 16 42 bf 0d 74 c7 3f ce b6 7d be
       -0.7256891 -0.7581537 1.5582291 -0.24776766
000210 22 71 97 3e 12 32 90 3f fb f6 49 bf 5e b2 1e 3f
       0.295785 1.126528 -0.7889249 0.61990917
000220 65 74 cb 3e ea d1 01 be d2 fe 6d bf 7a 01 cc 3e
       0.3973724 -0.12677732 -0.9296695 0.39844877
000230 41 fa 15 3f a1 46 06 3e f3 92 69 bf 57 e6 85 3e
       0.5858498 0.1311288 -0.9123985 0.26152298
000240 0b 43 08 bf 79 b5 38 3f ab 8d 62 3e d9 56 27 3f
       -0.532273 0.72151905 0.22124355 0.65366894
000250 64 c1 b8 3d c6 21 05 3f de a8 fb be 83 89 1f 3e
       0.09021261 0.5200466 -0.49152273 0.155798
000260 62 fa 82 3f ca cf 43 bf 13 f0 94 3f 5e 53 dc 3e
       1.0232661 -0.76488936 1.1635765 0.43032354
000270 d7 d3 09 bf aa 0e 35 3f 6e 9a 6b 3e bc e8 1d bf
       -0.53838867 0.707255 0.23008129 -0.6168325
000280 ea a7 0d 3f 37 e5 2b 3f c9 a1 81 3e 61 d3 31 3f
       0.5533434 0.6714663 0.25318745 0.69463164
000290 2e 61 23 3e c6 11 ef 3e 92 94 e2 3e a2 ce 7b 3f
       0.1595504 0.46693248 0.44253975 0.9836217
0002a0 63 60 b8 3e 0d 48 0f 3f bd 3b bc be a3 77 3e c0
       0.36011037 0.55969316 -0.36764327 -2.976052
0002b0 af be 35 3c 18 8b 01 bd 33 eb b8 bd 49 b7 6b 3e
       0.011092826 -0.03162679 -0.09029236 0.23019136
0002c0 e0 99 dd be 8b 00 44 3e 1f 8a 04 3f 1d cf cb be
       -0.4328146 0.19140832 0.51773256 -0.39806452
0002d0 59 17 6e bf 23 4a 80 3e d0 78 7e be 99 e8 4c 3f
       -0.93004376 0.25056562 -0.24850774 0.80042416
0002e0 d7 30 4f 3e d2 ed 29 3f 64 1e be be 65 4e 41 3e
       0.20233475 0.6637851 -0.3713256 0.18877561
0002f0 77 a3 4a 3f 57 07 ae 3e 89 67 a0 3d 15 2d a8 3f
       0.7915568 0.33989975 0.07832248 1.3138758
000300 08 58 70 3e a7 ad 76 3e bb b2 d0 3d 97 0f 52 3d
       0.23471081 0.2408968 0.1019034 0.0512844
000310 db db 04 3e c8 09 f9 be f8 a7 b8 be 5e 8b 54 be
       0.12974493 -0.48640275 -0.3606565 -0.2075629
000320 a8 ad 6e 3c 58 5d c5 be 66 de 38 be 85 55 29 3e
       0.01456777 -0.38547778 -0.18053588 0.1653653
000330 23 cb 8b bf 1e bc dd bf 5b dd 40 3e 6a a2 8f 3c
       -1.0921367 -1.7323034 0.1883444 0.0175335
000340 ab f0 eb 3e 90 f9 1f be 75 46 57 bf f7 da a2 3e
       0.46082053 -0.15622544 -0.84091884 0.31807682
000350 5f 39 b0 3e d1 27 e5 3e ce 02 fb bd ea 20 a8 be
       0.3441877 0.4475694 -0.12256394 -0.3283761
000360 fd cf 23 be 8e c3 c4 bd 2f 9b f0 3e a4 86 c1 be
       -0.1599731 -0.096076116 0.46993396 -0.37798035
000370 25 64 e8 be 68 ea d2 3f 3e 4b 04 3f be 20 50 3e
       -0.45388904 1.6477785 0.5167731 0.2032499
000380 48 dc 98 be b1 6f 50 be 3b 4c 7f 3e b8 a4 d1 be
       -0.2985556 -0.20355107 0.24931423 -0.40945983
000390 aa 3f ab 3d 03 87 c7 be 59 7b 00 bf 0d d1 e7 bd
       0.08361752 -0.38970193 -0.50188214 -0.1131917
0003a0 90 60 ce bf 07 d7 02 be 94 cb cc 3d 85 a4 d0 3e
       -1.6123219 -0.12777339 0.09999767 0.40750518
0003b0 46 20 8e be d7 31 04 3e ca 4b 9f bb 0a 27 18 be
       -0.27758998 0.12909637 -0.0048613297 -0.14858642
0003c0 2f e7 d2 3e 71 c8 8a be 32 9a 74 bf da 87 b8 3e
       0.41192004 -0.2710605 -0.95547783 0.36041147
0003d0 f6 29 8f be 82 87 9a be bf d7 88 be f6 e4 9f be
       -0.279617 -0.3018151 -0.267271 -0.3122937
0003e0 eb 56 5e be e8 52 56 be 0b f5 ac be 79 11 66 be
       -0.21712844 -0.20930064 -0.33780703 -0.22467603
0003f0 51 19 ac 3d ed 2a 12 3f 45 a2 4b be fc 93 f4 3f
       0.08403266 0.5709675 -0.1988612 1.9107661

fc2.bias f4 [10]
000000 78 64 38 bf bd a1 4b be 2f ed 0c bc a2 ac 41 3e
       -0.72028303 -0.19885917 -0.008601471 0.1891351
000010 90 86 bb 3e 52 9a 04 3e 65 2b 5c be 5b 81 ea bc
       0.366261 0.12949494 -0.21500929 -0.028626135
000020 e6 c9 06 be 31 e1 f9 3e
       -0.13162956 0.4880462
