models/mnist_lenet_w_pretrained_le_kernels_w_acc_98.pt (torch_old, 209599 bytes, 10 tensors)

conv1.weight f4 [6, 1, 5, 5]
000000 87 2f 33 be f4 7b f5 bb d5 cc 2c bd 10 3c a0 3d
       -0.17498599 -0.007491583 -0.04218753 0.07823956
000010 31 7c 80 be 0c 93 a0 3e 94 ea ad bd 8d ae c6 3c
       -0.2509475 0.31362188 -0.08492008 0.024253154
000020 b3 c4 26 3e 04 64 04 bd 2f df 26 3f 58 d3 dd 3d
       0.16285972 -0.032321945 0.651843 0.10831326
000030 98 59 ba 3e 01 cd b5 3e ed 60 0d bd 66 4c ae 3e
       0.3639648 0.35507968 -0.034516264 0.34042662
000040 64 49 05 3e 67 8e 58 3e 68 69 f1 3e 01 4b a8 bd
       0.13016278 0.21148072 0.4715073 -0.08217431
000050 87 bc df bd c8 77 29 be 52 bd b6 3c 28 e5 c4 bd
       -0.109246306 -0.16549599 0.022307072 -0.096140206
000060 66 18 57 be 62 f7 cf 3d 67 10 a7 3d a5 dc 8f 3d
       -0.21005401 0.101546064 0.081574254 0.070245065
000070 22 24 77 be f5 f5 41 3e da 70 3f 3a 7c 6a c6 3e
       -0.24134877 0.18941481 0.0007302888 0.38753116
000080 02 f2 92 3e ed da b0 be 78 33 7c bd 3e be 0a be
       0.28700262 -0.34542027 -0.061572522 -0.13549134
000090 59 13 8a 3e b9 67 f4 3d 26 c4 11 be a8 42 06 be
       0.26967886 0.11933846 -0.14234981 -0.13111365
0000a0 32 71 26 3d 93 fd 08 be 4c 8b 33 bd 3e 5a d3 bd
       0.040635295 -0.13377981 -0.043834016 -0.10319947
0000b0 26 8b 7f be 57 01 76 3e 7e 33 58 be fa 21 a3 be
       -0.24955425 0.24023949 -0.21113393 -0.3186186
0000c0 43 76 93 bc c4 f8 b8 bd 46 7d 97 be b0 fc 78 be
       -0.018000728 -0.09031823 -0.29587764 -0.24315143
0000d0 bf 23 24 3d 65 7d 07 3d 67 be a4 3e ff e9 53 3e
       0.040073153 0.03307857 0.32176515 0.20694731
0000e0 48 fe 3b 3d 79 39 3d bd 43 fd a3 3e 84 72 b0 3e
       0.0458968 -0.04619739 0.3202916 0.34462368
0000f0 69 c9 9d bd 2d 14 5c 3d 59 50 88 3e 2b ad 8a 3e
       -0.077044316 0.05373018 0.266238 0.27085242
000100 e3 0d e4 bd 5e e4 10 3d 42 1a 99 3d 80 a5 09 3e
       -0.11135461 0.035374038 0.074757114 0.1344204
000110 0e 42 38 be 0a 9a 70 be 35 7b a9 3e 3f 63 2f 3e
       -0.17993948 -0.23496261 0.33101812 0.17127703
000120 8f 76 8e 3e 64 ed 18 3e bb 44 52 bd ae 44 4b 3e
       0.27824828 0.14934307 -0.051335078 0.19850418
000130 37 ad 32 3e 9b f6 26 3e 55 d4 90 bd 4c 2f 02 3e
       0.17448889 0.1630501 -0.07071749 0.12713355
000140 3b f1 77 be 02 ac 5f bc c2 a7 f3 3d 36 9a 10 3e
       -0.24213116 -0.01365185 0.11897232 0.14121327
000150 d5 fe 93 3c d9 7f f8 be ca 83 88 be b0 0b 7f bd
       0.01806585 -0.4853504 -0.26663047 -0.062267005
000160 ab 71 f8 bc b0 af 86 3d 5d 69 f2 bd ed af ed be
       -0.030327639 0.065764785 -0.11836503 -0.46423283
000170 49 62 07 bf dd 77 5e be 1f 97 9b bd 99 37 9e 3e
       -0.52884346 -0.21725412 -0.075971834 0.30901793
000180 ba aa 86 3e 49 85 16 3e fa 97 b7 bd c1 b5 1d be
       0.2630213 0.14699282 -0.08964534 -0.15401365
000190 39 12 ca 3c 7d d6 25 3e ec 64 c8 3c 02 2b 17 3e
       0.024666892 0.16195102 0.024462186 0.147625
0001a0 59 22 bc bd 5c f2 43 bd 78 59 b4 3e 14 76 06 3e
       -0.09186239 -0.047838554 0.3522451 0.1313098
0001b0 03 0e a8 3e 05 82 84 3e 98 be 06 3d f3 fc c0 3e
       0.3282319 0.25880447 0.032896608 0.37692985
0001c0 8b b7 96 3e a8 89 a7 3c fd 97 45 3c d5 51 4f 3c
       0.29436907 0.020451382 0.012060163 0.012653788
0001d0 9f f5 83 3d e8 6a 06 bd 59 f4 2b be b6 ff a5 be
       0.06443333 -0.032816797 -0.1679243 -0.32421654
0001e0 50 fa 55 be e3 66 33 be 40 7a 1d be 53 70 0a be
       -0.20896268 -0.17519717 -0.15378666 -0.13519411
0001f0 05 ac 0c be d8 29 e8 bd c1 80 fe be 3e 0a cb bd
       -0.13737495 -0.11336106 -0.49707606 -0.09914063
000200 f2 a5 76 3d 03 c9 b0 3d 4b 25 86 bd b0 5a 65 3d
       0.06021685 0.0863209 -0.06550082 0.05599469
000210 22 f2 4b 3e f8 ed 8a 3e b6 dc a1 3e 51 43 b2 3e
       0.19916585 0.2713468 0.31613702 0.34816983
000220 d4 ce 34 3e 00 42 7b 3d de d9 c6 3c 71 14 0d be
       0.17657024 0.06134224 0.024273809 -0.13777329
000230 e5 fe 50 be c8 1b bf 3d 33 b1 2a 3d 07 4f 06 3e
       -0.20409735 0.09331471 0.041672897 0.13116084
000240 cd a3 31 3d 88 0c b0 be e0 87 3b 3c 8f ed 84 3c
       0.043369103 -0.3438456 0.011445969 0.016226558
000250 f6 91 1c 3e 0d c1 2d bd
       0.15290055 -0.042420436

conv1.bias f4 [6]
000000 35 89 65 be a2 aa 0b 3f 05 fb 30 bd cb b9 85 be
       -0.22415622 0.5455724 -0.04320814 -0.2611831
000010 7d 74 f5 be 23 f3 e8 be
       -0.47940436 -0.45498

conv2.weight f4 [16, 6, 5, 5]
000000 5f eb 2c be bd ea 2b be bd a8 e9 bd 64 72 f0 bc
       -0.16886662 -0.16788764 -0.114091374 -0.02935142
000010 a0 a2 dd 3d 0c a6 87 3d dd e0 2a bd 06 e3 54 3d
       0.10822034 0.06623468 -0.041718353 0.05197432
000020 97 1e b4 3c 41 bc 0f 3e 7b 68 58 bd 3a 09 85 3d
       0.021987243 0.14036657 -0.052834015 0.064959005
000030 04 b2 77 3e e5 0d 77 3e 88 44 c8 3d 81 95 a3 3d
       0.24189001 0.24126394 0.09778696 0.079875
000040 52 ba f5 3b 6b e1 ff 3d 16 47 d9 3d 3d f9 35 3d
       0.0074990178 0.12494167 0.10609262 0.044427145
000050 b3 3a 86 3b 1c ed 45 3c 91 1f ac bc ba a1 0f 3d
       0.004096353 0.012080457 -0.021011146 0.035066344
000060 33 0e bd bd 42 bd 52 bd ae 9e f5 bd 74 92 ba 3c
       -0.09231224 -0.05145002 -0.119931564 0.022774912
000070 98 82 c5 3b 37 a7 59 bd 3d d1 1a be b2 3d 08 be
       0.006027531 -0.053137984 -0.1511888 -0.13304785
000080 72 9f fc bd 14 c9 87 3c c6 1e 94 3d 34 60 3c 3d
       -0.12335099 0.016575374 0.07232432 0.045990184
000090 c6 c9 77 bd a8 70 a0 bd 90 64 cf 3d f8 d0 80 3d
       -0.06049516 -0.078339875 0.10126603 0.062898576
0000a0 61 32 23 be 90 ac 81 bc 48 05 a7 3d 00 1d cc bd
       -0.15937187 -0.015829355 0.08155304 -0.09966469
0000b0 76 1a 4f bc 73 0d bd bd b5 df 14 3c 16 13 19 3b
       -0.012640586 -0.09231081 0.009086539 0.0023357323
0000c0 e6 da 41 3c 4a 44 29 3d cb 73 a6 3d b5 a5 2b bd
       0.011831975 0.04132489 0.081275545 -0.041906077
0000d0 c7 75 a8 bd 2a a9 b5 bd 0e 90 74 ba 80 bc fd bd
       -0.08225589 -0.08870156 -0.0009329327 -0.12389469
0000e0 2b ad 68 be 0b c7 45 be 11 ee a8 3d 0b 69 8b bd
       -0.22722308 -0.1931421 0.082485326 -0.06807145
0000f0 6e 5a 4d bd f7 c9 95 bd e0 d9 a2 bd b4 9a 83 bd
       -0.05013507 -0.07313912 -0.079517126 -0.06425992
000100 bd e4 6a be 64 58 e7 3d 80 8c 1f bd 7e bb de bd
       -0.22938819 0.11296156 -0.03895235 -0.10875605
000110 cc 50 88 bd ba c6 df bd 01 38 a5 bc 27 26 24 be
       -0.06656036 -0.10926576 -0.020168306 -0.16030179
000120 6e 2f c0 bc 6b 38 78 3d c9 44 b1 bd fb a4 17 bd
       -0.023460116 0.06060068 -0.08655698 -0.037022572
000130 c7 fa e8 3d ea 07 04 be b0 33 bf bd 96 c0 08 be
       0.11375957 -0.12893644 -0.093360305 -0.13354716
000140 7d 33 50 3d 6d 0b b2 bd c8 b4 e3 bd de 6d 49 be
       0.050830353 -0.086935855 -0.11118466 -0.19670817
000150 d4 6f 57 bc 2b b5 31 3d 93 f6 d4 bd 6c d9 1e be
       -0.0131492205 0.043385666 -0.10398593 -0.15512627
000160 90 d6 14 be af 38 bd 3d 49 58 57 bd a0 bc 28 be
       -0.14534974 0.09239327 -0.05257443 -0.16478205
000170 f8 b1 f9 bc 14 ca 72 3d ac 0f 06 3e 50 92 97 bd
       -0.03048037 0.059274748 0.13091916 -0.07400954
000180 30 df c0 bc e7 28 2b 3e 92 b4 61 3d 08 d3 fb 3c
       -0.023543924 0.16714822 0.055103846 0.030740276
000190 ed 4a 38 3d dc d3 bf 3b 57 f0 35 bd 05 03 08 3c
       0.04499333 0.005854113 -0.04441866 0.008301501
0001a0 58 30 42 3e a6 b0 76 3d 98 3a 2e bb 02 fc 44 3d
       0.18963754 0.06022706 -0.0026585218 0.048091896
0001b0 09 29 38 3d 20 ff 21 3e 92 b1 68 3d b7 39 16 be
       0.04496101 0.15819979 0.05680997 -0.14670454
0001c0 89 4a f7 3d d6 f5 1f 3e fc de cc 3d 62 e2 3b 3c
       0.12074763 0.15621123 0.100034684 0.011467548
0001d0 81 cd 42 3e a4 ff 24 3e 6d a5 4f 3d 05 93 54 bc
       0.19023706 0.16113144 0.05069487 -0.012974505
0001e0 71 2c b6 3d f1 e5 db 3d a5 a8 06 bd c2 2a d4 bd
       0.08895195 0.10737217 -0.032875676 -0.10359718
0001f0 cc 70 a1 bd fa ab a9 3c f4 42 86 3d 53 76 04 3d
       -0.078828424 0.020711888 0.06555739 0.032339405
000200 2e 19 a8 3d ec 18 5d 3d 45 1b 30 bd 87 ef 1f 3d
       0.08207928 0.053978845 -0.042994756 0.03904679
000210 f7 97 95 bd 3d 34 23 3d ec 6c e8 3a d5 44 41 3c
       -0.073043756 0.03984474 0.0017732657 0.011796196
000220 60 44 26 3c b3 4b b6 3c 70 37 00 3d be af 35 be
       0.010148138 0.022252893 0.03130287 -0.17742822
000230 59 ea 1b 3d 15 22 37 bb f3 45 53 3d 4c 59 e5 bd
       0.03806529 -0.0027943898 0.05158038 -0.11198673
000240 51 a9 3e be 56 8b 82 3d b7 11 87 bc a9 19 99 3c
       -0.18619277 0.063742325 -0.01648794 0.018688994
000250 81 0e 17 3d d5 8a 04 be 53 41 0c bd 3d 44 8d bd
       0.036879066 -0.12943585 -0.034241986 -0.06897781
000260 c0 fc 02 3e bc 64 7f 3e 9c 34 d3 ba ca 85 c7 bd
       0.12791729 0.24940771 -0.0016113701 -0.09742315
000270 07 be cd bd f6 5d 09 3e 58 de 90 3e a5 da 0e bd
       -0.100460105 0.1341475 0.28294635 -0.034876484
000280 e7 9a 07 bc a1 45 08 3e ff c8 2f 3e b0 ad 0a 3e
       -0.008276678 0.13307811 0.17166518 0.13542819
000290 eb 16 ac 3b ca b0 3a bd fe fe 54 3d 4d d1 e8 3c
       0.0052517555 -0.045578755 0.052000992 0.028420115
0002a0 92 fc bc 3c 30 ee d2 bd d1 d2 da 3c 63 af 66 3d
       0.023069654 -0.10299337 0.026711853 0.056319606
0002b0 df 64 2a 3d 89 d3 b7 bc 13 c3 2b 3c 9c 2b 64 3d
       0.041600104 -0.022439735 0.010483521 0.05570565
0002c0 d0 31 8e 3d e2 f4 eb bd cf 60 48 bd 65 16 61 bc
       0.06943095 -0.11521317 -0.04892045 -0.013738249
0002d0 5b fc 51 3c 1a b2 4d be e8 0a 59 3c 3c ae 44 bc
       0.012816514 -0.20087472 0.013247229 -0.012004431
0002e0 83 76 db bd 46 ea ed bd 3f 5d 0b be 42 e7 85 3d
       -0.10715964 -0.1161695 -0.1360979 0.065382496
0002f0 7e 51 35 bd 21 63 db bd 7b 8c 32 be 99 73 28 bd
       -0.04426717 -0.10712267 -0.17436402 -0.041125868
000300 ba 9f 89 bd ea 51 26 be 63 d7 fa 3d 49 cd 01 be
       -0.067199185 -0.16242185 0.12248113 -0.12675966
000310 51 cf 1f bc 90 0b 50 bd 79 69 21 3d 63 30 2e bd
       -0.009754018 -0.050792277 0.039407227 -0.042526614
000320 0e a4 26 bd 9a 13 07 be 88 0c c3 bb bb 9e 9b 3b
       -0.0406838 -0.13191071 -0.0059524216 0.0047491468
000330 8e 06 50 be c7 54 60 be ea 06 06 be 69 22 b9 3d
       -0.20315 -0.2190734 -0.13088575 0.09039766
000340 4e ed e4 bc cd 51 55 be 43 53 31 be 5b c6 57 bd
       -0.027945187 -0.20831986 -0.17316918 -0.0526794
000350 68 a0 eb bc cb 55 ef bd d8 8d a1 bd 5b 5b db 3d
       -0.028763011 -0.116862856 -0.07888383 0.10710784
000360 3c f9 cd 3b 61 73 54 be 80 90 87 bc 49 5e 13 bc
       0.0062858146 -0.20747139 -0.016548395 -0.008994647
000370 ac 3b 2d 3d 90 9e cb bd 86 79 12 bd 2e 6c c9 3d
       0.042293236 -0.09942353 -0.035760425 0.09835087
000380 2e df 05 3c 05 61 91 3c 0c fc f8 3d 57 e8 67 3d
       0.008170886 0.017746458 0.12157449 0.05661806
000390 d6 45 87 bd e4 9b c7 bd 94 6a b1 3d aa 5f 69 3d
       -0.06605117 -0.09746531 0.08662906 0.056975998
0003a0 25 59 b6 bd c6 22 b3 be 8a 70 06 be be 3c 4b 3d
       -0.08903722 -0.34987468 -0.13128868 0.049618475
0003b0 1d 84 63 bd 4b d0 1d be e3 23 a7 3d 1a 36 09 3c
       -0.055545915 -0.15411489 0.08161142 0.008374715
0003c0 53 71 91 3c 02 3c b1 bd 52 0c c5 3c 56 ae 8c 3d
       0.017754233 -0.08654024 0.024053726 0.068691894
0003d0 4c 99 d9 3c af 5c 11 bd 28 ca 3f bd d1 3a 33 bd
       0.026562355 -0.03548878 -0.04682365 -0.043757264
0003e0 63 c5 17 bd d3 3e a2 3c bf 59 87 3d bb 4c 8e 3c
       -0.037053477 0.019805348 0.066089146 0.017370572
0003f0 1f d1 39 3e 2d 9a e9 3d 90 34 14 3e 2f b7 91 bd
       0.1814618 0.1140636 0.14473176 -0.071150176

conv2.bias f4 [16]
000000 af 25 86 be d1 06 51 be b6 c1 19 be ab 55 80 bd
       -0.26200625 -0.20412757 -0.15015301 -0.0626634
000010 73 15 8f bd 94 9b 2f be 06 32 4c be f0 5c 04 be
       -0.06986513 -0.17149192 -0.19940957 -0.12926078
000020 dd a8 19 be 91 58 53 be 53 66 75 be e2 62 1c be
       -0.15005822 -0.20639254 -0.23964815 -0.15272096
000030 49 bd bf bd 24 58 78 bd d6 37 71 bd a5 9a 12 be
       -0.09362275 -0.060630932 -0.05889114 -0.14316805

conv3.weight f4 [100, 16, 5, 5]
000000 66 2c ec bc 50 aa fb bb 08 f4 2c 3d a1 7f 81 bd
       -0.028829765 -0.007680215 0.042224914 -0.063231714
000010 20 a6 a2 bd 7a a3 25 3d 46 57 96 3d 56 10 12 3d
       -0.07941842 0.040439107 0.07340865 0.03566011
000020 ee a1 13 bd 44 cc b8 bc 12 ba 59 3d 84 42 5d 3d
       -0.0360431 -0.022558339 0.053155966 0.054018512
000030 69 1b 05 3d d4 65 61 bd 9a e8 0c 3c d0 ae 04 bc
       0.032496843 -0.05502875 0.008600378 -0.008098319
000040 f6 90 13 3c c9 36 3b bc d5 0f fe bc 19 56 37 3d
       0.009006729 -0.011426636 -0.031013409 0.044759843
000050 12 c9 ea bc f9 17 53 bd ee 39 d7 bd e4 f2 11 bb
       -0.02866033 -0.051536534 -0.10509096 -0.0022270018
000060 dc b3 92 3b ba b4 0f 3b f5 2b d3 bc 94 22 5c 3c
       0.0044770073 0.002192779 -0.025777796 0.013435978
000070 4c bc 13 bd 19 db 9a bd 3d 87 66 3c 22 93 08 3d
       -0.036068246 -0.07561321 0.014070329 0.03334344
000080 25 cc 2d bd 35 50 85 bd a8 48 8c bd a3 9f 5c 3d
       -0.042431016 -0.06509439 -0.068497956 0.05386318
000090 8c 38 8c 3d 4c 54 35 bc 0a 47 86 bd 2b 17 b5 3d
       0.06846723 -0.011067461 -0.065565184 0.088423096
0000a0 48 b3 ef bb 25 ec 35 3c 83 a1 f3 bb c5 3f e1 3b
       -0.007315073 0.0111036645 -0.007435025 0.006874057
0000b0 e5 e5 61 3d 91 e0 23 bd fb 92 4c bd 10 fe 83 bd
       0.055150885 -0.040009085 -0.04994486 -0.06444943
0000c0 bd 4f 01 3d 74 e8 fe bb fd b3 b1 3c 76 28 36 bd
       0.031570185 -0.0077791754 0.02169227 -0.04447218
0000d0 a5 f9 e4 bd 1c e0 83 bd a0 3f dc 3b d1 ab 91 bd
       -0.111804284 -0.0643923 0.006721452 -0.071128495
0000e0 fe 25 0e 3d 79 9d ba bd 09 60 87 bc da 10 45 3d
       0.0347042 -0.09112067 -0.016525285 0.048111774
0000f0 72 48 cf 3b fb 2f 66 bb fa c2 9f bd 9d 13 e5 bc
       0.006325775 -0.0035123813 -0.07800861 -0.027963454
000100 35 ed 71 3b dd 33 84 3c 21 6d 71 3d bd 27 46 bc
       0.0036915068 0.016138012 0.058941964 -0.012094435
000110 c4 ef 36 bd 13 06 06 3c 2e 42 ff bc e6 51 4b bd
       -0.044662252 0.008180159 -0.031159487 -0.04963865
000120 7b f4 ae 3c 27 8b 38 bd f9 f8 d0 3c ec 0a bf 3b
       0.021356812 -0.04505458 0.025509344 0.0058301594
000130 63 ab 60 3d ff e2 57 bd e6 f6 80 bd 4b f3 00 bd
       0.054850947 -0.052706715 -0.06297092 -0.031482022
000140 a7 9a 39 3d 7e 9f f2 bc 4a db 7e bd b2 73 a5 bd
       0.045313504 -0.029617067 -0.06222085 -0.08078708
000150 19 3b a7 bc 96 78 ec 3a 13 7c c2 bc 57 c4 c9 3c
       -0.020413922 0.0018041309 -0.023740804 0.024629755
000160 dd d8 59 3c eb 38 33 3d dd d9 b5 3b ed 32 43 3d
       0.013296333 0.043755453 0.005549653 0.04765599
000170 a3 f1 06 3d 7e a9 3f 3c 07 b4 0a 3b 96 27 1f 3d
       0.032945286 0.011698125 0.0021164434 0.03885611
000180 5c f9 c2 3c f4 eb 13 bd 9b a4 b4 bb 12 68 c4 3c
       0.023800544 -0.036113694 -0.0055127866 0.023975406
000190 06 d0 4f 3d 3d d8 2d bc 37 f9 87 bd 01 ce c2 bd
       0.050735496 -0.010610637 -0.06639331 -0.095119484
0001a0 0a 58 10 bd cc b1 70 bc 6c c8 51 bc 9a 29 b1 3c
       -0.03524021 -0.014690828 -0.012804132 0.021626282
0001b0 e3 f2 59 bd 19 01 50 bd 06 ec 10 bb 8c 64 10 bc
       -0.05321015 -0.050782297 -0.0022113337 -0.008813035
0001c0 39 c7 02 bc 6a 4f d0 3c 17 07 05 3d 96 a8 9b bb
       -0.007982069 0.025428493 0.032477465 -0.0047503216
0001d0 6d f2 7a 3d 35 11 fe bc 56 f4 5b bc 04 69 80 3c
       0.06126635 -0.031014064 -0.013424953 0.015675075
0001e0 cf 00 15 3c 25 a9 15 bd 18 84 06 bd 5e 9c 8c 3d
       0.009094431 -0.036538262 -0.03284082 0.06865762
0001f0 78 b2 0c 3e 46 25 5d 3c 50 a7 4d bc 3c dd 70 3d
       0.13739955 0.013497656 -0.012552097 0.058804736
000200 c2 df 22 bd 98 71 88 bd bf 62 51 3c c6 d1 98 3c
       -0.039764173 -0.06662291 0.012779891 0.018654715
000210 6b f7 96 3d 87 c8 a4 3d 9b 41 0e bd 5d c7 f9 bb
       0.0737141 0.0804606 -0.034730535 -0.007622643
000220 95 6a a0 3d 55 0b 13 3d 4e 2e 95 3d f4 71 02 bd
       0.07832829 0.03589948 0.072842225 -0.031846955
000230 be d9 da 3c f7 af 03 bc a4 c7 3b 3c b0 cf a6 bd
       0.026715156 -0.008037559 0.011461172 -0.08145082
000240 6a f0 ab bd 22 b2 4b 3d bf b2 e3 bc ad 2d 0f bc
       -0.08395465 0.049730428 -0.027795194 -0.008738917
000250 9f 03 eb bc 99 7a b8 bc f9 9a ca bc d6 7f bb 3d
       -0.02868825 -0.022519397 -0.0247321 0.09155242
000260 48 90 37 3d 29 6d af 3d 73 e1 7c 3c 33 6b b1 3c
       0.04481533 0.085657425 0.015434611 0.021657562
000270 7a 9f ec 3c af 67 06 bc b4 a3 22 3d 49 4a b8 bc
       0.028884638 -0.008203431 0.0397069 -0.02249636
000280 1b a3 1d 3c 12 26 8b bd 12 0b 51 3b 77 45 cf bc
       0.009621407 -0.06794371 0.0031897468 -0.025301678
000290 ab 63 b3 3c 83 ea 18 bb 56 ff a0 bd 07 78 03 bd
       0.021898111 -0.002333314 -0.078612015 -0.03209689
0002a0 a3 2f b9 3d b2 d0 32 3d 4b 43 db bc bc 68 83 3c
       0.09042289 0.04365606 -0.026765486 0.016041152
0002b0 4a 94 8c 3d 5a 50 85 3d ff 28 8c 3d 95 28 b0 3b
       0.068642214 0.065094665 0.06843757 0.0053759315
0002c0 db fc b9 3b 99 5c 88 bc 2f 68 cf bd 1d bb 98 bd
       0.0056758947 -0.016645717 -0.10127293 -0.07457564
0002d0 9a d0 97 3c c6 0d 2e 3d 83 76 13 3c ba b9 43 3b
       0.018532086 0.042493604 0.009000423 0.002986534
0002e0 39 f4 28 3c 77 3f 4c 3c ae b3 da bc f9 31 f4 bc
       0.0103121335 0.012466303 -0.026697006 -0.029808985
0002f0 19 66 7f 3d 09 b7 ec bb 6f 87 0a bd c9 4d 9d bd
       0.062353227 -0.007223968 -0.033820566 -0.07680852
000300 e7 43 13 3d c9 67 1e 3d 68 1c 02 bd 7e 26 08 bb
       0.03595343 0.038673196 -0.03176537 -0.0020774896
000310 b8 35 1a 3d d9 b7 2b bd 42 be b8 bc 3d f1 ec bc
       0.037648886 -0.041923378 -0.02255166 -0.028923625
000320 e8 52 5a 3c 86 6e c7 3d d8 45 71 3d d6 36 15 3d
       0.01332543 0.097378775 0.0589045 0.03642925
000330 f6 0e 19 bd 0e 84 2d 3d 9c fa 94 bd 2a 18 91 bd
       -0.037367783 0.042362265 -0.072743624 -0.07084687
000340 5a 67 8a 3b 66 0b ef 3c 8a d6 69 bd 01 16 73 bd
       0.0042237462 0.02918024 -0.057089366 -0.059347156
000350 34 4b 83 3d ea f0 97 bb 76 29 c2 bc a9 98 86 bd
       0.06410828 -0.0046368735 -0.02370141 -0.06572086
000360 cf b0 42 bd ec 22 97 3d ec b6 94 3c 3b 89 35 bd
       -0.0475319 0.07379708 0.01815363 -0.044320326
000370 8e 99 eb bb 71 e0 97 bc 6a 78 37 bd bd 6b 3a bd
       -0.007189936 -0.01853964 -0.04479257 -0.045512903
000380 bf 70 8a bd 37 96 28 3c f8 a9 1f 3b 74 37 be bc
       -0.06759786 0.01028972 0.0024362784 -0.023219801
000390 d3 f8 27 bb 2d 2b 30 bd 2e 79 a5 3b 16 5d 1e bd
       -0.0025630489 -0.043009926 0.005049846 -0.038662992
0003a0 c1 83 05 bc 7e 34 c8 3b fb e9 4f bc 3e 61 c4 3c
       -0.008149088 0.006109773 -0.012690063 0.02397215
0003b0 59 b9 13 bd 60 61 7a bd 7d 3a bc bc bb 38 4f bd
       -0.036065433 -0.06112802 -0.022977108 -0.05059121
0003c0 f3 1e 04 bd f2 08 ac bc 5c 88 da 3d 9c a2 ab bc
       -0.032256078 -0.02100036 0.1067054 -0.020951562
0003d0 f4 2a 45 3d 03 6d 15 3d 04 d0 6c 3d e2 80 8b 3d
       0.048136666 0.036480915 0.057815567 0.06811692
0003e0 b5 09 d5 3c 84 41 7d bc 78 03 b6 3b c6 04 d7 3d
       0.026005605 -0.015457515 0.0055546127 0.10498957
0003f0 51 14 01 3e 8f 41 16 3c 19 1a a4 bc 12 c0 b4 bc
       0.12605406 0.009170904 -0.020031976 -0.022064243

conv3.bias f4 [100]
000000 15 f4 f2 3b 68 09 09 3d 1c 43 96 bc ea ec 34 bc
       0.0074143508 0.033456236 -0.018342547 -0.011042813
000010 95 59 7e 3c 9a c6 f6 3c c5 d0 26 3d 3b 1a 0c 3d
       0.015524288 0.030123997 0.040726442 0.034204703
000020 4a 4b a4 ba 98 41 43 3d 13 f9 95 3b ed 57 f3 3c
       -0.0012534645 0.047669977 0.004576811 0.029705012
000030 9a 4e 4d 3d 80 71 60 bd 1d 88 7a bc 94 0a 9f 3c
       0.05012379 -0.054795742 -0.015291241 0.019414224
000040 06 25 5e bc ee 32 bc ba 2e ea a4 bc e7 73 ca bc
       -0.013558632 -0.001435844 -0.020131197 -0.02471347
000050 17 9e 22 bd a1 f1 a1 bb ef eb f8 3c c6 cf 0a 3c
       -0.039701547 -0.0049421345 0.03038594 0.008472389
000060 e6 d6 d2 3b 3d cb 5e 3d d7 d0 e1 bc 77 eb 8e ba
       0.0064343093 0.054393042 -0.027565403 -0.0010903914
000070 e6 65 ce b9 6e 45 cf bc 85 29 90 3c 6b 13 cd 3a
       -0.00039367302 -0.025301661 0.017597923 0.0015646046
000080 dc 52 03 3d e3 44 87 3c 23 8d 5e bc cd 7b df bb
       0.032061443 0.01651234 -0.013583454 -0.006820178
000090 97 8e ca 3c c6 d8 3f bd d4 f9 7e bc f9 c5 bf 3c
       0.024726195 -0.04683759 -0.015562493 0.02340983
0000a0 bf b8 18 bc 04 94 3b bc 3e b3 d1 b8 de de 7c 3d
       -0.009321391 -0.011448864 -9.999283e-05 0.06173598
0000b0 aa df 34 bd ae 5b 8b 3c be 48 01 3c 40 3b 43 bc
       -0.044158615 0.01701149 0.007890878 -0.011915982
0000c0 e7 73 d0 bc 86 c6 8b 3b ef 06 5f bc 12 6e 68 3c
       -0.025445892 0.004265609 -0.013612493 0.014186399
0000d0 23 ae 03 3c f6 a3 b0 3a 22 eb 00 3b 4d 4f 3d 3d
       0.008037123 0.0013476599 0.00196714 0.046218205
0000e0 dd 66 2a bd aa 13 78 bc ab 27 f4 b9 21 9f 51 bc
       -0.041602004 -0.015141407 -0.00046568862 -0.012794287
0000f0 9c 0a 1f 3d 3a ef fc bc 7f ea 16 bd a7 4c 03 bd
       0.038828477 -0.03087579 -0.036844727 -0.032055523
000100 47 0e a0 3c 35 e6 13 3d f5 bd 1d bc e0 d5 6b 3d
       0.019538058 0.036108214 -0.009627809 0.057577014
000110 56 e5 f1 bc 0f c9 01 bd b6 96 0b 3c 6d ea 81 3d
       -0.029528301 -0.031685885 0.008519819 0.06343541
000120 49 e4 2a 3d c2 55 f8 3c c9 e6 f3 3a cd e8 0b 3d
       0.041721616 0.03031433 0.0018608208 0.034157563
000130 9c 53 14 bd 17 a0 34 3a 79 1f a8 bc 71 0b 0e bc
       -0.03621255 0.00068903103 -0.02052282 -0.00866972
000140 d3 53 06 bd ff 4f ed 3b d8 60 8f bc 1e a7 3a 3d
       -0.032794785 0.0072422023 -0.017502233 0.04556953
000150 41 b5 6e 3c 28 14 ba bc 76 bd 20 bd 84 cf 79 3c
       0.0145695815 -0.02271469 -0.039243184 0.0152472295
000160 33 88 67 bb f4 11 9a ba ea 1a b2 3c 3f f8 5c bd
       -0.0035328984 -0.0011754618 0.02174135 -0.053947683
000170 27 a3 03 bd a9 0b 91 3c 1c 0f 5b bd 01 b4 e4 bb
       -0.032138016 0.017705755 -0.053481206 -0.006979466
000180 ce 27 b7 bb 36 b1 1c 3d 3e c9 ed bb 26 9c 9b bc
       -0.005589462 0.03825494 -0.007256656 -0.018995356

fc1.weight f4 [84, 100]
000000 cb d2 aa 3d dc 04 a2 3d 6f 6f a6 3d 80 b4 98 bc
       0.08340987 0.07911083 0.08126723 -0.018640757
000010 b1 b4 df bd 16 c6 a2 bc 75 87 b2 3d e7 bd 1e bd
       -0.10923136 -0.019869845 0.08717243 -0.038755324
000020 a8 2e c6 bc d2 f4 87 bd bb 74 18 bd f5 d8 53 bd
       -0.02419217 -0.06638493 -0.037220698 -0.05172058
000030 dc 8f 95 3d e0 d6 82 3b 50 8e d8 bc 36 78 42 bc
       0.073028296 0.0039929003 -0.026435047 -0.011869481
000040 7c a8 7d 3d 05 77 9e bc 97 51 44 be 78 ad 76 bd
       0.061928257 -0.019343862 -0.19171749 -0.060224026
000050 43 db d9 3d 53 b3 57 3d 38 7d 77 bd 0c af df 3b
       0.10637524 0.05266125 -0.060422152 0.006826287
000060 60 e7 4c bd e5 4c 60 bd 4b d7 08 3e ba 91 fb bd
       -0.050025344 -0.054760832 0.13363378 -0.122836545
000070 23 04 66 3b e9 94 d3 bd d1 0f 69 3d 9e db 1c bd
       0.003509768 -0.10331137 0.05689985 -0.03829538
000080 2e 25 5f bc 13 fe a5 3d 01 09 b7 bc f6 51 53 3d
       -0.013619704 0.081051014 -0.02234316 0.051591836
000090 01 5c ff 3c 9f a2 0c bd 39 4b 85 3d a0 9a 8a bd
       0.0311718 -0.034334775 0.06508488 -0.06767774
0000a0 ff a0 97 bc 61 51 5e bd 9d 86 72 bd 7f 79 85 bd
       -0.018509386 -0.054276828 -0.05921041 -0.06517314
0000b0 f5 fa ec 3c e5 52 7f 3d 65 b9 02 bd 4a 66 87 bc
       0.02892826 0.062334914 -0.031915087 -0.016528267
0000c0 0f 76 58 3c 5f 4e 40 bc 19 8d 2e bd 10 d1 cd bc
       0.013211741 -0.011737435 -0.04261503 -0.025124103
0000d0 f4 a8 91 3d ed 00 8b 3d 64 e8 51 bd 55 b0 cc bd
       0.071123034 0.06787286 -0.051247016 -0.0999457
0000e0 80 94 ac 3d 35 7b 3c 3d c6 be 63 bb 0e 77 ed bc
       0.084267616 0.046015937 -0.003475116 -0.028987434
0000f0 b8 91 1a bc 17 7f 79 bc 52 0c 9a 3d 12 62 0f 3d
       -0.009434156 -0.0152280545 0.07521881 0.035005637
000100 ff 42 2f 3e cb f0 fe 3d 47 4d 58 3d 55 7d 0b be
       0.171154 0.12448271 0.052808072 -0.13622029
000110 9c 10 d1 3d fa 72 bf 3a 22 f3 4a bd 55 9b 70 bd
       0.10208246 0.0014606409 -0.049548276 -0.058741886
000120 1f 7f 88 bb a4 1b 5b 3c 45 e3 cf 3d 08 d0 df 3d
       -0.0041655446 0.013373289 0.1015077 0.10928351
000130 49 f9 ca bd d6 16 c1 bd 5e 21 13 bd 4a 90 0e 3d
       -0.099108286 -0.09428184 -0.035920493 0.034805574
000140 db 37 05 be 0b 9a 3d 3d f6 f0 91 3d 4b b8 44 bd
       -0.13009588 0.046289485 0.07126038 -0.048027318
000150 2a 49 42 3c f4 94 99 bd d2 f8 5d 3d 24 5a 28 bd
       0.011858264 -0.07499114 0.05419237 -0.04110159
000160 e6 d6 c5 bc 8d 8a 08 3e 09 8b f6 3a 71 80 ab bc
       -0.024150323 0.13334103 0.0018809746 -0.02093527
000170 52 d7 0e be e6 fe bf 3d 35 fb 26 3d 87 46 97 3d
       -0.13949326 0.0937479 0.040766913 0.07386499
000180 24 6c 47 3c d4 46 14 bd 5d f1 2d 3c 39 ac 0d 3c
       0.012171779 -0.03620036 0.0106166275 0.008647018
000190 7a 2b 17 3e b2 37 1f 3e bd 31 b2 3c d9 90 39 3e
       0.14762679 0.1554859 0.021752233 0.18121661
0001a0 32 dd 04 bc 35 e2 1b be cc 2e fa 3d db d5 23 be
       -0.008109378 -0.1522301 0.12215957 -0.15999548
0001b0 70 ce 3d bd af 59 1f be 05 85 9c 3d 94 58 43 3d
       -0.046339452 -0.15561555 0.07642559 0.047691897
0001c0 f0 f7 d6 3d bf 3e ae bd dd 4b 56 bd 81 ef bc 3d
       0.10496509 -0.085080616 -0.052318443 0.09225369
0001d0 0f cc 96 3d cd 7e 32 3c 8c bc 6d bb 65 7a 9a 3c
       0.0736314 0.0108944895 -0.0036275713 0.01885719
0001e0 59 7f bd 3d a5 82 17 bd 76 53 95 3c 88 c2 0f 3e
       0.09252805 -0.036989827 0.018228274 0.14039052
0001f0 62 94 b1 bd c5 d3 49 bd 0b 6b 9d bd df 6f e4 3c
       -0.0867088 -0.049274225 -0.076864325 0.027885376
000200 88 45 2c bd 56 ce f2 3b 02 98 04 3e 42 5b 11 3d
       -0.042058498 0.007409851 0.12948611 0.03548742
000210 d0 7f e0 bd 73 e2 83 3d 3d 94 d3 bc bf 43 d0 3b
       -0.10961878 0.06439676 -0.025827521 0.006355732
000220 8c a1 5c bd 92 3b 95 3c 60 d7 c3 bd 8b 2c 3d bc
       -0.053865 0.018216882 -0.09562564 -0.011546264
000230 1f ff 8a bb 5e dc 18 3d c2 8a 4f be f9 87 8a 3d
       -0.0042418386 0.037319534 -0.20267776 0.06764216
000240 ca ae 35 3d d4 9e 2c bd a2 8e da 3c e4 8f ad 3c
       0.044356145 -0.042143658 0.02667934 0.021186776
000250 60 d1 d5 3d 80 2b dc 3d eb c2 dc 3d 99 14 37 3d
       0.10440326 0.107504845 0.10779365 0.044697378
000260 ff 9a e3 bc 95 d1 10 bd 0c 2c aa bd af fa 9b bd
       -0.027783869 -0.035356123 -0.083091825 -0.076161735
000270 93 6c 08 be c0 4e 49 bc cc 9f 05 3d 81 71 20 bd
       -0.13322668 -0.012286842 0.032623097 -0.039170746
000280 a7 26 a2 bc 5d 6c 8c 3d 3c 02 ab 3a fb be 90 bd
       -0.019793821 0.06856606 0.001304693 -0.07067677
000290 28 c2 2a bc 98 f9 1e bd e9 e7 13 bc f4 36 8d 3d
       -0.010422267 -0.03881225 -0.00902746 0.06895247
0002a0 f7 a2 0d bd 2b f7 a3 3d e0 45 a9 bd 41 6a b5 bd
       -0.034579244 0.08006128 -0.08265281 -0.08858157
0002b0 46 40 88 bd f3 59 19 bc 9a b6 1e 3e d9 53 8e 3d
       -0.06652884 -0.0093598245 0.15499344 0.069495864
0002c0 24 d2 09 be 76 75 ae bd 86 93 be bd eb 33 00 be
       -0.13459069 -0.08518498 -0.093054816 -0.12519805
0002d0 56 67 2b bd 0e 7a 18 3d 8d f2 bf ba 94 d7 0c be
       -0.041846596 0.037225775 -0.0014644429 -0.13754112
0002e0 2e 3c dc bd 6f 2f a2 bd 30 ce ed bc fe e5 e3 bc
       -0.10753666 -0.079192035 -0.029028982 -0.02781963
0002f0 b2 04 28 be 9e 56 13 3d be 98 71 3d fc 96 1f be
       -0.16408041 0.035971276 0.058983557 -0.1558494
000300 28 01 5f 3d 4a e2 0d bd 9d d2 8d 3d 7b 55 ce 3d
       0.054444462 -0.034639634 0.06924937 0.10074898
000310 65 76 03 bd a9 8f 1d 3d 7f 53 e6 bd b7 6e d7 3d
       -0.03209533 0.038467083 -0.11246394 0.10519164
000320 57 c9 be bd df e3 29 3d 16 5c 2f bd e9 18 a3 bd
       -0.09315746 0.04147708 -0.04281243 -0.079637356
000330 71 dd c1 bc c9 d5 2f 3d 3c 53 56 bd 85 09 e2 3d
       -0.023665162 0.04292849 -0.052325472 0.11036972
000340 36 d9 67 bc 1b 14 e7 bc 83 86 bd bc 98 ef b1 3d
       -0.014150908 -0.02820783 -0.02313543 0.08688277
000350 9e 4b 97 bd fe d6 93 bc b4 25 bd 3d dc dc ea bc
       -0.0738747 -0.018046852 0.09235707 -0.028669767
000360 d6 07 d2 3b c3 15 aa bc b5 db cb 3c cc 58 9a 3c
       0.0064096255 -0.02076233 0.024885038 0.01884117
000370 1b 67 cf bd 61 b3 26 3d ef a8 15 3c e1 74 39 bd
       -0.10127088 0.040698413 0.009134515 -0.04527748
000380 f0 18 2e bc c1 39 be 3d 5b 25 12 bd 2c df 41 bd
       -0.010626063 0.092883594 -0.035680156 -0.047331974
000390 5c 74 b6 3c 14 fe 12 3b 2f 4c 60 bd 62 9c 13 3e
       0.022272281 0.0022429274 -0.054760154 0.14415124
0003a0 89 0b b3 bd db d9 b1 3d 81 fc e4 3d e7 41 20 bc
       -0.087424345 0.08684131 0.11180974 -0.009781337
0003b0 44 e8 8a bd 67 aa 14 be b6 60 eb bd 7d 68 83 3d
       -0.067825824 -0.14518128 -0.114930555 0.06416414
0003c0 5e 4c 1a 3d bb 1b 82 3d 69 8d b6 3d 07 9e 9d 3d
       0.037670486 0.063529454 0.089136906 0.07696157
0003d0 1f 03 f1 bc 68 d3 a9 bd dd 97 aa bb c7 aa a3 bd
       -0.029420434 -0.08292276 -0.005206092 -0.079915576
0003e0 b1 72 ed 3a bf 68 8f bd 63 ff 8e bd 07 87 d3 3c
       0.0018115846 -0.070024006 -0.06982305 0.025821222
0003f0 53 f4 05 be a1 d2 84 bd db b6 f2 3d fc 1c a8 bd
       -0.13081484 -0.06485487 0.11851283 -0.08208653

fc1.bias f4 [84]
000000 c7 74 1a 3d db 87 1d 3d 58 df 62 bc 67 93 1b bd
       0.037709024 0.03845964 -0.013847195 -0.03798237
000010 51 d9 ba 3c b5 42 2c bd cd b4 40 bc e5 22 66 bd
       0.022808703 -0.042055804 -0.011761856 -0.05618562
000020 32 80 4e bc 54 68 dc 3d f4 f2 a2 bd f1 13 7e bd
       -0.012603806 0.107620865 -0.07956496 -0.062030736
000030 64 ef dd 3b 8a 5f 02 3d 25 b1 5b bd bf 43 95 bd
       0.0067729224 0.031829394 -0.053635735 -0.07288312
000040 3c 82 96 bc c6 bb 4c bd d8 0a b6 bc 1a f2 06 3c
       -0.018372647 -0.049983762 -0.022221968 0.008236432
000050 af 08 5a 3d f2 34 52 bd 82 39 12 3d 0e 5c 52 3c
       0.053230938 -0.051320024 0.035699375 0.01283933
000060 5a 85 de bc 86 06 4b 3d 0c 52 62 bd 7b 21 5b bd
       -0.027163196 0.049566768 -0.055254027 -0.053498726
000070 c9 ac 7b 3d cb b0 10 3d 4b 46 16 3b 4f 76 33 bd
       0.061444078 0.035324853 0.0022930081 -0.043814
000080 91 a7 2f bd 14 58 97 bd 1b fd 20 bc 86 0c 9e bc
       -0.042884413 -0.073898464 -0.00982597 -0.019293081
000090 f9 10 c1 bc fb 9d f1 3c cd 0e 25 3c 98 4d eb 3c
       -0.023567664 0.029494276 0.01007433 0.028723523
0000a0 86 b1 18 3d 08 04 5e 3c ec c6 6a 3d ab d9 03 bc
       0.037278675 0.013550766 0.057318613 -0.008047502
0000b0 e5 9b af bc b8 78 52 3d 1d 14 51 bc d3 bd 37 bd
       -0.021436641 0.051384658 -0.012761143 -0.044858765
0000c0 c3 17 3b bd 0b 61 a9 bc b9 5a 1b bd 2f 0f a4 bc
       -0.045676958 -0.020676157 -0.037928317 -0.020026771
0000d0 6a fc a0 3c f5 c3 3f bc a4 5e 51 3d d2 09 7b 3b
       0.01965161 -0.011704435 0.051115647 0.0038305414
0000e0 56 87 88 bd 3d ce 0e 3c ea d0 59 3b d9 02 13 3d
       -0.06666438 0.008716163 0.0033236095 0.035891388
0000f0 19 25 a6 bd b4 5a 70 3c e3 f0 89 3c 8b a8 be 3c
       -0.081125446 0.014670063 0.016838497 0.023273727
000100 33 68 f1 3c 07 8a 0e 3d be b2 82 bc 2c 36 b1 3c
       0.029468631 0.034799602 -0.015954372 0.021632276
000110 82 09 29 3d 61 cd 70 bd 52 81 2e bc 49 97 04 bd
       0.041268833 -0.058789615 -0.01065095 -0.03237084
000120 33 55 63 3c fd 63 4e 3b 95 90 e5 3c 25 51 57 3d
       0.013875294 0.0031492703 0.028023044 0.05256762
000130 a4 7a 12 3d 7c 93 fe bb cd 8e 1e bd d7 e8 6d bd
       0.03576149 -0.0077690464 -0.038710404 -0.05808338
000140 55 b7 87 bd 34 5b 3d 3d 92 cd 79 3d e4 c3 ce bd
       -0.06626765 0.046229556 0.060987063 -0.10095957

fc2.weight f4 [10, 84]
000000 05 1a 41 3e 1a 1e bc be f5 7f 81 3e db 09 88 be
       0.18857582 -0.36741716 0.25292936 -0.2657002
000010 f0 37 06 3e 4f bf b7 be fb 1d 60 3e b9 27 5c 3d
       0.13107276 -0.35888144 0.21886437 0.05374882
000020 bc 83 69 be fb 56 55 3e 0d 4e 33 3e 0e e7 b8 bd
       -0.22804159 0.20833962 0.17510243 -0.09028445
000030 87 08 fa bd ff 28 bc 3e 16 fc 11 be 9c d9 a4 be
       -0.12208658 0.36750028 -0.1425632 -0.32197273
000040 9f 03 98 3e 72 47 0e be 7d 10 a1 3e b4 e8 60 3e
       0.29690263 -0.13894442 0.31457892 0.21963769
000050 0d 76 7c 3e 00 e7 98 3e b5 3d c4 3e fc 22 5b 3e
       0.24654408 0.2986374 0.3832833 0.21400064
000060 5c 93 08 3b 31 bb a5 3e c1 7b dd 3b 00 21 8d be
       0.0020839786 0.32369378 0.0067591374 -0.2756424
000070 82 3e 3d 3e 37 d2 18 3e 85 98 68 bc 08 84 5d bd
       0.18480876 0.1492394 -0.01419652 -0.054080993
000080 a2 66 81 be 53 0d 52 be e7 ed b3 3e 1a 5a 5f 3e
       -0.25273615 -0.20512895 0.35142443 0.21811715
000090 34 36 63 be f9 01 5d 3e b8 a7 e3 3d dd 08 b1 be
       -0.22188646 0.21582784 0.11115974 -0.34577075
0000a0 73 af 4d 3e 94 70 96 be 2a da 8e 3e ec f4 6f 3e
       0.2008646 -0.29382765 0.2790082 0.23433274
0000b0 6e bf 99 3e 8c 08 62 be bd 0e aa 3e 62 c1 ac 3e
       0.30028862 -0.22073573 0.3321437 0.3374129
0000c0 45 4a 90 be d3 b3 8b bc 99 bb 85 bd 06 1d 78 3c
       -0.28181663 -0.01705352 -0.06529922 0.0151436385
0000d0 21 01 98 3e b8 b1 4d 3e 97 98 68 3e 03 04 a7 be
       0.2968836 0.20087326 0.22714458 -0.32620248
0000e0 5d 58 73 be 27 2b a3 be 27 72 2e 3d a1 8d 3d 3e
       -0.23764177 -0.3186886 0.042589333 0.18511058
0000f0 17 70 4b 3d 55 e6 a1 be f8 2a 8a be e7 1c a6 3e
       0.049667444 -0.31621042 -0.26985908 0.32443926
000100 f9 27 90 be 10 03 3b 3e 92 35 ee 3d 14 c4 d5 3c
       -0.28155497 0.18262887 0.116313115 0.026094474
000110 5e 5d 76 3e b9 98 6e be c1 8c 97 3e 3d e6 9f 3e
       0.24059054 -0.23300447 0.29599574 0.31230345
000120 ea 41 38 3e 67 44 11 3e 15 2b ae be be e2 f2 be
       0.17993894 0.1418625 -0.34017244 -0.47438616
000130 4a 85 ce 3e 23 4d b4 be bd 60 11 be 95 37 8b 3d
       0.40336066 -0.352151 -0.14197059 0.06797711
000140 e7 3e 09 be 99 15 ac 3e 37 fd 29 3e ff 2f 5f 3d
       -0.13402902 0.33610228 0.166005 0.054489132
000150 34 20 b3 3d bb a9 af bd 27 12 83 bd 08 5b 16 be
       0.08746377 -0.085772954 -0.06399947 -0.14683163
000160 fa fd eb 3e 0d 5c 0f 3e 3a 2c 9f be bd 66 89 be
       0.46092206 0.13999958 -0.3108843 -0.26836196
000170 1f 15 5f 3e 69 46 42 3e 77 5d 5d 3c bd be 39 be
       0.21785401 0.18972172 0.013511053 -0.18139167
000180 3d e0 3b 3e 32 a4 84 be ef b1 91 3e 77 56 9b be
       0.18347259 -0.2590652 0.28456065 -0.30339405
000190 15 f1 8c 3d a7 f1 2b bc 18 a3 9d bc 26 09 a3 be
       0.0688192 -0.010494626 -0.019242808 -0.31842917
0001a0 66 80 a1 3d 68 23 c9 be 8a c2 46 be a7 1e 24 3e
       0.07885818 -0.39284825 -0.19410148 0.16027318
0001b0 b7 cc cb be 69 89 c6 bd 3b 93 6a be 56 c3 3d 3d
       -0.39804623 -0.09694178 -0.22907726 0.046328865
0001c0 75 42 44 3e d9 16 29 3e 33 21 89 3e d9 39 a9 bb
       0.19165976 0.16512622 0.26783141 -0.0051643667
0001d0 be 61 b8 3e b9 ee e5 bd 30 23 4c bc 57 30 bb be
       0.3601207 -0.11227173 -0.012459561 -0.36560318
0001e0 31 a4 07 3e 3c 35 3d be 7f 08 0b be 7a 3c 9f be
       0.13246228 -0.18477339 -0.1357746 -0.31100827
0001f0 6b fa d9 be b6 1b a1 3e 27 10 31 3e e1 b3 e6 be
       -0.42573866 0.31466454 0.17291318 -0.45059112
000200 06 f5 99 be 70 98 9a 3e f9 a3 88 3e 4d d4 5a be
       -0.3006975 0.30194426 0.266876 -0.21370049
000210 69 0e f2 bd e6 e4 f4 3e 4a 22 8c be db c8 dd 3e
       -0.11819155 0.47830886 -0.2736991 0.43317303
000220 1c d3 07 3e 0d fb 81 3e 2b 31 95 be 16 fa 50 be
       0.13264126 0.2538685 -0.29139075 -0.204079
000230 e3 87 bf be 56 f2 84 3e 1e be d3 be ea 94 81 3e
       -0.3740836 0.25966138 -0.41355985 0.25308925
000240 e3 a7 7c be a5 a6 0c be 84 62 68 3e cf 6e 5d be
       -0.24673419 -0.13735445 0.2269383 -0.21624301
000250 ca b5 93 3e a9 bb 91 3b 34 8e 67 be d6 71 ce be
       0.28849632 0.0044474197 -0.2261284 -0.40321225
000260 4a 49 97 3e 4e 03 93 be f0 eb 3e 3e 83 68 13 3e
       0.29548103 -0.2871346 0.1864469 0.14395337
000270 42 0d 03 bf 3a ec ae 3e 21 65 b9 3d a9 d5 8e 3e
       -0.51192105 0.34164602 0.09052492 0.27897385
000280 7e e5 69 be 14 e0 66 3e 63 54 d6 bd 00 9d ac be
       -0.2284145 0.22546417 -0.10465314 -0.33713531
000290 b8 4a a3 3e c1 a2 73 3e fb e8 87 3d 59 e5 90 3d
       0.31892943 0.23792554 0.066362344 0.070749946
0002a0 30 9f e4 bd 8f a4 9b 3e f8 2d 6a 3e a0 1d 47 be
       -0.11163175 0.30398986 0.22869098 -0.19444895
0002b0 c2 1d 02 be fd fc 67 be 03 0e bc be c7 17 d7 be
       -0.12706664 -0.22655101 -0.3672944 -0.42010328
0002c0 f1 76 37 be 04 4b 09 3e 00 ad 8a 3e a9 d0 5c be
       -0.17916466 0.13407522 0.27085114 -0.21563973
0002d0 fc 03 6c 3e c5 6e c3 3e 25 f1 cb be 13 36 98 3e
       0.23048395 0.38170448 -0.39832416 0.29728755
0002e0 2e 9a 7e be 5f cd ef bd 81 9c a2 be f9 d2 1e 3f
       -0.24863502 -0.11709093 -0.31760028 0.6204067
0002f0 86 98 e7 3e 37 fa 9b be 46 e9 9c be 88 f6 73 3e
       0.45233554 -0.30464336 -0.30646724 0.23824513
000300 c2 f8 73 3e 15 ff 5a 3e 04 07 5f 3e 1a f7 c7 3e
       0.23825362 0.21386369 0.2178002 0.3905571
000310 f4 47 7f be e4 22 06 bf 0c 29 1c 3e 5c 07 a3 bd
       -0.24929792 -0.5239699 0.15250033 -0.07960388
000320 ad 18 26 be 6a 63 21 3f 66 b0 d7 bb 18 2b a9 3e
       -0.1622035 0.6304232 -0.0065823076 0.3304069
000330 72 47 dd bb e2 bd a2 bd 46 08 21 3e 5e ff 9a be
       -0.0067529017 -0.079463735 0.15725812 -0.30272955
000340 6d 65 cc 3e d6 db 93 3e 74 9d 87 3e 6e 4d 31 bd
       0.39921132 0.2887866 0.26487315 -0.043286733
000350 af 7a bd 3e 8e 30 42 3e 52 b8 29 be 4f 01 c0 be
       0.37007663 0.18963835 -0.16574219 -0.37500998
000360 8a 93 8e 3e 19 f8 8a bc ec 9b 17 3e a9 7f 76 bd
       0.27846938 -0.016964005 0.14805573 -0.06018034
000370 b6 42 63 3e 10 e0 86 3e 44 c9 b9 3e 2d 86 cc 3e
       0.22193417 0.2634282 0.36286366 0.39946118
000380 6a 66 bb be 56 2b c5 be 12 33 9c be 6a 46 06 3e
       -0.36601573 -0.38509625 -0.30507714 0.13112798
000390 eb 59 97 3d f4 9c 55 3d cf 12 86 be 1e 1b 57 be
       0.07390197 0.052151635 -0.26186225 -0.21006438
0003a0 06 69 ea bd de 44 68 be 23 44 3a be cf 03 08 bf
       -0.11445813 -0.22682521 -0.18190055 -0.5313081
0003b0 a2 e6 73 3e 81 88 66 be 5b 4c 03 3f 43 9f 6b 3e
       0.23818448 -0.2251301 0.51288384 0.23009972
0003c0 d8 8d 59 3e 63 bb 8b bd 13 86 33 3e 72 00 3a 3e
       0.21245515 -0.068228506 0.17531614 0.18164232
0003d0 3d d0 88 be 03 57 8d be fd 22 5d be 68 aa 61 be
       -0.26721373 -0.27605447 -0.21595378 -0.22037661
0003e0 52 da 5a be f6 29 b4 be 48 ad e6 3e 56 4a f9 bd
       -0.21372345 -0.35188264 0.45054078 -0.121723816
0003f0 bb a4 3a 3e f4 5d 4c 3e dc 2b 85 3e c9 17 61 be
       0.18226902 0.19957715 0.26010025 -0.2198173

fc2.bias f4 [10]
000000 6f 40 7e 3c 21 d4 fe 3d 2a c2 eb 3b f8 19 c6 bc
       0.015518292 0.12442804 0.007194777 -0.024182305
000010 2b 66 d9 bc 88 8d 95 bb 39 3f cc bd 85 fa aa bc
       -0.026537975 -0.004563991 -0.09972996 -0.02087141
000020 ff 92 c6 bd e9 b4 95 bb
       -0.09696006 -0.0045686853
